saved_models/generalist_BCE_1e-2_80.pth (torch_old, 167373 bytes, 8 tensors)

notes_encoder.weight f4 [64, 128]
0	0xbdab4681	-0.08363057
1	0xbd65a336	-0.056063853
2	0x3d5c12ba	0.053728797
3	0x3d8fea6b	0.070271336
4	0xbd9130d9	-0.07089395
5	0xbd5e3e49	-0.05425862
6	0x3c09a1b8	0.008400373
7	0xbd7bda3d	-0.061487425
8	0xbd7cbf9b	-0.061706167
9	0xbbaa6400	-0.005199909
10	0xbc7618f8	-0.015020601
11	0x3d707742	0.058707483
12	0xbda766d3	-0.08173909
13	0xbd05eeec	-0.032698557
14	0x3c3c3560	0.011487335
15	0x3d6773ce	0.056506924
16	0xbd5c6031	-0.053802673
17	0xbda85646	-0.0821958
18	0xbc92921c	-0.017891936
19	0x3c91e298	0.017808244
20	0x3d3b4676	0.045721494
21	0xbd6c3732	-0.057669826
22	0xbdab433e	-0.08362435
23	0x3c92cfe0	0.017921388
24	0xbdb456e7	-0.08805638
25	0x3bd7f070	0.0065899417
26	0x3d317056	0.043320023
27	0x3cba0310	0.022706538
28	0x3d77e1c2	0.060518034
29	0xbcc5733c	-0.0241028
30	0x3cca6030	0.024704069
31	0xbc599e40	-0.013282359
32	0xbd4c956c	-0.049947187
33	0x3cd1a28c	0.025590204
34	0xbe12f393	-0.14350729
35	0x3d16391e	0.036675565
36	0x3d024490	0.031803668
37	0x3becdf10	0.0072287396
38	0x3d27f201	0.041002277
39	0x3e32b903	0.17453389
40	0x3e5e1c63	0.21690516
41	0x3e15e615	0.1463855
42	0x3d839d0f	0.06426441
43	0x3e228155	0.15869649
44	0x3ead6385	0.3386499
45	0x3d8c89bd	0.06862209
46	0x3dfc5000	0.12319946
47	0x3e60de42	0.21959785
48	0x3e89e388	0.26931405
49	0x3e7669aa	0.24063745
50	0x3ea9a152	0.3313089
51	0x3dc63c27	0.09679442
52	0x3e248820	0.16067553
53	0x3e60ebc6	0.2196494
54	0x3e19ec02	0.15031436
55	0x3e2c5913	0.16830854
56	0x3e90d44c	0.2828697
57	0x3e478c17	0.19487034
58	0x3df8d802	0.12150575
59	0x3e4aba42	0.19797614
60	0x3e035996	0.12827143
61	0x3e7f3ebf	0.2492628
62	0x3e14272a	0.14468065
63	0x3e62d0ca	0.22149959
64	0x3e14aaf4	0.14518338
65	0x3e27c18f	0.1638243
66	0x3d75d1fd	0.060014714
67	0x3e705f84	0.23473936
68	0x3e8503a4	0.2597934
69	0x3ded5f8d	0.115904905
70	0x3e62d0ad	0.22149916
71	0x3e79877e	0.24368092
72	0x3e3ca6ae	0.18422958
73	0x3d21e0eb	0.03952114
74	0x3e42dbc7	0.19029151
75	0x3c141c37	0.00903993
76	0x3d18ca4c	0.0373023
77	0x3e32956c	0.17439812
78	0x3c874be8	0.016515687
79	0x3dcde630	0.100536704
80	0x3ccd2488	0.025041834
81	0x3de8559e	0.11344455
82	0x3dbb822e	0.09155689
83	0xbcda536f	-0.026651112
84	0x3d84a5f6	0.06476967
85	0x3de60e3c	0.11233184
86	0x3dda99f8	0.106738985
87	0x3dad003f	0.084473126
88	0x3daffdd8	0.08593339
89	0x3dfc0968	0.123064816
90	0xbda05cd8	-0.078302085
91	0x3d9896fd	0.07450674
92	0xbca76e9c	-0.020438485
93	0x3ce89f94	0.028396405
94	0x3bfd6e00	0.0077340603
95	0xbcc8e508	-0.024523273
96	0xbd96eb04	-0.073690444
97	0xbb545c20	-0.0032403544
98	0xbd4ff16b	-0.050767343
99	0x3d9bc695	0.07606236
100	0x3dac7959	0.08421583
101	0x3dac474d	0.08412037
102	0xbcd9d70e	-0.026591804
103	0xbd96c334	-0.07361451
104	0xbc692170	-0.0142291635
105	0x3d5d0a32	0.0539648
106	0xbd582233	-0.05276699
107	0x3d30afbe	0.04313635
108	0xbc05f550	-0.008176163
109	0xbc342ca8	-0.010996975
110	0xbd0ecf39	-0.03486559
111	0xbd4fc0d3	-0.050721
112	0x3d607d72	0.054807134
113	0x3ce46efc	0.027884953
114	0x3d313222	0.0432607
115	0xbd51d161	-0.05122507
116	0x3d38b1c6	0.045091413
117	0x3ceafb24	0.028684206
118	0x3d74abae	0.05973404
119	0x3d5cb8a6	0.053887032
120	0x3c597200	0.013271809
121	0x3dacc681	0.08436299
122	0x3b985480	0.004648745
123	0xbc89ba2c	-0.016812406
124	0x3c0d4260	0.008621782
125	0xbd39b0bc	-0.045334563
126	0x3d7952d2	0.06087
127	0x3cd69da4	0.026198216
128	0xbda75f81	-0.08172513
129	0x3d753f5a	0.05987487
130	0x3d8237a5	0.063582696
131	0x3bd5fae0	0.006530151
132	0xbdaeebbf	-0.08541059
133	0x3d9b61f3	0.07587042
134	0x3cc133b0	0.023584217
135	0xbd9604c8	-0.07325131
136	0x3bdfdc00	0.006831646
137	0xbcbe259c	-0.023211293
138	0x3d80758f	0.062724225
139	0xbbe106b0	-0.0068672523
140	0xbd0821a3	-0.033235203
141	0x3d3bcaba	0.045847632
142	0x3cb14420	0.02163893
143	0x3c4a3220	0.012341052
144	0xbd8e9521	-0.06962038
145	0xbda9c9bb	-0.0829043
146	0x3cda7208	0.026665702
147	0xba070f80	-0.0005152151
148	0xbc907384	-0.017633207
149	0xbbd988c0	-0.0066386163
150	0xbc525be0	-0.0128392875
151	0xbd0906a9	-0.033453617
152	0x3d41f63e	0.047353975
153	0xbcd5156c	-0.026011191
154	0xbcdd6a3c	-0.027028196
155	0xbd8ba552	-0.06818642
156	0x3c92a2d8	0.017899916
157	0xbcc8fc38	-0.02453433
158	0x3bae95c0	0.00532791
159	0xbd2c6845	-0.042091627
160	0x3d69775e	0.056998603
161	0xbccb626c	-0.024827205
162	0x3c2782db	0.0102240695
163	0x3ced49f4	0.028965928
164	0xbd0d8b71	-0.03455681
165	0x3b913340	0.0044311583
166	0x39d703ae	0.00041010737
167	0xbd51e45e	-0.05124318
168	0xbd50fb4a	-0.051020898
169	0xbdce8383	-0.100836776
170	0xbd878de4	-0.0661886
171	0xbe45c030	-0.19311595
172	0xbdb3a7d9	-0.08772249
173	0xbd56bc91	-0.052425925
174	0xbdf0fc2d	-0.11766849
175	0xbdb02572	-0.08600892
176	0xbde7daee	-0.113210544
177	0xbd012d69	-0.031537447
178	0xbda87974	-0.0822629
179	0xbe311dd2	-0.17296532
180	0xbc6a35b0	-0.014295027
181	0xbd25549f	-0.040363904
182	0xbd4d5f7d	-0.050139893
183	0xbdedd7dd	-0.11613438
184	0xbdea77e3	-0.11448648
185	0xbd8dd425	-0.06925229
186	0xbe2deabc	-0.16984075
187	0xbddae959	-0.10689039
188	0xbe1c7051	-0.1527722
189	0xbd76066c	-0.060064718
190	0xbd0a019c	-0.03369294
191	0xbcdb95bb	-0.026804795
192	0xbda62568	-0.081126034
193	0xbd5e4743	-0.05426718
194	0xbe38cc1c	-0.18046612
195	0xbe169059	-0.14703502
196	0xbd01274a	-0.03153161
197	0xbe258e0a	-0.16167465
198	0xbd9b5118	-0.07583827
199	0xbe2adbcc	-0.16685408
200	0xbdca28e0	-0.098710775
201	0xbe01510d	-0.12628575
202	0xbd22bb0a	-0.039729156
203	0xbd3e0c60	-0.04639852
204	0xbd352e22	-0.04423345
205	0x3c01dd0d	0.007926238
206	0xbe006806	-0.12539682
207	0xbddcc772	-0.10780229
208	0xbd36df44	-0.044646516
209	0xbe081fb1	-0.1329334
210	0xbd4f8b19	-0.050669763
211	0xbd4fa781	-0.050696854
212	0xbe0fefaa	-0.14056268
213	0xbcb19ce7	-0.021681262
214	0xbc027b1b	-0.007963921
215	0xbdb5ff1b	-0.08886548
216	0xbd027641	-0.031851057
217	0xbcac7921	-0.021053853
218	0xbd8d3964	-0.06895712
219	0x3d1ad066	0.0377964
220	0xbd09d394	-0.033649042
221	0xbcbbe3ec	-0.02293583
222	0xbcb32ef8	-0.021872982
223	0x3d9ab001	0.07553101
224	0xbd307086	-0.04307606
225	0x3cd70a90	0.026250154
226	0xbd1362ad	-0.035982776
227	0x3d8a4eb1	0.067532904
228	0x3c66ebe8	0.01409433
229	0x3d596ce2	0.053082354
230	0xbd576a0d	-0.052591372
231	0x3d815be3	0.06316354
232	0x3d38affa	0.0450897
233	0xbd560cad	-0.052258182
234	0x3d47f072	0.04881329
235	0x3d6867ba	0.056739546
236	0xbd24f747	-0.040274885
237	0x3d51ef5e	0.05125367
238	0xbd8755a1	-0.06608129
239	0xbca5135c	-0.020150833
240	0xbda6741e	-0.08127616
241	0xbac804c0	-0.0015260205
242	0xbd9c6334	-0.07636109
243	0x3d9fc565	0.07801322
244	0x3daea9c9	0.08528478
245	0x3cd64b0c	0.026158832
246	0xbccac99c	-0.024754338
247	0xbc2165c0	-0.009850919
248	0xbd7c1cc0	-0.061550856
249	0xbd0ffc8f	-0.035152968
250	0xbc020d28	-0.007937707
251	0xbd992d32	-0.074793234
252	0x3d36c55a	0.044621803
253	0x3d6bad1e	0.057538144
254	0xbcf0201c	-0.029312186
255	0x3c2ef730	0.010679051

notes_encoder.bias f4 [64]
0	0xbb52338f	-0.0032074188
1	0xbe27b150	-0.16376233
2	0xbe20afd9	-0.1569208
3	0x3e2d3578	0.16914928
4	0xbd87a260	-0.066227674
5	0xbe280e36	-0.16411671
6	0xbe45db34	-0.193219
7	0x3e020736	0.12698063
8	0x3e1f381d	0.1554875
9	0x3d5d14ac	0.053974792
10	0x3d1f6e1e	0.038923375
11	0x3da5a551	0.08088172
12	0xbcae3d6e	-0.021269526
13	0x3e103e8f	0.14086364
14	0x3db91d94	0.09038845
15	0xbe34f862	-0.17672876
16	0xbe310d86	-0.17290315
17	0xbe2a5e60	-0.16637564
18	0xbe10fe19	-0.1415943
19	0x3e1544f6	0.14577088
20	0xbe3705a6	-0.17873248
21	0xbe12aeee	-0.14324543
22	0x3df66996	0.12031858
23	0xbe567d5f	-0.20946263
24	0x3e472a9d	0.1944985
25	0x3e4e871c	0.20168728
26	0x3e49dd0d	0.1971323
27	0xbe4eca93	-0.20194463
28	0x3cb5e28e	0.022202756
29	0xbdd53c14	-0.104118496
30	0x3d8c0978	0.068377435
31	0xbe0ed03c	-0.13946623
32	0x3da13dbc	0.07873103
33	0x3e3e323b	0.18573849
34	0xbccdad5e	-0.025107082
35	0xbdf31725	-0.11869649
36	0x3cd74200	0.026276588
37	0x3e023f76	0.12719521
38	0x3e1b85ff	0.15187834
39	0xbdf11948	-0.117724
40	0xbd4f5982	-0.05062247
41	0xbe58e76b	-0.21182029
42	0x3d99b4a2	0.07505156
43	0xbe15f53e	-0.14644334
44	0x3d9c81e4	0.07641962
45	0xbdb78889	-0.08961589
46	0x3e246fe6	0.16058311
47	0x3e130aa5	0.1435953
48	0x3e0cc17e	0.13745686
49	0x3e2bc049	0.1677257
50	0x3d933575	0.071879305
51	0x3e15b478	0.14619625
52	0x3d98a186	0.07452683
53	0x3e0fe9bc	0.14054006
54	0x3e3224a7	0.17396794
55	0xbdd77ed3	-0.10522237
56	0x3e2992a9	0.16559853
57	0xbddc0d9a	-0.10744782
58	0xbe0b28f7	-0.13589846
59	0x3e2d3b47	0.16917144
60	0x3e356e99	0.17717971
61	0x3e10e112	0.14148358
62	0xbdf60ae7	-0.12013798
63	0xbe554132	-0.20825651

gru.weight_ih_l0 f4 [192, 64]
0	0x3d5898f0	0.052880228
1	0x3e5cf9e2	0.21579698
2	0x3e6dd8a6	0.23227176
3	0x3b5aeb75	0.0033404503
4	0x3c944e8f	0.018103866
5	0x3e32f4ae	0.1747615
6	0x3e0061ab	0.12537257
7	0xbb35f643	-0.0027765192
8	0xbe68988c	-0.22714442
9	0xbc28fd7d	-0.010314343
10	0x3d6d9a4a	0.05800847
11	0xbca35f66	-0.01994295
12	0x3d98c84f	0.07460081
13	0xbe3c0710	-0.18362069
14	0xbd5bed9f	-0.05369341
15	0x3d2cef82	0.0422206
16	0x3e53c6dc	0.20681328
17	0x3d1245ca	0.035711087
18	0x3e3b3878	0.1828326
19	0xbdd90202	-0.10596086
20	0x3de6f479	0.11277098
21	0x3e1308bb	0.14358799
22	0xbd335050	-0.043777764
23	0x3e26112e	0.16217491
24	0xbe600792	-0.21877888
25	0xbde4b83a	-0.11167951
26	0xbe2fbdfe	-0.1716232
27	0x3e27d310	0.16389108
28	0xbe11182a	-0.14169374
29	0x3e1fb587	0.15596591
30	0xbd1ec361	-0.038760547
31	0x3d1b36f2	0.037894197
32	0xbe34cf93	-0.17657308
33	0xbd4698a1	-0.048485402
34	0x3e03d7ef	0.12875341
35	0x3e1dab38	0.15397346
36	0xbd6c02bc	-0.057619795
37	0xbe2c0b49	-0.1680118
38	0xbe65f30a	-0.22455993
39	0x3d0fde97	0.035124388
40	0x3dee00d8	0.11621255
41	0x3dcd77a8	0.10032588
42	0x3d14f49e	0.036366098
43	0xbdc90ee5	-0.09817294
44	0xbb38ea7a	-0.002821593
45	0x3d365807	0.044517543
46	0xbe0468b0	-0.1293056
47	0xbbf77e97	-0.0075529325
48	0x3d8b8b29	0.06813652
49	0xbe5a0c94	-0.2129386
50	0xbde3bdf4	-0.11120215
51	0xbe024f58	-0.1272558
52	0x3d60729f	0.05479681
53	0xbe2f5c97	-0.17125164
54	0xbda7e4a1	-0.081979044
55	0x3d6e47d1	0.05817396
56	0xbe23a305	-0.15980156
57	0xbce0b179	-0.027428376
58	0x3decd670	0.11564338
59	0xbde28ba2	-0.11061789
60	0xbe77daf8	-0.24204624
61	0xbdc57747	-0.09641891
62	0x3dc3712e	0.09543072
63	0x3d144a91	0.036203925
64	0x3d2c65eb	0.042089384
65	0xbe68633a	-0.22694102
66	0xbda383bc	-0.07984111
67	0x3e241360	0.16023016
68	0xbe30d16f	-0.17267393
69	0xbe158cbc	-0.14604467
70	0xbd2fbe1c	-0.04290591
71	0x3e3455a2	0.17610791
72	0xb9ead9d0	-0.0004479424
73	0xbcb536ee	-0.02212092
74	0x3c5bebb2	0.013422893
75	0x3d819a87	0.06328302
76	0x3ca80188	0.020508543
77	0x3dc592b4	0.09647122
78	0x3b90dd23	0.004420893
79	0xbdd23e2d	-0.10265765
80	0xbbd11188	-0.0063802637
81	0x3c35876d	0.011079651
82	0x3b2488f4	0.0025106044
83	0x3e1125fd	0.14174648
84	0xbe520816	-0.20510897
85	0xbe5db391	-0.2165053
86	0xbce73a97	-0.02822618
87	0xbd4fc202	-0.05072213
88	0x3e5fd79f	0.21859597
89	0x3dfac032	0.122436896
90	0x3e004964	0.12527996
91	0xbdc0260a	-0.093822554
92	0x3e23fd67	0.16014634
93	0xbd8e9404	-0.069618255
94	0x3e3830c7	0.17987357
95	0xbdf9997f	-0.1218748
96	0xbd15bb42	-0.036555536
97	0x3d03d58d	0.03218608
98	0xbd164ad8	-0.03669247
99	0xbd89c0b5	-0.06726209
100	0x3dde21ea	0.10846312
101	0x3e425b9b	0.18980257
102	0x3dc831c8	0.0977512
103	0xbe21b79d	-0.15792699
104	0xbe216b3d	-0.15763564
105	0xbdf36e54	-0.11886278
106	0x3d86bdbe	0.06579159
107	0x3c941f86	0.018081438
108	0x3e2bce4e	0.16777918
109	0x3dc56fe8	0.09640485
110	0x3ddce92e	0.10786663
111	0x3e147a86	0.14499864
112	0x3e239c9b	0.15977709
113	0x3e199a5b	0.15000288
114	0x3d8862f7	0.06659501
115	0x3e10028b	0.1406347
116	0xbd2bf73b	-0.041983824
117	0x3de6509a	0.11245842
118	0x3d02b995	0.031915266
119	0xbe0a629d	-0.1351418
120	0x3c5a866d	0.013337714
121	0xbdb52f0e	-0.088468656
122	0xbd323d28	-0.043515354
123	0xbb2b43bd	-0.0026132904
124	0x3e5eef47	0.21770965
125	0x3db2ba5f	0.08726954
126	0xbd82aa4a	-0.06380136
127	0xbde97aea	-0.11400397
128	0x3e70d6b5	0.23519404
129	0xbdc160eb	-0.09442314
130	0xbe47d4c4	-0.19514757
131	0x3e0faffe	0.1403198
132	0xbe1a6fc8	-0.15081704
133	0x3ccc7440	0.024957776
134	0xbc878988	-0.016545072
135	0x3e2acbdd	0.1667933
136	0x3dbf29ba	0.093341306
137	0x3e5334c1	0.20625593
138	0xbdfb237d	-0.12262628
139	0x3e239647	0.15975295
140	0xbd143bdd	-0.036189903
141	0xbce4e50c	-0.02794125
142	0xbacc99f8	-0.0015609851
143	0xbd342de5	-0.04398908
144	0xbdb3e64c	-0.0878416
145	0xbcae7924	-0.021297999
146	0x3d0b9051	0.034073178
147	0x3e0b9370	0.13630462
148	0x3caeb6cd	0.0213274
149	0xbe43cfa5	-0.19122179
150	0x3dd79407	0.10526281
151	0xbe42bf2a	-0.19018236
152	0x3de33b92	0.110953465
153	0x3d510f6d	0.0510401
154	0x3deeebd1	0.11666072
155	0xbdd56359	-0.1041934
156	0x3d771252	0.060320206
157	0xbcf93f07	-0.030425562
158	0x3e514dd7	0.2043985
159	0xbe39a78e	-0.18130323
160	0x3e203b40	0.15647602
161	0xbc7ad580	-0.015309691
162	0xbd43305d	-0.047653545
163	0xb9f9f73a	-0.0004767718
164	0x3e5dc3a9	0.2165667
165	0x3d388732	0.045050807
166	0x3e053af7	0.13010775
167	0xbe0f2bbc	-0.13981527
168	0x38762a37	5.8690286e-05
169	0xbe442ce7	-0.19157754
170	0x3cd520db	0.026016643
171	0xbdfbb4aa	-0.12290318
172	0x3d1c0f07	0.03810027
173	0xbdb91160	-0.09036517
174	0x3c1fd167	0.009754515
175	0x3d641bc5	0.055690546
176	0xbe0142d3	-0.12623148
177	0x3d933046	0.07186942
178	0x3db0c1ab	0.08630689
179	0x3e484af4	0.19559842
180	0x3e35666f	0.17714857
181	0x3deaf403	0.11472323
182	0x3e1ed9c7	0.15512763
183	0xbc9b9d98	-0.018996045
184	0x3e33f9b2	0.1757572
185	0xbdae0f40	-0.084990025
186	0x3d037a0c	0.032098815
187	0x3e349876	0.17636284
188	0x3db8c72a	0.090223625
189	0x3d84c294	0.06482425
190	0xbd5cda7c	-0.0539193
191	0xbe17e8ae	-0.14834854
192	0x3e1b369f	0.15157555
193	0xbdf459bc	-0.11931178
194	0xbccdfe08	-0.025145546
195	0x3d2367a0	0.039893746
196	0xbe5b09f2	-0.21390513
197	0xbc571601	-0.013127805
198	0xbe05ed92	-0.13078907
199	0x3e27bc89	0.16380514
200	0x3e40420e	0.18775198
201	0x3dbaa795	0.09113995
202	0xbda2b591	-0.07944787
203	0x3dffc41a	0.12488575
204	0x3e5b4c39	0.21415795
205	0x3e0d0ad3	0.1377366
206	0x3c969e8a	0.018386144
207	0xbe0d8470	-0.13820052
208	0xbe2e4514	-0.17018539
209	0xbde8fc48	-0.11376244
210	0xbccaf9a4	-0.024777241
211	0x3d6d5c78	0.057949513
212	0xbe47bdda	-0.19506016
213	0xbd550b02	-0.05201245
214	0x3dbe2e84	0.09286216
215	0x3cf1adff	0.029501913
216	0x3db7751f	0.08957886
217	0x3bf99210	0.007616289
218	0xbd045c08	-0.03231433
219	0xbb92b0cf	-0.0044766436
220	0x3e00907f	0.12555121
221	0xbdd343b3	-0.10315647
222	0x3e4e3835	0.20138629
223	0xbd95e5e2	-0.07319237
224	0x3dc0e506	0.09418683
225	0x3e443a0e	0.19162771
226	0xbdb91b0c	-0.09038362
227	0xbcbd216d	-0.023087228
228	0x3e6469e0	0.22306013
229	0x3dd127d1	0.102126725
230	0x3e2e9f3b	0.17052929
231	0xbd38a802	-0.0450821
232	0xbdd7c637	-0.10535853
233	0xbe11a13c	-0.14221662
234	0x3e1b5473	0.15168934
235	0xbde58c25	-0.11208371
236	0x3e13daa7	0.14438878
237	0xbdae7663	-0.08518674
238	0x3de6c437	0.11267894
239	0x3c169e32	0.00919299
240	0xbe0c192e	-0.1368148
241	0x3daa599e	0.08317874
242	0x3bf9a47a	0.007618484
243	0x3e426db9	0.18987168
244	0x3ad3303b	0.0016112396
245	0x3cd47451	0.02593437
246	0x3cc4361a	0.023951579
247	0xbe0e12d7	-0.13874374
248	0x3debbc8a	0.1151057
249	0xbe3e4a1d	-0.1858296
250	0xbe55b9ab	-0.20871608
251	0xbcc8190e	-0.02442601
252	0xbd00ba9d	-0.03142797
253	0x3e2d2ecf	0.16912387
254	0xbe02f66d	-0.12789316
255	0xbd8259b8	-0.06364769

gru.weight_hh_l0 f4 [192, 64]
0	0x3ccd34b1	0.02504954
1	0xbd30ce29	-0.04316536
2	0xbe0db56c	-0.13838738
3	0x3e4e3530	0.20137477
4	0x3d8d3335	0.068945326
5	0xbe10c954	-0.141393
6	0xbdb37bae	-0.087638244
7	0x3e1c700c	0.15277117
8	0x3e77cecb	0.24199979
9	0xbd39a224	-0.045320645
10	0xbd8f5475	-0.06998531
11	0x3dfde7a9	0.12397701
12	0x3b98fad5	0.0046685734
13	0xbe632f4e	-0.22186014
14	0x3c513eae	0.012771292
15	0xbd56013c	-0.05224727
16	0x3d6a16b3	0.057150554
17	0x3e666925	0.22501047
18	0xbdcf1fda	-0.10113497
19	0xbd0083f4	-0.03137584
20	0x3e1d11f4	0.1533888
21	0xbe2590e1	-0.16168548
22	0xbe249edf	-0.1607623
23	0xbe31ec4b	-0.17375295
24	0x3b603bf6	0.0034215427
25	0x3e1daffb	0.15399162
26	0xbe28be49	-0.16478838
27	0x3db920e9	0.0903948
28	0x3c4cee69	0.012508013
29	0x3e4ee840	0.20205784
30	0xbe1f399c	-0.1554932
31	0xbe3bccd5	-0.18339856
32	0x3bad5a97	0.00529034
33	0x3e6a11f5	0.22858413
34	0xbcfe141f	-0.031015454
35	0xbceb5031	-0.028724762
36	0xbe39bf3c	-0.18139356
37	0x3e219391	0.15778948
38	0xbbda8b41	-0.0066694324
39	0x3dffcdb7	0.12490409
40	0x3da61031	0.08108557
41	0xbe0e553b	-0.138997
42	0x3d831128	0.06399757
43	0xbe1474cd	-0.14497681
44	0x3e2714b3	0.1631649
45	0x3d8ea1d7	0.06964462
46	0xbdaab2ba	-0.08334871
47	0xbda39f6d	-0.079893924
48	0x3b88e2c6	0.004177424
49	0x3e2b37ab	0.16720454
50	0xbe5789a6	-0.21048602
51	0x3e1cd0f2	0.15314081
52	0x3df95ef1	0.12176312
53	0x3d5a5fa1	0.053313855
54	0xbd876f12	-0.06612982
55	0x3e40c8cc	0.18826598
56	0xbb81fd92	-0.0039669955
57	0xbd84006f	-0.06445395
58	0x3e119371	0.142164
59	0x3c4da3dd	0.012551275
60	0xbdc347f3	-0.095352076
61	0xbdd303e9	-0.1030348
62	0xbd217ec6	-0.03942754
63	0xbe00f38f	-0.1259291
64	0xbd2cb3cb	-0.04216365
65	0x3d3649a9	0.04450384
66	0x3d8e59e4	0.06950739
67	0xbdc766d4	-0.0973641
68	0x3c87b97b	0.016567936
69	0x3dce99c3	0.100879215
70	0x3e580ffb	0.21099846
71	0xbce3c83d	-0.027805442
72	0xbd69a3ee	-0.0570411
73	0x3e1e7572	0.1547449
74	0x3d9c3cc0	0.07628775
75	0xbdc33e3b	-0.09533354
76	0x3dbf3feb	0.09338363
77	0x3dc65e27	0.09685927
78	0xbe181891	-0.14853121
79	0x3d9811eb	0.074252926
80	0x3aebc3f9	0.0017987482
81	0xbe2c2c98	-0.16813886
82	0x3d3a39bb	0.045465212
83	0xbe2ac817	-0.1667789
84	0xbd9c358e	-0.07627402
85	0x3e639f7e	0.2222881
86	0x3e32c8e7	0.1745945
87	0x3d5c28a0	0.05374968
88	0xbc8dd393	-0.0173128
89	0xbe0620af	-0.13098405
90	0x3da26256	0.07928912
91	0xbd7e32ab	-0.06206004
92	0xbde84924	-0.113420755
93	0xbdbba826	-0.09162931
94	0xbd229da8	-0.039701134
95	0x3e0689bb	0.13138478
96	0xbe19a314	-0.15003616
97	0xbd90de05	-0.07073597
98	0x3cb34962	0.021885578
99	0x3e5088ee	0.20364735
100	0x3e559d26	0.20860729
101	0xbde80ba5	-0.11330346
102	0xbe379987	-0.1792966
103	0x3b10d8d9	0.0022101908
104	0xbe634841	-0.22195531
105	0xbbdbf612	-0.0067126835
106	0xbe510621	-0.20412494
107	0x3e413fb5	0.18871959
108	0xbd26b3b6	-0.04069873
109	0xbda0c1fd	-0.078495
110	0x3e266e56	0.16253027
111	0x3d891237	0.06692927
112	0xbd63028b	-0.055422347
113	0xbdb0ca7e	-0.08632372
114	0xbd2fa47c	-0.042881474
115	0xbddfff13	-0.109373234
116	0xbc9a759a	-0.018854905
117	0x3cd43685	0.025904903
118	0x3e1dcb7e	0.15409657
119	0xb9b02407	-0.00033596178
120	0xbe1ddb80	-0.15415764
121	0xbe02986a	-0.12753454
122	0xbe360304	-0.17774588
123	0x3d7699e7	0.060205366
124	0x3d52a98e	0.05143123
125	0x3e519f53	0.20470934
126	0xbaac2d97	-0.0013136145
127	0x3e450bc1	0.19242765
128	0xbe8ac4e6	-0.27103347
129	0x3dbf65a6	0.0934556
130	0xbdd95e69	-0.106137104
131	0x3c51af6f	0.012798174
132	0xbe3f46e7	-0.18679391
133	0x3e28d6e3	0.16488223
134	0xbc31f44a	-0.010861466
135	0xbcedb7c7	-0.029018296
136	0xbe6a177b	-0.2286052
137	0x3db05434	0.086098105
138	0x3da4014a	0.08008058
139	0x3e11316e	0.14179012
140	0x3e5a5126	0.21320018
141	0xbbe00e55	-0.006837646
142	0xbe76490f	-0.24051307
143	0x3e2c858d	0.1684782
144	0xbde6a4dc	-0.11261913
145	0xbe2e389c	-0.17013782
146	0x3de84332	0.113409415
147	0xbcb18445	-0.021669516
148	0xbcb4fc1f	-0.022092877
149	0x3d80455b	0.062632285
150	0x3e0dcb5b	0.13847105
151	0x3d795ccd	0.060879517
152	0xbe584c1d	-0.21122785
153	0xbe6f2e34	-0.23357469
154	0x3d9cbfb6	0.076537535
155	0xbdccc1d2	-0.09997906
156	0xbe44dc7a	-0.1922473
157	0xbdf7f609	-0.12107474
158	0x3e62962f	0.22127603
159	0x3df578ca	0.11985929
160	0xbdb7a930	-0.08967817
161	0xbe672986	-0.22574434
162	0x3dbec5fd	0.09315107
163	0xbcaf1768	-0.021373466
164	0x3e5902fc	0.21192545
165	0xbe2c53e7	-0.16828881
166	0xbe233862	-0.15939477
167	0xbb8e74a2	-0.0043474
168	0xbd63e853	-0.055641484
169	0x3d519401	0.05116654
170	0xbdcb29fd	-0.09920118
171	0x3d9c7058	0.07638615
172	0xbd00c0c2	-0.03143383
173	0xbd7777a0	-0.060416818
174	0x3e4b0a2e	0.19828102
175	0x3d4eeacc	0.05051689
176	0x3e39191e	0.18075988
177	0x3c8fa596	0.017535012
178	0x3e0b1fe7	0.13586389
179	0xbe655b40	-0.2239809
180	0xbdc56ae1	-0.09639526
181	0xbdd8f050	-0.10592711
182	0xbc431c07	-0.011908538
183	0xbde8f383	-0.11374571
184	0xbe0af3f2	-0.1356962
185	0x3e59a5ef	0.21254705
186	0xbe0f4959	-0.13992824
187	0xbcc1b404	-0.023645408
188	0x3d6aba76	0.05730673
189	0xbc48b672	-0.01225053
190	0x3e7ac0fd	0.24487682
191	0x3d91cb6a	0.07118876
192	0xbe0e5b1e	-0.13901946
193	0x3dc5f044	0.09664968
194	0xbe13dafa	-0.14439002
195	0xbe26092f	-0.16214441
196	0x3c414297	0.011795661
197	0x3e0e9a4c	0.13926047
198	0x3e3097cb	0.17245404
199	0x3ca005c1	0.019533994
200	0xbbfd7017	-0.0077343094
201	0xbc88fefc	-0.016723149
202	0x3c3b6a12	0.011438863
203	0xbba569f3	-0.0050480305
204	0x3e4ed7ee	0.20199558
205	0xbc7e6152	-0.015526133
206	0xbe060fc8	-0.13091958
207	0x3e3c3d48	0.18382752
208	0xbd127b0f	-0.03576189
209	0x3ca8ce4a	0.020606179
210	0x3e28c684	0.16481978
211	0xbe46b189	-0.19403662
212	0xbb21ddd6	-0.0024698875
213	0x3e3e7f7b	0.18603317
214	0x3d43d29f	0.047808286
215	0x3e13c522	0.14430669
216	0x3d0e7cd0	0.034787
217	0xbc2e5a25	-0.010641609
218	0x3d98685e	0.074417815
219	0xbd817afd	-0.06322286
220	0xbb247692	-0.0025095087
221	0xbd074fa8	-0.03303495
222	0x3d9b172d	0.0757278
223	0x3dc87544	0.09787992
224	0xbe1ef5db	-0.15523474
225	0x3c2e0e0d	0.010623467
226	0x3e3147fe	0.17312619
227	0xbc195e26	-0.009360826
228	0x3e51b512	0.20479229
229	0xbc12b0d5	-0.008953293
230	0xbd38c7a7	-0.04511228
231	0xbe4866f2	-0.1957052
232	0xbe1261b7	-0.14295088
233	0x3e21ce7c	0.15801424
234	0xbdcc1d4f	-0.09966528
235	0x3e12f6a5	0.143519
236	0xbe15d1b6	-0.1463078
237	0xbe3d1988	-0.1846677
238	0xbce8a93f	-0.028401015
239	0x3d73cc38	0.05952093
240	0x3da910bf	0.08255147
241	0xbdb82a06	-0.0899239
242	0x3e0d4688	0.13796437
243	0x3b7dc806	0.003872396
244	0xbe3cab26	-0.18424663
245	0xbe73a2f1	-0.23792626
246	0x3d49a155	0.049226124
247	0xbd40674e	-0.04697352
248	0xbdc0fdd8	-0.09423417
249	0x3dadf4c9	0.08493955
250	0xbda32571	-0.07966126
251	0xbdc56c89	-0.09639842
252	0x3dc78d79	0.09743781
253	0x3e3950ac	0.1809718
254	0x3e03413e	0.12817857
255	0x3ca40646	0.020022523

gru.bias_ih_l0 f4 [192]
0	0xbe4a36b4	-0.1974743
1	0x3e1674e4	0.14693028
2	0xbd0e39e8	-0.034723192
3	0x3e25e4a0	0.16200495
4	0x3c6f0666	0.014588928
5	0x3dc081c8	0.09399754
6	0x3d9c0153	0.0761744
7	0x3da8ca0c	0.082416624
8	0x3d9de7e4	0.07710245
9	0x3df37d72	0.11889161
10	0x3d900d56	0.07033794
11	0xbdfbbab1	-0.12291468
12	0x3e040c48	0.1289531
13	0x3e589da8	0.21153891
14	0x3ddec9ed	0.10878358
15	0x3e14500f	0.14483665
16	0x3e3bd222	0.18341878
17	0x3d8bc725	0.06825093
18	0xbd89de9c	-0.067319125
19	0x3e1d4828	0.15359557
20	0x3d299f23	0.04141153
21	0x3df3b62a	0.118999794
22	0x3e1f018c	0.15527934
23	0x3e115075	0.14190848
24	0x3dc3b005	0.095550574
25	0x3d3c0c36	0.045910083
26	0xbd0a01ed	-0.033693243
27	0x3c2f67cb	0.0107058985
28	0x3e3db390	0.18525529
29	0x3babf7ff	0.0052480693
30	0x3d21fd29	0.039548073
31	0x3d899374	0.067175776
32	0x3e368cd5	0.1782716
33	0x3dd7e807	0.105423026
34	0x3e1d25a4	0.1534639
35	0xbd645ad7	-0.055750694
36	0x3dda12b5	0.10648099
37	0x3d4495cc	0.04799442
38	0x3df4537f	0.11929988
39	0x3e722f46	0.23650846
40	0x3e36fb5b	0.17869322
41	0x3cb5faa0	0.022214234
42	0x3d7e1358	0.062030166
43	0xbcc428c4	-0.02394522
44	0x3d6fdfd8	0.058563083
45	0xbc101096	-0.008793017
46	0xbd140ea7	-0.036146786
47	0xbd009e64	-0.031401053
48	0xbce9d330	-0.028543085
49	0x3d40745f	0.04698598
50	0x3ddf9b98	0.10918349
51	0x3e6c140e	0.23054525
52	0x3e23cb8a	0.15995613
53	0x3d015894	0.031578615
54	0x3e1200a4	0.14258057
55	0x3d933027	0.07186919
56	0xbcc81f0e	-0.02442887
57	0xbe1fedba	-0.15618029
58	0x3e3a4b6a	0.1819283
59	0xba2edbdc	-0.0006670335
60	0x3db8afb9	0.090178914
61	0x3b8a8a03	0.004227878
62	0x3dff5b2b	0.12468561
63	0xbcc1160c	-0.023570083
64	0xbe45e375	-0.19325049
65	0x3d3148f3	0.04328246
66	0x3ebfd9c7	0.37470838
67	0x3e385da9	0.18004479
68	0xbde3caa9	-0.11122639
69	0xbe0bd90b	-0.13657014
70	0x3c0249b1	0.00795214
71	0xbd1e1585	-0.03859474
72	0x3dc46ad4	0.09590688
73	0xbe90a319	-0.28249434
74	0xbd8949cd	-0.067035295
75	0xbe1e7be5	-0.1547695
76	0xbe848351	-0.25881436
77	0xbe2bb9da	-0.16770115
78	0xbd59d995	-0.053186018
79	0xbe20e693	-0.15712957
80	0x3d500ae5	0.05079164
81	0xbdfe1954	-0.12407175
82	0xbd2f4c41	-0.04279733
83	0xbda216ea	-0.07914527
84	0x3e57567a	0.21029082
85	0x3cb8ba72	0.022549842
86	0x3c079c2b	0.008276979
87	0xbe0ed11d	-0.13946958
88	0xbcaa86c4	-0.020816214
89	0xbcd2e060	-0.025741756
90	0xbc84b8da	-0.016201425
91	0x3de39a43	0.111134075
92	0xbc0d97ae	-0.00864212
93	0x3ca30daf	0.019903986
94	0xbd34f3a2	-0.04417766
95	0xbe75b377	-0.23994242
96	0x3e0956f5	0.13412078
97	0xbcc24262	-0.023713294
98	0x3e2fe7af	0.17178224
99	0xbe3c7d7d	-0.18407245
100	0xbe2a8dc3	-0.1665564
101	0xbe309e4d	-0.17247887
102	0x3cd1c2ad	0.025605524
103	0x3e81d433	0.25357208
104	0xbdddc501	-0.10828591
105	0x3df649e1	0.1202581
106	0x3c89f76a	0.016841609
107	0x3d682a76	0.05668112
108	0x3cf0cd8b	0.029394886
109	0xbd1458f2	-0.036217637
110	0xbcb39ca0	-0.02192527
111	0x3d2dc116	0.04242047
112	0xbdeb717e	-0.11496256
113	0x3d9e268d	0.07722197
114	0x3dd8bdff	0.10583114
115	0xbd974414	-0.07386032
116	0xbe2f2477	-0.17103754
117	0x3d8d446a	0.068978146
118	0x3d9767c2	0.07392837
119	0xbdb5c667	-0.08875733
120	0xbd902a69	-0.07039339
121	0xbc3fcc51	-0.011706428
122	0x3e067f34	0.13134462
123	0x3e2f8739	0.17141427
124	0xbe394e91	-0.18096377
125	0xbd39d1f3	-0.04536624
126	0xbd852610	-0.065014005
127	0x3dc05e68	0.093930066
128	0xbe017ac4	-0.12644488
129	0x3de0b283	0.109715484
130	0x3c94d3b2	0.01816735
131	0xbe07dcb0	-0.1326778
132	0xbe2c964c	-0.16854209
133	0x3e14bb76	0.14524636
134	0x3de1bf99	0.110228725
135	0xbe541c6e	-0.2071397
136	0xbe271ee4	-0.16320378
137	0x3e2e6fc1	0.17034818
138	0x3e645bd6	0.22300658
139	0x3ce85d63	0.028364843
140	0x3e1f34da	0.15547505
141	0x3e1275fb	0.14302818
142	0xbe2b764a	-0.16744342
143	0x3e1b6e3b	0.15178768
144	0xbe29baa8	-0.1657511
145	0xbe2359b8	-0.15952194
146	0x3ca10265	0.019654462
147	0x3c3576de	0.011075703
148	0xbe32205a	-0.17395154
149	0x3e29d4ff	0.16585158
150	0x3e48a3b8	0.19593704
151	0x3e3cdbe5	0.18443258
152	0xbe09213b	-0.13391583
153	0x3cfa34d4	0.030542769
154	0x3e0d3ec9	0.13793482
155	0xbe5f5bb9	-0.21812333
156	0xbe42a18e	-0.1900694
157	0xbe0b1d1d	-0.13585325
158	0x3e26ecb9	0.1630124
159	0x3e4dbbc2	0.20091155
160	0xbe83b24a	-0.2572196
161	0xbe73fe06	-0.23827371
162	0xbc39dad2	-0.011343675
163	0x3e4ed206	0.20197305
164	0x3e1c2056	0.1524671
165	0xbe19656a	-0.14980093
166	0xbe16f89b	-0.14743273
167	0xbd113a56	-0.035456024
168	0xbe450117	-0.19238697
169	0x3dadb41d	0.084816195
170	0xbc550d7e	-0.013003705
171	0x3e386920	0.18008852
172	0xbe12455d	-0.14284272
173	0xbe2b8e72	-0.16753557
174	0x3e6d0671	0.23146988
175	0x3d26fd98	0.04076919
176	0x3deb11bb	0.11477991
177	0xbcfca013	-0.030838048
178	0x3e0b9983	0.13632779
179	0xbdf74405	-0.120735206
180	0xbe69e8d9	-0.2284273
181	0xbd8fd948	-0.07023865
182	0x3e369e9a	0.17833939
183	0xbe60840f	-0.21925376
184	0xbe027241	-0.12738897
185	0x3df6a292	0.120427266
186	0xbdfba274	-0.12286845
187	0xbd5e72d5	-0.05430873
188	0x3dcdde45	0.1005216
189	0x3e5e5d9d	0.21715398
190	0x3e3f0f64	0.18658215
191	0x3e632fc3	0.22186188

gru.bias_hh_l0 f4 [192]
0	0xbdf9398b	-0.121691786
1	0x3e51b3fd	0.20478816
2	0x3cc0efba	0.02355181
3	0xbb6dda25	-0.0036293354
4	0x3e07fcc8	0.13280022
5	0x3e482fd6	0.19549498
6	0x3da69a0e	0.08134852
7	0x3db9d387	0.09073549
8	0x3e498ec1	0.19683363
9	0x3dce5374	0.10074511
10	0x3d54feab	0.052000683
11	0xbd038e95	-0.0321184
12	0x3e0f786b	0.1401078
13	0x3d698071	0.057007257
14	0x3e1f5f56	0.15563712
15	0x3d62c686	0.055365108
16	0x3e4eac06	0.20182809
17	0x3dbffd96	0.093745396
18	0xbe2b6353	-0.16737108
19	0x3e230c0a	0.15922561
20	0xbde28cff	-0.11062049
21	0x3d8207db	0.063491546
22	0x3baab93a	0.005210069
23	0x3e365238	0.17804801
24	0x3e056c33	0.13029556
25	0x3d6392ca	0.05555991
26	0x3e36a338	0.178357
27	0x3d554a6c	0.052072927
28	0x3cd78be5	0.026311824
29	0x3e081f5f	0.13293217
30	0xbb3e3c6e	-0.0029027718
31	0x3e174030	0.1477058
32	0xbc6adc24	-0.014334712
33	0x3e69c53c	0.22829145
34	0x3d4c7064	0.04991187
35	0x3bf5cc03	0.0075011267
36	0x3e57d052	0.21075562
37	0x3e403efa	0.18774024
38	0x3e0576e6	0.13033637
39	0x3df15ef8	0.11785692
40	0x3dd48023	0.10376003
41	0x3e25e753	0.16201524
42	0x3cf7e6ad	0.030261362
43	0x3d8ee3fd	0.06977079
44	0x3e38aec3	0.18035416
45	0x3c7cb38e	0.015423669
46	0x3a37a796	0.0007005868
47	0xbcb6d845	-0.022319922
48	0xbd7557f8	-0.059898347
49	0xbbd581f2	-0.006515735
50	0x3e3b4958	0.18289697
51	0x3cf956c9	0.03043689
52	0x3db6f8f2	0.08934201
53	0x3ccc6fdb	0.02495568
54	0x3e07a800	0.1324768
55	0x3e3a30ff	0.18182753
56	0xbc33167f	-0.010930656
57	0xbdfeab8f	-0.12435066
58	0x3daea6c1	0.085278995
59	0xbd6205e0	-0.055181384
60	0x3e15d8b7	0.14633451
61	0x3dedd6de	0.11613248
62	0xbd3a0422	-0.045414098
63	0x3cb32934	0.021870233
64	0x3ba90f5d	0.005159302
65	0xbdce38e1	-0.100694425
66	0x3eead30d	0.45864144
67	0x3ea8851f	0.32914063
68	0x3d1cdf63	0.038298976
69	0xbe0b6a59	-0.13614787
70	0xbe3b6451	-0.18299986
71	0xbe8b69de	-0.27229208
72	0x3db7adac	0.08968672
73	0xbe2f0f89	-0.1709577
74	0xbe38bee9	-0.18041576
75	0xbdacceb4	-0.08437863
76	0xbe6dc599	-0.23219909
77	0xbda0b8dd	-0.0784776
78	0xbe2ba6c0	-0.16762829
79	0xbd464d67	-0.04841366
80	0xbd89371e	-0.06699966
81	0xbe2245e7	-0.15846978
82	0xbe7e27fb	-0.24819939
83	0xbe518e36	-0.20464405
84	0x3e7c631f	0.24647187
85	0xbd42a44f	-0.047519978
86	0xbbee8045	-0.0072784745
87	0xbd70b647	-0.058767583
88	0xbe09846d	-0.13429423
89	0xbe11f715	-0.1425441
90	0xbd0c2e16	-0.03422364
91	0xbd0c8f15	-0.03431614
92	0xbe004df9	-0.12529744
93	0x3dea2d43	0.11434414
94	0x3e0ad469	0.1355759
95	0xbe86304b	-0.2620872
96	0x3d972b8a	0.07381351
97	0x3d13a456	0.036045395
98	0x3dc65da4	0.09685829
99	0xbbc92e7b	-0.006139574
100	0xbdf0876a	-0.11744578
101	0xbdfdaea9	-0.123868294
102	0xbe063fc7	-0.13110267
103	0x3eb7c86a	0.3589509
104	0xbe144862	-0.14480737
105	0x3ccedcf7	0.025251849
106	0x3ca5b9ea	0.020230252
107	0xbd64ed52	-0.05589039
108	0xbe1966f0	-0.14980674
109	0xbd6fde36	-0.058561526
110	0xbda78458	-0.081795394
111	0x3d5092a6	0.050921105
112	0x3d049ce4	0.032376185
113	0xbcec8e52	-0.028876457
114	0x3e29ea53	0.16593294
115	0xbc4af59a	-0.012387658
116	0xbd4cd590	-0.050008357
117	0xbe2c5f4f	-0.16833232
118	0xbc433000	-0.0119133
119	0xbd22a724	-0.03971018
120	0xbe131025	-0.14361627
121	0xbdfc456b	-0.12317928
122	0xbb7eac6d	-0.0038860098
123	0x3e08742d	0.13325568
124	0xbce1a78b	-0.027545711
125	0x3e22afca	0.1588737
126	0x3d6eb8a9	0.058281574
127	0x3dc8afb7	0.0979914
128	0xbe3227bb	-0.17397968
129	0x3e52947f	0.2056446
130	0xbdd1c45b	-0.1024253
131	0xbbce2641	-0.0062911813
132	0xbe5fd7a2	-0.21859601
133	0x3e6d3bdb	0.23167364
134	0x3e394295	0.18091805
135	0xbd28097b	-0.041024666
136	0xbe59e0d1	-0.21277167
137	0x3e733161	0.23749305
138	0x3e137013	0.14398222
139	0xbc863ef4	-0.01638744
140	0x3e680f3b	0.2266206
141	0x3e3a6df1	0.18206002
142	0xbd4f79bb	-0.0506532
143	0x3e4cb224	0.1998983
144	0xbe1e9e19	-0.15489997
145	0xbd18e3da	-0.03732667
146	0x3dd150b2	0.102204695
147	0xbdd1da88	-0.1024676
148	0xbe0cea84	-0.13761336
149	0x3e0b2e0c	0.13591784
150	0x3e47e2ee	0.1952016
151	0x3c9ce87d	0.019153828
152	0xbe0e2bef	-0.13883947
153	0xbe0e3ada	-0.13889638
154	0x3e3e3310	0.18574166
155	0xbe100286	-0.14063463
156	0xbe0effcc	-0.13964766
157	0xbe4340cb	-0.19067685
158	0x3c0fd83e	0.0087795835
159	0x3db0bc22	0.086296335
160	0xbc8b6a52	-0.01701847
161	0xbe60af88	-0.2194196
162	0xbd8ca089	-0.06866557
163	0x3c886aef	0.016652552
164	0x3e1b89ac	0.15189236
165	0xbdf95979	-0.12175269
166	0xbd0666c7	-0.03281286
167	0xbdac2807	-0.08406072
168	0xbaad24a2	-0.001320977
169	0x3e3ac94b	0.1824085
170	0xbde106a8	-0.10987598
171	0x3e042ec1	0.1290846
172	0xbe238cdd	-0.15971704
173	0xbe3d597e	-0.1849117
174	0x3dcab741	0.09898234
175	0x3dfe334f	0.1241213
176	0x3b95fa50	0.0045769587
177	0xbe09c789	-0.13455023
178	0xbd12d2e5	-0.035845656
179	0xbe7621e5	-0.24036367
180	0xbe195425	-0.14973505
181	0xbe19cf6f	-0.15020536
182	0x3db95465	0.090493
183	0xbb8f6ebc	-0.0043772142
184	0xbdcd0b5e	-0.10011934
185	0xbb39607d	-0.0028286271
186	0xbe0bab07	-0.1363946
187	0x3dbcca31	0.092182525
188	0x3e6b6610	0.22988153
189	0x3d5a54ba	0.053303458
190	0x3e19b852	0.15011719
191	0x3c39e605	0.011346345

notes_decoder.weight f4 [128, 64]
0	0x3d81c2fb	0.06336018
1	0xbdc15173	-0.09439363
2	0x3e1fc2c9	0.15601648
3	0x3e38d18c	0.18048686
4	0x3e3c3e55	0.18383153
5	0xbd6647aa	-0.056220688
6	0xbd3c073c	-0.045905337
7	0x3d9893b7	0.07450049
8	0x3e0ed96f	0.13950132
9	0xbe447c45	-0.1918803
10	0xbe8ab5fc	-0.27091968
11	0x3c9e9c60	0.019361675
12	0xbda803d6	-0.08203857
13	0xbe9028b7	-0.28156063
14	0x3d54edf3	0.05198474
15	0xbe5b0308	-0.21387875
16	0x3e6d8390	0.23194718
17	0x3d98f3a2	0.07468344
18	0x3d89a547	0.06720977
19	0x3d27498e	0.04084163
20	0x3e94e87e	0.29083627
21	0xbe3982c5	-0.18116291
22	0xbe8d2d71	-0.27573732
23	0xbe297c25	-0.16551264
24	0x3e90937f	0.2823753
25	0x3e42f077	0.19037043
26	0xbe3efffd	-0.1865234
27	0x3e424ce3	0.18974642
28	0x3e25739f	0.16157387
29	0x3e03801b	0.12841837
30	0xbe355da5	-0.17711504
31	0xbdffc4e0	-0.12488723
32	0x3e184b2d	0.14872427
33	0x3e122e59	0.14275493
34	0xbd8490d4	-0.06472936
35	0xbe8631d8	-0.26209903
36	0xbe3d034d	-0.1845829
37	0x3e45449c	0.19264454
38	0x3e1b3aec	0.15159196
39	0x3e5d99ac	0.21640652
40	0x3dc60c7b	0.09670349
41	0xbe4424de	-0.19154689
42	0x3e0b4570	0.13600707
43	0xbe766a99	-0.24064101
44	0x3d4c0be4	0.049816027
45	0x3e8ef8a0	0.2792406
46	0xbe2d2d9b	-0.16911928
47	0xbe56bdd1	-0.20970847
48	0x3cfdfa2f	0.031003086
49	0x3e3450ca	0.17608944
50	0xbdf07fa2	-0.11743094
51	0x3e648ec9	0.22320093
52	0x3e115877	0.14193903
53	0x3e005583	0.1253262
54	0xbe4087eb	-0.18801849
55	0x3dfa51ca	0.12222631
56	0x3e7bf7f8	0.24606311
57	0xbdffd48a	-0.124917105
58	0x3e0d6952	0.13809708
59	0x3daef573	0.085429095
60	0xbde4d95a	-0.11174269
61	0xbdfac80c	-0.12245187
62	0xbdd702a3	-0.1049855
63	0xbd845d34	-0.064630896
64	0x3d3cb555	0.04607137
65	0xbd81542c	-0.06314883
66	0x3d206f83	0.039168846
67	0x3e490a7d	0.19632907
68	0x3df69651	0.12040389
69	0xbe8e5e01	-0.27806094
70	0xbde094ab	-0.10965856
71	0x3e14f0f1	0.14545037
72	0x3e2bf1bd	0.16791435
73	0xbe85afc4	-0.2611066
74	0xbe1d0532	-0.15334013
75	0x3de746ac	0.112927765
76	0xbdadc78b	-0.084853254
77	0xbd94b334	-0.07260743
78	0x3e8c9752	0.27459198
79	0xbe20cb1f	-0.15702485
80	0x3e951ee4	0.2912513
81	0x3e8ae0f8	0.27124763
82	0xbcede1a8	-0.029038265
83	0x3e133e69	0.14379276
84	0x3e48f35a	0.19624081
85	0xbdf70408	-0.12061316
86	0xbdc876be	-0.09788273
87	0xbe5cf0a4	-0.21576172
88	0x3db8080b	0.08985909
89	0x3e60c836	0.21951374
90	0xbe4d5f7c	-0.20055956
91	0x3e3d8da1	0.18511058
92	0x3e93f90a	0.2890094
93	0x3e073596	0.13204035
94	0xbe1ea882	-0.15493968
95	0xbe4530be	-0.19256875
96	0x3e1931ce	0.14960405
97	0x3e06bf3a	0.13158885
98	0xbd12978b	-0.035789054
99	0xbe27c6bb	-0.16384403
100	0xbe501c2e	-0.2032325
101	0x3e5932b6	0.21210751
102	0x3e09b94e	0.13449594
103	0x3e373b4b	0.17893712
104	0x3e389b5a	0.18028012
105	0xbe5a5b0d	-0.21323796
106	0x3d4daf67	0.050216105
107	0xbda8b9ce	-0.082385644
108	0x3e8e3045	0.27771202
109	0x3dc8d97c	0.09807107
110	0xbe4f754c	-0.20259589
111	0xbd63a366	-0.05557575
112	0x3c93f720	0.018062174
113	0x3db88e14	0.09011474
114	0xbe185e23	-0.1487966
115	0x3e2a9fa8	0.16662467
116	0x3e29c82f	0.1658027
117	0x3e4ac846	0.19802961
118	0xbe5988fb	-0.2124366
119	0x3e206b3a	0.15665904
120	0x3e91fe60	0.28514385
121	0x3b609568	0.003426874
122	0x3e6aee34	0.2294243
123	0x3cfc363d	0.030787582
124	0xbe83c69b	-0.2573746
125	0xbd82240e	-0.06354533
126	0xbe0a46e4	-0.13503605
127	0xbe035da9	-0.12828697
128	0xbd1f2045	-0.038849134
129	0xbe5392e1	-0.20661499
130	0x3e342c46	0.17595014
131	0x3e758cb2	0.23979452
132	0x3e83f45c	0.2577237
133	0xbdb8efbd	-0.090301014
134	0xbd931af5	-0.07182876
135	0x3e578f59	0.21050777
136	0x3e97aa89	0.29622295
137	0xbd991000	-0.07473755
138	0xbe2785a0	-0.16359568
139	0xbd973167	-0.073824696
140	0xbe88801a	-0.26660234
141	0xbe891b0f	-0.26778457
142	0x3e121fd2	0.14269951
143	0xbde489c4	-0.11159089
144	0x3db8f842	0.090317264
145	0x3dafc449	0.0858236
146	0x3ca54d9a	0.020178605
147	0x3cbbe014	0.022933997
148	0x3e5b9f8c	0.21447581
149	0xbdd87e24	-0.105709344
150	0xbe2ae867	-0.16690217
151	0xbe764042	-0.2404795
152	0x3e8cfb16	0.27535313
153	0x3e5868a1	0.21133663
154	0xbe4b88e1	-0.19876434
155	0x3e6c5037	0.23077475
156	0x3e72cc64	0.23710781
157	0x3e481cf7	0.19542299
158	0xbe2ffc0e	-0.17185995
159	0xbe40a2a2	-0.1881204
160	0x3db62905	0.088945426
161	0x3dc0b67d	0.09409807
162	0xbe393553	-0.18086748
163	0xbe5d51c8	-0.21613228
164	0xbe5116cb	-0.20418851
165	0x3e2a046e	0.16603252
166	0x3e20c91f	0.15701722
167	0x3e291aed	0.16514178
168	0x3e4e5325	0.20148905
169	0xbd531f98	-0.051543802
170	0x3d72ff57	0.059325542
171	0xbde190ab	-0.11013921
172	0x3e8fa515	0.28055635
173	0x3e3c984f	0.18417476
174	0xbe80b328	-0.25136685
175	0xbd5a646b	-0.053318422
176	0x3df06dc9	0.1173969
177	0x3dfffb15	0.12499062
178	0xbe4fb1e6	-0.20282707
179	0x3e1c5cdd	0.152698
180	0x3e7f64e3	0.24940829
181	0x3e49a52a	0.19691911
182	0xbdc39487	-0.09549814
183	0x3e0672b7	0.13129698
184	0x3e2cd92c	0.1687972
185	0xbd08d9f1	-0.03341097
186	0x3db07730	0.08616483
187	0x3e1265d8	0.14296663
188	0xbd0a7789	-0.033805404
189	0xbd8e063b	-0.06934782
190	0xbdb268c8	-0.08711392
191	0xbe2cfdd9	-0.1689371
192	0x3d2e12f6	0.04249855
193	0xbe2a7ef8	-0.16649997
194	0x3e6a87fe	0.2290344
195	0x3dc965d0	0.09833872
196	0x3db99d54	0.09063211
197	0xbe1376c9	-0.14400782
198	0xbd9c2b28	-0.07625419
199	0x3da35fa7	0.079772286
200	0x3e7cb83d	0.24679656
201	0xbe005062	-0.12530664
202	0xbe680ba0	-0.22660685
203	0x3d5f69bd	0.0545442
204	0xbe7f8118	-0.24951589
205	0xbd8299b2	-0.06376971
206	0x3e8b2173	0.27173957
207	0xbe10ffb8	-0.14160049
208	0x3e0b5081	0.13604929
209	0x3da0708d	0.07833967
210	0x3d946878	0.07246488
211	0x3e6fb9c3	0.23410706
212	0x3e030c49	0.12797655
213	0xbdecf705	-0.11570553
214	0xbe8e5b03	-0.2780381
215	0xbda37776	-0.0798177
216	0x3e66407b	0.22485535
217	0x3e5f76f3	0.2182272
218	0xbd512443	-0.051059972
219	0x3e9623fd	0.29324332
220	0x3dbbe9b6	0.09175436
221	0x3e870148	0.26368165
222	0xbe3de2c4	-0.18543535
223	0xbe93dac4	-0.28877842
224	0x3e6466d6	0.22304854
225	0x3e901bf4	0.28146327
226	0xbdae0de0	-0.0849874
227	0xbe7e0305	-0.2480584
228	0xbd94ab96	-0.0725929
229	0x3e394080	0.18091011
230	0x3e8db846	0.27679652
231	0x3e21a6c7	0.15786277
232	0x3e7ff428	0.24995482
233	0xbe01d63b	-0.12679379
234	0xbbf793f4	-0.007555479
235	0xbdf2bb42	-0.11852123
236	0x3e4afa22	0.1982198
237	0x3de94c3e	0.11391495
238	0xbe906ebd	-0.28209487
239	0xbe276e72	-0.16350725
240	0xbd75c459	-0.060001705
241	0x3dace651	0.08442367
242	0xbe58f8ec	-0.21188706
243	0x3d704961	0.05866373
244	0x3d5dadc7	0.054120805
245	0x3e03d5df	0.12874554
246	0xbd99da9c	-0.075123996
247	0x3e418f8f	0.1890242
248	0x3e13510e	0.14386389
249	0x3d111112	0.03541667
250	0x3e8ac07f	0.27099988
251	0xbc6c104f	-0.014408185
252	0xbe04ddd3	-0.12975244
253	0xbddfc0a6	-0.10925417
254	0xbcc99a74	-0.024609782
255	0xbe955f27	-0.29174158

notes_decoder.bias f4 [128]
0	0xbcfcbdbe	-0.030852195
1	0xbe378272	-0.17920855
2	0xbe0fabb8	-0.14030349
3	0xbe7628d6	-0.24039015
4	0xbe104ec4	-0.14092547
5	0xbe12d02a	-0.14337221
6	0xbe4d8807	-0.20071422
7	0xbe33c079	-0.17553891
8	0xbe70e892	-0.23526219
9	0xbe7f9d88	-0.24962437
10	0xbe198fb7	-0.14996229
11	0xbd646e2a	-0.055769123
12	0xbd4243e4	-0.047428027
13	0xbe3c8907	-0.18411647
14	0xbd68d0e0	-0.056839824
15	0xbe624bb3	-0.2209919
16	0xbd341931	-0.043969337
17	0xbe4da907	-0.2008401
18	0xbd5f3b47	-0.05449989
19	0xbda507b7	-0.08058112
20	0xbe21564e	-0.15755579
21	0xbdfe699b	-0.124224864
22	0xbd6adff8	-0.0573425
23	0xbe0a7c82	-0.13524058
24	0xbd9e7fc9	-0.07739217
25	0xbe4720ac	-0.19446057
26	0xbda57eac	-0.08080801
27	0xbdafeb3f	-0.085897915
28	0xbdc762c4	-0.09735635
29	0xbd070da2	-0.032971986
30	0xbe2c0aa9	-0.16800942
31	0xbe50d308	-0.20393002
32	0xbe428b89	-0.18998541
33	0xbdf74afd	-0.1207485
34	0xbd9e5c4e	-0.077324495
35	0xbd144d63	-0.036206614
36	0xbe032c4b	-0.12809865
37	0xbd84c914	-0.06483665
38	0xbd176cfe	-0.036969177
39	0xbe59964c	-0.2124874
40	0xbe384105	-0.17993553
41	0xbda3f613	-0.08005919
42	0xbe7484c9	-0.23878779
43	0xbe2f7de4	-0.17137867
44	0xbe638c00	-0.22221375
45	0xbdf19360	-0.11795688
46	0xbe00d462	-0.12581018
47	0xbe05d843	-0.13070779
48	0xbe1c4607	-0.15261088
49	0xbd1c8da1	-0.038221005
50	0xbd97815f	-0.073977225
51	0xbd253beb	-0.040340345
52	0xbcdc1e39	-0.02686988
53	0xbe1f96ce	-0.15584871
54	0xbe6c0c0d	-0.23051472
55	0xbe27611d	-0.1634564
56	0xbe3644a9	-0.1779963
57	0xbd1193ba	-0.035541274
58	0x3b6ea604	0.003641487
59	0xbe7bca74	-0.24588948
60	0xbc299a4e	-0.0103517305
61	0xbd130050	-0.03588897
62	0xbd07670c	-0.033057258
63	0xbe1223d7	-0.14271484
64	0xbc85217e	-0.016251322
65	0xbe68085c	-0.22659439
66	0xbccc5d9d	-0.024946982
67	0xbde1598e	-0.11003409
68	0xbe5e6e98	-0.21721876
69	0xbe408be5	-0.18803366
70	0xbe18fd38	-0.14940345
71	0xbe312f60	-0.17303228
72	0xbe56baad	-0.20969649
73	0xbd6ba1c2	-0.05752731
74	0xbddc10b6	-0.10745375
75	0xbe0fe386	-0.14051637
76	0xbe5a40f0	-0.21313834
77	0xbd13b1a6	-0.03605809
78	0xbe26e907	-0.1629983
79	0xbdb5f802	-0.08885194
80	0xbe5fd3a6	-0.21858081
81	0xbe627ef1	-0.22118737
82	0xbe4e7e9e	-0.20165488
83	0xbe585fd2	-0.21130303
84	0xbe30660f	-0.17226432
85	0xbde96ffe	-0.11398314
86	0xbd638ba5	-0.055553097
87	0xbe4679ee	-0.1938245
88	0xbd300ecb	-0.042982858
89	0xbdeabb27	-0.11461478
90	0xbe752220	-0.23938799
91	0xbd9ba7ae	-0.07600342
92	0xbe31784a	-0.17331043
93	0xbd962727	-0.073316865
94	0xbe4e184f	-0.2012646
95	0xbe83a65a	-0.25712854
96	0xbd8711c6	-0.06595187
97	0xbc1dce87	-0.0096317595
98	0xbe40e5a0	-0.18837595
99	0xbe3a92d9	-0.1822008
100	0xbd3837db	-0.044975143
101	0xbd85e944	-0.065386325
102	0xbd7fc928	-0.062447697
103	0xbe6491eb	-0.22321288
104	0xbe8068c9	-0.25079945
105	0xbd492036	-0.049102984
106	0xbe80a994	-0.25129378
107	0xbe87c9b6	-0.2652108
108	0xbe73a341	-0.23792745
109	0xbde70879	-0.11280913
110	0xbd821971	-0.06352509
111	0xbe11c71a	-0.14236107
112	0xbe5be2b1	-0.21473195
113	0xbdab84f8	-0.08374971
114	0xbda17444	-0.07883504
115	0xbe0df1aa	-0.13861719
116	0xbe4e1baf	-0.20127748
117	0xbe5c66c0	-0.21523571
118	0xbe66f1f6	-0.22553238
119	0xbe266e12	-0.16252926
120	0xbd8c0192	-0.06836237
121	0xbe6cf6ae	-0.23140976
122	0xbe07c302	-0.13257983
123	0xbd864ba1	-0.06557394
124	0xbd3780d1	-0.044800583
125	0xbd4d0e5d	-0.050062526
126	0xbe4eb3e4	-0.2018581
127	0xbde9078f	-0.11378395
