saved_models/generalist_BCE_1e-2_64.pth (torch_old, 167373 bytes, 8 tensors)

notes_encoder.weight f4 [64, 128]
-0.08363057 -0.056063853 0.053728797 0.070271336 -0.07089395 -0.05425862 0.008400373 -0.061487425
-0.061706167 -0.005199909 -0.015020601 0.058707483 -0.08173909 -0.032698557 0.011487335 0.056506924
-0.053802673 -0.0821958 -0.017891936 0.017808244 0.045721494 -0.057669826 -0.08362435 0.017921388
-0.08805638 0.0065899417 0.043320023 0.022706538 0.060518034 -0.0241028 0.024704069 -0.013282359
-0.049947187 0.025590204 -0.028787756 0.036675565 0.09238331 0.0072287396 0.07511825 0.20317942
0.17212357 0.11592257 0.11034542 0.13142033 0.2554457 0.07198585 0.07508284 0.17771032
0.23094457 0.15449464 0.25535336 0.07575497 0.16626625 0.19580047 0.16801772 0.14348431
0.23563063 0.18735643 0.124999255 0.16369167 0.12641092 0.2234231 0.12724498 0.19132292
0.11919798 0.1636433 0.069645934 0.21676162 0.21945421 0.07666556 0.20423928 0.2159689
0.17300834 0.057167765 0.15903051 0.04731501 0.042419177 0.18234643 0.050975047 0.10122531
0.047749095 0.15265869 0.09402985 0.015788874 0.13343495 0.16148974 0.10236887 0.15871735
0.093908764 0.13826264 -0.078302085 0.07450674 -0.020438485 0.028396405 0.0077340603 -0.024523273
-0.073690444 -0.0032403544 -0.050767343 0.07606236 0.08421583 0.08412037 -0.026591804 -0.07361451
-0.0142291635 0.0539648 -0.05276699 0.04313635 -0.008176163 -0.010996975 -0.03486559 -0.050721
0.054807134 0.027884953 0.0432607 -0.05122507 0.045091413 0.028684206 0.05973404 0.053887032
0.013271809 0.08436299 0.004648745 -0.016812406 0.008621782 -0.045334563 0.06087 0.026198216
-0.08172513 0.05987487 0.063582696 0.006530151 -0.08541059 0.07587042 0.023584217 -0.07325131
0.006831646 -0.023211293 0.062724225 -0.0068672523 -0.033235203 0.045847632 0.02163893 0.012341052
-0.06962038 -0.0829043 0.026665702 -0.0005152151 -0.017633207 -0.0066386163 -0.0128392875 -0.033453617
0.047353975 -0.026011191 -0.027028196 -0.06818642 0.017899916 -0.02453433 0.00532791 -0.042091627
0.056998603 -0.024827205 -0.002782623 0.028965928 -0.04168425 0.0044311583 -0.0046349294 -0.050905086
-0.050250173 -0.09673781 -0.06403122 -0.19121616 -0.087137796 -0.052225836 -0.115606196 -0.088556565
-0.10825056 -0.0260557 -0.07967209 -0.1696263 -0.01378812 -0.036397096 -0.048719097 -0.112659745
-0.11290541 -0.06593253 -0.16724661 -0.105741255 -0.1501036 -0.05809428 -0.032758966 -0.024613265
-0.075984776 -0.051595166 -0.17842552 -0.1431139 -0.031162364 -0.1595797 -0.07336075 -0.16647117
-0.09882305 -0.12506728 -0.037787527 -0.04706325 -0.047035046 0.00065085414 -0.12916598 -0.11328931
-0.050102826 -0.1421764 -0.055324793 -0.056505837 -0.14884378 -0.019961396 -0.011807999 -0.09510849
-0.033953514 -0.03062153 -0.06895712 0.0377964 -0.033649042 -0.02293583 -0.021872982 0.07553101
-0.04307606 0.026250154 -0.035982776 0.067532904 0.01409433 0.053082354 -0.052591372 0.06316354
0.0450897 -0.052258182 0.04881329 0.056739546 -0.040274885 0.05125367 -0.06608129 -0.020150833
-0.08127616 -0.0015260205 -0.07636109 0.07801322 0.08528478 0.026158832 -0.024754338 -0.009850919
-0.061550856 -0.035152968 -0.007937707 -0.074793234 0.044621803 0.057538144 -0.029312186 0.010679051
00000000: 8146 abbd 36a3 65bd ba12 5c3d 6bea 8f3d
00000010: d930 91bd 493e 5ebd b8a1 093c 3dda 7bbd
00000020: 9bbf 7cbd 0064 aabb f818 76bc 4277 703d
00000030: d366 a7bd ecee 05bd 6035 3c3c ce73 673d
00000040: 3160 5cbd 4656 a8bd 1c92 92bc 98e2 913c
00000050: 7646 3b3d 3237 6cbd 3e43 abbd e0cf 923c
00000060: e756 b4bd 70f0 d73b 5670 313d 1003 ba3c
00000070: c2e1 773d 3c73 c5bc 3060 ca3c 409e 59bc
00000080: 6c95 4cbd 8ca2 d13c 4dd4 ebbc 1e39 163d
00000090: 7633 bd3d 10df ec3b 99d7 993d 440e 503e
000000a0: 2941 303e d068 ed3d c8fc e13d 0d93 063e
000000b0: c7c9 823e 516d 933d 08c5 993d b2f9 353e
000000c0: bc7c 6c3e d833 1e3e adbd 823e 6c25 9b3d
000000d0: b341 2a3e eb7f 483e d60c 2c3e 8ded 123e
000000e0: 2849 713e 5dda 3f3e 9cff ff3d ca9e 273e
000000f0: dd71 013e 06c9 643e 824c 023e 28ea 433e
00000100: 121e f43d 1c92 273e 87a2 8e3d c2f6 5d3e
00000110: 9bb8 603e d502 9d3d 1a24 513e f426 5d3e
00000120: 1929 313e bf28 6a3d e5d8 223e 62cd 413d
00000130: bbbf 2d3d 06b9 3a3e 36cb 503d 374f cf3d
00000140: 8e94 433d 8f52 1c3e b992 c03d ab57 813c
00000150: 2ca3 083e 915d 253e c5a6 d13d cd86 223e
00000160: 3d53 c03d b994 0d3e d85c a0bd fd96 983d
00000170: 9c6e a7bc 949f e83c 006e fd3b 08e5 c8bc
00000180: 04eb 96bd 205c 54bb 6bf1 4fbd 95c6 9b3d
00000190: 5979 ac3d 4d47 ac3d 0ed7 d9bc 34c3 96bd
000001a0: 7021 69bc 320a 5d3d 3322 58bd beaf 303d
000001b0: 50f5 05bc a82c 34bc 39cf 0ebd d3c0 4fbd
000001c0: 727d 603d fc6e e43c 2232 313d 61d1 51bd
000001d0: c6b1 383d 24fb ea3c aeab 743d a6b8 5c3d
000001e0: 0072 593c 81c6 ac3d 8054 983b 2cba 89bc
000001f0: 6042 0d3c bcb0 39bd d252 793d a49d d63c
00000200: 815f a7bd 5a3f 753d a537 823d e0fa d53b
00000210: bfeb aebd f361 9b3d b033 c13c c804 96bd
00000220: 00dc df3b 9c25 bebc 8f75 803d b006 e1bb
00000230: a321 08bd baca 3b3d 2044 b13c 2032 4a3c
00000240: 2195 8ebd bbc9 a9bd 0872 da3c 800f 07ba
00000250: 8473 90bc c088 d9bb e05b 52bc a906 09bd
00000260: 3ef6 413d 6c15 d5bc 3c6a ddbc 52a5 8bbd
00000270: d8a2 923c 38fc c8bc c095 ae3b 4568 2cbd
00000280: 5e77 693d 6c62 cbbc ab5c 36bb f449 ed3c
00000290: 1bbd 2abd 4033 913b 9be0 97bb da81 50bd
000002a0: 20d3 4dbd 791e c6bd cd22 83bd 2bce 43be
000002b0: 4d75 b2bd c2ea 55bd f1c2 ecbd 255d b5bd
000002c0: 78b2 ddbd c372 d5bc 1f2b a3bd 84b2 2dbe
000002d0: 91e7 61bc 1f15 15bd ad8d 47bd 27ba e6bd
000002e0: f43a e7bd a207 87bd b242 2bbe df8e d8bd
000002f0: c2b4 19be 45f4 6dbd 442e 06bd c2a1 c9bc
00000300: e89d 9bbd 7455 53bd 2eb5 36be 738c 12be
00000310: 3748 ffbc dc68 23be 293e 96bd 6b77 2abe
00000320: bd63 cabd a311 00be 18c7 1abd 65c5 40bd
00000330: d2a7 40bd 159e 2a3a 1644 04be 3a04 e8bd
00000340: 9f38 4dbd b196 11be 409c 62bd aa72 67bd
00000350: 816a 18be 1586 a3bc 5676 41bc 3dc8 c2bd
00000360: d712 0bbd 01da fabc 6439 8dbd 66d0 1a3d
00000370: 94d3 09bd ece3 bbbc f82e b3bc 01b0 9a3d
00000380: 8670 30bd 900a d73c ad62 13bd b14e 8a3d
00000390: e8eb 663c e26c 593d 0d6a 57bd e35b 813d
000003a0: faaf 383d ad0c 56bd 72f0 473d ba67 683d
000003b0: 47f7 24bd 5eef 513d a155 87bd 5c13 a5bc
000003c0: 1e74 a6bd c004 c8ba 3463 9cbd 65c5 9f3d
000003d0: c9a9 ae3d 0c4b d63c 9cc9 cabc c065 21bc
000003e0: c01c 7cbd 8ffc 0fbd 280d 02bc 322d 99bd
000003f0: 5ac5 363d 1ead 6b3d 1c20 f0bc 30f7 2e3c

notes_encoder.bias f4 [64]
0.018025165 -0.16572104 -0.1564924 0.16777036 -0.067615315 -0.16447356 -0.19278976 0.125003
0.15540048 0.065020025 0.0075685824 0.09157196 -0.019825945 0.14278418 0.09353051 -0.1784022
-0.17629322 -0.1607136 -0.14307337 0.14734212 -0.17842363 -0.13740574 0.12168791 -0.18540668
0.19410495 0.19981153 0.19846916 -0.20089868 0.053213082 -0.10497395 0.07634345 -0.14250661
0.090461425 0.18298835 -0.05019103 -0.11916389 0.025004132 0.12451474 0.14247093 -0.11779297
-0.05746179 -0.20957245 0.07780704 -0.10147434 0.08350598 -0.091205515 0.1601554 0.14136776
0.04433263 0.16645645 0.07007865 0.14813593 0.079089485 0.14049593 0.16864328 -0.10733695
0.16526327 -0.09393689 -0.13572414 0.17043336 0.17680253 0.13929068 -0.120894395 -0.20462455
00000000: 83a9 933c c7b2 29be 8b3f 20be fecb 2b3e
00000010: e679 8abd c26b 28be ae6a 45be c900 003e
00000020: 4e21 1f3e 3829 853d df01 f83b 148a bb3d
00000030: 056a a2bc 0436 123e ed8c bf3d 11af 36be
00000040: 3686 34be 1b92 24be d381 12be dae0 163e
00000050: afb4 36be 17b4 0cbe 8337 f93d 40db 3dbe
00000060: 73c3 463e 659b 4c3e 803b 4b3e 62b8 4dbe
00000070: f6f5 593d 95fc d6bd f459 9c3d 41ed 11be
00000080: d743 b93d 4c61 3b3e 1c95 4dbd 330c f4bd
00000090: 77d5 cc3c 9601 ff3d e6e3 113e 713d f1bd
000000a0: 0e5d 6bbd 299a 56be 4c59 9f3d c7d1 cfbd
000000b0: 2f05 ab3d f5c9 babd c7ff 233e b6c2 103e
000000c0: 2296 353d 8f73 2a3e 6585 8f3d f2b0 173e
000000d0: abf9 a13d 2ade 0f3e d3b0 2c3e 7ad3 dbbd
000000e0: c63a 293e fc61 c0bd 45fb 0abe 1586 2e3e
000000f0: b90b 353e 37a2 0e3e 7b97 f7bd 1989 51be

gru.weight_ih_l0 f4 [192, 64]
0.056348823 0.2116975 0.22784069 0.006067085 0.015272872 0.1723237 0.12312552 0.0015474763
-0.22462305 -0.0062741577 0.057353813 -0.01598832 0.07399782 -0.18084423 -0.051036295 0.03980195
0.20465112 0.032013394 0.17975004 -0.10381156 0.110234536 0.13653804 -0.03836212 0.15786263
-0.21644482 -0.10974845 -0.16945033 0.16107804 -0.13816106 0.15204458 -0.031813893 0.035144597
-0.17293982 -0.04613957 0.12309285 0.14843746 -0.054379035 -0.16291259 -0.21802996 0.029588731
0.11200668 0.09806203 0.039113317 -0.10608709 0.0012770124 0.037079915 -0.12405147 -0.005395138
0.0734092 -0.2100204 -0.10616147 -0.12480834 0.05771319 -0.16834365 -0.07960865 0.050369542
-0.15624857 -0.029640827 0.11335843 -0.10851827 -0.23746234 -0.0910587 0.09171416 0.03388802
0.04198915 -0.22678529 -0.079685256 0.16006877 -0.17252763 -0.1458873 -0.042746875 0.17594369
-0.00060479966 -0.02225881 0.013507907 0.063156046 0.020653812 0.09631541 0.0042659757 -0.10249958
-0.0062206434 0.01124489 0.0026633076 0.14158855 -0.20494904 -0.21633011 -0.028371006 -0.050564732
0.21843745 0.12227757 0.12512158 -0.09366595 0.16005187 -0.069461145 0.17974825 -0.121720284
-0.036697287 0.03202803 -0.03657441 -0.06711308 0.10840701 0.18963455 0.09757749 -0.15778112
-0.15748407 -0.11870397 0.06563959 0.017970113 0.16765088 0.096466675 0.10771244 0.14484149
0.15970784 0.14984052 0.06643314 0.14047565 -0.042132054 0.11230345 0.03175839 -0.13500226
0.0131813055 -0.08831365 -0.04335985 -0.002771929 0.21755162 0.08711779 -0.06365577 -0.113844395
0.2348945 -0.09412968 -0.19485438 0.14005598 -0.15052336 0.025231889 -0.01628909 0.16650975
0.09307285 0.20595731 -0.12234021 0.15945071 -0.036387708 -0.02822232 -0.0018456853 -0.043722983
-0.08758648 -0.021041604 0.034359723 0.13603736 0.02159382 -0.19099373 0.10495875 -0.1898998
0.110687 0.05078625 0.11639564 -0.10392098 0.06001317 -0.030132713 0.20409824 -0.18101868
0.15617706 -0.015574348 -0.04736328 -0.00017689992 0.21628952 0.04477375 0.12987125 -0.13951138
0.00034883086 -0.19132024 0.025729699 -0.12281932 0.03779913 -0.090056665 0.009462017 0.05542089
-0.12594573 0.071613275 0.08603057 0.1953361 0.17685665 0.11444338 0.15485582 -0.018694209
0.1754723 -0.08472672 0.0323755 0.17610164 0.0899346 0.0645262 -0.05362355 -0.14809611
0.15133214 -0.119080335 -0.024912938 0.03966519 -0.2136694 -0.012896076 -0.13056009 0.16357587
0.18752027 0.090901 -0.07920865 0.124646045 0.21394503 0.13750418 0.01815349 -0.13796973
-0.16995628 -0.113533504 -0.02454285 0.057718918 -0.19483158 -0.051783644 0.092627846 0.029733757
0.0893488 0.0073879194 -0.032544468 -0.004243878 0.12531714 -0.10292498 0.20115496 -0.07295942
0.09394932 0.19139728 -0.090132214 -0.022852195 0.22281823 0.10189403 0.17029992 -0.044847135
-0.10511904 -0.14198793 0.15145408 -0.11200011 0.1441491 -0.08494708 0.11244555 0.008962094
-0.13657394 0.08294951 0.0073788054 0.18964013 0.0013765057 0.025700884 0.023720587 -0.13850868
0.114874005 -0.18559977 -0.20848383 -0.024655191 -0.03166102 0.16888985 -0.12765701 -0.063418694
00000000: 06ce 663d 3bc7 583e 124f 693e 66ce c63b
00000010: 113b 7a3c a075 303e 3c29 fc3d b0d4 ca3a
00000020: 9603 66be 7397 cdbb d5eb 6a3d f0f9 82bc
00000030: 2b8c 973d 3b2f 39be 6f0b 51bd 5f07 233d
00000040: 1090 513e 7a20 033d 6510 383e 289b d4bd
00000050: a5c2 e13d a1d0 0b3e 9921 1dbd bea6 213e
00000060: b6a3 5dbe ccc3 e0bd 6384 2dbe a4f1 243e
00000070: 187a 0dbe 93b1 1b3e 494f 02bd c8f3 0f3d
00000080: 2317 31be d9fc 3cbd 1b18 fc3d fdff 173e
00000090: 8dbc 5ebd 8fd2 26be 3f43 5fbe 1164 f23c
000000a0: c263 e53d bfd4 c83d 4935 203d 3044 d9bd
000000b0: 6d61 a73a 1ce1 173d b20e febd b3c9 b0bb
000000c0: 9057 963d 960f 57be 2f6b d9bd 849b ffbd
000000d0: aa64 6c3d 4762 2cbe dc09 a3bd 4b50 4e3d
000000e0: a0ff 1fbe 52d1 f2bc 7728 e83d d43e debd
000000f0: 5429 73be fc7c babd a2d4 bb3d 2ace 0a3d
00000100: d1fc 2b3d 673a 68be 0632 a3bd 11e9 233e
00000110: 15ab 30be 7b63 15be 5917 2fbd 952a 343e
00000120: 6b8b 1eba 1c58 b6bc 4550 5d3c f557 813d
00000130: 2f32 a93c 0441 c53d 99c9 8b3b 4deb d1bd
00000140: 8ad6 cbbb 7d3c 383c e38a 2e3b 97fc 103e
00000150: 29de 51be a485 5dbe 506a e8bc f71c 4fbd
00000160: 11ae 5f3e aa6c fa3d df1f 003e efd3 bfbd
00000170: a3e4 233e a541 8ebd ed0f 383e 7c48 f9bd
00000180: e54f 16bd d32f 033d 0ccf 15bd 9572 89bd
00000190: 7f04 de3d 8f2f 423e b5d6 c73d 6091 21be
000001a0: 8143 21be 111b f3bd 0d6e 863d 0f36 933c
000001b0: acac 2b3e 5290 c53d 5798 dc3d 5451 143e
000001c0: 748a 233e cb6f 193e 190e 883d d9d8 0f3e
000001d0: a992 2cbd 5aff e53d 1615 023d 083e 0abe
000001e0: 67f6 573c c9dd b4bd 199a 31bd 40a9 35bb
000001f0: dac5 5e3e d06a b23d f55d 82bd 4027 e9bd
00000200: 2f88 703e 10c7 c0bd e887 47be d66a 0f3e
00000210: cc22 1abe 1bb3 ce3c b370 85bc 8881 2a3e
00000220: fa9c be3d 79e6 523e 818d fabd 0c47 233e
00000230: 470b 15bd 7f32 e7bc ecea f1ba df16 33bd
00000240: 8a60 b3bd 715f acbc c8bc 0c3d 614d 0b3e
00000250: 86e5 b03c dc93 43be 9df4 d63d 1875 42be
00000260: deaf e23d 3e05 503d d660 ee3d 86d4 d4bd
00000270: 5fd0 753d e1d8 f6bc 21ff 503e f65c 39be
00000280: e1ec 1f3e 8d2b 7fbc 0000 42bd 367e 39b9
00000290: 007b 5d3e ae64 373d f8fc 043e 12dc 0ebe
000002a0: 49e3 b639 74e9 43be 17c7 d23c b288 fbbd
000002b0: 43d3 1a3d a16f b8bd 9306 1b3c 0401 633d
000002c0: ebf7 00be fba9 923d cc30 b03d 3006 483e
000002d0: e919 353e 4a61 ea3d 8692 1e3e 9924 99bc
000002e0: 03af 333e 3485 adbd 2c9c 043d fd53 343e
000002f0: a22f b83d 5026 843d 5ea4 5bbd 82a6 17be
00000300: d0f6 1a3e 64e0 f3bd 3816 ccbc f777 223d
00000310: 27cc 5abe 104a 53bc 8bb1 05be 6f80 273e
00000320: 5005 403e 4e2a ba3d 2538 a2bd 6d46 ff3d
00000330: 6814 5b3e e5cd 0c3e a1b6 943c f047 0dbe
00000340: 0509 2ebe 4184 e8bd 160e c9bc ac6a 6c3d
00000350: ee81 47be 161b 54bd abb3 bd3d 3594 f33c
00000360: 81fc b63d 5c16 f23b 594d 05bd 3b10 8bbb
00000370: 2353 003e 55ca d2bd 91fb 4d3e c06b 95bd
00000380: 8068 c03d a6fd 433e 3d97 b8bd 8734 bbbc
00000390: 762a 643e d1ad d03d 1a63 2e3e a1b1 37bd
000003a0: a748 d7bd 4965 11be c716 1b3e 5060 e5bd
000003b0: d29b 133e bcf8 adbd da49 e63d bfd5 123c
000003c0: 0ada 0bbe 6fe1 a93d e8c9 f13b 0631 423e
000003d0: de6b b43a a98a d23c ad51 c23c 38d5 0dbe
000003e0: 1043 eb3d de0d 3ebe c97c 55be aff9 c9bc
000003f0: fcae 01bd 76f1 2c3e 85b8 02be a9e1 81bd

gru.weight_hh_l0 f4 [192, 64]
0.011904613 -0.041204322 -0.13942409 0.19975665 0.06449798 -0.13928206 -0.0841135 0.1498245
0.23674871 -0.042163674 -0.060341705 0.12623687 0.009276222 -0.21810047 0.008191549 -0.042320747
0.054211218 0.22164202 -0.10346884 -0.035259094 0.15181477 -0.15660161 -0.15604773 -0.17106158
9.933679e-05 0.1406865 -0.16062793 0.08366274 0.009996287 0.19964795 -0.15061705 -0.17680903
0.0017378482 0.22520006 -0.005999686 -0.025359422 -0.1785855 0.15462267 -0.00920228 0.10250007
0.078807995 -0.13260452 0.05880423 -0.1419048 0.15983406 0.06642349 -0.07446009 -0.075341806
0.0022383905 0.16306093 -0.19992624 0.1507753 0.11941959 0.048836373 -0.06352876 0.182116
-0.008147018 -0.056353163 0.1394035 0.010081214 -0.092820115 -0.09899613 -0.014106219 -0.11672661
-0.04229736 0.044352602 0.06951896 -0.09719348 0.01672426 0.10072699 0.21084487 -0.02765508
-0.056883194 0.15458709 0.07612627 -0.09523628 0.09323121 0.09670678 -0.14838356 0.07409257
0.0019536281 -0.16799027 0.045409843 -0.16662344 -0.07611435 0.22213344 0.17443457 0.05360067
-0.01715985 -0.13089265 0.07913337 -0.06190085 -0.11326834 -0.09148259 -0.039840363 0.1312208
-0.14988011 -0.07058102 0.021741912 0.20349373 0.2084559 -0.11315106 -0.17914669 0.0023521052
-0.22180845 -0.0068544 -0.20397255 0.18856552 -0.040547796 -0.07834417 0.16237514 0.066784285
-0.055317804 -0.08617496 -0.04300355 -0.1092229 -0.018701 0.026053136 0.15394405 -0.00018479029
-0.15400304 -0.12744828 -0.1775939 0.060077567 0.051281545 0.2045539 -0.0012259284 0.1922896
-0.2707151 0.09317895 -0.10582995 0.013100446 -0.1865053 0.1646049 -0.011148652 -0.028731242
-0.228313 0.08581736 0.07977868 0.14158772 0.21290788 -0.0071282466 -0.24021898 0.16818206
-0.11233757 -0.16984814 0.11338022 -0.021384453 -0.021788817 0.06233846 0.13818191 0.06059249
-0.210941 -0.23323756 0.0762479 -0.099680275 -0.19196574 -0.12078757 0.22097917 0.11956401
-0.089390405 -0.22545834 0.09283808 -0.021660237 0.21163839 -0.16800286 -0.15910971 -0.004038382
-0.05535531 0.05086723 -0.09891108 0.07610203 -0.031145422 -0.060128808 0.19797508 0.050225552
0.18051715 0.017825302 0.1355579 -0.22369765 -0.096116744 -0.10563648 -0.012191132 -0.11344858
-0.13540612 0.21228756 -0.1396434 -0.023335924 0.057021808 -0.012539553 0.24453308 0.070881076
-0.13880162 0.09642582 -0.14414196 -0.16189356 0.012024574 0.13903654 0.17222658 0.019760048
-0.0075003374 -0.016950136 0.011196024 -0.005019798 0.20176153 -0.015755007 -0.13068937 0.18358918
-0.03553182 0.020831967 0.16467454 -0.19380787 -0.002226264 0.18580133 0.04757762 0.14408068
0.035016034 -0.010365551 0.0741865 -0.062977746 -0.0022851164 -0.03281083 0.07549863 0.097639956
-0.154999 0.010850219 0.17286755 -0.009594056 0.20456663 -0.008723761 -0.044886995 -0.19545113
-0.14272705 0.15777911 -0.09943417 0.14329013 -0.14608234 -0.18444024 -0.028648337 0.059292268
0.08235446 -0.08969401 0.13772327 0.0040972247 -0.18402226 -0.23769675 0.04900017 -0.046739914
-0.093999855 0.08479271 -0.07943534 -0.096206 0.097213194 0.18073885 0.12793323 0.019780045
00000000: 910b 433c ddc5 28bd 30c5 0ebe 028d 4c3e
00000010: 8417 843d f59f 0ebe b343 acbd 986b 193e
00000020: 416e 723e d1b3 2cbd dd28 77bd 3d44 013e
00000030: 4cfb 173c bb55 5fbe d935 063c 8558 2dbd
00000040: 950c 5e3d 20f6 623e 79e7 d3bd d76b 10bd
00000050: 5575 1b3e 2c5c 20be faca 1fbe c42a 2fbe
00000060: 0853 d038 1f10 103e a67b 24be 5f57 ab3d
00000070: 77c7 233c 8370 4c3e 5b3b 1abe 6d0d 35be
00000080: 82c8 e33a d89a 663e 0499 c4bb 90be cfbc
00000090: 1edf 36be 6855 1e3e 29c5 16bc 8feb d13d
000000a0: 1666 a13d 7bc9 07be b4dc 703d 7e4f 11be
000000b0: 8aab 233e 0a09 883d 887e 98bd ce4c 9abd
000000c0: f6b1 123b 72f9 263e 77b9 4cbe d764 1a3e
000000d0: 4292 f43d a608 483d 5e1b 82bd 9e7c 3a3e
000000e0: 127b 05bc 93d2 66bd cbbf 0e3e ad2b 253c
000000f0: 7918 bebd 7cbe cabd c51d 67bc 5c0e efbd
00000100: ff3f 2dbd 13ab 353d f55f 8e3d 600d c7bd
00000110: 5101 893c f449 ce3d b8e7 573e e88c e2bc
00000120: 5afe 68bd 144c 1e3e 17e8 9b3d 3d0b c3bd
00000130: 01f0 be3d 340e c63d dcf1 17be d8bd 973d
00000140: 7108 003b a405 2cbe acff 393d 569f 2abe
00000150: d7e1 9bbd f376 633e fa9e 323e 608c 5b3d
00000160: d092 8cbc b908 06be ad10 a23d bf8b 7dbd
00000170: 3bf9 e7bd 395b bbbd a62f 23bd bf5e 063e
00000180: 2c7a 19be c88c 90bd 181c b23c a960 503e
00000190: 7775 553e bebb e7bd 3b72 37be c725 1a3b
000001a0: c121 63be e09a e0bb 2ede 50be 5217 413e
000001b0: 7215 26bd e872 a0bd ab45 263e 33c6 883d
000001c0: ec94 62bd 7f7c b0bd 7e24 30bd 41b0 dfbd
000001d0: d732 99bc 636d d53c 82a3 1d3e 44c4 41b9
000001e0: f9b2 1dbe cd81 02be 2ddb 35be e513 763d
000001f0: 990c 523d 9476 513e 55af a0ba 91e7 443e
00000200: 2b9b 8abe 9bd4 be3d 5fbd d8bd 41a3 563c
00000210: 3ffb 3ebe 308e 283e d6a8 36bc c85d ebbc
00000220: e2ca 69be 03c1 af3d 0163 a33d 5ffc 103e
00000230: 8604 5a3e 1194 e9bb f7fb 75be eb37 2c3e
00000240: 3d11 e6bd acec 2dbe e433 e83d 732e afbc
00000250: 767e b2bc 9d56 7f3d 8f7f 0d3e d52f 783d
00000260: eb00 58be d4d5 6ebe dc27 9c3d 2c25 ccbd
00000270: ab92 44be 795f f7bd 5d48 623e fadd f43d
00000280: 5112 b7bd 8dde 66be e421 be3d cf70 b1bc
00000290: bcb7 583e f108 2cbe a8ed 22be 6754 84bb
000002a0: 40bc 62bd 285a 503d e491 cabd 62db 9b3d
000002b0: af24 ffbc a049 76bd fbb9 4a3e 4fb9 4d3d
000002c0: 7dd9 383e 5e06 923c b1cf 0a3e ff10 65be
000002d0: dbd8 c4bd f057 d8bd 50bd 47bc bb57 e8bd
000002e0: e7a7 0abe e961 593e aefe 0ebe fb2a bfbc
000002f0: b38f 693d b372 4dbc e166 7a3e 192a 913d
00000300: 0322 0ebe e67a c53d f399 13be 6dc7 25be
00000310: b802 453c 985f 0e3e 2a5c 303e d3df a13c
00000320: 64c5 f5bb 03db 8abc 876f 373c 1e7d a4bb
00000330: 939a 4e3e a510 81bc 6fd3 05be cdfe 3b3e
00000340: d089 11bd cda7 aa3c 71a0 283e 9275 46be
00000350: 83e6 11bb b442 3e3e c0e0 423d e389 133e
00000360: f96c 0f3d 46d4 29bc 17ef 973d 7afa 80bd
00000370: e4c1 15bb a664 06bd 079f 9a3d 75f7 c73d
00000380: 0fb8 1ebe 1ec5 313c 3104 313e 6330 1dbc
00000390: ea79 513e 1bee 0ebc 6ddb 37bd 5724 48be
000003a0: 0a27 12be d990 213e 24a4 cbbd a6ba 123e
000003b0: 9c96 15be e7dd 3cbe ebaf eabc 73dc 723d
000003c0: 75a9 a83d 7eb1 b7bd 5407 0d3e 0342 863b
000003d0: 5570 3cbe c766 73be 67b4 483d 5a72 3fbd
000003e0: ff82 c0bd cda7 ad3d ffae a2bd a707 c5bd
000003f0: b617 c73d 9b13 393e ee00 033e c309 a23c

gru.bias_ih_l0 f4 [192]
-0.19598532 0.14676854 -0.034919575 0.16178383 0.014397425 0.093833 0.07599505 0.08224207
0.07690073 0.11871106 0.070130676 -0.12179276 0.12875073 0.21135585 0.108592644 0.14462872
0.18322493 0.068085484 -0.065374784 0.1534262 0.041329753 0.11881141 0.15508401 0.14173833
0.09536154 0.045709237 -0.03388744 0.010481274 0.18508402 0.0050844043 0.03937823 0.066969655
0.17807437 0.10524086 0.15323016 -0.055930167 0.10631082 0.04781209 0.11913918 0.23624706
0.17854571 0.022006309 0.061860453 -0.024120457 0.058395512 -0.00897272 -0.036365826 -0.031562716
-0.02758329 0.04681211 0.10899428 0.23037216 0.15979232 0.031402316 0.14241897 0.07170066
-0.024629584 -0.15544769 0.1817562 -0.0018795115 0.090011925 0.0040374794 0.124427535 -0.023724541
-0.19174467 0.044491023 0.37196347 0.171239 -0.11034555 -0.13604158 0.009140133 -0.04116505
0.098616235 -0.28080514 -0.06279094 -0.16472712 -0.25651723 -0.16565357 -0.051172916 -0.15709528
0.052265268 -0.12754816 -0.044590138 -0.08006605 0.20844933 0.025091963 0.018505791 -0.13807565
-0.019457027 -0.02644844 -0.01801262 0.11320223 -0.008601447 0.02060273 -0.042211268 -0.23605588
0.13615637 -0.022933839 0.13649876 -0.18165776 -0.1648879 -0.16970555 0.025756048 0.18549907
-0.107556336 0.12117678 0.006647291 0.059313938 0.030289842 -0.03523836 -0.017792704 0.043022417
-0.114923775 0.07931047 0.07563829 -0.073381945 -0.1707974 0.070448056 0.07571056 -0.09707096
-0.06834304 -0.0071876007 0.13237117 0.21377942 -0.18296453 -0.0429758 -0.06754643 0.09370933
-0.13524282 0.109553 0.018269453 -0.13252038 -0.16835088 0.14507227 0.11004629 -0.20695835
-0.16301754 0.1701586 0.22281002 0.0628367 0.15527822 0.14284979 -0.1672654 0.15160306
-0.1655484 -0.15934496 -0.009344896 0.011210623 -0.17374362 0.16567327 0.19575635 0.18424653
-0.13372953 0.03065279 0.13776499 -0.21792781 -0.18988326 -0.13567415 0.16283092 0.20072295
-0.25700125 -0.23808914 -0.011391693 0.20177159 0.15230104 -0.14961536 -0.14724879 -0.035352822
-0.19222568 0.08462346 -0.012846964 0.17989849 -0.14265755 -0.1673435 0.23125957 0.040610567
0.092575446 -0.03066811 0.13620187 -0.12055302 -0.22825201 -0.07006933 0.17815946 -0.21906564
-0.12718752 0.12627804 -0.122685716 -0.05422188 0.10034264 0.21696612 0.18638639 0.22163542
00000000: 60b0 48be 7e4a 163e d407 0fbd a9aa 253e
00000010: 2de3 6b3c 842b c03d 4ba3 9b3d 886e a83d
00000020: 217e 9d3d c91e f33d aca0 8f3d 7c6e f9bd
00000030: 3bd7 033e ab6d 583e d265 de3d 8d19 143e
00000040: 519f 3b3e 6770 8b3d 37e3 85bd c21b 1d3e
00000050: 6349 293d 6653 f33d 58ce 1e3e da23 113e
00000060: e94c c33d 9c39 3b3d 8ecd 0abd a6b9 2b3c
00000070: aa86 3d3e 139b a63b 114b 213d 6327 893d
00000080: 2159 363e 8588 d73d 5ee8 1c3e 0817 65bd
00000090: 7db9 d93d 9cd6 433d 3eff f33d c0ea 713e
000000a0: b0d4 363e 9346 b43c 6361 7d3d 4498 c5bc
000000b0: 2230 6f3d 5102 13bc 55f4 14bd e847 01bd
000000c0: 5af6 e1bc 0ebe 3f3d 6538 df3d aee6 6b3e
000000d0: 99a0 233e b79f 003d 47d6 113e ccd7 923d
000000e0: fbc3 c9bc ae2d 1fbe 4c1e 3a3e f159 f6ba
000000f0: 2c58 b83d d54c 843b ddd3 fe3d f859 c2bc
00000100: b758 44be 383c 363d ff71 be3e 4759 2f3e
00000110: d9fc e1bd 7c4e 0bbe 7fc0 153c af9c 28bd
00000120: 4ff7 c93d b1c5 8fbe 8998 80bd 3aae 28be
00000130: 3a56 83be 17a1 29be b19a 51bd 96dd 20be
00000140: 1b14 563d fc9b 02be 26a4 36bd abf9 a3bd
00000150: be73 553e a98d cd3c 7599 973c b463 0dbe
00000160: 5864 9fbc 66aa d8bc 348f 93bc 92d6 e73d
00000170: 15ed 0cbc 0ec7 a83c b9e5 2cbd a2b8 71be
00000180: 936c 0b3e bfdf bbbc 55c6 0b3e 7e04 3abe
00000190: 60d8 28be 4bc7 2dbe 59fe d23c 78f3 3d3e
000001a0: 7f46 dcbd 882b f83d 85d1 d93b 2cf3 723d
000001b0: 6722 f83c 1956 10bd 01c2 91bc 4638 303d
000001c0: 285d ebbd 876d a23d 3fe8 9a3d 4649 96bd
000001d0: 83e5 2ebe 1247 903d 230e 9b3d 24cd c6bd
000001e0: 70f7 8bbd f785 ebbb 4f8c 073e fee8 5a3e
000001f0: 0e5b 3bbe 6407 30bd c855 8abd adea bf3d
00000200: 187d 0abe 535d e03d d2a9 953c 6cb3 07be
00000210: 2c64 2cbe d38d 143e f35f e13d e4ec 53be
00000220: 12ee 26be 0e3e 2e3e 4f28 643e 87b0 803d
00000230: 4101 1f3e 3747 123e 9f47 2bbe d53d 1b3e
00000240: 8585 29be 532b 23be 561b 19bc c3ac 373c
00000250: d9e9 31be 41a6 293e 5a74 483e 1fab 3c3e
00000260: 65f0 08be 8f1b fb3c 4412 0d3e 7828 5fbe
00000270: c270 42be 2aee 0abe 26bd 263e 518a 4d3e
00000280: ab95 83be a4cd 73be 39a4 3abc 369d 4e3e
00000290: cef4 1b3e c534 19be 63c8 16be 1fce 10bd
000002a0: cfd6 44be 114f ad3d 137c 52bc 4f37 383e
000002b0: d214 12be 185c 2bbe 4fcf 6c3e 4457 263d
000002c0: 3298 bd3d b03b fbbc 8178 0b3e 80e4 f6bd
000002d0: e5ba 69be 8280 8fbd 6f6f 363e be52 60be
000002e0: 723d 02be 084f 013e a642 fbbd c317 5ebd
000002f0: 7180 cd3d 5e2c 5e3e 13dc 3e3e 65f4 623e

gru.bias_hh_l0 f4 [192]
-0.12020278 0.20462643 0.023355424 -0.0038504396 0.13260871 0.19533046 0.08116917 0.090560935
0.19663195 0.10056456 0.051793434 -0.030996477 0.13990542 0.056824192 0.1554462 0.055157196
0.20163424 0.09357995 -0.16542675 0.15905625 -0.110702276 0.063303165 0.0050147474 0.17787786
0.13010654 0.055359066 0.17816281 0.051848296 0.026140528 0.13276851 -0.003072622 0.1474997
-0.014531973 0.2281093 0.049678124 0.0073216595 0.21058543 0.18755792 0.13017568 0.11759552
0.10361254 0.16180731 0.03009165 0.06959554 0.1801866 0.015243965 0.00048154313 -0.02248158
-0.058938555 -0.0066896025 0.18270776 0.030263806 0.08917823 0.02477938 0.1323152 0.18165903
-0.011131366 -0.12361808 0.08510688 -0.056393858 0.14616753 0.11594209 -0.045672193 0.021715775
0.006665101 -0.099485874 0.45589653 0.32033488 0.039179813 -0.13561931 -0.18181188 -0.2748624
0.09239607 -0.16926853 -0.1761714 -0.09433632 -0.2299019 -0.07642998 -0.16561522 -0.048379384
-0.06552604 -0.1619462 -0.24999222 -0.20556483 0.24463038 -0.04497785 0.0029503386 -0.05737364
-0.13293508 -0.14325082 -0.03603483 -0.032247983 -0.12525682 0.11504289 0.13754229 -0.25820068
0.075849116 0.036824845 0.061574787 -0.0037248603 -0.11577733 -0.12109497 -0.13095215 0.29087794
-0.14407776 0.026170524 0.010035936 -0.05325757 -0.14891179 -0.057582248 -0.077662826 0.051523052
0.03241496 -0.026787952 0.13574009 -0.01190928 -0.049768195 -0.16686246 -0.010131106 -0.048023827
-0.1415659 -0.11866047 -0.002859429 0.17562082 -0.029546479 0.16126414 0.055749156 0.09777066
-0.17387664 0.20547996 -0.102324955 -0.0061340295 -0.2184009 0.23149869 0.18073249 -0.0408402
-0.21258003 0.2372997 0.14378278 -0.016262516 0.2264189 0.18187661 -0.05047131 0.19970486
-0.15469511 -0.03714668 0.10192485 -0.10232905 -0.13741352 0.13573465 0.19501537 0.018964566
-0.13864878 -0.13879097 0.18556859 -0.1404278 -0.13945745 -0.19049513 0.008591806 0.086102724
-0.01680788 -0.21923079 -0.068690635 0.016443295 0.15172197 -0.12156385 -0.032625724 -0.083944894
-0.0011587044 0.18220998 -0.10971282 0.12888917 -0.15953015 -0.18471448 0.098772585 0.12395525
0.0044620964 -0.13437565 -0.035968073 -0.24017912 -0.14955772 -0.15003046 0.090309344 -0.0041872114
-0.09991312 -0.0028488755 -0.13620938 0.09221179 0.22970216 0.05311298 0.14997508 0.011126754
00000000: e02c f6bd 9789 513e e053 bf3c a857 7cbb
00000010: 94ca 073e b504 483e 063c a63d 0378 b93d
00000020: e359 493e cbf4 cd3d 5a25 543d 53ec fdbc
00000030: 5e43 0f3e 7cc0 683d 4a2d 1f3e 83ec 613d
00000040: 3579 4e3e d8a6 bf3d a165 29be a4df 223e
00000050: e0b7 e2bd 17a5 813d c052 a43b 9d25 363e
00000060: a63a 053e 30c0 623d 5070 363e e15e 543d
00000070: a924 d63c 78f4 073e 0b5e 49bb 290a 173e
00000080: 8317 6ebc 7c95 693e 4a7b 4b3d 88ea ef3b
00000090: b5a3 573e 2f0f 403e c64c 053e ecd5 f03d
000000a0: d032 d43d d1b0 253e c482 f63c 1b88 8e3d
000000b0: d682 383e d3c1 793c a077 fc39 4a2b b8bc
000000c0: 8e69 71bd 7434 dbbb be17 3b3e cdeb f73c
000000d0: 13a3 b63d 20fe ca3c a37d 073e d304 3a3e
000000e0: 5560 36bc 7a2b fdbd 844c ae3d 3ffd 66bd
000000f0: f1ac 153e 0c73 ed3d c412 3bbd 48e5 b13c
00000100: eb66 da3b 40bf cbbd 456b e93e ef02 a43e
00000110: 037b 203d cadf 0abe e52c 3abe c4ba 8cbe
00000120: 273a bd3d bb54 2dbe 4766 34be 6733 c1bd
00000130: 676b 6bbe 5287 9cbd 0997 29be 7629 46bd
00000140: 8432 86bd 3ad5 25be f6fd 7fbe 967f 52be
00000150: 6380 7a3e b23a 38bd 785a 413b 9f00 6bbd
00000160: 2220 08be 58b0 12be 4299 13bd 7616 04bd
00000170: 5343 00be 9b9b eb3d e3d7 0c3e e132 84be
00000180: c856 9b3d a6d5 163d d835 7c3d c91c 74bb
00000190: aa1c edbd a400 f8bd 5218 06be f4ed 943e
000001a0: 1f89 13be 9163 d63c c46d 243c 9c24 5abd
000001b0: 557c 18be 5ddb 6bbd b00d 9fbd d609 533d
000001c0: 8dc5 043d 6872 dbbc 73ff 0a3e 241f 43bc
000001d0: bcd9 4bbd fedd 2abe f0fc 25bc a2b4 44bd
000001e0: a7f6 10be 4304 f3bd 4265 3bbb f2d5 333e
000001f0: 750b f2bc 6d22 253e 3a59 643d fc3b c83d
00000200: b80c 32be 5769 523e bf8f d1bd f8ff c8bb
00000210: 7ca4 5fbe fe0d 6d3e f011 393e 0e48 27bd
00000220: 94ae 59be b1fe 723e cb3b 133e f838 85bc
00000230: 5bda 673e dd3d 3a3e 01bb 4ebd 6e7f 4c3e
00000240: 6568 1ebe 1e27 18bd fabd d03d e591 d1bd
00000250: 21b6 0cbe 06fe 0a3e 1cb2 473e 945b 9b3c
00000260: f2f9 0dbe 381f 0ebe b105 3e3e 4ecc 0fbe
00000270: efcd 0ebe 2811 43be a5c4 0c3c a056 b03d
00000280: aeb0 89bc 097e 60be adad 8cbd 17b4 863c
00000290: 015d 1b3e 78f6 f8bd 8da2 05bd 4deb abbd
000002a0: abdf 97ba 4195 3a3e 1db1 e0bd 86fb 033e
000002b0: df5b 23be cb25 3dbe 4849 ca3d 40dc fd3d
000002c0: c736 923b c599 09be 4253 13bd 84f1 75be
000002d0: a925 19be 96a1 19be 1bf4 b83d e034 89bb
000002e0: 409f ccbd 33b4 3abb 797a 0bbe 89d9 bc3d
000002f0: 0b37 6b3e ff8c 593d 1193 193e fd4c 363c

notes_decoder.weight f4 [128, 64]
0.060987115 -0.093724884 0.15558282 0.18003492 0.18281311 -0.05552674 -0.044987462 0.07365775
0.13835979 -0.1910308 -0.26940218 0.020343527 -0.08094597 -0.28060213 0.050929498 -0.21238178
0.23110779 0.073793344 0.066413455 0.039890572 0.2903505 -0.18005463 -0.274707 -0.16470923
0.2814717 0.18734115 -0.1855158 0.1883497 0.16080897 0.12766238 -0.17604972 -0.12367094
0.14776446 0.14186396 -0.06141526 -0.26117486 -0.18376487 0.19176577 0.15081811 0.21333067
0.09596905 -0.19029202 0.13494362 -0.23977765 0.048930198 0.27835935 -0.16745415 -0.2086906
0.030358538 0.17508909 -0.115809694 0.22245502 0.14120805 0.12429857 -0.18723606 0.12103438
0.24502143 -0.123703 0.13728659 0.084900066 -0.11096836 -0.1214386 -0.1015493 -0.06303176
0.0441929 -0.0625227 0.038707633 0.19585483 0.119493954 -0.27741307 -0.108824626 0.14467548
0.16691487 -0.26033193 -0.15209438 0.11385342 -0.08388549 -0.07174219 0.27365318 -0.15579104
0.2904841 0.27043507 -0.029800115 0.14293605 0.19573401 -0.1196374 -0.096971996 -0.2150193
0.08903676 0.21720545 -0.1996602 0.1839269 0.28830016 0.13133655 -0.15399522 -0.19153365
0.14874013 0.13077857 -0.033424325 -0.16300784 -0.20247956 0.21130629 0.13377863 0.17677054
0.1795944 -0.21215877 0.049282625 -0.081596956 0.27690235 0.097265966 -0.20122443 -0.05466839
0.017443743 0.0892185 -0.14747478 0.1659309 0.16512477 0.19711322 -0.21171336 0.15562901
0.28421536 0.004428393 0.2286769 0.030306835 -0.25665623 -0.06263868 -0.13245678 -0.12696747
-0.041187245 -0.20594494 0.1755402 0.23935683 0.25667638 -0.08960448 -0.070890225 0.20964971
0.29504985 -0.073879436 -0.1620424 -0.07284912 -0.2654764 -0.26680362 0.14160885 -0.11002701
0.08946997 0.0849106 0.019380854 0.021960068 0.21399562 -0.104567975 -0.16585465 -0.2396631
0.27443236 0.20817015 -0.19773735 0.22934867 0.23633444 0.19465563 -0.17075385 -0.18689935
0.08797849 0.09319194 -0.17732108 -0.21519503 -0.20335962 0.1651388 0.15623291 0.16180216
0.20074497 -0.050235108 0.058229722 -0.10926348 0.27964923 0.18327492 -0.24963109 -0.052265525
0.116757855 0.123959355 -0.20111118 0.15194431 0.2486743 0.1958559 -0.09470698 0.13006844
0.16773129 -0.032259986 0.085342646 0.14247978 -0.033020075 -0.068312995 -0.08361943 -0.16725962
0.04037424 -0.16587935 0.22858717 0.09787555 0.0896876 -0.14336415 -0.07540293 0.07899
0.245741 -0.1245215 -0.22521652 0.055467032 -0.24850403 -0.06288123 0.27075973 -0.14021425
0.13527423 0.077513 0.071698084 0.23322631 0.1274839 -0.114679016 -0.2770877 -0.07907225
0.2240184 0.21547559 -0.050128765 0.29196227 0.091044955 0.26297945 -0.18444617 -0.2876691
0.22216658 0.28063774 -0.0819468 -0.24720562 -0.071834326 0.18009682 0.27607855 0.15500562
0.24927239 -0.12562928 -0.008537781 -0.11772232 0.19739702 0.113097675 -0.28055692 -0.16256319
-0.06066071 0.08349593 -0.21038227 0.05797172 0.053443596 0.1277914 -0.07439898 0.18792205
0.14290123 0.03648625 0.27024832 -0.0148827955 -0.1290337 -0.108317435 -0.021550154 -0.29026085
00000000: a0cd 793d d5f2 bfbd 1a51 1f3e 135b 383e
00000010: 5c33 3b3e 0270 63bd c644 38bd e0d9 963d
00000020: 30ae 0d3e 949d 43be 15ef 89be 78a7 a63c
00000030: 00c7 a5bd 15ab 8fbe 739b 503d 9c7a 59be
00000040: 85a7 6c3e f720 973d c703 883d 4c64 233d
00000050: d2a8 943e 3e60 38be 65a6 8cbe 89a9 28be
00000060: 0f1d 903e 5cd6 3f3e dbf7 3dbe bede 403e
00000070: 1bab 243e edb9 023e 6146 34be 3147 fdbd
00000080: 914f 173e c944 113e 918e 7bbd b6b8 85be
00000090: dc2c 3cbe 3f5e 443e 1070 1a3e 5b73 5a3e
000000a0: 6c8b c43d e9db 42be a92e 0a3e 4688 75be
000000b0: 086b 483d 1e85 8e3e 1a79 2bbe fdb2 55be
000000c0: 78b2 f83c 8e4a 333e a22d edbd 40cb 633e
000000d0: d898 103e 4090 fe3d cfba 3fbe dfe0 f73d
000000e0: e6e6 7a3e 0058 fdbd db94 0c3e 16e0 ad3d
000000f0: 6143 e3bd cdb4 f8bd 14f9 cfbd cc16 81bd
00000100: 9d03 353d e70b 80bd e58b 1e3d 2b8e 483e
00000110: 3fb9 f43d 1609 8ebe 72df debd cf25 143e
00000120: bbeb 2a3e 3a4a 85be a1be 1bbe fb2b e93d
00000130: 28cc abbd 92ed 92bd 451c 8c3e b087 1fbe
00000140: 55ba 943e 7776 8a3e 5f1f f4bc d45d 123e
00000150: 7f6e 483e 7404 f5bd 4199 c6bd 052e 5cbe
00000160: e858 b63d 1b6b 5e3e b973 4cbe 5557 3c3e
00000170: 149c 933e 177d 063e ecb0 1dbe 6621 44be
00000180: 554f 183e d1ea 053e f2e7 08bd 87eb 26be
00000190: cd56 4fbe ad60 583e 44fd 083e 5603 353e
000001a0: 98e7 373e 2640 59be 94dc 493d 4e1c a7bd
000001b0: 25c6 8d3e 6133 c73d c70d 4ebe f6eb 5fbd
000001c0: 2ee6 8e3c 30b8 b63d a103 17be cae9 293e
000001d0: 7816 293e 0cd8 493e 63cb 58be 365d 1f3e
000001e0: ad84 913e 0e1c 913b 472a 6a3e 0a46 f83c
000001f0: 7268 83be b548 80bd c0a2 07be c303 02be
00000200: f5b3 28bd 3be3 52be cfc0 333e f519 753e
00000210: 166b 833e 8e82 b7bd e52e 91bd 6aae 563e
00000220: c610 973e 1a4e 97bd 71ee 25be eb31 95bd
00000230: 86ec 87be 7c9a 88be e901 113e d755 e1bd
00000240: 083c b73d 9ce5 ad3d 99c4 9e3c 9ae5 b33c
00000250: ab21 5b3e bc27 d6bd cdd5 29be 3e6a 75be
00000260: 6682 8c3e 8e2a 553e a97b 4abe 61da 6a3e
00000270: a801 723e ce53 473e 19da 2ebe 8b62 3fbe
00000280: 112e b43d 6adb be3d a893 35be 165c 5cbe
00000290: 813d 50be 251a 293e 85fb 1f3e 77af 253e
000002a0: 1790 4d3e 54c3 4dbd 4a82 6e3d 88c5 dfbd
000002b0: 2f2e 8f3e 6cac 3b3e 4b9f 7fbe 6014 56bd
000002c0: be1e ef3d 67de fd3d 17f0 4dbe 4a97 1b3e
000002d0: 7aa4 7e3e 738e 483e bcf5 c1bd a930 053e
000002e0: c0c1 2b3e 0c23 04bd 20c8 ae3d 38e6 113e
000002f0: 0f40 07bd afe7 8bbd aa40 abbd 1b46 2bbe
00000300: 765f 253d 47dc 29be c112 6a3e fa72 c83d
00000310: 22ae b73d 0dce 12be da6c 9abd 82c5 a13d
00000320: 87a3 7b3e 2105 ffbd 299f 66be 6631 633d
00000330: d777 7ebe e0c7 80bd 05a1 8a3e 5394 0fbe
00000340: 5485 0a3e 23bf 9e3d 72d6 923d e1d2 6e3e
00000350: 248b 023e d5dc eabd 70de 8dbe a2f0 a1bd
00000360: 1465 653e a2a5 5c3e d253 4dbd 147c 953e
00000370: c775 ba3d 3ea5 863e 75df 3cbe 5d49 93be
00000380: a37f 633e c0af 8f3e b9d3 a7bd 7823 7dbe
00000390: e01d 93bd 4d6b 383e 2b5a 8d3e cbb9 1e3e
000003a0: 4341 7f3e f6a4 00be 0de2 0bbc 6618 f1bd
000003b0: 7222 4a3e c19f e73d 28a5 8fbe f776 26be
000003c0: 5d77 78bd eaff aa3d 736e 57be c173 6d3d
000003d0: ace7 5a3d c0db 023e 7e5e 98bd a36e 403e
000003e0: b354 123e 9b72 153d fd5d 8a3e f8d6 73bc
000003f0: 6921 04be 88d5 ddbd f389 b0bc 129d 94be

notes_decoder.bias f4 [128]
-0.030412685 -0.17880544 -0.13987911 -0.23998447 -0.14049836 -0.14294422 -0.200279 -0.1751609
-0.23487502 -0.24921621 -0.14957565 -0.055371646 -0.046986002 -0.18366073 -0.056529548 -0.22066537
-0.043624654 -0.20047654 -0.054086916 -0.080187164 -0.15721773 -0.12388786 -0.056908146 -0.13484281
-0.07704728 -0.19408818 -0.08036156 -0.085504375 -0.0969756 -0.032591887 -0.16761988 -0.20354068
-0.1896413 -0.12041049 -0.07941334 -0.035859823 -0.13030665 -0.06441755 -0.038220692 -0.21274862
-0.18274792 -0.079355635 -0.23927276 -0.17245333 -0.22098939 -0.118450426 -0.1257373 -0.12974903
-0.15216653 -0.03907121 -0.07436941 -0.04130931 -0.026565833 -0.15594368 -0.2302155 -0.16407517
-0.17798926 -0.03644291 0.0036577235 -0.24564707 -0.011723739 -0.036748894 -0.032988265 -0.14356306
-0.016363546 -0.22738379 -0.026141815 -0.110521175 -0.21780953 -0.1881599 -0.14993805 -0.17265569
-0.21016422 -0.056649376 -0.10780774 -0.14109254 -0.21330613 -0.0347964 -0.16335295 -0.08906232
-0.21841449 -0.2199244 -0.20110059 -0.21245798 -0.17241773 -0.11384017 -0.05494215 -0.19443423
-0.0442041 -0.116357386 -0.23905261 -0.07566933 -0.17296004 -0.07291672 -0.20091122 -0.25674194
-0.06552913 -0.009322908 -0.18795703 -0.18179825 -0.04460587 -0.06487735 -0.062074516 -0.22283323
-0.2503223 -0.04869591 -0.25093675 -0.2647626 -0.23756637 -0.112402946 -0.06315171 -0.1419381
-0.21435939 -0.08336552 -0.07844791 -0.13820885 -0.20094173 -0.21479589 -0.22508511 -0.16214873
-0.0679961 -0.23100989 -0.13209473 -0.06517939 -0.044409335 -0.049684487 -0.20153035 -0.113400884
00000000: 0624 f9bc c618 37be 783c 0fbe 7dbe 75be
00000010: cdde 0fbe f85f 12be f015 4dbe 615d 33be
00000020: 1483 70be 8932 7fbe 5c2a 19be 61cd 62bd
00000030: 6574 40bd 8f11 3cbe 878b 67bd 1af6 61be
00000040: c4af 32bd b949 4dbe 3e8a 5dbd 2b39 a4bd
00000050: affd 20be ebb8 fdbd 8418 69bd 3c14 0abe
00000060: f7ca 9dbd 0dbf 46be 9a94 a4bd eb1c afbd
00000070: 259b c6bd 127f 05bd 8ca4 2bbe f86c 50be
00000080: 5431 42be c699 f6bd 76a3 a2bd c0e1 12bd
00000090: 1b6f 05be 59ed 83bd 4d8d 1cbd c6da 59be
000000a0: 4522 3bbe 3585 a2bd eb03 75be 9b97 30be
000000b0: 0b4b 62be 2396 f2bd 47c1 00be eedc 04be
000000c0: 8bd1 1bbe 2209 20bd fd4e 98bd f333 29bd
000000d0: 97a0 d9bc b3af 1fbe 9dbd 6bbe 5203 28be
000000e0: d142 36be 2945 15bd 6bb6 6f3b e88a 7bbe
000000f0: ed14 40bc 0286 16bd b41e 07bd 3202 13be
00000100: d80c 86bc 4cd7 68be 5c27 d6bc ed58 e2bd
00000110: 7609 5fbe fdac 40be 5c89 19be a7cc 30be
00000120: 4a35 57be 2d09 68bd 4eca dcbd 907a 10be
00000130: ec6c 5abe ac86 0ebd ff45 27be 4e66 b6bd
00000140: 0ca8 5fbe dd33 61be 50ed 4dbe 968e 59be
00000150: 468e 30be 0925 e9bd 050b 61bd c419 47be
00000160: 5c0f 35bd c84c eebd 35ca 74be 86f8 9abd
00000170: 701c 31be 5c55 95bd acbb 4dbe ae73 83be
00000180: 2334 86bd 1cbf 18bc cf77 40be 5229 3abe
00000190: a5b4 36bd 6bde 84bd d941 7ebd 652e 64be
000001a0: 3f2a 80be 5d75 47bd c87a 80be f78e 87be
000001b0: 9944 73be 8433 e6bd af55 81bd 3958 11be
000001c0: 0781 5bbe 8bbb aabd 4ca9 a0bd 9f86 0dbe
000001d0: abc3 4dbe 74f3 5bbe b67c 66be 510a 26be
000001e0: 8a41 8bbd db8d 6cbe d743 07be c67c 85bd
000001f0: 90e6 35bd f681 4bbd f95d 4ebe b93e e8bd
