saved_models/generalist_BCE_1e-2_181.pth (torch_old, 167373 bytes, 8 tensors)

notes_encoder.weight f4 [64, 128]
000000 81 46 ab bd 36 a3 65 bd ba 12 5c 3d 6b ea 8f 3d
       -0.08363057 -0.056063853 0.053728797 0.070271336
000010 d9 30 91 bd 49 3e 5e bd b8 a1 09 3c 3d da 7b bd
       -0.07089395 -0.05425862 0.008400373 -0.061487425
000020 9b bf 7c bd 00 64 aa bb f8 18 76 bc 42 77 70 3d
       -0.061706167 -0.005199909 -0.015020601 0.058707483
000030 d3 66 a7 bd ec ee 05 bd 60 35 3c 3c ce 73 67 3d
       -0.08173909 -0.032698557 0.011487335 0.056506924
000040 31 60 5c bd 46 56 a8 bd 1c 92 92 bc 98 e2 91 3c
       -0.053802673 -0.0821958 -0.017891936 0.017808244
000050 76 46 3b 3d 32 37 6c bd 3e 43 ab bd e0 cf 92 3c
       0.045721494 -0.057669826 -0.08362435 0.017921388
000060 e7 56 b4 bd 70 f0 d7 3b 56 70 31 3d 10 03 ba 3c
       -0.08805638 0.0065899417 0.043320023 0.022706538
000070 c2 e1 77 3d 3c 73 c5 bc 30 60 ca 3c 40 9e 59 bc
       0.060518034 -0.0241028 0.024704069 -0.013282359
000080 6c 95 4c bd 8c a2 d1 3c fe a2 04 bf 1e 39 16 3d
       -0.049947187 0.025590204 -0.51811206 0.036675565
000090 1f 01 ae bd 10 df ec 3b f9 17 c5 bd af f2 72 be
       -0.084963076 0.0072287396 -0.09623713 -0.23725389
0000a0 a6 4d dc 3d 39 8c 52 3d 27 ae 54 bf fc be 00 bf
       0.10756998 0.051403258 -0.83078235 -0.5029142
0000b0 19 5f 5c 3f d7 76 e0 be d6 b1 ee 3d 0e 1e 56 3e
       0.8608261 -0.43840668 0.11655013 0.20909902
0000c0 74 67 9d 3e d5 65 bd 3e c1 93 e8 3e a4 80 e9 3d
       0.3074299 0.36991754 0.45425227 0.114014894
0000d0 cb 6f bb bd 88 6b 5c 3d 44 1f 68 be 13 63 1b 3e
       -0.09152182 0.053813487 -0.22668177 0.15174513
0000e0 2c 8c 29 3f 00 2c 0e 3c ca 2a 76 3e 9b 59 9d 3e
       0.6622951 0.008677483 0.2403976 0.30732426
0000f0 1a 24 16 3e a1 e7 2d 3f 43 09 5d 3e 25 fc a9 3e
       0.14662209 0.6793156 0.21585564 0.33200184
000100 62 fc 5d 3e 71 32 36 3c d0 0e a0 bc f4 de 87 3e
       0.21678308 0.011120425 -0.019538313 0.26537287
000110 f6 33 45 3f 72 24 71 3e 3d bb 02 3f 44 fe 41 3f
       0.7703241 0.23549059 0.5106695 0.75778604
000120 24 5d b0 3e af c2 37 3e ea 5c 73 3e 56 1b 07 bf
       0.3444606 0.1794536 0.23765913 -0.52776086
000130 bf 9d 98 3e 02 f6 16 3f c3 c3 21 be c4 82 b3 3e
       0.2980785 0.5896913 -0.15797333 0.35060704
000140 7d d8 5e 3e e6 75 00 3e 34 1c d6 3c f3 57 ad bd
       0.21762271 0.12544975 0.026136495 -0.084640406
000150 b0 27 65 be 9e da 92 be bf 47 6a bd 5b cd 14 bf
       -0.22378421 -0.28682417 -0.05719733 -0.5812585
000160 ff fd 9b be 08 39 e5 3d d8 5c a0 bd fd 96 98 3d
       -0.3046722 0.111925185 -0.078302085 0.07450674
000170 9c 6e a7 bc 94 9f e8 3c 00 6e fd 3b 08 e5 c8 bc
       -0.020438485 0.028396405 0.0077340603 -0.024523273
000180 04 eb 96 bd 20 5c 54 bb 6b f1 4f bd 95 c6 9b 3d
       -0.073690444 -0.0032403544 -0.050767343 0.07606236
000190 59 79 ac 3d 4d 47 ac 3d 0e d7 d9 bc 34 c3 96 bd
       0.08421583 0.08412037 -0.026591804 -0.07361451
0001a0 70 21 69 bc 32 0a 5d 3d 33 22 58 bd be af 30 3d
       -0.0142291635 0.0539648 -0.05276699 0.04313635
0001b0 50 f5 05 bc a8 2c 34 bc 39 cf 0e bd d3 c0 4f bd
       -0.008176163 -0.010996975 -0.03486559 -0.050721
0001c0 72 7d 60 3d fc 6e e4 3c 22 32 31 3d 61 d1 51 bd
       0.054807134 0.027884953 0.0432607 -0.05122507
0001d0 c6 b1 38 3d 24 fb ea 3c ae ab 74 3d a6 b8 5c 3d
       0.045091413 0.028684206 0.05973404 0.053887032
0001e0 00 72 59 3c 81 c6 ac 3d 80 54 98 3b 2c ba 89 bc
       0.013271809 0.08436299 0.004648745 -0.016812406
0001f0 60 42 0d 3c bc b0 39 bd d2 52 79 3d a4 9d d6 3c
       0.008621782 -0.045334563 0.06087 0.026198216
000200 81 5f a7 bd 5a 3f 75 3d a5 37 82 3d e0 fa d5 3b
       -0.08172513 0.05987487 0.063582696 0.006530151
000210 bf eb ae bd f3 61 9b 3d b0 33 c1 3c c8 04 96 bd
       -0.08541059 0.07587042 0.023584217 -0.07325131
000220 00 dc df 3b 9c 25 be bc 8f 75 80 3d b0 06 e1 bb
       0.006831646 -0.023211293 0.062724225 -0.0068672523
000230 a3 21 08 bd ba ca 3b 3d 20 44 b1 3c 20 32 4a 3c
       -0.033235203 0.045847632 0.02163893 0.012341052
000240 21 95 8e bd bb c9 a9 bd 08 72 da 3c 80 0f 07 ba
       -0.06962038 -0.0829043 0.026665702 -0.0005152151
000250 84 73 90 bc c0 88 d9 bb e0 5b 52 bc a9 06 09 bd
       -0.017633207 -0.0066386163 -0.0128392875 -0.033453617
000260 3e f6 41 3d 6c 15 d5 bc 3c 6a dd bc 52 a5 8b bd
       0.047353975 -0.026011191 -0.027028196 -0.06818642
000270 d8 a2 92 3c 38 fc c8 bc c0 95 ae 3b 45 68 2c bd
       0.017899916 -0.02453433 0.00532791 -0.042091627
000280 5e 77 69 3d 6c 62 cb bc 30 ed 06 3c f4 49 ed 3c
       0.056998603 -0.024827205 0.008235261 0.028965928
000290 56 15 09 bd 40 33 91 3b a1 7b 8e bb 6d f7 3c bd
       -0.033467613 0.0044311583 -0.004348234 -0.0461344
0002a0 c7 1b 40 bd ef b4 dd bd 53 0e a9 bd 98 f2 50 be
       -0.04690149 -0.10825526 -0.08254685 -0.20405042
0002b0 1e e2 76 bd 41 1c 7c bd a3 53 d0 bd d0 0c c0 bd
       -0.060274236 -0.061550383 -0.101722024 -0.09377444
0002c0 d2 00 df bd 84 5c 85 bd d7 aa 9e bd 0c 79 23 be
       -0.10888828 -0.065117866 -0.07747429 -0.15964144
0002d0 85 25 9f bb e2 14 3c bd 41 de 4e bd 44 1d ee bd
       -0.0048567676 -0.045918353 -0.050504927 -0.11626676
0002e0 6b 9e cd bd c8 d3 a0 bd 27 20 29 be 2d cc ce bd
       -0.100399815 -0.07852894 -0.16516171 -0.10097537
0002f0 7f af 18 be ac c3 77 bd 28 7f 1f bd d1 41 c5 bc
       -0.14910696 -0.06048934 -0.038939625 -0.024079235
000300 7e 8d 9b bd 79 ea 66 bd b5 b2 40 be 4a 86 1a be
       -0.07595347 -0.056375954 -0.18818171 -0.1509029
000310 7e ac 8f bc 03 fd 2f be 2e 5f a0 bd 47 68 2b be
       -0.017538305 -0.1718636 -0.07830654 -0.16738997
000320 15 fa ba bd 2f 5b d9 bd 99 c8 30 bd de 3d 7d bd
       -0.091297306 -0.10613095 -0.043160055 -0.06182658
000330 af 4d 0d bd 9c 29 b8 3c 32 dc f8 bd 22 60 c5 bd
       -0.034497913 0.022480778 -0.12151374 -0.096374765
000340 5a ff 1e bd 37 d7 00 be 2e cf 29 bd 37 17 61 bd
       -0.03881774 -0.12582098 -0.041457348 -0.05495378
000350 f3 cb 09 be 3a d7 19 bc 46 75 3b bc 4c 80 be bd
       -0.13456707 -0.009389693 -0.011441534 -0.093018144
000360 08 d4 42 bd eb e1 77 bc 64 39 8d bd 66 d0 1a 3d
       -0.04756549 -0.015129547 -0.06895712 0.0377964
000370 94 d3 09 bd ec e3 bb bc f8 2e b3 bc 01 b0 9a 3d
       -0.033649042 -0.02293583 -0.021872982 0.07553101
000380 86 70 30 bd 90 0a d7 3c ad 62 13 bd b1 4e 8a 3d
       -0.04307606 0.026250154 -0.035982776 0.067532904
000390 e8 eb 66 3c e2 6c 59 3d 0d 6a 57 bd e3 5b 81 3d
       0.01409433 0.053082354 -0.052591372 0.06316354
0003a0 fa af 38 3d ad 0c 56 bd 72 f0 47 3d ba 67 68 3d
       0.0450897 -0.052258182 0.04881329 0.056739546
0003b0 47 f7 24 bd 5e ef 51 3d a1 55 87 bd 5c 13 a5 bc
       -0.040274885 0.05125367 -0.06608129 -0.020150833
0003c0 1e 74 a6 bd c0 04 c8 ba 34 63 9c bd 65 c5 9f 3d
       -0.08127616 -0.0015260205 -0.07636109 0.07801322
0003d0 c9 a9 ae 3d 0c 4b d6 3c 9c c9 ca bc c0 65 21 bc
       0.08528478 0.026158832 -0.024754338 -0.009850919
0003e0 c0 1c 7c bd 8f fc 0f bd 28 0d 02 bc 32 2d 99 bd
       -0.061550856 -0.035152968 -0.007937707 -0.074793234
0003f0 5a c5 36 3d 1e ad 6b 3d 1c 20 f0 bc 30 f7 2e 3c
       0.044621803 0.057538144 -0.029312186 0.010679051

notes_encoder.bias f4 [64]
000000 e6 6f 00 be a0 16 2b be 67 68 27 be 60 0b 33 3e
       -0.12542686 -0.1670785 -0.1634842 0.17484808
000010 66 b2 6f bd bb 3b 2c be 4e f1 43 be 2b d0 0f 3e
       -0.058519743 -0.1681966 -0.19135019 0.14044254
000020 85 64 20 3e 23 e1 3b 3d f5 00 08 3e d7 8a a2 3d
       0.15663345 0.045869004 0.13281615 0.07936638
000030 d8 6f fb bc da 06 18 3e 26 a2 af 3d 02 7a 38 be
       -0.03069298 0.14846364 0.08575849 -0.18015292
000040 2c 67 2b be f8 68 33 be 74 92 0f be fc 0e 14 3e
       -0.16738576 -0.17520511 -0.14020711 0.14458841
000050 4e 9b 38 be 7e ec 26 be 3f c8 00 3e 0d fe 70 be
       -0.18027994 -0.16301152 0.12576388 -0.23534413
000060 eb 01 47 3e ff ee 52 3e ce 14 46 3e d5 df 53 be
       0.19434325 0.20598982 0.19343874 -0.20690854
000070 1c f5 25 3d e7 50 db bd 79 12 b1 3d d8 d4 0b be
       0.040516958 -0.1070879 0.086461015 -0.13655412
000080 2d e5 9c 3d 0f ef 41 3e a3 99 0a be ac 5d f4 bd
       0.07660899 0.1893885 -0.1353517 -0.11931929
000090 37 ab 8d 3c 1c 0f fa 3d c3 5b 0f 3e c8 0a e0 bd
       0.017293556 0.12209913 0.13999848 -0.10939556
0000a0 03 f1 43 bd 0d 5b 5a be a6 3b 84 3d 75 4b 31 be
       -0.04783727 -0.21323796 0.064566895 -0.17313941
0000b0 5b 45 8e 3d 92 1d 9d bb 3e 5a 28 3e e5 15 04 3e
       0.06946822 -0.004794785 0.16440675 0.12898977
0000c0 ed f9 11 3e 66 74 2d 3e 51 8b 68 bd 44 f5 10 3e
       0.14255495 0.16938934 -0.056773487 0.14156061
0000d0 77 9c 3f 3d 6c 09 09 3e cb b9 34 3e 1a 98 dd bd
       0.046780076 0.133825 0.17649 -0.10820027
0000e0 ac 5b 2c 3e 87 b9 87 3d 26 42 fa bd c1 7e 29 3e
       0.16831845 0.066271834 -0.12219648 0.16552259
0000f0 dc 67 38 3e e8 a0 0f 3e 6d 14 e7 bd a3 54 55 be
       0.18008369 0.14026225 -0.11283193 -0.20833068

gru.weight_ih_l0 f4 [192, 64]
000000 6e 15 27 3d 52 fa 65 3e 9b 84 78 3e 15 81 2a bb
       0.04079192 0.22458771 0.24269335 -0.002601688
000010 28 79 ce 3c d4 8d 38 3e 83 d7 05 3e 51 54 30 bc
       0.025204256 0.18022853 0.13070492 -0.01076229
000020 ad b5 6e be 47 18 ac bc f1 13 3a 3d 32 7f d6 bc
       -0.23311491 -0.02100767 0.045429174 -0.026183698
000030 6c 73 9c 3d 29 f8 42 be 52 13 6d bd ff cd 40 3d
       0.076392025 -0.19039978 -0.057879753 0.047071453
000040 86 1f 58 3e 00 2b 34 3d dd 7e 41 3e 54 3a e3 bd
       0.21105775 0.04398632 0.18896051 -0.110951096
000050 b1 a2 f2 3d ca 0a 25 3e 55 5c 67 bd 22 78 33 3e
       0.11847437 0.16117397 -0.05648454 0.17526296
000060 fa 2c 65 be 27 12 ed bd 22 06 34 be b0 98 2d 3e
       -0.22380438 -0.11575728 -0.17580464 0.16952777
000070 c0 c6 0e be 3a e2 27 3e 04 b4 5a bd 21 01 30 3d
       -0.13943005 0.16394892 -0.053394333 0.042969827
000080 90 8b 3c be 99 9d 59 bd f5 c2 19 3e fd ac 2c 3e
       -0.18412614 -0.053128812 0.15015776 0.16862865
000090 42 2d 8a bd 20 40 32 be 4a 18 74 be 68 1b 41 3d
       -0.067469135 -0.17407274 -0.2383739 0.047145277
0000a0 5b d6 01 3e 98 47 d8 3d 11 01 ee 3c 40 a3 8e bd
       0.12679426 0.105605304 0.029053243 -0.06964731
0000b0 e4 97 4c bc 07 99 82 3d c7 08 10 be 36 d4 4c bc
       -0.012487385 0.06376844 -0.14065848 -0.012501767
0000c0 50 d8 10 3c 5a 78 60 be 7f 50 f3 bd d9 d0 07 be
       0.008840635 -0.2192091 -0.11880588 -0.13263263
0000d0 84 c7 47 3d d3 b4 36 be b8 57 b2 bd da 96 9a 3d
       0.048774257 -0.17842416 -0.08708137 0.07548304
0000e0 27 74 2b be 02 d7 cf bc d9 ad f5 3d df ed eb bd
       -0.16743527 -0.025371078 0.119960494 -0.1151998
0000f0 33 bb 80 be 01 5a df bd e8 b8 d3 3d 10 ea 28 3d
       -0.25142822 -0.10905839 0.103380024 0.041238844
000100 03 81 2c 3d c0 6d 68 be c8 98 a3 bd 49 1e 24 3e
       0.042115223 -0.22698116 -0.07988125 0.16027178
000110 4f db 30 be 60 97 15 be 17 e9 2f bd b7 60 34 3e
       -0.1727116 -0.14608526 -0.0429469 0.17615019
000120 8d a5 d5 b9 60 ec b4 bc a2 8f 5b 3c ad ab 81 3d
       -0.0004074987 -0.022085369 0.013400944 0.06331573
000130 02 b3 a7 3c c0 a7 c5 3d 39 2c 92 3b 88 53 d2 bd
       0.0204711 0.096511364 0.004460838 -0.102698386
000140 c1 6a d2 bb ba d4 34 3c 55 f4 21 3b a7 30 11 3e
       -0.0064214175 0.011037046 0.0024712284 0.14178716
000150 e3 12 52 be 63 bf 5d be 47 ec e6 bc 8c ec 4f bd
       -0.20515017 -0.2165504 -0.028188838 -0.050762698
000160 52 e2 5f 3e b9 d5 fa 3d 14 54 00 3e 32 3b c0 bd
       0.21863678 0.122477956 0.12532073 -0.093862906
000170 c6 03 24 3e 41 a9 8e bd 3d 39 38 3e 5f ae f9 bd
       0.16017064 -0.06965876 0.17990585 -0.12191462
000180 f1 94 15 bd 48 00 04 3d c3 6a 16 bd d6 d4 89 bd
       -0.036518995 0.03222683 -0.03672291 -0.06730048
000190 7f 29 de 3d f6 66 42 3e 43 49 c8 3d 79 c1 21 be
       0.108477585 0.18984589 0.097795986 -0.1579646
0001a0 78 75 21 be c8 83 f3 bd 44 d2 86 3d ad 5b 94 3c
       -0.15767467 -0.1189037 0.06583074 0.01811012
0001b0 f9 d6 2b 3e 8a 67 c5 3d 03 fe dc 3d 20 85 14 3e
       0.16781224 0.09638889 0.107906364 0.14503908
0001c0 44 a1 23 3e 4f a5 19 3e d7 78 88 3d 49 0d 10 3e
       0.15979487 0.15004466 0.06663673 0.14067568
0001d0 26 cf 2b bd 8a 65 e6 3d f8 e3 02 3d 08 6c 0a be
       -0.0419456 0.11249836 0.03195569 -0.13517773
0001e0 92 2f 5b 3c fe 43 b5 bd 2f 67 32 bd 8a 95 28 bb
       0.013378041 -0.08850859 -0.043555435 -0.0025723898
0001f0 f3 f9 5e 3e dc ce b2 3d f7 bd 82 bd 79 90 e9 bd
       0.21775036 0.087308615 -0.06383889 -0.11404509
000200 ef ea 70 3e 91 88 c1 bd 91 e8 47 be d0 c1 0f 3e
       0.2352712 -0.09449876 -0.19522311 0.14038777
000210 a0 83 1a be 15 e0 cb 3c e7 13 88 bc ff de 2a 3e
       -0.15089273 0.024887124 -0.016611053 0.16686629
000220 02 4e bf 3d ea 48 53 3e 1e 4a fb bd ad aa 23 3e
       0.09341051 0.20633283 -0.12269996 0.15983076
000230 6c 06 14 bd 1c 4d e4 bc ca fb c2 ba cd 75 34 bd
       -0.036138937 -0.0278688 -0.0014876064 -0.044057656
000240 c1 08 b4 bd b5 03 af bc e3 42 0b 3d 7f a5 0b 3e
       -0.08790732 -0.021364072 0.033999335 0.1363735
000250 cd 26 ae 3c 0a df 43 be 17 bd d7 3d 3e d2 42 be
       0.021258736 -0.19128051 0.10534113 -0.19025514
000260 92 5f e3 3d 03 54 51 3d a4 0f ef 3d 28 88 d5 bd
       0.11102213 0.05110551 0.11672905 -0.1042636
000270 46 65 77 3d 48 dd f9 bc 1d 62 51 3e c7 ba 39 be
       0.060399316 -0.030501023 0.20447583 -0.18137656
000280 70 4f 20 3e 63 b7 79 bc c3 7e 43 bd cc 3d 11 ba
       0.15655303 -0.015241477 -0.04772831 -0.00055405195
000290 60 d6 5d 3e 0f d2 38 3d ee 4a 05 3e 3f 40 0f be
       0.21663809 0.045122202 0.13016865 -0.13989352
0002a0 c2 e7 86 b7 4a 3e 44 be f6 bb d5 3c f4 bf fb bd
       -1.6081965e-05 -0.19164386 0.026090603 -0.122924715
0002b0 6a 60 1c 3d 0a 3b b9 bd 93 0d 21 3c a2 64 64 3d
       0.038177885 -0.09044464 0.0098298965 0.055760033
0002c0 1d 56 01 be e1 52 93 3d fb e6 b0 3d a9 5c 48 3e
       -0.12630506 0.07193542 0.08637806 0.19566597
0002d0 26 7a 35 3e d1 19 eb 3d 20 ec 1e 3e b5 40 9c bc
       0.17722377 0.114795335 0.15519762 -0.019073823
0002e0 f1 0c 34 3e cf 32 ae bd 46 2f 03 3d 1a aa 34 3e
       0.17583062 -0.08505785 0.032027505 0.17643014
0002f0 37 ee b8 3d db ea 84 3d 6a 2a 5d bd b8 f9 17 be
       0.09029811 0.064901076 -0.053995527 -0.14841354
000300 0d 47 1b 3e ff 78 f4 bd c5 7b ce bc 64 a5 23 3d
       0.15163822 -0.11937141 -0.025205502 0.03995265
000310 de 19 5b be 94 10 58 bc 08 fd 05 be 02 cc 27 3e
       -0.21396586 -0.013187546 -0.13084805 0.16386417
000320 b0 51 40 3e de c7 ba 3d e6 d5 a2 bd 7f e4 ff 3d
       0.18781161 0.09120153 -0.07950954 0.12494754
000330 9a 5a 5b 3e 83 1a 0d 3e 4d 1c 97 3c 08 94 0d be
       0.2142128 0.13779645 0.018446112 -0.13826
000340 8a 54 2e be 35 1b e9 bd 5c 78 cb bc ca 9a 6d 3d
       -0.17024437 -0.113821425 -0.024837665 0.058008946
000350 48 cd 47 be d1 48 55 bd 2b 4e be 3d a9 30 f1 3c
       -0.19511902 -0.052071396 0.09292253 0.029442148
000360 36 94 b7 3d f0 7f fb 3b d7 1d 04 bd 31 a8 94 bb
       0.08963816 0.0076751634 -0.03225502 -0.0045366515
000370 4e a0 00 3e fa 62 d3 bd cf 47 4e 3e 57 05 96 bd
       0.12561151 -0.10321613 0.2014458 -0.07325237
000380 1e 05 c1 3d 9f 49 44 3e 01 3d b9 bd 7b a0 bd bc
       0.09424804 0.19168709 -0.09044839 -0.023147812
000390 38 7a 64 3e 40 47 d1 3d b6 ae 2e 3e 87 e7 38 bd
       0.22312248 0.10218668 0.17058834 -0.045142677
0003a0 93 e6 d7 bd ac b0 11 be 5a 64 1b 3e 6b 97 e5 bd
       -0.105420254 -0.14227551 0.15175 -0.11210521
0003b0 d8 ea 13 3e c5 96 ae bd bd e3 e6 3d dd 97 17 3c
       0.14445055 -0.08524851 0.112739064 0.009252516
0003c0 74 29 0c be 97 78 aa 3d c1 aa fb 3b 5a 7d 42 3e
       -0.13687688 0.08323782 0.0076802676 0.1899313
0003d0 b3 1e db 3a 8b f2 d4 3c fb b2 c4 3c b9 22 0e be
       0.0016717523 0.02599456 0.024011126 -0.13880433
0003e0 da db eb 3d 9f 59 3e be 58 c9 55 be 28 9d c7 bc
       0.11516543 -0.18588875 -0.20877588 -0.02436693
0003f0 a3 7b 00 bd 9d 3e 2d 3e 5f 06 03 be a7 78 82 bd
       -0.03136791 0.16918416 -0.12795399 -0.06370669

gru.weight_hh_l0 f4 [192, 64]
000000 ae a6 ba 3c a1 73 41 bd 99 68 0d be 31 b1 4e 3e
       0.022784557 -0.047229413 -0.13809432 0.2018478
000010 cc cf a0 3d 76 49 15 be 90 e7 c2 bd d3 d9 22 3e
       0.07852134 -0.14578804 -0.09516823 0.15903406
000020 a9 b7 81 3e e5 18 55 bd ed 87 ba bd b4 68 05 3e
       0.25335434 -0.052025694 -0.09107957 0.13028222
000030 e6 ae ac bb 7e 6d 6b be 11 89 b9 3c f1 87 97 bd
       -0.005269873 -0.22990987 0.022648366 -0.07398976
000040 9b ce 81 3d 2d ca 6d 3e bc 75 ed bd 9f c6 bc bc
       0.06338235 0.23221655 -0.11594722 -0.023043929
000050 a7 58 25 3e 57 d0 30 be 3c 05 2f be 81 bf 37 be
       0.161471 -0.17266975 -0.1709184 -0.17944147
000060 ab 1a 2c 3c 1f 9a 3b 3e 06 db 31 be 56 17 d7 3d
       0.010504405 0.18320511 -0.17368707 0.10502498
000070 62 c2 91 3c b2 18 54 3e 1f 05 2a be 53 73 4a be
       0.017792884 0.20712546 -0.16603516 -0.19770555
000080 d5 f2 52 3c a8 74 71 3e 01 e8 a8 bd de 0f 13 bd
       0.0128752785 0.23579657 -0.08247376 -0.035903804
000090 0c d4 3f be d2 7a 28 3e e6 bf ae ba 88 14 2f 3e
       -0.18733233 0.16453102 -0.0013332337 0.17097676
0000a0 f0 d6 af 3d 48 92 1c be b5 2b 9a 3d a2 23 1b be
       0.08585918 -0.15290177 0.07527868 -0.15150312
0000b0 9b 5a 2e 3e 7b af 9c 3d 5e 79 d2 bd 7e c1 b7 bd
       0.1702675 0.07650658 -0.10277055 -0.089724526
0000c0 90 1b 97 bc 5b 59 34 3e 8b 32 6f be 29 e6 21 3e
       -0.01844576 0.17612211 -0.23359124 0.15810455
0000d0 7d b5 01 3e 8e f7 80 3d b7 a9 92 bd 30 7b 4e 3e
       0.12666889 0.06297217 -0.07161277 0.2016418
0000e0 b2 77 a4 3b e4 0d 8a bd 8b 8d 17 3e f3 6c 17 3d
       0.0050191516 -0.06740931 0.14800088 0.036969136
0000f0 79 35 ce bd 65 c4 e4 bd fa 2b c3 bd 63 8f 15 be
       -0.10068793 -0.11170272 -0.09529872 -0.14605479
000100 a9 8f 2c bd 89 72 36 3d 56 58 8e 3d e0 7d c7 bd
       -0.042129193 0.044542823 0.069504425 -0.097408056
000110 f9 64 87 3c 4f ae ce 3d 57 1a 58 3e 8a 19 e4 bc
       0.01652764 0.100918405 0.21103798 -0.02784421
000120 9a ce 69 bd 1a 80 1e 3e 92 52 9c 3d 5f 4b c3 bd
       -0.057081796 0.15478554 0.076329365 -0.0953586
000130 80 54 bf 3d be 72 c6 3d 85 22 18 be 97 27 98 3d
       0.09342289 0.09689854 -0.14856918 0.07429426
000140 2c 88 e6 3a 9f 36 2c be af 48 3a 3d 93 d2 2a be
       0.001758819 -0.16817711 0.045479473 -0.1668189
000150 22 4b 9c bd f0 a9 63 3e b4 d3 32 3e e9 50 5c 3d
       -0.07631518 0.22232795 0.17463571 0.0537881
000160 42 26 8e bc d7 26 06 be 60 77 a2 3d b0 5d 7e bd
       -0.017352227 -0.13100754 0.07932925 -0.062101066
000170 b9 5d e8 bd fb bb bb bd 0b 78 22 bd cd 94 06 3e
       -0.11346001 -0.09166714 -0.039665263 0.131427
000180 a1 ad 19 be f2 f2 90 bd 0e 97 b3 3c 4c 93 50 3e
       -0.1500764 -0.07077588 0.021922614 0.2036869
000190 5d a7 55 3e 39 20 e8 bd a4 a3 37 be ed 72 0e 3b
       0.20864625 -0.11334271 -0.17933518 0.0021735982
0001a0 2b 52 63 be 94 c3 da bb 6b 10 51 be 1a 4a 41 3e
       -0.22199313 -0.0066761468 -0.20416419 0.18875924
0001b0 7f dc 26 bd 5a d6 a0 bd cd 78 26 3e ce 25 89 3d
       -0.040737625 -0.07853384 0.1625702 0.06696664
0001c0 c8 1e 63 bd 97 de b0 bd 7b 83 2f bd 60 13 e0 bd
       -0.055449277 -0.08636206 -0.04285 -0.109411955
0001d0 cd c8 9a bc 61 e6 d3 3c c9 d5 1d 3e 0a 93 c4 b9
       -0.018894577 0.02586669 0.15413584 -0.00037493586
0001e0 f1 e5 1d be 3c 9e 02 be 48 0d 36 be 70 bc 76 3d
       -0.15419747 -0.12755674 -0.17778504 0.0602383
0001f0 07 d2 52 3d cd a9 51 3e d3 23 af ba 14 15 45 3e
       0.05146983 0.2047493 -0.0013362117 0.19246322
000200 a7 cf 8a be 06 8b bf 3d e9 87 d9 bd 9b 68 50 3c
       -0.2711155 0.093526885 -0.10621626 0.012720252
000210 65 5a 3f be a0 e9 28 3e c3 bd 30 bc f6 52 ee bc
       -0.18686827 0.16495371 -0.01078743 -0.029092293
000220 36 2b 6a be 26 7a b0 3d 14 2a a4 3d 15 3f 11 3e
       -0.22868046 0.08617048 0.08015838 0.1418422
000230 e5 64 5a 3e e2 99 dd bb ed 5c 76 be 90 99 2c 3e
       0.2132755 -0.006762729 -0.24058886 0.16855454
000240 e7 ca e6 bd 2c 4c 2e be 21 47 e8 3d 5d 1e b2 bc
       -0.11269169 -0.17021245 0.11341692 -0.021742994
000250 7d a0 b5 bc 10 6d 80 3d e3 de 0d 3e 60 aa 79 3d
       -0.022171253 0.06270802 0.13854556 0.060953498
000260 7d 5f 58 be f7 44 6f be d8 e6 9c 3d 31 ea cc bd
       -0.21130176 -0.23366152 0.076612175 -0.10005606
000270 7f ef 44 be d8 1c f8 bd 3b aa 62 3e b2 a0 f5 3d
       -0.19231986 -0.121148765 0.2213525 0.11993541
000280 10 d0 b7 bd d8 3c 67 be 49 f0 be 3d 5a 7c ae bc
       -0.08975232 -0.22581804 0.093231745 -0.02129953
000290 62 16 59 3e 37 67 2c be a5 4b 23 be df 10 91 bb
       0.21199945 -0.16836248 -0.15946825 -0.00442706
0002a0 ac 35 64 bd e8 e4 51 3d 30 51 cb bd bb 96 9c 3d
       -0.055715248 0.051243693 -0.09927595 0.07645937
0002b0 b3 0e 01 bd 78 c5 77 bd db 1e 4b 3e 8d 39 4f 3d
       -0.03150816 -0.060491055 0.19835989 0.050591994
0002c0 81 29 39 3e a6 08 8f 3c 94 34 0b 3e 61 6e 65 be
       0.18082239 0.017460179 0.13594276 -0.22405387
0002d0 83 90 c5 bd 97 17 d9 bd 76 ea 41 bc b0 1b e9 bd
       -0.09646704 -0.106002025 -0.011835685 -0.11382234
0002e0 8a 07 0b be 75 b7 59 3e 98 5c 0f be 4f 5b c2 bc
       -0.13577095 0.2126139 -0.14000165 -0.02372518
0002f0 76 07 6b 3d f0 7d 47 bc 35 d8 7a 3e fc f4 91 3d
       0.057380162 -0.012176022 0.24496539 0.07126805
000300 d4 69 0e be 84 0e c6 3d b6 eb 13 be 23 1a 26 be
       -0.13907558 0.096707374 -0.14445385 -0.16220908
000310 10 4b 40 3c 68 a9 0e 3e 28 a7 30 3e 8a 8b 9f 3c
       0.011736646 0.13931811 0.17251265 0.019475717
000320 16 6a ff bb 43 84 88 bc a4 70 3c 3c ff a6 a5 bb
       -0.007794629 -0.01666463 0.011501465 -0.005055308
000330 bc e7 4e 3e d5 69 7d bc 57 1f 06 be 63 4d 3c 3e
       0.20205587 -0.015467127 -0.13097893 0.18388896
000340 39 b9 12 bd 37 54 a8 3c 51 d0 28 3e fb c0 46 be
       -0.035821173 0.02054797 0.16485716 -0.19409554
000350 8e fb 25 bb 20 8f 3e 3e f8 10 44 3d 64 d4 13 3e
       -0.002532694 0.18609285 0.047867745 0.1443649
000360 ec 3e 0e 3d a5 84 2f bc 9f 87 98 3d 1c 9c 81 bd
       0.034727976 -0.010712777 0.07447743 -0.063286036
000370 20 41 28 bb 3c 8c 07 bd 26 36 9b 3d b2 95 c8 3d
       -0.0025673583 -0.033092722 0.07578687 0.09794177
000380 c7 05 1f be d8 18 2d 3c 74 59 31 3e f2 61 18 bc
       -0.15529548 0.010565005 0.1731928 -0.009300696
000390 4d c4 51 3e 0a a9 13 bc 8a 04 39 bd 1a 78 48 be
       0.20485039 -0.00901247 -0.045170344 -0.19577065
0003a0 d2 70 12 be 60 de 21 3e 87 3c cc bd 19 06 13 3e
       -0.1430085 0.15807486 -0.09972482 0.14357795
0003b0 ef e0 15 be e5 28 3d be 8c 23 e8 bc 03 0a 74 3d
       -0.14636587 -0.18472631 -0.028337263 0.05957986
0003c0 5b 2b a9 3d 17 49 b8 bd d4 56 0d 3e 96 fb 79 3b
       0.082602225 -0.08998316 0.13802654 0.0038144342
0003d0 48 ba 3c be 70 b2 73 be 69 de 49 3d 74 a6 40 bd
       -0.18430436 -0.23798537 0.049284372 -0.047033742
0003e0 7f 1d c1 bd a1 08 ae 3d f3 43 a3 bd 87 86 c5 bd
       -0.09429454 0.084977396 -0.07971945 -0.096448
0003f0 d1 ab c7 3d 6a 60 39 3e cf 51 03 3e 5a 89 a4 3c
       0.09749568 0.18103185 0.12824176 0.020085026

gru.bias_ih_l0 f4 [192]
000000 c2 45 4d be d0 7f 16 3e d2 04 0e bd 8e f3 25 3e
       -0.20046142 0.14697194 -0.034672566 0.1620619
000010 7d d5 6f 3c 02 98 c0 3d 91 19 9c 3d a2 e1 a8 3d
       0.014638302 0.09403993 0.07622064 0.08246161
000020 26 03 9e 3d da 95 f3 3d 58 29 90 3d e6 0b ff bd
       0.07715444 0.11893816 0.07039136 -0.12453441
000030 ef 19 04 3e 01 aa 58 3e b7 e3 de 3d 17 5e 14 3e
       0.12900518 0.21158601 0.10883277 0.14489017
000040 39 df 3b 3e 80 dd 8b 3d 99 b6 84 bd 96 53 1d 3e
       0.18346871 0.06829357 -0.0648014 0.15363917
000050 44 b5 29 3d 9e cf f3 3d be 0e 1f 3e f0 5b 11 3e
       0.041432634 0.11904834 0.15532967 0.14195228
000060 8e c9 c3 3d bf 3f 3c 3d 73 cd 09 bd b2 5a 30 3c
       0.09559928 0.04595923 -0.033643197 0.010763811
000070 20 bf 3d 3e ee 59 ad 3b 12 2b 22 3d 50 af 89 3d
       0.1852994 0.0052902615 0.039591856 0.06722891
000080 29 9a 36 3e a1 00 d8 3d 6e 35 1d 3e 55 2a 64 bd
       0.17832245 0.10546995 0.15352413 -0.055704433
000090 b4 29 da 3d 17 c7 44 3d 37 69 f4 3d eb 40 72 3e
       0.106524855 0.04804143 0.11934131 0.23657577
0000a0 4c 05 37 3e 06 6b b6 3c 33 41 7e 3d 08 ca c3 bc
       0.17873114 0.02226783 0.062073898 -0.023900047
0000b0 25 0d 70 3d 48 4e 0f bc 71 d3 13 bd b2 72 00 bd
       0.058606286 -0.008746691 -0.036090318 -0.031359382
0000c0 41 83 e1 bc 5b a3 40 3d 26 b5 df 3d bf 1f 6c 3e
       -0.027528407 0.047030788 0.10923223 0.23058985
0000d0 96 d6 23 3e 3d 88 01 3d 8d 0b 12 3e ea 46 93 3d
       0.15999827 0.031624068 0.14262219 0.0719126
0000e0 8c b2 c7 bc ef ec 1d be 0b 57 3a 3e 1b c3 1a 3c
       -0.02437713 -0.15422414 0.18197267 0.009445931
0000f0 45 c6 b8 3d ce 25 8c 3b fb 7d ff 3d 8e c2 c0 bc
       0.09022192 0.0042769676 0.12475201 -0.02353027
000100 a1 96 3f be bb 6b 16 3d 5b 3a bf 3e e1 91 38 3e
       -0.18709804 0.036723834 0.3734921 0.18024398
000110 ab 0d f7 bd 8b 7c 0e be f9 0f 9e 3b 6f c6 b7 bb
       -0.12063154 -0.13914697 0.0048236814 -0.005608372
000120 34 2a cb 3d 7f 41 93 be ff 8e ab bd 92 71 0e be
       0.09920159 -0.28760907 -0.08376884 -0.13910511
000130 93 f7 88 be f5 dd 35 be 73 ac 8a bd a3 9b 1b be
       -0.26751384 -0.17760451 -0.06771173 -0.1519609
000140 e7 c9 35 3d ab 53 96 bd 71 b3 89 3d 29 89 6a bd
       0.044382002 -0.07340177 0.06723679 -0.057259712
000150 48 75 4d 3e a2 00 91 3c 53 19 a9 bc b7 9d 16 be
       0.2006427 0.017700497 -0.020641958 -0.14708601
000160 1c 83 df bc bc 3f 0b bd 9d 2d ba 3d cd 81 da 3d
       -0.027284198 -0.03399633 0.09090731 0.10669289
000170 9c 3e ed bb a9 61 84 3c dc d4 53 bd 43 c8 80 be
       -0.0072401296 0.01615985 -0.05171667 -0.25152788
000180 47 14 04 3e ec 5a ee bc 74 0d 8d 3e 59 c1 35 be
       0.1289836 -0.02909609 0.27549326 -0.17749538
000190 a8 10 34 be f9 61 3b be f8 c8 e2 3c 52 c8 d8 3e
       -0.17584479 -0.18299092 0.02768372 0.42340332
0001a0 df ef e7 bd 20 07 f1 3d 62 d7 a0 3d 3d ed 3d 3d
       -0.11325049 0.11768937 0.07853581 0.046368826
0001b0 70 67 c8 3c 84 4c 00 bd 5d 7b f5 bc e5 5d 21 3d
       0.024463385 -0.03132297 -0.02996605 0.039396185
0001c0 5e fd 91 be 0d 0c 8e 3d 4d 7c 44 3e 5a 62 9a bd
       -0.28513616 0.06935892 0.19188042 -0.0753829
0001d0 81 22 30 be 82 ea 73 3d 62 82 84 3d c3 d7 fa 3c
       -0.17200662 0.059549816 0.06470181 0.030620461
0001e0 1c 77 9a bd b0 e8 cf 3c 9f 05 04 3e d4 bf b0 3e
       -0.075422496 0.025379509 0.1289277 0.34521353
0001f0 2a 7f 12 be af c7 56 bd 02 a2 9b bd 18 73 cb 3d
       -0.14306322 -0.052436527 -0.0759926 0.09934062
000200 03 29 a6 bd 7b c8 e0 3d 80 9c 94 3c 54 e7 07 be
       -0.08113291 0.109757386 0.018141031 -0.13271838
000210 37 a3 2c be 3b c7 14 3e 44 d8 e1 3d ad 28 54 be
       -0.16859137 0.14529125 0.110275775 -0.20718642
000220 7a 2b 27 be 8c 7c 2e 3e 20 69 64 3e da d1 ab bd
       -0.16325179 0.17039698 0.22305727 -0.083896354
000230 2a 42 1f 3e 0a 82 12 3e 56 82 2b be b4 7a 1b 3e
       0.15552583 0.14307418 -0.16748938 0.15183526
000240 55 c8 29 be aa 65 23 be 17 d3 66 3b 6a e5 34 3c
       -0.16580327 -0.1595675 0.0035221034 0.011041025
000250 62 2e 32 be 0d e1 29 3e ec af 48 3e 77 e8 3c 3e
       -0.17400506 0.16589756 0.19598359 0.18448053
000260 d4 2d 09 be 46 10 fa 3c 36 4a 0d 3e ed 68 5f be
       -0.13396388 0.030525338 0.1379784 -0.2181737
000270 1f ae 42 be 36 29 0b be fc f8 26 3e 81 c8 4d 3e
       -0.19011734 -0.1358994 0.16305918 0.20096017
000280 a3 b9 83 be 7b 0a 74 be 5a ad 39 bc 9c df 4e 3e
       -0.25727567 -0.23832123 -0.011332834 0.20202488
000290 8c 2b 1c 3e f4 71 19 be 04 05 17 be 5a 55 11 bd
       0.15250987 -0.14984876 -0.14748007 -0.03548179
0002a0 01 0c 45 be 2c ce ad 3d d6 b6 55 bc f6 75 38 3e
       -0.1924286 0.0848659 -0.01304408 0.18013749
0002b0 e0 51 12 be 6c 9b 2b be a4 14 6d 3e 73 28 27 3d
       -0.14289045 -0.16758507 0.23152405 0.04081006
0002c0 8c 5b b9 3d 21 fc fc bc fd a1 0b 3e a0 5c f7 bd
       0.09050664 -0.030881943 0.13636012 -0.12078214
0002d0 af f4 69 be 36 f0 8f bd bd aa 36 3e c0 90 60 be
       -0.22847246 -0.070282385 0.17838569 -0.21930218
0002e0 d5 7f 02 be f4 ba 05 3e 23 bb fb bd 19 24 60 bd
       -0.12744077 0.13059598 -0.12291553 -0.054721925
0002f0 77 f6 cd 3d 4b 6a 5e 3e 90 1c 3f 3e 11 3f 63 3e
       0.10056775 0.21720235 0.1866324 0.22192027

gru.bias_hh_l0 f4 [192]
000000 ad 57 ff bd e9 be 51 3e e1 59 c1 3c d1 1d 6a bb
       -0.12467895 0.20482983 0.023602428 -0.0035723338
000010 b6 09 08 3e ef 3a 48 3e 4c b2 a6 3d 1d eb b9 3d
       0.13284954 0.19553731 0.08139476 0.090780474
000020 5e 9c 49 3e dc 6b ce 3d ae 36 55 3d 09 31 0a bd
       0.19688556 0.10079166 0.0520541 -0.03373817
000030 12 86 0f 3e ec b1 69 3d 3e 6c 1f 3e b5 fe 62 3d
       0.14015988 0.057054445 0.15568635 0.05541869
000040 1d b9 4e 3e f1 13 c0 3d 50 cf 28 be 78 17 23 3e
       0.20187803 0.093788035 -0.16485333 0.15926921
000050 f6 81 e2 bd 4f 21 82 3d ae 5f ac 3b b3 5d 36 3e
       -0.11059944 0.06354009 0.0052604293 0.17809181
000060 f6 78 05 3e 53 c6 63 3d 57 b0 36 3e 23 87 55 3d
       0.13034424 0.05560906 0.17840706 0.05213083
000070 7b e8 d7 3c 69 2a 08 3e b4 5d 3b bb 1a 4e 17 3e
       0.026355973 0.13297428 -0.0028589787 0.14775887
000080 dd 06 6a bc 86 d1 69 3e 92 af 4c 3d 23 50 f7 3b
       -0.014283863 0.22833833 0.049972124 0.007547395
000090 cd db 57 3e 46 4b 40 3e c1 81 05 3e 46 82 f1 3d
       0.21079941 0.18778715 0.13037778 0.11792426
0000a0 13 94 d4 3d 5b f5 25 3e 6c 42 f8 3c ab fb 8e 3d
       0.103798054 0.16206877 0.03030511 0.069815956
0000b0 11 ba 38 3e dc 75 7d 3c 88 75 46 3a df 80 b6 bc
       0.18039729 0.015469994 0.0007570614 -0.022278247
0000c0 01 30 71 bd e5 09 d4 bb 1d 56 3b 3e 59 b4 f9 3c
       -0.05888367 -0.006470906 0.18294568 0.030481504
0000d0 11 0f b7 3d 2c cf cc 3c e9 b2 07 3e 5e 3c 3a 3e
       0.089384206 0.025001131 0.13251843 0.18187091
0000e0 7a 3d 32 bc fc a9 fa bd ff bd ae 3d b1 99 38 bd
       -0.010878915 -0.12239453 0.08532333 -0.045068447
0000f0 fc e3 15 3e 93 f0 ed 3d 7d be 39 bd b2 7c b3 3c
       0.1463775 0.116181515 -0.04534768 0.021910045
000100 41 55 39 3c 75 a7 db bd a1 33 ea 3e 3b 9f a8 3e
       0.01131183 -0.10725299 0.45742515 0.32933983
000110 cd b2 ec 3c d9 0d 0e be 6c 98 3e be 86 0c 75 be
       0.028893853 -0.1387247 -0.18612832 -0.23930559
000120 0c 6d be 3d 51 4c 34 be 80 e1 49 be 0d ba 8c bd
       0.09298143 -0.17607237 -0.19714928 -0.06871424
000130 14 ae 76 be 0d 01 b5 bd 94 86 3a be 99 21 31 bd
       -0.24089843 -0.08838091 -0.182154 -0.04324493
000140 9d 57 96 bd 24 c6 dc bd 32 7b 0d be 09 25 3b be
       -0.0734093 -0.1077998 -0.13816527 -0.18275847
000150 ec 81 72 3e 36 81 56 bd bf 43 14 bd 56 f4 87 bd
       0.23682374 -0.05236932 -0.03619742 -0.066384
000160 f9 23 10 be f8 6a 1a be c7 44 95 3d fb bf 1e bd
       -0.14076222 -0.15079868 0.07288509 -0.038757306
000170 e3 bc fd bd 44 82 e2 3d 17 1c 03 3e d3 1e 8c be
       -0.12389543 0.110600024 0.12803684 -0.27367267
000180 20 a6 8c 3d 2a 30 fb 3c 09 62 4d 3e f7 59 e5 39
       0.06867623 0.030662615 0.20056929 0.00043745313
000190 99 c6 01 be 00 9b 09 be ff 1e 04 be 45 5e 07 3f
       -0.12673415 -0.13438034 -0.12902449 0.5287822
0001a0 cf 5d 19 be e7 d1 b9 3c 01 c8 a7 3d 44 95 87 bd
       -0.14977191 0.022683097 0.081924446 -0.06620267
0001b0 b4 73 1e be c8 d1 5b bd 08 fc b7 bd 75 2f 44 3d
       -0.15473825 -0.05366686 -0.08983618 0.04789682
0001c0 c7 1a 0d be 2a 7c 16 bd d0 03 81 3e eb e7 63 bc
       -0.13779746 -0.036739506 0.2519822 -0.013910274
0001d0 a9 cd 50 bd e7 06 36 be 76 2d ad bc c6 28 a3 3d
       -0.050977383 -0.1777607 -0.021139842 0.07966761
0001e0 7f 36 18 be b3 51 b0 bd df 88 ce bb 4f 36 9d 3e
       -0.14864539 -0.08609333 -0.0063029374 0.30705497
0001f0 1b a7 29 3c 5b 72 1b 3e c8 c0 41 3d 67 c4 d3 3d
       0.010354782 0.15180342 0.04730299 0.10340195
000200 89 20 32 be a1 9f 52 3e e8 d1 d1 bd 2f 7a cf bb
       -0.17395224 0.20568706 -0.102451146 -0.006331704
000210 d6 e4 5f be ab 47 6d 3e 23 4f 39 3e 5e 3b 28 bd
       -0.21864638 0.2317187 0.18096595 -0.041072242
000220 c2 ed 59 be 6f 3e 73 3e 88 7d 13 3e d5 4d 88 bc
       -0.21282104 0.23754285 0.14403355 -0.016638676
000230 e0 1c 68 3e 5a 7a 3a 3e 13 ab 4f bd 34 bf 4c 3e
       0.22667265 0.18210736 -0.05070026 0.19994813
000240 ee ab 1e be 83 14 19 bd 10 50 d0 3d 2a ed d1 bd
       -0.15495273 -0.037373077 0.10171521 -0.102503136
000250 02 f8 0c be 6d 3a 0b 3e 8b ef 47 3e e5 4e 9d 3c
       -0.13766482 0.13596506 0.19524972 0.019202659
000260 d3 38 0e be f5 3b 0e be af 3e 3e 3e 7d 10 10 be
       -0.13888864 -0.1389006 0.185786 -0.1406879
000270 a7 0c 0f be 10 4d 43 be ca a3 10 3c 59 d6 b0 3d
       -0.1396967 -0.19072366 0.008828113 0.086346336
000280 2c dc 8b bc 4b bc 60 be 04 9f 8c bd 12 dc 88 3c
       -0.01707276 -0.21946828 -0.06866267 0.0167065
000290 30 95 1b 3e fe 72 f9 bd 56 99 06 bd e6 36 ac bd
       0.1519363 -0.12180136 -0.032861076 -0.084089085
0002a0 37 a5 b2 ba b2 d6 3a 3e a7 1c e1 bd f4 3b 04 3e
       -0.001362956 0.18245962 -0.10991793 0.12913495
0002b0 7f 99 23 be d2 66 3d be 99 d3 ca 3d b9 49 fe 3d
       -0.15976523 -0.18496254 0.0990364 0.12416405
0002c0 85 2b 95 3b 5a d3 09 be df b1 12 bd 5a 2e 76 be
       0.004552307 -0.1345953 -0.035814162 -0.24041119
0002d0 20 60 19 be 46 db 19 be 35 6d b9 3d 90 09 91 bb
       -0.14978075 -0.15025052 0.09054033 -0.0044261888
0002e0 3b 27 cd bd 12 9a 32 bb 89 b7 0b be 15 06 bc 3d
       -0.10017248 -0.0027252478 -0.13644232 0.091808476
0002f0 2d 72 6b 3e 35 88 5a 3d d1 c1 19 3e 71 d3 3a 3c
       0.22992773 0.053352553 0.15015341 0.011402951

notes_decoder.weight f4 [128, 64]
000000 54 10 89 3d e5 da c6 bd 41 e2 1f 3e 59 f5 38 3e
       0.066925675 -0.097097196 0.15613653 0.18062343
000010 88 2a 41 3e cc f4 71 bd d8 41 4d bd 68 42 a0 3d
       0.1886388 -0.059071347 -0.05011162 0.07825166
000020 f1 85 14 3e 4e 52 48 be 17 c6 8e be 51 2f 92 3c
       0.1450422 -0.19562647 -0.27885506 0.017844828
000030 d8 df b2 bd 3c 6f 92 be e1 bb 69 3d 8f 01 63 be
       -0.08734101 -0.2860049 0.05706394 -0.22168563
000040 f6 54 71 3e ad 56 a1 3d cc 24 80 3d 3a 82 39 3d
       0.23567566 0.0787786 0.062570184 0.04529021
000050 b5 c2 96 3e cf ff 3e be 28 a8 8f be 64 20 2d be
       0.29445425 -0.1865227 -0.2805798 -0.16906887
000060 a7 af 92 3e 6e 6b 55 3e 7d cf 43 be 17 94 49 3e
       0.28649637 0.20841762 -0.19122119 0.19685398
000070 21 d1 28 3e 06 df 06 3e b2 b7 3a be 17 0d 06 be
       0.16486026 0.13171014 -0.18234137 -0.13090931
000080 d9 d5 1c 3e f6 48 16 3e 62 1b a5 bd 53 5f 88 be
       0.15315951 0.1467627 -0.080618635 -0.26635227
000090 83 ae 40 be 8c 5c 49 3e 4f af 1e 3e b3 5e 6f 3e
       -0.18816571 0.1966421 0.15496562 0.23375969
0000a0 ae 82 cc 3d 55 a7 4a be 44 ab 10 3e 27 60 7a be
       0.09985863 -0.19790395 0.14127833 -0.24450742
0000b0 39 93 5c 3d d2 07 91 3e ec 37 36 be 46 d2 5b be
       0.05385134 0.2832628 -0.1779477 -0.21466932
0000c0 05 c1 cf 3c 5a 3a 39 3e 89 2d 01 be b4 d3 67 3e
       0.025360594 0.18088666 -0.12615027 0.22639352
0000d0 04 77 14 3e 47 6a 05 3e 1d 02 44 be b2 31 03 3e
       0.14498526 0.13028823 -0.19141431 0.12811926
0000e0 03 86 80 3e b3 e9 01 be 1e 10 11 3e 75 4d c2 3d
       0.25102243 -0.12686805 0.14166304 0.0948743
0000f0 71 c1 eb bd 57 44 02 be 68 1b 01 be 67 d4 95 bd
       -0.115115054 -0.12721382 -0.12608111 -0.07315903
000100 2e b4 47 3d de a8 85 bd a7 f1 20 3d 12 2e 49 3e
       0.048755817 -0.065263495 0.039292958 0.1964648
000110 69 01 fe 3d ad 81 8f be 22 2c e7 bd 37 e9 17 3e
       0.12402613 -0.28028622 -0.112877145 0.14835058
000120 26 24 30 3e 41 27 87 be 2d b1 22 be 57 9e e3 3d
       0.1720129 -0.26397136 -0.158879 0.11114185
000130 a8 eb b5 bd a8 9f 9b bd 0b 8c 8e 3e 5e 64 26 be
       -0.088828385 -0.075988114 0.2784122 -0.16249225
000140 2f 96 96 3e 71 7e 8c 3e b5 f5 01 bd e3 b4 16 3e
       0.29411456 0.27440217 -0.031728465 0.1471744
000150 0f b3 4b 3e 02 2e ff bd 10 d7 cf bd a3 c5 5f be
       0.19892524 -0.12459947 -0.10148442 -0.21852736
000160 94 7f be 3d 06 21 6d 3e 7e fd 50 be 55 ca 42 3e
       0.09301677 0.23157129 -0.204092 0.19022496
000170 1d 48 95 3e 88 d9 09 3e 30 ae 22 be e9 9f 49 be
       0.2915658 0.13461888 -0.1588676 -0.19689907
000180 7b a3 1c 3e f8 e1 09 3e 6d e9 3b bd ea 18 2b be
       0.15296738 0.13465106 -0.04587691 -0.16708723
000190 c9 f1 52 be 94 57 5c 3e 63 6a 0c 3e b3 2f 42 3e
       -0.20600046 0.21517783 0.13712458 0.18963508
0001a0 84 24 3b 3e ea 1b 5f be b0 c7 5d 3d 7f ce ae bd
       0.18275648 -0.21787992 0.054145515 -0.0853548
0001b0 97 c7 8f 3e 6b 31 cf 3d e1 d0 55 be c3 fe 72 bd
       0.28081962 0.101168476 -0.20880462 -0.05932499
0001c0 8b 8d 76 3c fa 00 c0 3d 06 9a 1e be 09 2d 2d 3e
       0.015048395 0.09375186 -0.15488443 0.16911711
0001d0 58 33 2c 3e 11 9e 4e 3e c6 3b 5c be fd d4 24 3e
       0.16816461 0.20177485 -0.21507177 0.16096874
0001e0 a2 e7 93 3e 2f c6 ce 3a 97 c2 6d 3e 7e 3a 1a 3d
       0.2888766 0.0015775616 0.23218761 0.03765344
0001f0 5b 1f 85 be 96 7f 89 bd ce 9e 18 be 0e 86 09 be
       -0.26000485 -0.06713788 -0.14904329 -0.13430044
000200 45 00 11 bd b8 4e 56 be 3f 4a 34 3e bf af 75 3e
       -0.035400648 -0.20928466 0.17606448 0.23992823
000210 cb 74 86 3e c8 b6 be bd c5 cf 9b bd a1 6c 5b 3e
       0.2626098 -0.093122065 -0.07607988 0.21428157
000220 7b 8b 9a 3e ee b4 a0 bd 5b b8 2f be 74 a1 99 bd
       0.3018454 -0.078470096 -0.1716017 -0.07501498
000230 2e 44 8b be 35 68 8b be 60 71 17 3e cf 07 f5 bd
       -0.27200454 -0.2722794 0.14789343 -0.1196438
000240 d9 93 c0 3d 0c 48 b8 3d 80 35 82 3c 00 c9 e0 3c
       0.094032 0.08998117 0.015894651 0.027439594
000250 af 68 5f 3e 84 a9 e3 bd bc e1 2f be ec e8 79 be
       0.21817277 -0.11116317 -0.17175955 -0.24405259
000260 e6 1a 8f 3e 0b 61 6b 3e ad 5f 50 be 5d a2 73 3e
       0.2795021 0.22986238 -0.20348997 0.23792405
000270 7e 28 76 3e 4a 7f 4b 3e 5a 7d 35 be 69 bb 46 be
       0.24038884 0.19872776 -0.17723599 -0.19407429
000280 50 2d bf 3d 81 f4 c8 3d ff 25 4a be 6b ae 61 be
       0.093348145 0.098122604 -0.19741057 -0.22039191
000290 4b c2 54 be de 21 2e 3e 0b 3f 24 3e 56 09 3c 3e
       -0.20777242 0.17005107 0.16039674 0.18362936
0002a0 a5 8f 51 3e b6 fd 6d bd 41 84 84 3d 10 7f e9 bd
       0.20464952 -0.058103286 0.06470538 -0.114011884
0002b0 d5 bc 91 3e f6 c0 40 3e 9f 58 85 be 6e 38 6f bd
       0.2846438 0.18823609 -0.26044175 -0.058403425
0002c0 7c ef e4 3d 05 01 05 3e b0 08 59 be 1e a0 1f 3e
       0.111784905 0.1298867 -0.2119472 0.15588424
0002d0 9f 3d 81 3e ea d9 4e 3e 56 86 ca bd 9b 97 0c 3e
       0.25242326 0.20200315 -0.09888904 0.13729708
0002e0 1f fb 31 3e 8d 1b 10 bd ac c8 b7 3d e9 58 1b 3e
       0.17380951 -0.035182524 0.08973822 0.15170635
0002f0 2b 50 18 bd 0b dc 97 bd 78 6f dd bd fa 09 36 be
       -0.03718583 -0.07415017 -0.108122766 -0.17777243
000300 22 4b 3a 3d a5 e9 2c be 3e a8 6a 3e e9 ad c9 3d
       0.04548181 -0.16886003 0.22915742 0.09847624
000310 1f 55 c2 3d c0 03 16 be a6 c6 a3 bd 9d 25 aa 3d
       0.09488892 -0.14649868 -0.079968736 0.083079554
000320 a1 de 80 3e 78 ac 03 be c1 36 6f be be ed 57 3d
       0.25169852 -0.1285876 -0.2336073 0.052716963
000330 d9 28 82 be 48 a4 8a bd 31 71 8d 3e 08 22 18 be
       -0.2542179 -0.067696154 0.2762542 -0.14856732
000340 a3 a8 0e 3e 48 de a7 3d 4f a3 8d 3d 55 c0 73 3e
       0.13931517 0.08196694 0.06915914 0.23803838
000350 e1 8c 06 3e 4e b1 f6 bd 2d 89 90 be 0d e2 a9 bd
       0.13139679 -0.12045537 -0.28229657 -0.08295069
000360 7d f8 69 3e 3f d6 6f 3e c2 19 62 bd 28 58 99 3e
       0.22848697 0.23421572 -0.055200346 0.2995007
000370 c3 d1 c1 3d 60 7d 88 3e e5 a7 42 be c7 8b 96 be
       0.09463837 0.26658154 -0.19009359 -0.29403517
000380 c3 5e 68 3e 55 ea 91 3e 35 b7 cb bd 3b eb 80 be
       0.22692399 0.28499094 -0.09947053 -0.25179467
000390 87 1e 9b bd 4d db 3c 3e 3a 3d 8f 3e 43 de 31 3e
       -0.07574182 0.18443032 0.279764 0.17369942
0003a0 0c 66 81 3e 51 a6 07 be a6 73 3c bb 81 b0 f9 bd
       0.25273168 -0.13247038 -0.0028755455 -0.121918686
0003b0 b8 a1 4e 3e 73 92 f0 3d cd 75 94 be 75 f3 2b be
       0.20178878 0.11746683 -0.28996125 -0.1679209
0003c0 48 99 81 bd e1 9e b5 3d 79 02 61 be d4 c3 7b 3d
       -0.06328064 0.08868194 -0.219736 0.061466053
0003d0 dc 93 68 3d de 5a 08 3e 10 f5 9f bd 4b ea 46 3e
       0.056781635 0.13315913 -0.07810414 0.19425313
0003e0 79 cc 17 3e 72 d2 07 3d 8b 5b 8c 3e be 36 ca bb
       0.14824094 0.03315968 0.27413592 -0.0061710766
0003f0 b9 e7 07 be f6 59 e8 bd f8 ff 2f bd 78 47 99 be
       -0.13271989 -0.11345284 -0.04296872 -0.2993734

notes_decoder.bias f4 [128]
000000 da 1f 04 bd c7 95 38 be 58 05 11 be ed 60 77 be
       -0.03225694 -0.18025886 -0.14162195 -0.24158068
000010 e3 79 11 be e2 23 14 be d9 d4 4e be d4 d2 34 be
       -0.14206652 -0.14466813 -0.20198382 -0.1765855
000020 04 22 72 be fd 75 80 be f2 bf 1a be 9a 58 69 bd
       -0.23645788 -0.25090018 -0.15112284 -0.056969263
000030 c0 05 48 bd 99 29 3e be 86 40 6c bd d6 21 63 be
       -0.04883361 -0.18570556 -0.05767872 -0.22180876
000040 7a 10 38 bd eb b0 4e be 2c ea 63 bd 47 74 a7 bd
       -0.04493759 -0.20184676 -0.055643246 -0.08176475
000050 e9 71 22 be 16 21 00 be cd 50 70 bd cd bb 0b be
       -0.15863766 -0.12512621 -0.058670808 -0.13645859
000060 4c 4c a0 bd 17 3f 48 be 15 9b a8 bd 4d 42 b2 bd
       -0.078270525 -0.19555317 -0.082327046 -0.08704052
000070 d9 b0 c9 bd c5 54 0b bd 51 3c 2d be f5 06 52 be
       -0.09848184 -0.03401639 -0.1691754 -0.20510466
000080 7a 83 43 be f9 3b f9 bd 74 0e 9f bd 1c 6a 18 bd
       -0.19093123 -0.12169642 -0.077664286 -0.03721057
000090 3c f3 00 be 64 99 87 bd f6 3a 08 bd 3d ff 59 be
       -0.12592787 -0.06621054 -0.033259355 -0.21288772
0000a0 c4 b9 33 be 58 83 a0 bd f5 83 70 be b1 19 2f be
       -0.17551333 -0.07837552 -0.23487838 -0.17099644
0000b0 e4 ae 64 be e3 c8 f2 bd d7 1e 03 be 33 8d 03 be
       -0.2233234 -0.11854722 -0.12804733 -0.12846832
0000c0 1a a8 1b be ac df 1a bd f4 52 97 bd 5b 35 29 bd
       -0.15200844 -0.037810966 -0.07388869 -0.04131065
0000d0 ff b0 d4 bc af 66 1e be 47 bf 6c be 58 b5 24 be
       -0.025963305 -0.15468858 -0.23119842 -0.16084802
0000e0 f6 7c 37 be 1b 03 0e bd 54 cd c7 3b 10 a0 79 be
       -0.17918763 -0.03467093 0.006097475 -0.24377465
0000f0 b1 0c 9f bb 02 82 12 bd 5b dc f6 bc 14 c9 11 be
       -0.004853808 -0.035768516 -0.03013437 -0.14236861
000100 83 0c 62 bc 9a 11 67 be a0 67 c5 bc 26 10 d8 bd
       -0.013796928 -0.22565308 -0.024097264 -0.10549955
000110 bd 72 5e be 7f 6e 3d be 8f a7 18 be 9b 6a 30 be
       -0.21723457 -0.18499182 -0.14907669 -0.17228167
000120 15 ca 5a be ab 76 71 bd ca cd d8 bd 28 ae 11 be
       -0.2136615 -0.05895106 -0.10586126 -0.14226592
000130 df b8 5c be 98 d6 26 bd 84 bc 25 be 43 2f b7 bd
       -0.21554898 -0.040731996 -0.16185194 -0.08944561
000140 2f 73 5f be f0 cd 64 be 4c 0a 54 be 5d b7 58 be
       -0.21821283 -0.22344184 -0.20707053 -0.21163698
000150 16 6a 35 be a2 1c ea bd ac bd 6f bd df ae 47 be
       -0.1771625 -0.114312425 -0.058530495 -0.19500302
000160 77 35 21 bd fc 19 ec bd 34 24 76 be b2 a5 9d bd
       -0.03935763 -0.115283936 -0.24037248 -0.076976195
000170 25 99 32 be 44 90 98 bd c5 3e 4f be 1d 44 84 be
       -0.17441233 -0.074493915 -0.20238788 -0.25833216
000180 b6 b8 89 bd c9 e4 2b bc 35 36 42 be f9 04 3c be
       -0.06724684 -0.010491558 -0.18965991 -0.18361272
000190 79 2f 3c bd 62 ee 88 bd 67 58 82 bd d4 8d 65 be
       -0.04594371 -0.06686093 -0.06364518 -0.22417384
0001a0 8d 2c 81 be 75 59 4e bd d5 1f 81 be a9 66 88 be
       -0.25229302 -0.05037828 -0.25219598 -0.26640823
0001b0 d6 b2 74 be 5b 54 e9 bd 41 6c 84 bd a9 0e 13 be
       -0.23896345 -0.11393043 -0.0646596 -0.14361061
0001c0 0f 13 5d be 0e fa ad bd ba b1 a3 bd ed 20 0f be
       -0.21589302 -0.0849496 -0.07992883 -0.13977404
0001d0 35 0f 4f be d6 d7 5d be 23 71 68 be 1b 9a 27 be
       -0.20220645 -0.21664366 -0.22699408 -0.1636738
0001e0 99 02 8e bd 20 2f 6e be b3 4c 09 be 12 83 88 bd
       -0.06934089 -0.23260164 -0.13408165 -0.06665625
0001f0 8c 31 3c bd 99 ae 51 bd 6b a5 4f be c8 01 eb bd
       -0.04594569 -0.0511919 -0.20277946 -0.11474949
