saved_models/generalist_BCE_1e-1_3.pth (torch_old, 167373 bytes, 8 tensors)

notes_encoder.weight f4 [64, 128]
-0.027770199 0.050633185 -0.04880663 0.08712613 0.027978398 0.037292697 -0.046655063 0.016557038
0.007909164 0.07807314 0.043912567 0.027722098 -0.0082190335 -0.035972334 -0.010824889 0.0017878935
-0.046632115 0.08394454 -0.038703293 -0.010119207 -0.020257443 -0.08691605 0.011596568 -0.07166274
0.06913472 0.069835715 0.017696321 0.08271795 -0.030994274 0.070390455 0.051908873 0.05720786
-0.005574025 -0.037025563 0.28950137 -0.009579249 0.25936654 -0.0024191216 0.2149878 0.34885556
0.30300546 0.21124695 0.32384992 0.35619754 0.36246783 0.28190118 0.2396516 0.3139115
0.3749514 0.31676802 0.29669267 0.22493115 0.3134234 0.21428937 0.25331366 0.25623554
0.29063684 0.23794578 0.2391628 0.2730931 0.28758276 0.34308222 0.34603924 0.3294261
0.25783947 0.30124605 0.32672524 0.22536048 0.29128882 0.37203762 0.229272 0.28554204
0.26499248 0.23264384 0.3089766 0.37068155 0.2432927 0.22280599 0.2444469 0.24201648
0.36459062 0.2184729 0.2994378 0.35908395 0.31464365 0.26095682 0.35881755 0.29799485
0.22952017 0.28348875 0.04519134 -0.0018952936 0.01099512 -0.04261433 -0.061215103 0.019883923
-0.05924178 -0.04660061 0.08741406 0.025410205 0.0012899339 0.06397999 0.020601526 -0.061813105
0.083305396 -0.05192418 -0.046567746 -0.045191705 -0.021047965 -0.029634196 -0.082130305 -0.026743554
-0.0463206 0.0341172 0.011886783 0.08202616 0.026030324 -0.046982862 0.051262803 0.030643068
0.04532761 0.00889118 -0.036278974 -0.07701438 -0.076244995 0.01685813 0.015218869 -0.08201791
-0.08288079 0.0778484 -0.02552268 -0.010099955 0.06393308 -0.02932565 -0.048585337 0.07452815
0.074779354 -0.058713138 0.087771766 0.023496486 -0.048331898 -0.087524496 -0.03060091 -0.02793809
0.08751654 0.05653044 -0.04320407 -0.035157382 0.07121704 0.061404116 -0.03166106 0.0059733763
0.006698169 0.07681764 -0.033630792 0.037208445 0.0736882 -0.014204711 0.0015059784 -0.06902682
0.040171407 0.000866957 0.3334595 -0.026728656 0.35147625 0.06322803 0.20873147 0.3513036
0.36942762 0.26094103 0.26044503 0.35070416 0.24404058 0.34615737 0.21637061 0.37017423
0.3126635 0.32641068 0.33874655 0.40807068 0.30151805 0.31313863 0.25751573 0.26669824
0.26903212 0.34747475 0.2707024 0.25257242 0.39398313 0.2169629 0.2886444 0.23729706
0.31280214 0.319718 0.33960402 0.22925484 0.33408713 0.3301099 0.25524768 0.24083644
0.31258014 0.2878564 0.3824096 0.3925663 0.34204465 0.2579584 0.33356518 0.30002946
0.31667194 0.27806845 0.1951015 0.30480003 0.22687365 0.37793168 0.26179487 0.33307743
0.23017007 0.20354691 0.07270809 0.08626147 0.017618775 0.024179593 -0.066565014 -0.039734185
-0.086480334 0.027473465 0.06699472 -0.02906549 -0.0775366 0.04651051 0.010114402 0.08747483
-0.04278672 0.020060122 0.047692783 0.04659622 0.047038265 -0.026767094 0.005657278 0.04440088
0.033840008 0.056835465 -0.070258215 0.06801968 0.07132084 -0.034684315 0.06590385 0.02669578
-0.008762553 -0.08571521 0.06172923 -0.044893663 -0.031074692 -0.07578091 0.03379327 -0.020870343
00000000: 547e e3bc be64 4f3d 76e9 47bd 2f6f b23d
00000010: f432 e53c 3ac0 183d 6119 3fbd a0a2 873c
00000020: 7095 013c cfe4 9f3d aadd 333d 7419 e33c
00000030: 20a9 06bc ba57 13bd e05a 31bc c057 ea3a
00000040: 5101 3fbd 1deb ab3d 5887 1ebd 08cb 25bc
00000050: f0f2 a5bc 0b01 b2bd 88ff 3d3c eac3 92bd
00000060: 8196 8d3d 0706 8f3d e0f7 903c 0768 a93d
00000070: b4e7 fdbc df28 903d 669e 543d ca52 6a3d
00000080: 50a6 b6bb 1ea8 17bd 8639 943e 48f2 1cbc
00000090: b1cb 843e 208a 1ebb c325 5c3e 329d b23e
000000a0: 8823 9b3e 1f51 583e a8cf a53e 865f b63e
000000b0: 6295 b93e 5a55 903e 3b67 753e 02b9 a03e
000000c0: a1f9 bf3e 6b2f a23e 1ae8 973e 5a54 663e
000000d0: 0879 a03e ac6e 5b3e 54b2 813e 4e31 833e
000000e0: 5ace 943e 0fa8 733e 18e7 743e dcd2 8b3e
000000f0: 0c3e 933e 79a8 af3e 0e2c b13e 8aaa a83e
00000100: 8903 843e ec3c 9a3e 8848 a73e e6c4 663e
00000110: cf23 953e b77b be3e 47c6 6a3e 9132 923e
00000120: 18ad 873e 303a 6e3e 2e32 9e3e f9c9 bd3e
00000130: b921 793e 4127 643e 4a50 7a3e 2bd3 773e
00000140: 9fab ba3e 5cb7 5f3e e94f 993e dad9 b73e
00000150: f918 a13e 229c 853e efb6 b73e c892 983e
00000160: 5607 6b3e 7025 913e 8e1a 393d 806b f8ba
00000170: e024 343c 5d8c 2ebd b0bc 7abd 9ce3 a23c
00000180: 82a7 72bd 48e0 3ebd 2506 b33d 1029 d03c
00000190: 0013 a93a f107 833d 88c4 a83c bd2f 7dbd
000001a0: 059c aa3d 73ae 54bd d2bd 3ebd f01a 39bd
000001b0: c86c acbc 6ac3 f2bc ef33 a8bd 4c15 dbbc
000001c0: abba 3dbd 7abe 0b3d c8c0 423c 55fd a73d
000001d0: 8c3d d53c 1a71 40bd f2f8 513d 2c07 fb3c
000001e0: 72a9 393d 50ac 113c 4399 14bd b7b9 9dbd
000001f0: 5626 9cbd 101a 8a3c 9058 793c 02f9 a7bd
00000200: 67bd a9bd fb6e 9f3d f014 d1bc 487a 25bc
00000210: 59ef 823d 583c f0bc 6b01 47bd 37a2 983d
00000220: eb25 993d 307d 70bd afc1 b33d b47b c03c
00000230: abf7 45bd 0b40 b3bd c2ae fabc 6cde e4bc
00000240: df3b b33d 768c 673d c0f6 30bd 3001 10bd
00000250: 3dda 913d e282 7b3d 07af 01bd 50bc c33b
00000260: 507c db3b 9152 9d3d 71c0 09bd e267 183d
00000270: d7e9 963d e0ba 68bc 4064 c53a ef5d 8dbd
00000280: c68a 243d 8044 633a 34bb aa3e 0ef6 dabc
00000290: b2f4 b33e b37d 813d b4bd 553e 11de b33e
000002a0: 9e25 bd3e 109a 853e 0d59 853e 7f8f b33e
000002b0: c6e5 793e 8a3b b13e 4290 5d3e 7a87 bd3e
000002c0: 6e15 a03e 4d1f a73e 3070 ad3e a4ee d03e
000002d0: 9360 9a3e b553 a03e 1ad9 833e ac8c 883e
000002e0: 94be 893e 36e8 b13e 8199 8a3e 2c51 813e
000002f0: 28b8 c93e 862b 5e3e 33c9 933e 00fe 723e
00000300: 9a27 a03e 14b2 a33e 94e0 ad3e c8c1 6a3e
00000310: 780d ab3e 2a04 a93e d3af 823e d49d 763e
00000320: 810a a03e ea61 933e 31cb c33e 73fe c83e
00000330: 7a20 af3e 2013 843e 0ec9 aa3e 769d 993e
00000340: d322 a23e fd5e 8e3e b0c8 473e c00e 9c3e
00000350: 9151 683e 4380 c13e fa09 863e 2089 aa3e
00000360: b4b1 6b3e 9a6e 503e fbe7 943d dba9 b03d
00000370: 4055 903c 4814 c63c 3d53 88bd 50c0 22bd
00000380: 9a1c b1bd 0810 e13c 8734 893d c01a eebc
00000390: 82cb 9ebd ce81 3e3d e0b6 253c 0126 b33d
000003a0: 2141 2fbd 2055 a43c 8259 433d aedb 3e3d
000003b0: 32ab 403d aa46 dbbc b060 b93b b2dd 353d
000003c0: d29b 0a3d 4ecc 683d 8ae3 8fbd e74d 8b3d
000003d0: a910 923d 2411 0ebd 99f8 863d 1cb1 da3c
000003e0: d090 0fbc 758b afbd cad7 7c3d 6be2 37bd
000003f0: 5a90 febc 0633 9bbd d06a 0a3d 48f8 aabc

notes_encoder.bias f4 [64]
0.24104138 0.26374254 -0.04342636 -0.34152415 0.056606874 0.11417417 -0.06615889 0.03786341
0.03775263 0.10125257 0.16314213 0.3816244 -0.14402445 -0.1820174 0.030518088 -0.051723417
-0.35134408 0.39947498 -0.035115417 0.2029093 0.2812945 -0.1998419 0.40420952 0.22496343
0.25991553 -0.39203808 -0.17201753 0.39989763 -0.26467648 -0.34542567 0.20164639 0.17232402
-0.20462595 0.20798862 -0.30096084 -0.3058146 -0.34476078 -0.19598565 -0.36849454 -0.2202885
-0.035620525 -0.12178525 -0.096678585 -0.18730284 -0.12073041 -0.41313326 -0.08961833 0.116699345
0.044301044 -0.20942211 0.24524754 0.025205322 0.017792556 0.0849404 -0.08299643 -0.2265147
-0.0040741544 0.23945567 0.112870544 0.15762907 0.030682353 0.103791334 0.07199068 0.27110726
00000000: 8dd3 763e 4309 873e d7df 31bd 41dc aebe
00000010: 9cdc 673d 26d4 e93d 507e 87bd aa16 1b3d
00000020: 80a2 1a3d 825d cf3d bb0e 273e 4664 c33e
00000030: 257b 13be c562 3abe 1201 fa3c efdb 53bd
00000040: 5fe3 b3be fc87 cc3e 2fd5 0fbd 75c7 4f3e
00000050: d505 903e 5ba3 4cbe 8df4 ce3e d05c 663e
00000060: a613 853e 37b9 c8be 5d25 30be 62bf cc3e
00000070: ad83 87be a2db b0be 647c 4e3e b575 303e
00000080: 7789 51be f8fa 543e 8a17 9abe bb93 9cbe
00000090: 7c84 b0be 76b0 48be 51ab bcbe 4f93 61be
000000a0: d4e6 11bd 8c6a f9bd 6cff c5bd 51cc 3fbe
000000b0: 8141 f7bd 3486 d3be d189 b7bd 1100 ef3d
000000c0: 0375 353d c072 56be 2c22 7b3e 647b ce3c
000000d0: b2c1 913c 3cf5 ad3d 08fa a9bd 78f3 67be
000000e0: 7c80 85bb de33 753e ac28 e73d 8469 213e
000000f0: 8f59 fb3c 8d90 d43d da6f 933d 92ce 8a3e

gru.weight_ih_l0 f4 [192, 64]
-0.081859425 0.0032652318 -0.35520455 0.14783318 0.33719775 -0.18921804 -0.08634943 -0.34773734
-0.37947708 -0.31654736 0.103812575 -0.28858718 0.15290378 0.07470383 -0.27752218 0.12349993
0.369377 -0.14604306 0.16352877 0.01295184 -0.07438416 -0.02265963 -0.21448237 -0.19211265
-0.20101476 0.27258426 0.07303403 -0.3094933 0.0020659193 0.3702686 -0.18303183 -0.22662129
0.11743018 -0.06483239 0.30517244 0.2588198 0.37221453 0.1876178 0.33415118 0.12837265
0.29983765 0.15018275 0.098781615 0.17521928 0.15961647 0.17090355 0.14655612 0.13839251
-0.3469073 -0.0042578615 -0.19972095 0.17244047 0.0036009066 -0.35245395 0.22029611 0.090846695
0.20645459 -0.14778624 0.17702042 0.15568373 0.13173659 0.046506654 0.116141155 -0.2102717
0.11784698 0.13157973 0.25692263 -0.062144995 -0.2517994 0.20735276 -0.02846935 0.32240105
0.4006464 0.25653392 -0.108941175 0.26834813 -0.29555744 -0.041272007 0.22487718 -0.28518784
-0.24550413 0.22202466 -0.40676302 0.06541605 0.018912822 0.016339047 0.3480725 0.12808302
0.11627649 -0.39812082 -0.005429441 0.2658238 -0.0011699721 -0.2573045 0.09438212 0.33458188
0.11371655 -0.072366364 -0.2746609 -0.046088677 -0.287743 0.100682884 -0.31464437 -0.10333769
-0.2537024 0.017412037 -0.113343254 -0.08910753 -0.113135844 -0.33045965 -0.30672055 -0.014973359
0.2925012 -0.11619742 0.09126889 -0.21374497 0.09423155 0.20579568 -0.24147597 -0.063733995
-0.3714537 0.13485041 0.043173045 -0.058057263 0.0035042912 -0.1327572 0.092728525 -0.008431986
0.34792906 0.18123016 0.036877893 -0.29384148 -0.0885036 0.2858046 0.21266289 0.10563082
0.22525787 0.09442581 -0.32350838 0.010543153 -0.043759473 -0.34652 0.090313844 -0.15133187
-0.19309717 0.026115961 -0.009906527 0.14704755 0.13997513 -0.2306304 0.020507459 0.33959523
0.19538434 -0.23215783 -0.35134482 0.20655358 -0.307229 -0.20553601 0.23471694 0.09572159
-0.21565649 0.32965612 -0.05558152 -0.17611602 -0.28290117 -0.13894688 -0.21281329 -0.19598061
-0.095429435 -0.28250554 -0.066947654 -0.24289069 -0.094014056 -0.013460267 -0.09040342 -0.33565313
0.07149693 -0.26076773 0.21139695 -0.21858485 0.31344485 0.19990902 -0.22549291 -0.21648556
-0.21183363 0.28912 -0.28946942 -0.121090285 -0.1003862 -0.17922992 -0.12400622 0.30510798
0.30939764 0.2737048 0.055566967 -0.0497935 -0.04363562 0.030492831 0.266088 0.04293245
0.1591756 0.12897529 -0.29975745 0.02827229 -0.22503896 -0.2968194 0.04764637 -0.17102739
-0.14280133 0.02450236 -0.10283111 0.1907016 0.26455313 -0.12543043 0.1234014 0.32540357
0.14397925 -0.075419106 -0.283091 0.15966822 -0.24672243 -0.27759406 0.32621422 0.0275186
-0.35945013 0.16724771 -0.25359362 -0.090660855 -0.14211725 -0.2833523 -0.070157394 -0.34882942
-0.15931317 -0.13174151 -0.068329036 -0.32821366 -0.12632455 -0.108500585 -0.044931237 -0.25857416
0.183109 -0.17832297 0.11917472 -0.24928243 0.22957681 0.22906685 -0.19885626 -0.25329936
-0.117531106 0.33517042 -0.17893495 -0.2061349 -0.15296255 -0.17798406 -0.1920294 0.29058516
00000000: eaa5 a7bd 80fd 553b 5fdd b5be 9561 173e
00000010: 2fa5 ac3e 60c2 41be f8d7 b0bd a10a b2be
00000020: d24a c2be 7f12 a2be b09b d43d b3c1 93be
00000030: cf92 1c3e 52fe 983d 6317 8ebe 88ed fc3d
00000040: fb1e bd3e 508c 15be 1674 273e f433 543c
00000050: b956 98bd b0a0 b9bc 44a1 5bbe 2eb9 44be
00000060: d0d6 4dbe 2a90 8b3e de92 953d e875 9ebe
00000070: 6064 073b d993 bd3e b26c 3bbe 690f 68be
00000080: 3c7f f03d d8c6 84bd 903f 9c3e 0784 843e
00000090: e792 be3e e11e 403e dd15 ab3e 1f74 033e
000000a0: 5284 993e 82c9 193e 044e ca3d af6c 333e
000000b0: 8072 233e 5701 2f3e cf12 163e c4b6 0d3e
000000c0: d59d b1be 8885 8bbb a683 4cbe 3c94 303e
000000d0: 30fd 6b3b d874 b4be 4e95 613e d50d ba3d
000000e0: d568 533e 4755 17be d744 353e 8e6b 1f3e
000000f0: f5e5 063e c37d 3e3d 6adb ed3d 7751 57be
00000100: c259 f13d d6bc 063e 5d8b 833e c08b 7ebd
00000110: daeb 80be 4854 543e 8e38 e9bc c011 a53e
00000120: 8621 cd3e 6a58 833e 8d1c dfbd ed64 893e
00000130: 4e53 97be d60c 29bd 3446 663e 2404 92be
00000140: 6f65 7bbe 6f5a 633e 3e43 d0be daf8 853d
00000150: 10ef 9a3c 77d9 853c 8f36 b23e 3228 033e
00000160: 5e22 ee3d 7ed6 cbbe 74e9 b1bb 0f1a 883e
00000170: c059 99ba 6abd 83be 6a4b c13d 514e ab3e
00000180: 39e4 e83d d134 94bd 5aa0 8cbe 7bc7 3cbd
00000190: 0d53 93be d432 ce3d 1119 a1be b6a2 d3bd
000001a0: 48e5 81be b0a3 8e3c 8220 e8bd 027e b6bd
000001b0: c4b3 e7bd 0232 a9be 7a0a 9dbe d252 75bc
000001c0: b8c2 953e eaf8 edbd 2feb ba3d f6df 5abe
000001d0: 79fc c03d 1abc 523e 7a45 77be f886 82bd
000001e0: 2e2f bebe 3a16 0a3e 38d6 303d 74cd 6dbd
000001f0: 40a8 653b 81f1 07be 74e8 bd3d 5026 0abc
00000200: c223 b23e 6694 393e 460d 173d 6472 96be
00000210: 6041 b5bd fb54 923e 4dc4 593e f954 d83d
00000220: 00aa 663e 5262 c13d e4a2 a5be 30bd 2c3c
00000230: 223d 33bd 126b b1be 77f6 b83d bef6 1abe
00000240: 44bb 45be 24f1 d53c fc4e 22bc a293 163e
00000250: a455 0f3e 602a 6cbe 42ff a73c 6ddf ad3e
00000260: d512 483e c8ba 6dbe 78e3 b3be c882 533e
00000270: 1f4d 9dbe 0878 52be a359 703e ae09 c43d
00000280: 0ed5 5cbe b0c8 a83e 73a9 63bd c257 34be
00000290: 6cd8 90be 1748 0ebe baeb 59be 24af 48be
000002a0: 8270 c3bd 91a4 90be da1b 89bd 56b8 78be
000002b0: 718a c0bd 7488 5cbc 6e25 b9bd bada abbe
000002c0: fc6c 923d 5983 85be 7178 583e b5d4 5fbe
000002d0: d87b a03e f3b4 4c3e 9de7 66be 64ae 5dbe
000002e0: eaea 58be 8907 943e 5635 94be 2ffe f7bd
000002f0: 4897 cdbd 0c88 37be f9f6 fdbd 1d37 9c3e
00000300: 5e69 9e3e 0923 8c3e 309a 633d 45f4 4bbd
00000310: 44bb 32bd 1acc f93c b03c 883e f0d9 2f3d
00000320: eefe 223e 1912 043e cf79 99be 4a9b e73c
00000330: 9d70 66be b6f8 97be d728 433d ce21 2fbe
00000340: 833a 12be 2cb9 c83c 1e99 d2bd 4847 433e
00000350: 8273 873e d670 00be e0b9 fc3d 4c9b a63e
00000360: 4c6f 133e 5575 9abd 4ef1 90be 1180 233e
00000370: cea4 7cbe cf20 8ebe 8d05 a73e b06e e13c
00000380: d909 b8be fc42 2b3e 06d7 81be 66ac b9bd
00000390: 2f87 11be 8d13 91be aeae 8fbd c599 b2be
000003a0: fe22 23be 3fe7 06be 18f0 8bbd 9f0b a8be
000003b0: 395b 01be 8e35 debd d109 38bd d563 84be
000003c0: ed80 3b3e 4c9a 36be e011 f43d e543 7fbe
000003d0: 2f16 6b3e 8090 6a3e faa0 4bbe 74b0 81be
000003e0: 26b4 f0bd 759b ab3e b93a 37be 0715 53be
000003f0: 37a2 1cbe 7441 36be 5ba3 44be 94c7 943e

gru.weight_hh_l0 f4 [192, 64]
0.039740663 -0.36481196 -0.1659155 -0.25421372 0.3431341 -0.34592324 -0.18405144 -0.23033535
-0.13649194 -0.06750271 -0.24415386 -0.2378273 0.00031635538 -0.34493265 -0.12608533 -0.19496623
0.39036316 0.244964 -0.28245234 -0.20714633 0.12612626 -0.04540059 -0.029353682 0.35567972
0.29155922 0.01790819 0.30253848 0.18177816 0.2838453 0.0122729875 0.1616497 -0.34466857
-0.1448973 -0.18032576 0.15895164 -0.21499792 -0.009436853 0.17691301 -0.19590457 -0.18563166
0.09439285 0.09924346 0.32793355 -0.24726173 -0.008788291 0.31124255 -0.18538377 0.11387186
-0.105590716 -0.14892632 0.35696805 0.0335247 0.22471541 -0.31808987 0.19361109 0.132267
-0.30264667 -0.32358468 -0.2341142 0.37483996 -0.15600988 0.35086507 0.25037256 0.2542428
-0.030490933 0.29135716 0.18208362 0.33749595 -0.37548202 0.32125717 0.31139538 0.19788805
0.123499215 -0.15551646 0.3721667 0.34845594 -0.07415503 0.35643145 0.12915172 0.27626744
-0.28175223 -0.2621725 0.25059655 -0.016172454 -0.10187845 -0.05589775 0.01681578 -0.41981012
-0.3893836 -0.20668712 -0.34240067 -0.09420401 -0.40402436 0.05961243 0.012311686 0.36599246
-0.0009412952 0.29219365 -0.26498747 0.42735285 -0.036046475 -0.0551847 0.16521779 0.29634795
0.026139323 -0.09358737 -0.39628437 0.29815575 0.0804103 -0.42433846 0.23198172 -0.019874878
0.021857087 0.20348191 -0.3634474 -0.063202344 -0.00030944496 0.17866038 -0.40877467 0.02431567
0.25822252 0.2551593 0.24140425 -0.2327856 0.31482074 -0.38916385 -0.36693737 -0.29642484
-0.35212156 0.20814537 0.11041011 0.24017912 -0.15669024 0.055140786 0.00014443696 0.010886785
0.33125648 0.34848547 0.1804469 0.12088661 0.2645182 0.13898206 0.21806416 0.11443712
-0.20021415 -0.06090597 0.19904341 0.24395408 -0.20606527 0.22160375 0.36205742 -0.0147718005
-0.15340106 -0.3096229 -0.22167319 -0.23556624 -0.009296935 -0.13334796 -0.25523823 0.11061989
0.15665855 0.08968357 -0.10445507 0.16147272 -0.22945404 -0.27471477 0.26480788 0.021421406
-0.29891124 -0.18960665 -0.09473562 0.22042377 0.1766245 -0.1397883 0.25343338 -0.23957342
0.29163045 0.26150075 -0.23581192 -0.29716876 -0.23726058 0.123587504 -0.09281423 -0.25075507
0.15514451 0.18099216 0.17535578 -0.24804883 0.21615787 -0.00029440597 -0.21464442 -0.02276925
-0.37488317 0.07383667 0.057464622 0.069591284 -0.063245535 0.16379246 0.09230882 0.20897338
0.13802248 0.35801265 0.20434985 0.23144016 0.18781567 0.024048656 0.108782314 0.14475343
-0.021967515 0.009891227 0.009250101 0.27185783 -0.28058842 0.3743994 0.22803241 -0.13932778
-0.043423608 -0.1710736 -0.039187986 -0.2865482 -0.111717194 -0.37825212 -0.2040652 0.10574098
0.23566905 0.17818756 -0.19278726 0.194872 -0.22547846 -0.25915086 0.29413742 0.22386572
-0.23769751 -0.3420569 -0.05303433 0.10889713 0.10105334 0.005466327 0.06048166 -0.11181834
0.05417346 0.090180956 -0.066841505 -0.14577702 -0.27015245 0.14856496 -0.120541915 -0.19008319
0.10569896 0.12486059 0.2032396 -0.15650049 0.09160839 -0.14105178 0.0018984005 -0.056757554
00000000: 1bc7 223d a2c8 babe c1e5 29be 4d28 82be
00000010: 46af af3e da1c b1be fb77 3cbe 08dd 6bbe
00000020: 8bc4 0bbe dc3e 8abd 7803 7abe 0089 73be
00000030: 80dc a539 039b b0be 831c 01be 3aa5 47be
00000040: aedd c73e d8d7 7a3e 989d 90be 2b1e 54be
00000050: 3e27 013e f8f5 39bd 2277 f0bc a71b b63e
00000060: 4047 953e 32b4 923c 53e6 9a3e 0e24 3a3e
00000070: 2c54 913e a414 493c 8087 253e 6678 b0be
00000080: f55f 14be 51a7 38be 38c4 223e 6a28 5cbe
00000090: 089d 1abc af28 353e 359b 48be 3a16 3ebe
000000a0: 0a51 c13d 2840 cb3d e8e6 a73e 2e32 7dbe
000000b0: c4fc 0fbc 2f5b 9f3e 3ed5 3dbe a635 e93d
000000c0: f23f d8bd 2480 18be 84c4 b63e 3251 093d
000000d0: cc1b 663e addc a2be fc41 463e 0071 073e
000000e0: 81f4 9abe e4ac a5be a2bb 6fbe 06eb bf3e
000000f0: 0ec1 1fbe 96a4 b33e d530 803e 1d2c 823e
00000100: 1fc8 f9bc c42c 953e 2174 3a3e 45cc ac3e
00000110: 2e3f c0be d27b a43e 376f 9f3e 2aa3 4a3e
00000120: 28ed fc3d b53f 1fbe a28c be3e d168 b23e
00000130: 98de 97bd 2f7e b63e 5940 043e ed72 8d3e
00000140: d441 90be 793b 86be 314e 803e 187c 84bc
00000150: a6a5 d0bd 0af5 64bd 3fc1 893c 5af1 d6be
00000160: 4a5d c7be caa5 53be 244f afbe 08ee c0bd
00000170: 48dc cebe 2a2c 743d f4b6 493c 5d63 bb3e
00000180: 40c1 76ba 689a 953e 70ac 87be fecd da3e
00000190: 78a5 13bd 5a09 62bd da2e 293e ebba 973e
000001a0: 2222 d63c bcaa bfbd c9e5 cabe dfa7 983e
000001b0: 28ae a43d e442 d9be 9e8c 6d3e a4d0 a2bc
000001c0: a20d b33c 905d 503e c715 babe 3b70 81bd
000001d0: 003d a2b9 bff2 363e ea4a d1be a831 c73c
000001e0: be35 843e 3da4 823e ad32 773e 595f 6ebe
000001f0: 2f30 a13e 7c40 c7be 37df bbbe ffc4 97be
00000200: 4749 b4be 0f24 553e b21e e23d 84f1 753e
00000210: 6873 20be 4edb 613d 0074 1739 7c5e 323c
00000220: 739a a93e b06c b23e 12c7 383e 6693 f73d
00000230: ee6e 873e 5051 0e3e 364c 5f3e 025e ea3d
00000240: f004 4dbe 8a78 79bd 09d2 4b3e 19cf 793e
00000250: c602 53be 18ec 623e 975f b93e 6c05 72bc
00000260: 2b15 1dbe e586 9ebe 4cfe 62be 4738 71be
00000270: 2c52 18bc 5e8c 08be 96ae 82be ae8c e23d
00000280: 196b 203e 05ac b73d 8aec d5bd 1b59 253e
00000290: 00f6 6abe 6aa7 8cbe e694 873e f27b af3c
000002a0: e50a 99be 3f28 42be c004 c2bd c5b6 613e
000002b0: 0edd 343e aa24 0fbe 05c2 813e bc52 75be
000002c0: 9650 953e 6de3 853e ae78 71be 8126 98be
000002d0: 70f4 72be 721b fd3d 6315 bebd f862 80be
000002e0: 34de 1e3e 0256 393e 7790 333e 8300 7ebe
000002f0: 7d58 5d3e 805a 9ab9 bfcb 5bbe 9486 babc
00000300: b0f0 bfbe ae37 973d 0660 6b3d e085 8e3d
00000310: e086 81bd 36b9 273e 680c bd3d 1efd 553e
00000320: c455 0d3e 6f4d b73e 1641 513e a6fe 6c3e
00000330: c052 403e b001 c53c 43c9 de3d 3e3a 143e
00000340: 38f5 b3bc d00e 223c bc8d 173c f330 8b3e
00000350: 49a9 8fbe 47b1 bf3e 5481 693e f1ab 0ebe
00000360: f4dc 31bd eb2d 2fbe 9583 20bd 72b6 92be
00000370: fccb e4bd 43aa c1be 78f6 50be ba8e d83d
00000380: 3a53 713e cd76 363e 066a 45be 878c 473e
00000390: d3e3 66be 6caf 84be 2e99 963e 0e3d 653e
000003a0: fa66 73be 1522 afbe 873a 59bd 7505 df3d
000003b0: 0ef5 ce3d e01e b33b 9ebb 773d 0401 e5bd
000003c0: fde4 5d3d cbb0 b83d 33e4 88bd 9246 15be
000003d0: 6c51 8abe 6a21 183e aede f6bd 2ba5 42be
000003e0: b278 d83d e9b6 ff3d 0b1e 503e aa41 20be
000003f0: 2e9d bb3d e16f 10be c0d3 f83a 9c7a 68bd

gru.bias_ih_l0 f4 [192]
-0.22532699 0.43830132 0.14334154 0.08101919 0.40233666 -0.025157783 0.42538175 0.20998594
-0.33793283 -0.3719553 0.334169 0.19362237 -0.0748654 0.24833325 -0.0006798287 0.3855186
0.32433787 0.42620593 0.24182925 -0.29957476 0.08383253 0.10624988 -0.2474629 0.26627824
0.1627284 -0.13128507 0.28250226 -0.30131108 0.29944548 -0.24046224 -0.28921193 0.1116777
-0.3242149 0.15362974 0.18557915 0.4062842 0.2403359 -0.2611994 -0.38102758 0.26315248
-0.053693954 -0.3465566 0.088766634 0.06883542 -0.2260845 0.36976743 0.108351484 0.010383265
0.15303215 0.10421666 0.15425593 0.12937449 -0.20549844 -0.025133416 0.068961464 -0.111772865
0.2505714 0.24730997 -0.042726044 0.25397703 0.17808373 0.38580742 0.24233924 0.3325646
0.20422606 -0.22076759 -0.19919507 0.13296157 -0.08670152 0.04080621 -0.199326 -0.12632903
0.2517091 -0.030507132 -0.111527845 -0.12949353 0.2909533 -0.13037017 0.2671641 -0.2713659
-0.13142818 -0.11901483 -0.07406126 0.11729312 -0.0046899356 0.29194957 0.2827328 -0.32738695
-0.21506065 0.22462395 -0.20237286 -0.18672544 -0.06512748 0.026231892 0.10564411 0.2523847
-0.06541581 0.05631919 -0.015711796 -0.18911475 0.009229913 0.020111315 0.059459798 -0.14316538
0.1693235 0.082443744 -0.08198659 -0.09766708 0.008441616 -0.09958282 0.20549537 0.15091911
0.15681414 0.20685841 -0.0071368106 0.14531012 0.059673667 -0.3291896 0.10108371 -0.18594852
-0.21637408 -0.07211529 -0.18787983 -0.22077197 -0.1654678 -0.22552931 -0.17051513 -0.027817033
0.0829882 0.37362832 0.34849802 0.3800178 -0.3805304 0.31694412 0.3965688 0.44890332
-0.020929854 -0.17208636 0.34116566 0.3221122 -0.10886584 0.37948674 0.21914488 0.29397058
-0.42765284 -0.31288618 0.3086556 0.012278812 -0.093834504 0.14151642 -0.16157109 -0.39072224
-0.3916945 -0.16200627 -0.31427476 0.15825705 -0.41537276 0.16255082 0.055380605 0.39633396
-0.054409396 0.343312 -0.447902 0.3029107 -0.13922541 0.14425176 0.07562914 0.32257983
0.12897356 0.08573167 -0.4002046 0.39061096 -0.1169567 -0.38018113 0.38864908 -0.052858487
0.23141064 0.44311938 -0.333262 -0.14146356 0.05068549 0.40658325 -0.38351437 0.080061935
0.29635698 0.401678 0.4598129 -0.3633362 0.4254259 -0.44353485 -0.42684543 -0.4151208
00000000: 1ebc 66be 0869 e03e 20c8 123e 64ed a53d
00000010: 12ff cd3e b217 cebc a3cb d93e 8e06 573e
00000020: 8805 adbe ed70 bebe 3318 ab3e f144 463e
00000030: 0853 99bd 124b 7e3e 8836 32ba b262 c53e
00000040: 9d0f a63e aa37 da3e 16a2 773e dd61 99be
00000050: 64b0 ab3d 8999 d93d ea66 7dbe 9f55 883e
00000060: 46a2 263e 986f 06be 23a4 903e 7245 9abe
00000070: eb50 993e bc3b 76be 9613 94be 47b7 e43d
00000080: 7fff a5be 1d51 1d3e 7608 3e3e 7c04 d03e
00000090: 9d1a 763e eebb 85be 0c16 c3be ecbb 863e
000000a0: 31ee 5bbd de6f b1be 48cb b53d 96f9 8c3d
000000b0: b282 67be 2852 bd3e 62e7 dd3d 921e 2a3c
000000c0: 76b4 1c3e 8b6f d53d 44f5 1d3e bf7a 043e
000000d0: 2f6e 52be 98e4 cdbc ab3b 8d3d 2ce9 e4bd
000000e0: e54a 803e d33e 7d3e 8101 2fbd 4709 823e
000000f0: 955b 363e 8d88 c53e c727 783e e845 aa3e
00000100: a320 513e e610 62be cbf9 4bbe 1427 083e
00000110: 9190 b1bd 6a24 273d 1d1c 4cbe 665c 01be
00000120: 04e0 803e 18ea f9bc b668 e4bd f499 04be
00000130: d5f7 943e c27f 05be bcc9 883e 79f0 8abe
00000140: 1c95 06be 0cbe f3bd 6ead 97bd 6037 f03d
00000150: 08ae 99bb 6a7a 953e 5bc2 903e 439f a7be
00000160: dc38 5cbe d203 663e d53a 4fbe f434 3fbe
00000170: 8e61 85bd 44e4 d63c f05b d83d 9138 813e
00000180: b9f8 85bd f3ae 663d 06b6 80bc 4ca7 41be
00000190: 1039 173c 7cc0 a43c 1e8c 733d f299 12be
000001a0: 2463 2d3e 44d8 a83d 96e8 a7bd ae05 c8bd
000001b0: b44e 0a3c 14f2 cbbd 616d 523e 8a8a 1a3e
000001c0: e393 203e b1d2 533e e8db e9bb 2dcc 143e
000001d0: 606c 743d 8a8b a8be fa04 cf3d 4a69 3ebe
000001e0: 2b91 5dbe 2eb1 93bd 9263 40be 0c12 62be
000001f0: 6470 29be 28f1 66be 859b 2ebe 8ce0 e3bc
00000200: b8f5 a93d 364c bf3e 556e b23e b191 c23e
00000210: e1d4 c2be 8046 a23e 110b cb3e a8d6 e53e
00000220: 1675 abbc 6837 30be 44ad ae3e e4eb a43e
00000230: 0ef5 debd 164c c23e 8467 603e 5083 963e
00000240: 50f5 dabe 9e32 a0be 1b08 9e3e 122d 493c
00000250: 4e2c c0bd aee9 103e e472 25be bf0c c8be
00000260: 2e8c c8be f9e4 25be 9fe8 a0be 230e 223e
00000270: bdab d4be b973 263e c6d6 623d 49ec ca3e
00000280: 63dc 5ebd 97c6 af3e 6953 e5be 1c17 9b3e
00000290: 1b91 0ebe bcb6 133e 73e3 9a3d 2f29 a53e
000002a0: a511 043e 1694 af3d 9ee7 ccbe 29fe c73e
000002b0: ff86 efbd 1aa7 c2be 03fd c63e 2482 58bd
000002c0: e9f6 6c3e 8be0 e23e 51a1 aabe d3db 10be
000002d0: 979b 4f3d ae2b d03e ff5b c4be 83f7 a33d
000002e0: 1abc 973e bda8 cd3e 996c eb3e 3407 babe
000002f0: 6cd1 d93e 0017 e3be 7c8b dabe b78a d4be

gru.bias_hh_l0 f4 [192]
-0.3638931 0.30689445 0.117142 0.11850074 0.22330657 0.07328136 0.40829942 0.26090294
-0.2793244 -0.18798946 0.22244692 0.3203335 -0.096697584 0.32313287 -0.023020096 0.37556848
0.20958914 0.3158915 0.26953116 -0.22935067 0.09581427 0.12763637 -0.39614353 0.27282354
-0.027580585 -0.16367048 0.3397741 -0.28282768 0.22416162 -0.35602996 -0.24587642 -0.046905003
-0.18629858 0.12950402 0.2530898 0.21021554 0.27975678 -0.38494208 -0.2424577 0.32401058
-0.036769275 -0.2538817 0.16820842 0.041900415 -0.34119746 0.36415184 0.18750405 0.062657535
-0.06334114 -0.022182405 0.37025836 0.16595984 -0.39141068 0.14716387 0.172997 0.020390335
0.19920133 0.3610704 0.14829557 0.38882273 0.04904426 0.31001863 0.3464441 0.3890377
0.22888887 -0.20743474 -0.1175302 0.16149357 -0.10089234 0.09198485 -0.13472632 -0.13175657
0.18940984 -0.04532586 -0.17662196 0.019072674 0.1079511 -0.11124152 0.2130292 -0.09036344
-0.18544541 -0.14412281 -0.2218779 0.15706913 0.10893692 0.28662908 0.39401567 -0.27521035
-0.19698769 0.18829349 -0.056345608 -0.13219646 -0.026848901 0.13349725 0.0609615 0.25369045
-0.11918104 0.01099148 -0.09579383 -0.15557781 0.054153997 -0.19279493 0.18528706 -0.13187742
0.15972725 0.20388097 -0.15298048 -0.01594416 0.039457906 -0.2593069 0.041875564 0.20441954
-0.035917934 0.15740564 -0.06755437 0.09667842 0.19467372 -0.24738726 0.014177255 -0.14606163
-0.014756285 0.010676157 -0.3718915 -0.09441989 0.034201436 -0.10376406 -0.15234032 -0.18193638
-0.033816792 0.4301616 0.32910326 0.38590306 -0.324864 0.24454263 0.41514966 0.35068735
-0.12860246 -0.0958539 0.2852715 0.41632995 -0.00922174 0.43785203 0.25343114 0.2791273
-0.3998477 -0.42296582 0.3154698 0.0995751 -0.17733279 0.35048604 -0.013476815 -0.33373597
-0.4034068 -0.09057456 -0.36413464 0.02947507 -0.41387993 0.026276048 -0.14260133 0.28807563
-0.0603753 0.16058318 -0.38860697 0.35114768 -0.35262692 0.08830668 0.09096369 0.42168295
-0.009197269 0.02403711 -0.31271502 0.23801857 0.041569367 -0.43006462 0.27673814 -0.09881734
0.3028836 0.18583547 -0.35602292 -0.24441767 -0.0574613 0.2302276 -0.31777525 -0.017746922
0.25308514 0.3233807 0.2115102 -0.3253445 0.24282928 -0.39711517 -0.38396376 -0.42661127
00000000: 3250 babe 4521 9d3e 25e8 ef3d 84b0 f23d
00000010: 7aaa 643e 8a14 963d 9f0c d13e 1295 853e
00000020: 9c03 8fbe 4f80 40be 20c9 633e c102 a43e
00000030: 6209 c6bd ac71 a53e a494 bcbc 834a c03e
00000040: 899e 563e 88bc a13e fdff 893e e7da 6abe
00000050: 463a c43d 1cb3 023e 53d3 cabe 87af 8b3e
00000060: aef0 e1bc 3c99 27be dff6 ad3e cace 90be
00000070: a08a 653e 8f49 b6be 07c7 7bbe 761f 40bd
00000080: 0ec5 3ebe b49c 043e fc94 813e be42 573e
00000090: 483c 8f3e 2117 c5be d546 78be b7e4 a53e
000000a0: 619b 16bd c8fc 81be d43e 2c3e c59f 2b3d
000000b0: 6fb1 aebe 1c72 ba3e 1001 403e 9852 803d
000000c0: 00b9 81bd e0b7 b5bc 8192 bd3e 60f1 293e
000000d0: fb66 c8be 20b2 163e 2026 313e a209 a73c
000000e0: 6ffb 4b3e 38de b83e cbda 173e c613 c73e
000000f0: a2e2 483d c3ba 9e3e 1f61 b13e f32f c73e
00000100: d861 6a3e c669 54be acb3 f0bd 925e 253e
00000110: a5a0 cebd 8e62 bc3d b2f5 09be 32eb 06be
00000120: a7f4 413e 9ca7 39bd 63dc 34be 4c3e 9c3c
00000130: 7715 dd3d 98d2 e3bd 5424 5a3e 7810 b9bd
00000140: 67e5 3dbe ee94 13be f633 63be bbd6 203e
00000150: 521a df3d 0cc1 923e 6cbc c93e 5fe8 8cbe
00000160: 24b7 49be 02d0 403e a7ca 66bd 825e 07be
00000170: 3af2 dbbc 81b3 083e c4b2 793d b7e3 813e
00000180: 3015 f4bd 9c15 343c 8e2f c4bd ca4f 1fbe
00000190: 95d0 5d3d 096c 45be e4bb 3d3e e00a 07be
000001a0: 8a8f 233e 2cc6 503e eaa6 1cbe 549d 82bc
000001b0: 9d9e 213d e0c3 84be b685 2b3d 5b53 513e
000001c0: af1e 13bd f22e 213e f259 8abd 56ff c53d
000001d0: 8c58 473e 1653 7dbe b847 683c 2e91 15be
000001e0: 58c4 71bc 0ceb 2e3c 9068 bebe 375f c1bd
000001f0: ce16 0c3d 4082 d4bd 1aff 1bbe 884d 3abe
00000200: 7a83 0abd 243e dc3e 3980 a83e 1695 c53e
00000210: 9354 a6be 6269 7a3e 7f8e d43e 4b8d b33e
00000220: 5db0 03be 0d4f c4bd 1b0f 923e 3329 d53e
00000230: c816 17bc 242e e03e bac1 813e c6e9 8e3e
00000240: d6b8 ccbe fa8e d8be 4285 a13e 08ee cb3d
00000250: ba96 35be e872 b33e dccd 5cbc 71df aabe
00000260: 568b cebe 287f b9bd db6f babe b475 f13c
00000270: 12e8 d3be de40 d73c 1506 12be a67e 933e
00000280: 174c 77bd eb6f 243e 7ef7 c6be a1c9 b33e
00000290: 848b b4be 22da b43d 2c4b ba3d d4e6 d73e
000002a0: 24b0 16bc 79e9 c43c 2f1c a0be 24bb 733e
000002b0: a444 2a3d 6e31 dcbe 9fb0 8d3e bf60 cabd
000002c0: 8f13 9b3e a74b 3e3e a348 b6be a048 7abe
000002d0: 8a5c 6bbd c9c0 6b3e 70b3 a2be fe61 91bc
000002e0: 6094 813e 2892 a53e 2196 583e 8e93 a6be
000002f0: 3da8 783e ae52 cbbe e696 c4be cb6c dabe

notes_decoder.weight f4 [128, 64]
-0.21557947 -0.21499874 -0.43236825 -0.33463964 0.41475713 -0.1828996 -0.2563835 -0.3629606
0.089616336 0.183141 -0.44954616 -0.2932206 0.079160415 -0.33555567 -0.16033551 -0.42847624
0.32866973 0.391449 -0.35181528 -0.047493305 -0.10478092 -0.06839019 0.13463862 0.27247992
0.2995666 -0.0037655868 0.3190927 -0.0018083107 0.41173676 -0.05977912 -0.05051532 -0.30343196
-0.09417577 -0.27421236 0.40902027 -0.29509878 -0.09871167 -0.12534925 -0.0718894 -0.36002874
0.017662458 0.056926697 0.22853503 -0.25115722 0.010158692 0.2524601 -0.4019828 0.042732645
-0.18012252 -0.453728 0.39728028 -0.046004534 0.080804825 -0.34580636 0.3573441 -0.055335194
-0.3222508 -0.2680189 -0.32540035 0.22309442 -0.33656153 0.34686688 0.31334043 0.43260482
-0.026227972 -0.3629332 -0.29568642 -0.21618387 0.23714872 -0.3230085 -0.2979744 -0.250687
-0.05615673 0.10092789 -0.42230433 -0.20123255 0.09444 -0.27999333 -0.03631981 -0.31296527
0.4145887 0.2637122 -0.19613937 -0.112235196 -0.10570493 0.08604615 0.1730818 0.3662246
0.40906498 -0.03058897 0.42654693 -0.015264373 0.373621 -0.003338526 -0.025581116 -0.34659532
-0.14693421 -0.26342058 0.3072739 -0.36585456 0.12574364 -0.09527965 -0.12007293 -0.29814446
0.1298339 0.06378066 0.22398287 -0.20030293 0.009556979 0.35926953 -0.18847437 -0.0488783
-0.1685667 -0.42903033 0.211042 -0.068670735 0.15540393 -0.35946476 0.22968717 -0.04430204
-0.3117208 -0.33452907 -0.4026403 0.19718237 -0.2535507 0.4092971 0.43964496 0.44635373
-0.042977322 -0.40551603 -0.27422112 -0.20890881 0.23039076 -0.341804 -0.36256272 -0.20640336
-0.095967315 0.28268638 -0.2397047 -0.36834767 0.056844484 -0.44703007 -0.0858264 -0.40585646
0.23013377 0.2236912 -0.42815793 0.09605906 -0.13472532 -0.021511558 0.12044621 0.26559654
0.39776853 0.14411643 0.37352398 -0.051587835 0.18592003 -0.08173475 -0.04443215 -0.23017824
-0.15152818 -0.2685219 0.20127118 -0.42080668 0.15285254 -0.13097478 -0.10690894 -0.41313398
0.068757616 0.03313377 0.20921193 -0.31761694 -0.09868601 0.24240293 -0.25781968 0.18230185
-0.0594819 -0.38913375 0.35781258 -0.056293983 0.09024964 -0.29188633 0.3033747 0.006168654
-0.33225036 -0.42624542 -0.31034577 0.1831907 -0.26405564 0.26280695 0.2565522 0.36550245
-0.18195264 -0.30045998 -0.34213716 -0.33242393 0.42951542 -0.3450123 -0.45800823 -0.41619623
-0.026625194 0.33425608 -0.27620465 -0.3123666 -0.026293408 -0.34100398 -0.057615012 -0.33883023
0.2543878 0.2490502 -0.20892471 0.06501533 -0.15825064 0.10373802 0.22655767 0.40536824
0.44798496 0.12286101 0.42203134 -0.15236877 0.42249838 -0.10808847 0.049755853 -0.3829079
0.06510814 -0.34850216 0.29062098 -0.36577743 -0.080429666 -0.13364829 -0.03442792 -0.41906577
0.08647362 0.05618637 0.40602514 -0.31355405 -0.15079522 0.33007 -0.38993537 0.07546616
-0.17384522 -0.21361217 0.2778136 -0.045393392 0.09287029 -0.33890063 0.28892407 -0.036895066
-0.38598508 -0.33467317 -0.24821234 0.23723562 -0.21752691 0.39571625 0.35064965 0.36064616
00000000: ddc0 5cbe a128 5cbe 5f5f ddbe e355 abbe
00000010: 0c5b d43e 084a 3bbe b344 83be f9d5 b9be
00000020: c588 b73d 5089 3b3e ea2a e6be 0321 96be
00000030: db1e a23d f4cd abbe fe2e 24be 3d61 dbbe
00000040: 6647 a83e 016c c83e 2221 b4be 5788 42bd
00000050: 6197 d6bd 2810 8cbd b5de 093e 7d82 8b3e
00000060: cb60 993e 10c8 76bb 1e60 a33e d704 edba
00000070: 29cf d23e f3da 74bd 27e9 4ebd 6f5b 9bbe
00000080: 3adf c0bd 9065 8cbe 1b6b d13e 3017 97be
00000090: 5829 cabd 8e5b 00be c03a 93bd b055 b8be
000000a0: dcb0 903c f82b 693d 1605 6a3e ae97 80be
000000b0: a470 263c 7342 813e b1d0 cdbe 6d08 2f3d
000000c0: 0a72 38be 094f e8be 5268 cb3e 406f 3cbd
000000d0: 007d a53d 880d b1be cef5 b63e 28a7 62bd
000000e0: 0ffe a4be c639 89be e09a a6be dd72 643e
000000f0: cb51 acbe 8998 b13e 286e a03e 617e dd3e
00000100: 0bdc d6bc 61d2 b9be 3664 97be 4e5f 5dbe
00000110: 1dd7 723e 5f61 a5be 1a90 98be 0c5a 80be
00000120: 9904 66bd 48b3 ce3d 4638 d8be e80f 4ebe
00000130: c269 c13d 495b 8fbe 15c4 14bd fc3c a0be
00000140: f844 d43e 4905 873e c2d8 48be 91db e5bd
00000150: d47b d8bd f738 b03d 5b3c 313e ca81 bb3e
00000160: f770 d13e b895 fabc 5c64 da3e 6c17 7abc
00000170: 404b bf3e 2ccb 5abb 7d8f d1bc f174 b1be
00000180: ec75 16be 10df 86be 0153 9d3e 4a51 bbbe
00000190: f1c2 003e fa21 c3bd cce8 f5bd 64a6 98be
000001a0: 2ef3 043e 6f9f 823d c45b 653e 361c 4dbe
000001b0: e094 1c3c 2df2 b73e 6dff 40be 9d34 48bd
000001c0: c09c 2cbe dda9 dbbe 651b 583e 3ea3 8cbd
000001d0: 3522 1f3e c40b b8be 1d33 6b3e 0e76 35bd
000001e0: de99 9fbe 6547 abbe df26 cebe 2dea 493e
000001f0: 66d1 81be 648f d13e 2519 e13e 7a88 e43e
00000200: fd08 30bd cc9f cfbe b666 8cbe 31ec 55be
00000210: 8eeb 6b3e ef00 afbe d2a1 b9be 675b 53be
00000220: 838a c4bd 45bc 903e 2675 75be 1198 bcbe
00000230: c3d5 683d 20e1 e4be c0c5 afbd 6bcc cfbe
00000240: 30a8 6b3e 4e0f 653e 8437 dbbe 9dba c43d
00000250: 6ff5 09be 0239 b0bc 81ac f63d 45fc 873e
00000260: 51a8 cb3e 4293 133e 893e bf3e c44d 53bd
00000270: d261 3e3e 8c64 a7bd 7cfe 35bd d8b3 6bbe
00000280: 342a 1bbe b47b 89be 081a 4e3e f973 d7be
00000290: 6085 1c3e 411e 06be 13f3 dabd 4c86 d3be
000002a0: cbd0 8c3d 47b7 073d a73b 563e b09e a2be
000002b0: e41b cabd 7938 783e f100 84be 56ad 3a3e
000002c0: 4ba3 73bd 8a3c c7be 3633 b73e 8594 66bd
000002d0: ced4 b83d 2072 95be ee53 9b3e 6c22 ca3b
000002e0: b81c aabe d73c dabe a4e5 9ebe 5896 3b3e
000002f0: 4d32 87be a28e 863e cf5a 833e 2323 bb3e
00000300: cb51 3abe e4d5 99be 9a2c afbe 7833 aabe
00000310: 72e9 db3e 74a5 b0be 0e80 eabe ac17 d5be
00000320: 141d dabc 9d23 ab3e b26a 8dbe 84ee 9fbe
00000330: 4665 d7bc 1398 aebe b8fd 6bbd 287b adbe
00000340: 1e3f 823e 0407 7f3e 5cf0 55be c226 853d
00000350: 750c 22be 9974 d43d bcfe 673e 6d8c cf3e
00000360: 495e e53e 8e9e fb3d 7e14 d83e 8f06 1cbe
00000370: b551 d83e 7d5d ddbd cbcc 4b3d 810c c4be
00000380: 6b57 853d e06e b2be 46cc 943e 2e47 bbbe
00000390: 4fb8 a4bd 19db 08be 4a04 0dbd ca8f d6be
000003a0: 1519 b13d ae23 663d 87e2 cf3e 288a a0be
000003b0: 106a 1abe effe a83e 9ca5 c7be 018e 9a3d
000003c0: 7b04 32be 26bd 5abe 963d 8e3e 6cee 39bd
000003d0: c732 be3d 6284 adbe dbed 933e 481f 17bd
000003e0: d69f c5be 485a abbe 602b 7ebe e5ed 723e
000003f0: 60bf 5ebe 529b ca3e 5a88 b33e 9da6 b83e

notes_decoder.bias f4 [128]
-0.22518803 -0.32623345 -0.34873116 -0.33273625 -0.19923642 -0.41645226 -0.40602657 -0.25486532
-0.28618965 -0.2006008 -0.41089028 -0.35625014 -0.2912099 -0.39622575 -0.32560158 -0.25678143
-0.25415182 -0.25395715 -0.3893861 -0.34982425 -0.2005607 -0.29768726 -0.24048832 -0.24244162
-0.23051842 -0.3545888 -0.38121748 -0.40893075 -0.18272595 -0.343498 -0.36115372 -0.31401205
-0.23427764 -0.40128294 -0.23988608 -0.29732695 -0.2806814 -0.32704753 -0.19203253 -0.3538729
-0.22248943 -0.26868814 -0.3549118 -0.3753679 -0.30021116 -0.20924008 -0.25023955 -0.21370521
-0.2632279 -0.42580155 -0.3125693 -0.3245508 -0.17873794 -0.27708736 -0.23979403 -0.36637723
-0.23139645 -0.34991303 -0.32068032 -0.29352996 -0.17266242 -0.37967908 -0.23428142 -0.39540178
-0.3602385 -0.2588787 -0.18558191 -0.20633619 -0.36827514 -0.27846432 -0.1876161 -0.28497016
-0.13648988 -0.27934137 -0.21638392 -0.34078908 -0.35327637 -0.226143 -0.25091612 -0.24348436
-0.33669585 -0.20483068 -0.353435 -0.29079187 -0.15803868 -0.2350879 -0.23761216 -0.2979933
-0.38232198 -0.20145488 -0.23840965 -0.339908 -0.22160472 -0.24022529 -0.36977574 -0.3697642
-0.24880186 -0.2920675 -0.38952765 -0.3489461 -0.1911448 -0.3613034 -0.3665042 -0.2775873
-0.17353156 -0.34179106 -0.3443126 -0.23507425 -0.20391518 -0.30820706 -0.3949397 -0.27022663
-0.2691962 -0.1887701 -0.32182404 -0.31751356 -0.42006114 -0.3937515 -0.38811672 -0.24498825
-0.19895914 -0.34467202 -0.41448203 -0.25912523 -0.38659352 -0.37765938 -0.27456826 -0.32660177
00000000: b197 66be 1208 a7be e48c b2be 685c aabe
00000010: a204 4cbe 3b39 d5be b7e2 cfbe b57d 82be
00000020: 7387 92be 4c6a 4dbe 3660 d2be 6b66 b6be
00000030: 7719 95be 1ade cabe 40b5 a6be db78 83be
00000040: 3020 82be ac06 82be 9d5d c7be 2a1c b3be
00000050: c95f 4dbe 776a 98be 9242 76be 9e42 78be
00000060: 050d 6cbe aa8c b5be f02e c3be 5f5f d1be
00000070: 831c 3bbe f8de afbe 24e9 b8be 30c6 a0be
00000080: 7ae6 6fbe f574 cdbe b2a4 75be 3d3b 98be
00000090: 79b5 8fbe c672 a7be 2da4 44be d42e b5be
000000a0: 45d4 63be 7e91 89be 00b7 b5be 3930 c0be
000000b0: 47b5 99be 0843 56be 661f 80be 8ad5 5abe
000000c0: cfc5 86be a902 dabe 1509 a0be 862b a6be
000000d0: 1407 37be 65de 8dbe 918c 75be cc95 bbbe
000000e0: 31f3 6cbe cd27 b3be 3630 a4be 8f49 96be
000000f0: 6bce 30be 4c65 c2be 78e7 6fbe 1a72 cabe
00000100: 2e71 b8be c08b 84be 2f09 3ebe cb49 53be
00000110: 8f8e bcbe e092 8ebe 6f1e 40be 9ce7 91be
00000120: 01c4 0bbe d505 8fbe bf93 5dbe e87b aebe
00000130: a4e0 b4be 0892 67be 1478 80be f753 79be
00000140: 6663 acbe 22bf 51be 6ff5 b4be ace2 94be
00000150: e4d4 21be e2ba 70be 9a50 73be 9492 98be
00000160: b5bf c3be 304a 4ebe a921 74be 6c08 aebe
00000170: 59ec 62be 9efd 75be 3f53 bdbe bc51 bdbe
00000180: eac5 7ebe df89 95be 2b70 c7be 10a9 b2be
00000190: 76bb 43be c2fc b8be 70a6 bbbe ec1f 8ebe
000001a0: 42b2 31be 3dff aebe be49 b0be 4eb7 70be
000001b0: 24cf 50be 51cd 9dbe 8935 cabe 255b 8abe
000001c0: 16d4 89be f34c 41be 1fc6 a4be 2391 a2be
000001d0: 4112 d7be cc99 c9be 3cb7 c6be 33de 7abe
000001e0: f2bb 4bbe da78 b0be fd36 d4be 10ac 84be
000001f0: 96ef c5be 925c c1be 3694 8cbe 5938 a7be
