saved_models/generalist_BCE_1e-1_7.pth (torch_old, 167373 bytes, 8 tensors)

notes_encoder.weight f4 [64, 128]
-0.027770199 0.050633185 -0.04880663 0.08712613 0.027978398 0.037292697 -0.046655063 0.016557038
0.007909164 0.07807314 0.043912567 0.027722098 -0.0082190335 -0.035972334 -0.010824889 0.0017878935
-0.046632115 0.08394454 -0.038703293 -0.010119207 -0.020257443 -0.08691605 0.011596568 -0.07166274
0.06913472 0.069835715 0.017696321 0.08271795 -0.030994274 0.070390455 0.051908873 0.05720786
-0.005574025 -0.037025563 0.47822747 -0.009579249 0.40734255 -0.0024191216 0.4044538 0.5005045
0.4407252 0.3646996 0.46611103 0.5041962 0.5166307 0.42828655 0.38099903 0.46591553
0.51007956 0.45948526 0.44103512 0.3719811 0.46372014 0.35344383 0.39405328 0.4038963
0.4419915 0.38765725 0.382083 0.43043008 0.43191674 0.4867996 0.5005481 0.49805117
0.3980252 0.44930494 0.47418028 0.37379548 0.44295555 0.5238602 0.3862651 0.44197413
0.4177456 0.36965883 0.46120265 0.53498846 0.39679164 0.38897905 0.39571244 0.40831771
0.5368992 0.38172758 0.44413766 0.52302426 0.469508 0.40885186 0.49050906 0.46100315
0.38906646 0.46409208 0.04519134 -0.0018952936 0.01099512 -0.04261433 -0.061215103 0.019883923
-0.05924178 -0.04660061 0.08741406 0.025410205 0.0012899339 0.06397999 0.020601526 -0.061813105
0.083305396 -0.05192418 -0.046567746 -0.045191705 -0.021047965 -0.029634196 -0.082130305 -0.026743554
-0.0463206 0.0341172 0.011886783 0.08202616 0.026030324 -0.046982862 0.051262803 0.030643068
0.04532761 0.00889118 -0.036278974 -0.07701438 -0.076244995 0.01685813 0.015218869 -0.08201791
-0.08288079 0.0778484 -0.02552268 -0.010099955 0.06393308 -0.02932565 -0.048585337 0.07452815
0.074779354 -0.058713138 0.087771766 0.023496486 -0.048331898 -0.087524496 -0.03060091 -0.02793809
0.08751654 0.05653044 -0.04320407 -0.035157382 0.07121704 0.061404116 -0.03166106 0.0059733763
0.006698169 0.07681764 -0.033630792 0.037208445 0.0736882 -0.014204711 0.0015059784 -0.06902682
0.040171407 0.000866957 0.5452713 -0.026728656 0.48373553 0.06322803 0.41628516 0.5067606
0.50848097 0.42522085 0.39338288 0.5158582 0.38374478 0.49313676 0.37294346 0.50514346
0.45614624 0.4396449 0.51551276 0.59413755 0.47247106 0.45212507 0.41862524 0.43917328
0.4223435 0.52853006 0.4101694 0.41842175 0.55429447 0.34689143 0.46261212 0.41856146
0.4560622 0.4874261 0.50126237 0.3992708 0.48590618 0.5097483 0.44036195 0.4228204
0.49440914 0.43231335 0.55848026 0.57136226 0.5244044 0.45068002 0.5018717 0.49731642
0.5078079 0.46964657 0.3598714 0.50209624 0.41358888 0.55934685 0.40517646 0.52239406
0.4165513 0.377332 0.07270809 0.08626147 0.017618775 0.024179593 -0.066565014 -0.039734185
-0.086480334 0.027473465 0.06699472 -0.02906549 -0.0775366 0.04651051 0.010114402 0.08747483
-0.04278672 0.020060122 0.047692783 0.04659622 0.047038265 -0.026767094 0.005657278 0.04440088
0.033840008 0.056835465 -0.070258215 0.06801968 0.07132084 -0.034684315 0.06590385 0.02669578
-0.008762553 -0.08571521 0.06172923 -0.044893663 -0.031074692 -0.07578091 0.03379327 -0.020870343
00000000: 547e e3bc be64 4f3d 76e9 47bd 2f6f b23d
00000010: f432 e53c 3ac0 183d 6119 3fbd a0a2 873c
00000020: 7095 013c cfe4 9f3d aadd 333d 7419 e33c
00000030: 20a9 06bc ba57 13bd e05a 31bc c057 ea3a
00000040: 5101 3fbd 1deb ab3d 5887 1ebd 08cb 25bc
00000050: f0f2 a5bc 0b01 b2bd 88ff 3d3c eac3 92bd
00000060: 8196 8d3d 0706 8f3d e0f7 903c 0768 a93d
00000070: b4e7 fdbc df28 903d 669e 543d ca52 6a3d
00000080: 50a6 b6bb 1ea8 17bd 3bda f43e 48f2 1cbc
00000090: 348f d03e 208a 1ebb 9214 cf3e 1021 003f
000000a0: bca6 e13e e8b9 ba3e 1ba6 ee3e 0113 013f
000000b0: e941 043f 6048 db3e 4e12 c33e 7b8c ee3e
000000c0: 9394 023f a741 eb3e 5bcf e13e 4f74 be3e
000000d0: ba6c ed3e 97f6 b43e 5ac1 c93e 7fcb ce3e
000000e0: b64c e23e 037b c63e 62a0 c33e 5561 dc3e
000000f0: 3124 dd3e cc3d f93e ec23 003f 9000 ff3e
00000100: f6c9 cb3e 4c0b e63e c2c7 f23e 1f62 bf3e
00000110: 12cb e23e b41b 063f 8ac4 c53e 6f4a e23e
00000120: c0e2 d53e ec43 bd3e c122 ec3e 01f5 083f
00000130: 4628 cb3e 4328 c73e d29a ca3e 050f d13e
00000140: 3a72 093f cc71 c33e 0366 e33e ebe4 053f
00000150: 5a63 f03e 0855 d13e 0124 fb3e 9b08 ec3e
00000160: b833 c73e 7a9d ed3e 8e1a 393d 806b f8ba
00000170: e024 343c 5d8c 2ebd b0bc 7abd 9ce3 a23c
00000180: 82a7 72bd 48e0 3ebd 2506 b33d 1029 d03c
00000190: 0013 a93a f107 833d 88c4 a83c bd2f 7dbd
000001a0: 059c aa3d 73ae 54bd d2bd 3ebd f01a 39bd
000001b0: c86c acbc 6ac3 f2bc ef33 a8bd 4c15 dbbc
000001c0: abba 3dbd 7abe 0b3d c8c0 423c 55fd a73d
000001d0: 8c3d d53c 1a71 40bd f2f8 513d 2c07 fb3c
000001e0: 72a9 393d 50ac 113c 4399 14bd b7b9 9dbd
000001f0: 5626 9cbd 101a 8a3c 9058 793c 02f9 a7bd
00000200: 67bd a9bd fb6e 9f3d f014 d1bc 487a 25bc
00000210: 59ef 823d 583c f0bc 6b01 47bd 37a2 983d
00000220: eb25 993d 307d 70bd afc1 b33d b47b c03c
00000230: abf7 45bd 0b40 b3bd c2ae fabc 6cde e4bc
00000240: df3b b33d 768c 673d c0f6 30bd 3001 10bd
00000250: 3dda 913d e282 7b3d 07af 01bd 50bc c33b
00000260: 507c db3b 9152 9d3d 71c0 09bd e267 183d
00000270: d7e9 963d e0ba 68bc 4064 c53a ef5d 8dbd
00000280: c68a 243d 8044 633a e696 0b3f 0ef6 dabc
00000290: 2fac f73e b37d 813d 5423 d53e 10bb 013f
000002a0: cf2b 023f 8cb6 d93e 7b69 c93e 480f 043f
000002b0: 327a c43e 6c7c fc3e 72f2 be3e 1551 013f
000002c0: 008c e93e 2319 e13e a5f8 033f 6619 183f
000002d0: bae7 f13e f07c e73e 0c56 d63e 52db e03e
000002e0: 683d d83e bf4d 073f b901 d23e 603b d63e
000002f0: 3ee6 0d3f c19b b13e 7fdb ec3e b04d d63e
00000300: fc80 e93e ea8f f93e bb52 003f 396d cc3e
00000310: b2c8 f83e dd7e 023f 1f77 e13e ea7b d83e
00000320: 3223 fd3e 2d58 dd3e 90f8 0e3f cc44 123f
00000330: 5e3f 063f 88bf e63e aa7a 003f 42a0 fe3e
00000340: b3ff 013f 8475 f03e 1041 b83e 6189 003f
00000350: ecc1 d33e 5b31 0f3f 4a73 cf3e 9ebb 053f
00000360: 3646 d53e a931 c13e fbe7 943d dba9 b03d
00000370: 4055 903c 4814 c63c 3d53 88bd 50c0 22bd
00000380: 9a1c b1bd 0810 e13c 8734 893d c01a eebc
00000390: 82cb 9ebd ce81 3e3d e0b6 253c 0126 b33d
000003a0: 2141 2fbd 2055 a43c 8259 433d aedb 3e3d
000003b0: 32ab 403d aa46 dbbc b060 b93b b2dd 353d
000003c0: d29b 0a3d 4ecc 683d 8ae3 8fbd e74d 8b3d
000003d0: a910 923d 2411 0ebd 99f8 863d 1cb1 da3c
000003e0: d090 0fbc 758b afbd cad7 7c3d 6be2 37bd
000003f0: 5a90 febc 0633 9bbd d06a 0a3d 48f8 aabc

notes_encoder.bias f4 [64]
0.40177134 0.4558866 -0.1380224 -0.5285445 0.13761933 0.15400329 -0.083630085 0.09658519
-0.036345534 0.14586885 0.13661551 0.57083106 -0.13426058 -0.3292855 -0.059311375 -0.062150955
-0.5422954 0.72223324 0.057190493 0.3547333 0.45858043 -0.34367412 0.59546864 0.3757082
0.44784635 -0.5467469 -0.32183415 0.5867508 -0.44746965 -0.56169146 0.37197286 0.2183534
-0.37158784 0.36978832 -0.44810754 -0.4859945 -0.5294939 -0.3616122 -0.53285795 -0.3819591
0.058749877 -0.24585366 -0.106870785 -0.3379858 -0.23574421 -0.5774388 -0.05231866 0.18161808
-0.0063056257 -0.36374924 0.3973659 0.0678612 0.07698538 0.032152746 -0.034990225 -0.39301673
0.045481224 0.3797646 0.09486192 0.104458295 -0.010383546 0.18289272 0.08501489 0.4481464
00000000: f9b4 cd3e f869 e93e be55 0dbe b14e 07bf
00000010: 15ec 0c3e 0ab3 1d3e 4046 abbd 75ce c53d
00000020: 0edf 14bd a55e 153e f0e4 0b3e fc21 123f
00000030: 9b7b 09be 1c98 a8be 7cf0 72bd 0092 7ebd
00000040: dfd3 0abf 47e4 383f 9440 6a3d 9a9f b53e
00000050: 0ecb ea3e 0ef6 afbe a270 183f d35c c03e
00000060: 1e4c e53e 9bf7 0bbf 72c7 a4be 4d35 163f
00000070: be1a e5be 03cb 0fbf 3a73 be3e 0998 5f3e
00000080: c340 bebe e554 bd3e 5a6e e5be 45d4 f8be
00000090: ea8c 07bf 3c25 b9be 6169 08bf 2590 c3be
000000a0: b6a3 703d 10c1 7bbe 12df dabd 7a0c adbe
000000b0: ee66 71be 07d3 13bf 174c 56bd 17fa 393e
000000c0: 6c9f cebb 573d babe 8b73 cb3e d0fa 8a3d
000000d0: 83aa 9d3d 99b2 033d e951 0fbd 7d39 c9be
000000e0: 854a 3a3d 8170 c23e f746 c23d 3bee d53d
000000f0: c01f 2abc 3b48 3b3e 491c ae3d 7273 e53e

gru.weight_ih_l0 f4 [192, 64]
-0.21139081 -0.12685879 -0.48631954 0.2782751 0.46798867 -0.3198269 -0.21662824 -0.47828767
-0.51040125 -0.44713393 0.23331434 -0.41958234 0.28412965 0.2039666 -0.4089155 0.25399837
0.5002187 -0.27678064 0.29470834 -0.11643158 -0.20445317 0.106673226 -0.34591362 -0.3215068
-0.3308749 0.4037895 0.20118608 -0.4405221 0.1323922 0.5009109 -0.3115891 -0.35732043
0.24616735 -0.1940575 0.4358422 0.38923275 0.50294083 0.31648025 0.4647765 0.2577302
0.43116468 0.28047928 0.22928731 0.30518308 0.2898089 0.3022887 0.27757066 0.26703346
-0.47788626 0.12550177 -0.32997537 0.30295682 -0.12616847 -0.48374057 0.35133877 0.22047761
0.3371558 -0.27758062 0.3070687 0.2845514 0.26145437 0.17661063 0.24559794 -0.34058467
0.21159405 0.24841526 0.40639102 -0.18992239 -0.39094925 0.34161395 0.09215787 0.4557081
0.543001 0.3901163 -0.20349932 0.41349283 -0.447457 -0.12728451 0.3808694 -0.415079
-0.38704875 0.35844922 -0.556923 0.15095432 0.13478395 -0.06954933 0.50482213 0.2138564
0.22310516 -0.5484049 -0.049558513 0.41327468 -0.12583709 -0.39338621 0.14739685 0.47125745
0.048710972 0.009838991 -0.4098748 -0.1735152 -0.4258774 0.032306604 -0.4495184 -0.18947165
-0.40827265 -0.10500665 -0.2436332 -0.19801903 -0.231185 -0.48648268 -0.45208567 -0.07450349
0.43763867 -0.21830943 0.21284321 -0.34178188 0.19537938 0.3596451 -0.38759127 -0.16197637
-0.50868446 0.23875935 -0.0701894 -0.12644614 -0.09650718 -0.24796438 0.0011845008 0.113979
0.47847933 0.31165743 0.16715628 -0.42425695 -0.21888077 0.41621304 0.3430793 0.23602885
0.35560662 0.22482528 -0.45405197 0.14089298 -0.17406408 -0.47708672 0.22058867 -0.28173485
-0.32344714 0.15644754 -0.14022736 0.27760133 0.2704422 -0.36120495 0.15078177 0.47017565
0.3258481 -0.36246532 -0.48208892 0.3368962 -0.43766516 -0.3358985 0.36539948 0.22611034
-0.34634644 0.460263 -0.18592918 -0.3065395 -0.41329974 -0.26957533 -0.34321174 -0.32655504
-0.22572699 -0.4129428 -0.19735514 -0.3733321 -0.22442289 -0.14374992 -0.2207344 -0.46633703
0.20183128 -0.3912619 0.34186506 -0.3489549 0.44395477 0.33022168 -0.35584563 -0.34702396
-0.3422033 0.4195205 -0.41993627 -0.2517184 -0.23089641 -0.3095608 -0.2545798 0.43554306
0.43964526 0.4037693 0.1855876 -0.1796578 -0.17376752 0.16053508 0.39643747 0.17304088
0.28915548 0.25912315 -0.43044722 0.15799871 -0.35485277 -0.42719692 0.17752519 -0.3011486
-0.272613 0.15426558 -0.23270088 0.32111928 0.39457294 -0.25580257 0.2529594 0.45574546
0.27409616 -0.20504528 -0.41391793 0.2892933 -0.37665933 -0.40749332 0.45686266 0.15752956
-0.48990172 0.29758507 -0.3834468 -0.22056234 -0.27193165 -0.4138109 -0.19997339 -0.4791387
-0.28912863 -0.2617996 -0.19841908 -0.45844245 -0.25634772 -0.23806863 -0.1748904 -0.38963777
0.31306195 -0.30853593 0.24920371 -0.37959248 0.35998473 0.3588832 -0.32879657 -0.3835448
-0.24764954 0.4650214 -0.30933917 -0.33699727 -0.28351972 -0.30816212 -0.3227217 0.42056042
00000000: d576 58be 45e7 01be e0fe f8be 137a 8e3e
00000010: 369c ef3e 5ac0 a3be cbd3 5dbe 1fe2 f4be
00000020: a8a9 02bf bdee e4be f4e9 6e3e 7fd3 d6be
00000030: 7179 913e 9fdc 503e 5f5d d1be 130c 823e
00000040: 550e 003f 31b6 8dbe 03e4 963e ae73 eebd
00000050: 2c5c 51be 7e77 da3d 971b b1be 8a9c a4be
00000060: 6f68 a9be 7fbd ce3e b903 4e3e 1d8c e1be
00000070: d291 073e b23b 003f 9b88 9fbe b4f2 b6be
00000080: 4b13 7c3e 02b7 46be b526 df3e 8449 c73e
00000090: bbc0 003f b309 a23e 2ff7 ed3e 36f5 833e
000000a0: 9ec1 dc3e fb9a 8f3e 4bca 6a3e f540 9c3e
000000b0: d561 943e 96c5 9a3e be1d 8e3e 9cb8 883e
000000c0: 82ad f4be 8983 003e 88f2 a8be 281d 9b3e
000000d0: 4f32 01be d8ac f7be ade2 b33e e2c4 613e
000000e0: af9f ac3e 0c1f 8ebe 1c38 9d3e b9b0 913e
000000f0: 59dd 853e 6bd9 343e 077e 7b3e 1d61 aebe
00000100: 1cac 583e 9260 7e3e 7c12 d03e 047b 42be
00000110: 802a c8be 06e8 ae3e 44bd bc3d 9252 e93e
00000120: 1d02 0b3f 53bd c73e 2062 50be 55b5 d33e
00000130: 1519 e5be df56 02be 5001 c33e 3c85 d4be
00000140: 412b c6be a886 b73e 8192 0ebf c593 1a3e
00000150: ce04 0a3e e16f 8ebd 063c 013f 2cfd 5a3e
00000160: ae75 643e 4364 0cbf defd 4abd bd98 d33e
00000170: 70db 00be eb69 c9be 33ef 163e a848 f13e
00000180: 2885 473d b833 213c 1cdb d1be f8ad 31be
00000190: 9a0c dabe ee53 043d 4727 e6be db04 42be
000001a0: 1d09 d1be ba0d d7bd fb7a 79be 80c5 4abe
000001b0: c3bb 6cbe 4214 f9be c677 e7be 4995 98bd
000001c0: 2d12 e03e 828c 5fbe 92f3 593e 09fe aebe
000001d0: 8811 483e 6723 b83e 5d72 c6be 22dd 25be
000001e0: 2539 02bf 557d 743e 76bf 8fbd 197b 01be
000001f0: 8ea5 c5bd 60ea 7dbe 4041 9b3a d26d e93d
00000200: 3efb f43e 9091 9f3e 042b 2b3e 3538 d9be
00000210: 4822 60be e019 d53e 17a8 af3e 8cb1 713e
00000220: 1212 b63e 9938 663e 8079 e8be 4046 103e
00000230: db3d 32be b644 f4be ffe1 613e 8d3f 90be
00000240: dd9a a5be c933 203e c397 0fbe c321 8e3e
00000250: 6677 8a3e dbef b8be 8966 1a3e ddba f03e
00000260: 90d5 a63e 0e95 b9be 5cd4 f6be a97d ac3e
00000270: a615 e0be e3fa abbe a415 bb3e 7889 673e
00000280: 5254 b1be 98a7 eb3e 3864 3ebe bff2 9cbe
00000290: 069c d3be c705 8abe 73b9 afbe 3932 a7be
000002a0: fa24 67be 3d6d d3be 7717 4abe 6325 bfbe
000002b0: 1dcf 65be 2e33 13be 3308 62be bac3 eebe
000002c0: dcac 4e3e 7b53 c8be f008 af3e 37aa b2be
000002d0: 0a4e e33e d112 a93e 6631 b6be 20ad b1be
000002e0: 4535 afbe 64cb d63e e301 d7be 3ce1 80be
000002f0: 1c70 6cbe c17e 9ebe 4958 82be 80ff de3e
00000300: 2f19 e13e daba ce3e ad0a 3e3e 37f8 37be
00000310: 1df0 31be 4f63 243e daf9 ca3e a131 313e
00000320: 300c 943e caab 843e 9463 dcbe 6aca 213e
00000330: 43af b5be 8eb9 dabe 2ac9 353e 2630 9abe
00000340: ee93 8bbe ccf7 1d3e 2449 6ebe bf69 a43e
00000350: 7705 ca3e 8ef8 82be e583 813e 7857 e93e
00000360: 5556 8c3e 64f7 51be 0ded d3be 401e 943e
00000370: 7ed9 c0be f7a2 d0be e7e9 e93e 6e4f 213e
00000380: 66d4 fabe 125d 983e 2453 c4be 18db 61be
00000390: a03a 8bbe 06df d3be d3c5 4cbe ab51 f5be
000003a0: ab08 94be 990a 86be 5f2e 4bbe f8b8 eabe
000003b0: 0240 83be 43c8 73be 7816 33be 9a7e c7be
000003c0: a849 a03e 6cf8 9dbe 422f 7f3e f259 c2be
000003d0: eb4f b83e 8abf b73e 0658 a8be fc5f c4be
000003e0: d797 7dbe 4917 ee3e b461 9ebe e88a acbe
000003f0: 7f29 91be 6dc7 9dbe c73b a5be b253 d73e

gru.weight_hh_l0 f4 [192, 64]
0.16921628 -0.49617112 -0.29668692 -0.38499343 0.4741072 -0.4765014 -0.31501222 -0.36131957
-0.26673764 -0.19459735 -0.37507957 -0.36840442 -0.129623 -0.4762413 -0.25658315 -0.32562715
0.52123404 0.37585995 -0.41324723 -0.3371174 0.2558967 -0.1755789 -0.15817794 0.4869283
0.42271423 0.14836265 0.43337965 0.31158674 0.41463903 0.14142253 0.29161978 -0.47533774
-0.27515513 -0.3108918 0.28997952 -0.3461404 0.12084666 0.30588824 -0.32611752 -0.31642956
0.22469118 0.22923839 0.45899978 -0.37814727 -0.13918722 0.44263032 -0.31595618 0.24425891
-0.23610178 -0.2796733 0.487557 0.163657 0.3549972 -0.44924033 0.32435563 0.26232803
-0.43326733 -0.45480072 -0.36468154 0.5056258 -0.28712085 0.48190647 0.38134113 0.38533407
-0.11663012 0.44678083 0.32105777 0.47684082 -0.52052784 0.45374873 0.456308 0.3426766
0.24206185 -0.14893667 0.51581144 0.480746 0.032493874 0.5106672 0.25852647 0.41170728
-0.42415968 -0.40515178 0.39072028 0.09193581 -0.20232596 0.060738772 0.07842513 -0.57252955
-0.54013145 -0.33355626 -0.48330384 -0.194944 -0.54382616 -0.015194454 -0.09574152 0.5010641
0.1187453 0.42423296 -0.41163316 0.577044 -0.1567879 -0.1215167 0.28242397 0.43600288
-0.095009364 -0.20241287 -0.5443032 0.4415441 0.20449412 -0.58041006 0.36480197 -0.14551179
0.15151691 0.34258363 -0.49593228 -0.17865495 -0.12126387 0.3290638 -0.5481987 -0.08703863
0.39183527 0.4068151 0.37312934 -0.37235147 0.46396214 -0.53648204 -0.51212573 -0.44508064
-0.48273906 0.3385171 0.24088573 0.37063193 -0.28713506 0.18559068 0.13058282 0.14131886
0.461784 0.47938287 0.3108888 0.25138935 0.39512527 0.2693734 0.34858897 0.24492916
-0.33067048 -0.19135913 0.329503 0.3745483 -0.33669508 0.35216922 0.492769 -0.14517096
-0.28377053 -0.44015023 -0.35213786 -0.3661219 -0.13976316 -0.26403645 -0.38580272 0.24109215
0.28720552 0.22017805 -0.23488373 0.29188025 -0.3600075 -0.4054185 0.39535466 0.15188333
-0.42946324 -0.32017675 -0.22514835 0.35082278 0.30711672 -0.2701618 0.3838899 -0.37010947
0.42215082 0.39193442 -0.36631057 -0.42774442 -0.36771792 0.25397044 -0.22326449 -0.3813257
0.2856397 0.31139618 0.3058486 -0.37851763 0.3465654 -0.13072562 -0.3450842 -0.1531873
-0.506657 0.20358838 0.18742128 0.19942702 -0.19314368 0.29338744 0.22220966 0.33884528
0.26927215 0.491452 0.33425725 0.36148265 0.3189919 0.15378866 0.23898064 0.27477682
-0.15190457 -0.12003969 0.13911404 0.40297776 -0.41119424 0.5046807 0.36000875 -0.26911393
-0.17274988 -0.30191404 -0.1691568 -0.41832542 -0.241672 -0.51000184 -0.3353949 0.23564297
0.3667253 0.30823866 -0.32261622 0.32463112 -0.355705 -0.39117193 0.42525747 0.35383213
-0.36849606 -0.47337988 -0.18274379 0.23830853 0.23231502 -0.12425225 0.18998572 -0.24244356
0.18429151 0.21980448 -0.1968887 -0.27625635 -0.40190184 0.2781234 -0.25028077 -0.32113674
0.23577474 0.2546147 0.33314416 -0.28646442 0.22138345 -0.27089992 -0.12796381 -0.18659607
00000000: 0847 2d3e 240a febe 59e7 97be dc1d c5be
00000010: 2ebe f23e fef7 f3be 4849 a1be e1fe b8be
00000020: d691 88be 8744 47be 6e0a c0be 819f bcbe
00000030: e4bb 04be e6d5 f3be de5e 83be 9ab8 a6be
00000040: 986f 053f b770 c03e 2495 d3be a79a acbe
00000050: e404 833e f5ca 33be 66f9 21be ab4e f93e
00000060: 006e d83e 61ec 173e f0e3 dd3e 4c88 9f3e
00000070: 914b d43e 11d1 103e 304f 953e 785f f3be
00000080: 22e1 8cbe 362d 9fbe 3278 943e 5139 b1be
00000090: 747e f73d 629d 9c3e e0f8 a6be 0e03 a2be
000000a0: 7215 663e 78bd 6a3e 0502 eb3e 859c c1be
000000b0: 1887 0ebe 71a0 e23e 02c5 a1be 021f 7a3e
000000c0: aac4 71be 5731 8fbe 12a1 f93e b395 273e
000000d0: 31c2 b53e d402 e6be f111 a63e dc4f 863e
000000e0: 37d5 ddbe a4db e8be 8ab7 babe b170 013f
000000f0: 8101 93be 72bc f63e 253f c33e 824a c53e
00000100: c6db eebd 75c0 e43e af61 a43e 7b24 f43e
00000110: 5041 05bf c151 e83e 34a1 e93e 4f73 af3e
00000120: 10df 773e db82 18be 380c 043f 5724 f63e
00000130: 4c18 053d 16bb 023f 955d 843e 4ccb d23e
00000140: 752b d9be 0e70 cfbe 7d0c c83e d848 bc3d
00000150: 892e 4fbe 38c9 783d 5b9d a03d 4c91 12bf
00000160: 0e46 0abf e3c7 aabe 9a73 f7be 669f 47be
00000170: 3138 0bbf 29f2 78bc 2114 c4bd bd45 003f
00000180: bc30 f33d 1035 d93e 95c1 d2be 28b9 133f
00000190: 028d 20be bfdd f8bd e099 903e c53b df3e
000001a0: 4594 c2bd 5245 4fbe 7457 0bbf 1112 e23e
000001b0: e866 513e c195 14bf 53c7 ba3e 0b01 15be
000001c0: 4027 1b3e 1f67 af3e d6ea fdbe 53f1 36be
000001d0: 3159 f8bd 0d7b a83e c056 0cbf 4f41 b2bd
000001e0: a29e c83e 124a d03e cf0a bf3e daa4 bebe
000001f0: 728c ed3e e356 09bf ac1a 03bf 9ce1 e3be
00000200: 9329 f7be 1d52 ad3e c0aa 763e 78c3 bd3e
00000210: 5e03 93be 7c0b 3e3e 81b7 053e e4b5 103e
00000220: f46e ec3e ac71 f53e d12c 9f3e 1bb6 803e
00000230: dc4d ca3e 4feb 893e 417a b23e b6ce 7a3e
00000240: a44d a9be a6f3 43be 9eb4 a83e cbc4 bf3e
00000250: 4c63 acbe 864f b43e 384c fc3e b2a7 14be
00000260: 5f4a 91be 5f5b e1be 6a4b b4be 5474 bbbe
00000270: 131e 0fbe c92f 87be ef87 c5be dce0 763e
00000280: 9a0c 933e 5b76 613e 5c85 70be 5471 953e
00000290: e752 b8be 0393 cfbe ed6b ca3e 4e87 1b3e
000002a0: 9be2 dbbe 35ee a3be 4a8d 66be 0b9f b33e
000002b0: 673e 9d3e a652 8abe 388d c43e fd7e bdbe
000002c0: 2724 d83e a1ab c83e 0f8d bbbe 5101 dbbe
000002d0: 8645 bcbe 6a08 823e 729f 64be 1f3d c3be
000002e0: 5e3f 923e 526f 9f3e 3098 9c3e 10cd c1be
000002f0: 0571 b13e f0dc 05be e0ae b0be 22dd 1cbe
00000300: 46b4 01bf 7979 503e 5deb 3f3e 9936 4c3e
00000310: 75c7 45be e136 963e ee8a 633e 217d ad3e
00000320: 0ade 893e 999f fb3e c423 ab3e 4114 b93e
00000330: e852 a33e c67a 1d3e 57b7 743e 8caf 8c3e
00000340: df8c 1bbe 5ed7 f5bd e973 0e3e 1a53 ce3e
00000350: 0d88 d2be c132 013f 1153 b83e 4dc9 89be
00000360: 58e5 30be 7a94 9abe 7137 2dbe c02e d6be
00000370: dd78 77be 7b8f 02bf e1b8 abbe 644c 713e
00000380: 6bc3 bb3e 75d1 9d3e f42d a5be 0d36 a63e
00000390: f71e b6be b047 c8be 59bb d93e 7c29 b53e
000003a0: 84ab bcbe d95e f2be 3021 3bbe 2707 743e
000003b0: fde3 6d3e f777 febd 9e8b 423e 2043 78be
000003c0: eab6 3c3e 6d14 613e 319d 49be 7971 8dbe
000003d0: 14c6 cdbe 3166 8e3e cd24 80be 096c a4be
000003e0: ef6e 713e dc5c 823e df91 aa3e 77ab 92be
000003f0: 58b2 623e 65b3 8abe f208 03be 0a13 3fbe

gru.bias_ih_l0 f4 [192]
-0.3595088 0.61230713 0.27326882 0.20949563 0.5772264 0.097337335 0.5941827 0.34053016
-0.4694083 -0.50405455 0.4648925 0.3421796 -0.20084734 0.42379555 -0.07961595 0.5492957
0.46543086 0.59729606 0.37394717 -0.437408 0.14382328 -0.062428888 -0.38409397 0.42274758
0.29119515 -0.23760422 0.4499697 -0.4341697 0.44143912 -0.37420973 -0.4290421 0.23778841
-0.45476964 0.26186562 0.31808338 0.5404379 0.40762663 -0.39190295 -0.5169644 0.39915588
-0.14758943 -0.47718403 0.2191839 0.19701943 -0.35783562 0.54197764 0.23795676 0.08868073
-0.030107152 0.22487593 0.28573576 0.23397893 -0.33667755 0.10531428 0.19785182 -0.2068798
0.39473754 0.37934172 0.071129255 0.42385125 0.30240068 0.5294472 0.37312722 0.49609786
0.23841265 -0.33850196 -0.32351232 0.25156677 -0.20834802 0.12470971 -0.32572314 -0.25317666
0.40115127 -0.14357287 -0.23411396 -0.10845953 0.32054687 -0.2487752 0.2478208 -0.39523515
-0.24896607 -0.25040004 -0.15307172 0.21311638 -0.09997589 0.15028076 0.5043472 -0.46054727
-0.3416529 0.41581905 -0.32873356 -0.30055857 -0.18897474 0.22448114 0.121132225 0.31233054
-0.21293578 -0.038915563 -0.12897855 -0.29679585 -0.067835376 -0.09410344 0.102818176 0.09695907
0.007459171 0.34827915 -0.20862617 -0.15597805 -0.15134034 -0.22365539 0.386731 0.1430426
-0.036305115 0.3500024 -0.09105078 0.2707525 0.16082026 -0.45762983 0.22286645 -0.30757987
-0.33882266 0.12029469 -0.32346517 -0.34717554 -0.27784082 -0.35907567 -0.24807574 -0.14558288
0.1672467 0.5127193 0.5108582 0.52731454 -0.5253001 0.4679601 0.55944926 0.61939424
-0.14168708 -0.28774306 0.47607318 0.48461366 -0.18978931 0.5299805 0.28258014 0.42489508
-0.5955149 -0.44626585 0.4571701 0.0050761746 -0.15972492 0.23387298 -0.27427596 -0.5177653
-0.55808735 -0.24643506 -0.4384987 0.26720563 -0.582971 0.2714861 0.123666525 0.5626907
-0.15549704 0.4822995 -0.6210078 0.44412437 -0.2542961 0.27145243 0.03981864 0.49757063
0.2196008 0.18480545 -0.5360651 0.52927935 -0.23162147 -0.52385026 0.5308952 -0.038237404
0.2963445 0.6170748 -0.50160694 -0.25445947 0.16253088 0.54539245 -0.55231917 0.13115367
0.4148972 0.53839725 0.6353506 -0.509075 0.58530235 -0.6105085 -0.5889396 -0.5572793
00000000: 8a11 b8be 29c0 1c3f e4e9 8b3e 0686 563e
00000010: 1cc5 133f cc58 c73d 5c1c 183f f859 ae3e
00000020: 4956 f0be b809 01bf 6406 ee3e 2a32 af3e
00000030: edaa 4dbe bbfb d83e b00d a3bd a59e 0c3f
00000040: f44c ee3e 65e8 183f 0176 bf3e f1f3 dfbe
00000050: 6946 133e 6fb5 7fbd f7a7 c4be 5f72 d83e
00000060: 8817 953e 854e 73be 6e62 e63e 7e4b debe
00000070: 4f04 e23e 6b98 bfbe 68ab dbbe ce7e 733e
00000080: 91d7 e8be 4013 863e d3db a23e 235a 0a3f
00000090: 70b4 d03e 81a7 c8be c757 04bf 295e cc3e
000000a0: af21 17be 7751 f4be bf71 603e 76bf 493e
000000b0: 3b36 b7be 0cbf 0a3f f0aa 733e 3e9e b53d
000000c0: 46a3 f6bc e045 663e f54b 923e 2c98 6f3e
000000d0: 0061 acbe 03af d73d ab99 4a3e 4cd8 53be
000000e0: 0a1b ca3e 1439 c23e 37ac 913d 0803 d93e
000000f0: 43d4 9a3e da89 073f 880a bf3e 8a00 fe3e
00000100: 7222 743e 2150 adbe 68a3 a5be 5ccd 803e
00000110: 2f59 55be ce67 ff3d 2fc5 a6be 5fa0 81be
00000120: b363 cd3e c404 13be 92bb 6fbe 0820 debd
00000130: b81e a43e edbe 7ebe bcc4 7d3e 435c cabe
00000140: f6f0 7ebe 6f34 80be d5be 1cbe 2e3b 5a3e
00000150: 29c0 ccbd 33e3 193e e61c 013f dacc ebbe
00000160: 21ed aebe 3ce6 d43e c44f a8be d0e2 99be
00000170: 9882 41be 62de 653e 2c14 f83d cae9 9f3e
00000180: d60b 5abe ed65 1fbd f412 04be a0f5 97be
00000190: 46ed 8abd 4eb9 c0bd 5692 d23d 7a92 c63d
000001a0: 106c f43b a551 b23e 19a2 55be b6b8 1fbe
000001b0: f6f8 1abe eb05 65be 9b01 c63e c279 123e
000001c0: acb4 14bd 8433 b33e d578 babd 12a0 8a3e
000001d0: 11ae 243e 754e eabe 1a37 643e 1c7b 9dbe
000001e0: 2a7a adbe 105d f63d 3a9d a5be fec0 b1be
000001f0: 2741 8ebe c4d8 b7be 9107 7ebe ae13 15be
00000200: b842 2b3e 9241 033f 9ac7 023f 16fe 063f
00000210: 117a 06bf 7798 ef3e 1138 0f3f 9f90 1e3f
00000220: 6b16 11be 0f53 93be ddbf f33e 481f f83e
00000230: 2158 42be cdac 073f 58ae 903e d98b d93e
00000240: aa73 18bf f57c e4be 3312 ea3e 0a56 a63b
00000250: ee8e 23be 667c 6f3e e66d 8cbe 448c 04bf
00000260: d0de 0ebf 7959 7cbe e782 e0be 2dcf 883e
00000270: 963d 15bf 3a00 8b3e e044 fd3d 7f0c 103f
00000280: 9e3a 1fbe f6ef f63e 5efa 1ebf 4564 e33e
00000290: 1933 82be d0fb 8a3e df18 233d 94c1 fe3e
000002a0: 08df 603e a43d 3d3e 903b 09bf da7e 073f
000002b0: 2e2e 6dbe 0d1b 06bf bfe8 073f d39e 1cbd
000002c0: 77ba 973e 9df8 1d3f 5069 00bf 8348 82be
000002d0: 7f6e 263e d79e 0b3f ca64 0dbf 264d 063e
000002e0: 686d d43e 67d4 093f 56a6 223f bd52 02bf
000002f0: 60d6 153f 494a 1cbf bfc4 16bf dba9 0ebf

gru.bias_hh_l0 f4 [192]
-0.4980749 0.4809003 0.2470693 0.24697718 0.39819628 0.19577649 0.5771004 0.39144713
-0.4107999 -0.32008874 0.35317042 0.46889073 -0.22267953 0.49859518 -0.10195622 0.5393456
0.35068214 0.4869816 0.4016491 -0.3671839 0.15580502 -0.04104239 -0.53277457 0.4292929
0.10088616 -0.2699896 0.50724155 -0.4156863 0.3661553 -0.48977745 -0.38570657 0.079205714
-0.3168533 0.23773992 0.385594 0.34436923 0.44704747 -0.5156457 -0.37839448 0.460014
-0.13066475 -0.38450912 0.2986257 0.17008442 -0.47294858 0.53636205 0.31710938 0.140955
-0.24648045 0.09847686 0.5017382 0.2705643 -0.52258974 0.27761155 0.30188736 -0.0747166
0.3433675 0.49310213 0.26215088 0.558697 0.1733612 0.45365837 0.4772321 0.55257094
0.26307544 -0.32516912 -0.24184744 0.28009877 -0.22253886 0.17588837 -0.26112342 -0.2586042
0.33885202 -0.1583916 -0.29920807 0.04010669 0.13754466 -0.22964655 0.19368587 -0.21423268
-0.3029833 -0.27550802 -0.30088836 0.2528924 0.013650967 0.14496027 0.6156301 -0.40837067
-0.32357994 0.3794886 -0.18270633 -0.24602962 -0.15069616 0.33174652 0.07644962 0.3136363
-0.26670098 -0.084243275 -0.2090606 -0.2632589 -0.02291129 -0.3070097 0.22864544 0.10824703
-0.0021370873 0.46971637 -0.27962005 -0.07425513 -0.120324045 -0.38337946 0.22311117 0.19654302
-0.22903718 0.30054966 -0.15146834 0.22212079 0.29582033 -0.3758275 0.13596001 -0.267693
-0.13720486 0.20308612 -0.5074768 -0.22082348 -0.07817157 -0.23731041 -0.22990093 -0.29970223
-0.061771702 0.5804738 0.4975105 0.56036675 -0.485832 0.42000005 0.588959 0.5238467
-0.23401296 -0.15476643 0.41890597 0.5896814 -0.108386554 0.60400546 0.26204115 0.41829568
-0.57513475 -0.56783617 0.45995602 0.16536757 -0.19443285 0.432259 -0.027181687 -0.4682455
-0.5743699 -0.13188794 -0.49204466 0.0717729 -0.58946586 0.04614396 -0.2104603 0.46308112
-0.12037772 0.29052973 -0.55691904 0.48813254 -0.46444336 0.21596645 0.12903929 0.5895302
0.098922044 0.08534033 -0.4513262 0.3975455 -0.035241727 -0.5855711 0.43278113 -0.0402271
0.3738598 0.33954027 -0.53033257 -0.3225035 -0.026860107 0.3756287 -0.48420113 0.06291721
0.37229607 0.4576037 0.35920405 -0.4849789 0.38344413 -0.5719928 -0.5465759 -0.5793032
00000000: ac03 ffbe 9038 f63e bcff 7c3e 96e7 7c3e
00000010: 62e0 cb3e a279 483e dabc 133f c26b c83e
00000020: 5d54 d2be ace2 a3be c1d2 b43e 7212 f03e
00000030: 1a06 64be de47 ff3e 6cce d0bd 8e12 0a3f
00000040: 9c8c b33e a755 f93e f3a4 cd3e 87ff bbbe
00000050: 5a8b 1f3e 111c 28bd ea63 08bf 47cc db3e
00000060: 679d ce3d 143c 8abe 95da 013f d6d4 d4be
00000070: b578 bb3e 1cc4 fabe 557b c5be 9b36 a23d
00000080: 993a a2be 1872 733e 946c c53e 2a51 b03e
00000090: 68e3 e43e 5b01 04bf ecbc c1be f486 eb3e
000000a0: fbcc 05be 61de c4be 78e5 983e 9c2a 2e3e
000000b0: 5126 f2be 064f 093f 295c a23e 8256 103e
000000c0: 5f65 7cbe 3cae c93d ea71 003f 6787 8a3e
000000d0: 71c8 05bf 1a23 8e3e fb90 9a3e 0405 99bd
000000e0: ddcd af3e e277 fc3e a438 863e c406 0f3f
000000f0: 9985 313e e945 e83e c457 f43e 4a75 0d3f
00000100: d3b1 863e 917c a6be dba6 77be 1b69 8f3e
00000110: 3ae1 63be 151c 343e f8b1 85be c567 84be
00000120: 037e ad3e 6831 22be cd31 99be ea46 243d
00000130: 82d8 0c3e 7728 6bbe 9755 463e d05f 5bbe
00000140: a120 9bbe 630f 8dbe 0a0e 9abe 1d7b 813e
00000150: 4ea8 5f3c 7770 143e ef99 1d3f f615 d1be
00000160: 45ac a5be 544c c23e 5e17 3bbe 30ef 7bbe
00000170: 1850 1abe aeda a93e 9e91 9c3d f094 a03e
00000180: 088d 88be bd87 acbd fb13 56be dfc9 86be
00000190: 75b0 bbbc 6030 9dbe 0822 6a3e 9eb0 dd3d
000001a0: 600e 0cbb aa7e f03e 5c2a 8fbe 1313 98bd
000001b0: 746c f6bd 504a c4be 4177 643e 9342 493e
000001c0: b988 6abe a5e1 993e 841a 1bbe a273 633e
000001d0: c375 973e 766c c0be 1a39 0b3e 0f0f 89be
000001e0: 6e7f 0cbe cff5 4f3e 00ea 01bf 8d1f 62be
000001f0: 6b18 a0bd 8001 73be 266b 6bbe 9272 99be
00000200: 5304 7dbd ee99 143f b2b9 fe3e 3274 0f3f
00000210: f9be f8be 3f0a d73e 04c6 163f d11a 063f
00000220: 18a1 6fbe 177b 1ebe d87a d63e 5cf5 163f
00000230: c5f9 ddbd 1aa0 1a3f 422a 863e da2a d63e
00000240: 083c 13bf b65d 11bf 5b7f eb3e 1e56 293e
00000250: 6819 47be 0d51 dd3e 21ac debc e0bd efbe
00000260: e809 13bf a20d 07be 47ed fbbe acfd 923d
00000270: 3ce7 16bf 7301 3d3d e882 57be f818 ed3e
00000280: 9888 f6bd 50c0 943e 3f92 0ebf 82ec f93e
00000290: 85cb edbe 4f26 5d3e e022 043e 74eb 163f
000002a0: a497 ca3d e9c6 ae3d 3a14 e7be 158b cb3e
000002b0: a159 10bd fde7 15bf 7d95 dd3e 2cc5 24bd
000002c0: 8d6a bf3e 39d8 ad3e e0c3 07bf 2e1f a5be
000002d0: ba09 dcbc 6852 c03e 36e9 f7be bdda 803d
000002e0: 979d be3e 084b ea3e 98e9 b73e 284f f8be
000002f0: ca52 c43e 1f6e 12bf 66ec 0bbf 374d 14bf

notes_decoder.weight f4 [128, 64]
-0.24960402 -0.38702738 -0.5984607 -0.5026236 0.58961195 -0.33245957 -0.43127814 -0.5380863
0.022740453 0.2751199 -0.623823 -0.43481085 0.06595602 -0.5086695 -0.2870144 -0.5826245
0.5008892 0.5646392 -0.52017206 -0.06641151 -0.11124521 -0.12615101 0.19861344 0.44685742
0.47486338 0.10908307 0.48895457 -0.004331009 0.57868975 -0.11160306 -0.03040086 -0.45911193
-0.16817848 -0.41586986 0.58476025 -0.47064358 -0.021941744 -0.18599194 -0.13370126 -0.52843624
0.09791212 0.0803297 0.4044469 -0.42579025 -0.09595881 0.42408192 -0.5475334 0.14628991
-0.30767024 -0.62112993 0.54091823 0.002748658 0.16167392 -0.52121735 0.5246395 -0.019436296
-0.47100905 -0.4430311 -0.46686202 0.3898028 -0.512355 0.5226295 0.48821026 0.6084412
-0.006100296 -0.53786534 -0.44886094 -0.37112668 0.40120298 -0.46459755 -0.46209982 -0.415396
-0.15354583 0.16877775 -0.5851563 -0.33798242 0.030535715 -0.45426807 -0.16509134 -0.4572785
0.57419974 0.42473653 -0.3514589 -0.18025357 -0.05757403 -0.006988382 0.19245236 0.539252
0.58120245 0.090768345 0.58330774 0.035740647 0.52748054 -0.0053050714 0.043061823 -0.49186692
-0.24838339 -0.40016904 0.47423792 -0.53677845 0.22900331 -0.1098126 -0.21486638 -0.45347726
0.23467816 0.13497172 0.39227334 -0.36379084 -0.10819122 0.5344099 -0.3278645 0.06799169
-0.297799 -0.5835145 0.3490197 0.01907433 0.25980026 -0.53110695 0.38407102 0.03530535
-0.45261228 -0.506637 -0.539402 0.35085246 -0.42336524 0.57646567 0.60372436 0.615636
-0.010627337 -0.57874215 -0.42478746 -0.36104345 0.39136758 -0.481861 -0.5236076 -0.36801702
-0.19813292 0.3427578 -0.3994473 -0.5042695 -0.015950102 -0.6193046 -0.21481505 -0.548417
0.38677406 0.3816623 -0.58070254 0.019429682 -0.07613625 -0.11978074 0.12755994 0.43626735
0.5673017 0.26672852 0.52744216 0.009654839 0.33719012 -0.07093007 0.03268012 -0.37364447
-0.25712588 -0.4044308 0.3651615 -0.5889766 0.26004 -0.13314284 -0.20680091 -0.5656655
0.17725618 0.112431824 0.3745097 -0.47794443 -0.21812533 0.41595465 -0.39601484 0.30103585
-0.1888651 -0.5408561 0.4947713 0.037403468 0.19832481 -0.46082234 0.4549937 0.092723414
-0.47181922 -0.5958028 -0.4462517 0.3342513 -0.4309811 0.42695072 0.41754666 0.53185624
-0.21622103 -0.4724453 -0.50830007 -0.50041115 0.6043826 -0.49454343 -0.63290805 -0.591333
-0.09314823 0.42634922 -0.45052296 -0.45396918 -0.039284237 -0.5140599 -0.18443528 -0.4930317
0.4266556 0.42229488 -0.3773929 0.046120543 -0.16492239 0.04616248 0.29057994 0.5797148
0.6232526 0.23559648 0.59189457 -0.15510683 0.589469 -0.16003089 0.06958496 -0.53857535
-0.008777815 -0.49003536 0.46636623 -0.5413011 -0.0039891116 -0.19448827 -0.0960356 -0.5875479
0.16647689 0.07952397 0.58192927 -0.4882357 -0.25674862 0.5016346 -0.53568214 0.17898412
-0.3013953 -0.38111684 0.42155963 0.0031414498 0.1731432 -0.51428044 0.4563278 -0.0011223522
-0.53478366 -0.5096581 -0.38973722 0.40396476 -0.39331055 0.571478 0.52553093 0.5364712
00000000: 3298 7fbe 7428 c6be b834 19bf f1ab 00bf
00000010: cff0 163f 2438 aabe 7dd0 dcbe 06c0 09bf
00000020: 304a ba3c 84dc 8c3e ddb2 1fbf 879f debe
00000030: f313 873d 2a38 02bf 8df3 92be e126 15bf
00000040: 463a 003f 328c 103f ff29 05bf c202 88bd
00000050: 87d4 e3bd bb2d 01be 5261 4b3e 7fca e43e
00000060: 4b21 f33e f266 df3d 4158 fa3e 23eb 8dbb
00000070: 0325 143f 2590 e4bd 390b f9bc b810 ebbe
00000080: fb36 2cbe e5ec d4be d9b2 153f 32f8 f0be
00000090: 2cbf b3bc ac74 3ebe fce8 08be 9947 07bf
000000a0: 2686 c83d e683 a43d aa13 cf3e 2e01 dabe
000000b0: 0d86 c4bd 4421 d93e 262b 0cbf 06cd 153e
000000c0: f486 9dbe 5f02 1fbf 9e79 0a3f d422 343b
000000d0: d98d 253e 806e 05bf c64e 063f de38 9fbc
000000e0: 1928 f1be f9d4 e2be 8a08 efbe 3c94 c73e
000000f0: b329 03bf 0ccb 053f b2f6 f93e cdc2 1b3f
00000100: fee4 c7bb 8bb1 09bf 1ad1 e5be 5104 bebe
00000110: 7a6a cd3e bbdf edbe 5998 ecbe c9ae d4be
00000120: 1e3b 1dbe 13d4 2c3e cecc 15bf 080c adbe
00000130: 0926 fa3c d395 e8be b40d 29be 6820 eabe
00000140: c1fe 123f 1177 d93e 6cf2 b3be 6494 38be
00000150: bfd2 6bbd ccfe e4bb 3b12 453e 6b0c 0a3f
00000160: afc9 143f c1e4 b93d a853 153f c964 123d
00000170: f708 073f 2ad6 adbb 9861 303d fbd5 fbbe
00000180: 3758 7ebe f5e2 ccbe 50cf f23e 506a 09bf
00000190: d87f 6a3e 6ee5 e0bd ef05 5cbe 2c2e e8be
000001a0: 794f 703e 0736 0a3e 0dd8 c83e cb42 babe
000001b0: 5c93 ddbd 16cf 083f dbdd a7be 3a3f 8b3d
000001c0: 1c79 98be 3561 15bf b6b2 b23e c541 9c3c
000001d0: 8a04 853e a0f6 07bf f5a4 c43e 589c 103d
000001e0: ccbc e7be f6b2 01bf 4016 0abf efa2 b33e
000001f0: 54c3 d8be 4193 133f ae8d 1a3f 529a 1d3f
00000200: 481e 2ebc 7228 14bf be7d d9be b0da b8be
00000210: 5561 c83e 7cb6 f6be 260b 06bf ba6c bcbe
00000220: 5be3 4abe f37d af3e 5b84 ccbe ce17 01bf
00000230: caa9 82bc bf8a 1ebf 7af8 5bbe 0e65 0cbf
00000240: 4007 c63e 3e69 c33e eca8 14bf ff2a 9f3c
00000250: 52ed 9bbd 9b4f f5bd 139f 023e 6f5e df3e
00000260: af3a 113f a490 883e 7306 073f 542f 1e3c
00000270: 2fa4 ac3e c943 91bd 97db 053d 544e bfbe
00000280: 01a6 83be 8e11 cfbe 73f6 ba3e 2cc7 16bf
00000290: f623 853e 9956 08be 9ec3 53be 74cf 10bf
000002a0: a582 353e a842 e63d bcbf bf3e 22b5 f4be
000002b0: 3f5c 5fbe 02f8 d43e 75c2 cabe 5f21 9a3e
000002c0: da65 41be 8c75 0abf aa52 fd3e 6134 193d
000002d0: a915 4b3e e8f0 ebbe eff4 e83e c6e5 bd3d
000002e0: 4a92 f1be 8886 18bf 1a7b e4be fd22 ab3e
000002f0: 8ea9 dcbe 4999 da3e adc8 d53e bb27 083f
00000300: 0c69 5dbe 5ae4 f1be f41f 02bf f21a 00bf
00000310: d1b8 1a3f cc34 fdbe 4306 22bf 9961 17bf
00000320: 80c4 bebd 724a da3e f2aa e6be a66e e8be
00000330: 82e8 20bd 6e99 03bf 9adc 3cbe a76e fcbe
00000340: 9a72 da3e 0937 d83e a439 c1be e5e8 3c3d
00000350: 6ae1 28be de14 3d3d e5c6 943e 3068 143f
00000360: 7b8d 1f3f 3440 713e 6786 173f 53d4 1ebe
00000370: 71e7 163f 23df 23be 8f82 8e3d 13e0 09bf
00000380: d3d0 0fbc eae5 fabe 8ec7 ee3e b592 0abf
00000390: 18b7 82bb ef27 47be 50ae c4bd 8a69 16bf
000003a0: eb78 2a3e 77dd a23d 51f9 143f 08fa f9be
000003b0: 8e74 83be 206b 003f 7722 09bf 9d47 373e
000003c0: 7c50 9abe bf21 c3be aad6 d73e c8e0 4d3b
000003d0: 734c 313e e2a7 03bf cca3 e93e e41b 93ba
000003e0: 95e7 08bf f478 02bf a38b c7be 78d4 ce3e
000003f0: 0060 c9be 624c 123f 3289 063f 2d56 093f

notes_decoder.bias f4 [128]
-0.362772 -0.47805583 -0.50429404 -0.47027358 -0.3482818 -0.5654702 -0.5552807 -0.39367715
-0.4353398 -0.35059127 -0.5493368 -0.50534695 -0.4321647 -0.5417421 -0.47342208 -0.4173295
-0.39483505 -0.40231848 -0.5467919 -0.47582054 -0.35946077 -0.44097278 -0.38137728 -0.3790043
-0.37269366 -0.4904853 -0.5232328 -0.5542706 -0.33045423 -0.4791695 -0.50932515 -0.45899498
-0.37210196 -0.547182 -0.37003565 -0.441624 -0.42738873 -0.4895314 -0.3261618 -0.48631832
-0.37575454 -0.3777225 -0.49787125 -0.49743685 -0.42069185 -0.33549258 -0.37749138 -0.33991432
-0.36715198 -0.56798446 -0.39826542 -0.4380063 -0.27711394 -0.37366086 -0.35923612 -0.47006425
-0.33896664 -0.44972494 -0.4174381 -0.40141273 -0.29375327 -0.4853945 -0.31769198 -0.5079227
-0.45720726 -0.35573784 -0.31618425 -0.32997894 -0.4792423 -0.3704372 -0.2850945 -0.3739528
-0.21844047 -0.38611475 -0.28489056 -0.42101872 -0.42864674 -0.32729757 -0.38291162 -0.30021423
-0.46499032 -0.29698026 -0.4367355 -0.42212513 -0.2557891 -0.36132064 -0.34878895 -0.43063542
-0.52436846 -0.33092546 -0.3837737 -0.49494347 -0.35594752 -0.37884814 -0.52056396 -0.5016473
-0.40086854 -0.42684072 -0.5350979 -0.5070804 -0.32953542 -0.5048428 -0.5225853 -0.41556695
-0.3153016 -0.4923715 -0.4930783 -0.38138178 -0.34187227 -0.4610747 -0.5365859 -0.41525352
-0.41499847 -0.34254235 -0.45102578 -0.45441312 -0.57462627 -0.54221654 -0.530024 -0.38434985
-0.33328032 -0.4925953 -0.5590418 -0.41026357 -0.52403146 -0.5212069 -0.43337205 -0.45583582
00000000: 40bd b9be bcc3 f4be 6a19 01bf b3c7 f0be
00000010: fe51 b2be a8c2 10bf e026 0ebf 0d90 c9be
00000020: dce4 debe b380 b3be 56a1 0cbf 6b5e 01bf
00000030: b144 ddbe 9caf 0abf 6164 f2be 36ac d5be
00000040: d227 cabe b0fc cdbe 8efa 0bbf c09e f3be
00000050: 3e0b b8be 2fc7 e1be e243 c3be da0c c2be
00000060: b4d1 bebe e420 fbbe 96f2 05bf aee4 0dbf
00000070: 4c31 a9be b455 f5be 2263 02bf 6401 ebbe
00000080: 2684 bebe 1f14 0cbf 5075 bdbe 8a1c e2be
00000090: b2d2 dabe dca3 fabe aefe a6be b7fe f8be
000000a0: e662 c0be d864 c1be fbe8 febe 0bb0 febe
000000b0: ec64 d7be afc5 abbe 8d46 c1be 4009 aebe
000000c0: 58fb bbbe 6e67 11bf 72e9 cbbe 5d42 e0be
000000d0: e1e1 8dbe 7a50 bfbe cced b7be 43ac f0be
000000e0: 098d adbe 5942 e6be 72ba d5be f885 cdbe
000000f0: d466 96be a185 f8be 86a8 a2be 3907 02bf
00000100: 1217 eabe 4523 b6be e7e2 a1be 00f3 a8be
00000110: 3f5f f5be f2a9 bdbe e8f7 91be be76 bfbe
00000120: dcae 5fbe d5b0 c5be 2ddd 91be c48f d7be
00000130: 9677 dbbe 8c93 a7be fe0c c4be aeb5 99be
00000140: 3613 eebe cc0d 98be cc9b dfbe c920 d8be
00000150: caf6 82be 05ff b8be 7794 b2be 3f7c dcbe
00000160: 033d 06bf 106f a9be fd7d c4be 3b69 fdbe
00000170: c13e b6be 62f8 c1be ae43 05bf f56b 00bf
00000180: a43e cdbe de8a dabe 2dfc 08bf 05d0 01bf
00000190: deb8 a8be 613d 01bf 26c8 05bf 31c5 d4be
000001a0: 366f a1be 1e18 fcbe c274 fcbe 7944 c3be
000001b0: e209 afbe fc11 ecbe b25d 09bf 1c9c d4be
000001c0: ae7a d4be b661 afbe daec e6be d6a8 e8be
000001d0: b51a 13bf b4ce 0abf a7af 07bf 81c9 c4be
000001e0: b8a3 aabe 7335 fcbe 5d1d 0fbf 110e d2be
000001f0: ed26 06bf d16d 05bf f1e2 ddbe 5063 e9be
