saved_models/generalist_BCE_1e-2_139.pth (torch_old, 167373 bytes, 8 tensors)

notes_encoder.weight f4 [64, 128]
0	0xbdab4681	-0.08363057
1	0xbd65a336	-0.056063853
2	0x3d5c12ba	0.053728797
3	0x3d8fea6b	0.070271336
4	0xbd9130d9	-0.07089395
5	0xbd5e3e49	-0.05425862
6	0x3c09a1b8	0.008400373
7	0xbd7bda3d	-0.061487425
8	0xbd7cbf9b	-0.061706167
9	0xbbaa6400	-0.005199909
10	0xbc7618f8	-0.015020601
11	0x3d707742	0.058707483
12	0xbda766d3	-0.08173909
13	0xbd05eeec	-0.032698557
14	0x3c3c3560	0.011487335
15	0x3d6773ce	0.056506924
16	0xbd5c6031	-0.053802673
17	0xbda85646	-0.0821958
18	0xbc92921c	-0.017891936
19	0x3c91e298	0.017808244
20	0x3d3b4676	0.045721494
21	0xbd6c3732	-0.057669826
22	0xbdab433e	-0.08362435
23	0x3c92cfe0	0.017921388
24	0xbdb456e7	-0.08805638
25	0x3bd7f070	0.0065899417
26	0x3d317056	0.043320023
27	0x3cba0310	0.022706538
28	0x3d77e1c2	0.060518034
29	0xbcc5733c	-0.0241028
30	0x3cca6030	0.024704069
31	0xbc599e40	-0.013282359
32	0xbd4c956c	-0.049947187
33	0x3cd1a28c	0.025590204
34	0xbee96564	-0.45585167
35	0x3d16391e	0.036675565
36	0xbd2242f3	-0.03961463
37	0x3becdf10	0.0072287396
38	0x3e9a1bc8	0.3009932
39	0xbd4c4230	-0.04986781
40	0x3e06de45	0.13170727
41	0x3ddc447e	0.10755251
42	0xbf0edace	-0.5580262
43	0x3da46bce	0.080283746
44	0x3f459567	0.77181095
45	0xbd842284	-0.06451896
46	0x3dc825bd	0.09772823
47	0x3db4b109	0.08822829
48	0x3e8c61ef	0.27418467
49	0x3f1c83d9	0.61138684
50	0x3ef704d3	0.48245868
51	0xbc39c8dd	-0.011339393
52	0x3cdb6b6c	0.026784621
53	0x3d982192	0.07428278
54	0xbd9c4206	-0.076297805
55	0x3e20a768	0.1568886
56	0x3f0f58f1	0.5599509
57	0x3d6a4d70	0.057202756
58	0x3d88ce76	0.06680004
59	0x3ea3c35d	0.31984988
60	0x3d6a0720	0.0571357
61	0x3f14c502	0.5811311
62	0x3eaa5c5f	0.332736
63	0x3ebc7a46	0.36812037
64	0x3dc7985f	0.09745859
65	0xbcc9f98b	-0.024655124
66	0xbc91abe2	-0.017782155
67	0x3e83e378	0.25759482
68	0x3eec964a	0.4620841
69	0x3e79ca2e	0.24393532
70	0x3eebdae3	0.46065435
71	0x3f353f57	0.70799774
72	0x3ec88874	0.39166605
73	0x3deb6dd8	0.114955604
74	0x3ec514b9	0.38492373
75	0xbeada561	-0.33915237
76	0x3e6e20d9	0.23254718
77	0x3ebc49fe	0.36775202
78	0xbce775f6	-0.02825449
79	0x3e781329	0.24226059
80	0x3dc2a74f	0.09504568
81	0x3deeb929	0.1165641
82	0x3d34da06	0.044153236
83	0xbcc68448	-0.024232998
84	0xbe268d5e	-0.16264865
85	0xbe91c570	-0.28470945
86	0x3ddbfaec	0.10741219
87	0xbe83cb1b	-0.25740895
88	0xbdb5aef0	-0.08871257
89	0x3e72491e	0.23660704
90	0xbda05cd8	-0.078302085
91	0x3d9896fd	0.07450674
92	0xbca76e9c	-0.020438485
93	0x3ce89f94	0.028396405
94	0x3bfd6e00	0.0077340603
95	0xbcc8e508	-0.024523273
96	0xbd96eb04	-0.073690444
97	0xbb545c20	-0.0032403544
98	0xbd4ff16b	-0.050767343
99	0x3d9bc695	0.07606236
100	0x3dac7959	0.08421583
101	0x3dac474d	0.08412037
102	0xbcd9d70e	-0.026591804
103	0xbd96c334	-0.07361451
104	0xbc692170	-0.0142291635
105	0x3d5d0a32	0.0539648
106	0xbd582233	-0.05276699
107	0x3d30afbe	0.04313635
108	0xbc05f550	-0.008176163
109	0xbc342ca8	-0.010996975
110	0xbd0ecf39	-0.03486559
111	0xbd4fc0d3	-0.050721
112	0x3d607d72	0.054807134
113	0x3ce46efc	0.027884953
114	0x3d313222	0.0432607
115	0xbd51d161	-0.05122507
116	0x3d38b1c6	0.045091413
117	0x3ceafb24	0.028684206
118	0x3d74abae	0.05973404
119	0x3d5cb8a6	0.053887032
120	0x3c597200	0.013271809
121	0x3dacc681	0.08436299
122	0x3b985480	0.004648745
123	0xbc89ba2c	-0.016812406
124	0x3c0d4260	0.008621782
125	0xbd39b0bc	-0.045334563
126	0x3d7952d2	0.06087
127	0x3cd69da4	0.026198216
128	0xbda75f81	-0.08172513
129	0x3d753f5a	0.05987487
130	0x3d8237a5	0.063582696
131	0x3bd5fae0	0.006530151
132	0xbdaeebbf	-0.08541059
133	0x3d9b61f3	0.07587042
134	0x3cc133b0	0.023584217
135	0xbd9604c8	-0.07325131
136	0x3bdfdc00	0.006831646
137	0xbcbe259c	-0.023211293
138	0x3d80758f	0.062724225
139	0xbbe106b0	-0.0068672523
140	0xbd0821a3	-0.033235203
141	0x3d3bcaba	0.045847632
142	0x3cb14420	0.02163893
143	0x3c4a3220	0.012341052
144	0xbd8e9521	-0.06962038
145	0xbda9c9bb	-0.0829043
146	0x3cda7208	0.026665702
147	0xba070f80	-0.0005152151
148	0xbc907384	-0.017633207
149	0xbbd988c0	-0.0066386163
150	0xbc525be0	-0.0128392875
151	0xbd0906a9	-0.033453617
152	0x3d41f63e	0.047353975
153	0xbcd5156c	-0.026011191
154	0xbcdd6a3c	-0.027028196
155	0xbd8ba552	-0.06818642
156	0x3c92a2d8	0.017899916
157	0xbcc8fc38	-0.02453433
158	0x3bae95c0	0.00532791
159	0xbd2c6845	-0.042091627
160	0x3d69775e	0.056998603
161	0xbccb626c	-0.024827205
162	0x3c437630	0.011930034
163	0x3ced49f4	0.028965928
164	0xbcfc4657	-0.03079526
165	0x3b913340	0.0044311583
166	0xbc1b7e4d	-0.009490562
167	0xbd3a3fe4	-0.045471087
168	0xbd3ec125	-0.046570916
169	0xbdca53e7	-0.09879284
170	0xbd8870d3	-0.066621445
171	0xbe4157dd	-0.18881173
172	0xbd89f364	-0.06735876
173	0xbd5255ec	-0.051351473
174	0xbde4741d	-0.11154959
175	0xbdb0555f	-0.08610033
176	0xbddb1c8c	-0.10698804
177	0xbd13917d	-0.03602742
178	0xbd9d5182	-0.07681562
179	0xbe284da1	-0.16435863
180	0xbc62f2f0	-0.013851866
181	0xbd36dadd	-0.044642318
182	0xbd56b023	-0.05241407
183	0xbdeb279c	-0.11482164
184	0xbdda8d4c	-0.106714815
185	0xbd9ac71c	-0.07557508
186	0xbe2d235b	-0.16908018
187	0xbddcb7f7	-0.10777276
188	0xbe1df11f	-0.15424012
189	0xbd73b0fe	-0.059494965
190	0xbd1b4d9a	-0.037915803
191	0xbcfa1395	-0.030526916
192	0xbdaacad5	-0.083394684
193	0xbd7f25c1	-0.062291864
194	0xbe3897e8	-0.18026698
195	0xbe184f2d	-0.14873953
196	0xbcdd9d0f	-0.02705243
197	0xbe2a7034	-0.16644365
198	0xbd9b0043	-0.07568409
199	0xbe252163	-0.16126017
200	0xbdbcf4c1	-0.092263706
201	0xbde5989f	-0.11210751
202	0xbd2042e7	-0.039126303
203	0xbd5a7f7a	-0.053344227
204	0xbd1cbd17	-0.038266268
205	0x3c7ec063	0.015548798
206	0xbdeffb5e	-0.11717866
207	0xbdc86d68	-0.097864926
208	0xbd1980d1	-0.037476365
209	0xbe02263d	-0.12709899
210	0xbd2e6e22	-0.0425855
211	0xbd329f50	-0.043608963
212	0xbe0d07f5	-0.13772567
213	0xbc7fbd39	-0.015609079
214	0xbb588c9d	-0.0033042796
215	0xbdbad90c	-0.0912343
216	0xbd2f8560	-0.042851806
217	0xbc281f37	-0.010261348
218	0xbd8d3964	-0.06895712
219	0x3d1ad066	0.0377964
220	0xbd09d394	-0.033649042
221	0xbcbbe3ec	-0.02293583
222	0xbcb32ef8	-0.021872982
223	0x3d9ab001	0.07553101
224	0xbd307086	-0.04307606
225	0x3cd70a90	0.026250154
226	0xbd1362ad	-0.035982776
227	0x3d8a4eb1	0.067532904
228	0x3c66ebe8	0.01409433
229	0x3d596ce2	0.053082354
230	0xbd576a0d	-0.052591372
231	0x3d815be3	0.06316354
232	0x3d38affa	0.0450897
233	0xbd560cad	-0.052258182
234	0x3d47f072	0.04881329
235	0x3d6867ba	0.056739546
236	0xbd24f747	-0.040274885
237	0x3d51ef5e	0.05125367
238	0xbd8755a1	-0.06608129
239	0xbca5135c	-0.020150833
240	0xbda6741e	-0.08127616
241	0xbac804c0	-0.0015260205
242	0xbd9c6334	-0.07636109
243	0x3d9fc565	0.07801322
244	0x3daea9c9	0.08528478
245	0x3cd64b0c	0.026158832
246	0xbccac99c	-0.024754338
247	0xbc2165c0	-0.009850919
248	0xbd7c1cc0	-0.061550856
249	0xbd0ffc8f	-0.035152968
250	0xbc020d28	-0.007937707
251	0xbd992d32	-0.074793234
252	0x3d36c55a	0.044621803
253	0x3d6bad1e	0.057538144
254	0xbcf0201c	-0.029312186
255	0x3c2ef730	0.010679051

notes_encoder.bias f4 [64]
0	0xbdba0e4d	-0.09084759
1	0xbe29baf6	-0.16575226
2	0xbe2576b7	-0.16158567
3	0x3e2fe737	0.17178045
4	0xbd743603	-0.059621822
5	0xbe2b2910	-0.16714883
6	0xbe43660b	-0.19081895
7	0x3e0ac5df	0.13552044
8	0x3e1ffb92	0.1562331
9	0x3d4671bc	0.04844831
10	0x3dcb2a39	0.09920163
11	0x3da4f658	0.08054799
12	0xbcd2e5a5	-0.025744269
13	0x3e157f94	0.14599448
14	0x3daecfd1	0.085357316
15	0xbe3645ce	-0.17800066
16	0xbe2d8b75	-0.1694773
17	0xbe2e0889	-0.16995443
18	0xbe0f6bd4	-0.14005977
19	0x3e143d6e	0.14476559
20	0xbe377d8b	-0.17918985
21	0xbe20d765	-0.15707166
22	0x3dfc62ec	0.12323555
23	0xbe63a6e4	-0.22231632
24	0x3e468c9b	0.19389574
25	0x3e519fdf	0.20471142
26	0x3e46311d	0.19354673
27	0xbe51a36e	-0.204725
28	0x3d1c83dc	0.03821169
29	0xbdd9d0c9	-0.10635526
30	0x3dae6745	0.08515791
31	0xbe0cdcc0	-0.13756084
32	0x3da3e674	0.0800294
33	0x3e415974	0.1888178
34	0xbdd6cf93	-0.104888104
35	0xbdf1da20	-0.11809182
36	0x3c9afac9	0.018918412
37	0x3e004443	0.1252604
38	0x3e11b327	0.14228497
39	0xbde7c833	-0.11317482
40	0xbd50a3a0	-0.050937295
41	0xbe5924c5	-0.21205433
42	0x3d893f6c	0.0670155
43	0xbe28f713	-0.16500501
44	0x3d977fd8	0.07397431
45	0xbcd20823	-0.025638646
46	0x3e267be5	0.162582
47	0x3e0538b2	0.13009909
48	0x3e0f6836	0.14004597
49	0x3e2bab4d	0.16764565
50	0xbcd7618e	-0.026291635
51	0x3e122508	0.14271939
52	0x3d581484	0.05275394
53	0x3e0a8ac6	0.135295
54	0x3e340045	0.17578228
55	0xbddd6862	-0.10810925
56	0x3e2b5d08	0.16734707
57	0x3d0fb3f3	0.035083722
58	0xbe0125f9	-0.12612142
59	0x3e292890	0.1651938
60	0x3e37893c	0.17923445
61	0x3e0db81f	0.13839768
62	0xbdea12cb	-0.11429366
63	0xbe53ebd9	-0.20695437

gru.weight_ih_l0 f4 [192, 64]
0	0x3d3fbb3e	0.046809427
1	0x3e64cede	0.22344539
2	0x3e7715da	0.2412943
3	0xbb005462	-0.0019581546
4	0x3cc48914	0.023991145
5	0x3e37bccb	0.17943113
6	0x3e050c3a	0.12992945
7	0xbc308bf4	-0.010775555
8	0xbe6dce0c	-0.23223132
9	0xbc9a97f2	-0.018871281
10	0x3d4f6d47	0.050641324
11	0xbcd66d45	-0.02617515
12	0x3d9c6a36	0.07637446
13	0xbe41efd8	-0.1893915
14	0xbd6d5a14	-0.057947233
15	0x3d3f1753	0.046653103
16	0x3e57d285	0.210764
17	0x3d311861	0.04323614
18	0x3e40eeaa	0.18841043
19	0xbde1b1a0	-0.110202074
20	0x3df1150f	0.11771595
21	0x3e229155	0.15875752
22	0xbd5f5317	-0.0545226
23	0x3e30c624	0.17263085
24	0xbe6491d1	-0.2232125
25	0xbdec3cbf	-0.11535024
26	0xbe33aaa7	-0.17545567
27	0x3e2d1a50	0.16904569
28	0xbe11ff0f	-0.14257453
29	0x3e275b59	0.1634344
30	0xbd54b4ec	-0.051930353
31	0x3d2eef71	0.042708818
32	0xbe3b97f1	-0.1831968
33	0xbd5841b1	-0.052797023
34	0x3e13b1f3	0.14423351
35	0x3e29ee98	0.16594923
36	0xbd85b446	-0.06528525
37	0xbe33e9bb	-0.1756963
38	0xbe725201	-0.23664095
39	0x3d396560	0.045262694
40	0x3dffaea4	0.12484482
41	0x3dd6bb46	0.10484938
42	0x3cf9ae90	0.030478746
43	0xbd9742b5	-0.0738577
44	0xbc309d21	-0.01077965
45	0x3d70d497	0.05879649
46	0xbe0ed0e6	-0.13946876
47	0xbc3ed572	-0.011647569
48	0x3cda5514	0.026651897
49	0xbe5fdacc	-0.21860808
50	0xbdf17a76	-0.11790936
51	0xbe0714f5	-0.13191588
52	0x3d4af481	0.049549583
53	0xbe357050	-0.17718625
54	0xbdb1298a	-0.08650501
55	0x3d9723ce	0.07379876
56	0xbe2a9347	-0.16657744
57	0xbcd1a743	-0.025592452
58	0x3df4fe1d	0.11962531
59	0xbdead810	-0.11466992
60	0xbe8048c5	-0.2505552
61	0xbddbbfb4	-0.10729924
62	0x3dd16a76	0.10225384
63	0x3d26a51b	0.0406848
64	0x3d2c80f4	0.042115167
65	0xbe686dbc	-0.2269811
66	0xbda398be	-0.07988118
67	0x3e241e45	0.16027172
68	0xbe30db4c	-0.17271155
69	0xbe15975c	-0.1460852
70	0xbd2fe8fd	-0.042946804
71	0x3e3460b3	0.17615013
72	0xb9d5b3c0	-0.0004076045
73	0xbcb4ec90	-0.022085458
74	0x3c5b8ff5	0.013401021
75	0x3d81aba4	0.06331566
76	0x3ca7b332	0.02047119
77	0x3dc5a7b6	0.09651129
78	0x3b922b53	0.004460731
79	0xbdd2537d	-0.102698304
80	0xbbd269de	-0.0064213118
81	0x3c34d530	0.011037156
82	0x3b21f617	0.0024713331
83	0x3e1130a3	0.1417871
84	0xbe5212df	-0.20515011
85	0xbe5dbf5e	-0.21655032
86	0xbce6ec7b	-0.028188935
87	0xbd4fec72	-0.0507626
88	0x3e5fe24e	0.21863672
89	0x3dfad5ae	0.122477874
90	0x3e005410	0.12532067
91	0xbdc03b28	-0.09386283
92	0x3e2403c6	0.16017064
93	0xbd8ea936	-0.06965868
94	0x3e38393b	0.17990582
95	0xbdf9ae55	-0.12191454
96	0xbd159508	-0.03651908
97	0x3d04002d	0.03222673
98	0xbd166ab2	-0.036722846
99	0xbd89d4cc	-0.06730041
100	0x3dde297f	0.108477585
101	0x3e4266f2	0.18984583
102	0x3dc84936	0.09779589
103	0xbe21c176	-0.15796456
104	0xbe217575	-0.15767463
105	0xbdf383bd	-0.118903615
106	0x3d86d23a	0.06583066
107	0x3c945b8c	0.01811006
108	0x3e2bd6f7	0.16781221
109	0x3dc5678c	0.096388906
110	0x3ddcfdf9	0.10790629
111	0x3e14851c	0.14503902
112	0x3e23a144	0.15979487
113	0x3e19a54b	0.1500446
114	0x3d8878cc	0.06663665
115	0x3e100d45	0.14067562
116	0xbd2bcf3e	-0.04194569
117	0x3de66580	0.11249828
118	0x3d02e3e0	0.0319556
119	0xbe0a6c05	-0.13517769
120	0x3c5b2f23	0.0133779375
121	0xbdb543f4	-0.08850852
122	0xbd326717	-0.043555345
123	0xbb289752	-0.002572496
124	0x3e5ef9ef	0.2177503
125	0x3db2ced2	0.08730854
126	0xbd82bded	-0.06383882
127	0xbde9906e	-0.11404501
128	0x3e70eae5	0.23527105
129	0xbdc18879	-0.09449858
130	0xbe47e887	-0.19522296
131	0x3e0fc1c7	0.14038764
132	0xbe1a8396	-0.15089259
133	0x3ccbe075	0.024887303
134	0xbc88138e	-0.016610887
135	0x3e2adef6	0.16686615
136	0x3dbf4ded	0.09341035
137	0x3e5348e0	0.20633268
138	0xbdfb4a08	-0.1226998
139	0x3e23aaa3	0.15983061
140	0xbd14068c	-0.036139056
141	0xbce44d7f	-0.027868984
142	0xbac3021c	-0.0014877948
143	0xbd3475a0	-0.04405749
144	0xbdb408ae	-0.08790718
145	0xbcaf035c	-0.021363907
146	0x3d0b4313	0.033999514
147	0x3e0ba576	0.13637337
148	0x3cae2729	0.021258907
149	0xbe43df03	-0.19128041
150	0x3dd7bcff	0.10534095
151	0xbe42d235	-0.190255
152	0x3de35f7d	0.11102197
153	0x3d5153d9	0.051105354
154	0x3def0f8f	0.116728894
155	0xbdd58813	-0.10426345
156	0x3d776512	0.060399123
157	0xbcf9dce2	-0.030500833
158	0x3e516213	0.20447569
159	0xbe39babe	-0.18137643
160	0x3e204f66	0.15655288
161	0xbc79b81d	-0.01524165
162	0xbd437e93	-0.047728132
163	0xba11307c	-0.0005538536
164	0x3e5dd657	0.21663795
165	0x3d38d1e0	0.045122027
166	0x3e054ae6	0.13016853
167	0xbe0f4035	-0.13989337
168	0xb7854b5c	-1.5889927e-05
169	0xbe443e42	-0.19164374
170	0x3cd5bb93	0.026090419
171	0xbdfbbff0	-0.122924685
172	0x3d1c6037	0.038177695
173	0xbdb93af2	-0.09044446
174	0x3c210cc5	0.009829705
175	0x3d646474	0.055759862
176	0xbe015614	-0.12630492
177	0x3d9352ce	0.07193528
178	0x3db0e6e6	0.086377904
179	0x3e485ca0	0.19566584
180	0x3e357a1c	0.17722362
181	0x3deb19bc	0.11479518
182	0x3e1eec17	0.15519749
183	0xbc9c404a	-0.019073624
184	0x3e340ce8	0.17583048
185	0xbdae32bb	-0.0850577
186	0x3d032f75	0.03202768
187	0x3e34aa11	0.17643
188	0x3db8ee20	0.09029794
189	0x3d84eac3	0.0649009
190	0xbd5d2a38	-0.05399534
191	0xbe17f9b0	-0.14841342
192	0x3e1b4705	0.1516381
193	0xbdf478ee	-0.11937128
194	0xbcce7b75	-0.025205353
195	0x3d23a53e	0.03995251
196	0xbe5b19d6	-0.21396574
197	0xbc580fef	-0.013187393
198	0xbe05fd01	-0.13084795
199	0x3e27cbfb	0.16386406
200	0x3e4051a9	0.18781151
201	0x3dbac7cb	0.09120139
202	0xbda2d5d3	-0.0795094
203	0x3dffe46c	0.1249474
204	0x3e5b5a93	0.2142127
205	0x3e0d1a7c	0.13779634
206	0x3c971bfd	0.018445963
207	0xbe0d9401	-0.1382599
208	0xbe2e5483	-0.17024426
209	0xbde91b24	-0.1138213
210	0xbccb780c	-0.024837516
211	0x3d6d9aa4	0.058008805
212	0xbe47cd41	-0.19511892
213	0xbd5548ab	-0.052071255
214	0x3dbe4e19	0.0929224
215	0x3cf130f9	0.029442297
216	0x3db79425	0.08963803
217	0x3bfb7eac	0.0076750126
218	0xbd041dfd	-0.03225516
219	0xbb94a6e3	-0.004536496
220	0x3e00a046	0.1256114
221	0xbdd362e9	-0.103216
222	0x3e4e47c8	0.2014457
223	0xbd960546	-0.073252246
224	0x3dc1050c	0.09424791
225	0x3e444998	0.19168699
226	0xbdb93cee	-0.090448245
227	0xbcbda02b	-0.023147663
228	0x3e647a30	0.22312236
229	0x3dd1472f	0.10218655
230	0x3e2eaeaf	0.17058824
231	0xbd38e761	-0.045142535
232	0xbdd7e680	-0.10542011
233	0xbe11b0a5	-0.14227541
234	0x3e1b6452	0.15174988
235	0xbde59767	-0.11210518
236	0x3e13ead0	0.14445043
237	0xbdae96b2	-0.085248366
238	0x3de6e3ab	0.11273893
239	0x3c179738	0.009252362
240	0xbe0c296c	-0.13687676
241	0x3daa7886	0.08323769
242	0x3bfba96c	0.007680109
243	0x3e427d53	0.1899312
244	0x3adb197d	0.001671597
245	0x3cd4f23b	0.02599441
246	0x3cc4b2ab	0.024010977
247	0xbe0e22b1	-0.13880421
248	0x3debdbc9	0.1151653
249	0xbe3e5998	-0.18588865
250	0xbe55c951	-0.20877577
251	0xbcc79d78	-0.02436708
252	0xbd007bc9	-0.03136805
253	0x3e2d3e95	0.16918404
254	0xbe030657	-0.12795387
255	0xbd827896	-0.06370656

gru.weight_hh_l0 f4 [192, 64]
0	0x3cffb55c	0.031214409
1	0xbd3f9376	-0.04677149
2	0xbe0d6a08	-0.13809979
3	0x3e4eaed8	0.20183885
4	0x3d9e9677	0.07743543
5	0xbe14c797	-0.14529262
6	0xbdc1290a	-0.09431656
7	0x3e221da2	0.15831617
8	0x3e810f05	0.25206771
9	0xbd51fe39	-0.051267836
10	0xbdb5a069	-0.088684864
11	0x3e03787b	0.12838928
12	0xbb87cc20	-0.0041442066
13	0xbe6a7ebb	-0.22899906
14	0x3cb05e56	0.021529358
15	0xbd927a5f	-0.07152247
16	0x3d805d73	0.06267824
17	0x3e6cf17a	0.23138991
18	0xbde58dbb	-0.112086736
19	0xbcc48192	-0.023987565
20	0x3e22bef0	0.1589315
21	0xbe2f8a28	-0.17142546
22	0xbe2dd798	-0.16976774
23	0xbe37170d	-0.17879887
24	0x3c1efaf7	0.009703389
25	0x3e383203	0.17987828
26	0xbe30da18	-0.17270696
27	0x3dd3b256	0.10336749
28	0x3c8cdea3	0.017196005
29	0x3e5382be	0.20655343
30	0xbe28cc0b	-0.16484086
31	0xbe48ca12	-0.19608334
32	0x3c44e599	0.012017631
33	0x3e709ed7	0.23498093
34	0xbd9a1d7e	-0.075251564
35	0xbd0fbc86	-0.0350919
36	0xbe3f242e	-0.18666145
37	0x3e27b304	0.16376883
38	0xbafdc0f6	-0.0019359875
39	0x3e2a6469	0.16639866
40	0x3daebc7e	0.08532046
41	0xbe1af4ff	-0.15132521
42	0x3d9783c3	0.073981784
43	0xbe1a6232	-0.15076521
44	0x3e2d87fd	0.16946407
45	0x3d9b18e1	0.07573105
46	0xbdcdf61d	-0.10056708
47	0xbdb57989	-0.088610716
48	0xbc92927b	-0.017892113
49	0x3e3350b9	0.17511262
50	0xbe6c913e	-0.2310228
51	0x3e21534f	0.15754436
52	0x3e012461	0.12611534
53	0x3d7d73fa	0.061878182
54	0xbd91651d	-0.07099364
55	0x3e4ce840	0.20010471
56	0x3b832206	0.0040018586
57	0xbd8ab54c	-0.06772861
58	0x3e16e0bb	0.14734165
59	0x3d02e93d	0.031960715
60	0xbdccf8d6	-0.10008399
61	0xbde2c226	-0.11072187
62	0xbdb61548	-0.08890778
63	0xbe133a19	-0.14377631
64	0xbd2c8fbe	-0.04212927
65	0x3d367271	0.044542734
66	0x3d8e5856	0.069504425
67	0xbdc77dd5	-0.097407974
68	0x3c87652d	0.016527737
69	0x3dceae45	0.10091833
70	0x3e581a54	0.21103793
71	0xbce41957	-0.027844114
72	0xbd69ce82	-0.057081707
73	0x3e1e8016	0.15478548
74	0x3d9c5287	0.07632928
75	0xbdc34b59	-0.09535856
76	0x3dbf5476	0.093422815
77	0x3dc672b4	0.09689847
78	0xbe182282	-0.14856914
79	0x3d98278c	0.07429418
80	0x3ae68b9e	0.0017589217
81	0xbe2c369c	-0.16817707
82	0x3d3a48a8	0.045479447
83	0xbe2ad28f	-0.16681884
84	0xbd9c4b17	-0.0763151
85	0x3e63a9ed	0.2223279
86	0x3e32d3b0	0.17463565
87	0x3d5c50d1	0.05378801
88	0xbc8e260e	-0.01735213
89	0xbe0626d7	-0.13100754
90	0x3da27756	0.07932918
91	0xbd7e5d96	-0.06210097
92	0xbde85daf	-0.11345994
93	0xbdbbbbf1	-0.09166706
94	0xbd227820	-0.03966534
95	0x3e0694c9	0.13142695
96	0xbe19ad9d	-0.15007634
97	0xbd90f2e8	-0.07077581
98	0x3cb396de	0.021922525
99	0x3e509349	0.20368685
100	0x3e55a75a	0.20864621
101	0xbde8202f	-0.113342635
102	0xbe37a3a1	-0.17933513
103	0x3b0e7485	0.0021736932
104	0xbe635228	-0.22199309
105	0xbbdac45e	-0.006676241
106	0xbe511068	-0.20416415
107	0x3e414a17	0.1887592
108	0xbd26dc67	-0.040737536
109	0xbda0d650	-0.07853377
110	0x3e2678ca	0.16257015
111	0x3d8925c4	0.06696656
112	0xbd631eb9	-0.05544922
113	0xbdb0de8d	-0.08636198
114	0xbd2f838e	-0.04285007
115	0xbde01356	-0.10941188
116	0xbc9ac899	-0.01889448
117	0x3cd3e693	0.025866782
118	0x3e1dd5c6	0.1541358
119	0xb9c48599	-0.0003748357
120	0xbe1de5ee	-0.15419742
121	0xbe029e3c	-0.12755674
122	0xbe360d45	-0.177785
123	0x3d76bc5d	0.06023823
124	0x3d52d1ef	0.05146974
125	0x3e51a9ca	0.20474926
126	0xbaaf21e8	-0.0013361545
127	0x3e451512	0.19246319
128	0xbe8acfa3	-0.2711154
129	0x3dbf8af1	0.09352673
130	0xbdd987d1	-0.10621608
131	0x3c506970	0.012720451
132	0xbe3f5a5b	-0.18686812
133	0x3e28e997	0.16495357
134	0xbc30be8f	-0.01078762
135	0xbcee5293	-0.029092109
136	0xbe6a2b2c	-0.22868031
137	0x3db07a11	0.08617032
138	0x3da429fc	0.080158204
139	0x3e113f0f	0.14184211
140	0x3e5a64db	0.21327536
141	0xbbdd9b81	-0.0067629223
142	0xbe765ce3	-0.24058871
143	0x3e2c9986	0.1685544
144	0xbde6cad2	-0.11269154
145	0xbe2e4c22	-0.1702123
146	0x3de84721	0.11341692
147	0xbcb21dfa	-0.02174281
148	0xbcb5a012	-0.022171054
149	0x3d806cf8	0.06270784
150	0x3e0dded9	0.13854541
151	0x3d79aa30	0.06095332
152	0xbe585f73	-0.21130161
153	0xbe6f44ec	-0.23366135
154	0x3d9ce6c1	0.076612
155	0xbdccea19	-0.10005588
156	0xbe44ef76	-0.19231972
157	0xbdf81cc1	-0.12114859
158	0x3e62aa31	0.22135235
159	0x3df5a09a	0.11993523
160	0xbdb7cff9	-0.089752145
161	0xbe673ccf	-0.2258179
162	0x3dbef031	0.093231566
163	0xbcae7cbd	-0.021299714
164	0x3e591658	0.2119993
165	0xbe2c672e	-0.16836235
166	0xbe234b9c	-0.15946811
167	0xbb910f29	-0.004426856
168	0xbd64357c	-0.05571507
169	0x3d51e4b5	0.051243503
170	0xbdcb5119	-0.099275775
171	0x3d9c96a6	0.076459214
172	0xbd010e83	-0.03150798
173	0xbd77c548	-0.060490876
174	0x3e4b1ed1	0.19835974
175	0x3d4f395d	0.050591815
176	0x3e392979	0.18082227
177	0x3c8f090a	0.017460365
178	0x3e0b348a	0.13594261
179	0xbe656e58	-0.22405374
180	0xbdc5906e	-0.096466884
181	0xbdd91780	-0.106001854
182	0xbc41eb40	-0.011835873
183	0xbde91b98	-0.11382216
184	0xbe0b0780	-0.1357708
185	0x3e59b76c	0.21261376
186	0xbe0f5c8f	-0.14000152
187	0xbcc25ae2	-0.023724977
188	0x3d6b0747	0.057379987
189	0xbc477ebc	-0.012176212
190	0x3e7ad82a	0.24496523
191	0x3d91f4e4	0.07126787
192	0xbe0e69cd	-0.13907547
193	0x3dc60e73	0.09670725
194	0xbe13ebae	-0.14445373
195	0xbe261a1b	-0.16220896
196	0x3c404bb2	0.011736797
197	0x3e0ea961	0.139318
198	0x3e30a721	0.17251255
199	0x3c9f8bd8	0.019475862
200	0xbbff68c7	-0.007794473
201	0xbc888492	-0.016664777
202	0x3c3c6ff9	0.011501306
203	0xbba5a6d9	-0.00505529
204	0x3e4ee7b4	0.20205575
205	0xbc7d6a77	-0.015467278
206	0xbe061f50	-0.13097882
207	0x3e3c4d5b	0.18388884
208	0xbd12b913	-0.03582103
209	0x3ca85485	0.020548115
210	0x3e28d04e	0.16485712
211	0xbe46c0f4	-0.19409543
212	0xbb25f8db	-0.0025325331
213	0x3e3e8f19	0.18609275
214	0x3d4410d2	0.047867604
215	0x3e13d45d	0.14436479
216	0x3d0e3f12	0.034728117
217	0xbc2f83e1	-0.010712595
218	0x3d98878e	0.0744773
219	0xbd819c09	-0.063285895
220	0xbb283ea2	-0.0025672098
221	0xbd078c16	-0.03309258
222	0x3d9b3615	0.07578675
223	0x3dc8959f	0.09794163
224	0xbe1f05bf	-0.15529536
225	0x3c2d197a	0.010565156
226	0x3e31596c	0.17319268
227	0xbc186298	-0.00930085
228	0x3e51c446	0.20485029
229	0xbc13a867	-0.009012318
230	0xbd390464	-0.045170203
231	0xbe487812	-0.19577053
232	0xbe1270cb	-0.1430084
233	0x3e21de58	0.15807474
234	0xbdcc3c76	-0.099724695
235	0x3e130612	0.14357784
236	0xbe15e0e8	-0.14636576
237	0xbe3d28de	-0.18472621
238	0xbce823e2	-0.028337423
239	0x3d7409dd	0.05957972
240	0x3da92b4c	0.08260211
241	0xbdb84906	-0.08998303
242	0x3e0d56cc	0.13802642
243	0x3b79fe15	0.003814583
244	0xbe3cba41	-0.18430425
245	0xbe73b269	-0.23798527
246	0x3d49de43	0.04928423
247	0xbd40a64e	-0.0470336
248	0xbdc11d6d	-0.09429441
249	0x3dae0897	0.08497732
250	0xbda343e2	-0.07971932
251	0xbdc58679	-0.09644789
252	0x3dc7abc0	0.097495556
253	0x3e396063	0.18103175
254	0x3e0351c7	0.12824164
255	0x3ca48907	0.020084871

gru.bias_ih_l0 f4 [192]
0	0xbe4ced79	-0.20012464
1	0x3e167fcc	0.14697188
2	0xbd0e04f2	-0.034672685
3	0x3e25f387	0.1620618
4	0x3c6fd4f6	0.014638176
5	0x3dc097f7	0.09403985
6	0x3d9c1984	0.07622054
7	0x3da8e196	0.08246152
8	0x3d9e0317	0.07715433
9	0x3df395cd	0.118938066
10	0x3d902949	0.070391245
11	0xbdfe772e	-0.124250755
12	0x3e0419e9	0.12900509
13	0x3e58a9fc	0.21158594
14	0x3ddee3a9	0.108832665
15	0x3e145e11	0.14489008
16	0x3e3bdf33	0.18346862
17	0x3d8bdd75	0.06829349
18	0xbd882eeb	-0.06649574
19	0x3e1d5392	0.15363911
20	0x3d29b534	0.041432574
21	0x3df3cf91	0.119048245
22	0x3e1f0eb8	0.15532959
23	0x3e115bec	0.14195222
24	0x3dc3c981	0.09559918
25	0x3d3c4112	0.045960493
26	0xbd09cd91	-0.03364331
27	0x3c305a11	0.010763661
28	0x3e3dbf1c	0.18529934
29	0x3bad5905	0.005290153
30	0x3d222af7	0.039591756
31	0x3d89af41	0.0672288
32	0x3e369a23	0.17832236
33	0x3dd80094	0.10546985
34	0x3e1d3566	0.15352401
35	0xbd642a73	-0.055704545
36	0x3dda29a9	0.10652477
37	0x3d44c6f9	0.048041318
38	0x3df4692c	0.119341224
39	0x3e7240e3	0.23657565
40	0x3e370549	0.1787311
41	0x3cb66abe	0.022267696
42	0x3d7e4118	0.062073797
43	0xbcc3ca44	-0.023900159
44	0x3d700d0a	0.058606185
45	0xbc0f4ec6	-0.008746808
46	0xbd13d396	-0.036090456
47	0xbd0072cc	-0.03135948
48	0xbce5043a	-0.027956117
49	0x3d40a33f	0.047030684
50	0x3ddfb519	0.109232135
51	0x3e6c1fba	0.23058978
52	0x3e23d692	0.15999821
53	0x3d01881f	0.031623956
54	0x3e120b89	0.14262213
55	0x3d9346df	0.07191252
56	0xbcc7b2d1	-0.024377258
57	0xbe1f234f	-0.15540813
58	0x3e3a5706	0.1819726
59	0x3c2206d5	0.009889324
60	0x3db8c63a	0.09022184
61	0x3b8c24bc	0.00427684
62	0x3dff7de9	0.12475187
63	0xbcc0c2c2	-0.023530368
64	0xbe468ab5	-0.1938885
65	0x3d245e56	0.04012903
66	0x3ebf5b52	0.3737436
67	0x3e394f3a	0.18096629
68	0xbde633b0	-0.11240327
69	0xbe0c5b2b	-0.13706653
70	0x3bdc4aaa	0.006722768
71	0xbbc33010	-0.005956657
72	0x3dc702ed	0.09717355
73	0xbe92288e	-0.28546566
74	0xbd9d57c0	-0.076827526
75	0xbde04626	-0.1095088
76	0xbe87159d	-0.26383677
77	0xbe3101a9	-0.1728579
78	0xbd74a558	-0.059727997
79	0xbe1d9674	-0.15389425
80	0x3d41a561	0.04727686
81	0xbd984b55	-0.074362434
82	0x3db132d8	0.08652276
83	0xbd87dcfa	-0.06633945
84	0x3e2e2b35	0.1700867
85	0x3ca1666e	0.019702163
86	0xbc4e3208	-0.012585171
87	0xbe12f0ba	-0.14349642
88	0xbcbf27d6	-0.023334425
89	0xbd9fbb42	-0.077993885
90	0x3c8e8bde	0.017400678
91	0x3ddf6b61	0.10909153
92	0xbbe9aca5	-0.0071311765
93	0x3c959152	0.01825777
94	0xbd3ff7ed	-0.0468673
95	0xbe7882a7	-0.2426859
96	0x3e05f97a	0.13083449
97	0xbccd7d99	-0.025084304
98	0x3e81db63	0.2536269
99	0xbe34ca58	-0.17655313
100	0xbe2f1fd8	-0.17101991
101	0xbe362acf	-0.17789768
102	0x3ce5b4b3	0.028040266
103	0x3e943c01	0.2895203
104	0xbde12e88	-0.10995203
105	0x3df3face	0.119130716
106	0x3d8f169d	0.06986735
107	0x3d5bc081	0.053650383
108	0x3ce18ad7	0.027532024
109	0xbd0a1eee	-0.033720903
110	0xbcd8bff3	-0.026458716
111	0x3d1cd83e	0.038292162
112	0xbe868e28	-0.26280332
113	0x3d96283d	0.073318936
114	0x3e2768ec	0.16348618
115	0xbd967150	-0.073458314
116	0xbe2e08e8	-0.16995585
117	0x3d844c0b	0.064598165
118	0x3d8f1d22	0.069879785
119	0xbb10126b	-0.0021983634
120	0xbd9455d5	-0.07242934
121	0xbafe5cb0	-0.0019406285
122	0x3e062d10	0.13103127
123	0x3e7451ca	0.23859325
124	0xbe26d0c7	-0.1629058
125	0xbd495872	-0.049156614
126	0xbdeece89	-0.11660487
127	0x3db40b21	0.08791185
128	0xbdb0fe98	-0.0864231
129	0x3de0c86f	0.1097573
130	0x3c949ca2	0.018141095
131	0xbe07e750	-0.13271832
132	0xbe2ca331	-0.16859128
133	0x3e14c736	0.14529118
134	0x3de1d836	0.11027567
135	0xbe5428a8	-0.20718634
136	0xbe272b74	-0.1632517
137	0x3e2e7c86	0.1703969
138	0x3e64691a	0.22305718
139	0xbd6b7b72	-0.057490773
140	0x3e1f4223	0.15552573
141	0x3e128204	0.1430741
142	0xbe2b8250	-0.16748929
143	0x3e1b7aae	0.15183517
144	0xbe29c84f	-0.16580318
145	0xbe2365a5	-0.15956743
146	0x3a0f515b	0.000546714
147	0x3c34e5ac	0.011041086
148	0xbe322e5b	-0.17400496
149	0x3e29e108	0.16589749
150	0x3e48afe6	0.1959835
151	0x3e3ce871	0.18448044
152	0xbe092dce	-0.1339638
153	0x3cfa044d	0.030519629
154	0x3e0d4a34	0.13797837
155	0xbe5f68e7	-0.21817361
156	0xbe42ae1a	-0.19011727
157	0xbe0b2931	-0.13589932
158	0x3e26f8f6	0.16305909
159	0x3e4dc87b	0.20096008
160	0xbe83b9a3	-0.25727567
161	0xbe740a76	-0.23832116
162	0xbc39a67b	-0.011331196
163	0x3e4edf96	0.20202479
164	0x3e1c2b87	0.1525098
165	0xbe1971ef	-0.14984868
166	0xbe1704ff	-0.14748
167	0xbd1155ff	-0.035482403
168	0xbe450bfc	-0.19242853
169	0x3dadce1d	0.084865786
170	0xbc55b64a	-0.013043949
171	0x3e3875f0	0.1801374
172	0xbe1251da	-0.14289036
173	0xbe2b9b66	-0.16758499
174	0x3e6d149e	0.23152396
175	0x3d27285d	0.040809978
176	0x3dbcd7a9	0.092208214
177	0xbcfcfbcb	-0.030881783
178	0x3e0ba1fc	0.13636011
179	0xbdf75c93	-0.12078204
180	0xbe69f4aa	-0.22847238
181	0xbd8ff025	-0.07028226
182	0x3e36aab8	0.17838562
183	0xbe6090bb	-0.2193021
184	0xbe027fcf	-0.12744068
185	0x3dfa16ef	0.122114055
186	0xbdfbbb16	-0.12291543
187	0xbd602945	-0.054726858
188	0x3dcdf669	0.10056765
189	0x3e5e6a46	0.21720228
190	0x3e3f1c8d	0.18663235
191	0x3e633f0a	0.22192016

gru.bias_hh_l0 f4 [192]
0	0xbdfea718	-0.12434214
1	0x3e51bee5	0.20482977
2	0x3cc1599e	0.023602303
3	0xbb6a2044	-0.0035724798
4	0x3e0809b0	0.13284945
5	0x3e483aeb	0.19553725
6	0x3da6b23f	0.081394665
7	0x3db9eb11	0.090780385
8	0x3e499c58	0.19688547
9	0x3dce6bcf	0.100791566
10	0x3d55368c	0.052053973
11	0xbd090797	-0.033454504
12	0x3e0f860c	0.14015979
13	0x3d69b1ce	0.057054333
14	0x3e1f6c38	0.15568626
15	0x3d62fe93	0.055418562
16	0x3e4eb917	0.20187794
17	0x3dc013e6	0.09378795
18	0xbe2a8b7a	-0.16654769
19	0x3e231774	0.15926915
20	0xbde281fb	-0.11059948
21	0x3d822142	0.06354
22	0x3bac5e94	0.005260298
23	0x3e365daf	0.17809175
24	0x3e0578f1	0.13034417
25	0x3d63c7a6	0.05561032
26	0x3e36b051	0.17840697
27	0x3d5586fd	0.052130688
28	0x3cd7e841	0.026355864
29	0x3e082a65	0.13297422
30	0xbb3b5f9e	-0.0028590928
31	0x3e174e14	0.14775878
32	0xbc6a0766	-0.0142839905
33	0x3e69d181	0.22833826
34	0x3d4caf71	0.049972
35	0x3bf74f25	0.0075472766
36	0x3e57dbc9	0.21079935
37	0x3e404b41	0.18778707
38	0x3e0581bd	0.13037772
39	0x3df18234	0.117924124
40	0x3dd49409	0.10379798
41	0x3e25f555	0.16206868
42	0x3cf84232	0.030305002
43	0x3d8efb9e	0.06981586
44	0x3e38ba0d	0.18039723
45	0x3c7d755e	0.015469877
46	0x3a466bb0	0.0007569147
47	0xbcb68115	-0.022278348
48	0xbd72f07d	-0.05931138
49	0xbbd40ae2	-0.006471024
50	0x3e3b5618	0.18294561
51	0x3cf9b41f	0.030481396
52	0x3db70f06	0.08938412
53	0x3cccceee	0.025001016
54	0x3e07b2e5	0.13251837
55	0x3e3a3c5a	0.18187085
56	0xbc323e06	-0.010879045
57	0xbdfd16b9	-0.1235785
58	0x3daebdf3	0.08532324
59	0xbd36c8c0	-0.044625044
60	0x3e15e3f8	0.14637744
61	0x3dedf085	0.11618141
62	0xbd39bea5	-0.04534783
63	0x3cb37c7e	0.021909948
64	0x3b9427e4	0.004521357
65	0xbdd4ae2b	-0.103847824
66	0x3eea5498	0.45767665
67	0x3ea8fde7	0.33006212
68	0x3d180d5a	0.037122108
69	0xbe0bec79	-0.13664426
70	0xbe3ca696	-0.18422922
71	0xbe7567d2	-0.23965386
72	0x3dba45c5	0.09095339
73	0xbe321a6f	-0.17392896
74	0xbe42c5e1	-0.19020797
75	0xbd203a20	-0.039117932
76	0xbe72ea26	-0.23722133
77	0xbdab4875	-0.083634295
78	0xbe3259af	-0.17417024
79	0xbd390ceb	-0.045178335
80	0xbd9069e1	-0.07051445
81	0xbddebdce	-0.10876046
82	0xbdf376f9	-0.118879266
83	0xbe44713d	-0.19183822
84	0x3e5337d9	0.20626773
85	0xbd4e4e51	-0.050367657
86	0xbce6872b	-0.028140625
87	0xbd809a56	-0.06279437
88	0xbe0c1890	-0.13681245
89	0xbe4778aa	-0.19479623
90	0xba22ee61	-0.0006215331
91	0xbd14eccf	-0.03635865
92	0xbdfd83c5	-0.12378649
93	0x3de6ce2c	0.11269793
94	0x3e081353	0.13288622
95	0xbe8797e4	-0.2648307
96	0x3d90708f	0.07052719
97	0x3d0e06bd	0.034674395
98	0x3e36fde9	0.17870297
99	0x3ab4d7e4	0.001379725
100	0xbdf9ab95	-0.1219093
101	0xbe0463d6	-0.1292871
102	0xbe03c187	-0.12866794
103	0x3eca3039	0.39489916
104	0xbe15fd21	-0.14647342
105	0x3cc5a0a3	0.02412445
106	0x3d96073c	0.073255986
107	0xbd715747	-0.058921125
108	0xbe1b4f47	-0.1516696
109	0xbd65a432	-0.056064792
110	0xbdb0cd2c	-0.086328834
111	0x3d3fa9ce	0.046792798
112	0xbdec78b2	-0.11546458
113	0xbd0643cb	-0.032779496
114	0x3e64f440	0.22358799
115	0xbc445fa0	-0.011985689
116	0xbd486752	-0.04892666
117	0xbe30db82	-0.17271236
118	0xbc82c280	-0.015961885
119	0x3d3fe483	0.046848785
120	0xbe1525dc	-0.14565223
121	0xbde84554	-0.11341348
122	0xbb899ab5	-0.0041993507
123	0x3e4d3ebe	0.20043465
124	0xbc1b7293	-0.009487766
125	0x3e1ece2b	0.15508334
126	0x3bdb3e12	0.006690749
127	0x3dbc5c70	0.091973186
128	0xbe32225d	-0.17395921
129	0x3e529f9c	0.20568699
130	0xbdd1d1e2	-0.1024511
131	0xbbcf7948	-0.0063315965
132	0xbe5fe4cf	-0.21864627
133	0x3e6d47a6	0.23171863
134	0x3e394f1d	0.18096586
135	0xbd283b3d	-0.04107212
136	0xbe59edbc	-0.21282095
137	0x3e733e69	0.23754276
138	0x3e137d81	0.14403345
139	0xbc87ee59	-0.016593145
140	0x3e681cd8	0.22667253
141	0x3e3a7a52	0.18210724
142	0xbd4faad7	-0.050700035
143	0x3e4cbf2d	0.19994803
144	0xbe1eabe8	-0.15495265
145	0xbd191464	-0.03737296
146	0x3dd0d9a0	0.10197759
147	0xbdd1ed25	-0.1025031
148	0xbe0cf7fc	-0.13766474
149	0x3e0b3a67	0.13596497
150	0x3e47ef82	0.19524959
151	0x3c9d4e9a	0.01920252
152	0xbe0e38cd	-0.13888855
153	0xbe0e3f20	-0.13891268
154	0x3e3e3eaf	0.185786
155	0xbe101076	-0.1406878
156	0xbe0f0ca1	-0.13969661
157	0xbe434d0a	-0.19072357
158	0x3c10a30d	0.008827937
159	0x3db0d646	0.086346194
160	0xbc8bdbe4	-0.017072625
161	0xbe60bc45	-0.21946819
162	0xbd8c9d00	-0.06865883
163	0x3c88dbc9	0.016706364
164	0x3e1b952b	0.15193622
165	0xbdf972ef	-0.12180125
166	0xbd069938	-0.032860965
167	0xbdac377f	-0.084090225
168	0xbab29ee3	-0.0013627674
169	0x3e3ad6ac	0.18245953
170	0xbde11c98	-0.10991782
171	0x3e043bee	0.12913486
172	0xbe239979	-0.15976514
173	0xbe3d66cc	-0.18496245
174	0x3dcad38a	0.09903629
175	0x3dfe49b0	0.124163985
176	0x3b95ccf9	0.004571554
177	0xbe09d352	-0.13459519
178	0xbd12b1ee	-0.03581422
179	0xbe762e55	-0.24041112
180	0xbe19601b	-0.14978068
181	0xbe19db3d	-0.15025039
182	0x3db96d27	0.09054022
183	0xbb910889	-0.0044260663
184	0xbdcd272c	-0.10017237
185	0xbb361846	-0.0027785464
186	0xbe0bb784	-0.13644224
187	0x3dbc0fe1	0.09182716
188	0x3e6b7227	0.22992764
189	0x3d5a8814	0.05335243
190	0x3e19c1d1	0.15015341
191	0x3c3ad2db	0.011402811

notes_decoder.weight f4 [128, 64]
0	0x3d8cd19e	0.06875919
1	0xbdc4a3cd	-0.09601555
2	0x3e1fe139	0.1561326
3	0x3e38f304	0.18061453
4	0x3e3f2d76	0.18669686
5	0xbd6d47a2	-0.057929642
6	0xbd464f31	-0.048415367
7	0x3d9d2ae8	0.07674199
8	0x3e123a47	0.14280044
9	0xbe46c735	-0.19411929
10	0xbe8d1f90	-0.27563143
11	0x3c8e119b	0.01734238
12	0xbdae7b0d	-0.08519564
13	0xbe918429	-0.28421143
14	0x3d615203	0.055009853
15	0xbe5fc254	-0.21851474
16	0x3e6fcb8c	0.2341749
17	0x3d9df50d	0.07712755
18	0x3d840c8f	0.06447708
19	0x3d3226ec	0.04349415
20	0x3e9598bd	0.29218093
21	0xbe3cc772	-0.18435457
22	0xbe8ea7cf	-0.27862403
23	0xbe2ba93d	-0.16763778
24	0x3e91d5e1	0.2848349
25	0x3e4ddd5e	0.20103976
26	0xbe41e01a	-0.18933144
27	0x3e46a050	0.19397092
28	0x3e277715	0.1635402
29	0x3e05841d	0.13038678
30	0xbe388d0d	-0.18022557
31	0xbe038daa	-0.1284701
32	0x3e1b00c0	0.15137005
33	0x3e14a1c2	0.1451483
34	0xbd993698	-0.07481116
35	0xbe877e78	-0.26463675
36	0xbe3f34cc	-0.18672484
37	0x3e47b623	0.19503073
38	0x3e1d4bc1	0.15360929
39	0x3e683ef6	0.22680268
40	0x3dc9ea3c	0.0985913
41	0xbe480382	-0.19532588
42	0x3e0e7bf2	0.13914469
43	0xbe78c7ff	-0.24295042
44	0x3d55e97a	0.052224614
45	0x3e903346	0.2816412
46	0xbe328b2a	-0.174359
47	0xbe59c3fb	-0.21266167
48	0x3ce58f32	0.028022382
49	0x3e373de2	0.178947
50	0xbdfb1d10	-0.122614026
51	0x3e66839d	0.22511144
52	0x3e1336e3	0.14376406
53	0x3e035c22	0.12828115
54	0xbe429c53	-0.19004945
55	0x3e00c0d6	0.12573561
56	0x3e7efe99	0.24901809
57	0xbe012cfa	-0.12614813
58	0x3e0f9814	0.14022857
59	0x3dbac7f4	0.09120169
60	0xbde8fab7	-0.11375945
61	0xbe004c32	-0.12529066
62	0xbdf0875f	-0.1174457
63	0xbd8eba5d	-0.0696914
64	0x3d4c9cea	0.049954332
65	0xbd83e97b	-0.06441017
66	0x3d20eed3	0.03929026
67	0x3e492c6c	0.19645852
68	0x3dfaf98c	0.122546285
69	0xbe8f0bd2	-0.27938706
70	0xbde47c36	-0.11156504
71	0x3e16b40f	0.14717124
72	0x3e2e6c52	0.17033508
73	0xbe868ea8	-0.26280713
74	0xbe205bb1	-0.15659977
75	0x3de36998	0.11104125
76	0xbdb29664	-0.08720091
77	0xbd98cc78	-0.07460874
78	0x3e8dbf2a	0.2768491
79	0xbe2416ba	-0.16024294
80	0x3e95fd8f	0.29295012
81	0x3e8bd5e2	0.27311617
82	0xbcfa08ff	-0.030521868
83	0x3e154af0	0.14579368
84	0x3e49f7c0	0.19723415
85	0xbdfbd6a6	-0.122968
86	0xbdccd3eb	-0.10001358
87	0xbe5e9ed7	-0.2174028
88	0x3dbbdcec	0.09172997
89	0x3e680077	0.22656427
90	0xbe4f849a	-0.20265427
91	0x3e40a3a3	0.18812422
92	0x3e94c033	0.29052886
93	0x3e08c707	0.13357173
94	0xbe210848	-0.15725815
95	0xbe47ce96	-0.195124
96	0x3e1b3bd6	0.15159544
97	0x3e089b38	0.13340461
98	0xbd2c5bcb	-0.042079728
99	0xbe29be39	-0.1657647
100	0xbe51cb07	-0.20487605
101	0x3e5b0f9e	0.21392676
102	0x3e0b5289	0.13605703
103	0x3e3db683	0.18526654
104	0x3e3a1d2c	0.1817519
105	0xbe5d283c	-0.2159738
106	0x3d572f29	0.05253521
107	0xbdac550a	-0.084146574
108	0x3e8f219c	0.2795533
109	0x3dcc9b8f	0.09990608
110	0xbe53326e	-0.20624706
111	0xbd6cb48f	-0.05778938
112	0x3c883f99	0.016631888
113	0x3dbcf4e6	0.09226398
114	0xbe1c0986	-0.15238008
115	0x3e2c2416	0.1681064
116	0x3e2b38df	0.16720913
117	0x3e4d0c3e	0.20024201
118	0xbe5b235a	-0.21400204
119	0x3e230660	0.159204
120	0x3e931f9f	0.28735062
121	0x3b177f17	0.0023116523
122	0x3e6c9c34	0.23106462
123	0x3d0ee069	0.034881983
124	0xbe84935f	-0.25893685
125	0xbd867e54	-0.06567064
126	0xbe12a70f	-0.1432154
127	0xbe06fc71	-0.13182236
128	0xbd0a19ab	-0.033715885
129	0xbe5534c1	-0.20820905
130	0x3e34492a	0.17606035
131	0x3e75ad52	0.23991898
132	0x3e857030	0.26062155
133	0xbdbc623b	-0.091984235
134	0xbd984663	-0.074353
135	0x3e59dba0	0.21275187
136	0x3e995f22	0.29955393
137	0xbd9d9bf2	-0.0769576
138	0xbe2c5d9c	-0.16832584
139	0xbd9b0459	-0.075691886
140	0xbe8a2395	-0.26980272
141	0xbe8a78b9	-0.2704523
142	0x3e1546ab	0.14577739
143	0xbdee4858	-0.11634892
144	0x3dbd7e44	0.09252599
145	0x3db4d2d3	0.08829274
146	0x3c8fde72	0.017562125
147	0x3cd1c5f8	0.025607094
148	0x3e5d0759	0.21584834
149	0xbddf1c58	-0.10894078
150	0xbe2ddbbc	-0.16978353
151	0xbe786d38	-0.24260414
152	0x3e8e3e11	0.27781728
153	0x3e63916e	0.22223446
154	0xbe4e69cf	-0.2015755
155	0x3e70a4a7	0.2350031
156	0x3e74cc82	0.23906139
157	0x3e4a2077	0.19738947
158	0xbe333e87	-0.17504321
159	0xbe443eb1	-0.1916454
160	0x3dbb8352	0.09155907
161	0x3dc59c63	0.09648969
162	0xbe43ee34	-0.19133836
163	0xbe5fe8bd	-0.21866126
164	0xbe5345bb	-0.20632069
165	0x3e2c761f	0.16841935
166	0x3e22d844	0.15902811
167	0x3e34634e	0.17616007
168	0x3e504070	0.20337081
169	0xbd630392	-0.055423327
170	0x3d80062c	0.06251177
171	0xbde64780	-0.11244106
172	0x3e90e347	0.282984
173	0x3e3f1094	0.18658668
174	0xbe837193	-0.25672588
175	0xbd66ba59	-0.05633006
176	0x3dea8d73	0.114527605
177	0x3e02f634	0.12789232
178	0xbe55381e	-0.20822188
179	0x3e1e4e47	0.15459548
180	0x3e809e15	0.25120607
181	0x3e4cbacf	0.19993137
182	0xbdc7b69d	-0.097516276
183	0x3e0a16da	0.1348528
184	0x3e2fe431	0.17176892
185	0xbd0d88b3	-0.034554195
186	0x3db4d18b	0.0882903
187	0x3e17da5e	0.14829394
188	0xbd12b4fd	-0.035817135
189	0xbd93dbcb	-0.072196566
190	0xbdcbb2ca	-0.09946211
191	0xbe32553f	-0.17415331
192	0x3d415d75	0.04720827
193	0xbe2beb73	-0.16789035
194	0x3e6aa73a	0.22915354
195	0x3dc9a98b	0.09846791
196	0x3dbeb5ca	0.09312017
197	0xbe14f722	-0.14547399
198	0xbda09f0d	-0.078428365
199	0x3da75820	0.081711054
200	0x3e7fa65c	0.24965805
201	0xbe0248c8	-0.12723076
202	0xbe6c3768	-0.23068011
203	0x3d573338	0.05253908
204	0xbe81284c	-0.25226057
205	0xbd874dee	-0.06606661
206	0x3e8c7afe	0.27437586
207	0xbe152676	-0.14565453
208	0x3e0d4666	0.13796386
209	0x3da4c998	0.080462635
210	0x3d90d3ce	0.070716485
211	0x3e721460	0.23640585
212	0x3e0452a9	0.12922157
213	0xbdf2a4f2	-0.11847867
214	0xbe8fa153	-0.28052768
215	0xbda73a83	-0.08165457
216	0x3e686dd7	0.2269815
217	0x3e68f103	0.22748189
218	0xbd5b140a	-0.053485908
219	0x3e9801cb	0.29688868
220	0x3dbf619a	0.09344788
221	0x3e87e04d	0.26538315
222	0xbe40ab30	-0.18815303
223	0xbe956ca4	-0.2918445
224	0x3e66b948	0.22531617
225	0x3e912ad8	0.28353
226	0xbdc05451	-0.09391082
227	0xbe802018	-0.25024486
228	0xbd987416	-0.07444017
229	0x3e3b5cd2	0.18297127
230	0x3e8e9c80	0.27853775
231	0x3e2b23e9	0.16712917
232	0x3e80cfc9	0.25158527
233	0xbe053931	-0.13010098
234	0xbb9e20b1	-0.0048256745
235	0xbdf6cf0d	-0.120512106
236	0x3e4d1de5	0.20030935
237	0x3ded8e6d	0.11599431
238	0xbe92c651	-0.28666928
239	0xbe2a11a4	-0.16608292
240	0xbd7ca6bf	-0.06168246
241	0x3db1fe36	0.08691065
242	0xbe5da652	-0.21645477
243	0x3d77072d	0.060309578
244	0x3d6416d4	0.055685833
245	0x3e06795e	0.13132235
246	0xbd9d6f9c	-0.076873034
247	0x3e44af7d	0.19207568
248	0x3e15ef76	0.14642128
249	0x3d0bdbae	0.03414505
250	0x3e8bb193	0.27283916
251	0xbc1c73b9	-0.009549075
252	0xbe06a64d	-0.13149376
253	0xbde4c798	-0.11170882
254	0xbd104859	-0.035225246
255	0xbe97a4ae	-0.29617828

notes_decoder.bias f4 [128]
0	0xbd01dd1d	-0.03170501
1	0xbe382961	-0.17984535
2	0xbe107ccc	-0.14110106
3	0xbe76e371	-0.241102
4	0xbe1104dc	-0.1416201
5	0xbe139c6f	-0.14415143
6	0xbe4e4a9f	-0.20145653
7	0xbe34694d	-0.17618294
8	0xbe71a1a7	-0.23596822
9	0xbe803076	-0.25036973
10	0xbe1a446d	-0.15065165
11	0xbd674f83	-0.056472313
12	0xbd45ce07	-0.048292186
13	0xbe3d7e1a	-0.18505135
14	0xbd6ad259	-0.05732951
15	0xbe62cbf3	-0.22148113
16	0xbd3686b5	-0.04456206
17	0xbe4e488f	-0.20144866
18	0xbd620ee7	-0.055189993
19	0xbda6826c	-0.08130345
20	0xbe21f8a8	-0.15817511
21	0xbdff849b	-0.12476464
22	0xbd6e0473	-0.05810971
23	0xbe0b4024	-0.13598686
24	0xbd9f87d0	-0.07789576
25	0xbe47c858	-0.19510019
26	0xbda742ab	-0.08167013
27	0xbdb1562e	-0.086590156
28	0xbdc8c5b0	-0.09803331
29	0xbd09968f	-0.03359085
30	0xbe2cb9ed	-0.168678
31	0xbe51877c	-0.2046184
32	0xbe43246f	-0.19056867
33	0xbdf871dd	-0.12131093
34	0xbd9d2449	-0.076729365
35	0xbd16af3d	-0.036788214
36	0xbe00b6a7	-0.12569676
37	0xbd867b5f	-0.065665
38	0xbd08f6fc	-0.033438668
39	0xbe593e60	-0.212152
40	0xbe3419ab	-0.17587917
41	0xbda101f4	-0.07861701
42	0xbe71d237	-0.23615347
43	0xbe2e9832	-0.17050245
44	0xbe627e00	-0.22118378
45	0xbdf0e298	-0.11761969
46	0xbe00e0dc	-0.12585777
47	0xbe03f1de	-0.12885234
48	0xbe1b3461	-0.151567
49	0xbd1a693d	-0.03769802
50	0xbd962de1	-0.073329695
51	0xbd23a1c7	-0.039949205
52	0xbcd64863	-0.026157564
53	0xbe1e40e1	-0.15454437
54	0xbe6b91df	-0.23004864
55	0xbe25d992	-0.16196278
56	0xbe3745af	-0.17897676
57	0xbd0a12e3	-0.033709418
58	0x3bb5a7ba	0.005543676
59	0xbe79f25f	-0.24408863
60	0xbb9f12f6	-0.0048545552
61	0xbd0f1650	-0.03493339
62	0xbcfbec44	-0.030752309
63	0xbe117439	-0.14204492
64	0xbc6de2f0	-0.014519438
65	0xbe665056	-0.22491583
66	0xbcc03480	-0.023462534
67	0xbdd8913e	-0.10574578
68	0xbe5dc2af	-0.21656297
69	0xbe3d32b1	-0.18476368
70	0xbe1739c9	-0.14768137
71	0xbe2fa501	-0.17152788
72	0xbe57cfe3	-0.21075396
73	0xbd6aa020	-0.057281613
74	0xbdd95710	-0.10612309
75	0xbe101086	-0.14068803
76	0xbe5bbead	-0.21459456
77	0xbd1fec02	-0.039043434
78	0xbe25a74e	-0.16177103
79	0xbdb8c3a3	-0.0902169
80	0xbe5f601b	-0.21814005
81	0xbe642509	-0.22279753
82	0xbe522b4e	-0.20524332
83	0xbe588fd9	-0.21148624
84	0xbe335dd1	-0.17516257
85	0xbde6d2ee	-0.112707004
86	0xbd683592	-0.056691714
87	0xbe46fe32	-0.19432905
88	0xbd20de33	-0.039274406
89	0xbdeabefd	-0.114622094
90	0xbe75bcee	-0.23997852
91	0xbd9cdaf5	-0.0765895
92	0xbe321d67	-0.17394029
93	0xbd9791f7	-0.074008875
94	0xbe4ec3a5	-0.2019182
95	0xbe84027f	-0.25783154
96	0xbd889eee	-0.066709384
97	0xbc261b0d	-0.010138285
98	0xbe41aa15	-0.18912537
99	0xbe3b66dd	-0.18300958
100	0xbd3aa9ba	-0.04557202
101	0xbd87a948	-0.06624085
102	0xbd8154a8	-0.06314975
103	0xbe652535	-0.22377475
104	0xbe80dce3	-0.25168523
105	0xbd4c22ca	-0.049837865
106	0xbe80f0fd	-0.2518386
107	0xbe8825a2	-0.26591212
108	0xbe7448fb	-0.23855965
109	0xbde861e4	-0.11346796
110	0xbd8378ed	-0.06419549
111	0xbe128933	-0.1431015
112	0xbe5c949b	-0.21541063
113	0xbdacec56	-0.08443515
114	0xbda2cb03	-0.07948878
115	0xbe0ea979	-0.13931836
116	0xbe4eb2b7	-0.20185362
117	0xbe5d37c0	-0.21603298
118	0xbe67d2aa	-0.22638956
119	0xbe271e3d	-0.16320129
120	0xbd8d3834	-0.068954855
121	0xbe6db062	-0.23211816
122	0xbe08a445	-0.13343914
123	0xbd879b6b	-0.066214405
124	0xbd3a352b	-0.04546086
125	0xbd4fd87d	-0.05074357
126	0xbe4f4263	-0.20240168
127	0xbdea3c42	-0.114372745
