saved_models/generalist_BCE_1e-2_114.pth (torch_old, 167373 bytes, 8 tensors)

notes_encoder.weight f4 [64, 128]
00000000: 8146 abbd 36a3 65bd ba12 5c3d 6bea 8f3d
00000010: d930 91bd 493e 5ebd b8a1 093c 3dda 7bbd
00000020: 9bbf 7cbd 0064 aabb f818 76bc 4277 703d
00000030: d366 a7bd ecee 05bd 6035 3c3c ce73 673d
00000040: 3160 5cbd 4656 a8bd 1c92 92bc 98e2 913c
00000050: 7646 3b3d 3237 6cbd 3e43 abbd e0cf 923c
00000060: e756 b4bd 70f0 d73b 5670 313d 1003 ba3c
00000070: c2e1 773d 3c73 c5bc 3060 ca3c 409e 59bc
00000080: 6c95 4cbd 8ca2 d13c eb56 95be 1e39 163d
00000090: 9546 823d 10df ec3b 71c1 6a3e 53ec a43d
000000a0: a3f6 863e 2a01 e93d 48d5 84be defe 4a3e
000000b0: fe73 1b3f 58dd 113d b10d 583e 81d5 9b3e
000000c0: f992 7e3e 163c de3e 3458 f03e f048 553d
000000d0: b9e9 0e3e bfcd 473e ce28 523d f14d 2c3e
000000e0: b13d e33e cd2a bd3d 1c3c 573c 908b 9f3e
000000f0: 93f0 523d 4cf0 ab3e a121 7c3e d573 9d3e
00000100: b276 b03d e080 9f3d 20dc 93bd 8451 563e
00000110: 3b51 bd3e d7bb 5b3e 4370 933e 439f d83e
00000120: c370 863e 58e4 ddbc c3ca 8d3e 7214 14be
00000130: 384a 123e df74 873e e128 d73c 11e8 543e
00000140: 8d21 543d e667 023e 7f63 0f3e 8c80 c6bc
00000150: 89f7 1abd 9434 25be 0f5c 243e 73c3 8dbd
00000160: f705 a43d 4d78 293e d85c a0bd fd96 983d
00000170: 9c6e a7bc 949f e83c 006e fd3b 08e5 c8bc
00000180: 04eb 96bd 205c 54bb 6bf1 4fbd 95c6 9b3d
00000190: 5979 ac3d 4d47 ac3d 0ed7 d9bc 34c3 96bd
000001a0: 7021 69bc 320a 5d3d 3322 58bd beaf 303d
000001b0: 50f5 05bc a82c 34bc 39cf 0ebd d3c0 4fbd
000001c0: 727d 603d fc6e e43c 2232 313d 61d1 51bd
000001d0: c6b1 383d 24fb ea3c aeab 743d a6b8 5c3d
000001e0: 0072 593c 81c6 ac3d 8054 983b 2cba 89bc
000001f0: 6042 0d3c bcb0 39bd d252 793d a49d d63c
00000200: 815f a7bd 5a3f 753d a537 823d e0fa d53b
00000210: bfeb aebd f361 9b3d b033 c13c c804 96bd
00000220: 00dc df3b 9c25 bebc 8f75 803d b006 e1bb
00000230: a321 08bd baca 3b3d 2044 b13c 2032 4a3c
00000240: 2195 8ebd bbc9 a9bd 0872 da3c 800f 07ba
00000250: 8473 90bc c088 d9bb e05b 52bc a906 09bd
00000260: 3ef6 413d 6c15 d5bc 3c6a ddbc 52a5 8bbd
00000270: d8a2 923c 38fc c8bc c095 ae3b 4568 2cbd
00000280: 5e77 693d 6c62 cbbc 1107 8a3c f449 ed3c
00000290: 6621 eebc 4033 913b e17f 7fba bfff 3ebd
000002a0: 9eea 35bd ea75 cdbd 5bf7 81bd d004 42be
000002b0: 39d4 98bd 2793 58bd 4595 e9bd c80c abbd
000002c0: 35ed e5bd 55d0 0dbd b21d a0bd 8609 2dbe
000002d0: 6d3c 72bc 6d04 2cbd 29b8 59bd 5c33 ecbd
000002e0: 7b3c e2bd 9ece 97bd 1fe2 30be abe4 dbbd
000002f0: f788 1ebe 8d9b 80bd 7aa1 10bd 93bb f6bc
00000300: 484e abbd 0fbc 70bd fe7e 3dbe 9116 19be
00000310: 24c0 efbc dffe 27be c884 9fbd ce26 2abe
00000320: cd15 c6bd 20a1 fcbd 11c9 26bd ecf8 4cbd
00000330: 3d6a 24bd fb52 4b3c d3db f0bd 405c cdbd
00000340: 18dd 24bd 7584 03be 99c7 2fbd 4a21 3abd
00000350: fc30 0cbe 8e05 a0bc e8f8 3fbb a1b2 b5bd
00000360: 494e 15bd 2527 6fbc 6439 8dbd 66d0 1a3d
00000370: 94d3 09bd ece3 bbbc f82e b3bc 01b0 9a3d
00000380: 8670 30bd 900a d73c ad62 13bd b14e 8a3d
00000390: e8eb 663c e26c 593d 0d6a 57bd e35b 813d
000003a0: faaf 383d ad0c 56bd 72f0 473d ba67 683d
000003b0: 47f7 24bd 5eef 513d a155 87bd 5c13 a5bc
000003c0: 1e74 a6bd c004 c8ba 3463 9cbd 65c5 9f3d
000003d0: c9a9 ae3d 0c4b d63c 9cc9 cabc c065 21bc
000003e0: c01c 7cbd 8ffc 0fbd 280d 02bc 322d 99bd
000003f0: 5ac5 363d 1ead 6b3d 1c20 f0bc 30f7 2e3c
-0.08363057 -0.056063853 0.053728797 0.070271336 -0.07089395 -0.05425862 0.008400373 -0.061487425
-0.061706167 -0.005199909 -0.015020601 0.058707483 -0.08173909 -0.032698557 0.011487335 0.056506924
-0.053802673 -0.0821958 -0.017891936 0.017808244 0.045721494 -0.057669826 -0.08362435 0.017921388
-0.08805638 0.0065899417 0.043320023 0.022706538 0.060518034 -0.0241028 0.024704069 -0.013282359
-0.049947187 0.025590204 -0.29167876 0.036675565 0.06361119 0.0072287396 0.22925355 0.08052888
0.26360044 0.11377175 -0.2594397 0.19823787 0.60723865 0.03561148 0.21098973 0.30436328
0.24860753 0.43405217 0.46942294 0.05207151 0.13956346 0.1951208 0.051308446 0.16826607
0.44383004 0.09236679 0.01313689 0.31161165 0.05149896 0.3358177 0.24622203 0.30752435
0.08616389 0.07788253 -0.0721972 0.20929533 0.36976036 0.21458374 0.28796586 0.42309007
0.26257905 -0.027086422 0.27693757 -0.14460924 0.14286125 0.26456353 0.02626461 0.20791651
0.05178981 0.12734947 0.14002798 -0.024231218 -0.037833724 -0.16133338 0.16050743 -0.069220446
0.0800895 0.16549797 -0.078302085 0.07450674 -0.020438485 0.028396405 0.0077340603 -0.024523273
-0.073690444 -0.0032403544 -0.050767343 0.07606236 0.08421583 0.08412037 -0.026591804 -0.07361451
-0.0142291635 0.0539648 -0.05276699 0.04313635 -0.008176163 -0.010996975 -0.03486559 -0.050721
0.054807134 0.027884953 0.0432607 -0.05122507 0.045091413 0.028684206 0.05973404 0.053887032
0.013271809 0.08436299 0.004648745 -0.016812406 0.008621782 -0.045334563 0.06087 0.026198216
-0.08172513 0.05987487 0.063582696 0.006530151 -0.08541059 0.07587042 0.023584217 -0.07325131
0.006831646 -0.023211293 0.062724225 -0.0068672523 -0.033235203 0.045847632 0.02163893 0.012341052
-0.06962038 -0.0829043 0.026665702 -0.0005152151 -0.017633207 -0.0066386163 -0.0128392875 -0.033453617
0.047353975 -0.026011191 -0.027028196 -0.06818642 0.017899916 -0.02453433 0.00532791 -0.042091627
0.056998603 -0.024827205 0.016849073 0.028965928 -0.02906866 0.0044311583 -0.00097465335 -0.046630617
-0.0444132 -0.10032256 -0.063460074 -0.18947148 -0.07462353 -0.05287471 -0.11405424 -0.08352047
-0.11226884 -0.03462251 -0.07818164 -0.16898164 -0.014784914 -0.04199641 -0.053154144 -0.115332335
-0.11046692 -0.07412456 -0.17273758 -0.10736974 -0.15481935 -0.06279669 -0.035310246 -0.03011874
-0.0836454 -0.058773097 -0.18505475 -0.14950015 -0.029266424 -0.1640582 -0.07788998 -0.16616365
-0.09672127 -0.1233542 -0.040719096 -0.050042078 -0.04014038 0.012409921 -0.11760678 -0.10027361
-0.040249914 -0.12843497 -0.04291496 -0.045441903 -0.13690561 -0.019533899 -0.0029292647 -0.088719614
-0.03645161 -0.014596735 -0.06895712 0.0377964 -0.033649042 -0.02293583 -0.021872982 0.07553101
-0.04307606 0.026250154 -0.035982776 0.067532904 0.01409433 0.053082354 -0.052591372 0.06316354
0.0450897 -0.052258182 0.04881329 0.056739546 -0.040274885 0.05125367 -0.06608129 -0.020150833
-0.08127616 -0.0015260205 -0.07636109 0.07801322 0.08528478 0.026158832 -0.024754338 -0.009850919
-0.061550856 -0.035152968 -0.007937707 -0.074793234 0.044621803 0.057538144 -0.029312186 0.010679051

notes_encoder.bias f4 [64]
00000000: 87c1 06bd 0087 27be 751c 22be a0c5 2d3e
00000010: ceb2 81bd 48e1 28be 2490 44be 9561 043e
00000020: 0e6a 1f3e e0a7 463d 3d65 803d 564d 9e3d
00000030: 5cc5 bbbc 20ca 103e 2f7e b23d 84c5 34be
00000040: 5edc 2ebe ef0c 2cbe 309e 0fbe 287e 143e
00000050: c111 37be c211 18be 92ba f63d 3555 5ebe
00000060: efc3 463e 3301 503e 92f9 473e 40b0 4fbe
00000070: d2a0 963c a8bb d5bd bd7d 923d f17a 0dbe
00000080: 65df 9b3d e7d8 3f3e eb3d 22bd 8f4b f2bd
00000090: e45f c93c cf54 023e ab9a 173e bd8f eebd
000000a0: 0413 49bd 9e4d 59be 05bb 923d 6836 26be
000000b0: 4070 983d e792 8fbd d2c9 243e 5830 0e3e
000000c0: 5bdc 213e 1cb5 2b3e b7bd 303d 2ce0 133e
000000d0: e202 873d 2217 0e3e 18fb 333e 6c78 d7bd
000000e0: 422d 2a3e 0874 89bd f5c2 07be cc02 2b3e
000000f0: 3611 363e 4006 103e 7e40 f1bd 6c4e 55be
-0.032899406 -0.16360092 -0.15831168 0.16969919 -0.063329324 -0.16492188 -0.1919561 0.1292785
0.155678 0.04849994 0.0626931 0.077295944 -0.022921257 0.14139605 0.08715474 -0.17653471
-0.17076251 -0.16801809 -0.14025187 0.1450125 -0.17877866 -0.14850524 0.12047304 -0.21712191
0.1941068 0.20312957 0.19528797 -0.20282078 0.018387232 -0.10436183 0.07152889 -0.1381643
0.076109685 0.18735085 -0.03960983 -0.11830818 0.024581857 0.12727664 0.14805095 -0.1164851
-0.0490904 -0.21221015 0.071645774 -0.16231692 0.07443285 -0.07010441 0.16092613 0.13885629
0.15806715 0.16768306 0.043149676 0.14440984 0.06592347 0.13876012 0.17576253 -0.105210155
0.16618827 -0.06711584 -0.13257964 0.16700286 0.17780003 0.14064884 -0.11779879 -0.20830697

gru.weight_ih_l0 f4 [192, 64]
00000000: 4a0e 4d3d 9842 613e fdd6 723e 68f0 ee39
00000010: b83d ad3c b481 353e 14e1 023e 86f6 ecbb
00000020: 835b 6bbe ba99 74bc 72c6 623d 5a57 c0bc
00000030: cde6 9a3d bb2e 3fbe 0cb6 65bd 20ce 363d
00000040: ca03 563e 029d 223d 824e 3e3e 9f98 ddbd
00000050: 9667 ec3d f156 1b3e 26e1 4abd 927a 2b3e
00000060: e080 62be 5fbc e8bd e6dc 31be dfa0 2a3e
00000070: cf31 12be 28ec 233e de12 3dbd a82b 263d
00000080: 608c 38be bc1a 50bd 9f73 0b3e 3bfd 233e
00000090: 085c 7bbd 48b0 30be a7cb 6cbe 11eb 253d
000000a0: c874 f73d ef6a d23d 977b 083d f5f1 afbd
000000b0: eede e6bb fec1 523d 0719 0abe a6ae 1dbc
000000c0: 460b 493d ac1e 5dbe f9d0 ebbd 07d9 04be
000000d0: 8eeb 543d 7885 32be 57c6 acbd a72c 883d
000000e0: f562 27be 02cc d7bc 562d f13d 04f7 e6bd
000000f0: 7b94 7cbe f92d d1bd c6b5 ca3d d934 1e3d
00000100: 2180 2c3d 696d 68be 1a98 a3bd f01d 243e
00000110: ffda 30be 0997 15be b1e7 2fbd 5e60 343e
00000120: 5558 d6b9 d3ee b4bc c392 5b3c 1eab 813d
00000130: 92b5 a73c 12a7 c53d 2a21 923b d652 d2bd
00000140: 675f d2bb 9bda 343c 230a 223b 5030 113e
00000150: 8b12 52be 02bf 5dbe d9ee e6bc 29eb 4fbd
00000160: fae1 5f3e 05d5 fa3d bd53 003e 833a c0bd
00000170: 9303 243e 8fa8 8ebd f738 383e b3ad f9bd
00000180: 3296 15bd e2fe 033d ba69 16bd 30d4 89bd
00000190: 4229 de3d 9a66 423e 7e48 c83d 29c1 21be
000001a0: 2575 21be 1583 f3bd 9cd1 863d ba59 943c
000001b0: b3d6 2b3e cf67 c53d 57fd dc3d c984 143e
000001c0: 1fa1 233e f6a4 193e 2078 883d f10c 103e
000001d0: 76d0 2bbd dd64 e63d 97e2 023d ba6b 0abe
000001e0: 032a 5b3c 5143 b5bd d065 32bd 1dac 28bb
000001f0: 9cf9 5e3e 34ce b23d 53bd 82bd c58f e9bd
00000200: 49ea 703e 4587 c1bd ece7 47be 3cc1 0f3e
00000210: fb82 1abe f2e4 cb3c 5e0f 88bc 61de 2a3e
00000220: d24c bf3d 4448 533e dd48 fbbd 05aa 233e
00000230: 2a08 14bd 1a52 e4bc ad4c c3ba 7273 34bd
00000240: a207 b4bd 2cff aebc 6b45 0b3d e9a4 0b3e
00000250: 842b ae3c 8dde 43be c2bb d73d a1d1 42be
00000260: 655e e33d c651 513d 780e ef3d f586 d5bd
00000270: 8e62 773d 17d8 f9bc 7761 513e 28ba 39be
00000280: ca4e 203e c6c0 79bc 357c 43bd 7793 10ba
00000290: c7d5 5d3e 9bcf 383d 694a 053e 973f 0fbe
000002a0: c49a 64b7 ba3d 44be ddb6 d53c 99bf fbbd
000002b0: bd5d 1c3d af39 b9bd 3303 213c 3f62 643d
000002c0: 7d55 01be c251 933d c7e5 b03d 165c 483e
000002d0: 8279 353e 9818 eb3d 8aeb 1e3e 5b3b 9cbc
000002e0: 510c 343e a731 aebd b931 033d 87a9 343e
000002f0: f0ec b83d 89e9 843d cc27 5dbd 2df9 17be
00000300: 8646 1b3e fc77 f4bd a877 cebc 62a3 233d
00000310: 5919 5bbe 5708 58bc 8afc 05be 84cb 273e
00000320: 3051 403e d0c6 ba3d d8d4 a2bd 70e3 ff3d
00000330: 225a 5b3e 021a 0d3e 2f18 973c 8893 0dbe
00000340: 0c54 2ebe 351a e9bd 3374 cbbc c298 6d3d
00000350: cacc 47be cf46 55bd 244d be3d c334 f13c
00000360: 3493 b73d b56f fb3b de1f 04bd a297 94bb
00000370: cb9f 003e f661 d3bd 4f47 4e3e 5304 96bd
00000380: 1304 c13d 1f49 443e e83b b9bd 529c bdbc
00000390: b179 643e 3c46 d13d 37ae 2e3e 74e5 38bd
000003a0: 84e5 d7bd 2eb0 11be d563 1b3e 1097 e5bd
000003b0: 52ea 133e b695 aebd b7e2 e63d a98f 173c
000003c0: ed28 0cbe 9677 aa3d bc99 fb3b da7c 423e
000003d0: fddb da3a 69ee d43c e3ae c43c 3422 0ebe
000003e0: d6da eb3d 2059 3ebe d8c8 55be 3aa1 c7bc
000003f0: b27d 00bd 1a3e 2d3e da05 03be a777 82bd
0.050062455 0.2199806 0.23714824 0.00045574014 0.021147594 0.17725259 0.12781173 -0.0072315363
-0.22984128 -0.014929229 0.055365033 -0.023479152 0.07563553 -0.1867017 -0.056081817 0.04463017
0.20899883 0.039700516 0.18584636 -0.10820126 0.11543195 0.15169884 -0.049531125 0.16745976
-0.22119474 -0.11364054 -0.17369422 0.1666293 -0.14276813 0.16008055 -0.04616057 0.040568978
-0.18022299 -0.050806746 0.13618325 0.16014569 -0.061367065 -0.17254746 -0.23124562 0.04050738
0.12082821 0.10274302 0.03332099 -0.085910715 -0.0070456183 0.051454537 -0.1348611 -0.009624159
0.049083017 -0.21593732 -0.11514468 -0.12973414 0.051982455 -0.17433727 -0.08436268 0.06649142
-0.16346343 -0.026342396 0.11776225 -0.11277583 -0.24666016 -0.10213847 0.09897952 0.03862462
0.04211438 -0.22697987 -0.079879954 0.16027045 -0.1727104 -0.14608397 -0.042945568 0.17614886
-0.00040883073 -0.022086537 0.01340169 0.06331466 0.020472322 0.09651007 0.00445952 -0.10269706
-0.0064200643 0.011038448 0.002472528 0.14178586 -0.20514886 -0.21654895 -0.028190063 -0.050761376
0.21863547 0.122476615 0.12531944 -0.0938616 0.16016988 -0.06965744 0.1799048 -0.121913336
-0.03652019 0.032225497 -0.036721922 -0.06729925 0.10847713 0.18984452 0.09779452 -0.15796341
-0.15767343 -0.11890236 0.065829486 0.018109191 0.1678112 0.096389405 0.10790508 0.14503779
0.15979432 0.15004334 0.06663537 0.14067437 -0.04194685 0.11249707 0.031954374 -0.13517657
0.013376716 -0.0885073 -0.043554127 -0.0025737353 0.21774906 0.087307364 -0.06383767 -0.11404375
0.23526873 -0.09449629 -0.19522065 0.14038557 -0.15089028 0.024889443 -0.01660889 0.16686393
0.09340824 0.20633036 -0.12269757 0.15982826 -0.0361406 -0.02787118 -0.001490017 -0.04405541
-0.08790518 -0.02136191 0.03400175 0.13637127 0.021260984 -0.19127865 0.10533859 -0.1902528
0.11101989 0.051103376 0.116726816 -0.10426132 0.060396723 -0.030498547 0.20447336 -0.18137419
0.15655056 -0.015243715 -0.047725875 -0.0005515138 0.21663581 0.045119863 0.13016666 -0.13989101
-1.3625893e-05 -0.19164172 0.026088173 -0.12292404 0.038175333 -0.090442054 0.009827423 0.055757757
-0.12630267 0.071933284 0.086375766 0.19566378 0.17722133 0.114793 0.15519539 -0.019071272
0.17582823 -0.08505564 0.03202984 0.17642795 0.09029567 0.06489856 -0.05399303 -0.14841147
0.15163621 -0.11936948 -0.02520354 0.039950736 -0.21396388 -0.013185582 -0.13084617 0.16386229
0.1878097 0.09119952 -0.07950753 0.12494552 0.21421102 0.13779452 0.018444149 -0.1382581
-0.17024249 -0.11381952 -0.024835682 0.05800701 -0.19511715 -0.05206948 0.09292057 0.029444104
0.08963624 0.0076732286 -0.032256953 -0.0045346776 0.12560956 -0.10321419 0.2014439 -0.073250435
0.09424605 0.19168518 -0.09044629 -0.023145828 0.22312047 0.10218474 0.17058645 -0.0451407
-0.105418235 -0.14227363 0.15174802 -0.112104535 0.14444855 -0.08524649 0.11273711 0.00925056
-0.13687487 0.083235905 0.0076782387 0.1899294 0.0016697642 0.02599259 0.024009174 -0.13880235
0.11516349 -0.18588686 -0.20877397 -0.024368871 -0.031369872 0.16918221 -0.12795201 -0.06370478

gru.weight_hh_l0 f4 [192, 64]
00000000: d546 093d 2510 39bd 0b6f 0dbe 53a5 4e3e
00000010: e1e0 963d 8704 13be 4a1a bbbd 689a 1f3e
00000020: 288b 7d3e 9836 47bd 2a9c a4bd 78cd fe3d
00000030: aa31 77b9 9f41 67be c38c 903c 12ef 80bd
00000040: 95b6 763d d40c 6a3e 1ce7 d9bd 1054 dfbc
00000050: 11f4 1d3e 811d 2bbe f7c0 29be 1bce 34be
00000060: eed1 e23b 476b 2c3e 8c42 2dbe c9e6 c73d
00000070: d1cb 773c fb79 513e ee8c 24be 0206 43be
00000080: b515 143c 6ab8 6d3e 3f8c 68bd 5030 04bd
00000090: 72c1 3cbe 27fd 243e c7fe 83bb 9dd1 173e
000000a0: d8e7 aa3d 0a5a 15be 7571 8e3d b6c2 17be
000000b0: d7ac 2a3e 3094 953d 6c4b bebd 738e adbd
000000c0: 4ccc 04bc 9fb9 2f3e 383f 63be 5f55 1f3e
000000d0: 2059 fe3d 27e5 6d3d e5fd 8cbd 3787 473e
000000e0: 2616 f639 5ddd 8abd 7e88 143e fc09 b63c
000000f0: 43b0 c8bd 00c8 dbbd b70c 89bd 241b 0bbe
00000100: d890 2cbd 3571 363d 6058 8e3d 227d c7bd
00000110: bd67 873c a7ad ce3d 021a 583e de16 e4bc
00000120: 37cd 69bd c37f 1e3e dc51 9c3d f24a c3bd
00000130: d853 bf3d 1672 c63d 3522 18be e226 983d
00000140: 34b4 e63a 4f36 2cbe 3548 3a3d 3cd2 2abe
00000150: 6e4a 9cbd 9ba9 633e 5cd3 323e 974f 5c3d
00000160: 8c23 8ebc a726 06be b376 a23d 495c 7ebd
00000170: 115d e8bd 56bb bbbd 4379 22bd 7494 063e
00000180: 4aad 19be 46f2 90bd 8394 b33c f792 503e
00000190: 0ba7 553e 911f e8bd 54a3 37be 2a87 0e3b
000001a0: db51 63be a8cd dabb 1810 51be c549 413e
000001b0: 2bdb 26bd b3d5 a0bd 7878 263e 2b25 893d
000001c0: de1d 63bd f1dd b0bd 9084 2fbd ba12 e0bd
000001d0: 14c6 9abc 01e9 d33c 76d5 1d3e 16e7 c3b9
000001e0: 9ce5 1dbe 0e9e 02be f50c 36be 51bb 763d
000001f0: b3d0 523d 77a9 513e 080b afba c814 453e
00000200: 4fcf 8abe d089 bf3d 9186 d9bd 5773 503c
00000210: c259 3fbe 07e9 283e f7c7 30bc dd4d eebc
00000220: 922a 6abe ea78 b03d c028 a43d a73e 113e
00000230: 4164 5a3e 8aae ddbb 485c 76be ea98 2c3e
00000240: aac9 e6bd 894b 2ebe 0347 e83d 5119 b2bc
00000250: 189b b5bc c46b 803d 40de 0d3e d7a7 793d
00000260: dc5e 58be 3d44 6fbe 91e5 9c3d dee8 ccbd
00000270: e3ee 44be 951b f8bd 95a9 623e 649f f53d
00000280: cdce b7bd 383c 67be e9ee be3d 7381 aebc
00000290: c115 593e 9766 2cbe 054b 23be ecfa 90bb
000002a0: 2433 64bd 40e2 513d e94f cbbd 7c95 9c3d
000002b0: 270c 01bd ecc2 77bd 311e 4b3e fa36 4f3d
000002c0: fa28 393e cc0d 8f3c ea33 0b3e c36d 65be
000002d0: 4b8f c5bd 4f16 d9bd 80f4 41bc 5e1a e9bd
000002e0: e706 0bbe e4b6 593e f85b 0fbe d255 c2bc
000002f0: f204 6b3d 3288 47bc 76d7 7a3e a3f3 913d
00000300: 5a69 0ebe 890d c63d 2eeb 13be 9919 26be
00000310: 3253 403c eea8 0e3e aba6 303e 8d8f 9f3c
00000320: 7559 ffbb 4a88 88bc 0668 3c3c 00a5 a5bb
00000330: 39e7 4e3e f771 7dbc d71e 06be dd4c 3c3e
00000340: 33b7 12bd 3a58 a83c 02d0 283e 7dc0 46be
00000350: f0d8 25bb a08e 3e3e ef0e 443d e8d3 133e
00000360: ef40 0e3d d67a 2fbc 9c86 983d 079b 81bd
00000370: 3b21 28bb 408a 07bd 2535 9b3d a394 c83d
00000380: 4205 1fbe e720 2d3c e458 313e 3b6a 18bc
00000390: d1c3 513e e1a0 13bc 8c02 39bd 8d77 48be
000003a0: 5870 12be dbdd 213e 843b ccbd 9b05 133e
000003b0: 74e0 15be 6828 3dbe ee27 e8bc 0108 743d
000003c0: 7d2a a93d 1548 b8bd 4d56 0d3e 891b 7a3b
000003d0: ceb9 3cbe f1b1 73be 6adc 493d 64a4 40bd
000003e0: 781c c1bd fc07 ae3d f742 a3bd b085 c5bd
000003f0: d6aa c73d e85f 393e 4851 033e 0f85 a43c
0.033514816 -0.045181412 -0.13811891 0.20180254 0.07367111 -0.14357196 -0.091358736 0.15586245
0.24760115 -0.04863605 -0.080375984 0.12441534 -0.00023574257 -0.22583626 0.017645245 -0.06295599
0.060232718 0.22856456 -0.10639784 -0.027261764 0.15425135 -0.16710474 -0.16577516 -0.17656748
0.006921998 0.16837798 -0.16919917 0.09760816 0.015124277 0.20456688 -0.16069385 -0.1904526
0.0090383785 0.2321488 -0.056774374 -0.032272637 -0.18433169 0.16112195 -0.0040281746 0.14826055
0.08345002 -0.14585128 0.06955234 -0.1482037 0.16667496 0.07303655 -0.09291729 -0.08474436
-0.008105349 0.17160653 -0.22192085 0.1555991 0.12419343 0.058079865 -0.06884364 0.19485174
0.00046937278 -0.06780503 0.14505193 0.022221558 -0.09799244 -0.10731506 -0.06691878 -0.13584572
-0.04213032 0.044541556 0.0695045 -0.09740664 0.016528958 0.10091715 0.21103671 -0.027842935
-0.057080474 0.15478425 0.07632801 -0.09535779 0.09342164 0.09689729 -0.14856799 0.07429291
0.0017601312 -0.16817592 0.04547902 -0.1668176 -0.07631384 0.22232668 0.1746344 0.05378684
-0.017350934 -0.13100682 0.07932796 -0.06209973 -0.11345876 -0.09166591 -0.039666425 0.13142568
-0.15007511 -0.0707746 0.021921402 0.20368563 0.20864503 -0.11334146 -0.17933398 0.0021748045
-0.22199194 -0.006677348 -0.20416296 0.18875797 -0.04073636 -0.0785326 0.16256893 0.06696542
-0.055448405 -0.08636082 -0.04285103 -0.10941072 -0.01889328 0.02586794 0.1541346 -0.0003736547
-0.1541962 -0.12755606 -0.1777838 0.060237233 0.051468562 0.20474802 -0.0013354728 0.19246209
-0.2711129 0.093524575 -0.1062137 0.012722812 -0.18686584 0.16495143 -0.010789863 -0.029089862
-0.22867802 0.086168125 0.08015585 0.14184056 0.21327306 -0.0067651914 -0.2405864 0.16855207
-0.11268933 -0.17021002 0.113416694 -0.021740587 -0.022168681 0.06270555 0.13854313 0.06095108
-0.21129936 -0.23365875 0.07660974 -0.100053534 -0.19231753 -0.12114636 0.22135003 0.11993292
-0.08974991 -0.22581565 0.09322912 -0.02130196 0.21199705 -0.1683601 -0.15946586 -0.0044244435
-0.055712834 0.05124116 -0.09927351 0.076456994 -0.03150573 -0.060488626 0.19835736 0.05058954
0.18082038 0.017462634 0.13594022 -0.22405152 -0.096464716 -0.10599958 -0.0118380785 -0.11381982
-0.13576852 0.21261173 -0.13999927 -0.023722563 0.057377763 -0.012178468 0.24496254 0.07126548
-0.13907376 0.096705504 -0.14445183 -0.16220702 0.011738585 0.13931629 0.17251079 0.01947763
-0.0077926465 -0.01666655 0.0114994105 -0.00505507 0.20205392 -0.015469066 -0.13097702 0.18388696
-0.035819244 0.020549882 0.16485599 -0.19409366 -0.0025306307 0.18609095 0.047865804 0.14436305
0.034729894 -0.010710439 0.0744755 -0.06328397 -0.0025654573 -0.03309083 0.07578496 0.09793975
-0.1552935 0.010566927 0.17319065 -0.009302671 0.20484854 -0.0090105245 -0.045168445 -0.19576855
-0.14300668 0.15807287 -0.09972289 0.14357607 -0.14636403 -0.18472445 -0.028339352 0.059577946
0.08260057 -0.089981236 0.13802452 0.0038163385 -0.18430254 -0.23798348 0.04928247 -0.047031775
-0.09429258 0.08497617 -0.07971757 -0.096446395 0.09749381 0.18102992 0.12823975 0.020082979

gru.bias_ih_l0 f4 [192]
00000000: 7dbc 4bbe 777f 163e 8e06 0ebd 14f3 253e
00000010: afce 6f3c 4a97 c03d c618 9c3d dee0 a83d
00000020: 4402 9e3d 0e95 f33d 6f28 903d 1243 fdbd
00000030: 8119 043e 9ea9 583e e1e2 de3d a45d 143e
00000040: cdde 3b3e c8dc 8b3d 2b2d 8abd 3953 1d3e
00000050: 87b4 293d cbce f33d 510e 1f3e 925b 113e
00000060: bbc8 c33d 2440 3c3d 27cf 09bd b552 303c
00000070: c2be 3d3e 4e4e ad3b 9529 223d 69ae 893d
00000080: bb99 363e d5ff d73d e834 1d3e ec2b 64bd
00000090: f628 da3d 78c5 443d 8268 f43d 5940 723e
000000a0: fc04 373e 5767 b63c b63f 7e3d 22cd c3bc
000000b0: ab0b 703d a854 0fbc 61d5 13bd 1f74 00bd
000000c0: d69e e9bc d3a1 403d 53b4 df3d 5f1f 6c3e
000000d0: 3dd6 233e ad86 013d 340b 123e 3046 933d
000000e0: 1ab6 c7bc 71ec 1fbe ab56 3a3e db33 133c
000000f0: 8bc5 b83d 4218 8c3b e07c ff3d 48c5 c0bc
00000100: 03b7 46be dd0c 2a3d 7fb3 bf3e c2d5 393e
00000110: 140c e5bd e8eb 0bbe c915 f53b 68ce cebc
00000120: 3626 c53d 5e8a 91be 7500 96bd fdfa e6bd
00000130: 26fc 85be 7164 2ebe 891f 68bd 8ba0 1ebe
00000140: e521 493d c2ba c8bd 5ca9 bbbc eb1b 97bd
00000150: e26a 233e ef16 ab3c ddae c9bb 6918 11be
00000160: ca4c b4bc 492b 82bd 0e52 b7ba c103 e13d
00000170: 1e15 01bc eb68 9c3c d77b 38bd 9c9e 76be
00000180: 1160 073e 5ec3 c4bc 95e3 6c3e f200 38be
00000190: c402 2dbe ff88 33be 51a5 dd3c a204 863e
000001a0: 3f78 dfbd 3ccd f53d d276 593d 76aa 633d
000001b0: e989 e93c bfad 0fbd 675e c8bc c29b 203d
000001c0: 35fd 4cbe 6042 9a3d c5d7 153e 6c94 96bd
000001d0: 6560 2ebe acc0 883d 3f74 933d 540b 42bd
000001e0: b3b5 91bd 2d30 0cbc 8087 063e 90d9 513e
000001f0: f8d8 30be 2888 42bd d107 bebd 244e b53d
00000200: a921 e2bd c2c7 e03d 4e9e 943c fde6 07be
00000210: cda2 2cbe dac6 143e 77d7 e13d 4a28 54be
00000220: 122b 27be 237c 2e3e b268 643e e04a 65bc
00000230: bb41 1f3e a681 123e f281 2bbe 4d7a 1b3e
00000240: e7c7 29be 4865 23be 690c 9b3c efe9 343c
00000250: ee2d 32be aae0 293e 87af 483e 0fe8 3c3e
00000260: 6b2d 09be 1c00 fa3c df49 0d3e 8068 5fbe
00000270: b9ad 42be d328 0bbe 97f8 263e 18c8 4d3e
00000280: 69b9 83be 160a 74be b1a8 39bc 2edf 4e3e
00000290: 2f2b 1c3e 8e71 19be a104 17be 4455 11bd
000002a0: a70b 45be 52cd ad3d 23b1 55bc 8c75 383e
000002b0: 7851 12be 009b 2bbe 2f14 6d3e 1227 273d
000002c0: 8d7b df3d f7f8 fcbc baa1 0b3e d45b f7bd
000002d0: 4df4 69be 70ef 8fbd 5aaa 363e 5990 60be
000002e0: 677f 02be c2df ee3d 57ba fbbd 84ed 5fbd
000002f0: aaf5 cd3d e369 5e3e 291c 3f3e 953e 633e
-0.19896121 0.14697061 -0.03467422 0.16206008 0.01463668 0.09403856 0.07621913 0.08246015
0.07715276 0.11893664 0.07038962 -0.12366308 0.12900354 0.21158454 0.108831175 0.14488846
0.1834671 0.0682922 -0.06746896 0.15363778 0.04143193 0.11904677 0.15532805 0.14195088
0.09559771 0.045959607 -0.03364482 0.010761906 0.185298 0.0052888757 0.039590437 0.06722719
0.17832081 0.10546843 0.15352213 -0.05570595 0.10652344 0.048039883 0.11933996 0.23657359
0.17872995 0.022266073 0.06207248 -0.023901526 0.058604877 -0.008748211 -0.036092166 -0.03136074
-0.028518122 0.047029328 0.10923066 0.23058842 0.15999694 0.031622577 0.14262086 0.071911216
-0.024378825 -0.15617539 0.18197124 0.008984531 0.09022053 0.0042753527 0.1247499 -0.023531571
-0.19405751 0.041516174 0.37441632 0.18147948 -0.11183944 -0.1366421 0.0074794036 -0.025244907
0.09626429 -0.28425878 -0.07324306 -0.11278341 -0.26168936 -0.17030503 -0.0566707 -0.1549093
0.04910459 -0.09801246 -0.022907905 -0.07378372 0.15958741 0.020884959 -0.0061548785 -0.14169468
-0.022009272 -0.06355912 -0.0013986246 0.10987044 -0.00787857 0.019092998 -0.045039978 -0.24083942
0.1322024 -0.02401894 0.2313369 -0.1796911 -0.16895586 -0.17532729 0.027056368 0.2617541
-0.10911607 0.12002036 0.05309183 0.055582486 0.028508143 -0.035077807 -0.024459077 0.039211042
-0.20018466 0.07532191 0.14633091 -0.07352528 -0.17028959 0.06677374 0.071999066 -0.047374085
-0.071147345 -0.008556408 0.13137627 0.2049315 -0.17270267 -0.04749313 -0.092788346 0.08852795
-0.110415764 0.10975601 0.018141892 -0.13271709 -0.16858979 0.14528981 0.11027425 -0.20718494
-0.16325024 0.17039542 0.22305563 -0.013994902 0.15552418 0.1430727 -0.16748789 0.15183373
-0.16580163 -0.15956604 0.018926816 0.011042102 -0.17400333 0.16589609 0.19598208 0.18447898
-0.13396232 0.03051763 0.13797711 -0.21817207 -0.19011582 -0.13589792 0.16305767 0.20095861
-0.25727394 -0.23831972 -0.011331723 0.20202324 0.15250848 -0.14984724 -0.1474786 -0.035481706
-0.19242726 0.08486427 -0.013042721 0.1801359 -0.1428889 -0.16758347 0.2315223 0.040808745
0.10912237 -0.030880434 0.13635913 -0.12078062 -0.228471 -0.07028091 0.17838421 -0.21930064
-0.12743913 0.11663772 -0.12291401 -0.054669872 0.10056622 0.2172008 0.18663086 0.22191842

gru.bias_hh_l0 f4 [192]
00000000: 1e45 fcbd 90be 513e 6856 c13c 3b3d 6abb
00000010: 4c09 083e 963a 483e 81b1 a63d 59ea b93d
00000020: f09b 493e 106b ce3d db34 553d 5b9f 06bd
00000030: a485 0f3e 4cb0 693d d46b 1f3e e1fc 623d
00000040: b1b8 4e3e 3913 c03d 9a8a 2bbe 1b17 233e
00000050: 5182 e2bd 7c20 823d c551 ac3b 555d 363e
00000060: 8e78 053e b8c6 633d ebaf 363e 2685 553d
00000070: 76e5 d73c 102a 083e e575 3bbb a84d 173e
00000080: db0d 6abc 23d1 693e 81ad 4c3d 6143 f73b
00000090: 6fdb 573e e34a 403e 6981 053e 2481 f13d
000000a0: 6d93 d43d e8f4 253e 6a3f f83c e6fa 8e3d
000000b0: b6b9 383e 7c6f 7d3c d3f8 453a bb83 b6bc
000000c0: cb3d 75bd 4716 d4bb b555 3b3e 48b1 f93c
000000d0: 590e b73d 0bcc cc3c 90b2 073e 023c 3a3e
000000e0: 9944 32bc 00a9 febd 3fbd ae3d 7c7d 3abd
000000f0: a1e3 153e beef ed3d b7c0 39bd f879 b33c
00000100: db9d 8e3b e8d6 d1bd c5ac ea3e 2b41 a93e
00000110: 935c 1a3d 367d 0bbe 3be0 3bbe 1194 84be
00000120: 0e69 b83d 13de 30be 3d1a 3fbe d3a3 2dbd
00000130: 3fb7 70be 040e a6bd 3d38 2fbe 4135 3dbd
00000140: 9dab 8cbd 9d96 07be 16ca 69be b510 4cbe
00000150: 8677 483e 1276 49bd ded9 b1bc 6fd3 79bd
00000160: 2ebd 0abe adb0 38be 7218 9fbc 13bc 11bd
00000170: 9d0b ffbd 1084 e83d 5bf2 093e dfa5 86be
00000180: c13d 933d d963 123d b72a 203e c274 e6ba
00000190: 7371 f5bd 06c2 01be 72c3 04be daf8 bb3e
000001a0: fe21 15be 60ea cc3c 1258 673d 526d 69bd
000001b0: 654f 1abe 0333 6bbd c9b4 acbd 526d 433d
000001c0: f774 58bd 071f fcbc 1963 533e 7c78 45bc
000001d0: 47c5 49bd 32a1 2ebe 1ccc 62bc a84a db3a
000001e0: ccd5 13be e7d1 f5bd 7b99 7cbb 84c6 2a3e
000001f0: cafa 9dbc 3d82 203e 5eea f93c 739f bd3d
00000200: 4d28 32be 469f 523e 7ad1 d1bd f86e cfbb
00000210: 67e4 5fbe 4947 6d3e ba4e 393e b839 28bd
00000220: 56ed 59be 023e 733e 197d 133e 182f 87bc
00000230: 6c1c 683e ef79 3a3e 50a9 4fbd c6be 4c3e
00000240: 7eab 1ebe e912 19bd a845 d13d 9dec d1bd
00000250: 94f7 0cbe 063a 0b3e 1fef 473e 7c4b 9d3c
00000260: 6938 0ebe 7b40 0ebe 5b3e 3e3e 0910 10be
00000270: 3d0c 0fbe ac4c 43be c29c 103c 76d5 b03d
00000280: 72d8 8bbc e2bb 60be 4a9d 8cbd 5cd8 883c
00000290: d194 1b3e 2772 f9bd b297 06bd 2137 acbd
000002a0: 4e73 b2ba 44d6 3a3e ec1b e1bd 873b 043e
000002b0: 1699 23be 6466 3dbe aed2 ca3d 0449 fe3d
000002c0: 008c 963b f4d2 09be ecb2 12bd f52d 76be
000002d0: be5f 19be deda 19be 686c b93d 1cfc 90bb
000002e0: 5626 cdbd 5f6d 38bb 23b7 0bbe 4f42 bc3d
000002f0: c971 6b3e 8286 5a3d 90c1 193e accb 3a3c
-0.123178706 0.2048285 0.023600772 -0.0035742063 0.13284796 0.19553599 0.08139325 0.090779014
0.19688392 0.10079014 0.05205236 -0.032866817 0.14015824 0.057052895 0.15568477 0.055416945
0.20187642 0.093786664 -0.16752091 0.15926783 -0.11060012 0.06353852 0.005258771 0.17809041
0.13034269 0.055609435 0.17840545 0.052128933 0.026354533 0.13297296 -0.0028604206 0.14775717
-0.01428553 0.22833686 0.049970154 0.007545874 0.21079801 0.18778567 0.13037647 0.1179221
0.10379682 0.16206706 0.030303676 0.06981449 0.18039593 0.0154684745 0.00075520313 -0.02227961
-0.059873383 -0.006472382 0.18294413 0.030480042 0.089382835 0.024999639 0.1325171 0.18186954
-0.010880613 -0.12434578 0.085321896 -0.045529827 0.14637615 0.11617993 -0.045349803 0.021908745
0.004352314 -0.10246068 0.45834938 0.33057532 0.037685942 -0.13621983 -0.18347256 -0.25894216
0.090044126 -0.17272215 -0.18662353 -0.042392563 -0.23507403 -0.08108142 -0.17111297 -0.046193365
-0.0686867 -0.13241048 -0.22830996 -0.19928248 0.19576845 -0.049184866 -0.021710332 -0.060992654
-0.13548729 -0.18036146 -0.019420836 -0.035579752 -0.12453387 0.11353314 0.13471358 -0.26298425
0.07189513 0.035739753 0.15641294 -0.0017582404 -0.11984529 -0.1267167 -0.12965181 0.36713296
-0.14563748 0.025014102 0.056480475 -0.05698902 -0.15069349 -0.057421695 -0.084329195 0.047711678
-0.05284592 -0.030776514 0.20643272 -0.0120526515 -0.049260404 -0.17053679 -0.013842609 0.0016730623
-0.14437026 -0.12002926 -0.003854363 0.1667729 -0.019284625 0.15674682 0.030507263 0.09258928
-0.17398186 0.2056857 -0.102450326 -0.006330367 -0.21864472 0.23171724 0.18096438 -0.04107067
-0.21281943 0.23754123 0.1440319 -0.016501948 0.22667092 0.18210576 -0.05069858 0.1999465
-0.15495107 -0.03737155 0.10218364 -0.102502085 -0.13766319 0.13596353 0.19524811 0.019201033
-0.13888706 -0.13891785 0.18578474 -0.14068617 -0.13969512 -0.19072217 0.0088264365 0.086344644
-0.017070983 -0.21946672 -0.06865938 0.01670473 0.15193488 -0.12179976 -0.03285951 -0.084089525
-0.0013614686 0.18245798 -0.10991654 0.12913333 -0.15976366 -0.1849609 0.09903465 0.124162704
0.004594326 -0.13459378 -0.035815164 -0.24040969 -0.14977929 -0.15024897 0.0905388 -0.004424585
-0.100170776 -0.0028141362 -0.1364408 0.09192335 0.22992624 0.053350933 0.15015244 0.011401098

notes_decoder.weight f4 [128, 64]
00000000: 6a04 8a3d d751 c3bd c9df 1f3e cef0 383e
00000010: 6bfe 3d3e 3c7e 6abd 2e2c 42bd 5a53 9b3d
00000020: 81dc 103e e4db 45be 3924 8cbe dbc0 903c
00000030: 9fdd abbd 38f8 90be 0850 5c3d d9d3 5dbe
00000040: 42e1 6e3e 5ff1 9b3d 5637 873d b3c5 2d3d
00000050: e60a 953e 2b75 3bbe 360f 8ebe cdc9 2abe
00000060: 3854 913e ab5f 493e 73b7 40be a3de 443e
00000070: f3a8 263e 7eb5 043e f742 37be 2511 02be
00000080: 78e9 193e bfa5 133e 9064 91bd 95f8 86be
00000090: d353 3ebe 9eba 463e f977 1c3e 2ce9 633e
000000a0: 6f5e c83d 6471 46be de2e 0d3e eed4 77be
000000b0: cff1 513d b7b4 8f3e 8d5b 30be c18a 58be
000000c0: 43d6 f13c 3b0f 363e 0dca f6bd 69bb 653e
000000d0: 2478 123e fd22 023e 34c7 41be e298 fe3d
000000e0: d7c5 7d3e 0520 01be 1cb8 0e3e 35bb b53d
000000f0: 5053 e7bd 2940 febd 8d04 e6bd e180 8abd
00000100: 3c92 483d 8fe8 82bd b4e9 203d 9d2a 493e
00000110: aa3c f93d 26c8 8ebe a9f1 e2bd 9d02 163e
00000120: 3070 2d3e 1937 86be 6705 1fbe de27 e43d
00000130: 41ad b0bd b82d 97bd b649 8d3e ebc4 22be
00000140: fda5 953e 2a75 8b3e dc3e f2bc 607b 143e
00000150: f02d 493e 4bec f9bd ba19 cbbd b4f5 5dbe
00000160: f559 ba3d 5011 653e 6aab 4ebe 1368 3f3e
00000170: 3372 943e 8229 083e 7116 20be e4c3 46be
00000180: 926d 1a3e c7df 073e bbaa 22bd 60f7 28be
00000190: e521 51be 8253 5a3e f3b1 0a3e d319 3b3e
000001a0: 0886 393e e109 5cbe c166 533d a2e9 aabd
000001b0: 66c2 8e3e ef1f cb3d 61b2 51be 8f19 69bd
000001c0: 09b2 8e3c ac35 bb3d 5190 1abe 068c 2b3e
000001d0: 11a9 2a3e e325 4c3e 6e82 5abe e4fc 213e
000001e0: efac 923e 26cb 203b 4bf3 6b3e dcb4 073d
000001f0: 0443 84be 35c5 84bd f63c 0fbe 5288 05be
00000200: 4a67 0fbd 928d 54be bf47 343e 14ab 753e
00000210: d6d5 843e 8600 bbbd 082e 96bd e3ed 583e
00000220: 47ad 983e 0ec6 9bbd 5561 2abe d27a 9abd
00000230: ae78 89be ddea 89be 2bfe 133e e649 eabd
00000240: 6baa bb3d 0ec6 b23d 55dc 9b3c 9ee1 c83c
00000250: 33e4 5b3e 5d6a dcbd f1a8 2cbe 3a8c 77be
00000260: 3cbb 8d3e b6f2 5e3e b63e 4dbe 5bdf 6e3e
00000270: 48fe 733e 9150 493e 2aea 31be b2c5 42be
00000280: b457 b93d 2aa1 c33d 7eda 3fbe fbdb 5ebe
00000290: 3764 52be ba78 2b3e a503 223e 2dc3 2f3e
000002a0: c379 4f3e fc83 5cbd 48b9 7a3d 855f e4bd
000002b0: 6262 903e 6b10 3e3e 5251 82be 09b3 61bd
000002c0: d07c ed3d 9ac0 013e b5f3 52be 0986 1d3e
000002d0: 813f 803e 3479 4b3e 140c c6bd cc9a 083e
000002e0: 63a7 2e3e f14a 0dbd b60f b33d 2581 153e
000002f0: 4862 0fbd 217d 91bd 8435 c1bd bd23 30be
00000300: bc61 3c3d d758 2bbe cea5 6a3e 54a5 c93d
00000310: b19f bc3d 395c 14be cccd 9ebd 95ba a53d
00000320: 5d72 7e3e cd7b 01be ca7d 6abe 35bf 583d
00000330: 9094 80be cb61 85bd 36ed 8b3e 016f 13be
00000340: 447a 0c3e 1c03 a33d 6f12 933d df1d 713e
00000350: 6c4c 033e 2750 f0bd ca1b 8fbe edb2 a5bd
00000360: 7b8a 673e f5f9 643e da03 57bd b63c 973e
00000370: d5f9 bd3d c785 873e 4686 3fbe 53c7 94be
00000380: 7bc6 653e 80bc 903e 6339 b9bd 2856 7fbe
00000390: caea 96bd 7780 3a3e dc3f 8e3e 9032 273e
000003a0: 2e79 803e a5d3 03be 18ee c2bb 1f26 f5bd
000003b0: 733e 4c3e a5d1 eb3d 01ce 91be 39fc 28be
000003c0: 8502 79bd 68e7 af3d 05b6 5bbe 2a4c 743d
000003d0: 5080 613d 1b64 053e 9bfb 9bbd 8e66 433e
000003e0: bcdc 143e 689b 0c3d 9e4f 8b3e 306e 3fbc
000003f0: 08ed 05be efb8 e2bd bb18 fcbc b1b3 96be
0.06739123 -0.09537094 0.15612711 0.1806061 0.18554084 -0.057249293 -0.047405414 0.075842574
0.14146616 -0.19322163 -0.27371386 0.017670086 -0.0839188 -0.28314376 0.05378726 -0.21662845
0.23328117 0.07614397 0.06602351 0.04242487 0.29109877 -0.18306415 -0.2774598 -0.16678543
0.28384566 0.196654 -0.1881998 0.19225554 0.16275387 0.12959859 -0.17896639 -0.12701853
0.15030468 0.14418696 -0.07099259 -0.26361528 -0.18586664 0.19407126 0.15280141 0.22256917
0.09783637 -0.19379193 0.1378741 -0.2420232 0.051255997 0.28067562 -0.17222424 -0.2114668
0.029521113 0.17779247 -0.12050257 0.22434773 0.14303643 0.1270866 -0.18923646 0.12431504
0.24782501 -0.1260987 0.1393742 0.088735975 -0.112951875 -0.12414581 -0.11231337 -0.06762863
0.048967585 -0.06392013 0.039285377 0.19645162 0.12169774 -0.27887076 -0.11081249 0.14649434
0.16937327 -0.2621391 -0.15529405 0.111404166 -0.086267956 -0.07381767 0.275953 -0.1589543
0.29228202 0.27237827 -0.02957099 0.14500189 0.1964643 -0.122032724 -0.09917016 -0.2167576
0.09099189 0.22369885 -0.20182577 0.18692045 0.28993377 0.13297084 -0.1563356 -0.19410664
0.1508086 0.13268958 -0.039713603 -0.16500616 -0.20423086 0.21320918 0.13544445 0.1827157
0.18117535 -0.21488144 0.051611666 -0.08345343 0.2788269 0.099182 -0.20478202 -0.05690914
0.017418878 0.091410965 -0.15094115 0.16752633 0.16666056 0.19936328 -0.21338817 0.15819126
0.28647563 0.0024535148 0.23042028 0.033131465 -0.2583238 -0.06482927 -0.13988099 -0.13040283
-0.035010614 -0.2075713 0.17605494 0.23991042 0.25944394 -0.09130959 -0.073329985 0.21184497
0.298197 -0.07606135 -0.16638692 -0.07542957 -0.26849884 -0.26937 0.14452426 -0.11439876
0.09163364 0.08729182 0.019025961 0.024521645 0.2147377 -0.10762475 -0.16861321 -0.24174586
0.2768191 0.21772274 -0.20043454 0.23327391 0.2382747 0.1965964 -0.17374483 -0.19020727
0.09049931 0.09552224 -0.18735692 -0.21763603 -0.20546041 0.16745272 0.15821703 0.17164297
0.20261292 -0.053836808 0.061211854 -0.111510314 0.2820006 0.1856095 -0.25452667 -0.05510238
0.11596072 0.12671128 -0.2060078 0.15383162 0.2504845 0.19870454 -0.096702725 0.133403
0.1705604 -0.034495298 0.08743231 0.14600046 -0.035005838 -0.071039446 -0.094340354 -0.17201133
0.045991644 -0.16733108 0.22914812 0.09845987 0.09210146 -0.14488305 -0.077540964 0.08092228
0.24848314 -0.12644883 -0.22899547 0.052916724 -0.25113344 -0.06512793 0.27329415 -0.14397813
0.13718516 0.079595774 0.0718125 0.23546551 0.12822121 -0.11734038 -0.2795089 -0.08090768
0.2261142 0.22360976 -0.052493908 0.29538506 0.09276167 0.26469252 -0.18703565 -0.29058322
0.22438996 0.28268814 -0.09044149 -0.2493521 -0.07369001 0.18213068 0.27783096 0.16327882
0.25092453 -0.12873705 -0.005948793 -0.11970162 0.19945697 0.11514596 -0.2847748 -0.16502465
-0.06079342 0.08589059 -0.21456154 0.05964295 0.05505401 0.13026468 -0.07616349 0.1908209
0.14537328 0.034327894 0.2720918 -0.011683986 -0.13078701 -0.110704295 -0.030773511 -0.2943397

notes_decoder.bias f4 [128]
00000000: 6f83 00bd f0ea 37be a12b 10be e19a 76be
00000010: 34c1 10be b94b 13be c3fd 4dbe 6f29 34be
00000020: cb5a 71be c609 80be f2fe 19be e027 66bd
00000030: a572 44bd 2b1c 3dbe bb08 6abd 459a 62be
00000040: 6899 35bd 540a 4ebe 4701 61bd f4ed a5bd
00000050: 3eb5 21be 1517 ffbd 81ba 6cbd 29f6 0abe
00000060: 6820 9fbd 6e86 47be b182 a6bd 45ca b0bd
00000070: 5338 c8bd 949c 08bd bf73 2cbe 5441 51be
00000080: 4eea 42be 23fe f7bd 1066 9cbd 10bb 15bd
00000090: 76b2 00be a9d6 85bd dd13 0dbd 0590 59be
000000a0: 42d3 34be e054 a2bd 77f2 72be 480f 2fbe
000000b0: 93b8 62be ea6e f1bd b9fb 00be d2d0 04be
000000c0: 9aea 1abe e55f 1dbd 36c4 96bd 7347 24bd
000000d0: d524 d7bc 98d5 1ebe 55f3 6bbe 666b 26be
000000e0: cfb3 36be 5cb3 0bbd 02e4 ae3b 3bcd 7abe
000000f0: 9396 d1bb 7698 10bd bbdd 01bd f6ef 11be
00000100: 27e7 77bc 4e4b 66be 4505 c7bc 4084 dbbd
00000110: 3de2 5dbe e3c7 3ebe 216d 17be 3c48 30be
00000120: e66e 56be bc0d 6abd aa04 dbbd 7c76 0fbe
00000130: ea22 5bbe 9c3a 20bd 7b24 26be 1f20 b9bd
00000140: 64b9 5fbe 15d6 63be 3c13 51be ed70 58be
00000150: 9c57 32be ea1f e8bd 5f4a 66bd 99a1 46be
00000160: 7a55 25bd a679 eabd 6180 75be 6164 9cbd
00000170: 83da 31be ba04 97bd 7d7e 4ebe d7dd 83be
00000180: 7bfe 87bd f0d8 22bc 2d5e 41be 1510 3bbe
00000190: 28bf 39bd 65f6 86bd 8dc0 80bd 83ec 64be
000001a0: 8cad 80be 52e9 4abd bfd6 80be fb01 88be
000001b0: d509 74be 34db e7bd 30f0 82bd 683c 12be
000001c0: 174e 5cbe 875b acbd a146 a2bd 4e63 0ebe
000001d0: 5b7a 4ebe 18e5 5cbe 6879 67be 52d8 26be
000001e0: 88c0 8cbd 396a 6dbe 3f4a 08be cf1a 87bd
000001f0: d022 39bd cfc4 4ebd 670a 4fbe 2bca e9bd
-0.031375345 -0.17960715 -0.14079143 -0.24082519 -0.14136201 -0.14384355 -0.20116334 -0.1759393
-0.23569791 -0.25007457 -0.1503866 -0.05619037 -0.047960896 -0.18467776 -0.057137232 -0.22129162
-0.044335753 -0.20121127 -0.05493286 -0.081020266 -0.15791795 -0.124555744 -0.05779505 -0.13570465
-0.07769853 -0.19484875 -0.08130396 -0.0863233 -0.09776368 -0.03335245 -0.16841029 -0.20435077
-0.19034693 -0.121090196 -0.076366544 -0.03655535 -0.12568077 -0.06535084 -0.03444277 -0.21246345
-0.17658713 -0.07926345 -0.23725305 -0.17095673 -0.22140722 -0.11788733 -0.12596025 -0.12970284
-0.15128556 -0.03842153 -0.07361643 -0.0401072 -0.02626268 -0.15511167 -0.23042043 -0.16251907
-0.17842029 -0.034106597 0.0053372392 -0.24492352 -0.0063961237 -0.035301648 -0.0317056 -0.14251694
-0.015130795 -0.22489664 -0.024294505 -0.10718584 -0.21668334 -0.18630938 -0.14787723 -0.17215055
-0.20940742 -0.057142004 -0.10694249 -0.14010042 -0.21400037 -0.039118394 -0.16224854 -0.0903933
-0.21848065 -0.22249635 -0.20417494 -0.21136828 -0.17416233 -0.11334212 -0.05622327 -0.19397582
-0.04036472 -0.11448984 -0.23974754 -0.07636333 -0.17368512 -0.073739484 -0.20165439 -0.25755188
-0.06640335 -0.009939417 -0.18883581 -0.18267854 -0.045348316 -0.06589965 -0.06286726 -0.22355847
-0.25132406 -0.049538918 -0.25163838 -0.2656401 -0.23831876 -0.113211066 -0.063934684 -0.14280856
-0.21514164 -0.08415895 -0.07923628 -0.13905069 -0.20163862 -0.21571767 -0.22604907 -0.16293457
-0.0687266 -0.23185052 -0.13309573 -0.0659691 -0.045199215 -0.05048066 -0.20218812 -0.114155136
