saved_models/generalist_BCE_1e-2_118.pth (torch_old, 167373 bytes, 8 tensors)

notes_encoder.weight f4 [64, 128]
000000 81 46 ab bd 36 a3 65 bd ba 12 5c 3d 6b ea 8f 3d
       -0.08363057 -0.056063853 0.053728797 0.070271336
000010 d9 30 91 bd 49 3e 5e bd b8 a1 09 3c 3d da 7b bd
       -0.07089395 -0.05425862 0.008400373 -0.061487425
000020 9b bf 7c bd 00 64 aa bb f8 18 76 bc 42 77 70 3d
       -0.061706167 -0.005199909 -0.015020601 0.058707483
000030 d3 66 a7 bd ec ee 05 bd 60 35 3c 3c ce 73 67 3d
       -0.08173909 -0.032698557 0.011487335 0.056506924
000040 31 60 5c bd 46 56 a8 bd 1c 92 92 bc 98 e2 91 3c
       -0.053802673 -0.0821958 -0.017891936 0.017808244
000050 76 46 3b 3d 32 37 6c bd 3e 43 ab bd e0 cf 92 3c
       0.045721494 -0.057669826 -0.08362435 0.017921388
000060 e7 56 b4 bd 70 f0 d7 3b 56 70 31 3d 10 03 ba 3c
       -0.08805638 0.0065899417 0.043320023 0.022706538
000070 c2 e1 77 3d 3c 73 c5 bc 30 60 ca 3c 40 9e 59 bc
       0.060518034 -0.0241028 0.024704069 -0.013282359
000080 6c 95 4c bd 8c a2 d1 3c 83 7a 9f be 1e 39 16 3d
       -0.049947187 0.025590204 -0.31148157 0.036675565
000090 17 4c 4c 3d 10 df ec 3b e0 d5 84 3e 54 98 7d 3d
       0.049877252 0.0072287396 0.25944424 0.06191285
0000a0 dc 9a 84 3e 65 27 e4 3d 60 0b a4 be 2a 6c 43 3e
       0.25899398 0.111403264 -0.32039928 0.1908423
0000b0 e3 70 25 3f 85 42 a0 3c 86 ef 58 3e 44 20 95 3e
       0.64625376 0.019562969 0.21185121 0.2912618
0000c0 6b 6e 7f 3e 0d 03 ed 3e 60 e8 f9 3e 81 ee 37 3d
       0.24944465 0.4629139 0.488101 0.04490519
0000d0 db 10 ff 3d 10 5c 39 3e 75 32 d9 3c a2 11 31 3e
       0.12454387 0.18101525 0.026513318 0.17291883
0000e0 1e cf f1 3e f1 11 91 3d 2e f6 ac 3b 22 43 a1 3e
       0.4722833 0.070835 0.0052783703 0.3149653
0000f0 bf de 2d 3d f4 a3 bc 3e bc 65 84 3e 57 0d a0 3e
       0.042448755 0.36843836 0.25858867 0.31260177
000100 bc cf 9b 3d 19 8b 53 3d 3b ab ac bd 21 bd 59 3e
       0.076079816 0.051646326 -0.08431097 0.21263553
000110 42 f7 c6 3e 04 d3 66 3e 97 8a 9e 3e e6 c7 ef 3e
       0.38860518 0.22541434 0.3096511 0.46832198
000120 ae a9 90 3e 7a 1f c9 bc 67 68 96 3e da 33 39 be
       0.28254455 -0.024551142 0.29376528 -0.18086186
000130 06 28 2a 3e 34 4e 8e 3e e8 5a 0b 3d 96 fe 65 3e
       0.1661683 0.2779404 0.03402224 0.22460398
000140 8d 31 67 3d 23 1b fc 3d 09 de 0a 3e 8a 93 d0 bc
       0.05644374 0.123098634 0.13561262 -0.025460977
000150 ef 82 76 bd 3a d0 3f be 5e f9 25 3e 36 6f cd bd
       -0.06018346 -0.18731776 0.16208407 -0.100309774
000160 40 b0 43 3d 17 87 2a 3e d8 5c a0 bd fd 96 98 3d
       0.047775507 0.16653095 -0.078302085 0.07450674
000170 9c 6e a7 bc 94 9f e8 3c 00 6e fd 3b 08 e5 c8 bc
       -0.020438485 0.028396405 0.0077340603 -0.024523273
000180 04 eb 96 bd 20 5c 54 bb 6b f1 4f bd 95 c6 9b 3d
       -0.073690444 -0.0032403544 -0.050767343 0.07606236
000190 59 79 ac 3d 4d 47 ac 3d 0e d7 d9 bc 34 c3 96 bd
       0.08421583 0.08412037 -0.026591804 -0.07361451
0001a0 70 21 69 bc 32 0a 5d 3d 33 22 58 bd be af 30 3d
       -0.0142291635 0.0539648 -0.05276699 0.04313635
0001b0 50 f5 05 bc a8 2c 34 bc 39 cf 0e bd d3 c0 4f bd
       -0.008176163 -0.010996975 -0.03486559 -0.050721
0001c0 72 7d 60 3d fc 6e e4 3c 22 32 31 3d 61 d1 51 bd
       0.054807134 0.027884953 0.0432607 -0.05122507
0001d0 c6 b1 38 3d 24 fb ea 3c ae ab 74 3d a6 b8 5c 3d
       0.045091413 0.028684206 0.05973404 0.053887032
0001e0 00 72 59 3c 81 c6 ac 3d 80 54 98 3b 2c ba 89 bc
       0.013271809 0.08436299 0.004648745 -0.016812406
0001f0 60 42 0d 3c bc b0 39 bd d2 52 79 3d a4 9d d6 3c
       0.008621782 -0.045334563 0.06087 0.026198216
000200 81 5f a7 bd 5a 3f 75 3d a5 37 82 3d e0 fa d5 3b
       -0.08172513 0.05987487 0.063582696 0.006530151
000210 bf eb ae bd f3 61 9b 3d b0 33 c1 3c c8 04 96 bd
       -0.08541059 0.07587042 0.023584217 -0.07325131
000220 00 dc df 3b 9c 25 be bc 8f 75 80 3d b0 06 e1 bb
       0.006831646 -0.023211293 0.062724225 -0.0068672523
000230 a3 21 08 bd ba ca 3b 3d 20 44 b1 3c 20 32 4a 3c
       -0.033235203 0.045847632 0.02163893 0.012341052
000240 21 95 8e bd bb c9 a9 bd 08 72 da 3c 80 0f 07 ba
       -0.06962038 -0.0829043 0.026665702 -0.0005152151
000250 84 73 90 bc c0 88 d9 bb e0 5b 52 bc a9 06 09 bd
       -0.017633207 -0.0066386163 -0.0128392875 -0.033453617
000260 3e f6 41 3d 6c 15 d5 bc 3c 6a dd bc 52 a5 8b bd
       0.047353975 -0.026011191 -0.027028196 -0.06818642
000270 d8 a2 92 3c 38 fc c8 bc c0 95 ae 3b 45 68 2c bd
       0.017899916 -0.02453433 0.00532791 -0.042091627
000280 5e 77 69 3d 6c 62 cb bc 13 81 89 3c f4 49 ed 3c
       0.056998603 -0.024827205 0.01678518 0.028965928
000290 44 17 ef bc 40 33 91 3b ed b0 0b bb cb 26 3e bd
       -0.029185899 0.0044311583 -0.0021315173 -0.046423715
0002a0 23 3a 33 bd 9c b7 cc bd a1 6e 83 bd 68 c2 41 be
       -0.043756615 -0.09995958 -0.06417585 -0.18921816
0002b0 2b 36 95 bd 11 9a 58 bd 43 68 e8 bd 42 c2 aa bd
       -0.07285722 -0.052881304 -0.11348011 -0.08337833
0002c0 aa 42 e4 bd e3 ae 0d bd 94 f1 9e bd ac 22 2c be
       -0.11145528 -0.034590613 -0.07760921 -0.16810101
0002d0 27 df 70 bc 2d e9 2c bd 3a 8a 5b bd d9 ad eb bd
       -0.014701641 -0.04221456 -0.05359862 -0.11507768
0002e0 fc 59 e0 bd 33 85 99 bd 4b ca 30 be d2 9d db bd
       -0.10954663 -0.07496109 -0.17264669 -0.10723461
0002f0 88 a8 1e be 59 a2 7f bd 96 cc 11 bd 66 c9 f7 bc
       -0.15493977 -0.062410686 -0.0355955 -0.030247401
000300 67 a0 ab bd 19 7e 74 bd 11 8b 3d be 7f 04 19 be
       -0.08380204 -0.05969057 -0.18510081 -0.14943121
000310 9f 80 ea bc 74 0b 28 be 14 17 9f bd 0b 5f 29 be
       -0.028625784 -0.16410619 -0.07768074 -0.16540162
000320 11 55 c4 bd f8 6f fa bd 8d 8f 25 bd 8e 0f 50 bd
       -0.09586538 -0.122283876 -0.040420104 -0.050796084
000330 2b d0 21 bd 7d e0 54 3c d3 8f ef bd af 99 cb bd
       -0.039505165 0.012992975 -0.11697354 -0.09941422
000340 64 66 23 bd c2 68 03 be 8d c7 2d bd ad 14 38 bd
       -0.03989257 -0.1283293 -0.042426635 -0.044941593
000350 dd 73 0c be c0 8b 9e bc 89 08 29 bb b5 5e b7 bd
       -0.13716073 -0.019353747 -0.002579244 -0.08953611
000360 65 5e 1a bd 6c b2 68 bc 64 39 8d bd 66 d0 1a 3d
       -0.037687678 -0.014202695 -0.06895712 0.0377964
000370 94 d3 09 bd ec e3 bb bc f8 2e b3 bc 01 b0 9a 3d
       -0.033649042 -0.02293583 -0.021872982 0.07553101
000380 86 70 30 bd 90 0a d7 3c ad 62 13 bd b1 4e 8a 3d
       -0.04307606 0.026250154 -0.035982776 0.067532904
000390 e8 eb 66 3c e2 6c 59 3d 0d 6a 57 bd e3 5b 81 3d
       0.01409433 0.053082354 -0.052591372 0.06316354
0003a0 fa af 38 3d ad 0c 56 bd 72 f0 47 3d ba 67 68 3d
       0.0450897 -0.052258182 0.04881329 0.056739546
0003b0 47 f7 24 bd 5e ef 51 3d a1 55 87 bd 5c 13 a5 bc
       -0.040274885 0.05125367 -0.06608129 -0.020150833
0003c0 1e 74 a6 bd c0 04 c8 ba 34 63 9c bd 65 c5 9f 3d
       -0.08127616 -0.0015260205 -0.07636109 0.07801322
0003d0 c9 a9 ae 3d 0c 4b d6 3c 9c c9 ca bc c0 65 21 bc
       0.08528478 0.026158832 -0.024754338 -0.009850919
0003e0 c0 1c 7c bd 8f fc 0f bd 28 0d 02 bc 32 2d 99 bd
       -0.061550856 -0.035152968 -0.007937707 -0.074793234
0003f0 5a c5 36 3d 1e ad 6b 3d 1c 20 f0 bc 30 f7 2e 3c
       0.044621803 0.057538144 -0.029312186 0.010679051

notes_encoder.bias f4 [64]
000000 4f 66 20 bd 1c cb 27 be 7a 79 22 be 3e e1 2d 3e
       -0.03916007 -0.16386074 -0.15866652 0.16980454
000010 1a ab 80 bd c6 2d 29 be c7 44 44 be 16 ef 04 3e
       -0.06282635 -0.16521367 -0.19166861 0.12981829
000020 ac 74 1f 3e ed 27 48 3d b3 9e 84 3d 4e 18 a0 3d
       0.1557185 0.0488662 0.06475582 0.07817136
000030 17 7f bc bc 57 63 11 3e 3b 07 b2 3d db f3 34 be
       -0.02300982 0.14198051 0.08692785 -0.17671148
000040 67 b6 2e be 05 d2 2b be f3 90 0f be 16 76 14 3e
       -0.17061768 -0.16779335 -0.14020137 0.14498171
000050 65 10 37 be 9c ce 18 be fb 48 f7 3d c0 23 5d be
       -0.17877348 -0.14922565 0.12074467 -0.21595669
000060 ef ac 46 3e 1c 23 50 3e 2c b2 47 3e 8d d4 4f be
       0.19401906 0.20325893 0.19501561 -0.20295925
000070 76 66 ba 3c d7 48 d6 bd a8 0d 97 3d 2e 7e 0d be
       0.022753935 -0.10463112 0.073756516 -0.13817665
000080 e1 1f 9e 3d 68 e8 3f 3e 44 55 49 bd da c8 f1 bd
       0.07720924 0.18741 -0.04915358 -0.118058875
000090 63 d9 c2 3c 5d 88 01 3e fc a5 15 3e 3c 91 ed bd
       0.023785299 0.12649675 0.146141 -0.11599967
0000a0 81 78 4b bd e9 20 59 be 29 86 91 3d cb 7b 23 be
       -0.04967547 -0.2120396 0.07105667 -0.15965192
0000b0 35 29 99 3d 93 25 83 bd e8 cf 24 3e cf ab 0c 3e
       0.07478563 -0.06403651 0.16094935 0.13737415
0000c0 af 66 18 3e 07 84 2b 3e 49 cb 09 3d d6 a0 13 3e
       0.1488292 0.16749583 0.033641133 0.14416823
0000d0 1a 87 83 3d 76 86 0d 3e a7 b4 33 3e 0c 1c d8 bd
       0.06422253 0.13820824 0.17549382 -0.105522245
0000e0 69 43 2a 3e 66 0c 55 bd 0f cb 06 be bc aa 2a 3e
       0.16627277 -0.052013777 -0.13163398 0.16666692
0000f0 21 27 36 3e dc 67 0f 3e 7c 26 f0 bd ef cf 54 be
       0.17788364 0.14004463 -0.1172609 -0.20782445

gru.weight_ih_l0 f4 [192, 64]
000000 c6 a1 4b 3d 6e cc 61 3e a5 7d 73 3e d2 1a b5 38
       0.049714826 0.2205064 0.23778398 8.635748e-05
000010 4e b9 b0 3c 7a d8 35 3e b6 35 03 3e b3 c9 ff bb
       0.021572735 0.1775836 0.12813458 -0.007806027
000020 98 b8 6b be 3c 24 7e bc 23 3c 60 3d 6c ba c3 bc
       -0.23019636 -0.015511569 0.05474485 -0.023892604
000030 62 1d 9b 3d 95 98 3f be f2 ec 66 bd 83 12 38 3d
       0.07573964 -0.18710549 -0.056378312 0.04493953
000040 21 4c 56 3e b3 d6 24 3d 51 b6 3e 3e 8e 34 de bd
       0.20927478 0.040243816 0.18624236 -0.10849868
000050 e3 1e ed 3d c7 73 1c 3e 79 f0 4d bd 8c 47 2c 3e
       0.11578157 0.1527854 -0.05027816 0.16824168
000060 7a d2 62 be 7d 44 e9 bd fb 21 32 be 78 00 2b 3e
       -0.22150603 -0.11390016 -0.17395775 0.16699398
000070 50 17 12 be a2 76 24 3e 4b c0 40 bd 9a 85 27 3d
       -0.14266706 0.1606088 -0.047058385 0.040898897
000080 d2 fe 38 be 2a 66 51 bd b9 5e 0c 3e 02 db 24 3e
       -0.18065956 -0.051122822 0.13708009 0.1609917
000090 ca b6 7d bd 55 44 31 be f7 b2 6d be 5f de 28 3d
       -0.0619419 -0.17311223 -0.23212801 0.041227695
0000a0 9b b7 f8 3d af 11 d3 3d 1c c2 06 3d 7f cf ab bd
       0.12144395 0.10306107 0.03289996 -0.08389186
0000b0 44 b1 f8 bb 08 e4 56 3d 77 d3 0a be b2 75 22 bc
       -0.007589491 0.05246356 -0.1355723 -0.009915756
0000c0 82 5a 39 3d 52 89 5d be b9 cb ec bd 74 2f 05 be
       0.04525233 -0.21634415 -0.115622945 -0.13006383
0000d0 13 66 53 3d 93 f4 32 be d0 74 ad bd da 71 8a 3d
       0.051611017 -0.1747611 -0.08469546 0.06759997
0000e0 a2 df 27 be 3e b3 d6 bc 88 c2 f1 3d 9b 8c e7 bd
       -0.16393903 -0.026208516 0.11804682 -0.11306115
0000f0 d6 2f 7d be 69 c2 d2 bd c6 b4 cb 3d 2a 83 1f 3d
       -0.24725279 -0.10290987 0.09946589 0.038943447
000100 6d 80 2c 3d 87 6d 68 be 55 98 a3 bd 0f 1e 24 3e
       0.042114664 -0.22698031 -0.079880394 0.16027091
000110 1b db 30 be 27 97 15 be 29 e8 2f bd 7d 60 34 3e
       -0.17271082 -0.14608441 -0.042946015 0.17614932
000120 e2 1c d6 b9 02 ee b4 bc c0 91 5b 3c 4e ab 81 3d
       -0.0004083878 -0.022086147 0.013401449 0.06331502
000130 b5 b4 a7 3c 4d a7 c5 3d d5 24 92 3b 12 53 d2 bd
       0.02047191 0.09651051 0.004459957 -0.10269751
000140 30 63 d2 bb a6 d8 34 3c e6 02 22 3b 6e 30 11 3e
       -0.0064205155 0.011037981 0.0024720966 0.1417863
000150 a9 12 52 be 24 bf 5d be fe ed e6 bc 9f eb 4f bd
       -0.20514931 -0.21654946 -0.028189655 -0.050761815
000160 18 e2 5f 3e 41 d5 fa 3d db 53 00 3e bf 3a c0 bd
       0.21863592 0.12247706 0.12531988 -0.09386205
000170 a5 03 24 3e cb a8 8e bd 0f 39 38 3e ee ad f9 bd
       0.16017015 -0.069657885 0.17990516 -0.121913776
000180 c7 95 15 bd 5a ff 03 3d 13 6a 16 bd 68 d4 89 bd
       -0.036519792 0.032225944 -0.036722254 -0.067299664
000190 58 29 de 3d ba 66 42 3e c0 48 c8 3d 45 c1 21 be
       0.108477294 0.189845 0.09779501 -0.15796383
0001a0 42 75 21 be 51 83 f3 bd d6 d1 86 3d 63 5a 94 3c
       -0.15767387 -0.11890281 0.06582992 0.018109506
0001b0 cb d6 2b 3e b7 67 c5 3d 91 fd dc 3d e7 84 14 3e
       0.16781156 0.09638923 0.107905515 0.14503823
0001c0 2c a1 23 3e 15 a5 19 3e 5e 78 88 3d 0f 0d 10 3e
       0.15979451 0.1500438 0.06663583 0.14067481
0001d0 06 d0 2b bd 18 65 e6 3d 0d e3 02 3d d5 6b 0a be
       -0.041946433 0.11249751 0.031954814 -0.13517697
0001e0 dd 2b 5b 3c 8c 43 b5 bd 46 66 32 bd 99 a4 28 bb
       0.013377157 -0.08850774 -0.043554567 -0.0025732873
0001f0 ba f9 5e 3e 6e ce b2 3d 8a bd 82 bd 01 90 e9 bd
       0.2177495 0.087307796 -0.06383808 -0.1140442
000200 81 ea 70 3e b4 87 c1 bd 24 e8 47 be 6e c1 0f 3e
       0.23526956 -0.094497114 -0.19522148 0.14038631
000210 33 83 1a be 53 e3 cb 3c e2 10 88 bc 97 de 2a 3e
       -0.15089111 0.02488867 -0.016609613 0.16686474
000220 38 4d bf 3d 7c 48 53 3e 49 49 fb bd 3f aa 23 3e
       0.093409 0.2063312 -0.122698374 0.15982912
000230 95 07 14 bd 70 50 e4 bc bb 31 c3 ba 3c 74 34 bd
       -0.036140043 -0.027870387 -0.001489214 -0.044056162
000240 03 08 b4 bd b0 00 af bc 92 44 0b 3d 1c a5 0b 3e
       -0.087905906 -0.021362633 0.03400094 0.13637203
000250 f1 29 ae 3c b7 de 43 be 35 bc d7 3d d6 d1 42 be
       0.021260234 -0.19127928 0.105339445 -0.19025359
000260 ca 5e e3 3d 86 52 51 3d dc 0e ef 3d 5c 87 d5 bd
       0.11102064 0.05110409 0.11672756 -0.104262084
000270 77 63 77 3d d3 d9 f9 bc af 61 51 3e 5f ba 39 be
       0.06039759 -0.030499374 0.2044742 -0.18137501
000280 02 4f 20 3e a5 bd 79 bc 10 7d 43 bd 38 cc 10 ba
       0.15655139 -0.015242969 -0.04772669 -0.0005523595
000290 fb d5 5d 3e 6e d0 38 3d 97 4a 05 3e d1 3f 0f be
       0.21663658 0.04512065 0.13016735 -0.13989188
0002a0 07 55 72 b7 eb 3d 44 be 91 b8 d5 3c b8 bf fb bd
       -1.4444121e-05 -0.19164245 0.026088985 -0.12292427
0002b0 a2 5e 1c 3d 25 3a b9 bd a8 06 21 3c 0b 63 64 3d
       0.038176186 -0.09044293 0.009828247 0.055758517
0002c0 b4 55 01 be 23 52 93 3d 2f e6 b0 3d 48 5c 48 3e
       -0.1263035 0.07193401 0.08637654 0.19566453
0002d0 b9 79 35 3e 03 19 eb 3d bd eb 1e 3e 24 3d 9c bc
       0.17722215 0.1147938 0.15519615 -0.019072123
0002e0 88 0c 34 3e 0b 32 ae bd e7 30 03 3d b9 a9 34 3e
       0.17582905 -0.08505639 0.03202906 0.17642869
0002f0 5e ed b8 3d fa e9 84 3d ad 28 5d bd 5c f9 17 be
       0.09029649 0.0648994 -0.05399387 -0.14841217
000300 b4 46 1b 3e 54 78 f4 bd 08 79 ce bc 0f a4 23 3d
       0.1516369 -0.11937013 -0.025204197 0.03995138
000310 87 19 5b be 15 0b 58 bc b5 fc 05 be af cb 27 3e
       -0.21396457 -0.013186236 -0.13084681 0.16386293
000320 5b 51 40 3e 2a c7 ba 3d 32 d5 a2 bd ca e3 ff 3d
       0.18781035 0.09120019 -0.0795082 0.12494619
000330 4c 5a 5b 3e 2e 1a 0d 3e 8f 19 97 3c b3 93 0d be
       0.21421164 0.13779518 0.018444804 -0.13825874
000340 37 54 2e be 8c 1a e9 bd 97 75 cb bc 70 99 6d 3d
       -0.17024313 -0.113820165 -0.024836345 0.058007658
000350 f5 cc 47 be 7c 47 55 bd 7d 4d be 3d 63 33 f1 3c
       -0.19511779 -0.052070126 0.092921235 0.029443448
000360 8c 93 b7 3d 1e 75 fb 3b 30 1f 04 bd 25 9d 94 bb
       0.08963689 0.0076738736 -0.032256305 -0.0045353347
000370 f7 9f 00 3e 4e 62 d3 bd 7a 47 4e 3e ab 04 96 bd
       0.12561022 -0.103214845 0.20144454 -0.07325109
000380 6d 04 c1 3d 4a 49 44 3e 47 3c b9 bd b6 9d bd bc
       0.09424672 0.19168583 -0.090447 -0.023146491
000390 df 79 64 3e 94 46 d1 3d 62 ae 2e 3e 26 e6 38 bd
       0.22312115 0.1021854 0.1705871 -0.04514136
0003a0 de e5 d7 bd 59 b0 11 be 03 64 1b 3e 2f 97 e5 bd
       -0.105418906 -0.14227428 0.1517487 -0.112104766
0003b0 80 ea 13 3e 10 96 ae bd 10 e3 e6 3d 64 92 17 3c
       0.14444923 -0.08524716 0.112737775 0.009251211
0003c0 1b 29 0c be ee 77 aa 3d 68 9f fb 3b 05 7d 42 3e
       -0.13687555 0.08323656 0.007678915 0.18993004
0003d0 37 f2 da 3a cb ef d4 3c 41 b0 c4 3c 62 22 0e be
       0.0016704266 0.025993248 0.024009826 -0.13880304
0003e0 2e db eb 3d 4b 59 3e be 03 c9 55 be df 9f c7 bc
       0.115164146 -0.1858875 -0.20877461 -0.024368225
0003f0 01 7d 00 bd 46 3e 2d 3e 08 06 03 be fe 77 82 bd
       -0.031369213 0.16918287 -0.1279527 -0.06370543

gru.weight_hh_l0 f4 [192, 64]
000000 93 27 0b 3d 01 10 3a bd d9 6d 0d be 78 a7 4e 3e
       0.033973288 -0.04542542 -0.13811435 0.20181072
000010 91 0f 98 3d be 49 13 be 2a 08 bc bd 0e fd 1f 3e
       0.07424844 -0.14383599 -0.09181245 0.15623876
000020 bc 3e 7e 3e ee dd 48 bd 30 38 a7 bd be c5 ff 3d
       0.24828619 -0.049039774 -0.08165014 0.12488888
000030 74 f0 5a ba cb c0 67 be 0d 6e 95 3c cf 9f 83 bd
       -0.00083518703 -0.22632138 0.018240953 -0.064269654
000040 f8 3f 78 3d 6a 7e 6a 3e d9 f6 db bd df 36 db bc
       0.06060788 0.22899786 -0.10740442 -0.026759563
000050 55 63 1e 3e 38 cb 2b be 7e 61 2a be d7 27 35 be
       0.1546758 -0.1677674 -0.16638753 -0.17690979
000060 f3 cc f0 3b ad 39 2e 3e ad cf 2d be e1 b5 c9 3d
       0.0073486506 0.17014189 -0.16973753 0.09849144
000070 f8 00 7d 3c e0 c9 51 3e a9 33 25 be 60 e8 43 be
       0.0154421255 0.20487165 -0.16132988 -0.19131613
000080 7e 92 1b 3c 4c 2a 6e 3e 48 7c 74 bd ce f5 05 bd
       0.009495376 0.23258322 -0.059688836 -0.03270512
000090 24 1f 3d be 97 67 25 3e 57 f4 72 bb 13 b3 1a 3e
       -0.1846891 0.16152798 -0.0037071907 0.15107374
0000a0 4d 7e ab 3d 1a 36 16 be b0 d5 8f 3d b8 29 18 be
       0.08373699 -0.14669076 0.070231795 -0.14859664
0000b0 ff 1c 2b 3e e7 6c 96 3d 7c b2 c0 bd 59 c5 ae bd
       0.1671028 0.0734499 -0.09409043 -0.08533735
0000c0 5e 7d 24 bc 97 46 30 3e 44 ae 64 be 9c a3 1f 3e
       -0.0100396555 0.17214428 -0.22332102 0.15589756
0000d0 bb f3 fe 3d 01 48 70 3d d6 aa 8d bd 8a 5a 48 3e
       0.12448832 0.05866242 -0.0691735 0.19565788
0000e0 d6 89 84 3a 52 a2 8a bd 94 e4 14 3e 7a 44 c2 3c
       0.0010111879 -0.067692414 0.1454032 0.023714293
0000f0 7f 58 c9 bd f7 d9 dc bd 58 f5 8f bd f6 59 0c be
       -0.098313324 -0.10783761 -0.070292175 -0.13706192
000100 73 90 2c bd a7 71 36 3d 5c 58 8e 3d 63 7d c7 bd
       -0.042129945 0.04454198 0.06950447 -0.097407125
000110 d0 66 87 3c e1 ad ce 3d 1f 1a 58 3e c3 17 e4 bc
       0.016528517 0.100917585 0.21103714 -0.027843362
000120 af cd 69 bd e1 7f 1e 3e 19 52 9c 3d 18 4b c3 bd
       -0.05708092 0.1547847 0.076328464 -0.09535807
000130 12 54 bf 3d 50 72 c6 3d 51 22 18 be 1f 27 98 3d
       0.09342207 0.09689772 -0.1485684 0.07429337
000140 89 a5 e6 3a 6b 36 2c be 5f 48 3a 3d 5a d2 2a be
       0.0017596941 -0.16817634 0.045479175 -0.16681805
000150 aa 4a 9c bd b8 a9 63 3e 7a d3 32 3e 08 50 5c 3d
       -0.076314285 0.22232711 0.17463484 0.05378726
000160 74 24 8e bc b9 26 06 be ee 76 a2 3d c2 5c 7e bd
       -0.017351367 -0.13100709 0.0793284 -0.06210018
000170 4b 5d e8 bd 8e bb bb bd d9 78 22 bd 93 94 06 3e
       -0.11345919 -0.091666326 -0.03966603 0.13142614
000180 68 ad 19 be 81 f2 90 bd 5d 95 b3 3c 14 93 50 3e
       -0.15007555 -0.07077504 0.021921808 0.20368606
000190 27 a7 55 3e cb 1f e8 bd 70 a3 37 be 6f 80 0e 3b
       0.20864545 -0.11334189 -0.1793344 0.0021744033
0001a0 f7 51 63 be 4e ca da bb 35 10 51 be e2 49 41 3e
       -0.22199236 -0.0066769486 -0.20416339 0.1887584
0001b0 9d db 26 bd ec d5 a0 bd 95 78 26 3e 62 25 89 3d
       -0.040736783 -0.07853302 0.16256936 0.06696583
0001c0 2e 1e 63 bd 29 de b0 bd 33 84 2f bd f2 12 e0 bd
       -0.055448703 -0.08636124 -0.042850684 -0.109411135
0001d0 fd c6 9a bc 20 e8 d3 3c 93 d5 1d 3e 5c 20 c4 b9
       -0.018893713 0.025867522 0.15413503 -0.00037408143
0001e0 b9 e5 1d be 1e 9e 02 be 12 0d 36 be b2 bb 76 3d
       -0.15419663 -0.1275563 -0.17778423 0.060237594
0001f0 25 d1 52 3d 95 a9 51 3e 51 13 af ba e3 14 45 3e
       0.051468987 0.20474847 -0.0013357197 0.19246249
000200 6d cf 8a be 38 8a bf 3d 05 87 d9 bd c3 6f 50 3c
       -0.27111378 0.09352535 -0.10621456 0.012721959
000210 f9 59 3f be 3b e9 28 3e 91 c4 30 bc 91 4f ee bc
       -0.18686666 0.1649522 -0.010789053 -0.029090675
000220 c9 2a 6a be 55 79 b0 3d 32 29 a4 3d cd 3e 11 3e
       -0.22867884 0.08616892 0.0801567 0.14184113
000230 78 64 5a 3e a9 a7 dd bb 80 5c 76 be 22 99 2c 3e
       0.21327388 -0.0067643714 -0.24058723 0.1685529
000240 15 ca e6 bd c0 4b 2e be 0e 47 e8 3d 01 1b b2 bc
       -0.11269013 -0.17021084 0.113416776 -0.021741392
000250 e4 9c b5 bc 33 6c 80 3d 77 de 0d 3e b0 a8 79 3d
       -0.022169538 0.06270637 0.13854395 0.06095189
000260 13 5f 58 be 7d 44 6f be ff e5 9c 3d 50 e9 cc bd
       -0.21130018 -0.2336597 0.07661056 -0.10005438
000270 18 ef 44 be 01 1c f8 bd cd a9 62 3e d3 9f f5 3d
       -0.19231832 -0.12114716 0.22135086 0.11993375
000280 39 cf b7 bd 6f 3c 67 be 5f ef be 3d bf 7f ae bc
       -0.089750715 -0.22581647 0.09323 -0.021301148
000290 f8 15 59 3e ce 66 2c be 3c 4b 23 be 3c 02 91 bb
       0.21199787 -0.16836092 -0.15946668 -0.004425315
0002a0 fd 33 64 bd 23 e3 51 3d 57 50 cb bd e7 95 9c 3d
       -0.055713642 0.051242005 -0.09927433 0.07645779
0002b0 02 0d 01 bd c7 c3 77 bd 6b 1e 4b 3e d7 37 4f 3d
       -0.031506546 -0.060489442 0.19835822 0.050590362
0002c0 28 29 39 3e 14 0c 8f 3c 24 34 0b 3e f9 6d 65 be
       0.18082106 0.017461814 0.13594109 -0.22405232
0002d0 b5 8f c5 bd be 16 d9 bd 28 f1 41 bc cf 1a e9 bd
       -0.096465506 -0.10600041 -0.011837281 -0.113820665
0002e0 1e 07 0b be 15 b7 59 3e 2f 5c 0f be a6 57 c2 bc
       -0.13576934 0.21261247 -0.14000009 -0.023723435
0002f0 c9 05 6b 3d c6 84 47 bc b7 d7 7a 3e 18 f4 91 3d
       0.057378564 -0.012177652 0.24496351 0.07126635
000300 84 69 0e be de 0d c6 3d 5d eb 13 be c8 19 26 be
       -0.13907439 0.09670614 -0.14445253 -0.16220772
000310 7d 50 40 3c 18 a9 0e 3e d5 a6 30 3e 37 8e 9f 3c
       0.01173794 0.13931692 0.17251141 0.019476993
000320 ff 5e ff bb f3 86 88 bc e6 6a 3c 3c ab a5 a5 bb
       -0.007793307 -0.016665911 0.011500096 -0.0050551496
000330 65 e7 4e 3e 42 6f 7d bc 02 1f 06 be 0b 4d 3c 3e
       0.20205458 -0.01546842 -0.13097766 0.18388765
000340 e1 b7 12 bd e4 56 a8 3c 1d d0 28 3e a8 c0 46 be
       -0.03581989 0.020549245 0.16485639 -0.1940943
000350 7a e4 25 bb cb 8e 3e 3e 9e 0f 44 3d 12 d4 13 3e
       -0.0025313185 0.18609159 0.047866456 0.14436367
000360 42 40 0e 3d 1c 7e 2f bc f4 86 98 3d 64 9b 81 bd
       0.03472925 -0.010711219 0.07447615 -0.063284665
000370 db 2b 28 bb e9 8a 07 bd 7d 35 9b 3d fd 94 c8 3d
       -0.0025660906 -0.03309146 0.075785615 0.09794042
000380 70 05 1f be 37 1e 2d 3c 15 59 31 3e 78 67 18 bc
       -0.15529418 0.010566286 0.17319138 -0.009302013
000390 fb c3 51 3e 99 a3 13 bc 36 03 39 bd bd 77 48 be
       0.20484917 -0.009011173 -0.045169078 -0.19576927
0003a0 82 70 12 be 09 de 21 3e dc 3b cc bd c6 05 13 3e
       -0.14300731 0.15807356 -0.09972355 0.14357671
0003b0 9e e0 15 be 92 28 3d be 77 26 e8 bc ae 08 74 3d
       -0.14636466 -0.18472508 -0.028338654 0.05957859
0003c0 c8 2a a9 3d 6d 48 b8 bd 7b 56 0d 3e e3 10 7a 3b
       0.08260113 -0.08998189 0.13802521 0.0038157038
0003d0 f8 b9 3c be 1c b2 73 be 15 dd 49 3d 15 a5 40 bd
       -0.18430316 -0.23798412 0.049283106 -0.047032434
0003e0 d1 1c c1 bd 34 08 ae 3d 4c 43 a3 bd f9 85 c5 bd
       -0.094293244 0.08497658 -0.0797182 -0.09644694
0003f0 2b ab c7 3d 14 60 39 3e 76 51 03 3e 7e 86 a4 3c
       0.097494446 0.18103057 0.12824044 0.020083662

gru.bias_ih_l0 f4 [192]
000000 44 eb 4b be 96 7f 16 3e f9 05 0e bd 3e f3 25 3e
       -0.19913965 0.14697108 -0.034673665 0.16206071
000010 f4 d0 6f 3c 88 97 c0 3d 0b 19 9c 3d 20 e1 a8 3d
       0.014637221 0.09403902 0.07621964 0.08246064
000020 90 02 9e 3d 53 95 f3 3d bf 28 90 3d 51 6d fd bd
       0.077153325 0.11893716 0.07039022 -0.12374366
000030 a7 19 04 3e c0 a9 58 3e 29 e3 de 3d ca 5d 14 3e
       0.1290041 0.21158504 0.10883171 0.14488903
000040 f3 de 3b 3e 06 dd 8b 3d 96 d4 89 bd 59 53 1d 3e
       0.18346767 0.06829266 -0.06730001 0.15363826
000050 c5 b4 29 3d 13 cf f3 3d 77 0e 1f 3e b2 5b 11 3e
       0.04143216 0.11904731 0.15532862 0.14195135
000060 03 c9 c3 3d a4 40 3c 3d 94 ce 09 bd 5e 55 30 3c
       0.09559824 0.045960084 -0.033644274 0.010762541
000070 e2 be 3d 3e 2e 52 ad 3b 15 2a 22 3d b7 ae 89 3d
       0.18529847 0.0052893376 0.039590914 0.06722777
000080 e1 99 36 3e 1a 00 d8 3d 16 35 1d 3e 64 2b 64 bd
       0.17832138 0.10546894 0.15352282 -0.055705443
000090 37 29 da 3d 03 c6 44 3d bf 68 f4 3d 8b 40 72 3e
       0.10652392 0.0480404 0.11934041 0.23657434
0000a0 18 05 37 3e 91 68 b6 3c 36 40 7e 3d 18 cc c3 bc
       0.17873037 0.022266658 0.062072955 -0.02390103
0000b0 2a 0c 70 3d 88 52 0f bc bc d4 13 bd a5 73 00 bd
       0.05860535 -0.008747704 -0.03609155 -0.031360287
0000c0 28 d8 e8 bc 56 a2 40 3d 9b b4 df 3d 80 1f 6c 3e
       -0.028423384 0.047029816 0.1092312 0.23058891
0000d0 5c d6 23 3e 34 87 01 3d 53 0b 12 3e 70 46 93 3d
       0.1599974 0.03162308 0.14262132 0.07191169
0000e0 ea b4 c7 bc 33 ce 1f be cc 56 3a 3e e9 6c 17 3c
       -0.024378259 -0.15606003 0.18197173 0.009242275
0000f0 cb c5 b8 3d c4 1c 8c 3b 41 7d ff 3d 5e c4 c0 bc
       0.09022101 0.00427589 0.12475062 -0.023531135
000100 f1 d6 46 be 81 41 29 3d 4d a1 bf 3e 1e c0 39 3e
       -0.19417931 0.041322235 0.3742775 0.18139693
000110 15 16 e5 bd ac f1 0b be e9 c4 f2 3b e2 15 ba bc
       -0.111858524 -0.13666409 0.0074087274 -0.022715513
000120 e5 7a c5 3d 93 a1 91 be 17 20 97 bd 0d 99 ea bd
       0.09642581 -0.28443584 -0.073791675 -0.11454973
000130 76 26 86 be ba c2 2e be 33 e3 69 bd c9 7b 1e be
       -0.26201218 -0.1706647 -0.05710144 -0.15476908
000140 7a 1e 48 3d 50 27 bf bd c4 d5 7d bc f5 ff 94 bd
       0.04885719 -0.0933367 -0.01549286 -0.072753824
000150 91 c9 1b 3e d2 b7 a9 3c 17 7a ef bb 13 5e 11 be
       0.1521361 0.020717535 -0.0073082554 -0.14196043
000160 11 86 b5 bc be fb 8a bd fc aa b2 3a 4a da e0 3d
       -0.022158654 -0.06786297 0.001363128 0.10979135
000170 0d fd fd bb f1 90 9b 3c 7f 2c 39 bd 9b c5 76 be
       -0.0077511133 0.018990012 -0.04520845 -0.24098818
000180 96 2c 07 3e db 6e c5 bc eb a8 6f 3e 66 4b 37 be
       0.13200602 -0.024100712 0.23404281 -0.17899856
000190 18 50 2d be 77 e4 33 be 9e 42 df 3c 71 be 88 3e
       -0.16925085 -0.17567621 0.027253445 0.26707795
0001a0 8e a9 df bd 9f a3 f5 3d e0 49 69 3d c6 26 63 3d
       -0.10921012 0.11994099 0.05695522 0.0554569
0001b0 b1 a3 e8 3c fe ba 0e bd 37 84 ca bc 7d 9d 1f 3d
       0.028398367 -0.0348463 -0.024721248 0.038968552
0001c0 a1 69 5d be 33 bf 99 3d e6 9f 19 3e 46 78 96 bd
       -0.21622325 0.075071715 0.15002403 -0.07347159
0001d0 58 47 2e be 2b 2a 88 3d d4 ec 92 3d b4 d8 1b bd
       -0.17019403 0.06648668 0.07174078 -0.03804846
0001e0 66 ec 91 bd 69 0c f1 bb e8 8a 06 3e 7f 35 57 3e
       -0.071251675 -0.0073562157 0.13138926 0.21016501
0001f0 c0 7a 2f be 0e 66 43 bd b4 7d c8 bd cd 57 b4 3d
       -0.17136669 -0.04770475 -0.09789601 0.08805809
000200 16 1f db bd 00 c8 e0 3d b3 9d 94 3c 1b e7 07 be
       -0.106992885 0.10975647 0.018141603 -0.13271753
000210 f1 a2 2c be fc c6 14 3e bc d7 e1 3d 6c 28 54 be
       -0.16859032 0.14529032 0.11027476 -0.20718545
000220 35 2b 27 be 46 7c 2e 3e d8 68 64 3e 2b 80 a2 bc
       -0.16325076 0.17039594 0.2230562 -0.019836506
000230 e1 41 1f 3e c8 81 12 3e 14 82 2b be 6f 7a 1b 3e
       0.15552475 0.1430732 -0.1674884 0.15183423
000240 0d c8 29 be 6a 65 23 be c8 a8 73 3c 5d e8 34 3c
       -0.1658022 -0.15956655 0.014871784 0.011041728
000250 14 2e 32 be cc e0 29 3e a9 af 48 3e 32 e8 3c 3e
       -0.1740039 0.1658966 0.19598259 0.1844795
000260 8e 2d 09 be 45 00 fa 3c fe 49 0d 3e a6 68 5f be
       -0.13396284 0.030517707 0.13797757 -0.21817264
000270 dc ad 42 be f5 28 0b be b9 f8 26 3e 3b c8 4d 3e
       -0.19011635 -0.13589843 0.16305818 0.20095913
000280 7d b9 83 be 38 0a 74 be fd a7 39 bc 54 df 4e 3e
       -0.25727454 -0.23832023 -0.011331555 0.2020238
000290 4e 2b 1c 3e b1 71 19 be c3 04 17 be 90 55 11 bd
       0.15250894 -0.14984776 -0.1474791 -0.03548199
0002a0 c6 0b 45 be 9b cd ad 3d fd b2 55 bc b0 75 38 3e
       -0.19242772 0.08486482 -0.013043162 0.18013644
0002b0 9b 51 12 be 26 9b 2b be 57 14 6d 3e 8a 27 27 3d
       -0.14288943 -0.16758403 0.2315229 0.04080919
0002c0 bd 90 d8 3d fa f9 fc bc d2 a1 0b 3e 19 5c f7 bd
       0.10574482 -0.030880917 0.13635948 -0.12078113
0002d0 6f f4 69 be b1 ef 8f bd 7c aa 36 3e 7c 90 60 be
       -0.2284715 -0.070281394 0.17838472 -0.21930116
0002e0 8d 7f 02 be 78 54 f0 3d 9c ba fb bd 5d fa 5f bd
       -0.1274397 0.11734861 -0.12291452 -0.054682124
0002f0 ef f5 cd 3d 06 6a 5e 3e 4f 1c 3f 3e bf 3e 63 3e
       0.10056674 0.21720132 0.18663143 0.22191904

gru.bias_hh_l0 f4 [192]
000000 ad a2 fc bd af be 51 3e 92 57 c1 3c c3 32 6a bb
       -0.123357154 0.20482896 0.023601327 -0.0035735823
000010 70 09 08 3e b5 3a 48 3e c6 b1 a6 3d 9b ea b9 3d
       0.1328485 0.19553645 0.08139376 0.090779506
000020 16 9c 49 3e 55 6b ce 3d 78 35 55 3d dc f3 06 bd
       0.19688448 0.10079066 0.052052945 -0.032947406
000030 ca 85 0f 3e d7 b0 69 3d f8 6b 1f 3e 7f fd 62 3d
       0.1401588 0.057053413 0.1556853 0.055417534
000040 d7 b8 4e 3e 77 13 c0 3d 4f 5e 2b be 3b 17 23 3e
       0.20187698 0.093787126 -0.16735195 0.1592683
000050 32 82 e2 bd c4 20 82 3d 65 56 ac 3b 75 5d 36 3e
       -0.11059989 0.06353906 0.0052593225 0.17809089
000060 b1 78 05 3e 38 c7 63 3d 11 b0 36 3e cf 85 55 3d
       0.13034321 0.05560991 0.17840602 0.052129563
000070 79 e6 d7 3c 2f 2a 08 3e d9 6d 3b bb ce 4d 17 3e
       0.026355015 0.13297342 -0.002859941 0.14775774
000080 85 0b 6a bc 45 d1 69 3e 33 ae 4c 3d a0 47 f7 3b
       -0.014284973 0.22833736 0.049970817 0.00754638
000090 8f db 57 3e 05 4b 40 3e 87 81 05 3e 87 81 f1 3d
       0.21079849 0.18778618 0.13037692 0.117922835
0000a0 a5 93 d4 3d 0e f5 25 3e 6b 40 f8 3c 28 fb 8e 3d
       0.103797235 0.16206762 0.030304154 0.06981498
0000b0 d5 b9 38 3e 9c 71 7d 3c 52 22 46 3a c6 82 b6 bc
       0.1803964 0.015468981 0.0007558215 -0.022279155
0000c0 74 da 74 bd 29 12 d4 bb d8 55 3b 3e 4f b2 f9 3c
       -0.059778646 -0.0064718914 0.18294466 0.030480532
0000d0 97 0e b7 3d 16 cd cc 3c af b2 07 3e 22 3c 3a 3e
       0.0893833 0.025000136 0.13251756 0.18187001
0000e0 38 42 32 bc 82 6c fe bd 80 bd ae 3d 38 6f 39 bd
       -0.010880046 -0.1242304 0.08532238 -0.045272082
0000f0 c0 e3 15 3e 06 f0 ed 3d f5 bf 39 bd e2 7a b3 3c
       0.14637661 0.116180465 -0.04534908 0.021909181
000100 27 a0 8a 3b 96 3c d2 bd 93 9a ea 3e 59 36 a9 3e
       0.0042305174 -0.10265462 0.45821056 0.33049276
000110 91 48 1a 3d fa 82 0b be c1 f2 3b be 88 48 83 be
       0.03766686 -0.13624182 -0.18354322 -0.25641274
000120 bd bd b8 3d 7e 0c 31 be 0e aa 3f be f1 df 34 bd
       0.09020565 -0.17289922 -0.18717214 -0.04415888
000130 dd 0b 71 be 97 ca a6 bd 28 a9 2f be 38 a2 3c bd
       -0.23539682 -0.0814411 -0.17154372 -0.04605314
000140 54 2d 8d bd e4 cc 02 be 46 32 62 be ba 02 4b be
       -0.06893411 -0.12773472 -0.2208949 -0.19825259
000150 35 d6 40 3e a1 25 4a bd ad 4c bb bc 17 ea 7a bd
       0.18831713 -0.049352292 -0.02286371 -0.0612584
000160 57 e4 0a be e8 18 3d be a2 78 88 bc 00 0f 12 bd
       -0.13563667 -0.18466532 -0.016659085 -0.035658836
000170 ca c8 fe bd 11 4e e8 3d 31 c6 09 3e 5e b9 86 be
       -0.12440641 0.11343015 0.1345451 -0.263133
000180 ca d6 92 3d 1b 0e 12 3d 0d f0 22 3e ed ae 8b ba
       0.07169874 0.035657983 0.15911885 -0.001065699
000190 19 0c f6 bd 7e 1d 02 be c9 8f 04 be a9 b2 be 3e
       -0.12014026 -0.12706563 -0.12945475 0.37245682
0001a0 a5 3a 15 be ec 43 cc 3c 20 2b 77 3d 02 f1 69 bd
       -0.14573152 0.024934731 0.06034386 -0.05711461
0001b0 2c 6c 1a be 42 40 6a bd 3c 3e ad bd 0d 6f 42 3d
       -0.15080327 -0.057190187 -0.08459136 0.047469188
0001c0 52 13 8d bd b8 2b fe bc 3a 2b 57 3e 47 97 44 bc
       -0.06888451 -0.031026706 0.21012583 -0.011998958
0001d0 14 61 49 bd 73 ec 2e be 74 07 67 bc d6 33 34 3c
       -0.049164847 -0.17082386 -0.014100898 0.010998687
0001e0 26 f1 13 be a8 5c f3 bd 7f bf 7b bb 73 22 30 3e
       -0.1444746 -0.11882907 -0.00384137 0.17200641
0001f0 10 09 93 bc c3 4a 20 3e d1 12 d0 3c 1c a9 bc 3d
       -0.017948657 0.1565352 0.025399597 0.092119426
000200 6f 27 32 be 65 9f 52 3e a0 d1 d1 bd b1 72 cf bb
       -0.17397855 0.20568617 -0.10245061 -0.006330811
000210 8d e4 5f be 6b 47 6d 3e dd 4e 39 3e 45 3a 28 bd
       -0.21864529 0.23171775 0.1809649 -0.041071195
000220 7c ed 59 be 28 3e 73 3e 3f 7d 13 3e 17 4a 87 bc
       -0.21282 0.2375418 0.14403246 -0.016514821
000230 92 1c 68 3e 12 7a 3a 3e db a9 4f bd ec be 4c 3e
       0.22667149 0.18210629 -0.050699096 0.19994706
000240 a4 ab 1e be 71 13 19 bd e1 33 d1 3d d0 ec d1 bd
       -0.15495163 -0.037372056 0.10214973 -0.102502465
000250 ba f7 0c be 28 3a 0b 3e 42 ef 47 3e 9b 4c 9d 3c
       -0.13766375 0.13596404 0.19524863 0.019201567
000260 8d 38 0e be 59 40 0e be 7a 3e 3e 3e 2f 10 10 be
       -0.1388876 -0.13891734 0.1857852 -0.14068674
000270 61 0c 0f be ce 4c 43 be 01 9f 10 3c c0 d5 b0 3d
       -0.13969566 -0.19072267 0.008826972 0.086345196
000280 b0 d9 8b bc 05 bc 60 be 36 9d 8c bd 9a d9 88 3c
       -0.017071575 -0.21946724 -0.06865923 0.016705323
000290 f1 94 1b 3e 6f 72 f9 bd 3f 98 06 bd 4b 37 ac bd
       0.15193535 -0.121800296 -0.032860037 -0.08408984
0002a0 d2 82 b2 ba 6a d6 3a 3e 29 1c e1 bd ad 3b 04 3e
       -0.001361931 0.18245855 -0.10991699 0.1291339
0002b0 39 99 23 be 8a 66 3d be fe d2 ca 3d 42 49 fe 3d
       -0.15976419 -0.18496147 0.09903525 0.124163166
0002c0 21 6d 96 3b 16 d3 09 be 8f b2 12 bd 17 2e 76 be
       0.004590646 -0.13459429 -0.035814818 -0.2404102
0002d0 e0 5f 19 be 00 db 19 be ad 6c b9 3d 9b 00 91 bb
       -0.1497798 -0.15024948 0.090539314 -0.004425121
0002e0 a4 26 cd bd bc 10 38 bb 46 b7 0b be 31 39 bc 3d
       -0.10017136 -0.0028086146 -0.13644132 0.09190596
0002f0 eb 71 6b 3e 13 87 5a 3d a9 c1 19 3e 45 ce 3a 3c
       0.22992675 0.053351473 0.15015282 0.011401718

notes_decoder.weight f4 [128, 64]
000000 9f d7 8a 3d 68 8a c3 bd 32 e0 1f 3e 5b f1 38 3e
       0.06779408 -0.09547883 0.15612867 0.1806082
000010 11 31 3e 3e a0 f5 6a bd 3b dd 42 bd 36 a2 9b 3d
       0.18573405 -0.057363153 -0.047574263 0.07599299
000020 f3 16 11 3e 3f 03 46 be 32 4e 8c be 63 f5 8f 3c
       0.1416891 -0.19337176 -0.27403408 0.017573064
000030 7b 4d ac bd 9d 0f 91 be 44 26 5d 3d 6e 26 5e be
       -0.08413216 -0.28332224 0.05399157 -0.21694347
000040 70 08 6f 3e 9b 47 9c 3d 30 aa 86 3d 1d 81 2e 3d
       0.23343062 0.07630845 0.065754294 0.0426036
000050 b3 17 95 3e b2 ad 3b be b8 28 8e be 2b ef 2a be
       0.29119644 -0.18327978 -0.2776544 -0.16692798
000060 e6 69 91 3e 7a 1f 4a 3e 0c e9 40 be c0 29 45 3e
       0.28401107 0.1973857 -0.188389 0.19254208
000070 6e cb 26 3e 0d d8 04 3e 1f 7a 37 be b9 50 02 be
       0.1628854 0.12973042 -0.17917679 -0.12726106
000080 28 18 1a 3e e3 cf 13 3e 93 c3 92 bd f6 0e 87 be
       0.15048277 0.14434771 -0.07166209 -0.26378602
000090 73 79 3e be ac e4 46 3e 65 9b 1c 3e c0 a3 64 3e
       -0.18601017 0.19423169 0.15293653 0.2232809
0000a0 a4 a0 c8 3d 90 b4 46 be 89 66 0d 3e 93 fd 77 be
       0.09796265 -0.19404817 0.13808645 -0.24217825
0000b0 9d 9b 52 3d e0 c9 8f 3e 00 b9 30 be 18 bf 58 be
       0.051417936 0.28083706 -0.17258072 -0.21166646
0000c0 7e df ef 3c cf 41 36 3e 20 83 f7 bd e7 dc 65 3e
       0.029281374 0.17798541 -0.12085557 0.22447549
0000d0 0f 98 12 3e 51 57 02 3e da ea 41 be 73 15 ff 3d
       0.14315818 0.12728621 -0.18937245 0.12455263
0000e0 1c fa 7d 3e 57 26 01 be 92 dd 0e 3e a5 98 b6 3d
       0.2480244 -0.12612282 0.1395171 0.089158334
0000f0 21 9a e7 bd 7c a4 fe bd 60 c5 e7 bd 77 35 8b bd
       -0.11308695 -0.12433717 -0.11316943 -0.06797307
000100 46 b8 49 3d e7 12 83 bd 48 eb 20 3d 1a 2b 49 3e
       0.049248002 -0.0640009 0.03928688 0.19645348
000110 d7 85 f9 3d 4c d3 8e be 94 32 e3 bd d3 1f 16 3e
       0.12183731 -0.27895582 -0.110936314 0.14660577
000120 a5 99 2d 3e 83 45 86 be a4 3d 1f be ec f6 e3 3d
       0.16953142 -0.26224908 -0.15550858 0.11131081
000130 af fd b0 bd f5 71 97 bd 06 5d 8d 3e 6d fc 22 be
       -0.08642136 -0.073947825 0.27610034 -0.15916605
000140 67 b4 95 3e 15 85 8b 3e 8f 91 f3 bc 85 9d 14 3e
       0.292392 0.2724997 -0.029732494 0.14513214
000150 cd 3f 49 3e ed 3c fa bd 77 62 cb bd 8a 11 5e be
       0.19653244 -0.12218652 -0.0993089 -0.21686378
000160 a2 99 ba 3d 8c 8c 65 3e 26 cf 4e be ef 9b 3f 3e
       0.091113344 0.22416896 -0.20196208 0.18711828
000170 0b 7f 94 3e 71 43 08 3e 34 3e 20 be bd ef 46 be
       0.29003176 0.13306977 -0.15648729 -0.1942739
000180 82 8f 1a 3e a1 fe 07 3e 6e 54 24 bd 17 18 29 be
       0.15093806 0.13280727 -0.04011958 -0.16513096
000190 bd 3d 51 be 76 72 5a 3e 63 cc 0a 3e 32 88 3b 3e
       -0.20433708 0.21332726 0.1355453 0.18313673
0001a0 ec 9e 39 3e f1 38 5c be ff 05 54 3d 72 25 ab bd
       0.1812703 -0.21506096 0.05176353 -0.083567515
0001b0 11 d2 8e 3e 67 5e cb 3d 78 f1 51 be 50 b1 69 bd
       0.27894643 0.09930115 -0.2050227 -0.057053864
0001c0 81 b9 8d 3c 38 7f bb 3d 54 ce 1a be 11 a5 2b 3e
       0.01730037 0.091551244 -0.1511777 0.16762187
0001d0 c2 c0 2a 3e c4 4b 4c 3e ed 9c 5a be 92 28 22 3e
       0.16675094 0.19950777 -0.21348925 0.15835789
0001e0 cb bf 92 3e 30 99 1e 3b 19 0f 6c 3e fb e7 08 3d
       0.2866195 0.0024200194 0.23052634 0.03342436
0001f0 3f 50 84 be c4 0d 85 bd 51 cc 0f be 72 c5 05 be
       -0.25842473 -0.06496766 -0.14042784 -0.130636
000200 66 d5 0d bd 5e a9 54 be 25 48 34 3e a0 ab 75 3e
       -0.03462734 -0.20767733 0.17605646 0.23991251
000210 77 ef 84 3e 53 3b bb bd 1b 87 96 bd 62 15 59 3e
       0.25963947 -0.091421746 -0.07349988 0.21199563
000220 cd ca 98 3e 1e 14 9c bd a7 b5 2a be 8a a8 9a bd
       0.29842225 -0.076210245 -0.16670857 -0.075516775
000230 0d 95 89 be 6c 02 8a be b2 34 14 3e 84 f3 ea bd
       -0.2687153 -0.26954973 0.14473227 -0.11472228
000240 23 f8 bb 3d 3a 1d b3 3d 7b be 99 3c 97 5b ca 3c
       0.09178188 0.08745809 0.018767586 0.024701877
000250 67 fe 5b 3e e5 dc dc bd e1 db 2c be 9b b1 77 be
       0.21483766 -0.1078432 -0.16880752 -0.24188845
000260 f7 d0 8d 3e b9 b6 5f 3e 63 70 4d be 92 2a 6f 3e
       0.2769849 0.21847047 -0.20062403 0.23356083
000270 8d 20 74 3e 1c 73 49 3e a7 22 32 be 44 04 43 be
       0.23840542 0.19672817 -0.17396031 -0.19044596
000280 f9 b3 b9 3d 6a f5 c3 3d 6b 90 40 be 9e 08 5f be
       0.0906753 0.095682934 -0.18805091 -0.21780631
000290 af 89 52 be d0 a2 2b 3e f9 26 22 3e dc 88 30 3e
       -0.20560335 0.16761327 0.1583518 0.17239708
0002a0 c7 9a 4f 3e 07 98 5d bd 95 9b 7b 3d 93 b0 e4 bd
       0.20273887 -0.054100063 0.06142767 -0.11166491
0002b0 ca 77 90 3e f6 3a 3e 3e 24 81 82 be b4 88 62 bd
       0.28216392 0.1857718 -0.2548915 -0.05530615
0002c0 f0 04 ed 3d ff f3 01 3e 19 54 53 be 50 a7 1d 3e
       0.115732074 0.12690733 -0.2063755 0.15395856
0002d0 3a 4f 80 3e 96 ae 4b 3e f4 52 c6 bd f2 d9 08 3e
       0.25060445 0.19890818 -0.09683791 0.1336439
0002e0 fc db 2e 3e 77 63 0d bd 72 5a b3 3d 7b e7 15 3e
       0.17076105 -0.034518685 0.087574854 0.14639084
0002f0 a1 ef 0f bd dc e1 91 bd 73 f2 c2 bd df 80 30 be
       -0.035140637 -0.071231574 -0.095189 -0.1723666
000300 67 d0 3d 3d a7 70 2b be 37 a6 6a 3e 63 a6 c9 3d
       0.046341326 -0.16742192 0.22914968 0.09846189
000310 4b f6 bc 3d 61 75 14 be 43 19 9f bd af fd a5 3d
       0.09226664 -0.14497901 -0.0776849 0.08105027
000320 4a a4 7e 3e 10 9d 01 be 53 c5 6a be 13 56 58 3d
       0.24867359 -0.12657571 -0.22926836 0.05281646
000330 82 ac 80 be 9c b1 85 bd 33 04 8c 3e 31 b6 13 be
       -0.25131613 -0.06528017 0.27346954 -0.1442497
000340 64 9b 0c 3e d6 4c a3 3d 28 b2 92 3d d8 45 71 3e
       0.13731152 0.0797364 0.07162887 0.235618
000350 62 63 03 3e e5 b0 f0 bd 72 31 8f be 77 f2 a5 bd
       0.1283088 -0.1175249 -0.2796741 -0.08102887
000360 5c af 67 3e 30 9e 65 3e 92 ac 57 bd a5 5c 97 3e
       0.22625488 0.22423625 -0.05265481 0.2956287
000370 3a 34 be 3d 78 94 87 3e c0 b5 3f be 1e e2 94 be
       0.09287305 0.2648046 -0.18721676 -0.29078764
000380 dc ed 65 3e 67 ce 90 3e b1 6c ba bd 1e 7c 7f be
       0.22454017 0.28282472 -0.091027625 -0.2494969
000390 9d 2a 97 bd 36 a4 3a 3e e5 4e 8e 3e c2 d6 27 3e
       -0.07381175 0.18226704 0.27794567 0.16390517
0003a0 3c 87 80 3e 95 0d 04 be e5 f6 bc bb 10 6b f5 bd
       0.25103176 -0.12895806 -0.005766737 -0.11983311
0003b0 b2 62 4c 3e cb 19 ec 3d 39 f6 91 be 30 29 29 be
       0.19959524 0.11528357 -0.28508165 -0.16519618
0003c0 86 92 79 bd 1c 3e b0 3d 76 06 5c be a1 bd 74 3d
       -0.06093075 0.086055964 -0.2148684 0.059751157
0003d0 e4 eb 61 3d 0e 91 05 3e fb 37 9c bd e7 9b 43 3e
       0.055156603 0.13043615 -0.07627865 0.19102441
0003e0 47 09 15 3e 41 72 0c 3d 84 5f 8b 3e 20 aa 39 bc
       0.1455432 0.03428865 0.2722131 -0.011332065
0003f0 19 0b 06 be 56 0e e3 bd 71 ff 00 bd b9 da 96 be
       -0.13090171 -0.11086719 -0.031493608 -0.29463747

notes_decoder.bias f4 [128]
000000 74 bd 00 bd 45 f5 37 be 2a 39 10 be b5 a6 76 be
       -0.031430677 -0.17964657 -0.14084306 -0.24087031
000010 88 cc 10 be e2 58 13 be 0c 0a 4e be 29 34 34 be
       -0.14140522 -0.14389375 -0.2012102 -0.17598023
000020 65 66 71 be 0e 10 80 be 5c 0a 1a be e7 56 66 bd
       -0.23574217 -0.2501225 -0.15043014 -0.05623522
000030 7f ad 44 bd 2a 2c 3d be d8 28 6a bd 47 a2 62 be
       -0.04801702 -0.18473879 -0.057167858 -0.22132216
000040 2d c1 35 bd 80 14 4e be 01 2e 61 bd ac 06 a6 bd
       -0.04437368 -0.20125008 -0.054975513 -0.08106741
000050 de bf 21 be e4 28 ff bd b6 ee 6c bd a7 02 0b be
       -0.15795848 -0.12458971 -0.05784484 -0.1357523
000060 81 30 9f bd 18 91 47 be 62 a0 a6 bd 84 e1 b0 bd
       -0.07772923 -0.19488943 -0.08136059 -0.08636764
000070 77 4f c8 bd 36 c5 08 bd d3 7e 2c be b3 4c 51 be
       -0.09780782 -0.0333912 -0.16845255 -0.20439415
000080 19 f4 42 be c8 10 f8 bd 58 78 9c bd e7 e1 15 bd
       -0.19038428 -0.12112576 -0.07640141 -0.03659239
000090 e0 a6 00 be 3e f2 85 bd ad 35 0c bd ea 7d 59 be
       -0.12563658 -0.06540345 -0.034230877 -0.21239439
0000a0 86 ab 34 be 64 bf a1 bd d8 c2 72 be 32 e6 2e be
       -0.17643556 -0.07897833 -0.2370714 -0.1708
0000b0 2c a1 62 be c8 2d f1 bd 48 cd 00 be c4 a2 04 be
       -0.22131795 -0.1177631 -0.12578309 -0.12952715
0000c0 8f be 1a be 62 01 1d bd e3 48 96 bd b6 21 24 bd
       -0.15111755 -0.038331397 -0.07338121 -0.04007121
0000d0 f0 ca d5 bc 22 c4 1e be 1b c8 6b be 60 5b 26 be
       -0.026097745 -0.15504506 -0.23025553 -0.16245794
0000e0 42 f7 36 be 46 c2 0a bd 56 3d b5 3b bf 7d 7a be
       -0.17867759 -0.03387668 0.0055309935 -0.24462031
0000f0 df 08 c4 bb 09 08 10 bd 38 db 00 bd a2 ed 11 be
       -0.005982503 -0.035163913 -0.031459063 -0.14250806
000100 81 8f 76 bc 70 52 66 be 06 3d c4 bc 36 9c da bd
       -0.015048862 -0.22492385 -0.02395488 -0.10674326
000110 43 b0 5d be 5f 6a 3e be 39 25 17 be ff 0c 30 be
       -0.2164927 -0.18595265 -0.14760293 -0.17192458
000120 fc 85 56 be b3 b0 69 bd 87 9b da bd c2 8f 0f be
       -0.20949548 -0.05705328 -0.10674196 -0.14019683
000130 c4 3e 5b be 81 94 21 bd ea f4 25 be fd 5f b9 bd
       -0.21410662 -0.039448265 -0.16206709 -0.090515114
000140 92 8f 5f be de ce 63 be c3 87 51 be 47 6b 58 be
       -0.21832111 -0.22246882 -0.20461945 -0.21134673
000150 c9 a0 32 be 90 de e7 bd 4e 6b 66 bd d3 9f 46 be
       -0.17444147 -0.11321747 -0.056254677 -0.19396906
000160 71 5e 24 bd ae 62 ea bd 41 8a 75 be e8 77 9c bd
       -0.04012913 -0.11444603 -0.23978521 -0.07640058
000170 26 e5 31 be 84 1b 97 bd ab 89 4e be c2 e3 83 be
       -0.1737257 -0.07378295 -0.20169704 -0.25759703
000180 d2 17 88 bd c1 5f 23 bc 87 6a 41 be bb 1d 3b be
       -0.06645168 -0.00997156 -0.18888293 -0.1827306
000190 8e e6 39 bd 9e 12 87 bd 88 d8 80 bd 87 f5 64 be
       -0.04538589 -0.06595348 -0.062913 -0.22359286
0001a0 23 b5 80 be fd 1a 4b bd 1a db 80 be ac 07 88 be
       -0.25138196 -0.049586285 -0.2516716 -0.26568353
0001b0 6a 14 74 be 05 f1 e7 bd 42 06 83 bd ba 48 12 be
       -0.23835912 -0.11325268 -0.06397678 -0.14285555
0001c0 76 59 5c be 36 72 ac bd 3e 5c a2 bd 04 6f 0e be
       -0.21518502 -0.084202215 -0.0792775 -0.13909537
0001d0 03 84 4e be 3c f2 5c be 0a 88 67 be 94 e3 26 be
       -0.20167546 -0.2157678 -0.22610489 -0.16297752
0001e0 5e d4 8c bd d1 75 6d be 8a 58 08 be 8b 2f 87 bd
       -0.06876443 -0.23189475 -0.13315025 -0.06600865
0001f0 05 4e 39 bd 64 f2 4e bd 53 13 4f be 4d dd e9 bd
       -0.04524042 -0.05052413 -0.20222215 -0.11419163
