saved_models/generalist_BCE_1e-2_91.pth (torch_old, 167373 bytes, 8 tensors)

notes_encoder.weight f4 [64, 128]
0	0xbdab4681	-0.08363057
1	0xbd65a336	-0.056063853
2	0x3d5c12ba	0.053728797
3	0x3d8fea6b	0.070271336
4	0xbd9130d9	-0.07089395
5	0xbd5e3e49	-0.05425862
6	0x3c09a1b8	0.008400373
7	0xbd7bda3d	-0.061487425
8	0xbd7cbf9b	-0.061706167
9	0xbbaa6400	-0.005199909
10	0xbc7618f8	-0.015020601
11	0x3d707742	0.058707483
12	0xbda766d3	-0.08173909
13	0xbd05eeec	-0.032698557
14	0x3c3c3560	0.011487335
15	0x3d6773ce	0.056506924
16	0xbd5c6031	-0.053802673
17	0xbda85646	-0.0821958
18	0xbc92921c	-0.017891936
19	0x3c91e298	0.017808244
20	0x3d3b4676	0.045721494
21	0xbd6c3732	-0.057669826
22	0xbdab433e	-0.08362435
23	0x3c92cfe0	0.017921388
24	0xbdb456e7	-0.08805638
25	0x3bd7f070	0.0065899417
26	0x3d317056	0.043320023
27	0x3cba0310	0.022706538
28	0x3d77e1c2	0.060518034
29	0xbcc5733c	-0.0241028
30	0x3cca6030	0.024704069
31	0xbc599e40	-0.013282359
32	0xbd4c956c	-0.049947187
33	0x3cd1a28c	0.025590204
34	0xbe46fed4	-0.19433147
35	0x3d16391e	0.036675565
36	0x3cb80c3f	0.022466777
37	0x3becdf10	0.0072287396
38	0x3d75f8ee	0.06005185
39	0x3e0a4589	0.13503088
40	0x3e82a862	0.2551909
41	0x3e0d9251	0.13825347
42	0xbca4665b	-0.020068338
43	0x3e343260	0.17597342
44	0x3ecd6903	0.4011918
45	0x3d883a16	0.06651704
46	0x3e23b0b0	0.1598537
47	0x3e91e716	0.28496617
48	0x3e8cf3f4	0.2752987
49	0x3e9edf7e	0.31029886
50	0x3ec0d694	0.3766371
51	0x3dc04c5e	0.09389566
52	0x3e2cd880	0.16879463
53	0x3e629b07	0.2212945
54	0x3e081972	0.13290957
55	0x3e2de130	0.16980433
56	0x3ea4ae42	0.32164198
57	0x3e3e546f	0.18586896
58	0x3dd073da	0.10178347
59	0x3e80ed80	0.25181198
60	0x3de4c9c2	0.11171295
61	0x3e8ccc17	0.27499458
62	0x3e2e69e7	0.17032586
63	0x3e88e421	0.2673655
64	0x3e0e87e3	0.13919024
65	0x3e22349a	0.15840378
66	0x3d3f2df6	0.04667469
67	0x3e6e99ea	0.23300901
68	0x3e98af2e	0.29821151
69	0x3e1c4be0	0.15263319
70	0x3e6b4666	0.22976074
71	0x3e8b026c	0.27150285
72	0x3e50f928	0.20407546
73	0x3c271b5c	0.010199394
74	0x3e5d7c0f	0.21629356
75	0xbc6b1dd4	-0.014350373
76	0x3d4c2d5c	0.049847946
77	0x3e5195a1	0.20467235
78	0xbc2e72e2	-0.010647507
79	0x3e01f58b	0.12691323
80	0x3ce6c5ac	0.02817043
81	0x3df478ad	0.119370796
82	0x3dde4c0a	0.10854347
83	0xbd07f301	-0.03319073
84	0x3d207a30	0.039179027
85	0x3d007ae4	0.031367198
86	0x3e00ff18	0.1259731
87	0x3d4f1722	0.05055917
88	0x3de2bd8e	0.11071311
89	0x3e12aec8	0.14324486
90	0xbda05cd8	-0.078302085
91	0x3d9896fd	0.07450674
92	0xbca76e9c	-0.020438485
93	0x3ce89f94	0.028396405
94	0x3bfd6e00	0.0077340603
95	0xbcc8e508	-0.024523273
96	0xbd96eb04	-0.073690444
97	0xbb545c20	-0.0032403544
98	0xbd4ff16b	-0.050767343
99	0x3d9bc695	0.07606236
100	0x3dac7959	0.08421583
101	0x3dac474d	0.08412037
102	0xbcd9d70e	-0.026591804
103	0xbd96c334	-0.07361451
104	0xbc692170	-0.0142291635
105	0x3d5d0a32	0.0539648
106	0xbd582233	-0.05276699
107	0x3d30afbe	0.04313635
108	0xbc05f550	-0.008176163
109	0xbc342ca8	-0.010996975
110	0xbd0ecf39	-0.03486559
111	0xbd4fc0d3	-0.050721
112	0x3d607d72	0.054807134
113	0x3ce46efc	0.027884953
114	0x3d313222	0.0432607
115	0xbd51d161	-0.05122507
116	0x3d38b1c6	0.045091413
117	0x3ceafb24	0.028684206
118	0x3d74abae	0.05973404
119	0x3d5cb8a6	0.053887032
120	0x3c597200	0.013271809
121	0x3dacc681	0.08436299
122	0x3b985480	0.004648745
123	0xbc89ba2c	-0.016812406
124	0x3c0d4260	0.008621782
125	0xbd39b0bc	-0.045334563
126	0x3d7952d2	0.06087
127	0x3cd69da4	0.026198216
128	0xbda75f81	-0.08172513
129	0x3d753f5a	0.05987487
130	0x3d8237a5	0.063582696
131	0x3bd5fae0	0.006530151
132	0xbdaeebbf	-0.08541059
133	0x3d9b61f3	0.07587042
134	0x3cc133b0	0.023584217
135	0xbd9604c8	-0.07325131
136	0x3bdfdc00	0.006831646
137	0xbcbe259c	-0.023211293
138	0x3d80758f	0.062724225
139	0xbbe106b0	-0.0068672523
140	0xbd0821a3	-0.033235203
141	0x3d3bcaba	0.045847632
142	0x3cb14420	0.02163893
143	0x3c4a3220	0.012341052
144	0xbd8e9521	-0.06962038
145	0xbda9c9bb	-0.0829043
146	0x3cda7208	0.026665702
147	0xba070f80	-0.0005152151
148	0xbc907384	-0.017633207
149	0xbbd988c0	-0.0066386163
150	0xbc525be0	-0.0128392875
151	0xbd0906a9	-0.033453617
152	0x3d41f63e	0.047353975
153	0xbcd5156c	-0.026011191
154	0xbcdd6a3c	-0.027028196
155	0xbd8ba552	-0.06818642
156	0x3c92a2d8	0.017899916
157	0xbcc8fc38	-0.02453433
158	0x3bae95c0	0.00532791
159	0xbd2c6845	-0.042091627
160	0x3d69775e	0.056998603
161	0xbccb626c	-0.024827205
162	0x3c6733d3	0.014111477
163	0x3ced49f4	0.028965928
164	0xbcfbdb35	-0.030744174
165	0x3b913340	0.0044311583
166	0x3a6ac6d1	0.00089560176
167	0xbd49d0cb	-0.049271386
168	0xbd4b7e35	-0.049680907
169	0xbdce6a3c	-0.10078856
170	0xbd83e05c	-0.064392775
171	0xbe44ee6c	-0.19231576
172	0xbdac4336	-0.08411257
173	0xbd561723	-0.05226816
174	0xbdf04fc2	-0.117339626
175	0xbdaee0aa	-0.08538945
176	0xbde98448	-0.11402184
177	0xbd0ab569	-0.033864412
178	0xbda74562	-0.081675306
179	0xbe30dea7	-0.17272435
180	0xbc7198fa	-0.014745945
181	0xbd290209	-0.041261707
182	0xbd511b20	-0.05105126
183	0xbdee9f3d	-0.11651466
184	0xbde95222	-0.11392619
185	0xbd90c6d0	-0.070691705
186	0xbe2ee72a	-0.1708037
187	0xbddd6f26	-0.108122155
188	0xbe1d197a	-0.1534175
189	0xbd7c1b42	-0.061549433
190	0xbd0c9fac	-0.034331962
191	0xbcebe7a0	-0.02879697
192	0xbda8d392	-0.08243479
193	0xbd6436d1	-0.05571634
194	0xbe3a7c82	-0.18211558
195	0xbe17d96a	-0.1482903
196	0xbd0060da	-0.031342365
197	0xbe26c091	-0.16284396
198	0xbd9d4556	-0.076792404
199	0xbe2abb82	-0.16673091
200	0xbdc9d9fb	-0.098560296
201	0xbe00abc7	-0.12565528
202	0xbd2666f9	-0.040625546
203	0xbd40e212	-0.047090597
204	0xbd2e4e68	-0.042555243
205	0x3c23bd28	0.009993829
206	0xbdfa2f90	-0.12216103
207	0xbdd6f541	-0.10495997
208	0xbd2db964	-0.04241313
209	0xbe053a02	-0.1301041
210	0xbd42f6aa	-0.04759852
211	0xbd46de92	-0.048552103
212	0xbe0d249b	-0.13783495
213	0xbca90c00	-0.020635605
214	0xbbc74a49	-0.0060818535
215	0xbdb2928b	-0.08719357
216	0xbd05db33	-0.032679748
217	0xbc920762	-0.017825786
218	0xbd8d3964	-0.06895712
219	0x3d1ad066	0.0377964
220	0xbd09d394	-0.033649042
221	0xbcbbe3ec	-0.02293583
222	0xbcb32ef8	-0.021872982
223	0x3d9ab001	0.07553101
224	0xbd307086	-0.04307606
225	0x3cd70a90	0.026250154
226	0xbd1362ad	-0.035982776
227	0x3d8a4eb1	0.067532904
228	0x3c66ebe8	0.01409433
229	0x3d596ce2	0.053082354
230	0xbd576a0d	-0.052591372
231	0x3d815be3	0.06316354
232	0x3d38affa	0.0450897
233	0xbd560cad	-0.052258182
234	0x3d47f072	0.04881329
235	0x3d6867ba	0.056739546
236	0xbd24f747	-0.040274885
237	0x3d51ef5e	0.05125367
238	0xbd8755a1	-0.06608129
239	0xbca5135c	-0.020150833
240	0xbda6741e	-0.08127616
241	0xbac804c0	-0.0015260205
242	0xbd9c6334	-0.07636109
243	0x3d9fc565	0.07801322
244	0x3daea9c9	0.08528478
245	0x3cd64b0c	0.026158832
246	0xbccac99c	-0.024754338
247	0xbc2165c0	-0.009850919
248	0xbd7c1cc0	-0.061550856
249	0xbd0ffc8f	-0.035152968
250	0xbc020d28	-0.007937707
251	0xbd992d32	-0.074793234
252	0x3d36c55a	0.044621803
253	0x3d6bad1e	0.057538144
254	0xbcf0201c	-0.029312186
255	0x3c2ef730	0.010679051

notes_encoder.bias f4 [64]
0	0xbc59ecf2	-0.013301121
1	0xbe271b04	-0.163189
2	0xbe2103a2	-0.15724042
3	0x3e2da3f9	0.16957082
4	0xbd85dd30	-0.06536329
5	0xbe2805f0	-0.16408515
6	0xbe45dfe7	-0.19323693
7	0x3e03032b	0.12794177
8	0x3e1f4fbc	0.1555776
9	0x3d4a8d0b	0.049450915
10	0x3d5a7068	0.053329855
11	0x3d9d05e0	0.07667136
12	0xbcb5df8a	-0.022201318
13	0x3e0f97f0	0.14022803
14	0x3db6170d	0.08891115
15	0xbe345cd9	-0.17613544
16	0xbe2ff3dc	-0.17182869
17	0xbe2c8d4d	-0.16850777
18	0xbe105b41	-0.1409731
19	0x3e14bfb3	0.14526252
20	0xbe371b15	-0.17881425
21	0xbe15792f	-0.14597009
22	0x3df5c262	0.11999966
23	0xbe60c6be	-0.21950814
24	0x3e473818	0.19454992
25	0x3e4f4e4e	0.20244715
26	0x3e493c81	0.19651987
27	0xbe4f42eb	-0.20240371
28	0x3c1ab9ad	0.009443683
29	0xbdd4a004	-0.10382083
30	0x3d86e3d2	0.06586422
31	0xbe0dbcd4	-0.13841563
32	0x3d986923	0.07441928
33	0x3e3f6ede	0.18694636
34	0xbc7c6f58	-0.015407406
35	0xbdf37f10	-0.118894696
36	0x3cdad0a3	0.026710814
37	0x3e044a7b	0.12919037
38	0x3e1fb5fc	0.15596765
39	0xbdf19926	-0.11796789
40	0xbd454bec	-0.048168108
41	0xbe59b4f1	-0.2126043
42	0x3d9752d9	0.07388849
43	0xbe2a24e5	-0.16615637
44	0x3d97287b	0.07380768
45	0xbdb506a5	-0.08839158
46	0x3e24e7b1	0.16104008
47	0x3e13737f	0.14399527
48	0x3e35ed85	0.17766388
49	0x3e2c42ef	0.16822408
50	0x3d927476	0.071511194
51	0x3e1504b4	0.14552575
52	0x3d9407b2	0.0722803
53	0x3e0fed47	0.14055358
54	0x3e344c70	0.17607284
55	0xbdd649a0	-0.104632616
56	0x3e29d924	0.16586739
57	0xbde4b817	-0.11167925
58	0xbe0b085b	-0.13577406
59	0x3e2c9e28	0.16857207
60	0x3e35ca76	0.17753014
61	0x3e11cc46	0.1423808
62	0xbdf57342	-0.11984874
63	0xbe56a851	-0.20962645

gru.weight_ih_l0 f4 [192, 64]
0	0x3d5428c0	0.051796675
1	0x3e5ea529	0.21742691
2	0x3e6fb753	0.23409776
3	0x3b1317db	0.002244464
4	0x3c9d55df	0.019205986
5	0x3e33ebfd	0.17570491
6	0x3e014dd1	0.12627341
7	0xbb92f4f6	-0.004484768
8	0xbe69a0ff	-0.22815321
9	0xbc448d5f	-0.011996596
10	0x3d6c1bc8	0.05764368
11	0xbcaf4b15	-0.021398107
12	0x3d9992ab	0.07498678
13	0xbe3d3283	-0.184763
14	0xbd5fe005	-0.054657
15	0x3d30c088	0.043152362
16	0x3e54a3fd	0.20765682
17	0x3d185604	0.037191406
18	0x3e3c6895	0.1839927
19	0xbddabbe2	-0.10680367
20	0x3de8ffa6	0.11376886
21	0x3e16126d	0.14655466
22	0xbd3c3834	-0.045952037
23	0x3e27ee16	0.16399416
24	0xbe60f80f	-0.21969627
25	0xbde63ceb	-0.11242088
26	0xbe3093ac	-0.17243832
27	0x3e28e7b4	0.16494638
28	0xbe1211d6	-0.14264616
29	0x3e2150f4	0.15753537
30	0xbd2a7176	-0.04161211
31	0x3d1f8d39	0.03895304
32	0xbe364730	-0.17800593
33	0xbd4a2dd8	-0.049360126
34	0x3e06989a	0.1314415
35	0x3e1ff91c	0.15622371
36	0xbd711dec	-0.058866426
37	0xbe2deedf	-0.16985653
38	0xbe68983e	-0.22714326
39	0x3d184f12	0.037184782
40	0x3df16a0a	0.117878035
41	0x3dcf52af	0.101231925
42	0x3d107aca	0.03527335
43	0xbdc13550	-0.09433997
44	0xbb91284d	-0.004429853
45	0x3d40e7fc	0.047096238
46	0xbe06934b	-0.13142125
47	0xbc089002	-0.008335115
48	0x3d824f38	0.06362766
49	0xbe5b3278	-0.21405971
50	0xbde72441	-0.11286212
51	0xbe0344c7	-0.12819205
52	0x3d5c0a47	0.05372074
53	0xbe308516	-0.17238268
54	0xbda9b602	-0.08286668
55	0x3d7af510	0.061268866
56	0xbe2510d9	-0.16119708
57	0xbcdc1a50	-0.026868016
58	0x3dee8704	0.11646846
59	0xbde4367a	-0.11143203
60	0xbe79b0f3	-0.24383907
61	0xbdc9cd8a	-0.098536566
62	0x3dc63b92	0.09679331
63	0x3d180646	0.037115358
64	0x3d2c77fe	0.04210662
65	0xbe686a41	-0.22696783
66	0xbda391c6	-0.079867885
67	0x3e241aa6	0.1602579
68	0xbe30d805	-0.17269905
69	0xbe1593d5	-0.14607175
70	0xbd2fdac7	-0.04293325
71	0x3e345d08	0.17613614
72	0xb9dcb69c	-0.00042097725
73	0xbcb50539	-0.022097217
74	0x3c5bae63	0.013408276
75	0x3d81a5f8	0.06330484
76	0x3ca7cd28	0.020483568
77	0x3dc5a0be	0.096498
78	0x3b91bc8a	0.0044475244
79	0xbdd24c6c	-0.102684826
80	0xbbd1f7b8	-0.006407704
81	0x3c351048	0.011051245
82	0x3b22d08a	0.0024843537
83	0x3e112d1b	0.14177363
84	0xbe520f4b	-0.20513646
85	0xbe5dbb75	-0.2165354
86	0xbce7065f	-0.02820128
87	0xbd4fde61	-0.050749186
88	0x3e5fdec3	0.2186232
89	0x3dface8e	0.122464284
90	0x3e005086	0.12530717
91	0xbdc03427	-0.09384947
92	0x3e2401a6	0.16016254
93	0xbd8ea22e	-0.06964527
94	0x3e38366d	0.17989512
95	0xbdf9a76d	-0.12190137
96	0xbd15a1b4	-0.036531165
97	0x3d03f20b	0.032213252
98	0xbd166021	-0.03671277
99	0xbd89ce24	-0.06728771
100	0x3dde26f9	0.10847277
101	0x3e42632f	0.18983148
102	0x3dc84170	0.09778106
103	0xbe21be30	-0.15795207
104	0xbe217211	-0.15766169
105	0xbdf37ca2	-0.11889006
106	0x3d86cb71	0.06581772
107	0x3c9447a7	0.018100573
108	0x3e2bd416	0.16780123
109	0x3dc56a54	0.09639421
110	0x3ddcf714	0.10789314
111	0x3e148198	0.14502561
112	0x3e239fb9	0.15978898
113	0x3e19a1ab	0.15003078
114	0x3d88718e	0.06662284
115	0x3e1009b6	0.14066204
116	0xbd2bdc82	-0.04195834
117	0x3de65e93	0.11248507
118	0x3d02d5dc	0.031942233
119	0xbe0a68e6	-0.13516578
120	0x3c5af734	0.013364602
121	0xbdb53d07	-0.08849531
122	0xbd32592f	-0.043542083
123	0xbb297a35	-0.0025860195
124	0x3e5ef666	0.21773681
125	0x3db2c80c	0.08729562
126	0xbd82b769	-0.06382639
127	0xbde9894c	-0.114031404
128	0x3e70e433	0.23524551
129	0xbdc17b5d	-0.09447358
130	0xbe47e1f9	-0.19519795
131	0x3e0fbbe2	0.14036515
132	0xbe1a7d03	-0.1508675
133	0x3ccc1172	0.024910662
134	0xbc87e5ce	-0.016589072
135	0x3e2ad8a1	0.166842
136	0x3dbf41eb	0.09338745
137	0x3e534234	0.20630723
138	0xbdfb3d42	-0.122675434
139	0x3e23a3e5	0.1598049
140	0xbd141839	-0.036155913
141	0xbce47fba	-0.027892936
142	0xbac63015	-0.0015120531
143	0xbd345dda	-0.044034816
144	0xbdb3fd4a	-0.087885454
145	0xbcaed58e	-0.021342065
146	0x3d0b5cae	0.034023933
147	0x3e0b9f7b	0.13635056
148	0x3cae56c4	0.021281607
149	0xbe43d9ec	-0.191261
150	0x3dd7af6c	0.10531506
151	0xbe42cbe6	-0.19023094
152	0x3de35395	0.110999264
153	0x3d513d2d	0.051083732
154	0x3def03b6	0.1167063
155	0xbdd57be6	-0.104240224
156	0x3d7749a5	0.060372967
157	0xbcf9a892	-0.030475888
158	0x3e515b5f	0.20445012
159	0xbe39b461	-0.18135215
160	0x3e2048b9	0.15652741
161	0xbc7a16b2	-0.0152642
162	0xbd4364a9	-0.04770342
163	0xba0a7e1a	-0.0005283073
164	0x3e5dd027	0.21661435
165	0x3d38b91e	0.045098417
166	0x3e05459f	0.1301484
167	0xbe0f396e	-0.13986751
168	0x3714199c	8.82745e-06
169	0xbe443880	-0.19162178
170	0x3cd58847	0.026065959
171	0xbdfbbc35	-0.12291757
172	0x3d1c454d	0.038152028
173	0xbdb92d2d	-0.0904182
174	0x3c20a440	0.009804785
175	0x3d644c5c	0.055736884
176	0xbe014fb1	-0.12628056
177	0x3d93475a	0.071913436
178	0x3db0da91	0.08635438
179	0x3e4856c5	0.1956435
180	0x3e357397	0.17719875
181	0x3deb0d3c	0.11477134
182	0x3e1ee607	0.15517436
183	0xbc9c0a60	-0.019047916
184	0x3e340687	0.17580615
185	0xbdae26f9	-0.08503527
186	0x3d03482e	0.032051258
187	0x3e34a43b	0.17640774
188	0x3db8e135	0.0902733
189	0x3d84dd70	0.06487548
190	0xbd5d0fcb	-0.05397014
191	0xbe17f40d	-0.14839192
192	0x3e1b4197	0.1516174
193	0xbdf46e98	-0.119351566
194	0xbcce51e3	-0.025185531
195	0x3d2390d2	0.039933033
196	0xbe5b1491	-0.21394564
197	0xbc57bd15	-0.013167639
198	0xbe05f7e5	-0.13082846
199	0x3e27c6de	0.16384456
200	0x3e404c7f	0.18779181
201	0x3dbabd1c	0.09118101
202	0xbda2cb22	-0.07948901
203	0x3dffd9b5	0.12492696
204	0x3e5b55d0	0.21419454
205	0x3e0d154a	0.13777652
206	0x3c96f269	0.018426137
207	0xbe0d8ed8	-0.13824022
208	0xbe2e4f67	-0.17022477
209	0xbde910e8	-0.11380178
210	0xbccb4e22	-0.02481753
211	0x3d6d8608	0.05798915
212	0xbe47c827	-0.19509946
213	0xbd55343e	-0.052051775
214	0x3dbe43a2	0.09290244
215	0x3cf15a69	0.029462056
216	0x3db789dc	0.089618415
217	0x3bfadb61	0.0076555465
218	0xbd04328b	-0.032274764
219	0xbb940074	-0.0045166556
220	0x3e009b0c	0.12559146
221	0xbdd35891	-0.10319627
222	0x3e4e429f	0.20142601
223	0xbd95fadf	-0.073232405
224	0x3dc0fa6f	0.094227664
225	0x3e444470	0.19166732
226	0xbdb931b5	-0.09042684
227	0xbcbd7629	-0.023127632
228	0x3e6474c7	0.22310172
229	0x3dd13cc9	0.10216672
230	0x3e2ea990	0.1705687
231	0xbd38d25e	-0.045122497
232	0xbdd7dbcb	-0.10539969
233	0xbe11ab8a	-0.14225593
234	0x3e1b5f0f	0.1517298
235	0xbde593ac	-0.11209807
236	0x3e13e574	0.14442998
237	0xbdae8bfd	-0.085227944
238	0x3de6d940	0.11271906
239	0x3c1744ad	0.009232682
240	0xbe0c2409	-0.13685621
241	0x3daa6e47	0.08321815
242	0x3bfafe14	0.007659683
243	0x3e427829	0.1899115
244	0x3ad87a2c	0.0016515902
245	0x3cd4c87e	0.025974508
246	0x3cc48960	0.023991287
247	0xbe0e1d6e	-0.13878414
248	0x3debd16b	0.11514553
249	0xbe3e5478	-0.1858691
250	0xbe55c422	-0.208756
251	0xbcc7c670	-0.024386615
252	0xbd00909c	-0.03138791
253	0x3e2d395b	0.1691641
254	0xbe030111	-0.12793376
255	0xbd826e59	-0.063687034

gru.weight_hh_l0 f4 [192, 64]
0	0x3cee8bdc	0.029119425
1	0xbd340e44	-0.043958917
2	0xbe0d85f7	-0.13820635
3	0x3e4e8020	0.20166063
4	0x3d90fad9	0.070790954
5	0xbe11a9f1	-0.14224984
6	0xbdb676ab	-0.08909353
7	0x3e1dad7a	0.15398207
8	0x3e7a0bbc	0.24418539
9	0xbd3ef39b	-0.04661904
10	0xbd979d31	-0.07403029
11	0x3dfd8e9e	0.12380718
12	0x3b347c26	0.0027539819
13	0xbe64c6d4	-0.22341472
14	0x3c706b9c	0.014674094
15	0xbd671332	-0.05641479
16	0x3d6f08d7	0.05835804
17	0x3e67d59d	0.22640081
18	0xbdd0e816	-0.10200517
19	0xbcf3dc03	-0.029767996
20	0x3e1d64f4	0.15370542
21	0xbe27bb47	-0.16380034
22	0xbe26a00f	-0.16271995
23	0xbe330d88	-0.1748563
24	0x3b9d00a1	0.0047913347
25	0x3e236b5c	0.15958923
26	0xbe2a8221	-0.16651203
27	0x3dbee309	0.09320647
28	0x3c5dc03a	0.0135346
29	0x3e4fea5d	0.20304246
30	0xbe214d96	-0.15752253
31	0xbe3e9dc4	-0.1861487
32	0x3bdd663d	0.0067565725
33	0x3e6b7fa7	0.22997914
34	0xbd29c07c	-0.041443333
35	0xbcf6af65	-0.030112932
36	0xbe3aed22	-0.18254521
37	0x3e22e986	0.15909395
38	0xbbb897b3	-0.0056333183
39	0x3e094d36	0.1340836
40	0x3da7f6ff	0.08201408
41	0xbe11117c	-0.14166826
42	0x3d87809d	0.06616328
43	0xbe15c010	-0.14624047
44	0x3e287cc1	0.1645384
45	0x3d9159d8	0.070972145
46	0xbdb2540b	-0.08707436
47	0xbda77ff6	-0.081787035
48	0x3aa7e94f	0.001281062
49	0x3e2cfa5d	0.16892381
50	0xbe5c1755	-0.21493275
51	0x3e1dcdf2	0.15410593
52	0x3dfb5371	0.122717746
53	0x3d61fe95	0.05517443
54	0xbd899d25	-0.06719426
55	0x3e4369cf	0.19083332
56	0xbb126704	-0.0022339234
57	0xbd88f9f8	-0.06688303
58	0x3e12bc32	0.14329603
59	0x3c7c4a5c	0.015398588
60	0xbdc566fc	-0.09638783
61	0xbdd670dc	-0.10470745
62	0xbd4d4440	-0.050113916
63	0xbe04e785	-0.12978943
64	0xbd2c9bb1	-0.042140666
65	0x3d3664eb	0.044529837
66	0x3d8e58d9	0.0695054
67	0xbdc77635	-0.09739343
68	0x3c878120	0.016541064
69	0x3dcea77a	0.10090537
70	0x3e5816e6	0.21102485
71	0xbce3fe73	-0.027831292
72	0xbd69c064	-0.057068244
73	0x3e1e7c8e	0.15477201
74	0x3d9c4b4e	0.07631551
75	0xbdc346ff	-0.09535026
76	0x3dbf4da8	0.09340984
77	0x3dc66be6	0.09688549
78	0xbe181f39	-0.1485566
79	0x3d982060	0.0742805
80	0x3ae84698	0.0017721234
81	0xbe2c334a	-0.1681644
82	0x3d3a43b5	0.045474727
83	0xbe2acf17	-0.16680561
84	0xbd9c43f3	-0.07630148
85	0x3e63a678	0.22231472
86	0x3e32d01c	0.174622
87	0x3d5c437c	0.053775296
88	0xbc8e0ab6	-0.017339092
89	0xbe0624ce	-0.13099977
90	0x3da27060	0.0793159
91	0xbd7e4f5d	-0.062087405
92	0xbde856e1	-0.11344696
93	0xbdbbb55f	-0.09165453
94	0xbd228490	-0.039677203
95	0x3e069120	0.13141298
96	0xbe19aa1d	-0.150063
97	0xbd90ebfc	-0.070762604
98	0x3cb37d2e	0.021910276
99	0x3e508fdb	0.20367377
100	0x3e55a3f8	0.2086333
101	0xbde81961	-0.11332966
102	0xbe37a04a	-0.17932239
103	0x3b0f3f8b	0.0021857943
104	0xbe634ee0	-0.22198057
105	0xbbdb29b5	-0.0066883215
106	0xbe510cff	-0.20415114
107	0x3e4146a6	0.18874606
108	0xbd26ceeb	-0.040724676
109	0xbda0cf95	-0.07852093
110	0x3e267554	0.16255695
111	0x3d891f48	0.066954195
112	0xbd631563	-0.055440318
113	0xbdb0d7e7	-0.0863493
114	0xbd2f8e79	-0.042860482
115	0xbde00ca0	-0.10939908
116	0xbc9aad16	-0.018881362
117	0x3cd40113	0.025879418
118	0x3e1dd25d	0.15412278
119	0xb9bdc3ff	-0.00036194918
120	0xbe1de279	-0.15418424
121	0xbe029c4d	-0.12754937
122	0xbe3609dd	-0.177772
123	0x3d76b0f1	0.06022734
124	0x3d52c48b	0.05145697
125	0x3e51a652	0.20473602
126	0xbaae2753	-0.0013286866
127	0x3e4511fa	0.19245139
128	0xbe8acc13	-0.2710882
129	0x3dbf7e96	0.09350316
130	0xbdd97a19	-0.106189914
131	0x3c50d581	0.012746216
132	0xbe3f53e7	-0.1868435
133	0x3e28e362	0.1649299
134	0xbc312539	-0.010812097
135	0xbcee1f42	-0.02906764
136	0xbe6a24a4	-0.2286554
137	0x3db06d82	0.08614637
138	0x3da41c80	0.080132484
139	0x3e113a8d	0.14182492
140	0x3e5a5e52	0.21325043
141	0xbbde6b4a	-0.006787692
142	0xbe76564f	-0.24056362
143	0x3e2c92e8	0.16852915
144	0xbde6be3c	-0.11266753
145	0xbe2e45a9	-0.1701876
146	0x3de845d3	0.11341443
147	0xbcb1eb07	-0.021718515
148	0xbcb569bb	-0.022145143
149	0x3d805fd6	0.06268279
150	0x3e0dd863	0.13852076
151	0x3d799089	0.060928855
152	0xbe58590a	-0.21127716
153	0xbe6f3d66	-0.23363265
154	0x3d9cd9d1	0.07658733
155	0xbdccdcbf	-0.100030415
156	0xbe44e92b	-0.19229572
157	0xbdf80feb	-0.12112411
158	0x3e62a390	0.22132707
159	0x3df59368	0.11991006
160	0xbdb7c31f	-0.08972763
161	0xbe67366b	-0.22579353
162	0x3dbee232	0.09320487
163	0xbcaeb006	-0.021324169
164	0x3e590fed	0.21197481
165	0xbe2c60ca	-0.16833797
166	0xbe23453b	-0.15944378
167	0xbb90323a	-0.0044005187
168	0xbd641be8	-0.055690676
169	0x3d51c9f4	0.051217988
170	0xbdcb4422	-0.09925105
171	0x3d9c89f2	0.076434985
172	0xbd00f4bf	-0.031483408
173	0xbd77ab8a	-0.060466327
174	0x3e4b17fa	0.19833365
175	0x3d4f1f50	0.05056697
176	0x3e39240f	0.18080162
177	0x3c8f3cee	0.017485108
178	0x3e0b2db3	0.13591652
179	0xbe656804	-0.2240296
180	0xbdc583fd	-0.096443154
181	0xbdd90a82	-0.10597707
182	0xbc425047	-0.01185996
183	0xbde90e4d	-0.11379681
184	0xbe0b0104	-0.13574606
185	0x3e59b1a0	0.21259165
186	0xbe0f562e	-0.13997719
187	0xbcc22392	-0.023698602
188	0x3d6aedd2	0.05735571
189	0xbc47e60e	-0.012200845
190	0x3e7ad07b	0.24493591
191	0x3d91e726	0.07124166
192	0xbe0e64ed	-0.13905688
193	0x3dc60471	0.09668816
194	0xbe13e628	-0.14443266
195	0xbe26147e	-0.16218755
196	0x3c409d8a	0.01175631
197	0x3e0ea463	0.13929896
198	0x3e30a20b	0.17249314
199	0x3c9fb441	0.019495131
200	0xbbfec17d	-0.0077745304
201	0xbc88ad26	-0.016684126
202	0x3c3c1928	0.011480607
203	0xbba592aa	-0.005052884
204	0x3e4ee27a	0.20203581
205	0xbc7dbc4c	-0.015486788
206	0xbe061a2a	-0.13095918
207	0x3e3c4806	0.1838685
208	0xbd12a486	-0.035801433
209	0x3ca87ce3	0.020567363
210	0x3e28cd0e	0.16484472
211	0xbe46bbd9	-0.19407596
212	0xbb249c76	-0.0025117672
213	0x3e3e89ef	0.18607305
214	0x3d43fc34	0.04784794
215	0x3e13cf51	0.14434554
216	0x3d0e5388	0.03474763
217	0xbc2f2130	-0.010689065
218	0x3d987d38	0.074457586
219	0xbd819113	-0.06326499
220	0xbb26fdbd	-0.002548083
221	0xbd07780f	-0.03307348
222	0x3d9b2bd6	0.075767204
223	0x3dc88ae5	0.09792117
224	0xbe1f007a	-0.15527526
225	0x3c2d6a8d	0.010584486
226	0x3e3153a5	0.17317064
227	0xbc18b5fc	-0.009320732
228	0x3e51bf3c	0.20483106
229	0xbc135653	-0.008992749
230	0xbd38f042	-0.045151003
231	0xbe487266	-0.1957489
232	0xbe126bcd	-0.14298935
233	0x3e21d915	0.15805466
234	0xbdcc3224	-0.09970501
235	0x3e1300f6	0.14355835
236	0xbe15dbdf	-0.14634655
237	0xbe3d23c8	-0.1847068
238	0xbce85015	-0.028358499
239	0x3d73f571	0.059560243
240	0x3da9227f	0.08258533
241	0xbdb83ebe	-0.08996342
242	0x3e0d5165	0.13800581
243	0x3b7b3f97	0.0038337463
244	0xbe3cb542	-0.1842852
245	0xbe73ad49	-0.23796572
246	0x3d49ca10	0.049264967
247	0xbd40916a	-0.047013678
248	0xbdc112f6	-0.09427445
249	0x3dae0204	0.08496478
250	0xbda339cd	-0.07970009
251	0xbdc57de0	-0.096431494
252	0x3dc7a1b7	0.097476415
253	0x3e395b2b	0.18101184
254	0x3e034c4d	0.12822075
255	0x3ca45db0	0.020064205

gru.bias_ih_l0 f4 [192]
0	0xbe4ad137	-0.19806372
1	0x3e167c2d	0.14695807
2	0xbd0e1682	-0.034689434
3	0x3e25ee97	0.16204296
4	0x3c6f907a	0.014621848
5	0x3dc0909d	0.09402583
6	0x3d9c117d	0.07620523
7	0x3da8d9c8	0.082446635
8	0x3d9dfa12	0.07713713
9	0x3df38db8	0.11892265
10	0x3d902003	0.07037356
11	0xbdfc7049	-0.12326104
12	0x3e041567	0.1289879
13	0x3e58a5e8	0.21157038
14	0x3ddedb22	0.1088164
15	0x3e14596d	0.14487238
16	0x3e3bdadf	0.18345211
17	0x3d8bd60e	0.06827937
18	0xbd8ae3e0	-0.06781745
19	0x3e1d4fcb	0.1536247
20	0x3d29ade3	0.041425597
21	0x3df3c725	0.11903218
22	0x3e1f0a5a	0.15531293
23	0x3e11581f	0.14193772
24	0x3dc3c110	0.09558308
25	0x3d3c3044	0.045944467
26	0xbd09deec	-0.03365986
27	0x3c3009c1	0.010744513
28	0x3e3dbb49	0.18528475
29	0x3bace401	0.0052762036
30	0x3d221bc9	0.03957728
31	0x3d89a609	0.06721122
32	0x3e3695b8	0.1783055
33	0x3dd7f871	0.10545433
34	0x3e1d302a	0.15350404
35	0xbd643a7d	-0.05571984
36	0x3dda220c	0.10651025
37	0x3d44b6ab	0.04802577
38	0x3df461fb	0.11932751
39	0x3e723b0d	0.23655339
40	0x3e370200	0.17871857
41	0x3cb64595	0.022249976
42	0x3d7e31ef	0.06205934
43	0xbcc3e997	-0.023915095
44	0x3d6ffe0e	0.058591895
45	0xbc0f8f04	-0.008762125
46	0xbd13e72b	-0.03610913
47	0xbd008140	-0.031373262
48	0xbceb949a	-0.028757382
49	0x3d4093b6	0.047015868
50	0x3ddfaca6	0.10921602
51	0x3e6c1bdb	0.23057501
52	0x3e23d2eb	0.15998428
53	0x3d01785b	0.03160892
54	0x3e1207ea	0.14260831
55	0x3d933f59	0.07189817
56	0xbcc7d6b3	-0.024394369
57	0xbe202c04	-0.1564179
58	0x3e3a532d	0.18195792
59	0x3b93e6bc	0.0045135897
60	0x3db8bec5	0.090207614
61	0x3b8b9c94	0.004260609
62	0x3dff726a	0.124729946
63	0xbcc0de5c	-0.02354353
64	0xbe463490	-0.19355989
65	0x3d2e917f	0.042619225
66	0x3ebff917	0.37494728
67	0x3e39c18a	0.18140236
68	0xbde49923	-0.11162021
69	0xbe0bf37e	-0.13667104
70	0x3bfb6115	0.007671485
71	0xbd12eb3e	-0.035868876
72	0x3dc3a480	0.0955286
73	0xbe9102d0	-0.28322458
74	0xbd8e667e	-0.069531426
75	0xbe0cd6b0	-0.13753772
76	0xbe8513c7	-0.2599165
77	0xbe2ca56a	-0.16859975
78	0xbd5ec209	-0.054384265
79	0xbe20268d	-0.15639706
80	0x3d4d8e2b	0.05018441
81	0xbdf43ec7	-0.11926036
82	0xbd242666	-0.040075682
83	0xbd9fc0ff	-0.07800483
84	0x3e51459f	0.20436715
85	0x3cb2600a	0.02177431
86	0x3b0ee7ca	0.0021805638
87	0xbe0f9b8e	-0.14024183
88	0xbcaea5fd	-0.021319384
89	0xbd08f45b	-0.03343616
90	0xbc584489	-0.013199934
91	0x3de22999	0.110430904
92	0xbc0b4a2e	-0.008501573
93	0x3ca089ef	0.019597022
94	0xbd36c46c	-0.044620916
95	0xbe768342	-0.24073508
96	0x3e088118	0.13330495
97	0xbcc39ccb	-0.023878476
98	0x3e5fb9c5	0.21848209
99	0xbe3be692	-0.18349674
100	0xbe2b6904	-0.16739279
101	0xbe31bc53	-0.17356996
102	0x3cd43352	0.025903378
103	0x3e805832	0.25067288
104	0xbdde77d5	-0.108627
105	0x3df5fcee	0.12011133
106	0x3cde9151	0.027168902
107	0x3d6530cf	0.05595475
108	0x3cedacee	0.029013123
109	0xbd141f33	-0.036162566
110	0xbcbd3ff9	-0.023101794
111	0x3d295032	0.041336246
112	0xbdfedb91	-0.12444223
113	0x3d9ca321	0.07648302
114	0x3df9e84c	0.1220251
115	0xbd9748a1	-0.073869
116	0xbe2f0284	-0.17090803
117	0x3d8bb9e6	0.06822567
118	0x3d95ed48	0.073206484
119	0xbda48f00	-0.080350876
120	0xbd912ae9	-0.070882626
121	0xbc27c34e	-0.010239435
122	0x3e065072	0.13116625
123	0x3e3ccf09	0.18438353
124	0xbe37474e	-0.17898294
125	0xbd3da7a4	-0.046302453
126	0xbd8e03f9	-0.069343515
127	0x3dbe88fa	0.0930347
128	0xbdf9eeb3	-0.122037314
129	0x3de0c128	0.10974342
130	0x3c94aee3	0.018149799
131	0xbe07e3c9	-0.13270487
132	0xbe2c9eea	-0.16857496
133	0x3e14c350	0.14527631
134	0x3de1d00d	0.11026011
135	0xbe54249a	-0.20717087
136	0xbe272749	-0.1632358
137	0x3e2e784c	0.17038077
138	0x3e6464b2	0.22304037
139	0x3c6671f6	0.014065256
140	0x3e1f3db9	0.15550889
141	0x3e127e04	0.14305884
142	0xbe2b7e51	-0.16747405
143	0x3e1b768c	0.15181941
144	0xbe29c3cb	-0.16578595
145	0xbe2361b1	-0.15955235
146	0x3ceb3778	0.028712973
147	0x3c35159f	0.011052518
148	0xbe3229b7	-0.17398725
149	0x3e29dd08	0.16588223
150	0x3e48abdc	0.19596809
151	0x3e3ce446	0.18446454
152	0xbe0929a2	-0.13394788
153	0x3cfa0e60	0.030524433
154	0x3e0d4670	0.13796401
155	0xbe5f6489	-0.21815695
156	0xbe42a9f0	-0.19010139
157	0xbe0b2530	-0.13588405
158	0x3e26f4e7	0.1630436
159	0x3e4dc442	0.20094398
160	0xbe83b734	-0.2572571
161	0xbe740657	-0.23830543
162	0xbc39b890	-0.011335507
163	0x3e4edb18	0.20200765
164	0x3e1c27d0	0.15249562
165	0xbe196dc8	-0.14983284
166	0xbe1700e5	-0.14746435
167	0xbd114ced	-0.035473753
168	0xbe45085d	-0.19241472
169	0x3dadc57d	0.084849335
170	0xbc557e65	-0.013030623
171	0x3e3871b2	0.18012121
172	0xbe124db5	-0.14287455
173	0xbe2b9719	-0.16756858
174	0x3e6d0fea	0.23150602
175	0x3d271a30	0.04079646
176	0x3df79cbc	0.120904416
177	0xbcfcdd58	-0.030867264
178	0x3e0b9f2e	0.13634941
179	0xbdf75470	-0.12076652
180	0xbe69f0c0	-0.22845745
181	0xbd8fe88b	-0.07026776
182	0x3e36a6b5	0.17837031
183	0xbe608c89	-0.2192861
184	0xbe027b52	-0.12742355
185	0x3defdba6	0.117118165
186	0xbdfbb2ec	-0.12289986
187	0xbd5f420e	-0.054506354
188	0x3dcdee66	0.100552365
189	0x3e5e6614	0.21718627
190	0x3e3f1834	0.18661577
191	0x3e6339f9	0.22190084

gru.bias_hh_l0 f4 [192]
0	0xbdfa6e93	-0.122281216
1	0x3e51bb46	0.20481595
2	0x3cc13687	0.023585571
3	0xbb6b5c75	-0.0035913263
4	0x3e080569	0.13283314
5	0x3e483740	0.19552326
6	0x3da6aa38	0.081379354
7	0x3db9e343	0.0907655
8	0x3e4997d9	0.19686832
9	0x3dce63ba	0.10077615
10	0x3d552408	0.052036315
11	0xbd04f9c7	-0.03246477
12	0x3e0f818a	0.14014259
13	0x3d69a170	0.057038724
14	0x3e1f67f2	0.15566996
15	0x3d62ec00	0.05540085
16	0x3e4eb4c3	0.20186143
17	0x3dc00c7f	0.093773834
18	0xbe2be5f5	-0.1678694
19	0x3e2313ad	0.15925474
20	0xbde285a2	-0.11060645
21	0x3d8218d6	0.06352393
22	0x3babd2e5	0.0052436464
23	0x3e3659e2	0.17807725
24	0x3e0574b8	0.13032806
25	0x3d63b6d8	0.055594295
26	0x3e36abf9	0.1783904
27	0x3d5572ea	0.052111544
28	0x3cd7c9a6	0.02634127
29	0x3e0826bf	0.1329603
30	0xbb3c528e	-0.002873573
31	0x3e174978	0.1477412
32	0xbc6a4de8	-0.014300801
33	0x3e69cd72	0.22832277
34	0x3d4c9a83	0.04995204
35	0x3bf6ced0	0.007531978
36	0x3e57d7fc	0.21078485
37	0x3e404730	0.18777156
38	0x3e057e25	0.13036402
39	0x3df17688	0.11790186
40	0x3dd48d6e	0.10378538
41	0x3e25f0b1	0.16205098
42	0x3cf823da	0.030290533
43	0x3d8ef3c9	0.06980092
44	0x3e38b64f	0.18038295
45	0x3c7d3520	0.0154545605
46	0x3a418693	0.0007382419
47	0xbcb69dfc	-0.02229213
48	0xbd7638ac	-0.06011264
49	0xbbd48737	-0.0064858454
50	0x3e3b51df	0.1829295
51	0x3cf9952d	0.03046664
52	0x3db707b4	0.08937016
53	0x3cccaf6b	0.02498599
54	0x3e07af46	0.13250455
55	0x3e3a3895	0.18185647
56	0xbc3285c7	-0.010896153
57	0xbdff2823	-0.12458827
58	0x3daeb643	0.085308574
59	0xbd4ccd9a	-0.050000764
60	0x3e15e03d	0.14636321
61	0x3dede806	0.116165206
62	0xbd39d5a4	-0.04536976
63	0x3cb360e4	0.021896787
64	0x3b9eec10	0.004849918
65	0xbdcf9499	-0.10135765
66	0x3eeaf25d	0.45888034
67	0x3ea9370f	0.3304982
68	0x3d1b4273	0.037905168
69	0xbe0b84cc	-0.13624877
70	0xbe3bade4	-0.18328053
71	0xbe8a0496	-0.26956624
72	0x3db6e758	0.08930844
73	0xbe2fcef3	-0.17168789
74	0xbe3b4d41	-0.18291189
75	0xbd89844e	-0.06714688
76	0xbe6ee681	-0.23330118
77	0xbda28ffd	-0.0793762
78	0xbe2ce0de	-0.16882655
79	0xbd434d46	-0.047681116
80	0xbd8a7579	-0.067606874
81	0xbe1d589f	-0.15365838
82	0xbe7b5e84	-0.24547774
83	0xbe50633f	-0.2035036
84	0x3e765244	0.2405482
85	0xbd45d184	-0.048295513
86	0xbc5b2259	-0.013374888
87	0xbd73e008	-0.059539825
88	0xbe0a0854	-0.1347974
89	0xbe19d81f	-0.1502385
90	0xbcffc595	-0.031222144
91	0xbd0f7068	-0.03501931
92	0xbe002920	-0.12515688
93	0x3de98c53	0.11403718
94	0x3e0a6038	0.13513267
95	0xbe869831	-0.26287988
96	0x3d957fd0	0.07299769
97	0x3d12f721	0.03588021
98	0x3e1300e7	0.14355813
99	0xbbb65128	-0.005563874
100	0xbdf23df3	-0.11828222
101	0xbdffeab5	-0.12495939
102	0xbe05f1b2	-0.1308048
103	0x3eb64c6a	0.35605174
104	0xbe14a1ca	-0.14514843
105	0x3ccda92b	0.02510508
106	0x3cfa53d1	0.030557545
107	0xbd67e6f9	-0.056616757
108	0xbe19cb04	-0.1501885
109	0xbd6fa477	-0.058506455
110	0xbda9ed2f	-0.08297192
111	0x3d4c21c2	0.04983688
112	0x3cbb917d	0.022896523
113	0xbcf29c04	-0.02961541
114	0x3e3a7f7b	0.18212692
115	0xbc4b1a0c	-0.012396347
116	0xbd4c4dc5	-0.049878854
117	0xbe2d2492	-0.16908482
118	0xbc4f03dc	-0.0126351975
119	0xbd003857	-0.03130373
120	0xbe139066	-0.14410552
121	0xbdf9444b	-0.12171229
122	0xbb852e57	-0.004064362
123	0x3e15bbfd	0.14622493
124	0xbcd16d7d	-0.025564903
125	0x3e21ba5d	0.15793748
126	0x3d5cfcdc	0.053952083
127	0x3dc6da49	0.09709603
128	0xbe322a8b	-0.17399041
129	0x3e529bed	0.20567293
130	0xbdd1cd67	-0.102442555
131	0xbbcf08e1	-0.006318197
132	0xbe5fe06f	-0.21862958
133	0x3e6d43bc	0.2317037
134	0x3e394af3	0.18094997
135	0xbd282abb	-0.041056376
136	0xbe59e973	-0.2128046
137	0x3e733a16	0.23752627
138	0x3e13790e	0.14401647
139	0xbc86a76f	-0.01643726
140	0x3e681855	0.22665532
141	0x3e3a7635	0.18209155
142	0xbd4f9a86	-0.050684474
143	0x3e4cbada	0.19993153
144	0xbe1ea754	-0.15493518
145	0xbd19044c	-0.037357613
146	0x3dd172eb	0.10226997
147	0xbdd1e705	-0.102491416
148	0xbe0cf387	-0.13764773
149	0x3e0b364e	0.13594934
150	0x3e47eb55	0.19523366
151	0x3c9d2cbb	0.019186368
152	0xbe0e3487	-0.13887225
153	0xbe0e3f49	-0.13891329
154	0x3e3e3adc	0.1857714
155	0xbe100bd7	-0.14067017
156	0xbe0f0860	-0.13968039
157	0xbe4348fc	-0.1907081
158	0x3c105fab	0.0088118715
159	0x3db0cd95	0.08632962
160	0xbc8bb63e	-0.017054673
161	0xbe60b80c	-0.21945208
162	0xbd8c9e63	-0.06866147
163	0x3c88b661	0.016688528
164	0x3e1b915a	0.15192166
165	0xbdf96a7d	-0.12178514
166	0xbd068882	-0.032845028
167	0xbdac3275	-0.084080614
168	0xbab0ccf7	-0.0013488819
169	0x3e3ad23e	0.18244264
170	0xbde11556	-0.10990398
171	0x3e043790	0.1291182
172	0xbe23954b	-0.1597492
173	0xbe3d6261	-0.1849456
174	0x3dcaca29	0.0990184
175	0x3dfe4246	0.124149844
176	0x3b96af81	0.0045985584
177	0xbe09cf68	-0.13458025
178	0xbd12bcd7	-0.035824623
179	0xbe762a36	-0.2403954
180	0xbe195c23	-0.14976554
181	0xbe19d750	-0.15023541
182	0x3db964f3	0.09052458
183	0xbb9080b9	-0.004409876
184	0xbdcd1df6	-0.1001548
185	0xbb3979af	-0.002830129
186	0xbe0bb360	-0.13642645
187	0x3dbc8ce3	0.092065595
188	0x3e6b6e25	0.22991236
189	0x3d5a770f	0.0533362
190	0x3e19beb6	0.15014157
191	0x3c3a845a	0.011384094

notes_decoder.weight f4 [128, 64]
0	0x3d847e4a	0.064694
1	0xbdc1fd99	-0.09472198
2	0x3e1fd67e	0.15609166
3	0x3e38e666	0.1805664
4	0x3e3cd0aa	0.18438974
5	0xbd67b0ef	-0.05656522
6	0xbd3e0b9b	-0.046397787
7	0x3d997bea	0.07494338
8	0x3e0f80d5	0.1401399
9	0xbe44f081	-0.1923237
10	0xbe8b2b89	-0.27181652
11	0x3c9a350a	0.01882412
12	0xbda9443a	-0.08264966
13	0xbe906cb2	-0.28207928
14	0x3d57551e	0.05257141
15	0xbe5bea80	-0.21476173
16	0x3e6df701	0.23238756
17	0x3d99eed2	0.075162545
18	0x3d89a581	0.067210205
19	0x3d296894	0.0413595
20	0x3e94f541	0.29093364
21	0xbe3a24da	-0.1817812
22	0xbe8d773b	-0.27630028
23	0xbe29ea5c	-0.16593307
24	0x3e90d2d1	0.2828584
25	0x3e44f677	0.19234644
26	0xbe3f8fc1	-0.18707182
27	0x3e4320f4	0.1905554
28	0x3e25da5c	0.16196579
29	0x3e03e69e	0.12880942
30	0xbe35fb17	-0.17771564
31	0xbe009768	-0.12557757
32	0x3e18d2fa	0.14924231
33	0x3e12a9fe	0.1432266
34	0xbd88e2e3	-0.066839
35	0xbe86730a	-0.26259643
36	0xbe3d72b0	-0.18500781
37	0x3e45bf8d	0.19311352
38	0x3e1ba3f3	0.1519926
39	0x3e5f97ea	0.21835294
40	0x3dc6d1c4	0.09707978
41	0xbe44e2c2	-0.19227126
42	0x3e0be3f6	0.13661179
43	0xbe76e208	-0.24109662
44	0x3d4dfc19	0.050289247
45	0x3e8f366b	0.27971205
46	0xbe2e3244	-0.17011362
47	0xbe575385	-0.21027954
48	0x3cfc9fbd	0.030837888
49	0x3e34e22f	0.17664407
50	0xbdf2821c	-0.11841223
51	0x3e64f2b6	0.22358212
52	0x3e11b88f	0.1423056
53	0x3e00eba1	0.12589885
54	0xbe40f1c6	-0.18842229
55	0x3dfbb484	0.1229029
56	0x3e7c8e93	0.24663763
57	0xbe0088a0	-0.12552118
58	0x3e0dd809	0.13851942
59	0x3db0c5e5	0.086314954
60	0xbde5ab65	-0.112143315
61	0xbdfbea4e	-0.123005494
62	0xbddbb57f	-0.10727977
63	0xbd86540c	-0.065589994
64	0x3d40c37f	0.04706144
65	0xbd81e397	-0.063422374
66	0x3d20c30f	0.039248522
67	0x3e49202e	0.19641182
68	0x3df77f34	0.12084809
69	0xbe8e8385	-0.27834716
70	0xbde1659a	-0.11005707
71	0x3e155005	0.14581306
72	0x3e2c7450	0.16841245
73	0xbe85dee6	-0.2614662
74	0xbe1db186	-0.15399751
75	0x3de640f5	0.11242858
76	0xbdaec4b1	-0.0853361
77	0xbd958dd2	-0.07302441
78	0x3e8cd44f	0.2750573
79	0xbe217564	-0.15767437
80	0x3e954dda	0.2916096
81	0x3e8b1417	0.27163765
82	0xbced00a8	-0.028930977
83	0x3e13ab68	0.14420855
84	0x3e490cc5	0.19633777
85	0xbdf8024d	-0.12109814
86	0xbdc95ec3	-0.098325275
87	0xbe5d4b6b	-0.21610801
88	0x3db8d55b	0.09025069
89	0x3e622f6b	0.22088401
90	0xbe4dd1af	-0.20099519
91	0x3e3e2e11	0.1857226
92	0x3e942372	0.28933293
93	0x3e078ab0	0.13236499
94	0xbe1f251e	-0.15541503
95	0xbe45b9e1	-0.19309188
96	0x3e199eac	0.15001935
97	0x3e072349	0.13197054
98	0xbd1834ba	-0.03715966
99	0xbe282fd7	-0.164245
100	0xbe50776d	-0.20358057
101	0x3e599696	0.2124885
102	0x3e0a100d	0.13482685
103	0x3e388150	0.18018079
104	0x3e38ed76	0.18059334
105	0xbe5aecdb	-0.21379416
106	0x3d4fa0a5	0.050690312
107	0xbda97c14	-0.08275619
108	0x3e8e62ca	0.27809745
109	0x3dc9a2c1	0.09845496
110	0xbe50357e	-0.20332906
111	0xbd658013	-0.056030344
112	0x3c93f0f3	0.01805923
113	0x3db9768b	0.090558134
114	0xbe191a12	-0.14951351
115	0x3e2af271	0.16694047
116	0x3e2a1770	0.16610503
117	0x3e4b3fb6	0.19848523
118	0xbe59e01b	-0.21276896
119	0x3e20f3d2	0.1571801
120	0x3e923a30	0.2856002
121	0x3b4170f9	0.00295168
122	0x3e6b4921	0.22977115
123	0x3d00c634	0.03143902
124	0xbe83f203	-0.25770578
125	0xbd830b5d	-0.06398652
126	0xbe0be433	-0.1366127
127	0xbe041775	-0.12899573
128	0xbd19da55	-0.037561733
129	0xbe53e810	-0.20693994
130	0x3e343eec	0.17602128
131	0x3e75a0ed	0.2398717
132	0x3e843eca	0.25829154
133	0xbdb9a2dc	-0.09064266
134	0xbd942023	-0.07232692
135	0x3e580448	0.21095383
136	0x3e97ff8c	0.29687154
137	0xbd99f7ff	-0.075180046
138	0xbe28731e	-0.16450164
139	0xbd9840a9	-0.07434208
140	0xbe88d1c2	-0.26722533
141	0xbe895fde	-0.26830953
142	0x3e12bd2a	0.14329973
143	0xbde667a8	-0.112502396
144	0x3db9de9e	0.09075664
145	0x3db0c375	0.086310305
146	0x3ca53e74	0.020171382
147	0x3cc02cca	0.023458857
148	0x3e5bb8e3	0.21457247
149	0xbdd9c843	-0.106339
150	0xbe2b7c9f	-0.16746758
151	0xbe76af19	-0.24090232
152	0x3e8d3ae8	0.27584004
153	0x3e5a7d3c	0.21336836
154	0xbe4c19b2	-0.19931677
155	0x3e6d25d5	0.23158963
156	0x3e73331c	0.23749965
157	0x3e4883f7	0.1958159
158	0xbe309e03	-0.17247777
159	0xbe4155db	-0.18880408
160	0x3db7371d	0.08946059
161	0x3dc1af21	0.09457231
162	0xbe3b7b04	-0.18308645
163	0xbe5dd481	-0.21663095
164	0xbe51865f	-0.20461415
165	0x3e2a8021	0.1665044
166	0x3e21326e	0.15741894
167	0x3e2b3c3e	0.167222
168	0x3e4eb60e	0.20186636
169	0xbd562f9d	-0.0522915
170	0x3d7586ae	0.059942894
171	0xbde2803b	-0.11059614
172	0x3e8fe3f5	0.28103605
173	0x3e3d1532	0.18465117
174	0xbe813946	-0.2523901
175	0xbd5cca3c	-0.053903803
176	0x3df0140c	0.11722574
177	0x3e0091fc	0.12555689
178	0xbe50bf25	-0.20385416
179	0x3e1cc0b7	0.1530789
180	0x3e7fc431	0.24977185
181	0x3e4a3f01	0.19750597
182	0xbdc46833	-0.09590187
183	0x3e07277c	0.13198656
184	0x3e2d718a	0.16937843
185	0xbd0b2388	-0.033969432
186	0x3db15559	0.08658857
187	0x3e133d68	0.14378893
188	0xbd0c1d16	-0.034207426
189	0xbd8f2b45	-0.06990675
190	0xbdb71951	-0.089403756
191	0xbe2e027e	-0.16993138
192	0x3d32e353	0.043673825
193	0xbe2aca83	-0.16678815
194	0x3e6a9c4a	0.22911182
195	0x3dc99069	0.09841997
196	0x3dbaa00c	0.09112558
197	0xbe13c612	-0.14431027
198	0xbd9d0f0f	-0.07668888
199	0x3da42c83	0.080163024
200	0x3e7d4bef	0.24735998
201	0xbe00b657	-0.12569557
202	0xbe68d9ec	-0.2273938
203	0x3d5d44dc	0.054020748
204	0xbe80075e	-0.2500562
205	0xbd8389b1	-0.06422747
206	0x3e8b659d	0.27225962
207	0xbe11cd23	-0.1423841
208	0x3e0bb5be	0.13643548
209	0x3da14ec9	0.07876355
210	0x3d949633	0.07255211
211	0x3e703190	0.23456407
212	0x3e0325a8	0.12807333
213	0xbdee1589	-0.11625201
214	0xbe8e9bd2	-0.27853256
215	0xbda439d8	-0.08018845
216	0x3e66b013	0.22528104
217	0x3e613d4b	0.21996038
218	0xbd531e47	-0.051542547
219	0x3e9680f3	0.29395255
220	0x3dbc9e7b	0.09209915
221	0x3e872e80	0.26402664
222	0xbe3e6e92	-0.18596867
223	0xbe942984	-0.28937924
224	0x3e64dd7a	0.22350112
225	0x3e905266	0.28187865
226	0xbdb1e3fa	-0.08686061
227	0xbe7e757f	-0.24849509
228	0xbd956fb3	-0.072966956
229	0x3e39acbe	0.18132302
230	0x3e8de689	0.27714947
231	0x3e2371c1	0.15961362
232	0x3e802593	0.25028667
233	0xbe027efc	-0.12743753
234	0xbbe610e6	-0.0070210574
235	0xbdf38d4f	-0.11892187
236	0x3e4b67d0	0.1986382
237	0x3dea266c	0.1143311
238	0xbe90e22b	-0.28297552
239	0xbe27f32c	-0.16401356
240	0xbd75e4ae	-0.06003254
241	0x3dade7c4	0.084914714
242	0xbe59de89	-0.21276297
243	0x3d71a919	0.058999155
244	0x3d5efeec	0.05444233
245	0x3e045aff	0.12925337
246	0xbd9a94c5	-0.07547907
247	0x3e422c4c	0.1896221
248	0x3e13d5bc	0.14437002
249	0x3d0ee6e7	0.034888174
250	0x3e8af13f	0.2713718
251	0xbc5fd80d	-0.01366235
252	0xbe053a62	-0.13010553
253	0xbde0c03b	-0.10974165
254	0xbcd9c8d1	-0.026585015
255	0xbe95ceea	-0.29259425

notes_decoder.bias f4 [128]
0	0xbcfe4085	-0.031036625
1	0xbe37a9b1	-0.17935826
2	0xbe0fd978	-0.14047801
3	0xbe76529a	-0.24054947
4	0xbe107986	-0.14108858
5	0xbe12fc56	-0.14354071
6	0xbe4db371	-0.20087983
7	0xbe33e6bc	-0.17568487
8	0xbe711224	-0.23542076
9	0xbe7fc7a6	-0.24978504
10	0xbe19b7e6	-0.15011558
11	0xbd650fcb	-0.055923264
12	0xbd430820	-0.04761517
13	0xbe3cbbb2	-0.18430975
14	0xbd69459a	-0.056951143
15	0xbe6269b7	-0.2211064
16	0xbd34a643	-0.044103872
17	0xbe4dccc2	-0.2009764
18	0xbd5fe4b3	-0.054661464
19	0xbda559a3	-0.080737375
20	0xbe2177fa	-0.15768424
21	0xbdfeaab7	-0.12434905
22	0xbd6b8c1e	-0.057506673
23	0xbe0aa7ba	-0.13540545
24	0xbd9ebe22	-0.07751109
25	0xbe47460b	-0.19460313
26	0xbda5d9c8	-0.08098179
27	0xbdb03b55	-0.08605067
28	0xbdc7af28	-0.09750205
29	0xbd07a10d	-0.033112574
30	0xbe2c319d	-0.16815801
31	0xbe50fb04	-0.20408255
32	0xbe42ae78	-0.19011867
33	0xbdf78cbf	-0.12087392
34	0xbd9cb962	-0.076525465
35	0xbd14d35d	-0.036334384
36	0xbe01dd96	-0.12682185
37	0xbd8528be	-0.065019116
38	0xbd13942c	-0.03602998
39	0xbe59d24b	-0.21271627
40	0xbe36990a	-0.17831817
41	0xbda3b465	-0.07993392
42	0xbe7406c6	-0.23830709
43	0xbe2f3121	-0.17108585
44	0xbe633079	-0.2218646
45	0xbdf1fb75	-0.1181554
46	0xbe00f9cd	-0.12595291
47	0xbe057010	-0.1303103
48	0xbe1c1e84	-0.15246016
49	0xbd1cd5a7	-0.038289692
50	0xbd98358b	-0.074320875
51	0xbd24a535	-0.040196616
52	0xbcdcb642	-0.026942376
53	0xbe1f6a57	-0.15567909
54	0xbe6beb79	-0.23039044
55	0xbe2715c0	-0.1631689
56	0xbe367437	-0.1781777
57	0xbd0ffa80	-0.035151005
58	0x3b88a9cb	0.0041706315
59	0xbe7b4da5	-0.24541338
60	0xbc17207d	-0.009224054
61	0xbd120eca	-0.035658635
62	0xbd05041e	-0.03247463
63	0xbe1286fc	-0.14309305
64	0xbc823364	-0.015893646
65	0xbe67a271	-0.2262056
66	0xbcc8ed7f	-0.02452731
67	0xbde07ec7	-0.10961681
68	0xbe5e944a	-0.21736255
69	0xbe40732a	-0.18793932
70	0xbe1900ba	-0.14941683
71	0xbe3105a5	-0.1728731
72	0xbe56ccad	-0.20976515
73	0xbd6a64f5	-0.057225186
74	0xbddcdff1	-0.10784901
75	0xbe0f9507	-0.14021693
76	0xbe5afebc	-0.21386236
77	0xbd18e52f	-0.03732794
78	0xbe26be29	-0.16283478
79	0xbdb692bc	-0.08914706
80	0xbe5fc1a7	-0.21851216
81	0xbe6301b3	-0.22168617
82	0xbe4f5b88	-0.2024976
83	0xbe589aa3	-0.21152739
84	0xbe30a426	-0.17250118
85	0xbde7c112	-0.11316122
86	0xbd6458be	-0.055748694
87	0xbe46ae3a	-0.194024
88	0xbd2c3a8a	-0.042048015
89	0xbdeab6dd	-0.1146066
90	0xbe7544a6	-0.23951969
91	0xbd9bec53	-0.07613435
92	0xbe319b86	-0.17344484
93	0xbd967948	-0.07347351
94	0xbe4e3c9c	-0.20140308
95	0xbe83ba3c	-0.25728023
96	0xbd876791	-0.066115506
97	0xbc1fad96	-0.009745976
98	0xbe4111e6	-0.18854484
99	0xbe3abedd	-0.18236871
100	0xbd38ca2d	-0.045114685
101	0xbd864d34	-0.06557694
102	0xbd8032cb	-0.06259688
103	0xbe64b4a5	-0.22334535
104	0xbe808133	-0.2509857
105	0xbd49c5bd	-0.049260844
106	0xbe80baaa	-0.25142413
107	0xbe87df1c	-0.26537406
108	0xbe73c8b2	-0.23807028
109	0xbde75781	-0.11295987
110	0xbd8267bc	-0.06367442
111	0xbe11f1e8	-0.14252436
112	0xbe5c093b	-0.21487896
113	0xbdabd3d2	-0.08390011
114	0xbda1c1a1	-0.0789826
115	0xbe0e1b46	-0.13877591
116	0xbe4e3e33	-0.20140915
117	0xbe5c94dc	-0.2154116
118	0xbe6721d0	-0.22571492
119	0xbe2694c6	-0.1626769
120	0xbd8c4876	-0.06849758
121	0xbe6d20eb	-0.23157088
122	0xbe07f48a	-0.13276878
123	0xbd8699c0	-0.06572294
124	0xbd381c3c	-0.0449488
125	0xbd4daca9	-0.05021349
126	0xbe4ed3fb	-0.20198052
127	0xbde950ab	-0.11392339
