saved_models/generalist_BCE_1e-2_178.pth (torch_old, 167373 bytes, 8 tensors)

notes_encoder.weight f4 [64, 128]
-0.08363057 -0.056063853 0.053728797 0.070271336 -0.07089395 -0.05425862 0.008400373 -0.061487425
-0.061706167 -0.005199909 -0.015020601 0.058707483 -0.08173909 -0.032698557 0.011487335 0.056506924
-0.053802673 -0.0821958 -0.017891936 0.017808244 0.045721494 -0.057669826 -0.08362435 0.017921388
-0.08805638 0.0065899417 0.043320023 0.022706538 0.060518034 -0.0241028 0.024704069 -0.013282359
-0.049947187 0.025590204 -0.51524085 0.036675565 -0.07898177 0.0072287396 -0.09106419 -0.24390258
0.122864224 0.062021423 -0.8197254 -0.4815222 0.8471826 -0.40827557 0.1168581 0.18872333
0.2967138 0.40615168 0.4332586 0.096697114 -0.08778618 0.04925649 -0.2343823 0.14618002
0.6410101 0.0021450275 0.22936873 0.31126657 0.1375644 0.66881704 0.22649066 0.35798913
0.20946503 0.012790651 -0.016728953 0.26964867 0.7575832 0.2397434 0.516423 0.75455225
0.3615995 0.18575987 0.2561449 -0.50680494 0.2957322 0.5836519 -0.13207948 0.3381704
0.19285244 0.1298348 0.007023929 -0.058043268 -0.22377312 -0.29850805 -0.04160525 -0.5610614
-0.29009548 0.13333692 -0.078302085 0.07450674 -0.020438485 0.028396405 0.0077340603 -0.024523273
-0.073690444 -0.0032403544 -0.050767343 0.07606236 0.08421583 0.08412037 -0.026591804 -0.07361451
-0.0142291635 0.0539648 -0.05276699 0.04313635 -0.008176163 -0.010996975 -0.03486559 -0.050721
0.054807134 0.027884953 0.0432607 -0.05122507 0.045091413 0.028684206 0.05973404 0.053887032
0.013271809 0.08436299 0.004648745 -0.016812406 0.008621782 -0.045334563 0.06087 0.026198216
-0.08172513 0.05987487 0.063582696 0.006530151 -0.08541059 0.07587042 0.023584217 -0.07325131
0.006831646 -0.023211293 0.062724225 -0.0068672523 -0.033235203 0.045847632 0.02163893 0.012341052
-0.06962038 -0.0829043 0.026665702 -0.0005152151 -0.017633207 -0.0066386163 -0.0128392875 -0.033453617
0.047353975 -0.026011191 -0.027028196 -0.06818642 0.017899916 -0.02453433 0.00532791 -0.042091627
0.056998603 -0.024827205 0.008677152 0.028965928 -0.033497807 0.0044311583 -0.007884443 -0.047258236
-0.04697738 -0.10712151 -0.08179868 -0.20310722 -0.060921002 -0.060307987 -0.10223032 -0.092847675
-0.108632386 -0.061767824 -0.07821464 -0.16047631 -0.0059957015 -0.045838248 -0.050829854 -0.11631319
-0.10115486 -0.077840276 -0.16547802 -0.101963475 -0.14993726 -0.06014601 -0.03892754 -0.024635106
-0.07727173 -0.056889128 -0.1875638 -0.1505506 -0.018349418 -0.17135085 -0.07776709 -0.16653885
-0.0910523 -0.10617723 -0.042865045 -0.06033109 -0.03489517 0.022132877 -0.12035628 -0.09646598
-0.038357895 -0.12579891 -0.041792303 -0.05300768 -0.13472688 -0.009785298 -0.010833862 -0.09261741
-0.047285087 -0.014175813 -0.06895712 0.0377964 -0.033649042 -0.02293583 -0.021872982 0.07553101
-0.04307606 0.026250154 -0.035982776 0.067532904 0.01409433 0.053082354 -0.052591372 0.06316354
0.0450897 -0.052258182 0.04881329 0.056739546 -0.040274885 0.05125367 -0.06608129 -0.020150833
-0.08127616 -0.0015260205 -0.07636109 0.07801322 0.08528478 0.026158832 -0.024754338 -0.009850919
-0.061550856 -0.035152968 -0.007937707 -0.074793234 0.044621803 0.057538144 -0.029312186 0.010679051
00000000: 8146 abbd 36a3 65bd ba12 5c3d 6bea 8f3d
00000010: d930 91bd 493e 5ebd b8a1 093c 3dda 7bbd
00000020: 9bbf 7cbd 0064 aabb f818 76bc 4277 703d
00000030: d366 a7bd ecee 05bd 6035 3c3c ce73 673d
00000040: 3160 5cbd 4656 a8bd 1c92 92bc 98e2 913c
00000050: 7646 3b3d 3237 6cbd 3e43 abbd e0cf 923c
00000060: e756 b4bd 70f0 d73b 5670 313d 1003 ba3c
00000070: c2e1 773d 3c73 c5bc 3060 ca3c 409e 59bc
00000080: 6c95 4cbd 8ca2 d13c d3e6 03bf 1e39 163d
00000090: 32c1 a1bd 10df ec3b dd7f babd 99c1 79be
000000a0: 3da0 fb3d 2d0a 7e3d 86d9 51bf 148a f6be
000000b0: f5e0 583f 7f09 d1be 4d53 ef3d b040 413e
000000c0: dfea 973e 1df3 cf3e 12d4 dd3e 2309 c63d
000000d0: 3ec9 b3bd 2cc1 493d ea01 70be 37b0 153e
000000e0: 3d19 243f 9793 0c3b a3df 6a3e 555e 9f3e
000000f0: afdd 0c3e 9837 2b3f 2bed 673e 5a4a b73e
00000100: 007e 563e e18f 513c 280b 89bc 640f 8a3e
00000110: f9f0 413f 4b7f 753e 4c34 043f 562a 413f
00000120: 9223 b93e d637 3e3e 6d25 833e f8bd 01bf
00000130: 366a 973e 366a 153f d83f 07be ac24 ad3e
00000140: 1c7b 453e 6af3 043e fd28 e63b c7be 6dbd
00000150: c824 65be 0cd6 98be 446a 2abd b8a1 0fbf
00000160: 6587 94be 7989 083e d85c a0bd fd96 983d
00000170: 9c6e a7bc 949f e83c 006e fd3b 08e5 c8bc
00000180: 04eb 96bd 205c 54bb 6bf1 4fbd 95c6 9b3d
00000190: 5979 ac3d 4d47 ac3d 0ed7 d9bc 34c3 96bd
000001a0: 7021 69bc 320a 5d3d 3322 58bd beaf 303d
000001b0: 50f5 05bc a82c 34bc 39cf 0ebd d3c0 4fbd
000001c0: 727d 603d fc6e e43c 2232 313d 61d1 51bd
000001d0: c6b1 383d 24fb ea3c aeab 743d a6b8 5c3d
000001e0: 0072 593c 81c6 ac3d 8054 983b 2cba 89bc
000001f0: 6042 0d3c bcb0 39bd d252 793d a49d d63c
00000200: 815f a7bd 5a3f 753d a537 823d e0fa d53b
00000210: bfeb aebd f361 9b3d b033 c13c c804 96bd
00000220: 00dc df3b 9c25 bebc 8f75 803d b006 e1bb
00000230: a321 08bd baca 3b3d 2044 b13c 2032 4a3c
00000240: 2195 8ebd bbc9 a9bd 0872 da3c 800f 07ba
00000250: 8473 90bc c088 d9bb e05b 52bc a906 09bd
00000260: 3ef6 413d 6c15 d5bc 3c6a ddbc 52a5 8bbd
00000270: d8a2 923c 38fc c8bc c095 ae3b 4568 2cbd
00000280: 5e77 693d 6c62 cbbc 9d2a 0e3c f449 ed3c
00000290: ff34 09bd 4033 913b c02d 01bc da91 41bd
000002a0: 5a6b 40bd 8662 dbbd 1186 a7bd 57fb 4fbe
000002b0: 4d88 79bd 8205 77bd 215e d1bd ec26 bebd
000002c0: a87a debd 4200 7dbd ff2e a0bd e753 24be
000002d0: 9777 c4bb e3c0 3bbd f732 50bd 9c35 eebd
000002e0: 472a cfbd b96a 9fbd 1273 29be 3ad2 d0bd
000002f0: 2789 19be aa5b 76bd 7c72 1fbd 90cf c9bc
00000300: a440 9ebd 9304 69bd ba10 40be f029 1abe
00000310: 8551 96bc 9976 2fbe 5a44 9fbd 2989 2abe
00000320: a179 babd 7373 d9bd 4293 2fbd bc1d 77bd
00000330: 3dee 0ebd 0250 b53c 5a7d f6bd f58f c5bd
00000340: 2b1d 1dbd 6ed1 00be 682e 2bbd 951e 59bd
00000350: d8f5 09be 8452 20bc 8380 31bc 32ae bdbd
00000360: 02ae 41bd ab41 68bc 6439 8dbd 66d0 1a3d
00000370: 94d3 09bd ece3 bbbc f82e b3bc 01b0 9a3d
00000380: 8670 30bd 900a d73c ad62 13bd b14e 8a3d
00000390: e8eb 663c e26c 593d 0d6a 57bd e35b 813d
000003a0: faaf 383d ad0c 56bd 72f0 473d ba67 683d
000003b0: 47f7 24bd 5eef 513d a155 87bd 5c13 a5bc
000003c0: 1e74 a6bd c004 c8ba 3463 9cbd 65c5 9f3d
000003d0: c9a9 ae3d 0c4b d63c 9cc9 cabc c065 21bc
000003e0: c01c 7cbd 8ffc 0fbd 280d 02bc 322d 99bd
000003f0: 5ac5 363d 1ead 6b3d 1c20 f0bc 30f7 2e3c

notes_encoder.bias f4 [64]
-0.12497714 -0.16707613 -0.16354385 0.17476645 -0.058468703 -0.16821478 -0.19135688 0.14022955
0.1566728 0.046077535 0.13426563 0.07927245 -0.030582624 0.14859593 0.0855804 -0.18003175
-0.16743807 -0.17508434 -0.14013718 0.1446107 -0.18022414 -0.16316766 0.12575147 -0.23557523
0.19431116 0.20599762 0.19336267 -0.20685992 0.040465377 -0.107058294 0.08672923 -0.1364985
0.076878205 0.1893911 -0.13699009 -0.11947122 0.017394738 0.121647075 0.14013296 -0.10947612
-0.04803301 -0.21322954 0.06461187 -0.1736713 0.06971193 -0.0047797253 0.16439795 0.12889913
0.14576907 0.16933925 -0.05794656 0.14159177 0.04658718 0.13385972 0.17645983 -0.10832238
0.16833028 0.068236545 -0.12212878 0.1655205 0.18010621 0.14020118 -0.112819955 -0.20824806
00000000: 04f4 ffbd 0116 2bbe 0a78 27be faf5 323e
00000010: e17c 6fbd 7f40 2cbe 0ff3 43be 5698 0f3e
00000020: d66e 203e ccbb 3c3d ee7c 093e 9859 a23d
00000030: 6988 fabc 8829 183e c744 af3d 3e5a 38be
00000040: e374 2bbe 4f49 33be 1f80 0fbe d414 143e
00000050: ad8c 38be 6c15 27be fec4 003e a23a 71be
00000060: 81f9 463e 0af1 523e dd00 463e 16d3 53be
00000070: 06bf 253d 6141 dbbd 189f b13d 43c6 0bbe
00000080: 5272 9d3d beef 413e 2147 0cbe 54ad f4bd
00000090: 697f 8e3c 1a22 f93d 047f 0f3e 0435 e0bd
000000a0: 43be 44bd d858 5abe 3a53 843d e4d6 31be
000000b0: 21c5 8e3d 3e9f 9cbb f057 283e 22fe 033e
000000c0: 7d44 153e 4567 2d3e 5f59 6dbd 6ffd 103e
000000d0: 33d2 3e3d 8612 093e e3b1 343e 20d8 ddbd
000000e0: c65e 2c3e 9abf 8b3d a71e fabd 357e 293e
000000f0: c36d 383e e690 0f3e 260e e7bd fb3e 55be

gru.weight_ih_l0 f4 [192, 64]
0.041037012 0.22465923 0.24277788 -0.0026718879 0.025240457 0.18025574 0.13074856 -0.010884628
-0.23317061 -0.021077018 0.045506548 -0.026321994 0.07648372 -0.19046651 -0.05798864 0.047140922
0.2111124 0.04410571 0.18901958 -0.11098453 0.118517175 0.16132918 -0.056555614 0.17528199
-0.22385181 -0.11580751 -0.1758678 0.16961133 -0.1399531 0.16404577 -0.05352169 0.04305577
-0.18424436 -0.053175684 0.15089743 0.1687195 -0.06752813 -0.17412159 -0.23835683 0.047144018
0.12677635 0.105654486 0.029034069 -0.06988102 -0.012538437 0.063702516 -0.14079213 -0.012536005
0.01056989 -0.21929204 -0.11865922 -0.13267563 0.04873051 -0.17845689 -0.08710582 0.075633
-0.16751888 -0.02542204 0.11999532 -0.115261756 -0.2515448 -0.10919151 0.10344194 0.04128774
0.042115223 -0.22698116 -0.07988125 0.16027178 -0.1727116 -0.14608526 -0.0429469 0.17615019
-0.00040749935 -0.022085369 0.013400947 0.06331573 0.0204711 0.096511364 0.004460837 -0.102698386
-0.0064214175 0.011037046 0.002471229 0.14178716 -0.20515017 -0.2165504 -0.028188838 -0.050762698
0.21863678 0.122477956 0.12532073 -0.093862906 0.16017064 -0.06965876 0.17990585 -0.12191462
-0.036518995 0.03222683 -0.03672291 -0.06730048 0.108477585 0.18984589 0.097795986 -0.1579646
-0.15767467 -0.1189037 0.06583074 0.01811012 0.16781224 0.09638889 0.107906364 0.14503908
0.15979487 0.15004466 0.06663673 0.14067568 -0.0419456 0.11249836 0.03195569 -0.13517773
0.013378041 -0.08850859 -0.043555435 -0.0025723905 0.21775036 0.087308615 -0.06383889 -0.11404509
0.2352712 -0.09449876 -0.19522311 0.14038777 -0.15089273 0.024887124 -0.016611053 0.16686629
0.09341051 0.20633283 -0.12269996 0.15983076 -0.036138937 -0.0278688 -0.0014876074 -0.044057656
-0.08790732 -0.021364072 0.033999335 0.1363735 0.021258736 -0.19128051 0.10534113 -0.19025514
0.11102213 0.05110551 0.11672905 -0.1042636 0.060399316 -0.030501023 0.20447583 -0.18137656
0.15655303 -0.015241477 -0.04772831 -0.00055405096 0.21663809 0.045122202 0.13016865 -0.13989352
-1.6080985e-05 -0.19164386 0.026090603 -0.122924715 0.038177885 -0.09044464 0.0098298965 0.055760033
-0.12630506 0.07193542 0.08637806 0.19566597 0.17722377 0.114795335 0.15519762 -0.019073823
0.17583062 -0.08505785 0.032027505 0.17643014 0.09029811 0.064901076 -0.053995527 -0.14841354
0.15163822 -0.11937141 -0.025205502 0.03995265 -0.21396586 -0.013187546 -0.13084805 0.16386417
0.18781161 0.09120153 -0.07950954 0.12494754 0.2142128 0.13779645 0.018446112 -0.13826
-0.17024437 -0.113821425 -0.024837665 0.058008946 -0.19511902 -0.052071396 0.09292253 0.029442148
0.08963816 0.0076751625 -0.03225502 -0.0045366506 0.12561151 -0.10321613 0.2014458 -0.07325237
0.09424804 0.19168709 -0.09044839 -0.023147812 0.22312248 0.10218668 0.17058834 -0.045142677
-0.105420254 -0.14227551 0.15175 -0.11210521 0.14445055 -0.08524851 0.112739064 0.009252516
-0.13687688 0.08323782 0.007680266 0.1899313 0.0016717516 0.02599456 0.024011126 -0.13880433
0.11516543 -0.18588875 -0.20877588 -0.02436693 -0.03136791 0.16918416 -0.12795399 -0.06370669
00000000: 6d16 283d 120d 663e c49a 783e d71a 2fbb
00000010: 13c5 ce3c f694 383e f3e2 053e 7055 32bc
00000020: 47c4 6ebe b6a9 acbc 1365 3a3d 39a1 d7bc
00000030: 7fa3 9c3d a709 43be 7f85 6dbd d716 413d
00000040: d92d 583e 30a8 343d 598e 413e db4b e3bd
00000050: 22b9 f23d 7a33 253e dca6 67bd 1f7d 333e
00000060: 6939 65be 7d2c edbd b016 34be 98ae 2d3e
00000070: de4f 0fbe 9dfb 273e 8f39 5bbd 3f5b 303d
00000080: 8eaa 3cbe bfce 59bd db84 1a3e cec4 2c3e
00000090: 304c 8abd ee4c 32be d013 74be 161a 413d
000000a0: a9d1 013e 6161 d83d dbd8 ed3c c81d 8fbd
000000b0: 046e 4dbc 7776 823d d02b 10be d163 4dbc
000000c0: 552d 2d3c 188e 60be 9b03 f3bd 1fdc 07be
000000d0: a599 473d 67bd 36be 8964 b2bd 79e5 9a3d
000000e0: 128a 2bbe e241 d0bc 1bc0 f53d 5b0e ecbd
000000f0: 7bca 80be cc9f dfbd 5ed9 d33d 551d 293d
00000100: 0381 2c3d c06d 68be c898 a3bd 491e 243e
00000110: 4fdb 30be 6097 15be 17e9 2fbd b760 343e
00000120: a3a5 d5b9 60ec b4bc a58f 5b3c adab 813d
00000130: 02b3 a73c c0a7 c53d 372c 923b 8853 d2bd
00000140: c16a d2bb bad4 343c 58f4 213b a730 113e
00000150: e312 52be 63bf 5dbe 47ec e6bc 8cec 4fbd
00000160: 52e2 5f3e b9d5 fa3d 1454 003e 323b c0bd
00000170: c603 243e 41a9 8ebd 3d39 383e 5fae f9bd
00000180: f194 15bd 4800 043d c36a 16bd d6d4 89bd
00000190: 7f29 de3d f666 423e 4349 c83d 79c1 21be
000001a0: 7875 21be c883 f3bd 44d2 863d ad5b 943c
000001b0: f9d6 2b3e 8a67 c53d 03fe dc3d 2085 143e
000001c0: 44a1 233e 4fa5 193e d778 883d 490d 103e
000001d0: 26cf 2bbd 8a65 e63d f8e3 023d 086c 0abe
000001e0: 922f 5b3c fe43 b5bd 2f67 32bd 8d95 28bb
000001f0: f3f9 5e3e dcce b23d f7bd 82bd 7990 e9bd
00000200: efea 703e 9188 c1bd 91e8 47be d0c1 0f3e
00000210: a083 1abe 15e0 cb3c e713 88bc ffde 2a3e
00000220: 024e bf3d ea48 533e 1e4a fbbd adaa 233e
00000230: 6c06 14bd 1c4d e4bc d2fb c2ba cd75 34bd
00000240: c108 b4bd b503 afbc e342 0b3d 7fa5 0b3e
00000250: cd26 ae3c 0adf 43be 17bd d73d 3ed2 42be
00000260: 925f e33d 0354 513d a40f ef3d 2888 d5bd
00000270: 4665 773d 48dd f9bc 1d62 513e c7ba 39be
00000280: 704f 203e 63b7 79bc c37e 43bd bb3d 11ba
00000290: 60d6 5d3e 0fd2 383d ee4a 053e 3f40 0fbe
000002a0: a7e5 86b7 4a3e 44be f6bb d53c f4bf fbbd
000002b0: 6a60 1c3d 0a3b b9bd 930d 213c a264 643d
000002c0: 1d56 01be e152 933d fbe6 b03d a95c 483e
000002d0: 267a 353e d119 eb3d 20ec 1e3e b540 9cbc
000002e0: f10c 343e cf32 aebd 462f 033d 1aaa 343e
000002f0: 37ee b83d dbea 843d 6a2a 5dbd b8f9 17be
00000300: 0d47 1b3e ff78 f4bd c57b cebc 64a5 233d
00000310: de19 5bbe 9410 58bc 08fd 05be 02cc 273e
00000320: b051 403e dec7 ba3d e6d5 a2bd 7fe4 ff3d
00000330: 9a5a 5b3e 831a 0d3e 4d1c 973c 0894 0dbe
00000340: 8a54 2ebe 351b e9bd 5c78 cbbc ca9a 6d3d
00000350: 48cd 47be d148 55bd 2b4e be3d a930 f13c
00000360: 3694 b73d ee7f fb3b d71d 04bd 2fa8 94bb
00000370: 4ea0 003e fa62 d3bd cf47 4e3e 5705 96bd
00000380: 1e05 c13d 9f49 443e 013d b9bd 7ba0 bdbc
00000390: 387a 643e 4047 d13d b6ae 2e3e 87e7 38bd
000003a0: 93e6 d7bd acb0 11be 5a64 1b3e 6b97 e5bd
000003b0: d8ea 133e c596 aebd bde3 e63d dd97 173c
000003c0: 7429 0cbe 9778 aa3d beaa fb3b 5a7d 423e
000003d0: ad1e db3a 8bf2 d43c fbb2 c43c b922 0ebe
000003e0: dadb eb3d 9f59 3ebe 58c9 55be 289d c7bc
000003f0: a37b 00bd 9d3e 2d3e 5f06 03be a778 82bd

gru.weight_hh_l0 f4 [192, 64]
0.022923984 -0.047271643 -0.13809419 0.20184834 0.07862125 -0.14583376 -0.09524684 0.15909837
0.25347298 -0.05209562 -0.09130025 0.13034946 -0.0053737336 -0.22999392 0.02275155 -0.0742174
0.063447334 0.23229082 -0.11590146 -0.02295697 0.16149466 -0.17278458 -0.17102444 -0.17950074
0.010578306 0.18350798 -0.1737863 0.105178125 0.017847901 0.20717824 -0.16614538 -0.19785514
0.01295447 0.2358718 -0.082665965 -0.03597871 -0.18739423 0.16460136 -0.0012776685 0.1714719
0.08590886 -0.15304723 0.075395316 -0.15157115 0.1703416 0.07657821 -0.102973804 -0.089827254
-0.018424502 0.1762153 -0.2338415 0.15815622 0.12671994 0.063073106 -0.071669884 0.2017798
0.0051130205 -0.067778945 0.14806172 0.036904313 -0.10074337 -0.111793265 -0.09587471 -0.14626619
-0.042129193 0.044542823 0.069504425 -0.097408056 0.01652764 0.100918405 0.21103798 -0.02784421
-0.057081796 0.15478554 0.076329365 -0.0953586 0.09342289 0.09689854 -0.14856918 0.07429426
0.0017588194 -0.16817711 0.045479473 -0.1668189 -0.07631518 0.22232795 0.17463571 0.0537881
-0.017352227 -0.13100754 0.07932925 -0.062101066 -0.11346001 -0.09166714 -0.039665263 0.131427
-0.1500764 -0.07077588 0.021922614 0.2036869 0.20864625 -0.11334271 -0.17933518 0.0021735986
-0.22199313 -0.0066761468 -0.20416419 0.18875924 -0.040737625 -0.07853384 0.1625702 0.06696664
-0.055449277 -0.08636206 -0.04285 -0.109411955 -0.018894577 0.02586669 0.15413584 -0.00037493536
-0.15419747 -0.12755674 -0.17778504 0.0602383 0.05146983 0.2047493 -0.0013362113 0.19246322
-0.2711155 0.093526885 -0.10621626 0.012720252 -0.18686827 0.16495371 -0.01078743 -0.029092293
-0.22868046 0.08617048 0.08015838 0.1418422 0.2132755 -0.0067627304 -0.24058886 0.16855454
-0.11269169 -0.17021245 0.11341692 -0.021742994 -0.022171253 0.06270802 0.13854556 0.060953498
-0.21130176 -0.23366152 0.076612175 -0.10005606 -0.19231986 -0.121148765 0.2213525 0.11993541
-0.08975232 -0.22581804 0.093231745 -0.02129953 0.21199945 -0.16836248 -0.15946825 -0.0044270586
-0.055715248 0.051243693 -0.09927595 0.07645937 -0.03150816 -0.060491055 0.19835989 0.050591994
0.18082239 0.017460179 0.13594276 -0.22405387 -0.09646704 -0.106002025 -0.011835685 -0.11382234
-0.13577095 0.2126139 -0.14000165 -0.02372518 0.057380162 -0.012176022 0.24496539 0.07126805
-0.13907558 0.096707374 -0.14445385 -0.16220908 0.011736646 0.13931811 0.17251265 0.019475717
-0.007794628 -0.01666463 0.011501465 -0.005055308 0.20205587 -0.015467127 -0.13097893 0.18388896
-0.035821173 0.02054797 0.16485716 -0.19409554 -0.0025326933 0.18609285 0.047867745 0.1443649
0.034727976 -0.010712777 0.07447743 -0.063286036 -0.0025673576 -0.033092722 0.07578687 0.09794177
-0.15529548 0.010565005 0.1731928 -0.009300696 0.20485039 -0.00901247 -0.045170344 -0.19577065
-0.1430085 0.15807486 -0.09972482 0.14357795 -0.14636587 -0.18472631 -0.028337263 0.05957986
0.082602225 -0.08998316 0.13802654 0.0038144349 -0.18430436 -0.23798537 0.049284372 -0.047033742
-0.09429454 0.084977396 -0.07971945 -0.096448 0.09749568 0.18103185 0.12824176 0.020085026
00000000: 14cb bb3c e99f 41bd 9068 0dbe 55b1 4e3e
00000010: 2e04 a13d 7255 15be c610 c3bd afea 223e
00000020: 36c7 813e 3862 55bd a0fb babd 547a 053e
00000030: 2516 b0bb 8783 6bbe 7561 ba3c 4bff 97bd
00000040: adf0 813d a5dd 6d3e bf5d edbd 4110 bcbc
00000050: db5e 253e 71ee 30be 0821 2fbe 0bcf 37be
00000060: a250 2d3c 84e9 3b3e 09f5 31be a167 d73d
00000070: c335 923c 8826 543e 0422 2abe 8a9a 4abe
00000080: fc3e 543c 6188 713e c64c a9bd 695e 13bd
00000090: 46e4 3fbe 428d 283e 7177 a7ba 5496 2f3e
000000a0: fcf0 af3d 6ab8 1cbe dc68 9a3d 7835 1bbe
000000b0: 076e 2e3e 09d5 9c3d eee3 d2bd 5af7 b7bd
000000c0: fbee 96bc c971 343e 2574 6fbe b4f3 213e
000000d0: dfc2 013e 792c 813d a9c7 92bd 5d9f 4e3e
000000e0: 208b a73b b0cf 8abd 7e9d 173e fa28 173d
000000f0: 8a52 cebd def3 e4bd f659 c4bd cec6 15be
00000100: a98f 2cbd 8972 363d 5658 8e3d e07d c7bd
00000110: f964 873c 4fae ce3d 571a 583e 8a19 e4bc
00000120: 9ace 69bd 1a80 1e3e 9252 9c3d 5f4b c3bd
00000130: 8054 bf3d be72 c63d 8522 18be 9727 983d
00000140: 3088 e63a 9f36 2cbe af48 3a3d 93d2 2abe
00000150: 224b 9cbd f0a9 633e b4d3 323e e950 5c3d
00000160: 4226 8ebc d726 06be 6077 a23d b05d 7ebd
00000170: b95d e8bd fbbb bbbd 0b78 22bd cd94 063e
00000180: a1ad 19be f2f2 90bd 0e97 b33c 4c93 503e
00000190: 5da7 553e 3920 e8bd a4a3 37be ef72 0e3b
000001a0: 2b52 63be 94c3 dabb 6b10 51be 1a4a 413e
000001b0: 7fdc 26bd 5ad6 a0bd cd78 263e ce25 893d
000001c0: c81e 63bd 97de b0bd 7b83 2fbd 6013 e0bd
000001d0: cdc8 9abc 61e6 d33c c9d5 1d3e f992 c4b9
000001e0: f1e5 1dbe 3c9e 02be 480d 36be 70bc 763d
000001f0: 07d2 523d cda9 513e d023 afba 1415 453e
00000200: a7cf 8abe 068b bf3d e987 d9bd 9b68 503c
00000210: 655a 3fbe a0e9 283e c3bd 30bc f652 eebc
00000220: 362b 6abe 267a b03d 142a a43d 153f 113e
00000230: e564 5a3e e599 ddbb ed5c 76be 9099 2c3e
00000240: e7ca e6bd 2c4c 2ebe 2147 e83d 5d1e b2bc
00000250: 7da0 b5bc 106d 803d e3de 0d3e 60aa 793d
00000260: 7d5f 58be f744 6fbe d8e6 9c3d 31ea ccbd
00000270: 7fef 44be d81c f8bd 3baa 623e b2a0 f53d
00000280: 10d0 b7bd d83c 67be 49f0 be3d 5a7c aebc
00000290: 6216 593e 3767 2cbe a54b 23be dc10 91bb
000002a0: ac35 64bd e8e4 513d 3051 cbbd bb96 9c3d
000002b0: b30e 01bd 78c5 77bd db1e 4b3e 8d39 4f3d
000002c0: 8129 393e a608 8f3c 9434 0b3e 616e 65be
000002d0: 8390 c5bd 9717 d9bd 76ea 41bc b01b e9bd
000002e0: 8a07 0bbe 75b7 593e 985c 0fbe 4f5b c2bc
000002f0: 7607 6b3d f07d 47bc 35d8 7a3e fcf4 913d
00000300: d469 0ebe 840e c63d b6eb 13be 231a 26be
00000310: 104b 403c 68a9 0e3e 28a7 303e 8a8b 9f3c
00000320: 146a ffbb 4384 88bc a470 3c3c ffa6 a5bb
00000330: bce7 4e3e d569 7dbc 571f 06be 634d 3c3e
00000340: 39b9 12bd 3754 a83c 51d0 283e fbc0 46be
00000350: 8bfb 25bb 208f 3e3e f810 443d 64d4 133e
00000360: ec3e 0e3d a584 2fbc 9f87 983d 1c9c 81bd
00000370: 1d41 28bb 3c8c 07bd 2636 9b3d b295 c83d
00000380: c705 1fbe d818 2d3c 7459 313e f261 18bc
00000390: 4dc4 513e 0aa9 13bc 8a04 39bd 1a78 48be
000003a0: d270 12be 60de 213e 873c ccbd 1906 133e
000003b0: efe0 15be e528 3dbe 8c23 e8bc 030a 743d
000003c0: 5b2b a93d 1749 b8bd d456 0d3e 99fb 793b
000003d0: 48ba 3cbe 70b2 73be 69de 493d 74a6 40bd
000003e0: 7f1d c1bd a108 ae3d f343 a3bd 8786 c5bd
000003f0: d1ab c73d 6a60 393e cf51 033e 5a89 a43c

gru.bias_ih_l0 f4 [192]
-0.20049223 0.14697194 -0.034672566 0.1620619 0.014638302 0.09403993 0.07622064 0.08246161
0.07715444 0.11893816 0.07039136 -0.12453437 0.12900518 0.21158601 0.10883277 0.14489017
0.18346871 0.06829357 -0.06501768 0.15363917 0.041432634 0.11904834 0.15532967 0.14195228
0.09559928 0.04595933 -0.033643197 0.010763811 0.1852994 0.0052902615 0.039591856 0.06722891
0.17832245 0.10546995 0.15352413 -0.055704433 0.106524855 0.04804143 0.11934131 0.23657577
0.17873114 0.02226783 0.062073898 -0.023900047 0.058606286 -0.008746691 -0.036090318 -0.031359382
-0.027537929 0.047030788 0.10923223 0.23058985 0.15999827 0.031624068 0.14262219 0.0719126
-0.02437713 -0.1542883 0.18197267 0.009527594 0.09022192 0.004276967 0.12475201 -0.02353027
-0.18808162 0.036983237 0.37350616 0.18032135 -0.11987924 -0.13897201 0.004980547 -0.004726134
0.099029094 -0.28747404 -0.0833624 -0.12641986 -0.26727924 -0.17726189 -0.06704535 -0.15199316
0.044580687 -0.07299489 0.06842169 -0.057650626 0.19973508 0.0178445 -0.020194916 -0.14683665
-0.026928853 -0.040281482 0.083578475 0.106901385 -0.0071894974 0.016326567 -0.051361214 -0.25073928
0.12910888 -0.028768148 0.27419755 -0.17699535 -0.17546408 -0.18264721 0.027799081 0.41115174
-0.11299552 0.117813684 0.07827609 0.04691905 0.024684153 -0.031446546 -0.02966627 0.039266113
-0.28466237 0.06962317 0.1897889 -0.075193726 -0.17177849 0.05992299 0.06507743 0.029697476
-0.07519847 0.019040259 0.12913598 0.3373402 -0.14442968 -0.05220877 -0.08096516 0.09763951
-0.080241695 0.109757386 0.018141031 -0.13271838 -0.16859137 0.14529125 0.110275775 -0.20718642
-0.16325179 0.17039698 0.22305727 -0.083517715 0.15552583 0.14307418 -0.16748938 0.15183526
-0.16580327 -0.1595675 0.0034566885 0.011041025 -0.17400506 0.16589756 0.19598359 0.18448053
-0.13396388 0.030524949 0.1379784 -0.2181737 -0.19011734 -0.1358994 0.16305918 0.20096017
-0.25727567 -0.23832123 -0.01133256 0.20202488 0.15250987 -0.14984876 -0.14748007 -0.035481855
-0.1924286 0.0848659 -0.013044077 0.18013749 -0.14289045 -0.16758507 0.23152405 0.04081006
0.09019555 -0.030881938 0.13636012 -0.12078214 -0.22847246 -0.070282385 0.17838569 -0.21930218
-0.12744077 0.1303377 -0.12291553 -0.054726273 0.10056775 0.21720235 0.1866324 0.22192027
00000000: d64d 4dbe d07f 163e d204 0ebd 8ef3 253e
00000010: 7dd5 6f3c 0298 c03d 9119 9c3d a2e1 a83d
00000020: 2603 9e3d da95 f33d 5829 903d e00b ffbd
00000030: ef19 043e 01aa 583e b7e3 de3d 175e 143e
00000040: 39df 3b3e 80dd 8b3d fd27 85bd 9653 1d3e
00000050: 44b5 293d 9ecf f33d be0e 1f3e f05b 113e
00000060: 8ec9 c33d da3f 3c3d 73cd 09bd b25a 303c
00000070: 20bf 3d3e ee59 ad3b 122b 223d 50af 893d
00000080: 299a 363e a100 d83d 6e35 1d3e 552a 64bd
00000090: b429 da3d 17c7 443d 3769 f43d eb40 723e
000000a0: 4c05 373e 066b b63c 3341 7e3d 08ca c3bc
000000b0: 250d 703d 484e 0fbc 71d3 13bd b272 00bd
000000c0: 3997 e1bc 5ba3 403d 26b5 df3d bf1f 6c3e
000000d0: 96d6 233e 3d88 013d 8d0b 123e ea46 933d
000000e0: 8cb2 c7bc c1fd 1dbe 0b57 3a3e a019 1c3c
000000f0: 45c6 b83d cd25 8c3b fb7d ff3d 8ec2 c0bc
00000100: 7898 40be bc7b 173d 333c bf3e 29a6 383e
00000110: 3f83 f5bd ae4e 0ebe db33 a33b afdd 9abb
00000120: c4cf ca3d cc2f 93be e8b9 aabd 3574 01be
00000130: d3d8 88be 2484 35be 134f 89bd 18a4 1bbe
00000140: 3d9a 363d 587e 95bd ac20 8c3d 1023 6cbd
00000150: 5a87 4c3e a12e 923c cf6f a5bc 595c 16be
00000160: e699 dcbc 32fe 24bd 312b ab3d 1def da3d
00000170: e095 ebbb 4bbf 853c 2360 52bd e660 80be
00000180: 1e35 043e 2eab ebbc 9f63 8c3e 453e 35be
00000190: dbac 33be df07 3bbe e6ba e33c 7b82 d23e
000001a0: 326a e7bd 4d48 f13d 374f a03d 312e 403d
000001b0: 6c36 ca3c 18ce 00bd ad06 f3bc 81d5 203d
000001c0: 44bf 91be 9896 8e3d 0558 423e 2bff 99bd
000001d0: b3e6 2fbe cf71 753d 5147 853d 1f48 f33c
000001e0: a801 9abd 51fa 9b3c 393c 043e dbb7 ac3e
000001f0: 60e5 13be ddd8 55bd 10d1 a5bd 39f7 c73d
00000200: c255 a4bd 7bc8 e03d 809c 943c 54e7 07be
00000210: 37a3 2cbe 3bc7 143e 44d8 e13d ad28 54be
00000220: 7a2b 27be 8c7c 2e3e 2069 643e 560b abbd
00000230: 2a42 1f3e 0a82 123e 5682 2bbe b47a 1b3e
00000240: 55c8 29be aa65 23be 9c89 623b 6ae5 343c
00000250: 622e 32be 0de1 293e ecaf 483e 77e8 3c3e
00000260: d42d 09be 750f fa3c 364a 0d3e ed68 5fbe
00000270: 1fae 42be 3629 0bbe fcf8 263e 81c8 4d3e
00000280: a3b9 83be 7b0a 74be 34ac 39bc 9cdf 4e3e
00000290: 8c2b 1c3e f471 19be 0405 17be 6c55 11bd
000002a0: 010c 45be 2cce ad3d d3b6 55bc f675 383e
000002b0: e051 12be 6c9b 2bbe a414 6d3e 7328 273d
000002c0: 72b8 b83d 1efc fcbc fda1 0b3e a05c f7bd
000002d0: aff4 69be 36f0 8fbd bdaa 363e c090 60be
000002e0: d57f 02be 3f77 053e 23bb fbbd a828 60bd
000002f0: 77f6 cd3d 4b6a 5e3e 901c 3f3e 113f 633e

gru.bias_hh_l0 f4 [192]
-0.12470976 0.20482983 0.023602428 -0.0035723345 0.13284954 0.19553731 0.08139476 0.090780474
0.19688556 0.10079166 0.0520541 -0.03373812 0.14015988 0.057054445 0.15568635 0.05541869
0.20187803 0.093788035 -0.16506961 0.15926921 -0.11059944 0.06354009 0.005260428 0.17809181
0.13034424 0.05560916 0.17840706 0.05213083 0.026355973 0.13297428 -0.0028589794 0.14775887
-0.014283863 0.22833833 0.049972136 0.007547395 0.21079941 0.18778715 0.13037778 0.11792426
0.103798054 0.16206877 0.03030511 0.069815956 0.18039729 0.015469994 0.0007570606 -0.022278247
-0.05889319 -0.006470907 0.18294568 0.030481504 0.089384206 0.025001131 0.13251843 0.18187091
-0.010878915 -0.12245869 0.08532333 -0.04498678 0.1463775 0.116181515 -0.04534768 0.021910045
0.010328261 -0.10699359 0.4574392 0.32941723 0.029646147 -0.13854975 -0.18597145 -0.23842335
0.09280893 -0.17593735 -0.19674283 -0.05602899 -0.2406638 -0.08803829 -0.18148762 -0.043277193
-0.07321062 -0.107392915 -0.13698037 -0.18314937 0.23591611 -0.052225318 -0.035750374 -0.06613464
-0.14040689 -0.15708384 0.06555625 -0.0385488 -0.123844795 0.110766746 0.12839231 -0.27288407
0.06880151 0.030990556 0.19927354 0.00093746657 -0.12635344 -0.13403663 -0.12890913 0.5165306
-0.14951696 0.022807417 0.081664726 -0.065652445 -0.15451747 -0.053790435 -0.0895364 0.04776675
-0.13732369 -0.03647526 0.2498907 -0.0137210945 -0.05074925 -0.17738754 -0.020764222 0.07874463
-0.14842136 -0.09243257 -0.0060946466 0.29918164 0.008988311 0.15203117 0.042330433 0.10170084
-0.17395163 0.20568706 -0.102451146 -0.0063317027 -0.21864638 0.2317187 0.18096595 -0.041072242
-0.21282104 0.23754285 0.14403355 -0.016638435 0.22667265 0.18210736 -0.050700247 0.19994813
-0.15495273 -0.037373077 0.10174369 -0.102503136 -0.13766482 0.13596506 0.19524972 0.019202659
-0.13888864 -0.1389014 0.185786 -0.1406879 -0.1396967 -0.19072366 0.00882811 0.086346336
-0.01707276 -0.21946828 -0.06866204 0.0167065 0.1519363 -0.12180136 -0.032861076 -0.0840892
-0.0013629493 0.18245962 -0.10991793 0.12913495 -0.15976523 -0.18496254 0.0990364 0.12416405
0.0045528873 -0.1345953 -0.035814162 -0.24041119 -0.14978075 -0.15025052 0.09054033 -0.0044261888
-0.10017248 -0.002728144 -0.13644232 0.09180287 0.22992773 0.053352553 0.15015341 0.011402951
00000000: d567 ffbd e9be 513e e159 c13c d41d 6abb
00000010: b609 083e ef3a 483e 4cb2 a63d 1deb b93d
00000020: 5e9c 493e dc6b ce3d ae36 553d fc30 0abd
00000030: 1286 0f3e ecb1 693d 3e6c 1f3e b5fe 623d
00000040: 1db9 4e3e f113 c03d 0208 29be 7817 233e
00000050: f681 e2bd 4f21 823d ab5f ac3b b35d 363e
00000060: f678 053e 6ec6 633d 57b0 363e 2387 553d
00000070: 7be8 d73c 692a 083e b75d 3bbb 1a4e 173e
00000080: dd06 6abc 86d1 693e 95af 4c3d 2350 f73b
00000090: cddb 573e 464b 403e c181 053e 4682 f13d
000000a0: 1394 d43d 5bf5 253e 6c42 f83c abfb 8e3d
000000b0: 11ba 383e dc75 7d3c 7a75 463a df80 b6bc
000000c0: fc39 71bd e709 d4bb 1d56 3b3e 59b4 f93c
000000d0: 110f b73d 2ccf cc3c e9b2 073e 5e3c 3a3e
000000e0: 7a3d 32bc 9fcb fabd ffbd ae3d 0f44 38bd
000000f0: fce3 153e 93f0 ed3d 7dbe 39bd b27c b33c
00000100: de37 293c 751f dbbd 7935 ea3e 60a9 a83e
00000110: 7adc f23c fcdf 0dbe 4d6f 3ebe 4025 74be
00000120: 9c12 be3d ec28 34be f476 49be a77e 65bd
00000130: 9270 76be 6b4d b4bd e4d7 39be 6d43 31bd
00000140: 73ef 95bd d1f0 dbbd 9544 0cbe 828b 3bbe
00000150: fe93 713e 37ea 55bd fc6e 12bd 9971 87bd
00000160: d3c6 0fbe 96da 20be 5b42 863d 59e5 1dbd
00000170: 57a2 fdbd add9 e23d 4679 033e 76b7 8bbe
00000180: cee7 8c3d e8df fd3c 5d0e 4c3e 51c0 753a
00000190: cc62 01be e640 09be c100 04be 593b 043f
000001a0: f91a 19be 9fd6 ba3c d63f a73d ca74 86bd
000001b0: d439 1ebe 5c53 5cbd dc5e b7bd 11a7 433d
000001c0: 959e 0cbe 1567 15bd 59e3 7f3e 71ce 60bc
000001d0: 72de 4fbd 14a5 35be bb19 aabc dd44 a13d
000001e0: c5fb 17be 4a4d bdbd 9ab5 c7bb 562e 993e
000001f0: b543 133c 0fae 1b3e ad62 2d3d 8848 d03d
00000200: 6020 32be a19f 523e e8d1 d1bd 2c7a cfbb
00000210: d6e4 5fbe ab47 6d3e 234f 393e 5e3b 28bd
00000220: c2ed 59be 6f3e 733e 887d 133e 544d 88bc
00000230: e01c 683e 5a7a 3a3e 10ab 4fbd 34bf 4c3e
00000240: eeab 1ebe 8314 19bd ff5e d03d 2aed d1bd
00000250: 02f8 0cbe 6d3a 0b3e 8bef 473e e54e 9d3c
00000260: d338 0ebe 2b3c 0ebe af3e 3e3e 7d10 10be
00000270: a70c 0fbe 104d 43be c7a3 103c 59d6 b03d
00000280: 2cdc 8bbc 4bbc 60be af9e 8cbd 12dc 883c
00000290: 3095 1b3e fe72 f9bd 5699 06bd f536 acbd
000002a0: fda4 b2ba b2d6 3a3e a71c e1bd f43b 043e
000002b0: 7f99 23be d266 3dbe 99d3 ca3d b949 fe3d
000002c0: 6330 953b 5ad3 09be dfb1 12bd 5a2e 76be
000002d0: 2060 19be 46db 19be 356d b93d 9009 91bb
000002e0: 3b27 cdbd a9ca 32bb 89b7 0bbe 2503 bc3d
000002f0: 2d72 6b3e 3588 5a3d d1c1 193e 71d3 3a3c

notes_decoder.weight f4 [128, 64]
0.06707873 -0.09701848 0.15613626 0.18062276 0.18849747 -0.058988262 -0.049988177 0.07814181
0.14487904 -0.19551678 -0.27862045 0.017776044 -0.087184876 -0.28587437 0.056914452 -0.22145484
0.23556644 0.07865847 0.06270696 0.045159504 0.29429826 -0.18636492 -0.28043747 -0.16896473
0.2863755 0.20788085 -0.19108541 0.19664416 0.1647642 0.13161385 -0.18218738 -0.13073179
0.1530293 0.14664522 -0.08021301 -0.26622742 -0.18806085 0.19652484 0.15486692 0.23326522
0.0997664 -0.19771633 0.14112312 -0.24439411 0.053732954 0.28314477 -0.17768651 -0.2145232
0.025566397 0.1807455 -0.12589368 0.22630022 0.14489639 0.13014215 -0.19131498 0.12794586
0.25087655 -0.12679933 0.14155865 0.094634555 -0.11501642 -0.12707387 -0.12545288 -0.07290672
0.048858542 -0.06520091 0.03929278 0.19646436 0.12391759 -0.28022027 -0.112780906 0.1482641
0.17188983 -0.26388597 -0.1587118 0.11111092 -0.08870901 -0.07588694 0.27829754 -0.16232724
0.29402918 0.27430788 -0.031640854 0.14707313 0.198807 -0.1244798 -0.10137653 -0.21844488
0.09292239 0.23120415 -0.20398764 0.19007087 0.29148972 0.13454208 -0.15874954 -0.19676886
0.15286675 0.13455965 -0.04560751 -0.16699024 -0.20591798 0.21508607 0.13704629 0.18932158
0.18268281 -0.2177401 0.054027457 -0.08526618 0.28072673 0.10107588 -0.20861702 -0.059212357
0.015176658 0.09364273 -0.1547012 0.16904299 0.16809453 0.20166242 -0.21499331 0.16083936
0.2887647 0.0016441523 0.23210526 0.03746775 -0.25992653 -0.067030266 -0.148616 -0.13411869
-0.035266243 -0.2092054 0.17606421 0.23992752 0.2624633 -0.09303821 -0.075952604 0.21416886
0.3016765 -0.07835863 -0.17136024 -0.07510017 -0.27184227 -0.27214476 0.14773747 -0.11940095
0.093921006 0.089856766 0.016012585 0.027304541 0.21801178 -0.11099937 -0.1716139 -0.24394585
0.2793779 0.22930044 -0.20335072 0.23770878 0.240291 0.19862911 -0.17707436 -0.19389528
0.093216285 0.098002255 -0.19698147 -0.22026438 -0.20766541 0.16993082 0.16029586 0.18309134
0.20455529 -0.057905763 0.0645438 -0.11389612 0.2845215 0.18811452 -0.2601679 -0.05825061
0.112002455 0.1297397 -0.21167356 0.15578926 0.25233355 0.20185046 -0.09878787 0.13711701
0.17365912 -0.035121463 0.089631505 0.1514821 -0.03708499 -0.074006185 -0.107484795 -0.17750576
0.045625694 -0.16878974 0.22915715 0.09847563 0.094760716 -0.14642441 -0.079857096 0.08298038
0.2515506 -0.12848927 -0.23339514 0.052678376 -0.25407603 -0.06757805 0.27611807 -0.14835618
0.13921724 0.08185791 0.06927431 0.23792006 0.13124597 -0.1203121 -0.28216836 -0.082856745
0.22837786 0.23372774 -0.05507726 0.29931137 0.094552085 0.2664947 -0.18995292 -0.2938764
0.22680745 0.28488505 -0.09907976 -0.25168234 -0.07564747 0.18432456 0.27967513 0.1732326
0.2526486 -0.13229863 -0.0030168684 -0.12181674 0.20168155 0.1173601 -0.28972265 -0.16778769
-0.06315217 0.08855356 -0.21949863 0.061382234 0.056702215 0.133026 -0.07801491 0.19409533
0.14810906 0.033246785 0.27404195 -0.006395888 -0.13263103 -0.11332642 -0.042407576 -0.29914185
00000000: 9360 893d a0b1 c6bd 2fe2 1f3e 2cf5 383e
00000010: 7b05 413e ad9d 71bd 67c0 4cbd d008 a03d
00000020: 2c5b 143e 8d35 48be 57a7 8ebe 119f 913c
00000030: fc8d b2bd 205e 92be 211f 693d 0fc5 62be
00000040: 5438 713e b117 a13d 826c 803d 2cf9 383d
00000050: 43ae 963e 72d6 3ebe 8095 8fbe 1705 2dbe
00000060: cf9f 923e b8de 543e e5ab 43be 165d 493e
00000070: f2b7 283e c8c5 063e 548f 3abe 8ede 05be
00000080: b6b3 1c3e 2a2a 163e b846 a4bd f64e 88be
00000090: 0693 40be cf3d 493e 6f95 1e3e 14dd 6e3e
000000a0: 5452 cc3d 2676 4abe 9482 103e 7342 7abe
000000b0: 1617 5c3d 5af8 903e 74f3 35be f8ab 5bbe
000000c0: 9f70 d13c 5915 393e 46ea 00be 3fbb 673e
000000d0: b85f 143e fc43 053e 13e8 43be 3d04 033e
000000e0: e472 803e afd7 01be c0f4 103e c3cf c13d
000000f0: bb8d ebbd a71f 02be b876 00be 1e50 95bd
00000100: e51f 483d 0e88 85bd 77f1 203d f42d 493e
00000110: 81c8 fd3d 0879 8fbe adf9 e6bd 8bd2 173e
00000120: e303 303e 101c 87be 5985 22be 1f8e e33d
00000130: 12ad b5bd 9d6a 9bbd 047d 8e3e 1d39 26be
00000140: fe8a 963e 1572 8c3e d799 01bd 579a 163e
00000150: 1094 4b3e 44ef febd 809e cfbd 04b0 5fbe
00000160: 184e be3d c8c0 6c3e 23e2 50be f0a1 423e
00000170: 243e 953e 66c5 093e 3d8f 22be c77d 49be
00000180: 1a89 1c3e 01ca 093e f1ce 3abd 7dff 2abe
00000190: 2adc 52be 863f 5c3e dd55 0c3e 84dd 413e
000001a0: 3411 3b3e 43f7 5ebe e54b 5d3d 09a0 aebd
000001b0: 6abb 8f3e df00 cf3d b39f 55be a888 72bd
000001c0: 84a7 783c c2c7 bf3d fe69 1ebe 9b19 2d3e
000001d0: f920 2c3e 9880 4e3e 3527 5cbe 13b3 243e
000001e0: f7d8 933e 9980 d73a 00ad 6d3e c977 193d
000001f0: 1715 85be 2a47 89bd cb2e 18be 6956 09be
00000200: 5673 10bd f139 56be 2d4a 343e 8faf 753e
00000210: 9761 863e d18a bebd 0a8d 9bbd 154f 5b3e
00000220: 5875 9a3e 7d7a a0bd 0f79 2fbe 1ece 99bd
00000230: e92e 8bbe 8f56 8bbe 7e48 173e 7c88 f4bd
00000240: a859 c03d d306 b83d d32c 833c c6ad df3c
00000250: 7b3e 5f3e a353 e3bd 8ebb 2fbe f1cc 79be
00000260: 9f0a 8f3e bccd 6a3e 2c3b 50be ee69 733e
00000270: d80e 763e 6e65 4b3e fb52 35be 7c8c 46be
00000280: 2ee8 be3d 68b5 c83d 83b5 49be fc8c 61be
00000290: 3ea6 54be 5802 2e3e 9924 243e 4c7c 3b3e
000002a0: f176 513e 982e 6dbd 8a2f 843d 5e42 e9bd
000002b0: cdac 913e 18a1 403e ba34 85be 3198 6ebd
000002c0: 8b61 e53d 7cda 043e f4c0 58be 3887 1f3e
000002d0: dd31 813e e3b1 4e3e 4b51 cabd 6768 0c3e
000002e0: b2d3 313e 86db 0fbd b990 b73d 201e 1b3e
000002f0: 6ee6 17bd 8e90 97bd fd20 dcbd 12c4 35be
00000300: 02e2 3a3d 38d7 2cbe 2ca8 6a3e 97ad c93d
00000310: e811 c23d 48f0 15be 1e8c a3bd 9ef1 a93d
00000320: 3ecb 803e b192 03be 23ff 6ebe 48c5 573d
00000330: 4116 82be 5c66 8abd 595f 8d3e afea 17be
00000340: f78e 0e3e 1fa5 a73d b0df 8d3d 51a1 733e
00000350: 5865 063e 3166 f6bd 5f78 90be ccb0 a9bd
00000360: e3db 693e 5356 6f3e b198 61bd 573f 993e
00000370: 86a4 c13d fe71 883e 0583 42be f876 96be
00000380: 3640 683e 74dc 913e 54ea cabd 82dc 80be
00000390: 10ed 9abd 94bf 3c3e 9431 8f3e e363 313e
000003a0: 285b 813e 4b79 07be a7b6 45bb 0e7b f9bd
000003b0: 9c85 4e3e 7e5a f03d 8756 94be 89d0 2bbe
000003c0: ed55 81bd 925b b53d 40c4 60be f06b 7b3d
000003d0: 9540 683d f837 083e 48c6 9fbd edc0 463e
000003e0: e7a9 173e c82d 083d 3a4f 8c3e 9994 d1bb
000003f0: 6ed0 07be af17 e8bd 91b3 2dbd 1f29 99be

notes_decoder.bias f4 [128]
-0.032216776 -0.18022853 -0.14158356 -0.24154599 -0.14203355 -0.14463057 -0.20194525 -0.17655632
-0.23642236 -0.25086108 -0.15108846 -0.056933023 -0.048794135 -0.18565787 -0.05765321 -0.22178471
-0.04491 -0.20181793 -0.0556102 -0.08173113 -0.158604 -0.12509976 -0.058629356 -0.13642418
-0.078242965 -0.19551997 -0.08227947 -0.08700793 -0.09844929 -0.03398515 -0.16913895 -0.20506898
-0.19090486 -0.12166841 -0.077629894 -0.037179522 -0.12591831 -0.06617106 -0.03323692 -0.21280353
-0.17553605 -0.07839364 -0.23493642 -0.17095624 -0.22306411 -0.11848362 -0.12790993 -0.12847938
-0.15198666 -0.037789535 -0.073882565 -0.041199587 -0.026001398 -0.15470907 -0.2311181 -0.16088858
-0.1791134 -0.034696728 0.006065407 -0.24376848 -0.004849044 -0.03570112 -0.030123545 -0.14237793
-0.013880581 -0.22572395 -0.024058405 -0.10552567 -0.21719655 -0.18505843 -0.149104 -0.17230475
-0.21364619 -0.05888325 -0.105889514 -0.14218822 -0.21544935 -0.04051945 -0.16188383 -0.08941571
-0.21817356 -0.22340928 -0.20691013 -0.21165101 -0.17703664 -0.114145964 -0.05837339 -0.19495718
-0.03931206 -0.11523941 -0.24034391 -0.07694836 -0.17437755 -0.07445871 -0.20235378 -0.25829542
-0.06720843 -0.010465629 -0.18962064 -0.18356925 -0.045916498 -0.066815324 -0.063609 -0.22414446
-0.2522493 -0.0503385 -0.2521695 -0.2663714 -0.23893407 -0.11389624 -0.064626105 -0.14357366
-0.21585797 -0.08491207 -0.079896815 -0.13974048 -0.2021803 -0.21659835 -0.22694959 -0.16363943
-0.069312505 -0.2325662 -0.13403417 -0.06662387 -0.04591033 -0.051159367 -0.20275228 -0.11472176
00000000: bdf5 03bd d48d 38be 48fb 10be d557 77be
00000010: 3e71 11be 091a 14be bcca 4ebe 2ecb 34be
00000020: b418 72be dd70 80be efb6 1abe 9a32 69bd
00000030: 5cdc 47bd 191d 3ebe c625 6cbd 881b 63be
00000040: 8cf3 37bd 5ca9 4ebe 85c7 63bd a762 a7bd
00000050: 1669 22be 271a 00be 5625 70bd c8b2 0bbe
00000060: d93d a0bd 6336 48be 2482 a8bd 3731 b2bd
00000070: c89f c9bd 0334 0bbd c332 2dbe 9afd 51be
00000080: 907c 43be 4a2d f9bd 6cfc 9ebd 8e49 18bd
00000090: bbf0 00be b184 87bd 7023 08bd 2be9 59be
000000a0: b9bf 33be d88c a0bd 2c93 70be 270f 2fbe
000000b0: eb6a 64be 8aa7 f2bd d2fa 02be 1990 03be
000000c0: 64a2 1bbe 33c9 1abd be4f 97bd e6c0 28bd
000000d0: e200 d5bc 0e6c 1ebe 39aa 6cbe fabf 24be
000000e0: 8169 37be 281e 0ebd 52c0 c63b 729e 79be
000000f0: bbe4 9ebb 563b 12bd a7c5 f6bc 85cb 11be
00000100: 606b 63bc 2e24 67be 2216 c5bc d81d d8bd
00000110: c668 5ebe f57f 3dbe b8ae 18be a870 30be
00000120: 11c6 5abe 902f 71bd 9adc d8bd ca99 11be
00000130: c19e 5cbe b9f7 25bd e0c4 25be 951f b7bd
00000140: e468 5fbe 67c5 64be 40e0 53be 0bbb 58be
00000150: 1849 35be 5cc5 e9bd f018 6fbd dba2 47be
00000160: af05 21bd a402 ecbd b71c 76be 1a97 9dbd
00000170: 0790 32be cf7d 98bd d435 4fbe 4c3f 84be
00000180: 93a4 89bd 0878 2bbc ea2b 42be 94f9 3bbe
00000190: f012 3cbd 79d6 88bd 6f45 82bd 2086 65be
000001a0: d226 81be be2f 4ebd 5c1c 81be d561 88be
000001b0: 22ab 74be 6f42 e9bd b15a 84bd f904 13be
000001c0: df09 5dbe 61e6 adbd f1a0 a3bd 2118 0fbe
000001d0: 5a08 4fbe f5cb 5dbe 7965 68be 1891 27be
000001e0: b7f3 8dbd d525 6ebe 4140 09be 1872 88bd
000001f0: 780c 3cbd 7c8c 51bd 4b9e 4fbe 3ef3 eabd
