saved_models/generalist_BCE_1e-2_26.pth (torch_old, 167373 bytes, 8 tensors)

notes_encoder.weight f4 [64, 128]
000000 81 46 ab bd 36 a3 65 bd ba 12 5c 3d 6b ea 8f 3d
       -0.08363057 -0.056063853 0.053728797 0.070271336
000010 d9 30 91 bd 49 3e 5e bd b8 a1 09 3c 3d da 7b bd
       -0.07089395 -0.05425862 0.008400373 -0.061487425
000020 9b bf 7c bd 00 64 aa bb f8 18 76 bc 42 77 70 3d
       -0.061706167 -0.005199909 -0.015020601 0.058707483
000030 d3 66 a7 bd ec ee 05 bd 60 35 3c 3c ce 73 67 3d
       -0.08173909 -0.032698557 0.011487335 0.056506924
000040 31 60 5c bd 46 56 a8 bd 1c 92 92 bc 98 e2 91 3c
       -0.053802673 -0.0821958 -0.017891936 0.017808244
000050 76 46 3b 3d 32 37 6c bd 3e 43 ab bd e0 cf 92 3c
       0.045721494 -0.057669826 -0.08362435 0.017921388
000060 e7 56 b4 bd 70 f0 d7 3b 56 70 31 3d 10 03 ba 3c
       -0.08805638 0.0065899417 0.043320023 0.022706538
000070 c2 e1 77 3d 3c 73 c5 bc 30 60 ca 3c 40 9e 59 bc
       0.060518034 -0.0241028 0.024704069 -0.013282359
000080 6c 95 4c bd 8c a2 d1 3c a2 fa 26 3e 1e 39 16 3d
       -0.049947187 0.025590204 0.16306546 0.036675565
000090 86 76 0f 3e 10 df ec 3b c3 56 ce 3d 14 e6 46 3e
       0.14010057 0.0072287396 0.10075142 0.19423705
0000a0 ab 29 17 3e d7 8f 6f 3d ed 34 f3 3d 4c b6 bf 3d
       0.14761989 0.058486786 0.11875329 0.09360942
0000b0 8a 0c 12 3e d9 90 67 3d 63 10 06 3d fa 46 34 3e
       0.14262596 0.056534622 0.03273047 0.176052
0000c0 f3 5b 41 3e 37 81 a9 3d 72 10 37 3e b5 1b 19 3d
       0.18882732 0.08276599 0.17877367 0.03737994
0000d0 ea b5 32 3e 1f d6 25 3e 45 fc 24 3e d5 d7 dc 3d
       0.17452207 0.16194962 0.16111858 0.10783354
0000e0 44 d1 34 3e ce c1 2d 3e f5 dd e4 3d 4a cb 1b 3e
       0.17657954 0.16968462 0.111751474 0.15214267
0000f0 8f 0c db 3d 46 62 41 3e fd 36 d2 3d 31 83 43 3e
       0.10695755 0.18885145 0.102643944 0.19093014
000100 b9 d5 a6 3d c6 75 28 3e 81 8e 71 3d 16 45 41 3e
       0.08146233 0.16451177 0.058973793 0.1887401
000110 91 32 41 3e 28 e2 2a 3d 05 a6 28 3e d4 26 34 3e
       0.18866946 0.041719586 0.16469581 0.17592937
000120 23 f8 19 3e 12 56 66 3d 4e c7 01 3e de dc 99 3d
       0.15036063 0.056234427 0.12673685 0.0751283
000130 b9 a1 20 3d 29 aa 4a 3e d8 a1 51 3d 4d 98 d7 3d
       0.03921673 0.19791473 0.051179737 0.10527096
000140 7e 0a 2d 3d 0b 70 4d 3e ba 7c ae 3d f4 a2 5e 3d
       0.042246334 0.20062272 0.085198835 0.054354623
000150 46 c8 45 3e dd 8a 32 3e 6f 6a b5 3d d4 e7 50 3e
       0.1931468 0.17435785 0.08858191 0.20400935
000160 6e f6 01 3e e2 39 22 3e d8 5c a0 bd fd 96 98 3d
       0.12691662 0.15842393 -0.078302085 0.07450674
000170 9c 6e a7 bc 94 9f e8 3c 00 6e fd 3b 08 e5 c8 bc
       -0.020438485 0.028396405 0.0077340603 -0.024523273
000180 04 eb 96 bd 20 5c 54 bb 6b f1 4f bd 95 c6 9b 3d
       -0.073690444 -0.0032403544 -0.050767343 0.07606236
000190 59 79 ac 3d 4d 47 ac 3d 0e d7 d9 bc 34 c3 96 bd
       0.08421583 0.08412037 -0.026591804 -0.07361451
0001a0 70 21 69 bc 32 0a 5d 3d 33 22 58 bd be af 30 3d
       -0.0142291635 0.0539648 -0.05276699 0.04313635
0001b0 50 f5 05 bc a8 2c 34 bc 39 cf 0e bd d3 c0 4f bd
       -0.008176163 -0.010996975 -0.03486559 -0.050721
0001c0 72 7d 60 3d fc 6e e4 3c 22 32 31 3d 61 d1 51 bd
       0.054807134 0.027884953 0.0432607 -0.05122507
0001d0 c6 b1 38 3d 24 fb ea 3c ae ab 74 3d a6 b8 5c 3d
       0.045091413 0.028684206 0.05973404 0.053887032
0001e0 00 72 59 3c 81 c6 ac 3d 80 54 98 3b 2c ba 89 bc
       0.013271809 0.08436299 0.004648745 -0.016812406
0001f0 60 42 0d 3c bc b0 39 bd d2 52 79 3d a4 9d d6 3c
       0.008621782 -0.045334563 0.06087 0.026198216
000200 81 5f a7 bd 5a 3f 75 3d a5 37 82 3d e0 fa d5 3b
       -0.08172513 0.05987487 0.063582696 0.006530151
000210 bf eb ae bd f3 61 9b 3d b0 33 c1 3c c8 04 96 bd
       -0.08541059 0.07587042 0.023584217 -0.07325131
000220 00 dc df 3b 9c 25 be bc 8f 75 80 3d b0 06 e1 bb
       0.006831646 -0.023211293 0.062724225 -0.0068672523
000230 a3 21 08 bd ba ca 3b 3d 20 44 b1 3c 20 32 4a 3c
       -0.033235203 0.045847632 0.02163893 0.012341052
000240 21 95 8e bd bb c9 a9 bd 08 72 da 3c 80 0f 07 ba
       -0.06962038 -0.0829043 0.026665702 -0.0005152151
000250 84 73 90 bc c0 88 d9 bb e0 5b 52 bc a9 06 09 bd
       -0.017633207 -0.0066386163 -0.0128392875 -0.033453617
000260 3e f6 41 3d 6c 15 d5 bc 3c 6a dd bc 52 a5 8b bd
       0.047353975 -0.026011191 -0.027028196 -0.06818642
000270 d8 a2 92 3c 38 fc c8 bc c0 95 ae 3b 45 68 2c bd
       0.017899916 -0.02453433 0.00532791 -0.042091627
000280 5e 77 69 3d 6c 62 cb bc 30 8d e4 bc f4 49 ed 3c
       0.056998603 -0.024827205 -0.027899355 0.028965928
000290 d1 61 1e bd 40 33 91 3b d3 53 e6 bb 1f df 10 bd
       -0.038667504 0.0044311583 -0.0070290356 -0.035369035
0002a0 ce c8 25 bd 2e 1c a4 bd 1e 7d 39 bd 38 12 35 be
       -0.040474705 -0.08013187 -0.045285337 -0.17682731
0002b0 88 56 8c bd 91 e9 29 bd 1b 99 d5 bd 47 ab ab bd
       -0.06852442 -0.041482512 -0.10429593 -0.08382278
0002c0 53 26 ba bd 83 f8 41 bc d2 26 88 bd 77 47 1c be
       -0.09089341 -0.011839035 -0.066480294 -0.15261637
0002d0 67 89 c9 bb da e3 b1 bc d1 8a 18 bd 41 b0 c6 bd
       -0.006150413 -0.021715093 -0.03724176 -0.097015865
0002e0 44 7c c9 bd 5e 98 56 bd fa fd 1d be 80 47 c7 bd
       -0.09838155 -0.052391402 -0.15428916 -0.097304344
0002f0 f6 eb 0a be bd 08 39 bd 63 7e bc bc d0 82 97 bc
       -0.13566574 -0.04517435 -0.023009485 -0.018494993
000300 79 61 6f bd a1 95 28 bd 37 a5 2a be 47 b1 03 be
       -0.058442567 -0.041158322 -0.16664587 -0.12860595
000310 24 16 a9 bc c4 45 18 be 27 72 71 bd 73 97 1f be
       -0.02064044 -0.14870363 -0.058946755 -0.15585117
000320 0c dd b4 bd 80 c8 e4 bd 81 f7 df bc 89 71 27 bd
       -0.08831224 -0.11171055 -0.027339699 -0.04087976
000330 b4 77 2a bd ba 46 71 bb f1 79 f9 bd 63 f5 e6 bd
       -0.041618064 -0.0036815838 -0.121814616 -0.112772726
000340 89 b4 38 bd 76 3a 1b be 12 f7 4d bd 2e 4b 67 bd
       -0.045094047 -0.1515902 -0.050284453 -0.05646818
000350 74 28 1d be 01 e7 8c bb 42 c5 de bb 1c 18 bf bd
       -0.15347463 -0.0042999987 -0.0067984173 -0.093307704
000360 3e cb 10 bd 57 10 16 bd 64 39 8d bd 66 d0 1a 3d
       -0.035350077 -0.036636677 -0.06895712 0.0377964
000370 94 d3 09 bd ec e3 bb bc f8 2e b3 bc 01 b0 9a 3d
       -0.033649042 -0.02293583 -0.021872982 0.07553101
000380 86 70 30 bd 90 0a d7 3c ad 62 13 bd b1 4e 8a 3d
       -0.04307606 0.026250154 -0.035982776 0.067532904
000390 e8 eb 66 3c e2 6c 59 3d 0d 6a 57 bd e3 5b 81 3d
       0.01409433 0.053082354 -0.052591372 0.06316354
0003a0 fa af 38 3d ad 0c 56 bd 72 f0 47 3d ba 67 68 3d
       0.0450897 -0.052258182 0.04881329 0.056739546
0003b0 47 f7 24 bd 5e ef 51 3d a1 55 87 bd 5c 13 a5 bc
       -0.040274885 0.05125367 -0.06608129 -0.020150833
0003c0 1e 74 a6 bd c0 04 c8 ba 34 63 9c bd 65 c5 9f 3d
       -0.08127616 -0.0015260205 -0.07636109 0.07801322
0003d0 c9 a9 ae 3d 0c 4b d6 3c 9c c9 ca bc c0 65 21 bc
       0.08528478 0.026158832 -0.024754338 -0.009850919
0003e0 c0 1c 7c bd 8f fc 0f bd 28 0d 02 bc 32 2d 99 bd
       -0.061550856 -0.035152968 -0.007937707 -0.074793234
0003f0 5a c5 36 3d 1e ad 6b 3d 1c 20 f0 bc 30 f7 2e 3c
       0.044621803 0.057538144 -0.029312186 0.010679051

notes_encoder.bias f4 [64]
000000 18 8c 05 3d 3e 16 25 be bc ff 17 be a0 74 22 3e
       0.032604307 -0.16121766 -0.14843649 0.15864801
000010 20 14 74 bd 78 16 20 be 99 f7 3c be 60 0b ef 3d
       -0.059589505 -0.15633571 -0.18453826 0.116720915
000020 19 3d 16 3e 8d 6e 8e 3d b8 8a 82 bc 10 59 c3 3d
       0.14671744 0.0695468 -0.015935287 0.09538472
000030 7c ff b9 bc 81 c4 0a 3e 76 ec b8 3d 38 58 30 be
       -0.022704832 0.13551523 0.09029476 -0.17221153
000040 e4 06 32 be bc a4 17 be 69 14 0c be 32 b9 10 3e
       -0.17385441 -0.14808935 -0.13679661 0.14133146
000050 0c de 2d be d1 ab 00 be 6c a1 ef 3d 0d 52 1f be
       -0.16979235 -0.12565543 0.11700711 -0.15558644
000060 ce b7 3d 3e a7 4b 41 3e 7f f7 44 3e ad f9 43 be
       0.18527147 0.18876515 0.19235037 -0.19138213
000070 3d 18 9f 3d 43 35 c8 bd f2 51 a1 3d 92 0d 0d be
       0.07768295 -0.09775784 0.07876958 -0.13774708
000080 83 7a c3 3d 9c f4 2e 3e d8 0c 88 bd b0 d0 e9 bd
       0.09544852 0.17085499 -0.06643075 -0.11416757
000090 39 7a 94 3c 2b 8e f8 3d a7 09 0b 3e 42 f8 e3 bd
       0.018124687 0.121364914 0.13577901 -0.11131336
0000a0 f1 0d 66 bd fe 69 4a be 46 9a 94 3d c0 c2 87 bd
       -0.05616564 -0.19766995 0.07255988 -0.066289425
0000b0 de 51 a4 3d 26 c8 b6 bd c5 f9 1d 3e a5 46 06 3e
       0.080234274 -0.08924894 0.15427311 0.13112886
0000c0 b7 9b 9b bc ca cd 21 3e c9 d2 8b 3d 0c 0c 13 3e
       -0.018995149 0.15801159 0.068273135 0.14360064
0000d0 d5 ca 9a 3d 6f 9b 07 3e 14 c5 1d 3e 2b d2 d1 bd
       0.075582184 0.13242887 0.1540721 -0.102451645
0000e0 45 dd 20 3e d4 ec c2 bd 33 4b 01 be f5 27 28 3e
       0.15709408 -0.09517828 -0.12626342 0.16421492
0000f0 57 8d 2d 3e f4 ec 05 3e f2 6b ea bd 20 78 44 be
       0.16948448 0.13078672 -0.1144637 -0.19186449

gru.weight_ih_l0 f4 [192, 64]
000000 1d a7 a6 3d 72 57 3c 3e ba ad 4b 3e 14 fe da 3c
       0.08137343 0.18392733 0.1989049 0.026732482
000010 d0 6c 6e bb 07 42 1d 3e e9 8b d7 3d bc 83 f3 3c
       -0.0036380775 0.15357219 0.105247326 0.029725902
000020 59 90 52 be e9 85 a9 3c e7 77 34 3d 30 f4 36 3c
       -0.20562877 0.020693736 0.04405966 0.011166617
000030 5a 1a 85 3d 20 c0 24 be 03 10 01 bd 30 8b ab 3c
       0.06499167 -0.16088915 -0.03150941 0.020940393
000040 fa 49 3f 3e 56 8c e5 3b ef 7a 21 3e d3 8d b1 bd
       0.18680564 0.0070052547 0.15769552 -0.08669629
000050 ce 9d b9 3d 03 8b c2 3d f5 ab a4 bb 75 cf 06 3e
       0.09063302 0.09499171 -0.0050253817 0.13165076
000060 9a bd 4a be 16 96 bf bd d6 63 1b be 2e 98 0f 3e
       -0.1979889 -0.093547985 -0.15174803 0.14022896
000070 cb a2 d4 bd 06 e4 00 3e f0 fe 3c 3c 45 c4 71 3c
       -0.10382613 0.12586984 0.011535391 0.014756267
000080 1f 4f 17 be 9b 37 e3 bc c2 4d ac 3d a2 99 e8 3d
       -0.14776276 -0.027736476 0.084132686 0.11357428
000090 06 38 14 bd 4a 0c 03 be 43 52 36 be 2a 97 b9 bb
       -0.03618624 -0.12797657 -0.17804818 -0.005663772
0000a0 1c 23 ae 3d c4 ac a4 3d 87 76 6f 3d e1 8a 06 be
       0.0850279 0.08040765 0.058462646 -0.13138916
0000b0 d3 23 dc 3c 38 12 fb bb 38 ed b7 bd 4b 72 3d 3c
       0.026872551 -0.007662084 -0.08980793 0.011562894
0000c0 bf 1f 5e 3d df d7 40 be 2e 75 98 bd cc 9a d8 bd
       0.054229494 -0.18832348 -0.07444225 -0.105764
0000d0 da 83 9f 3d 4e 3b 17 be d6 6f 7b bd 59 21 39 3b
       0.077888206 -0.14768717 -0.061385952 0.0028248637
0000e0 27 72 06 be 7f 40 43 bd dd 7f c3 3d 63 25 bb bd
       -0.13129483 -0.04766893 0.09545872 -0.0913799
0000f0 bc be 53 be 23 57 69 bd 61 54 8a 3d f1 36 80 3c
       -0.20678228 -0.056967866 0.06754375 0.015651198
000100 8a 66 18 3d ad 9e 60 be dc f7 93 bd 88 06 1c 3e
       0.037207164 -0.2193553 -0.0722501 0.15236866
000110 5e 85 29 be 4a b3 0d be aa 03 10 bd 9f 24 2c 3e
       -0.16554782 -0.13837925 -0.035159744 0.16810845
000120 1f 83 04 bc de 3b ec bc 31 e2 8f 3c 53 e0 69 3d
       -0.008087902 -0.02883714 0.017563911 0.057098698
000130 5f f9 e1 3c e2 07 b6 3d ec c6 4c bb b6 79 c2 bd
       0.02758473 0.08888222 -0.0031246496 -0.09495871
000140 4e c1 b6 3a 50 b2 9c 3c 21 fe 22 3c af 45 09 3e
       0.0013943107 0.019127995 0.009948284 0.13405488
000150 1e 0e 4a be 68 f6 54 be f7 81 10 bd 5d 5b 30 bd
       -0.19731948 -0.20797122 -0.035280194 -0.04305588
000160 44 ef 57 3e a9 db ea 3d e4 c6 f0 3d b7 86 b0 bd
       0.21087366 0.11467678 0.117566854 -0.08619445
000170 df 46 1f 3e 6c cf 7d bd 9a f0 31 3e b6 2f ea bd
       0.15554379 -0.06196539 0.17376938 -0.114348814
000180 1b 03 32 bd 10 9b c8 3c bb 78 fd bc a9 c6 75 bd
       -0.043459993 0.024488002 -0.030941358 -0.06000391
000190 32 89 d8 3d df f9 39 3e 99 dd b6 3d 79 71 1a be
       0.10573043 0.18161725 0.08928985 -0.15082349
0001a0 ee db 19 be a1 96 e3 bd 92 28 6f 3d b9 64 4f 3c
       -0.15025303 -0.111127146 0.0583883 0.0126582915
0001b0 4a 68 25 3e 51 9b cb 3d cf 87 cd 3d 31 a4 0c 3e
       0.16153064 0.09941734 0.10035669 0.13734509
0001c0 0d 28 20 3e 83 81 11 3e 08 7a 70 3d d1 13 08 3e
       0.15640278 0.14209561 0.058710128 0.1328881
0001d0 a2 89 49 bd fe da d6 3d fc da c6 3c 7a 6c 03 be
       -0.049203523 0.10490988 0.024274342 -0.1283435
0001e0 02 6b bb 3b 9b b8 a5 bd 3b 37 13 bd 16 69 29 bc
       0.0057195434 -0.08091851 -0.035941344 -0.010339996
0001f0 87 0d 57 3e 94 97 a3 3d 1e 48 68 bd cd 8f d9 bd
       0.21001254 0.079878956 -0.0567094 -0.10623131
000200 a6 e3 61 3e 3e 17 a4 bd 22 33 39 be 3c 86 02 3e
       0.22059497 -0.080122456 -0.18085912 0.12746519
000210 1e c8 0b be 2f ee 1c 3d 34 7e 85 bb 2e a5 1c 3e
       -0.13650557 0.038313087 -0.0040738825 0.15297386
000220 c5 5f a4 3d e1 4d 44 3e 44 93 de bd 94 80 14 3e
       0.08026079 0.19170333 -0.108679324 0.14502174
000230 ee bd 3b bd e4 8a 2a bd 9d df 7c bc 4f 26 fe bc
       -0.045835428 -0.041636363 -0.015434173 -0.031024126
000240 37 71 9a bd 6d 3d 10 bc 2c c1 44 3d 64 7c fc 3d
       -0.07541125 -0.008803708 0.048035786 0.12328413
000250 6d 86 0c 3d ba 6d 38 be d2 3a b9 3d 87 a5 34 be
       0.034307886 -0.18010607 0.09044422 -0.17641269
000260 11 a5 c8 3d 6b 67 1e 3d 63 78 d4 3d 5a 34 ba bd
       0.09797109 0.038672846 0.103745244 -0.090920165
000270 9e c3 39 3d f9 54 84 bc b4 50 42 3e ac 74 2b be
       0.04535257 -0.0161538 0.18976098 -0.16743726
000280 e3 4f 11 3e 4e 0c e7 bc 72 35 09 bd 1c a5 67 3c
       0.1419063 -0.02820411 -0.033498235 0.014138486
000290 c6 ec 4f 3e dc 36 01 3d f0 d9 f2 3d d8 00 00 be
       0.20305166 0.03154646 0.118579745 -0.12500322
0002a0 91 a6 68 3c d0 56 37 be 48 2a 45 3c fd 4b f3 bd
       0.014199869 -0.1790421 0.012034006 -0.11879728
0002b0 a6 e5 bf 3c d7 44 9a bd 68 79 93 bb 72 4b 2e 3d
       0.023424935 -0.075326614 -0.0045005567 0.04255242
0002c0 2b fc e5 bd 8e 41 73 3d 2d 2c 95 3d 6d 34 3b 3e
       -0.11229738 0.05938869 0.072838165 0.18281718
0002d0 b3 d5 26 3e 95 06 cf 3d fc 49 11 3e 55 58 8c bb
       0.16292457 0.10108677 0.14188379 -0.004282991
0002e0 a8 c2 25 3e a3 c7 93 bd 70 b2 3a 3d 60 90 27 3e
       0.16187537 -0.07215812 0.045580328 0.16363668
0002f0 7b ee 9b 3d 15 06 4e 3d c8 d1 21 bd f8 50 0b be
       0.07613846 0.05029877 -0.039506704 -0.13605106
000300 0b 12 0f 3e 2d 43 dd bd 92 58 62 bc 46 9b eb 3c
       0.13971727 -0.108038284 -0.013815062 0.028760564
000310 c5 47 4f be 55 42 f1 ba ca 03 f5 bd dd 4c 1c 3e
       -0.20242222 -0.0018406609 -0.11963613 0.15263696
000320 50 b3 34 3e fb d0 a2 3d b0 d7 8a bd 4d da e7 3d
       0.17646527 0.07950016 -0.067794204 0.113209344
000330 26 ac 50 3e e3 72 01 3e e1 20 e7 3b 55 01 02 be
       0.2037817 0.12641482 0.00705348 -0.1269582
000340 e8 d7 22 be 9c 25 d2 bd ba e3 5a bc d8 5a 3f 3d
       -0.15902674 -0.1026108 -0.013359958 0.046717495
000350 4d 57 3c be 53 63 27 bd 89 ce a6 3d ac 18 27 3d
       -0.18392678 -0.040866207 0.08144862 0.040795013
000360 e6 81 a0 3d 8c d8 65 bb fa 45 32 bd e2 d2 e0 3b
       0.07837276 -0.00350717 -0.043523766 0.0068610767
000370 87 c6 e9 3d bc 2b bc bd 58 ae 42 3e 7e 52 7d bd
       0.11414819 -0.09188029 0.1901182 -0.06184625
000380 79 33 a9 3d e4 bb 38 3e c8 04 a0 bd bb ae 3e bc
       0.08261771 0.18040425 -0.07813412 -0.011638339
000390 21 58 58 3e cb f0 b9 3d 39 2e 23 3e f4 c5 09 bd
       0.21127369 0.09079131 0.15935601 -0.03363605
0003a0 db e1 bf bd 18 39 06 be 1c 98 0f 3e 36 33 dd bd
       -0.093692504 -0.13107717 0.14022869 -0.10800783
0003b0 a5 e5 07 3e 17 8d 96 bd 72 7b cf 3d 17 97 06 bb
       0.13271196 -0.073511295 0.10130967 -0.0020536834
0003c0 a0 14 00 be 97 7b 93 3d 0b f3 84 bb f8 e0 36 3e
       -0.12507868 0.07201307 -0.0040572933 0.17859256
0003d0 a2 ef 20 bc 9a 92 6e 3c 5c 15 50 3c 34 59 02 be
       -0.009822758 0.01456132 0.012700405 -0.12729341
0003e0 8e 9f d4 3d 54 d3 32 be 02 24 4a be fa c5 11 bd
       0.10381995 -0.17463428 -0.19740298 -0.035589196
0003f0 44 3a 2f bd c1 82 21 3e 99 5d ee bd 27 04 57 bd
       -0.042780176 0.15772535 -0.11638946 -0.052494194

gru.weight_hh_l0 f4 [192, 64]
000000 71 54 9a bd b0 be cb bc e0 b5 3f be 80 ae 11 3e
       -0.07535637 -0.0248712 -0.18721724 0.14226723
000010 a7 40 10 3d b1 26 fa bd 7a 5c 74 bd 19 7d 03 3e
       0.035217907 -0.12214411 -0.059658505 0.1284069
000020 c1 23 50 3e 19 f7 9e bc 4c 99 86 bb 19 15 1b 3e
       0.20326139 -0.019404935 -0.00410763 0.15144767
000030 02 80 20 3d c3 04 45 be 4a b7 b0 bc 4c ad 73 3c
       0.039184578 -0.19240098 -0.021571774 0.01487286
000040 27 4a 06 3d 71 e5 4a 3e 1c ed 0e be 69 a9 7b bd
       0.03278556 0.19814087 -0.13957638 -0.06144086
000050 fc 57 df 3d 42 fa fd bd b5 26 00 be 95 ae 1a be
       0.109054536 -0.124012485 -0.12514766 -0.1510566
000060 8d 9c be bc ae 5a 85 3d c2 f1 07 be 1d a1 2d 3d
       -0.023268009 0.065114364 -0.13275817 0.042389978
000070 5d bf 16 bc a1 85 39 3e db ba f4 bd de 54 0b be
       -0.009200898 0.18117382 -0.11949702 -0.13606593
000080 5b 5e bc bc 18 2e 4e 3e d4 c0 04 3e 51 73 e9 ba
       -0.022994211 0.20134771 0.12964183 -0.0017810856
000090 30 94 21 be c1 4d 07 3e 6b bc e8 bc 1e f4 a3 bc
       -0.15779185 0.13213255 -0.028410157 -0.020013865
0000a0 bb dc 79 3d 57 cb bf bd d8 cb d6 3c bd 52 f5 bd
       0.06100152 -0.09364956 0.026220247 -0.11978672
0000b0 48 b4 0b 3e 1f d7 32 3d 4d ea b5 bc 7d 90 3c bd
       0.1364299 0.043662187 -0.02220645 -0.046036232
0000c0 02 1e 99 bd c1 fd 0a 3e 54 3b 0f be 8e 96 07 3e
       -0.07476427 0.13573362 -0.13987476 0.13241026
0000d0 6c c7 ce 3d ac 16 a2 3c 12 b7 33 bd 0f 92 13 3e
       0.100966305 0.019786201 -0.04387576 0.14411186
0000e0 15 29 13 bd 4e c7 c3 bb 26 97 f3 3d 84 f2 bf bc
       -0.03592785 -0.0059746867 0.11894064 -0.02343107
0000f0 f9 c4 96 bd ad 26 93 bd 47 c2 fe 3d 47 74 81 bd
       -0.07361788 -0.07185111 0.12439399 -0.06321006
000100 d5 60 47 bd 70 1d 18 3d bf 81 8f 3d b1 61 b6 bd
       -0.04867633 0.03713745 0.07007169 -0.08905352
000110 62 19 c6 3c 80 6a bf 3d b5 66 50 3e 68 c9 a7 bc
       0.024182025 0.09346485 0.2035168 -0.02048178
000120 9f 23 4a bd 7e 96 16 3e 68 21 8c 3d 97 8a b9 bd
       -0.049350377 0.14705846 0.06842309 -0.09059637
000130 f0 0b b0 3d c1 27 b7 3d 61 bb 10 be d8 12 88 3d
       0.08596027 0.08943129 -0.1413398 0.06644219
000140 a4 10 19 3c 5b c3 24 be d1 2d 2f 3d ca 06 23 be
       0.009342346 -0.16090147 0.042768303 -0.15920559
000150 05 48 8c bd cb e8 5b 3e de ce 2a 3e c8 6e 3e 3d
       -0.06849674 0.21475522 0.16680476 0.046492368
000160 2a 99 21 bc c6 91 01 be d6 d8 92 3d 39 70 5e bd
       -0.009863177 -0.12653264 0.071702644 -0.054306243
000170 3a 15 d9 bd a8 05 ad bd fa 63 3e bd 05 b9 fc 3d
       -0.10599752 -0.084483445 -0.046482064 0.12339977
000180 88 da 11 be 2d 69 81 bd 61 eb 73 3c 29 df 48 3e
       -0.1424352 -0.06318889 0.014887662 0.19616379
000190 a1 10 4e 3e 3a d8 d8 bd 8e 1f 30 be ef 76 15 3c
       0.20123531 -0.10588117 -0.17199537 0.009122594
0001a0 7e f5 5b be 04 12 5f bc 43 6c 49 be cb 90 39 3e
       -0.21480367 -0.013615135 -0.19670205 0.1812164
0001b0 35 97 08 bd a8 b5 91 bd 57 b1 1e 3e 53 37 75 3d
       -0.033347327 -0.07114726 0.15497337 0.059867214
0001c0 30 27 4e bd 76 f3 a1 bd ab ff 47 bd 7c 00 d1 bd
       -0.05033034 -0.079077646 -0.04882781 -0.102051705
0001d0 79 1a 3a bc ea ad 07 3d 22 30 16 3e 31 43 e6 3b
       -0.011358851 0.03312484 0.14666799 0.007027053
0001e0 b8 25 16 be e8 95 fc bd 80 6e 2e be c6 1a 5d 3d
       -0.14662826 -0.1233328 -0.1703434 0.05398061
0001f0 dd cc 34 3d 0c df 49 3e 2b d6 41 3b dd 28 3e 3e
       0.044140685 0.19713992 0.0029577117 0.18570276
000200 68 d3 82 be 29 cc a3 3d 76 b9 ba bd 5a 76 e1 3c
       -0.25551915 0.07997925 -0.09117405 0.027522255
000210 01 e2 30 be ae 01 1b 3e 8c 92 cb bc 25 5a 76 bc
       -0.17273714 0.1513736 -0.024850152 -0.015036141
000220 4b 84 5b be 86 52 94 3d 0c e3 85 3d 3f 18 07 3e
       -0.21437185 0.072423026 0.065374464 0.13192843
000230 c5 bc 4b 3e c4 f8 ab bc f5 9d 67 be e0 bf 1d 3e
       0.19896229 -0.020992644 -0.2261885 0.15405226
000240 25 8e ca bd 96 c5 1f be 45 59 e5 3d 15 14 ff bb
       -0.09890393 -0.15602717 0.111986674 -0.0077843764
000250 6c 9c ee bb df ea 45 3d 32 be fe 3d bc 18 40 3d
       -0.0072818305 0.048319694 0.124386206 0.04689859
000260 b2 fd 49 be fe 5c 5e be 9a b5 7f 3d 30 f3 ae bd
       -0.19725683 -0.21715161 0.062429048 -0.08542478
000270 51 d1 36 be 19 50 db bd 77 c7 53 3e f0 03 d8 3d
       -0.17853285 -0.10708637 0.20681559 0.10547626
000280 69 f4 9a bd a0 e5 58 be a6 8b 9f 3d bf c2 10 bd
       -0.07566149 -0.21181345 0.07790308 -0.035341974
000290 87 b1 4a 3e d0 10 1e be 99 00 15 be 7d 67 2f 3c
       0.19794284 -0.15436101 -0.14551009 0.010705826
0002a0 b8 cf 2a bd 4e dc 15 3d 84 39 ae bd 92 18 80 3d
       -0.041702002 0.036587052 -0.08507064 0.062546864
0002b0 91 6c 8e bc 5f 01 3e bd a7 c7 3b 3e a4 ca 14 3d
       -0.017385753 -0.046388026 0.1833788 0.036326066
0002c0 56 fc 2c 3e 7d bd 01 3d c2 b9 f7 3d 76 3a 57 be
       0.16893134 0.03167485 0.12095977 -0.21018395
0002d0 fc a1 a9 bd 9a f1 bb bd 04 51 d2 bc 69 4f cb bd
       -0.08282849 -0.09176941 -0.025673397 -0.09927256
0002e0 d8 f7 f8 bd aa b3 4c 3e b4 14 01 be 5c 5a 0c bc
       -0.121566474 0.19990411 -0.12605554 -0.008566465
0002f0 34 e2 31 3d a8 af d7 bc c2 9a 69 3e 24 33 66 3d
       0.043428615 -0.026328877 0.22812942 0.056201115
000300 9c 7d 03 be b3 9b af 3d 45 7b 07 be 75 86 19 be
       -0.12840885 0.08574619 -0.13230617 -0.14992698
000310 cb f7 bb 3c 6f 6f 03 3e bf 3f 25 3e 3a 38 fa 3c
       0.022945305 0.12835477 0.16137598 0.030544389
000320 a5 f8 6f 3b 5f 90 e3 bc fc f7 cb b9 fc b3 70 bb
       0.003661671 -0.027778802 -0.0003890394 -0.0036728373
000330 d2 2b 43 3e f0 82 da bc d0 27 f5 bd 19 5a 30 3e
       0.19059685 -0.026673764 -0.11970484 0.1722187
000340 43 29 c9 bc f4 72 01 3d 28 88 21 3e cf 48 3b be
       -0.024555808 0.03160377 0.15774596 -0.18289493
000350 f0 f2 19 3c 59 ef 32 3e 6e cd 15 3d b7 7f 08 3e
       0.0093963 0.17474116 0.036572866 0.1332997
000360 83 2e 3c 3d 90 d4 37 3b e2 54 81 3d a4 0e 52 bd
       0.045942795 0.002805028 0.06315018 -0.051283494
000370 61 f3 09 3c d9 32 b5 bc 11 3b 84 3d 5e 85 b0 3d
       0.008419842 -0.022118973 0.064565785 0.08619188
000380 a3 33 13 be a4 80 b1 3c 6a 61 24 3e 6a be a9 bc
       -0.14375167 0.021667786 0.16052786 -0.02072068
000390 a9 73 46 3e 42 e8 11 3b db d5 0b bd 0f ba 3b be
       0.19380058 0.002226368 -0.034139495 -0.18332694
0003a0 cb 37 07 be 5b 14 16 3e 82 0f b5 bd cf 8c 07 3e
       -0.13204877 0.14656202 -0.088408485 0.13237308
0003b0 78 92 0a be 0f c1 31 be 21 ac 25 bd 27 2e 46 3d
       -0.13532436 -0.17358802 -0.040447358 0.048383858
0003c0 6b 69 95 3d 4a 3b a1 bd fe 3f 01 3e 3a dc 72 3c
       0.072954975 -0.078726366 0.12622067 0.014823014
0003d0 aa 7a 31 be 92 30 68 be 20 8d 1c 3d 95 cc 11 bd
       -0.17331949 -0.22674778 0.038220525 -0.035595495
0003e0 9c 9e a9 bd cb 4e 9f 3d 4b 9c 8c bd 83 3a b2 bd
       -0.082822055 0.077787004 -0.06865748 -0.087025665
0003f0 b9 25 b1 3d 48 b2 2d 3e 6f 09 ee 3d 3b 8c 06 3c
       0.08649773 0.1696254 0.11622893 0.0082121445

gru.bias_ih_l0 f4 [192]
000000 aa b1 39 be ee 63 0e 3e 32 68 35 bd 8b dd 1a 3e
       -0.1813418 0.13905308 -0.04428882 0.15123574
000010 9c 68 ac 3b 20 18 b0 3d be 1d 8a 3d a2 60 97 3d
       0.005261494 0.085983515 0.06743954 0.07391478
000020 1e c9 89 3d 05 7b e1 3d f8 c1 76 3d a6 0d da bd
       0.06727813 0.11009792 0.060243577 -0.106471345
000030 ca e8 f3 3d 48 7c 4f 3e 36 be cb 3d 64 f1 09 3e
       0.11909635 0.20262253 0.09948389 0.1347099
000040 2f 27 32 3e f8 8c 76 3d 0f 1a 68 bd 19 d6 14 3e
       0.1739776 0.060193032 -0.056665476 0.14534797
000050 67 4e 19 3d 68 eb e0 3d b2 43 15 3e 32 d4 08 3e
       0.037428286 0.109824 0.14576605 0.13362196
000060 91 d4 b0 3d 18 ec 13 3d f1 bf 30 bd 48 1d 76 b9
       0.08634294 0.03611383 -0.0431518 -0.00023471296
000070 79 28 35 3e 60 7a 32 bb a4 1a 00 3d 63 08 6a 3d
       0.1769122 -0.0027233586 0.031275406 0.057136904
000080 36 b6 2c 3e 31 bc c5 3d bb 7b 11 3e 4d 14 84 bd
       0.16866383 0.09655035 0.14207356 -0.064491846
000090 22 19 c9 3d 9e 35 20 3d 1a 4c e4 3d 58 25 65 3e
       0.09819247 0.039113633 0.11147328 0.22377527
0000a0 39 a0 2f 3e f4 08 46 3c cb 37 5c 3d 1d 0a 05 bd
       0.17150964 0.0120870955 0.053764146 -0.032480348
0000b0 ba 71 4e 3d f0 bb 8f bc a2 c1 3f bd 8f de 20 bd
       0.050401427 -0.01754567 -0.046815522 -0.03927475
0000c0 8e ef 8e bc 97 c4 1d 3d e9 bb cc 3d 24 72 63 3e
       -0.017448213 0.03851756 0.099967785 0.2221151
0000d0 36 a0 1b 3e 28 59 bc 3c 25 f1 09 3e 8e 60 82 3d
       0.15197834 0.022991732 0.13470896 0.063660726
0000e0 43 1a 0c bd a3 9a 16 be db b5 31 3e 1f 6e c9 3b
       -0.034204733 -0.14707427 0.17354529 0.0061471607
0000f0 e1 07 a8 3d 24 56 a5 bb e8 99 e5 3d 3a b7 fe bc
       0.08204628 -0.005045669 0.11210996 -0.031093229
000100 49 a3 04 be fc ef 71 3d 91 e3 77 3e 7a c9 f6 3a
       -0.12952913 0.059066758 0.24207903 0.0018828355
000110 b7 07 c1 bd a5 a8 02 be 91 89 c4 3c 07 18 f5 bc
       -0.094252996 -0.12759645 0.023991378 -0.029918684
000120 ea 72 f7 3d 5f 0c 83 be 7c 3e fd bc f6 dc 18 be
       0.12082465 -0.25595376 -0.030913584 -0.1492804
000130 5a 03 6f be 65 79 13 be 42 13 fd bc ca 43 09 be
       -0.23341122 -0.14401777 -0.030892972 -0.13404766
000140 0f 47 7e 3d 7e 80 f4 bd cc 90 89 bc b8 41 8e bd
       0.062079486 -0.119385704 -0.016792677 -0.069461286
000150 d7 4e 94 3d f9 b9 50 3d 3f fa 43 3d 29 b5 f3 bd
       0.072416 0.050958607 0.047846075 -0.11899788
000160 cf d3 81 bb 53 89 7c bd ca 91 aa bc 33 9b ed 3d
       -0.003962017 -0.0616544 -0.02082147 0.116018675
000170 20 cb 4e 3b 48 d9 cc 3c ec 1b 06 bd e4 31 45 be
       0.0031554177 0.025005952 -0.032741472 -0.19257313
000180 12 fd 13 3e 01 e6 5c bc 8e 51 15 3d 9c 52 1d be
       0.14452007 -0.013482572 0.03645473 -0.15363544
000190 de 46 12 be 15 99 16 be 65 83 11 3d e6 1f 2b 3d
       -0.14284846 -0.14706834 0.0355257 0.041778468
0001a0 63 d5 c0 bd 4e f6 04 3e c6 6d b2 bb 73 a7 98 3d
       -0.094157 0.12984583 -0.005445215 0.074538134
0001b0 70 2c 3f 3d 7d ce df bc 9c 88 5c 3c 13 22 2d 3d
       0.04667324 -0.027320141 0.013460305 0.042268824
0001c0 0e 89 07 be e4 ab b0 3d a4 78 b0 3c c6 8e 7e bd
       -0.13235876 0.086265355 0.021541901 -0.062147878
0001d0 e5 5d 21 be 14 7d ae 3d e0 c5 b0 3d 0e f2 c7 bd
       -0.15758474 0.085199505 0.08631492 -0.09762965
0001e0 d1 f6 45 bd d5 4b 6d 3d 29 6a 0b 3e cd bd 39 3e
       -0.048331086 0.057933647 0.13614716 0.1813881
0001f0 c4 b7 33 be 44 47 03 bd 6f 66 f2 bd 85 72 99 3d
       -0.1755057 -0.032050386 -0.11835944 0.07492546
000200 2c b2 11 be ca 7d d0 3d ce 91 bd 3c b8 02 00 be
       -0.14228123 0.10180242 0.023140814 -0.12501037
000210 be 0c 23 be 08 0c 0c 3e 32 8d cf 3d 31 11 4b be
       -0.1592283 0.13676465 0.10134353 -0.19830777
000220 29 d5 1d be 14 fb 24 3e 37 8e 5a 3e 2d 99 f8 3d
       -0.15413345 0.16111404 0.21343313 0.12138591
000230 2a 64 15 3e 7d 90 09 3e 40 95 22 be b7 38 12 3e
       0.14588991 0.13434024 -0.15877247 0.14279447
000240 a5 9e 1f be 6d 86 1a be 8e 97 51 bd 86 91 90 3c
       -0.15587862 -0.15090342 -0.051169924 0.017647516
000250 2b c2 27 be 83 f0 20 3e d8 a0 3f 3e 30 94 33 3e
       -0.16382663 0.15716748 0.18713701 0.17536998
000260 72 ad ff bd 79 4c 13 3d 9e c6 04 3e 8c 9b 55 be
       -0.12484254 0.035961602 0.12966391 -0.20860118
000270 d5 58 39 be 26 2e 02 be e8 df 1d 3e 08 54 44 3e
       -0.18100293 -0.12712917 0.15417445 0.1917268
000280 c4 80 7c be 54 c9 6a be ac b0 60 bc d2 c5 44 3e
       -0.24658495 -0.22928363 -0.013713997 0.19216087
000290 88 d8 13 3e 44 24 10 be 38 cc 0d be 92 2f f9 bc
       0.14438069 -0.14076334 -0.13847435 -0.030418191
0002a0 ec f5 3c be ed 7a 9a 3d 96 dd af bb a0 ee 2e 3e
       -0.18453187 0.075429775 -0.0053669913 0.17083216
0002b0 ee 08 09 be f4 f9 21 be 81 89 62 3e fa 57 07 3d
       -0.13382313 -0.15818006 0.22122766 0.033042885
0002c0 2f 1a 76 3d 69 d3 b8 bc bc 51 05 3e 8c 17 e5 bd
       0.060083564 -0.022561746 0.1301946 -0.11186132
0002d0 b8 2a 61 be 63 eb 7d bd 20 a5 2d 3e e7 21 57 be
       -0.21988952 -0.06199206 0.16957521 -0.21009026
0002e0 27 cd f0 bd 8b 64 05 3e 8e 68 e9 bd 3e ce 5a bd
       -0.1175788 0.13026635 -0.11396895 -0.053419344
0002f0 77 04 bc 3d 02 ff 54 3e 53 4a 35 3e 23 e4 57 3e
       0.09180539 0.20800403 0.17704134 0.21083121

gru.bias_hh_l0 f4 [192]
000000 71 2f d8 bd 07 a3 49 3e 4f 26 65 3c b7 e7 6b bc
       -0.10555924 0.19691096 0.013986184 -0.014398507
000010 4e df fc 3d 04 fb 3f 3e 79 b6 94 3d 1d 6a a8 3d
       0.123472795 0.18748099 0.072613664 0.082233645
000020 61 7f 3f 3e 07 51 bc 3d f6 a5 2b 3d fa 68 80 bc
       0.18700935 0.09195142 0.04190632 -0.015675057
000030 87 60 05 3e e4 fa 44 3d 7a d9 15 3e dc 4b 39 3d
       0.13025104 0.04809083 0.14633742 0.04523836
000040 13 01 45 3e ee 7c af 3d 8a 7a 20 be fb 99 1a 3e
       0.19238691 0.0856875 -0.15671745 0.15097801
000050 60 b5 ea bd 36 7a 5e 3d 10 02 8d bb f5 d5 2d 3e
       -0.11460376 0.05431577 -0.0043032244 0.1697615
000060 ed fc f7 3d ac 72 3b 3d b3 f3 2c 3e 59 7a 28 3d
       0.12108789 0.045763656 0.16889839 0.041132305
000070 16 33 93 3c 6a eb ff 3d 48 19 37 bc 90 f8 0c 3e
       0.017968696 0.124960735 -0.011175461 0.13766694
000080 2e 23 c4 bc 51 af 60 3e c5 c8 1d 3d 04 88 a2 ba
       -0.023942556 0.21941878 0.038521547 -0.0012400155
000090 87 53 4f 3e ef 26 37 3e 70 e6 fa 3d 25 4b d7 3d
       0.20246707 0.17885946 0.12250984 0.105123796
0000a0 e4 c9 c5 3d 8f 88 1b 3e 98 2f b4 3c 3f d2 7a 3d
       0.09657648 0.15188812 0.02199535 0.061235663
0000b0 3d 53 30 3e 8a 98 da 3b 7e 51 23 bc 9e 58 f7 bc
       0.17219253 0.006671016 -0.00996816 -0.030193623
0000c0 2b e6 47 bd 09 80 75 bc 79 d9 31 3e 7e 47 b4 3c
       -0.04880349 -0.014984139 0.17368115 0.022006746
0000d0 4d a2 a6 3d de 17 86 3c 02 31 ff 3d 32 c9 31 3e
       0.08136425 0.016368803 0.124605194 0.17361906
0000e0 b3 a0 a9 bc 66 05 ec bd a6 7b 9d 3d ab 1c 46 bd
       -0.02070651 -0.11524467 0.076896 -0.048367184
0000f0 ce 84 0d 3e dd d8 da 3d ab 86 6d bd 0b 10 6b 3c
       0.13820192 0.10685895 -0.057989758 0.014347087
000100 4a 11 8d 3d 5e e5 ad bd 0e eb a6 3e 2a 9a 1a 3e
       0.06888063 -0.08491014 0.32601207 0.15097871
000110 4f 65 62 3d f3 39 02 be be f7 2a be af f8 86 be
       0.055272397 -0.12717418 -0.16696069 -0.26361606
000120 c2 b5 ea 3d 19 e2 13 be d2 c1 13 be db 90 a1 bd
       0.11460449 -0.14441718 -0.14429405 -0.07888957
000130 47 c2 53 be da 6f 60 bd c8 d2 14 be ae 84 cf bc
       -0.2067958 -0.05479417 -0.14533532 -0.025331821
000140 14 32 64 bd 7c 79 1d be 05 87 63 be 9c a3 47 be
       -0.05571182 -0.15378374 -0.22219475 -0.19496006
000150 1e 68 de 3d 1a 8f 9c bc 2d 43 04 3d 26 dc 1c bd
       0.108597025 -0.019111205 0.032290626 -0.038295887
000160 72 84 f0 bd 5f bd 36 be 8b 1a 1f bd 68 1a f1 bc
       -0.11744012 -0.17845677 -0.038843673 -0.029431537
000170 a8 72 e8 bd 29 a0 f4 3d 55 8a 16 3e 04 df 5b be
       -0.11349994 0.119446106 0.14701207 -0.21471792
000180 c7 77 ac 3d 06 8c 3d 3d ef 91 1d bd 70 0b c7 3c
       0.08421283 0.046276115 -0.03846925 0.024297446
000190 a2 f9 bf bd 3b a4 c9 bd 8c 2e f8 bd 69 b0 16 3e
       -0.093737856 -0.098457776 -0.12118253 0.14715733
0001a0 8f d0 05 be f0 b3 0e 3d 87 c7 06 bb df c8 1b bd
       -0.1306784 0.03483957 -0.0020565705 -0.038033362
0001b0 87 b5 07 be 82 6c 4b bd 3b 18 3e bd a3 f3 4f 3d
       -0.13252841 -0.049664028 -0.046409827 0.05076946
0001c0 9b 6e 75 3c f8 78 a2 bc ce 34 a7 3d 86 00 31 ba
       0.014979984 -0.019833073 0.081643686 -0.0006752092
0001d0 3f bb 15 bd fe c2 1b be c2 1e f8 39 7b fe 46 bd
       -0.036555525 -0.15211102 0.00047325162 -0.048582535
0001e0 44 f1 f8 bd f3 4b 5b bd b7 46 70 3a c1 aa 12 3e
       -0.12155393 -0.053539228 0.0009165811 0.1432295
0001f0 2a f1 b4 bc 77 52 30 3e 2d bf a1 3b d4 c3 a1 3d
       -0.022087652 0.17218958 0.00493612 0.078986794
000200 ab d9 2b be 5c 5e 4a 3e 4d c1 c7 bd 2e d3 b2 3a
       -0.16782252 0.19762558 -0.09753666 0.0013643259
000210 72 1c 56 be e8 81 64 3e 9c 01 30 3e 19 3d 03 bd
       -0.20909289 0.2231518 0.17188114 -0.03204069
000220 db 51 50 be ee 8c 69 3e bc 7d 09 3e d0 cc 88 bc
       -0.20343725 0.22807667 0.1342687 -0.016699225
000230 ee ff 5d 3e 77 48 31 3e f3 30 2b bd f2 0b 43 3e
       0.2167966 0.173128 -0.04179473 0.19047526
000240 73 66 14 be 0b f6 e9 bc 37 08 ce 3d 0e 08 c4 bd
       -0.14492206 -0.028559705 0.100601606 -0.09571849
000250 e2 f2 02 be 3a 0b 02 3e 71 99 3e 3e b4 ca 22 3c
       -0.12787965 0.12699595 0.18613221 0.0099360235
000260 61 a9 04 be 05 d8 08 be 2c 91 35 3e 62 b2 05 be
       -0.12955238 -0.13363655 0.1773116 -0.13056329
000270 46 83 05 be f7 30 3a be 56 5a bf b9 53 6c 9d 3d
       -0.13038358 -0.18182741 -0.00036497664 0.07686677
000280 16 91 dd bb 0d 45 57 be 0b 47 8f bd ec b3 d3 3b
       -0.0067616804 -0.21022435 -0.06995972 0.0064606573
000290 43 0a 13 3e 8f 83 e6 bd c8 22 c2 bc 2e 8f a0 bd
       0.14359383 -0.112555616 -0.023698226 -0.07839809
0002a0 e0 aa d7 3b e3 e2 30 3e 24 be d0 bd c2 de f4 3d
       0.006581649 0.1727405 -0.101925164 0.1195655
0002b0 b6 3a 1a be 50 83 33 be 22 cb b5 3d 22 a3 ed 3d
       -0.15061459 -0.1753056 0.08876635 0.11603381
0002c0 be 02 fb 39 6a 12 01 be 22 41 2b bd db ed 6c be
       0.00047876494 -0.1260468 -0.041810162 -0.2313761
0002d0 fe 7b 10 be a7 16 11 be dc 02 a7 3d d9 d0 9f 3b
       -0.141098 -0.14168797 0.08154842 0.0048771915
0002e0 68 79 b8 bd 0f b3 a5 bb 3c 6e 02 be 4e 2b bd 3d
       -0.090075314 -0.005056746 -0.12737364 0.09236775
0002f0 9b 73 62 3e 03 55 34 3d 36 9f 12 3e f6 a4 2a 3a
       0.22114412 0.044026386 0.14318547 0.00065095664

notes_decoder.weight f4 [128, 64]
000000 4c 6a 35 3d 3e 7f a2 bd b5 3f 0a 3e fa 96 23 3e
       0.044290826 -0.07934426 0.13500865 0.15975562
000010 7f aa 29 3e 8f 98 27 bd 41 f1 ea bc 24 42 6d 3d
       0.16568945 -0.040916976 -0.028679492 0.057924405
000020 81 37 f6 3d 76 1e 33 be 88 37 7f be 46 7c cf 3c
       0.12022305 -0.17492089 -0.24923527 0.025327813
000030 4c 36 82 bd 4c 22 87 be 3e b7 0a 3d dd f4 44 be
       -0.063580126 -0.26393354 0.03386616 -0.19234033
000040 47 8c 5c 3e 30 03 6e 3d ca 66 85 3d 24 7c c1 3c
       0.21537887 0.05810851 0.06513746 0.023618765
000050 c9 65 8a 3e 19 34 26 be c6 b3 83 be 61 27 19 be
       0.2703078 -0.16230811 -0.25723094 -0.14956428
000060 73 d2 87 3e 70 3c 26 3e ce 4b 2c be 33 78 2c 3e
       0.26527748 0.16233993 -0.16825792 0.16842727
000070 44 33 15 3e b8 7e e7 3d 2c 56 23 be dd 60 d7 bd
       0.14570338 0.113034666 -0.1595084 -0.10516522
000080 1f 1c 06 3e b5 86 00 3e 93 60 0e bd bd c3 7a be
       0.13096665 0.12551387 -0.03476007 -0.2448873
000090 a3 1d 2c be 34 2c 34 3e 3d 22 0b 3e 00 08 40 3e
       -0.1680818 0.17594987 0.1358728 0.18753052
0000a0 d9 d5 a6 3d a5 54 30 be 49 71 f3 3d 17 30 65 be
       0.08146257 -0.1721979 0.11886842 -0.22381626
0000b0 f4 44 07 3d e4 71 86 3e 41 ac 15 be c3 47 45 be
       0.033024743 0.26258767 -0.14616491 -0.19265656
0000c0 10 4c e0 3c e5 99 22 3e d0 10 c5 bd ae 9f 54 3e
       0.02738002 0.15879019 -0.09622347 0.20764038
0000d0 3a 25 01 3e 52 c1 dc 3d 50 26 30 be ce c0 d2 3d
       0.12611857 0.107790604 -0.17202115 0.10290681
0000e0 7d 44 69 3e fb 68 e9 bd 81 91 f9 3d 0d fa 9c 3d
       0.22780032 -0.113969766 0.12185956 0.07664881
0000f0 9f 98 c4 bd 90 84 d5 bd 7f c6 9e bd f2 d7 2f bd
       -0.09599423 -0.10425675 -0.07752704 -0.04293055
000100 58 21 d1 3c a8 3a 40 bd d3 85 89 3c bd 6c 32 3e
       0.025528595 -0.04693094 0.016787445 0.17424293
000110 bd 89 ce 3d 77 ea 85 be a9 5c ba bd 7e 83 02 3e
       0.10084865 -0.26155445 -0.09099705 0.12745473
000120 e6 d8 16 3e 04 af 78 be 15 f2 05 be 7e a7 f9 3d
       0.14731178 -0.24285513 -0.13080628 0.1219015
000130 38 05 85 bd c0 54 5b bd 27 92 82 3e d2 cd 09 be
       -0.06495136 -0.05354762 0.2550213 -0.1345742
000140 e3 f6 8b 3e 06 a5 81 3e 58 c0 05 bd 95 2c 00 3e
       0.27336797 0.25321215 -0.032654136 0.12517007
000150 e7 3d 32 3e 00 99 cd bd ba 03 a0 bd 5b 2e 4b be
       0.17406426 -0.10038948 -0.07813211 -0.19841902
000160 7d 1a 92 3d 8b 71 43 3e f9 48 39 be 2c 84 26 3e
       0.071339585 0.19086282 -0.18094243 0.16261357
000170 a4 2b 8b 3e 82 19 ec 3d 5a 22 0b be b6 fb 2f be
       0.27181733 0.11528303 -0.13587323 -0.17185864
000180 78 9d 05 3e 0d 62 e7 3d 38 e2 d9 bb d9 bb 14 be
       0.13048351 0.112979986 -0.006649282 -0.14524783
000190 4c d2 3d be 87 ac 46 3e 1c 7b f0 3d dc c9 1a 3e
       -0.18537253 0.19401751 0.11742231 0.15116066
0001a0 c3 9e 27 3e 5a 32 45 be ca 12 02 3d 25 76 83 bd
       0.16369157 -0.19257489 0.0317562 -0.06419019
0001b0 c1 d8 84 3e e5 cd a3 3d e7 e2 36 be 0a df 17 bd
       0.2594662 0.07998256 -0.17859994 -0.03707794
0001c0 ae 9f 64 3c 21 25 92 3d be a0 01 be 1a 57 19 3e
       0.013954086 0.07135988 -0.12658975 0.14974633
0001d0 27 57 18 3e 98 57 37 3e 55 cb 47 be 9d 5c 0b 3e
       0.14876996 0.17904508 -0.19511159 0.13609548
0001e0 0b ea 87 3e 72 16 7c 3c 40 e5 58 3e 75 8e a2 3c
       0.26545748 0.015386211 0.21181202 0.01984332
0001f0 47 06 76 be 2f f9 33 bd 39 01 db bd 1b 0c d8 bd
       -0.24025832 -0.043938812 -0.106935926 -0.10549184
000200 52 bc 65 bd cf 88 44 be db da 1f 3e 7a 29 61 3e
       -0.0560878 -0.19192813 0.1561083 0.21988478
000210 f6 a7 75 3e 79 58 9a bd f2 04 61 bd 3c ed 46 3e
       0.23989853 -0.07536406 -0.054936357 0.19426435
000220 34 fe 8d 3e c7 50 6e bd ae 08 12 be 4c a5 8c bd
       0.27733004 -0.058182504 -0.14261124 -0.068674654
000230 17 7a 7e be 88 41 80 be 4f c7 ff 3d fb 28 b9 bd
       -0.24851261 -0.25049996 0.12489187 -0.090410195
000240 c6 ec 97 3d f5 7b 8e 3d b6 bc 94 3c 4e 4d c7 3b
       0.07418208 0.06957237 0.01815639 0.0060822135
000250 d4 26 47 3e 53 99 b2 bd 4a 6c 18 be 95 48 66 be
       0.19448406 -0.087206505 -0.14885059 -0.22488625
000260 0b 6a 84 3e 94 d3 3c 3e 51 3f 39 be 64 1b 57 3e
       0.25862154 0.18440086 -0.1809056 0.21006542
000270 01 e9 62 3e 05 b6 38 3e c9 4a 1e be 20 3e 2d be
       0.22159196 0.18038185 -0.15458216 -0.1691823
000280 dc da 92 3d f0 22 9e 3d 25 2f 1b be db 26 4c be
       0.0717065 0.077215075 -0.15154703 -0.19936697
000290 46 8e 40 be 99 53 19 3e be 0e 11 3e a8 dc 0b 3e
       -0.18804273 0.14973296 0.1416578 0.13658392
0002a0 0a 11 3f 3e 35 3f 05 bd 16 ca 2e 3d ec e6 bf bd
       0.18658844 -0.032530982 0.042673193 -0.09370217
0002b0 20 35 87 3e 9f e7 2b 3e 71 57 6a be 44 10 16 bd
       0.2640772 0.16787575 -0.22884919 -0.036636606
0002c0 6b 61 e8 3d 68 47 dd 3d f6 5a 3a be 78 cb 0c 3e
       0.11346706 0.10804635 -0.18198761 0.13749492
0002d0 de 95 6f 3e fc 05 38 3e 7f 94 a3 bd 41 2f e6 3d
       0.23397014 0.17971033 -0.07987308 0.11239482
0002e0 6c 8f 1a 3e b5 d2 bf bc 5e f0 8f 3d a8 c9 0a 3e
       0.15093774 -0.023415903 0.07028268 0.13553488
0002f0 b3 c1 96 bc bc 24 53 bd e9 c3 7b bd 54 2f 17 be
       -0.01840291 -0.051548705 -0.06146613 -0.14764148
000300 ad 64 c1 3c cf 24 1b be ff 58 54 3e c2 e9 9d 3d
       0.023607576 -0.1515076 0.20737074 0.077106014
000310 30 52 94 3d 0a d9 03 be b6 a6 71 bd e8 65 81 3d
       0.072422385 -0.12875763 -0.05899688 0.06318265
000320 1c e8 68 3e 5e f9 dd bd 5d ce 51 be 78 2f 79 3d
       0.22744793 -0.10838579 -0.20488878 0.060836285
000330 1b 88 6c be 12 d6 3c bd 14 cf 81 3e b3 77 f5 bd
       -0.23098795 -0.04610259 0.253533 -0.119857214
000340 6e cd f4 3d 47 d9 7c 3d 60 10 8f 3d 30 11 5e 3e
       0.11953245 0.06173065 0.06985545 0.21686244
000350 c6 35 db 3d 8c 2f c6 bd cd e1 84 be 89 d1 82 bd
       0.10703616 -0.096770376 -0.25953522 -0.06387622
000360 9f bb 54 3e c1 90 42 3e 26 41 06 bd d0 35 8b 3e
       0.20774697 0.19000532 -0.032776974 0.27189493
000370 dd 75 9b 3d 94 44 7e 3e fe c6 2b be e3 d0 89 be
       0.0759084 0.24830848 -0.16775128 -0.2691718
000380 50 49 52 3e 14 47 87 3e c3 2f 5f bd b8 6a 6c be
       0.20535779 0.26421416 -0.05448891 -0.23087585
000390 2c c8 65 bd d4 2a 28 3e 77 ae 85 3e 8f 5a 03 3e
       -0.056099102 0.16422588 0.2610967 0.12827514
0003a0 15 5d 70 3e 6e c5 db bd 9c 5e ca bc ca 4e d0 bd
       0.23473008 -0.10731016 -0.024703316 -0.10171278
0003b0 fb be 39 3e db 29 c7 3d 1d 91 84 be 59 eb 15 be
       0.1813926 0.0972478 -0.25891963 -0.1464056
0003c0 07 21 84 bd aa 5c 89 3d 35 06 43 be ae a9 30 3d
       -0.06451612 0.067071274 -0.19045337 0.04313057
0003d0 53 1a 1d 3d 7b 9b e3 3d 39 4d 72 bd 60 b3 2d 3e
       0.038355183 0.1111364 -0.059155677 0.16962957
0003e0 89 95 00 3e 6a 65 3d 3d 83 71 82 3e 4a d3 bd bc
       0.12557043 0.046239294 0.25477228 -0.02317204
0003f0 fa 80 e9 bd b5 70 ba bd 78 71 33 3b 3f 27 8a be
       -0.114015535 -0.091035284 0.0027380865 -0.26983067

notes_decoder.bias f4 [128]
000000 a8 9c 96 bc 8f 7c 2a be c6 67 03 be 4d a0 69 be
       -0.018385246 -0.16649078 -0.12832555 -0.22815056
000010 75 83 03 be 49 c0 05 be a8 e3 3f be ef b9 27 be
       -0.12843116 -0.13061632 -0.18739188 -0.16379522
000020 f8 47 65 be 57 ac 72 be f6 83 0d be c4 cc 32 bd
       -0.22390735 -0.23698555 -0.1381987 -0.04365231
000030 bc 18 10 bd 87 4f 2f be 3c a7 3e bd cd 5a 57 be
       -0.03517984 -0.17120181 -0.046546206 -0.21030731
000040 d4 7f 09 bd 6d fa 41 be 06 c6 2e bd ca ea 8c bd
       -0.033569172 -0.18943186 -0.04266932 -0.0688072
000050 41 af 15 be 01 01 e8 bd 2e 1e 31 bd 49 af fd bd
       -0.14617635 -0.113283165 -0.043241672 -0.123869486
000060 bd 2c 87 bd 8f ec 3a be 0f 80 88 bd 01 4b 97 bd
       -0.0660033 -0.18254302 -0.0666505 -0.07387353
000070 52 ca ae bd 7e 4d ab bc 62 a1 1f be 79 64 44 be
       -0.08534683 -0.020910975 -0.15588906 -0.19178952
000080 f5 36 38 be 90 7f e1 bd ac fe 99 bd 74 b7 ca bc
       -0.17989714 -0.11010659 -0.07519278 -0.02474568
000090 9c a9 ff bd 48 c6 59 bd f5 da f8 bc c7 e2 58 be
       -0.12483522 -0.05316761 -0.030377844 -0.21180259
0000a0 3d a1 35 be bf fa 96 bd ab cc 6a be 7a 7e 2c be
       -0.17737289 -0.07372045 -0.22929637 -0.16845122
0000b0 1b e9 62 be 4c d2 e1 bd 7a 00 f2 bd 90 af 04 be
       -0.22159235 -0.11026439 -0.11816497 -0.12957597
0000c0 55 70 15 be c1 87 17 bd 55 db 86 bd 96 76 24 bd
       -0.14593633 -0.0369947 -0.06584803 -0.040152155
0000d0 04 bd 9b bc 2e 12 1a be 4b bb 66 be d6 a0 21 be
       -0.019011028 -0.15045998 -0.22532384 -0.1578401
0000e0 f7 3f 2e be 92 b9 ee bc 70 11 20 3c 86 81 77 be
       -0.17016588 -0.029141221 0.009769782 -0.24170503
0000f0 7f 13 82 bb 54 99 dc bc 2e aa c2 bc 86 26 11 be
       -0.0039696093 -0.026928581 -0.023762789 -0.14174852
000100 77 29 0e bc ad e6 60 be 9c cc bc bc 20 9d cf bd
       -0.008676878 -0.21962996 -0.023046784 -0.10137391
000110 2c db 55 be 82 b6 37 be 58 36 13 be bc bf 27 be
       -0.20884389 -0.17940715 -0.14376199 -0.16381735
000120 b8 2b 52 be 9b 95 50 bd ae 4c ca bd 8c e2 07 be
       -0.2052449 -0.050923925 -0.09877907 -0.13270015
000130 dc 53 52 be 9e ef f7 bc 84 dc 22 be aa 66 ab bd
       -0.20539802 -0.030265626 -0.15904433 -0.08369191
000140 d5 b1 5a be 5f 94 58 be 58 71 47 be 26 5c 56 be
       -0.213569 -0.21150349 -0.19476831 -0.2093359
000150 d7 1f 2b be 5c 42 e5 bd ef eb 4c bd fc 33 46 be
       -0.16711365 -0.11194298 -0.05002969 -0.19355768
000160 0a 7d 12 bd e2 98 ed bd 94 60 6a be e7 ae 86 bd
       -0.035763778 -0.11601426 -0.22888404 -0.06576329
000170 6b d6 25 be 52 1a 7b bd 8e 73 42 be 4b 5b 7b be
       -0.16195075 -0.061304398 -0.18989393 -0.24546544
000180 c9 cd 59 bd 5e 16 0b 3a 7c 97 34 be 85 67 2e be
       -0.053174768 0.0005305762 -0.17635912 -0.17031677
000190 a5 5a 0b bd 42 1a 4c bd 91 09 50 bd de 7b 57 be
       -0.034021992 -0.04982973 -0.050790373 -0.21043345
0001a0 9a a5 71 be f6 10 15 bd 5f fa 75 be b0 f0 80 be
       -0.23598328 -0.03639313 -0.2402129 -0.2518363
0001b0 2c 42 68 be 99 92 cc bd 54 eb 56 bd a0 8a 04 be
       -0.22681493 -0.09988899 -0.05247052 -0.12943506
0001c0 9d f7 4f be 6c 5f 94 bd 0a 33 89 bd 18 75 01 be
       -0.203093 -0.07244763 -0.06699188 -0.12642324
0001d0 2e b4 43 be 89 1d 4f be 1f 80 59 be 85 5b 1a be
       -0.19111702 -0.2022611 -0.2124028 -0.15073974
0001e0 0a f0 67 bd a3 5c 61 be 60 fd f1 bd 84 21 5c bd
       -0.056625403 -0.22007994 -0.118159056 -0.0537429
0001f0 df ac 04 bd ed c1 1d bd a1 11 44 be ac 47 cf bd
       -0.032391425 -0.03851502 -0.1914735 -0.10121092
