saved_models/generalist_BCE_1e-2_41.pth (torch_old, 167373 bytes, 8 tensors)

notes_encoder.weight f4 [64, 128]
0	0xbdab4681	-0.08363057
1	0xbd65a336	-0.056063853
2	0x3d5c12ba	0.053728797
3	0x3d8fea6b	0.070271336
4	0xbd9130d9	-0.07089395
5	0xbd5e3e49	-0.05425862
6	0x3c09a1b8	0.008400373
7	0xbd7bda3d	-0.061487425
8	0xbd7cbf9b	-0.061706167
9	0xbbaa6400	-0.005199909
10	0xbc7618f8	-0.015020601
11	0x3d707742	0.058707483
12	0xbda766d3	-0.08173909
13	0xbd05eeec	-0.032698557
14	0x3c3c3560	0.011487335
15	0x3d6773ce	0.056506924
16	0xbd5c6031	-0.053802673
17	0xbda85646	-0.0821958
18	0xbc92921c	-0.017891936
19	0x3c91e298	0.017808244
20	0x3d3b4676	0.045721494
21	0xbd6c3732	-0.057669826
22	0xbdab433e	-0.08362435
23	0x3c92cfe0	0.017921388
24	0xbdb456e7	-0.08805638
25	0x3bd7f070	0.0065899417
26	0x3d317056	0.043320023
27	0x3cba0310	0.022706538
28	0x3d77e1c2	0.060518034
29	0xbcc5733c	-0.0241028
30	0x3cca6030	0.024704069
31	0xbc599e40	-0.013282359
32	0xbd4c956c	-0.049947187
33	0x3cd1a28c	0.025590204
34	0x3df79b6f	0.120901935
35	0x3d16391e	0.036675565
36	0x3e062720	0.13100863
37	0x3becdf10	0.0072287396
38	0x3dd6c857	0.104874305
39	0x3e4b06b1	0.19826771
40	0x3e1aa7dc	0.15103096
41	0x3d9bf3fe	0.07614897
42	0x3def820f	0.116947286
43	0x3dd55125	0.10415868
44	0x3e3102b2	0.17286184
45	0x3d861402	0.06546785
46	0x3d368334	0.04455872
47	0x3e3818fc	0.17978281
48	0x3e4aa535	0.19789584
49	0x3dd480fa	0.10376163
50	0x3e4b7e7b	0.19872467
51	0x3d4185c5	0.047246713
52	0x3e347b13	0.17625074
53	0x3e3196e3	0.17342715
54	0x3e2aaa5c	0.1666655
55	0x3df3a558	0.11896771
56	0x3e46f571	0.19429566
57	0x3e35ac83	0.17741589
58	0x3df1115d	0.1177089
59	0x3e2377f5	0.15963729
60	0x3de9e45d	0.1142051
61	0x3e4f00e8	0.2021519
62	0x3de89dd4	0.11358228
63	0x3e48612b	0.19568317
64	0x3dbacd91	0.0912124
65	0x3e2b6494	0.16737586
66	0x3d85fc0d	0.065422155
67	0x3e4aa2ad	0.19788618
68	0x3e4c3450	0.1994183
69	0x3d5ba4fa	0.05362413
70	0x3e384319	0.17994346
71	0x3e42bd99	0.19017638
72	0x3e252fb0	0.16131473
73	0x3d6a7edb	0.057249885
74	0x3e0d8115	0.13818772
75	0x3d9593cf	0.07303583
76	0x3d38e4ce	0.04514008
77	0x3e4f0f65	0.20220716
78	0x3d678528	0.056523472
79	0x3de1e86e	0.110306606
80	0x3d55f22a	0.0522329
81	0x3e49c5bd	0.19704337
82	0x3dbe8f2b	0.09304651
83	0x3d5a1cbf	0.05325007
84	0x3e413481	0.18867685
85	0x3e3034f2	0.17207697
86	0x3dc9de91	0.09856904
87	0x3e4ffb86	0.20310792
88	0x3dfe42e2	0.12415101
89	0x3e277ce9	0.16356243
90	0xbda05cd8	-0.078302085
91	0x3d9896fd	0.07450674
92	0xbca76e9c	-0.020438485
93	0x3ce89f94	0.028396405
94	0x3bfd6e00	0.0077340603
95	0xbcc8e508	-0.024523273
96	0xbd96eb04	-0.073690444
97	0xbb545c20	-0.0032403544
98	0xbd4ff16b	-0.050767343
99	0x3d9bc695	0.07606236
100	0x3dac7959	0.08421583
101	0x3dac474d	0.08412037
102	0xbcd9d70e	-0.026591804
103	0xbd96c334	-0.07361451
104	0xbc692170	-0.0142291635
105	0x3d5d0a32	0.0539648
106	0xbd582233	-0.05276699
107	0x3d30afbe	0.04313635
108	0xbc05f550	-0.008176163
109	0xbc342ca8	-0.010996975
110	0xbd0ecf39	-0.03486559
111	0xbd4fc0d3	-0.050721
112	0x3d607d72	0.054807134
113	0x3ce46efc	0.027884953
114	0x3d313222	0.0432607
115	0xbd51d161	-0.05122507
116	0x3d38b1c6	0.045091413
117	0x3ceafb24	0.028684206
118	0x3d74abae	0.05973404
119	0x3d5cb8a6	0.053887032
120	0x3c597200	0.013271809
121	0x3dacc681	0.08436299
122	0x3b985480	0.004648745
123	0xbc89ba2c	-0.016812406
124	0x3c0d4260	0.008621782
125	0xbd39b0bc	-0.045334563
126	0x3d7952d2	0.06087
127	0x3cd69da4	0.026198216
128	0xbda75f81	-0.08172513
129	0x3d753f5a	0.05987487
130	0x3d8237a5	0.063582696
131	0x3bd5fae0	0.006530151
132	0xbdaeebbf	-0.08541059
133	0x3d9b61f3	0.07587042
134	0x3cc133b0	0.023584217
135	0xbd9604c8	-0.07325131
136	0x3bdfdc00	0.006831646
137	0xbcbe259c	-0.023211293
138	0x3d80758f	0.062724225
139	0xbbe106b0	-0.0068672523
140	0xbd0821a3	-0.033235203
141	0x3d3bcaba	0.045847632
142	0x3cb14420	0.02163893
143	0x3c4a3220	0.012341052
144	0xbd8e9521	-0.06962038
145	0xbda9c9bb	-0.0829043
146	0x3cda7208	0.026665702
147	0xba070f80	-0.0005152151
148	0xbc907384	-0.017633207
149	0xbbd988c0	-0.0066386163
150	0xbc525be0	-0.0128392875
151	0xbd0906a9	-0.033453617
152	0x3d41f63e	0.047353975
153	0xbcd5156c	-0.026011191
154	0xbcdd6a3c	-0.027028196
155	0xbd8ba552	-0.06818642
156	0x3c92a2d8	0.017899916
157	0xbcc8fc38	-0.02453433
158	0x3bae95c0	0.00532791
159	0xbd2c6845	-0.042091627
160	0x3d69775e	0.056998603
161	0xbccb626c	-0.024827205
162	0xbcd5c891	-0.026096614
163	0x3ced49f4	0.028965928
164	0xbd349825	-0.04409041
165	0x3b913340	0.0044311583
166	0xbc3e6c41	-0.011622489
167	0xbd32c5d1	-0.043645684
168	0xbd3e0c48	-0.04639843
169	0xbdb4d099	-0.08828849
170	0xbd5facef	-0.05460828
171	0xbe3d151e	-0.18465087
172	0xbd9ffc26	-0.078117654
173	0xbd483628	-0.048879772
174	0xbde381d6	-0.111087486
175	0xbdb8212c	-0.08990702
176	0xbdcb896f	-0.09938323
177	0xbca106b0	-0.01965651
178	0xbd978fcf	-0.07400476
179	0xbe24dda6	-0.16100177
180	0xbc4c8415	-0.012482663
181	0xbcf31d2b	-0.029676994
182	0xbd367a48	-0.04455021
183	0xbdd83300	-0.105566025
184	0xbddaf0d3	-0.10690465
185	0xbd7794ca	-0.06044463
186	0xbe25c6b4	-0.1618908
187	0xbdd585cb	-0.104259096
188	0xbe136f42	-0.1439791
189	0xbd5c598e	-0.053796344
190	0xbcf6fde2	-0.030150358
191	0xbcc77e92	-0.024352346
192	0xbd899d61	-0.06719471
193	0xbd44e246	-0.048067354
194	0xbe324215	-0.17408021
195	0xbe0bc396	-0.13648829
196	0xbce7eb0b	-0.02831032
197	0xbe1fd658	-0.1560911
198	0xbd8addba	-0.06780572
199	0xbe2750bc	-0.16339391
200	0xbdc4e8b0	-0.09614694
201	0xbdf4ac69	-0.11946947
202	0xbd0d3e2e	-0.034483127
203	0xbd406578	-0.04697177
204	0xbd439154	-0.047746018
205	0xbc017ecb	-0.007903765
206	0xbe03aba4	-0.12858444
207	0xbdf1489c	-0.11781427
208	0xbd5478ca	-0.051873006
209	0xbe1db975	-0.15402777
210	0xbd685292	-0.05671937
211	0xbd7cd605	-0.061727542
212	0xbe2182ec	-0.15772599
213	0xbc4f5921	-0.012655527
214	0xbc58aa72	-0.013224231
215	0xbdcb9e43	-0.099422954
216	0xbd217a0c	-0.039423034
217	0xbd278818	-0.040901273
218	0xbd8d3964	-0.06895712
219	0x3d1ad066	0.0377964
220	0xbd09d394	-0.033649042
221	0xbcbbe3ec	-0.02293583
222	0xbcb32ef8	-0.021872982
223	0x3d9ab001	0.07553101
224	0xbd307086	-0.04307606
225	0x3cd70a90	0.026250154
226	0xbd1362ad	-0.035982776
227	0x3d8a4eb1	0.067532904
228	0x3c66ebe8	0.01409433
229	0x3d596ce2	0.053082354
230	0xbd576a0d	-0.052591372
231	0x3d815be3	0.06316354
232	0x3d38affa	0.0450897
233	0xbd560cad	-0.052258182
234	0x3d47f072	0.04881329
235	0x3d6867ba	0.056739546
236	0xbd24f747	-0.040274885
237	0x3d51ef5e	0.05125367
238	0xbd8755a1	-0.06608129
239	0xbca5135c	-0.020150833
240	0xbda6741e	-0.08127616
241	0xbac804c0	-0.0015260205
242	0xbd9c6334	-0.07636109
243	0x3d9fc565	0.07801322
244	0x3daea9c9	0.08528478
245	0x3cd64b0c	0.026158832
246	0xbccac99c	-0.024754338
247	0xbc2165c0	-0.009850919
248	0xbd7c1cc0	-0.061550856
249	0xbd0ffc8f	-0.035152968
250	0xbc020d28	-0.007937707
251	0xbd992d32	-0.074793234
252	0x3d36c55a	0.044621803
253	0x3d6bad1e	0.057538144
254	0xbcf0201c	-0.029312186
255	0x3c2ef730	0.010679051

notes_encoder.bias f4 [64]
0	0x3d0dbcec	0.034603998
1	0xbe2b2190	-0.16712022
2	0xbe1ec455	-0.15504582
3	0x3e2912ef	0.16511129
4	0xbd889c21	-0.06670404
5	0xbe274beb	-0.16337554
6	0xbe43c97a	-0.19119826
7	0x3dfb594b	0.12272891
8	0x3e1d8678	0.15383327
9	0x3d97db91	0.07414926
10	0xbc72c1ee	-0.014816744
11	0x3dcd6c6d	0.10030446
12	0xbcab65d9	-0.020922588
13	0x3e126815	0.14297517
14	0x3dc3be18	0.09557742
15	0xbe374c20	-0.17900133
16	0xbe3798fe	-0.17929456
17	0xbe1e7c4d	-0.15477104
18	0xbe12c6db	-0.1433367
19	0x3e1736ee	0.14767048
20	0xbe34ef8b	-0.17669503
21	0xbe0740dd	-0.13208337
22	0x3dfb7cf2	0.12279691
23	0xbe29c513	-0.16579084
24	0x3e44c5ff	0.19216155
25	0x3e48f289	0.1962377
26	0x3e4b6e18	0.19866216
27	0xbe4b7f8b	-0.19872873
28	0x3d9de5f5	0.077098764
29	0xbdd55f4e	-0.104185686
30	0x3da99750	0.08280814
31	0xbe13b683	-0.14425091
32	0x3dcd2996	0.100176975
33	0x3e373121	0.17889835
34	0xbd8b0649	-0.06788308
35	0xbdf5842d	-0.11988101
36	0x3cbbc4ec	0.022921048
37	0x3e005ca6	0.12535343
38	0x3e0ee7d4	0.13955623
39	0xbdf0a521	-0.11750246
40	0xbd7e7307	-0.062121417
41	0xbe529138	-0.20563209
42	0x3da1d006	0.079010054
43	0xbd935981	-0.07194806
44	0x3db31177	0.087435655
45	0xbdc0b162	-0.09408833
46	0x3e23fc61	0.16014244
47	0x3e0d7128	0.13812697
48	0xbc754690	-0.014970437
49	0x3e286764	0.1644569
50	0x3d936f7c	0.07198998
51	0x3e18f39a	0.14936677
52	0x3da78d14	0.081812054
53	0x3e0ebd0b	0.13939302
54	0x3e25e69f	0.16201256
55	0xbddde49e	-0.10834621
56	0x3e27d1fd	0.16388698
57	0xbdc0d2e3	-0.094152234
58	0xbe08f102	-0.13373187
59	0x3e2ec0aa	0.17065683
60	0x3e34054e	0.17580149
61	0x3e0c7bf9	0.13719167
62	0xbdf7982e	-0.12089573
63	0xbe4cc1f0	-0.19995856

gru.weight_ih_l0 f4 [192, 64]
0	0x3d89bf33	0.067259215
1	0x3e4d1d82	0.20030788
2	0x3e5d1808	0.21591198
3	0x3c64e461	0.013970465
4	0x3bf66f27	0.0075205746
5	0x3e291c41	0.16514684
6	0x3dee8758	0.116469085
7	0x3c596016	0.013267538
8	0xbe5e8db6	-0.21733746
9	0x3ba53d0c	0.0050426777
10	0x3d55c535	0.052190024
11	0xbb942005	-0.0045204186
12	0x3d927542	0.071512714
13	0xbe312397	-0.17298733
14	0xbd3142ab	-0.04327647
15	0x3d05a94a	0.03263215
16	0x3e4acb96	0.19804224
17	0x3cb3badf	0.021939693
18	0x3e2f032a	0.1709105
19	0xbdc7685c	-0.09736702
20	0x3dd27c9e	0.10277675
21	0x3df2d529	0.11857063
22	0xbcc42f55	-0.02394835
23	0x3e1698ba	0.14706698
24	0xbe5685a5	-0.20949419
25	0xbdd49d71	-0.10381592
26	0xbe26b5e0	-0.16280317
27	0x3e1c8e85	0.15288742
28	0xbdfdff8c	-0.12402257
29	0x3e10b569	0.14131702
30	0xbc51b24a	-0.012798855
31	0x3cde565f	0.027140794
32	0xbe265eb9	-0.16247071
33	0xbd206aa2	-0.039164193
34	0x3dd93b65	0.10607032
35	0x3e08cd0c	0.13359469
36	0xbd3d788c	-0.04625754
37	0xbe17f737	-0.14840399
38	0xbe4dd314	-0.20100051
39	0x3c6d2da7	0.014476216
40	0x3dcdbf50	0.100462556
41	0x3dbb4183	0.09143355
42	0x3d3fd91f	0.046837922
43	0xbdf4971a	-0.11942883
44	0x3c4b95bc	0.012425836
45	0x3c8a861c	0.016909651
46	0xbde0ea5b	-0.109822
47	0x3a87ce6c	0.0010361201
48	0x3d85ec84	0.065392524
49	0xbe4e6b12	-0.20158032
50	0xbdbd517a	-0.09244056
51	0xbdf0afd2	-0.11752285
52	0x3d87092a	0.06593545
53	0xbe23fad5	-0.16013654
54	0xbd94cbb9	-0.072654195
55	0x3cf18415	0.029481927
56	0xbe15c432	-0.14625624
57	0xbd15a0f6	-0.036530457
58	0x3dda1cd2	0.10650028
59	0xbdd1392a	-0.10215981
60	0xbe663503	-0.2248116
61	0xbd9d224f	-0.076725595
62	0x3da6fcc0	0.08153677
63	0x3cddbd2e	0.027067747
64	0x3d27aa43	0.04093386
65	0xbe668c91	-0.2251456
66	0xbd9fd5c4	-0.078044444
67	0x3e222b9b	0.15836947
68	0xbe2f174c	-0.17098731
69	0xbe13b123	-0.14423041
70	0xbd283ba5	-0.041072506
71	0x3e32654d	0.17421456
72	0xbb13dce9	-0.0022562093
73	0xbcc23c95	-0.023710528
74	0x3c6bfa7d	0.014402983
75	0x3d7d363d	0.061819304
76	0x3cb5b9cf	0.022183327
77	0x3dc1e4fa	0.09467502
78	0x3b2cafb2	0.002634984
79	0xbdce82cd	-0.10083542
80	0xbb94c568	-0.004540134
81	0x3c54bd36	0.0129845645
82	0x3b8bf3a3	0.004270987
83	0x3e0f48bf	0.13992594
84	0xbe5024c7	-0.2032653
85	0xbe5ba213	-0.21448545
86	0xbcf4e7e4	-0.02989573
87	0xbd485362	-0.048907645
88	0x3e5df87c	0.2167682
89	0x3df6fd3c	0.120600194
90	0x3dfcd5a4	0.12345436
91	0xbdbc7376	-0.0920171
92	0x3e22dfd9	0.15905704
93	0xbd8ade62	-0.067806974
94	0x3e36b611	0.1784289
95	0xbdf5f396	-0.12009351
96	0xbd1c6ccd	-0.038189698
97	0x3cf8be0f	0.030364064
98	0xbd10b795	-0.035331327
99	0xbd863c0c	-0.06554422
100	0x3ddcced2	0.10781635
101	0x3e405fc2	0.18786529
102	0x3dc417d3	0.095748566
103	0xbe1ffede	-0.15624568
104	0xbe1fa130	-0.15588832
105	0xbdefae66	-0.11703186
106	0x3d832710	0.06403935
107	0x3c899bd3	0.016797936
108	0x3e2a4a9c	0.16630024
109	0x3dc6e5b5	0.09711782
110	0x3dd94544	0.106089145
111	0x3e129fa6	0.14318714
112	0x3e22cb48	0.15897858
113	0x3e17afbf	0.14813136
114	0x3d84908b	0.06472882
115	0x3e0e21e7	0.1388012
116	0xbd32f704	-0.043692604
117	0x3de2a7e5	0.110671796
118	0x3cf6a27c	0.030106775
119	0xbe08bcd6	-0.13353285
120	0x3c3cfbad	0.011534614
121	0xbdb18628	-0.086681664
122	0xbd2ae56c	-0.0417227
123	0xbb918ef5	-0.0044420906
124	0x3e5d11b6	0.21588787
125	0x3daf2546	0.08552031
126	0xbd7e7482	-0.06212283
127	0xbde5b664	-0.11216429
128	0x3e6d4d2a	0.23173967
129	0xbdba72b5	-0.0910391
130	0xbe445e6e	-0.19176647
131	0x3e0c928e	0.13727781
132	0xbe16f802	-0.14743045
133	0x3ce65871	0.028118344
134	0xbc5eb7f1	-0.01359366
135	0x3e2772aa	0.16352335
136	0x3db8d2ce	0.09024583
137	0x3e4fae0c	0.20281237
138	0xbdf46189	-0.11932666
139	0x3e20047f	0.15626715
140	0xbd1d9494	-0.038471773
141	0xbcff71bb	-0.03118216
142	0xbb9eb99e	-0.0048439046
143	0xbd279ca7	-0.04092088
144	0xbdade000	-0.0848999
145	0xbc9640c8	-0.018341437
146	0x3d1918ea	0.037377276
147	0x3e086baf	0.13322328
148	0x3cc7e0ef	0.024399249
149	0xbe411e31	-0.18859173
150	0x3dd065ae	0.10175644
151	0xbe3f6900	-0.18692398
152	0x3ddcf0c5	0.10788111
153	0x3d45126a	0.048113264
154	0x3de8a951	0.113604195
155	0xbdcef481	-0.10105229
156	0x3d6890fa	0.056778885
157	0xbcdd94d3	-0.027048504
158	0x3e4dc1f7	0.20093523
159	0xbe364b61	-0.17802192
160	0x3e1cb377	0.15302835
161	0xbc966a3a	-0.0183612
162	0xbd35791e	-0.04430496
163	0x3b4364b1	0.0029814655
164	0x3e5a7d83	0.21336941
165	0x3d2b70b3	0.041855525
166	0x3e026ff1	0.12738015
167	0xbe0b94f8	-0.13631046
168	0x3b5f21ca	0.003404724
169	0xbe412339	-0.18861093
170	0x3cba05ce	0.022707846
171	0xbdf9b846	-0.121933505
172	0x3d0dd5b6	0.03462764
173	0xbdb1c7dd	-0.08680699
174	0x3bd11b46	0.006381425
175	0x3d575f9c	0.052581415
176	0xbdfbc56f	-0.12293517
177	0x3d8d23cb	0.068915926
178	0x3daa3adf	0.0831201
179	0x3e45320e	0.19257376
180	0x3e31f413	0.17378263
181	0x3de45824	0.11149624
182	0x3e1ba42c	0.15199345
183	0xbc7e3224	-0.015514884
184	0x3e309c90	0.17247224
185	0xbda7d753	-0.08195367
186	0x3d108b5c	0.035289153
187	0x3e3182f4	0.17335111
188	0x3db1f3ba	0.08689065
189	0x3d7b7117	0.061387148
190	0xbd4ee254	-0.050508812
191	0xbe14edc3	-0.14543824
192	0x3e1856eb	0.14876907
193	0xbdeee2d6	-0.11664359
194	0xbcb8062b	-0.022463879
195	0x3d189ca2	0.03725875
196	0xbe584183	-0.2111874
197	0xbc2b5120	-0.010456353
198	0xbe033997	-0.12814938
199	0x3e2507a3	0.16116194
200	0x3e3d85c8	0.18508065
201	0x3db50340	0.088385105
202	0xbd9d0f92	-0.076689854
203	0x3dfa1b39	0.122122236
204	0x3e58c893	0.21170263
205	0x3e0a4c61	0.13505699
206	0x3c80a596	0.015703958
207	0xbe0acaee	-0.13553974
208	0xbe2b90be	-0.16754434
209	0xbde3947f	-0.11112308
210	0xbcb4d6ab	-0.022075018
211	0x3d6278ee	0.05529111
212	0xbe450b14	-0.19242507
213	0xbd4a3cea	-0.0493745
214	0x3db8a646	0.09016089
215	0x3d03c9ac	0.03217475
216	0x3db2068f	0.08692657
217	0x3ba34d27	0.0049835625
218	0xbd0f39fa	-0.0349674
219	0xbaeb0aa0	-0.0017932244
220	0x3dfb9a16	0.12285249
221	0xbdcdcc7d	-0.10048769
222	0x3e4b7d1e	0.19871947
223	0xbd9065f4	-0.07050696
224	0x3dbb4976	0.09144871
225	0x3e4181b4	0.18897134
226	0xbdb32b31	-0.087484725
227	0xbca6eedd	-0.02037757
228	0x3e618ea8	0.22027075
229	0x3dcba945	0.09944395
230	0x3e2bea07	0.16788493
231	0xbd2d8f73	-0.042373132
232	0xbdd21ea5	-0.10259751
233	0xbe0eee17	-0.13958012
234	0x3e188d64	0.14897686
235	0xbde39292	-0.111119404
236	0x3e110632	0.1416252
237	0xbda8cdaa	-0.08242352
238	0x3de14172	0.10998811
239	0x3bd60300	0.0065311193
240	0xbe094121	-0.13403751
241	0x3da4f017	0.08053606
242	0x3b9f1832	0.004855179
243	0x3e3fb1eb	0.18720214
244	0xba8f83cb	-0.0010949312
245	0x3cbe6746	0.023242604
246	0x3cae6581	0.021288635
247	0xbe0b4c70	-0.13603377
248	0x3de6441e	0.11243461
249	0xbe3b9383	-0.1831799
250	0xbe52fbc2	-0.2060385
251	0xbcddbdfc	-0.02706813
252	0xbd0bbbee	-0.03411477
253	0x3e2a6b98	0.16642606
254	0xbe002cb1	-0.12517048
255	0xbd79e35b	-0.06100784

gru.weight_hh_l0 f4 [192, 64]
0	0xbce7e230	-0.028306097
1	0xbd104b71	-0.035228197
2	0xbe19d7dd	-0.15023752
3	0x3e3bfe76	0.18358788
4	0x3d56b606	0.052419685
5	0xbe081faf	-0.13293336
6	0xbd982c5c	-0.07430336
7	0x3e10d53d	0.14143844
8	0x3e6409e9	0.22269405
9	0xbd080c11	-0.033214632
10	0xbd1188b6	-0.03553077
11	0x3e0c844e	0.13722345
12	0x3cb1d6d1	0.021708878
13	0xbe54b1dd	-0.20770974
14	0xbb88ba9d	-0.0041726367
15	0xbc8a8c45	-0.016912589
16	0x3d3bbcb7	0.04583427
17	0x3e59561f	0.21224259
18	0xbdf5bf3f	-0.11999368
19	0xbd3c1936	-0.04592248
20	0x3e0d1005	0.13775642
21	0xbe1264a0	-0.14296198
22	0xbe12b5a1	-0.14327098
23	0xbe273cc8	-0.1633178
24	0xbc16dabc	-0.009207424
25	0x3ddad300	0.10684776
26	0xbe18d1be	-0.1492376
27	0x3d8715b1	0.06595934
28	0x3b2eee31	0.0026692266
29	0x3e453ae3	0.19260745
30	0xbe0cdcc3	-0.13756089
31	0xbe233d9a	-0.15941468
32	0xbc05c890	-0.008165494
33	0x3e5ce338	0.21571052
34	0x3d66f704	0.056387916
35	0xbc82a883	-0.015949493
36	0xbe2e9d0a	-0.17052093
37	0x3e153512	0.14571026
38	0xbc87adb2	-0.016562317
39	0x3d3cb704	0.046072975
40	0x3d93a2f7	0.072088175
41	0xbded3ca7	-0.11583834
42	0x3d3857e7	0.045005705
43	0xbe08661b	-0.133202
44	0x3e1a1eb1	0.1505077
45	0x3d6b0741	0.057379965
46	0xbd52fd7f	-0.051511284
47	0xbd813d47	-0.06310516
48	0xbcea00cb	-0.028564831
49	0x3e1b7117	0.15179859
50	0xbe31317e	-0.17304036
51	0x3e1345af	0.14382051
52	0x3de65c10	0.11248028
53	0x3d168eef	0.036757406
54	0xbd654fbc	-0.055984244
55	0x3e29de23	0.16588645
56	0xbca0251c	-0.019548945
57	0xbd057ed2	-0.03259165
58	0x3e06a07c	0.13147157
59	0x3aeae9b4	0.0017922432
60	0xbdaf06f1	-0.08546246
61	0xbdb4107a	-0.08792205
62	0x3d49cc2c	0.04926698
63	0xbdbe9ece	-0.09307633
64	0xbd33041d	-0.043705095
65	0x3d2f2571	0.042760316
66	0x3d8e9fe8	0.069640934
67	0xbdc35f91	-0.09539712
68	0x3c967cdb	0.018370083
69	0x3dcb01b4	0.09912434
70	0x3e563fc8	0.20922768
71	0xbcd59503	-0.02607203
72	0xbd622f37	-0.05522081
73	0x3e1c9888	0.15292561
74	0x3d986cd0	0.07442629
75	0xbdc0f264	-0.09421232
76	0x3dbba6bb	0.09162661
77	0x3dc2c468	0.09510118
78	0xbe165a5d	-0.14682908
79	0x3d9448ae	0.07240425
80	0x3b6ae526	0.003584215
81	0xbe2a6b8b	-0.16642587
82	0x3d379c6a	0.044826902
83	0xbe28f234	-0.16498643
84	0xbd987077	-0.07443326
85	0x3e61cc1c	0.22050518
86	0x3e30e594	0.17275077
87	0x3d551f7a	0.05203197
88	0xbc7ec3a2	-0.015549572
89	0xbe050c80	-0.1299305
90	0x3d9eb4eb	0.07749351
91	0xbd76ae50	-0.06022483
92	0xbde4aff9	-0.111663766
93	0xbdb83168	-0.089937985
94	0xbd293094	-0.041306093
95	0x3e049a4b	0.12949483
96	0xbe17cb78	-0.14823711
97	0xbd8d357d	-0.06894968
98	0x3ca5b7f3	0.020229315
99	0x3e4eb89c	0.2018761
100	0x3e53d3be	0.20686242
101	0xbde47297	-0.11154669
102	0xbe35d484	-0.1775685
103	0x3b7c10f9	0.0038462265
104	0xbe618c86	-0.22026262
105	0xbc08bf52	-0.008346396
106	0xbe4f3992	-0.20236805
107	0x3e3f6e28	0.18694365
108	0xbd1f9336	-0.03895875
109	0xbd9d3233	-0.0767559
110	0x3e249976	0.16074166
111	0x3d85a5e1	0.065257795
112	0xbd5e12cf	-0.054217156
113	0xbdad4752	-0.08460869
114	0xbd356840	-0.044288874
115	0xbddc7286	-0.10764031
116	0xbc8becce	-0.01708069
117	0x3ce23641	0.02761376
118	0x3e1bfe93	0.15233831
119	0x3ab862ff	0.0014067589
120	0xbe1c0855	-0.15237553
121	0xbe0193b8	-0.12654006
122	0xbe3437bc	-0.17599386
123	0x3d709108	0.058732063
124	0x3d4b9829	0.049705658
125	0x3e4fc9ac	0.20291775
126	0xb99eb21e	-0.00030268816
127	0x3e436a81	0.19083597
128	0xbe88e3ad	-0.26736203
129	0x3db8dd65	0.09026603
130	0xbdd21dbd	-0.102595784
131	0x3c8563f2	0.01628301
132	0xbe3bdec2	-0.18346694
133	0x3e2590c0	0.16168499
134	0xbc6832f8	-0.014172308
135	0xbcd29bae	-0.025709
136	0xbe66a464	-0.22523648
137	0x3da9b346	0.08286147
138	0x3d9ce072	0.07659997
139	0x3e0ecda3	0.13945632
140	0x3e56ddc6	0.20983037
141	0xbc26eaee	-0.010187848
142	0xbe72d04c	-0.23712271
143	0x3e290685	0.16506393
144	0xbddffef8	-0.10937303
145	0xbe2acd1f	-0.1667981
146	0x3de792b1	0.11307276
147	0xbc969853	-0.01838318
148	0xbc9844b1	-0.018587442
149	0x3d72aaad	0.0592448
150	0x3e0a617a	0.13513747
151	0x3d6bcf0d	0.057570506
152	0xbe54e947	-0.20792113
153	0xbe6b334c	-0.22968787
154	0x3d95e903	0.07319834
155	0xbdc5b3d3	-0.096534394
156	0xbe418995	-0.1890014
157	0xbdf12e3c	-0.11776397
158	0x3e5f1501	0.21785356
159	0x3dee8009	0.116455145
160	0xbdb0dde3	-0.086360715
161	0xbe63c932	-0.22244719
162	0x3db761fa	0.089542344
163	0xbcca2cb7	-0.024679525
164	0x3e559f70	0.20861602
165	0xbe28f3c2	-0.16499236
166	0xbe1fdaeb	-0.15610854
167	0xba4db5cc	-0.0007847219
168	0xbd5664de	-0.05234229
169	0x3d4371bb	0.047715884
170	0xbdc4508f	-0.09585678
171	0x3d95bb0b	0.07311066
172	0xbce644b2	-0.028108928
173	0xbd69de01	-0.057096485
174	0x3e476d98	0.194754
175	0x3d4128f6	0.047158204
176	0x3e363b5b	0.1779608
177	0x3cab0ff2	0.020881627
178	0x3e078333	0.13233642
179	0xbe62033b	-0.22071545
180	0xbdbed767	-0.093184285
181	0xbdd21383	-0.10257628
182	0xbc787c87	-0.015166408
183	0xbde1ef8f	-0.1103202
184	0xbe078748	-0.132352
185	0x3e56959b	0.20955507
186	0xbe0bec9d	-0.1366448
187	0xbca47864	-0.020076938
188	0x3d5d463a	0.05402205
189	0xbc7f4e19	-0.015582585
190	0x3e76b1fe	0.24091336
191	0x3d8a87a5	0.067641534
192	0xbe0bc8cd	-0.13650818
193	0x3dc0a73b	0.09406897
194	0xbe10ed3f	-0.14153002
195	0xbe231325	-0.15925272
196	0x3c6c7f2e	0.014434619
197	0x3e0bf5a4	0.13667923
198	0x3e2de870	0.16983199
199	0x3cb55eef	0.022139994
200	0xbba50dd2	-0.005037048
201	0xbc9e6ea1	-0.019339861
202	0x3c0d8c31	0.008639381
203	0xbb9abf96	-0.004722546
204	0x3e4c14b0	0.19929767
205	0xbc94cdf6	-0.018164616
206	0xbe0357f7	-0.12826525
207	0x3e396d04	0.18107992
208	0xbd079de6	-0.033109568
209	0x3cbe211c	0.023209147
210	0x3e270f9e	0.16314551
211	0xbe43fe3e	-0.19139954
212	0x39b18d88	0.0003386552
213	0x3e3bc2db	0.1833605
214	0x3d38ee31	0.045149032
215	0x3e111a30	0.14170146
216	0x3d194d7b	0.037427407
217	0xbbf46b21	-0.00745906
218	0x3d92f229	0.07175095
219	0xbd7762da	-0.060397007
220	0x38a222fc	7.731278e-05
221	0xbcf974ff	-0.030451296
222	0x3d95ae12	0.07308592
223	0x3dc2cae3	0.09511354
224	0xbe1c2d61	-0.15251686
225	0x3c58e218	0.013237499
226	0x3e2e3a56	0.17014441
227	0xbc456b6d	-0.012049538
228	0x3e4f0b15	0.20219071
229	0xbbceacda	-0.0063072266
230	0xbd2e2466	-0.04251518
231	0xbe4566f4	-0.19277555
232	0xbe0fbd48	-0.14037049
233	0x3e1f07ec	0.15530366
234	0xbdc6a870	-0.09700096
235	0x3e104314	0.14088088
236	0xbe132840	-0.14370823
237	0xbe3a6a16	-0.18204531
238	0xbd00024e	-0.031252198
239	0x3d69002e	0.056884937
240	0x3da469ef	0.08028018
241	0xbdb2bc81	-0.087273605
242	0x3e0a6de3	0.13518481
243	0x3bd3d212	0.0064642513
244	0xbe3a0528	-0.1816603
245	0xbe70ed5e	-0.23528048
246	0x3d3ef5f0	0.046621263
247	0xbd355f7a	-0.044280507
248	0xbdbb75b1	-0.09153307
249	0x3daa7d45	0.083246745
250	0xbd9dcff7	-0.07705682
251	0xbdc0e17e	-0.09418009
252	0x3dc23fe5	0.09484843
253	0x3e3690ad	0.17828627
254	0x3e005bd8	0.12535036
255	0x3c8d2009	0.01722719

gru.bias_ih_l0 f4 [192]
0	0xbe439b43	-0.19102196
1	0x3e148c25	0.14506586
2	0xbd177fe3	-0.036987197
3	0x3e234870	0.15945601
4	0x3c4adab9	0.012381249
5	0x3dbc9f4c	0.09210071
6	0x3d97c565	0.07410697
7	0x3da4ab09	0.08040435
8	0x3d9924c5	0.07477716
9	0x3def3a37	0.116810255
10	0x3d8b28b4	0.06794873
11	0xbdef824f	-0.11694776
12	0x3e01a8b5	0.12662013
13	0x3e56746f	0.20942853
14	0x3dda47e9	0.10658247
15	0x3e11dbbc	0.14243978
16	0x3e398858	0.18118417
17	0x3d87df39	0.06634373
18	0xbd79ed5d	-0.061017383
19	0x3e1b486e	0.15164348
20	0x3d25c292	0.04046876
21	0x3def4387	0.11682802
22	0x3e1cb349	0.15302767
23	0x3e0f4e4e	0.13994715
24	0x3dbf396f	0.093371265
25	0x3d328d8d	0.043592025
26	0xbd132d63	-0.035931956
27	0x3c04faac	0.008116405
28	0x3e3badeb	0.18328063
29	0x3b5c49e7	0.0033613385
30	0x3d19f807	0.037590053
31	0x3d84b5b5	0.0647997
32	0x3e3438b9	0.17599763
33	0x3dd39b00	0.10332298
34	0x3e1a6300	0.15076828
35	0xbd6cd445	-0.057819624
36	0x3dd60e2a	0.1045192
37	0x3d3bf9bb	0.04589246
38	0x3df08846	0.11744742
39	0x3e6f1942	0.23349479
40	0x3e353da3	0.17699294
41	0x3ca257d6	0.019817274
42	0x3d760fda	0.06007371
43	0xbcd4b556	-0.025965374
44	0x3d67f640	0.056631327
45	0xbc3201a8	-0.010864653
46	0xbd1e6674	-0.038671926
47	0xbd084084	-0.033264652
48	0xbcc63c69	-0.024198728
49	0x3d383ea2	0.044981606
50	0x3ddb2403	0.10700228
51	0x3e6a08fe	0.22854993
52	0x3e21dc8c	0.15806788
53	0x3cf20ae5	0.02954621
54	0x3e10183d	0.14071746
55	0x3d8f358d	0.06992636
56	0xbcdb137d	-0.026742691
57	0xbe1cb7c6	-0.15304479
58	0x3e384349	0.17994417
59	0xb9e635b7	-0.0004390904
60	0x3db4be85	0.08825401
61	0x3b053b4e	0.0020329538
62	0x3df942c6	0.12170939
63	0xbccfac48	-0.025350705
64	0xbe35f62c	-0.17769688
65	0x3d47460e	0.048650794
66	0x3ead1760	0.33806896
67	0x3dae0a59	0.084980674
68	0xbdd9eb8c	-0.1064063
69	0xbe08b742	-0.13351157
70	0x3c638666	0.013887024
71	0xbd2710b8	-0.04078743
72	0x3ddfa4be	0.10920094
73	0xbe8c28c6	-0.27374858
74	0xbd562ec6	-0.0522907
75	0xbe2a4cb4	-0.16630822
76	0xbe7f1d2a	-0.24913469
77	0xbe227832	-0.15866163
78	0xbd3a00e6	-0.045411013
79	0xbe1aaf18	-0.15105855
80	0x3d66d74d	0.05635767
81	0xbe0290f8	-0.12750614
82	0xbd160f2c	-0.036635563
83	0xbda1688b	-0.07881268
84	0x3e0c847d	0.13722415
85	0x3d0e3e3d	0.034727324
86	0x3d08197c	0.03322743
87	0xbe081157	-0.13287865
88	0xbc6e3101	-0.014538051
89	0xbd6006b7	-0.054693904
90	0xbc9af347	-0.018914832
91	0x3defc7e5	0.11708049
92	0xbbcac2fc	-0.0061877947
93	0x3cb79b52	0.02241293
94	0xbd16b957	-0.036797848
95	0xbe615c2f	-0.22007822
96	0x3e10409e	0.1408715
97	0xbca367fc	-0.019947045
98	0x3dade925	0.084917344
99	0xbe2e5859	-0.1702589
100	0xbe2266c6	-0.15859517
101	0xbe24fbeb	-0.16111724
102	0x3ce7e875	0.028309086
103	0x3d8fc771	0.07020462
104	0xbdd54285	-0.10413078
105	0x3dfee15f	0.1244533
106	0xbb42b6a9	-0.0029710925
107	0x3d88217e	0.06647013
108	0x3d0d5a68	0.034510046
109	0xbd0219ff	-0.031763073
110	0xbb3faed8	-0.0029248502
111	0x3d2a90f4	0.041642144
112	0xbe01556d	-0.12630244
113	0x3daccaf0	0.08437145
114	0x3d1fc08a	0.03900198
115	0xbd9040e1	-0.07043625
116	0xbe2bc6a7	-0.16774999
117	0x3d99ae06	0.075038955
118	0x3da495a8	0.08036357
119	0xbdd3e21c	-0.10345861
120	0xbd785432	-0.06062717
121	0x3ca9b7db	0.020717552
122	0x3e0a1be6	0.13487205
123	0x3e5ef92d	0.2177474
124	0xbe3b569c	-0.18294758
125	0xbd186373	-0.037204217
126	0xbdcbc47b	-0.09949585
127	0x3db2d72f	0.08732449
128	0xbe13d047	-0.1443492
129	0x3ddcdc8d	0.10784254
130	0x3c9e782f	0.019344417
131	0xbe0600fb	-0.13086312
132	0xbe2a546a	-0.16633764
133	0x3e12ad37	0.14323889
134	0x3ddd7100	0.10812569
135	0xbe51f870	-0.20504928
136	0xbe24ec1e	-0.16105697
137	0x3e2c32d0	0.16816258
138	0x3e6209d8	0.22074068
139	0x3dd98d15	0.106226124
140	0x3e1ce21d	0.1532063
141	0x3e105aee	0.14097187
142	0xbe295c4c	-0.16539115
143	0x3e19403d	0.14965911
144	0xbe27561c	-0.16341442
145	0xbe2142f5	-0.15748198
146	0xbd2f76c5	-0.042837877
147	0x3c4ef2e3	0.012631151
148	0xbe2fac24	-0.1715551
149	0x3e27ba2e	0.16379616
150	0x3e4681b3	0.19385414
151	0x3e3aa999	0.18228759
152	0xbe06ee43	-0.13176827
153	0x3d0258ad	0.03182285
154	0x3e0b3d9a	0.13597718
155	0xbe5d0ce8	-0.21586955
156	0xbe406f04	-0.18792349
157	0xbe08ffd2	-0.13378838
158	0x3e24c85a	0.16092053
159	0x3e4b81df	0.1987376
160	0xbe82685d	-0.25470248
161	0xbe71d03a	-0.23614588
162	0xbc43034a	-0.01190264
163	0x3e4c7137	0.19965063
164	0x3e1a2a98	0.1505531
165	0xbe1734aa	-0.14766183
166	0xbe14ccc7	-0.14531241
167	0xbd0c591e	-0.034264676
168	0xbe4319b4	-0.19052774
169	0x3da92754	0.08259454
170	0xbc3770ad	-0.011196298
171	0x3e362acd	0.17789765
172	0xbe1015bd	-0.14070792
173	0xbe2949fa	-0.16532126
174	0x3e6a8af0	0.22904563
175	0x3d1f8010	0.03894049
176	0x3d88a21f	0.06671547
177	0xbcec93ea	-0.028879125
178	0x3e0a1cfd	0.1348762
179	0xbdf2f6d7	-0.11863487
180	0xbe67d71e	-0.22640654
181	0xbd8bd9ee	-0.06828676
182	0x3e347ed3	0.17626505
183	0xbe5e4b81	-0.2170849
184	0xbe001190	-0.125067
185	0x3e06bbc3	0.13157563
186	0xbdf75216	-0.120762035
187	0xbd5d4ae9	-0.054026518
188	0x3dc9a4a6	0.09845857
189	0x3e5c25e4	0.21498829
190	0x3e3cbf7c	0.1843242
191	0x3e60835b	0.21925108

gru.bias_hh_l0 f4 [192]
0	0xbdec02a3	-0.115239404
1	0x3e4fcb3e	0.20292374
2	0x3cae63c5	0.021287808
3	0xbbca72e3	-0.0061782463
4	0x3e05ba0d	0.13059254
5	0x3e463e9c	0.19359821
6	0x3da25e20	0.07928109
7	0x3db5b484	0.08872321
8	0x3e472d33	0.19450836
9	0x3dca1039	0.098663755
10	0x3d4b3568	0.04961148
11	0xbcd63b9b	-0.026151469
12	0x3e0d14d8	0.13777483
13	0x3d60db87	0.054896858
14	0x3e1d1e54	0.153436
15	0x3d58f53c	0.05296825
16	0x3e4c623c	0.19959348
17	0x3dbc15aa	0.091838196
18	0xbe24ef5c	-0.16106933
19	0x3e210c50	0.15727353
20	0xbde47b4a	-0.11156328
21	0x3d7b2a6f	0.061319765
22	0x3b41e1b2	0.0029583988
23	0x3e345011	0.17608668
24	0x3e0330e6	0.12811622
25	0x3d5a1421	0.053241853
26	0x3e345857	0.17611824
27	0x3d4aaf21	0.049483422
28	0x3cc75ea1	0.024337115
29	0x3e0630c6	0.13104543
30	0xbb9f4769	-0.0048608077
31	0x3e14d153	0.14532976
32	0xbc880f17	-0.016608758
33	0x3e679eba	0.22619143
34	0x3d4165df	0.047216292
35	0x3bb200b8	0.0054322146
36	0x3e55ce0d	0.20879383
37	0x3e3e17f6	0.18563828
38	0x3e03914c	0.12848395
39	0x3deb32f8	0.11484331
40	0x3dd104b8	0.10205978
41	0x3e2372f9	0.15961827
42	0x3ce7dfb3	0.02830491
43	0x3d8ac0d8	0.06775063
44	0x3e36b45c	0.17842239
45	0x3c5ac27c	0.013352033
46	0xbaef2627	-0.0018245623
47	0xbcc61c85	-0.024183521
48	0xbd638c98	-0.055554003
49	0xbc0b97db	-0.008520092
50	0x3e390d88	0.18071568
51	0x3ce8fe53	0.028441584
52	0x3db31af9	0.08745379
53	0x3cbbc99b	0.022923281
54	0x3e05bf99	0.1306137
55	0x3e3833b2	0.1798847
56	0xbc58ff53	-0.013244468
57	0xbdf83fa9	-0.12121517
58	0x3daa967d	0.083294846
59	0xbd6116db	-0.054953437
60	0x3e13e01e	0.14440963
61	0x3de95819	0.113937564
62	0xbd4634ee	-0.04839032
63	0x3ca492f8	0.020089611
64	0x3ca9ae10	0.020712882
65	0xbdc33a54	-0.095326096
66	0x3ed810a6	0.42200202
67	0x3e6fb1c3	0.23407654
68	0x3d309da2	0.04311908
69	0xbe084890	-0.1330893
70	0xbe355087	-0.177065
71	0xbe8c8946	-0.2744848
72	0x3dd2e796	0.10298078
73	0xbe261ae3	-0.16221194
74	0xbe29a5b5	-0.16567118
75	0xbdc4705a	-0.09591742
76	0xbe63dc17	-0.22251926
77	0xbd8e3589	-0.06943805
78	0xbe23b098	-0.15985334
79	0xbd2d6f86	-0.042342685
80	0xbd7ba1d6	-0.061433636
81	0xbe25ca36	-0.16190419
82	0xbe77d8b6	-0.24203762
83	0xbe513705	-0.20431145
84	0x3e319122	0.1734052
85	0xbd10c349	-0.03534249
86	0x3c90c4d6	0.017671984
87	0xbd55b72c	-0.05217664
88	0xbe0316aa	-0.12801614
89	0xbe2f9cb9	-0.17149629
90	0xbd174b48	-0.03693703
91	0xbce8679a	-0.028369714
92	0xbdfb9532	-0.12284316
93	0x3def50aa	0.11685307
94	0x3e1262fa	0.14295569
95	0xbe78094f	-0.24222301
96	0x3da4fee0	0.08056426
97	0x3d23118a	0.03981165
98	0x3c23bb2f	0.0099933585
99	0x3bfb763f	0.007674008
100	0xbde03975	-0.10948459
101	0xbde669e8	-0.11250669
102	0xbe037b10	-0.12839913
103	0x3e33cc28	0.17558348
104	0xbe100722	-0.14065221
105	0x3cf13aeb	0.02944704
106	0x39daeaec	0.0004175523
107	0xbd3cd4ca	-0.04610137
108	0xbe142a09	-0.1446916
109	0xbd5d9f43	-0.054106962
110	0xbd809aa8	-0.06279498
111	0x3d4d6284	0.05014278
112	0x3cac5455	0.021036306
113	0xbcb1fcc6	-0.021726977
114	0x3dcaf6eb	0.09910377
115	0xbc12dbf5	-0.008963575
116	0xbd3f5e42	-0.04672075
117	0xbe262a86	-0.16227159
118	0xbbb38196	-0.0054780943
119	0xbd5ede94	-0.054411486
120	0xbe090ffa	-0.13385001
121	0xbdb9dded	-0.09075532
122	0xb9bbf832	-0.0003585234
123	0x3e37e621	0.17958881
124	0xbcf1e7e0	-0.029529512
125	0x3e2b0b6b	0.16703574
126	0x3cc2f7a3	0.023799723
127	0x3dbb287e	0.09138583
128	0xbe30b77e	-0.17257497
129	0x3e50a2f3	0.2037466
130	0xbdcf65d1	-0.10126842
131	0xbb92c89f	-0.0044794823
132	0xbe5d89fd	-0.2163467
133	0x3e6b2b1c	0.22965664
134	0x3e3711df	0.17877911
135	0xbd1f53c7	-0.038898256
136	0xbe579da7	-0.21056233
137	0x3e70e91c	0.23526424
138	0x3e111562	0.14168313
139	0xbc843614	-0.016139068
140	0x3e65adb1	0.2242954
141	0x3e3843bd	0.1799459
142	0xbd46e32b	-0.048556488
143	0x3e4a697a	0.19766799
144	0xbe1c3301	-0.15253831
145	0xbd106408	-0.035251647
146	0x3dcf69c9	0.10127599
147	0xbdce950a	-0.10087021
148	0xbe0a8e97	-0.13530956
149	0x3e090478	0.13380611
150	0x3e45b032	0.19305494
151	0x3c8b0906	0.016972076
152	0xbe0bebb2	-0.1366413
153	0xbe0cf5e0	-0.13765669
154	0x3e3c2801	0.18374635
155	0xbe0d919f	-0.13825081
156	0xbe0cc0ff	-0.13745497
157	0xbe411bb6	-0.18858227
158	0x3bd8c3bc	0.00661513
159	0x3dac29fc	0.084064454
160	0xbc6f0e51	-0.014590816
161	0xbe5e74ff	-0.21724318
162	0xbd8d3e9e	-0.06896709
163	0x3c694ff8	0.014240257
164	0x3e1986c7	0.1499282
165	0xbdf4e42c	-0.11957583
166	0xbcfb2157	-0.030655546
167	0xbda96a57	-0.08272236
168	0x3a100d19	0.0005495116
169	0x3e38716d	0.18012019
170	0xbddd2c1d	-0.107994296
171	0x3e01e022	0.12683156
172	0xbe215817	-0.1575626
173	0xbe3b0576	-0.18263802
174	0x3dc5c384	0.09656432
175	0x3dfa47b9	0.12220711
176	0x3b6790cf	0.0035334115
177	0xbe07b7ec	-0.13253754
178	0xbd189b11	-0.037257258
179	0xbe73f43f	-0.23823641
180	0xbe173c42	-0.1476908
181	0xbe17bef3	-0.14818935
182	0x3db4fe6f	0.08837592
183	0xbb0f50d7	-0.0021868253
184	0xbdc82cfc	-0.09774205
185	0xbb58ea9b	-0.003309882
186	0xbe097b4e	-0.13425943
187	0x3dbceed4	0.0922524
188	0x3e6947f3	0.22781353
189	0x3d51564d	0.051107693
190	0x3e180a5a	0.14847699
191	0x3c106c55	0.008814891

notes_decoder.weight f4 [128, 64]
0	0x3d620708	0.055182487
1	0xbdb8c90e	-0.09022723
2	0x3e1aa76d	0.1510293
3	0x3e3391f0	0.1753614
4	0x3e36bc32	0.17845228
5	0xbd54d48b	-0.05196051
6	0xbd27721a	-0.0408803
7	0x3d8ed037	0.069733076
8	0x3e08e4dc	0.13368553
9	0xbe3f8339	-0.18702401
10	0xbe872924	-0.26398575
11	0x3cb8590c	0.022503398
12	0xbd9c9cb7	-0.076470785
13	0xbe8d8280	-0.27638626
14	0x3d3ea98f	0.046548422
15	0xbe53fa1e	-0.20700881
16	0x3e68a3b4	0.22718698
17	0x3d8f0687	0.06983667
18	0x3d84da73	0.064869784
19	0x3d127a98	0.035761446
20	0x3e923791	0.2855802
21	0xbe33b34a	-0.17548862
22	0xbe8a6019	-0.27026442
23	0xbe24ccf9	-0.16093816
24	0x3e8e0762	0.27740008
25	0x3e37ec76	0.17961296
26	0xbe397c16	-0.18113741
27	0x3e3b7bc2	0.18308929
28	0x3e20d98d	0.15707989
29	0x3dfe0784	0.12403777
30	0xbe2fe342	-0.17176536
31	0xbdf36adb	-0.118856154
32	0x3e12f73e	0.14352128
33	0x3e0d141c	0.13777202
34	0xbd597fde	-0.05310046
35	0xbe839e34	-0.25706637
36	0xbe383064	-0.1798721
37	0x3e404cb7	0.18779264
38	0x3e16a4ed	0.14711352
39	0x3e524c18	0.2053684
40	0x3dbd35e8	0.092387974
41	0xbe3dfaa3	-0.18552642
42	0x3e05e4a5	0.13075502
43	0xbe717297	-0.23578869
44	0x3d380b5a	0.0449327
45	0x3e8c7d39	0.27439287
46	0xbe258f96	-0.16168055
47	0xbe5175b5	-0.20455058
48	0x3ce972ff	0.028497217
49	0x3e2f034a	0.17091098
50	0xbde222e1	-0.11041809
51	0x3e600d80	0.2188015
52	0x3e0ccffc	0.13751215
53	0x3df5def4	0.120054156
54	0xbe3bdf68	-0.18346941
55	0x3dee37df	0.1163175
56	0x3e766532	0.2406204
57	0xbdf6caca	-0.12050398
58	0x3e08a7b5	0.13345225
59	0x3da9fe03	0.08300402
60	0xbddba9d8	-0.107257545
61	0xbdefc2b4	-0.117070585
62	0xbdbfd0ce	-0.09365998
63	0xbd6bc070	-0.05755657
64	0x3d1d536e	0.038409643
65	0xbd70d3fa	-0.058795907
66	0x3d0ab08c	0.033859774
67	0x3e43814c	0.19092292
68	0x3deb47f1	0.11488331
69	0xbe8c16e0	-0.27361202
70	0xbdd5ea3c	-0.10445067
71	0x3e0fd9ea	0.14047971
72	0x3e25ea49	0.16202654
73	0xbe831d91	-0.25608495
74	0xbe1626e1	-0.14663269
75	0x3deebc22	0.11656977
76	0xbda21f86	-0.07916169
77	0xbd89c213	-0.0672647
78	0x3e89bcaf	0.26901767
79	0xbe19f6ad	-0.15035506
80	0x3e929818	0.28631663
81	0x3e884bbe	0.26620287
82	0xbd015a19	-0.031580064
83	0x3e0de0c0	0.13855267
84	0x3e433b7f	0.19065665
85	0xbdeb32ca	-0.114842966
86	0xbdbd131a	-0.09232159
87	0xbe580ae2	-0.21097901
88	0x3dad7738	0.08470005
89	0x3e56bf47	0.20971404
90	0xbe47b9e9	-0.19504513
91	0x3e36cdca	0.1785194
92	0x3e9191c2	0.28431517
93	0x3e028066	0.12744293
94	0xbe190b2a	-0.14945665
95	0xbe3f133e	-0.18659684
96	0x3e13b6a7	0.14425145
97	0x3e0177a7	0.126433
98	0xbcd3493d	-0.025791759
99	0xbe2273e7	-0.15864526
100	0xbe4b165e	-0.19832751
101	0x3e540a9b	0.2070717
102	0x3e04ed3f	0.12981127
103	0x3e2d9c4b	0.16954152
104	0x3e33f75a	0.17574826
105	0xbe542bbe	-0.20719811
106	0x3d37cdbe	0.044873945
107	0xbd9e6a07	-0.07735067
108	0x3e8b962e	0.27263016
109	0x3dbe85db	0.09302875
110	0xbe48103f	-0.19537447
111	0xbd4de9e3	-0.05027188
112	0x3c7fd1e2	0.015614005
113	0x3dada07f	0.08477878
114	0xbe116dd3	-0.14202051
115	0x3e25e8b6	0.16202053
116	0x3e251063	0.16119532
117	0x3e453c24	0.19261223
118	0xbe54acfc	-0.20769113
119	0x3e1a57c3	0.15072541
120	0x3e8f2311	0.2795644
121	0x3bfc7041	0.0077038114
122	0x3e65f7f9	0.22457875
123	0x3ce4d706	0.027934562
124	0xbe815f36	-0.25267953
125	0xbd6da6a0	-0.058020234
126	0xbdffbc90	-0.12487137
127	0xbdf89f54	-0.121397644
128	0xbd3f0ca1	-0.046642903
129	0xbe4f5f8b	-0.2025129
130	0x3e2f58d9	0.17123736
131	0x3e707a26	0.23484096
132	0x3e8133b0	0.25234747
133	0xbdb05705	-0.08610348
134	0xbd88dbd6	-0.066825554
135	0x3e52b5f5	0.20577224
136	0x3e94b19e	0.2904176
137	0xbd8f3c2e	-0.069939
138	0xbe207bdb	-0.15672247
139	0xbd910d58	-0.07082623
140	0xbe85a6f1	-0.2610393
141	0xbe867777	-0.2626302
142	0x3e0c8c19	0.13725318
143	0xbdd65806	-0.10466008
144	0x3daf5a80	0.085621834
145	0x3da5dfbc	0.080993146
146	0x3c91dda4	0.017805882
147	0x3c9276af	0.017878858
148	0x3e56551b	0.20930903
149	0xbdcce000	-0.10003662
150	0xbe255b00	-0.16147995
151	0xbe719bcc	-0.23594588
152	0x3e8a7381	0.27041247
153	0x3e4d5593	0.20052175
154	0xbe460ece	-0.19341585
155	0x3e658da8	0.22417319
156	0x3e6e3f31	0.23266293
157	0x3e43ab8c	0.19108409
158	0xbe2a7d81	-0.16649438
159	0xbe3a990f	-0.1822245
160	0x3dababf3	0.08382406
161	0x3db69536	0.089151785
162	0xbe2cfaab	-0.16892497
163	0xbe583983	-0.21115689
164	0xbe4c4f8a	-0.19952217
165	0x3e25182f	0.16122507
166	0x3e1c3f55	0.15258534
167	0x3e1d5bcb	0.15367047
168	0x3e49f38b	0.1972181
169	0xbd3a4d61	-0.04548395
170	0x3d5d9baa	0.05410353
171	0xbdd7b9a5	-0.10533456
172	0x3e8d273c	0.27568996
173	0x3e37a95e	0.17935702
174	0xbe79ba36	-0.2438744
175	0xbd454707	-0.04816344
176	0x3deb1eb8	0.114804685
177	0x3df563e8	0.11981946
178	0xbe486716	-0.19570574
179	0x3e17e8f6	0.14834961
180	0x3e7aed51	0.24504592
181	0x3e443d59	0.19164027
182	0xbdba5ebe	-0.09100102
183	0x3e0067b1	0.12539555
184	0x3e274dbd	0.16338249
185	0xbcefe0c4	-0.029281981
186	0x3da70a90	0.081563115
187	0x3e1040dd	0.14087243
188	0xbcf08ada	-0.029363085
189	0xbd83116e	-0.06399809
190	0xbd9ba6d8	-0.07600182
191	0xbe25ac50	-0.16179013
192	0x3d0df702	0.034659393
193	0xbe264bf5	-0.16239913
194	0x3e654365	0.2238899
195	0x3dbe9f26	0.09307699
196	0x3daeb961	0.08531452
197	0xbe0f2b8f	-0.1398146
198	0xbd9201a1	-0.07129217
199	0x3d99bc25	0.07506589
200	0x3e76d708	0.24105465
201	0xbdf6d7ce	-0.1205288
202	0xbe6112fb	-0.21979897
203	0x3d6c45e6	0.057683848
204	0xbe79df3d	-0.24401565
205	0xbd704551	-0.058659855
206	0x3e88605f	0.26636025
207	0xbe0a07a4	-0.13479477
208	0x3e0685e9	0.1313702
209	0x3d96a1e9	0.07355101
210	0x3d8f7a2d	0.07005725
211	0x3e6a9802	0.22909549
212	0x3dfb194f	0.122606866
213	0xbde17af2	-0.11009778
214	0xbe8b98f5	-0.27265134
215	0xbd9a3a29	-0.075306244
216	0x3e613a29	0.21994843
217	0x3e54b25a	0.2077116
218	0xbd3b659d	-0.045751203
219	0x3e92caaa	0.28670245
220	0x3db2d7d1	0.0873257
221	0x3e84cae4	0.25936043
222	0xbe3877be	-0.18014428
223	0xbe90d6f0	-0.28288984
224	0x3e5f2d19	0.21794547
225	0x3e8d97bf	0.27654836
226	0xbd96898d	-0.073504545
227	0xbe78f17a	-0.24310866
228	0xbd8b281a	-0.06794758
229	0x3e345b6e	0.17613003
230	0x3e8b75a8	0.27238202
231	0x3e166216	0.14685854
232	0x3e7b9857	0.24569832
233	0xbdf776ff	-0.120832436
234	0xbc5084f2	-0.012727009
235	0xbde8f15e	-0.11374162
236	0x3e460926	0.19339427
237	0x3ddf8030	0.10913122
238	0xbe8ca9f7	-0.27473423
239	0xbe2236e8	-0.15841258
240	0xbd806098	-0.06268424
241	0x3da26c02	0.07930757
242	0xbe51d9fc	-0.2049331
243	0x3d5e8789	0.054328475
244	0x3d4bd67a	0.049765088
245	0x3dfcfe02	0.12353136
246	0xbd90ad66	-0.07064323
247	0x3e3b965d	0.18319078
248	0x3e0dd248	0.13849747
249	0x3d2242d0	0.0396145
250	0x3e88683d	0.26642027
251	0xbc8981b6	-0.016785484
252	0xbe00564b	-0.12532918
253	0xbdd4e2f4	-0.103948504
254	0xbc60e0ff	-0.013725518
255	0xbe91c8d3	-0.2847353

notes_decoder.bias f4 [128]
0	0xbce20ad6	-0.027593058
1	0xbe342c0b	-0.17594926
2	0xbe0c7516	-0.1371654
3	0xbe72e9f3	-0.23722057
4	0xbe0cf929	-0.13766922
5	0xbe0f6c8c	-0.14006251
6	0xbe4a0214	-0.19727355
7	0xbe30aa0a	-0.17252365
8	0xbe6de387	-0.23231326
9	0xbe7c4bb4	-0.24638253
10	0xbe167560	-0.14693213
11	0xbd57a003	-0.052642833
12	0xbd351311	-0.044207636
13	0xbe391458	-0.18074167
14	0xbd5e2163	-0.05423106
15	0xbe5f8270	-0.21827102
16	0xbd29187e	-0.041283123
17	0xbe4aaa47	-0.19791518
18	0xbd528a13	-0.05140121
19	0xbd9ecaea	-0.077535465
20	0xbe1e672a	-0.15469041
21	0xbdf8b491	-0.12143815
22	0xbd5c2d30	-0.05375403
23	0xbe077231	-0.13227154
24	0xbd9891bb	-0.07449671
25	0xbe440488	-0.19142354
26	0xbd9e1404	-0.077186614
27	0xbda993f6	-0.082801744
28	0xbdc1168b	-0.09428128
29	0xbcf4d901	-0.029888632
30	0xbe28da59	-0.16489543
31	0xbe4da321	-0.2008176
32	0xbe3fdb7e	-0.18736073
33	0xbdf1b4c9	-0.1180206
34	0xbda62912	-0.08113302
35	0xbd08699b	-0.03330384
36	0xbe06aeca	-0.13152614
37	0xbd7d0868	-0.061775595
38	0xbd1ae562	-0.037816413
39	0xbe5d35e2	-0.21602586
40	0xbe3d0269	-0.1845795
41	0xbd9ea6f7	-0.0774669
42	0xbe7364b7	-0.23768888
43	0xbe2d7674	-0.16939718
44	0xbe654da9	-0.22392906
45	0xbdf16b9d	-0.11788104
46	0xbdff0817	-0.12452715
47	0xbe073b49	-0.13206209
48	0xbe1a812e	-0.1508834
49	0xbd2ab4fb	-0.041676503
50	0xbd9575d7	-0.07297867
51	0xbd1ee95b	-0.038796764
52	0xbcd1c8b6	-0.025608402
53	0xbe1e7929	-0.15475906
54	0xbe68f1fc	-0.2274856
55	0xbe2556a0	-0.16146326
56	0xbe3498a9	-0.1763636
57	0xbd08ea06	-0.033426307
58	0x3b966ab2	0.004590356
59	0xbe788ba3	-0.24272017
60	0xbc156984	-0.009119395
61	0xbd13603f	-0.03598046
62	0xbd02beee	-0.031920366
63	0xbe0fbca2	-0.14036801
64	0xbc6281c3	-0.013824883
65	0xbe66bf99	-0.22534026
66	0xbcc0bc6a	-0.023527343
67	0xbddb469e	-0.107068285
68	0xbe5de040	-0.21667576
69	0xbe3d8227	-0.1850668
70	0xbe178cd4	-0.14799815
71	0xbe2ee92a	-0.17081133
72	0xbe567dd4	-0.20946437
73	0xbd62a673	-0.05533452
74	0xbdd7cc94	-0.10537067
75	0xbe0fee6d	-0.14055796
76	0xbe577606	-0.21041116
77	0xbd0b3dac	-0.03399436
78	0xbe240cfd	-0.1602058
79	0xbdb186cf	-0.08668291
80	0xbe5ccfa5	-0.21563585
81	0xbe5f674f	-0.21816753
82	0xbe4c7e73	-0.19970112
83	0xbe562a83	-0.20914654
84	0xbe2edcfb	-0.17076485
85	0xbde858d9	-0.11345071
86	0xbd57da55	-0.052698452
87	0xbe4aa9b7	-0.19791304
88	0xbd32baf2	-0.043635316
89	0xbdf78598	-0.12086028
90	0xbe7260bc	-0.23669714
91	0xbd9641a4	-0.07336739
92	0xbe2e84b2	-0.17042807
93	0xbd8fc78f	-0.07020485
94	0xbe4b2298	-0.19837415
95	0xbe821c10	-0.25412035
96	0xbd804a67	-0.06264191
97	0xbbe73709	-0.0070561212
98	0xbe3dae88	-0.1852361
99	0xbe376bbf	-0.17912196
100	0xbd2c8d9d	-0.04212724
101	0xbd7b5930	-0.061364353
102	0xbd73933f	-0.059466597
103	0xbe614293	-0.21998052
104	0xbe7cea82	-0.24698833
105	0xbd3bc82f	-0.045845207
106	0xbe7e6861	-0.24844505
107	0xbe860124	-0.26172745
108	0xbe70b6e8	-0.23507273
109	0xbde043a5	-0.10950402
110	0xbd787170	-0.060655057
111	0xbe0e5bf9	-0.13902272
112	0xbe58d59f	-0.2117524
113	0xbda5809a	-0.080811694
114	0xbd9b3277	-0.07577985
115	0xbe0ab56e	-0.13545772
116	0xbe4b6dea	-0.19866148
117	0xbe58f44f	-0.21186946
118	0xbe637586	-0.222128
119	0xbe2354f8	-0.15950382
120	0xbd85dec8	-0.06536633
121	0xbe69ec9b	-0.22844164
122	0xbe03ed5f	-0.12883519
123	0xbd800148	-0.062502444
124	0xbd2a7f3f	-0.041625258
125	0xbd40de4b	-0.047086995
126	0xbe4bfaec	-0.19919938
127	0xbde27e11	-0.110592015
