saved_models/generalist_BCE_1e-2_166.pth (torch_old, 167373 bytes, 8 tensors)

notes_encoder.weight f4 [64, 128]
00000000: 8146 abbd 36a3 65bd ba12 5c3d 6bea 8f3d
00000010: d930 91bd 493e 5ebd b8a1 093c 3dda 7bbd
00000020: 9bbf 7cbd 0064 aabb f818 76bc 4277 703d
00000030: d366 a7bd ecee 05bd 6035 3c3c ce73 673d
00000040: 3160 5cbd 4656 a8bd 1c92 92bc 98e2 913c
00000050: 7646 3b3d 3237 6cbd 3e43 abbd e0cf 923c
00000060: e756 b4bd 70f0 d73b 5670 313d 1003 ba3c
00000070: c2e1 773d 3c73 c5bc 3060 ca3c 409e 59bc
00000080: 6c95 4cbd 8ca2 d13c a8fa 08bf 1e39 163d
00000090: 1ff7 9f3d 10df ec3b a74b 0fbc a92f 11be
000000a0: 79d1 283e 83d1 ba3d d1b3 46bf 5d12 94be
000000b0: 01fe 4a3f d63d 91be d052 a83d 9dd8 a33d
000000c0: 78ba 873e 4fbd 173f 5177 b83e e629 953c
000000d0: 9e78 84bd d43a fe3c 4c45 81be f940 0b3e
000000e0: 328c 133f 61a5 b3bb ee54 363e d7ac b63e
000000f0: 4122 e83d 214d 273f c895 8f3e 6cbc dd3e
00000100: 4c41 3e3e 9d72 373c 76db 2bbd dcbb 893e
00000110: 6ce5 323f 0e62 813e 7990 063f 3d53 433f
00000120: 4858 cf3e 25be 3d3e 6079 a93e f5c5 dfbe
00000130: 33bd 8f3e eee0 073f 9e71 21bd f295 943e
00000140: 2ac0 1b3e 5946 1d3e 951d 12bd 609f 1f3d
00000150: 86a3 53be aafe c6be ae29 5e3b 2c39 f5be
00000160: 0450 68be 4690 5f3e d85c a0bd fd96 983d
00000170: 9c6e a7bc 949f e83c 006e fd3b 08e5 c8bc
00000180: 04eb 96bd 205c 54bb 6bf1 4fbd 95c6 9b3d
00000190: 5979 ac3d 4d47 ac3d 0ed7 d9bc 34c3 96bd
000001a0: 7021 69bc 320a 5d3d 3322 58bd beaf 303d
000001b0: 50f5 05bc a82c 34bc 39cf 0ebd d3c0 4fbd
000001c0: 727d 603d fc6e e43c 2232 313d 61d1 51bd
000001d0: c6b1 383d 24fb ea3c aeab 743d a6b8 5c3d
000001e0: 0072 593c 81c6 ac3d 8054 983b 2cba 89bc
000001f0: 6042 0d3c bcb0 39bd d252 793d a49d d63c
00000200: 815f a7bd 5a3f 753d a537 823d e0fa d53b
00000210: bfeb aebd f361 9b3d b033 c13c c804 96bd
00000220: 00dc df3b 9c25 bebc 8f75 803d b006 e1bb
00000230: a321 08bd baca 3b3d 2044 b13c 2032 4a3c
00000240: 2195 8ebd bbc9 a9bd 0872 da3c 800f 07ba
00000250: 8473 90bc c088 d9bb e05b 52bc a906 09bd
00000260: 3ef6 413d 6c15 d5bc 3c6a ddbc 52a5 8bbd
00000270: d8a2 923c 38fc c8bc c095 ae3b 4568 2cbd
00000280: 5e77 693d 6c62 cbbc 3f2e 0c3c f449 ed3c
00000290: a6a9 e3bc 4033 913b dee2 6bbc 2402 3cbd
000002a0: 2f66 40bd 264f d3bd 9221 9ebd 09b1 47be
000002b0: d088 82bd e2a7 62bd e09e d7bd 79ee b9bd
000002c0: fbc5 dcbd e583 47bd 76b2 a3bd cda7 26be
000002d0: 3d25 1bbc fb37 3cbd 152a 52bd c020 edbd
000002e0: f023 d5bd b20a 9cbd bb85 2abe 3ac2 d6bd
000002f0: 7f0e 1cbe 4d85 6fbd 45ca 1dbd abea dcbc
00000300: 6c54 a6bd f337 72bd 940d 3ebe 293e 19be
00000310: 4ad4 b0bc c987 2dbe be36 9cbd ba07 27be
00000320: d09a b9bd 9735 dabd 4ce6 28bd 4f1d 64bd
00000330: dd94 14bd 2581 a33c 9c90 eebd 3863 c6bd
00000340: 37db 18bd ff7e 00be 3d18 2fbd 0ee4 3ebd
00000350: 8e6c 0abe 9fa1 60bc 8e60 08bc f350 bcbd
00000360: 856a 3cbd 85eb 2dbc 6439 8dbd 66d0 1a3d
00000370: 94d3 09bd ece3 bbbc f82e b3bc 01b0 9a3d
00000380: 8670 30bd 900a d73c ad62 13bd b14e 8a3d
00000390: e8eb 663c e26c 593d 0d6a 57bd e35b 813d
000003a0: faaf 383d ad0c 56bd 72f0 473d ba67 683d
000003b0: 47f7 24bd 5eef 513d a155 87bd 5c13 a5bc
000003c0: 1e74 a6bd c004 c8ba 3463 9cbd 65c5 9f3d
000003d0: c9a9 ae3d 0c4b d63c 9cc9 cabc c065 21bc
000003e0: c01c 7cbd 8ffc 0fbd 280d 02bc 322d 99bd
000003f0: 5ac5 363d 1ead 6b3d 1c20 f0bc 30f7 2e3c
-0.08363057 -0.056063853 0.053728797 0.070271336 -0.07089395 -0.05425862 0.008400373 -0.061487425
-0.061706167 -0.005199909 -0.015020601 0.058707483 -0.08173909 -0.032698557 0.011487335 0.056506924
-0.053802673 -0.0821958 -0.017891936 0.017808244 0.045721494 -0.057669826 -0.08362435 0.017921388
-0.08805638 0.0065899417 0.043320023 0.022706538 0.060518034 -0.0241028 0.024704069 -0.013282359
-0.049947187 0.025590204 -0.5350747 0.036675565 0.078108065 0.0072287396 -0.008746064 -0.14178337
0.16486157 0.091219924 -0.7761813 -0.2892026 0.7929383 -0.2836749 0.0821892 0.080003
0.26509452 0.59273237 0.3602853 0.018208455 -0.064683184 0.03103391 -0.25248182 0.13599004
0.57635796 -0.005482361 0.17805836 0.3567874 0.113346584 0.65352064 0.28043962 0.43307817
0.18579596 0.0111967595 -0.04195734 0.26901138 0.6988132 0.25270122 0.525642 0.76298887
0.4049704 0.18529566 0.33100414 -0.43705717 0.28074035 0.5307759 -0.039414994 0.2902065
0.15210024 0.15358867 -0.035672743 0.03897035 -0.20667848 -0.38866168 0.0033899355 -0.4789518
-0.22686774 0.2183238 -0.078302085 0.07450674 -0.020438485 0.028396405 0.0077340603 -0.024523273
-0.073690444 -0.0032403544 -0.050767343 0.07606236 0.08421583 0.08412037 -0.026591804 -0.07361451
-0.0142291635 0.0539648 -0.05276699 0.04313635 -0.008176163 -0.010996975 -0.03486559 -0.050721
0.054807134 0.027884953 0.0432607 -0.05122507 0.045091413 0.028684206 0.05973404 0.053887032
0.013271809 0.08436299 0.004648745 -0.016812406 0.008621782 -0.045334563 0.06087 0.026198216
-0.08172513 0.05987487 0.063582696 0.006530151 -0.08541059 0.07587042 0.023584217 -0.07325131
0.006831646 -0.023211293 0.062724225 -0.0068672523 -0.033235203 0.045847632 0.02163893 0.012341052
-0.06962038 -0.0829043 0.026665702 -0.0005152151 -0.017633207 -0.0066386163 -0.0128392875 -0.033453617
0.047353975 -0.026011191 -0.027028196 -0.06818642 0.017899916 -0.02453433 0.00532791 -0.042091627
0.056998603 -0.024827205 0.008555948 0.028965928 -0.027790856 0.0044311583 -0.014397351 -0.04590048
-0.04697245 -0.10317831 -0.07721247 -0.19501127 -0.06373751 -0.055335887 -0.1052835 -0.09078688
-0.10779949 -0.04870977 -0.07993023 -0.16274948 -0.0094693275 -0.045951825 -0.051309664 -0.11578512
-0.10407245 -0.076192275 -0.16652577 -0.104862645 -0.15239905 -0.058476735 -0.038522977 -0.026967367
-0.08121571 -0.05913539 -0.18559867 -0.14965118 -0.021585602 -0.16946329 -0.07627629 -0.16311541
-0.09062731 -0.10654753 -0.041235253 -0.055692013 -0.03627478 0.019959042 -0.11648676 -0.09686893
-0.037318435 -0.12548445 -0.042747725 -0.04660421 -0.13517973 -0.0137104085 -0.008323802 -0.09195127
-0.046000022 -0.010615234 -0.06895712 0.0377964 -0.033649042 -0.02293583 -0.021872982 0.07553101
-0.04307606 0.026250154 -0.035982776 0.067532904 0.01409433 0.053082354 -0.052591372 0.06316354
0.0450897 -0.052258182 0.04881329 0.056739546 -0.040274885 0.05125367 -0.06608129 -0.020150833
-0.08127616 -0.0015260205 -0.07636109 0.07801322 0.08528478 0.026158832 -0.024754338 -0.009850919
-0.061550856 -0.035152968 -0.007937707 -0.074793234 0.044621803 0.057538144 -0.029312186 0.010679051

notes_encoder.bias f4 [64]
00000000: 8131 fabd 0001 2bbe ae8e 27be fb86 323e
00000010: 7fde 6ebd f840 2cbe 36eb 43be 7dc0 0e3e
00000020: 568a 203e fce3 3e3d 3bf3 0c3e 138d a13d
00000030: 4e11 f7bc a66a 183e 64d9 ad3d 6dd7 37be
00000040: 70be 2bbe e1b2 32be a13e 0fbe ea2c 143e
00000050: 5b4f 38be 4946 27be 199e 003e f75c 71be
00000060: dad6 463e 19ee 523e b9be 453e 9f90 53be
00000070: b4fb 223d 60fe dabd c324 b33d d7a5 0bbe
00000080: 1c17 9f3d 26f2 413e f957 0fbe c7e0 f5bd
00000090: 2ce3 913c c100 f83d cf4a 0f3e ab36 e1bd
000000a0: e276 47bd c243 5abe 67de 843d 239f 33be
000000b0: 54b0 903d 8cb2 bebb b740 283e f4ae 033e
000000c0: daf0 1e3e b42e 2d3e 492d 75bd 6426 113e
000000d0: 0033 3d3d b745 093e 3aa6 343e f3c7 debd
000000e0: 8b64 2c3e 408b 943d ec38 fabd 096f 293e
000000f0: fc82 383e 3451 0f3e 070c e7bd 31ee 54be
-0.12216473 -0.166996 -0.16363022 0.17434303 -0.058317658 -0.16821659 -0.19132695 0.13940616
0.15677771 0.04660414 0.1376466 0.07888236 -0.030159619 0.14884433 0.084887296 -0.17953272
-0.16771865 -0.1745105 -0.13988735 0.14470258 -0.17999022 -0.16335405 0.1256031 -0.2357062
0.19417897 0.2059864 0.19311036 -0.20660637 0.039790824 -0.106930494 0.08747246 -0.13637482
0.0776808 0.18940029 -0.13998403 -0.120057635 0.01780852 0.12109519 0.13993381 -0.10996755
-0.04869736 -0.2131491 0.064877324 -0.17541175 0.07064882 -0.0058196243 0.16430937 0.12859708
0.15521565 0.16912347 -0.05985764 0.14174801 0.046191216 0.134055 0.17641535 -0.10877981
0.16835229 0.07253122 -0.12217888 0.16546263 0.18018717 0.1399582 -0.11281591 -0.20793988

gru.weight_ih_l0 f4 [192, 64]
00000000: 8039 2c3d c531 663e 67c2 783e 7891 3abb
00000010: af1a cf3c 43a1 383e e7f8 053e b237 39bc
00000020: 8fe1 6ebe 31f6 acbc 72cd 3c3d 171e dbbc
00000030: 5841 9d3d 802b 43be 32d2 6ebd 2ae1 413d
00000040: 4b57 583e b8fc 353d ecba 413e 7f6f e3bd
00000050: 50e9 f23d 257a 253e 851d 68bd 435b 333e
00000060: 4157 65be 5572 edbd c244 34be 0fe9 2d3e
00000070: ec00 11be 2344 283e c773 5cbd a460 313d
00000080: 07ee 3cbe 9a57 5abd 62ef 1b3e e4ee 2c3e
00000090: 4b66 8abd 13ce 32be 9dc6 73be 17d6 403d
000000a0: c1b0 013e d692 d83d dcf5 ed3c fecc 90bd
000000b0: e547 4ebc 66c0 813d e781 10be 2e3b 4ebc
000000c0: 2182 883c 5cc8 60be 3963 f2bd b1f3 07be
000000d0: 632d 473d 72c5 36be 8b88 b2bd 1add 9b3d
000000e0: 11c1 2bbe b518 d1bc 51ff f53d fd5e ecbd
000000f0: c9f3 80be f73d e0bd 4713 d43d cf98 293d
00000100: 0381 2c3d c06d 68be c898 a3bd 491e 243e
00000110: 4fdb 30be 6097 15be 17e9 2fbd b760 343e
00000120: 59a6 d5b9 60ec b4bc b18f 5b3c adab 813d
00000130: 02b3 a73c c0a7 c53d 2a2c 923b 8853 d2bd
00000140: b56a d2bb bfd4 343c 70f4 213b a730 113e
00000150: e312 52be 63bf 5dbe 47ec e6bc 8cec 4fbd
00000160: 52e2 5f3e b9d5 fa3d 1454 003e 323b c0bd
00000170: c603 243e 41a9 8ebd 3d39 383e 5fae f9bd
00000180: f194 15bd 4800 043d c36a 16bd d6d4 89bd
00000190: 7f29 de3d f666 423e 4349 c83d 79c1 21be
000001a0: 7875 21be c883 f3bd 44d2 863d ad5b 943c
000001b0: f9d6 2b3e 8a67 c53d 03fe dc3d 2085 143e
000001c0: 44a1 233e 4fa5 193e d778 883d 490d 103e
000001d0: 26cf 2bbd 8a65 e63d f8e3 023d 086c 0abe
000001e0: 8d2f 5b3c fe43 b5bd 2f67 32bd a295 28bb
000001f0: f3f9 5e3e dcce b23d f7bd 82bd 7990 e9bd
00000200: efea 703e 9188 c1bd 91e8 47be d0c1 0f3e
00000210: a083 1abe 17e0 cb3c e513 88bc ffde 2a3e
00000220: 024e bf3d ea48 533e 1e4a fbbd adaa 233e
00000230: 6c06 14bd 1f4d e4bc 1cfc c2ba cd75 34bd
00000240: c108 b4bd b303 afbc e342 0b3d 7fa5 0b3e
00000250: cf26 ae3c 0adf 43be 17bd d73d 3ed2 42be
00000260: 925f e33d 0354 513d a40f ef3d 2888 d5bd
00000270: 4665 773d 45dd f9bc 1d62 513e c7ba 39be
00000280: 704f 203e 6cb7 79bc c37e 43bd 203d 11ba
00000290: 60d6 5d3e 0fd2 383d ee4a 053e 3f40 0fbe
000002a0: d4d2 86b7 4a3e 44be f3bb d53c f4bf fbbd
000002b0: 6a60 1c3d 0a3b b9bd 890d 213c a264 643d
000002c0: 1d56 01be e152 933d fbe6 b03d a95c 483e
000002d0: 267a 353e d119 eb3d 20ec 1e3e b240 9cbc
000002e0: f10c 343e cf32 aebd 462f 033d 1aaa 343e
000002f0: 37ee b83d dbea 843d 6a2a 5dbd b8f9 17be
00000300: 0d47 1b3e ff78 f4bd c47b cebc 64a5 233d
00000310: de19 5bbe 8c10 58bc 08fd 05be 02cc 273e
00000320: b051 403e dec7 ba3d e6d5 a2bd 7fe4 ff3d
00000330: 9a5a 5b3e 831a 0d3e 4c1c 973c 0894 0dbe
00000340: 8a54 2ebe 351b e9bd 5b78 cbbc ca9a 6d3d
00000350: 48cd 47be d148 55bd 2b4e be3d aa30 f13c
00000360: 3694 b73d df7f fb3b d71d 04bd 1fa8 94bb
00000370: 4ea0 003e fa62 d3bd cf47 4e3e 5705 96bd
00000380: 1e05 c13d 9f49 443e 013d b9bd 7aa0 bdbc
00000390: 387a 643e 4047 d13d b6ae 2e3e 87e7 38bd
000003a0: 93e6 d7bd acb0 11be 5a64 1b3e 6b97 e5bd
000003b0: d8ea 133e c596 aebd bde3 e63d d597 173c
000003c0: 7429 0cbe 9778 aa3d aeaa fb3b 5a7d 423e
000003d0: 6f1e db3a 8af2 d43c fab2 c43c b922 0ebe
000003e0: dadb eb3d 9f59 3ebe 58c9 55be 299d c7bc
000003f0: a37b 00bd 9d3e 2d3e 5f06 03be a778 82bd
0.042047024 0.22479923 0.24292909 -0.0028468054 0.025281278 0.18030266 0.1308323 -0.011304783
-0.23328231 -0.021113487 0.046094365 -0.026747746 0.07678479 -0.19059563 -0.058305927 0.047333874
0.2112705 0.044430465 0.18918961 -0.111052506 0.11860907 0.16159876 -0.056668777 0.17515282
-0.22396566 -0.11594073 -0.17604354 0.16983436 -0.14160508 0.16432242 -0.05382135 0.043305054
-0.18450175 -0.0533062 0.15228036 0.16888005 -0.06757792 -0.17461424 -0.23806234 0.047079172
0.12665083 0.10574882 0.029047899 -0.07070349 -0.012590383 0.06335525 -0.14112054 -0.012587352
0.016663613 -0.21951431 -0.118353315 -0.13276555 0.04862727 -0.17848757 -0.0871745 0.07610531
-0.16772868 -0.025524477 0.12011588 -0.11541555 -0.25185993 -0.10949319 0.10355239 0.041405495
0.042115223 -0.22698116 -0.07988125 0.16027178 -0.1727116 -0.14608526 -0.0429469 0.17615019
-0.00040750465 -0.022085369 0.013400958 0.06331573 0.0204711 0.096511364 0.004460831 -0.102698386
-0.006421412 0.011037051 0.0024712346 0.14178716 -0.20515017 -0.2165504 -0.028188838 -0.050762698
0.21863678 0.122477956 0.12532073 -0.093862906 0.16017064 -0.06965876 0.17990585 -0.12191462
-0.036518995 0.03222683 -0.03672291 -0.06730048 0.108477585 0.18984589 0.097795986 -0.1579646
-0.15767467 -0.1189037 0.06583074 0.01811012 0.16781224 0.09638889 0.107906364 0.14503908
0.15979487 0.15004466 0.06663673 0.14067568 -0.0419456 0.11249836 0.03195569 -0.13517773
0.013378036 -0.08850859 -0.043555435 -0.0025723954 0.21775036 0.087308615 -0.06383889 -0.11404509
0.2352712 -0.09449876 -0.19522311 0.14038777 -0.15089273 0.024887128 -0.016611049 0.16686629
0.09341051 0.20633283 -0.12269996 0.15983076 -0.036138937 -0.027868805 -0.001487616 -0.044057656
-0.08790732 -0.021364069 0.033999335 0.1363735 0.02125874 -0.19128051 0.10534113 -0.19025514
0.11102213 0.05110551 0.11672905 -0.1042636 0.060399316 -0.030501017 0.20447583 -0.18137656
0.15655303 -0.015241485 -0.04772831 -0.00055404194 0.21663809 0.045122202 0.13016865 -0.13989352
-1.607222e-05 -0.19164386 0.026090598 -0.122924715 0.038177885 -0.09044464 0.009829887 0.055760033
-0.12630506 0.07193542 0.08637806 0.19566597 0.17722377 0.114795335 0.15519762 -0.019073818
0.17583062 -0.08505785 0.032027505 0.17643014 0.09029811 0.064901076 -0.053995527 -0.14841354
0.15163822 -0.11937141 -0.0252055 0.03995265 -0.21396586 -0.013187539 -0.13084805 0.16386417
0.18781161 0.09120153 -0.07950954 0.12494754 0.2142128 0.13779645 0.01844611 -0.13826
-0.17024437 -0.113821425 -0.024837663 0.058008946 -0.19511902 -0.052071396 0.09292253 0.02944215
0.08963816 0.0076751555 -0.03225502 -0.004536643 0.12561151 -0.10321613 0.2014458 -0.07325237
0.09424804 0.19168709 -0.09044839 -0.02314781 0.22312248 0.10218668 0.17058834 -0.045142677
-0.105420254 -0.14227551 0.15175 -0.11210521 0.14445055 -0.08524851 0.112739064 0.009252508
-0.13687688 0.08323782 0.0076802587 0.1899313 0.0016717444 0.025994558 0.024011124 -0.13880433
0.11516543 -0.18588875 -0.20877588 -0.024366932 -0.03136791 0.16918416 -0.12795399 -0.06370669

gru.weight_hh_l0 f4 [192, 64]
00000000: c583 c53c 1f01 42bd 8d68 0dbe 96b1 4e3e
00000010: 0777 a13d c16f 15be 456b c3bd 220f 233e
00000020: 5ae9 813e 3a03 56bd 8bf9 bbbd 8a9d 053e
00000030: 3a8f b7bb e8b3 6bbe 7d3c bc3c 5b05 99bd
00000040: 803b 823d bb07 6e3e 006c ecbd 2180 babc
00000050: 2d4d 253e 8a30 31be 085e 2fbe 2bf1 37be
00000060: 36f9 2f3c 8297 3c3e 6f2e 32be 0a18 d83d
00000070: ff32 933c e844 543e 7461 2abe a0f0 4abe
00000080: 8718 573c b0b3 713e 7195 a9bd d10a 14bd
00000090: e907 40be beb5 283e 8e7b 97ba 02d0 303e
000000a0: 2b2a b03d 230c 1dbe 7dec 9a3d 9d5c 1bbe
000000b0: ac98 2e3e 8627 9d3d dbcd d3bd 966d b8bd
000000c0: 4b06 97bc 6ea7 343e 6d03 70be 7211 223e
000000d0: 40e0 013e a8a0 813d 6b09 93bd 42ed 4e3e
000000e0: 044c ae3b acb9 8cbd 85c0 173e 1852 153d
000000f0: 2a92 cebd 215c e5bd 0fec c6bd aa40 16be
00000100: a98f 2cbd 8972 363d 5658 8e3d e07d c7bd
00000110: f964 873c 4fae ce3d 571a 583e 8a19 e4bc
00000120: 9ace 69bd 1a80 1e3e 9252 9c3d 5f4b c3bd
00000130: 8054 bf3d be72 c63d 8522 18be 9727 983d
00000140: 5988 e63a 9f36 2cbe af48 3a3d 93d2 2abe
00000150: 224b 9cbd f0a9 633e b4d3 323e e950 5c3d
00000160: 4226 8ebc d726 06be 6077 a23d b05d 7ebd
00000170: b95d e8bd fbbb bbbd 0b78 22bd cd94 063e
00000180: a1ad 19be f2f2 90bd 0e97 b33c 4c93 503e
00000190: 5da7 553e 3920 e8bd a4a3 37be 0173 0e3b
000001a0: 2b52 63be 9dc3 dabb 6b10 51be 1a4a 413e
000001b0: 7fdc 26bd 5ad6 a0bd cd78 263e ce25 893d
000001c0: c81e 63bd 97de b0bd 7b83 2fbd 6013 e0bd
000001d0: cdc8 9abc 61e6 d33c c9d5 1d3e 5d92 c4b9
000001e0: f1e5 1dbe 3c9e 02be 480d 36be 70bc 763d
000001f0: 07d2 523d cda9 513e b823 afba 1415 453e
00000200: a7cf 8abe 068b bf3d e987 d9bd a568 503c
00000210: 655a 3fbe a0e9 283e cdbd 30bc f352 eebc
00000220: 362b 6abe 267a b03d 142a a43d 153f 113e
00000230: e564 5a3e f899 ddbb ed5c 76be 9099 2c3e
00000240: e7ca e6bd 2c4c 2ebe 2147 e83d 5a1e b2bc
00000250: 7aa0 b5bc 106d 803d e3de 0d3e 60aa 793d
00000260: 7d5f 58be f744 6fbe d8e6 9c3d 31ea ccbd
00000270: 7fef 44be d81c f8bd 3baa 623e b2a0 f53d
00000280: 10d0 b7bd d83c 67be 49f0 be3d 5d7c aebc
00000290: 6216 593e 3767 2cbe a54b 23be c910 91bb
000002a0: ac35 64bd e8e4 513d 3051 cbbd bb96 9c3d
000002b0: b30e 01bd 78c5 77bd db1e 4b3e 8d39 4f3d
000002c0: 8129 393e a908 8f3c 9434 0b3e 616e 65be
000002d0: 8390 c5bd 9717 d9bd 80ea 41bc b01b e9bd
000002e0: 8a07 0bbe 75b7 593e 985c 0fbe 4b5b c2bc
000002f0: 7607 6b3d fa7d 47bc 35d8 7a3e fcf4 913d
00000300: d469 0ebe 840e c63d b6eb 13be 231a 26be
00000310: 174b 403c 68a9 0e3e 28a7 303e 8b8b 9f3c
00000320: 046a ffbb 4484 88bc 9c70 3c3c ffa6 a5bb
00000330: bce7 4e3e dc69 7dbc 571f 06be 634d 3c3e
00000340: 39b9 12bd 3854 a83c 51d0 283e fbc0 46be
00000350: 6bfb 25bb 208f 3e3e f810 443d 64d4 133e
00000360: ec3e 0e3d 9c84 2fbc 9f87 983d 1c9c 81bd
00000370: 0041 28bb 3c8c 07bd 2636 9b3d b295 c83d
00000380: c705 1fbe df18 2d3c 7459 313e fa61 18bc
00000390: 4dc4 513e 02a9 13bc 8a04 39bd 1a78 48be
000003a0: d270 12be 60de 213e 873c ccbd 1906 133e
000003b0: efe0 15be e528 3dbe 8d23 e8bc 030a 743d
000003c0: 5b2b a93d 1749 b8bd d456 0d3e b6fb 793b
000003d0: 48ba 3cbe 70b2 73be 69de 493d 74a6 40bd
000003e0: 7f1d c1bd a108 ae3d f343 a3bd 8786 c5bd
000003f0: d1ab c73d 6a60 393e cf51 033e 5989 a43c
0.024110684 -0.04736435 -0.13809414 0.20184931 0.07884031 -0.14593412 -0.095419444 0.15923741
0.25373346 -0.05224917 -0.09178456 0.13048378 -0.0056017907 -0.23017848 0.022978062 -0.074717246
0.06359005 0.23245136 -0.11544037 -0.022766175 0.16142721 -0.17303672 -0.17125714 -0.17963092
0.010740569 0.1841717 -0.17400526 0.1055146 0.017968653 0.2072941 -0.16638738 -0.19818354
0.013128406 0.23603702 -0.08280457 -0.036143128 -0.18753017 0.16475579 -0.0011557208 0.17266849
0.08601793 -0.15336661 0.07564638 -0.15172048 0.17050427 0.07673554 -0.10341998 -0.09005277
-0.018435618 0.17641994 -0.23438807 0.15826967 0.12683201 0.06329471 -0.07179531 0.20207694
0.0053191204 -0.068713516 0.14819534 0.036455244 -0.10086472 -0.11199213 -0.09712993 -0.14673105
-0.042129193 0.044542823 0.069504425 -0.097408056 0.01652764 0.100918405 0.21103798 -0.02784421
-0.057081796 0.15478554 0.076329365 -0.0953586 0.09342289 0.09689854 -0.14856918 0.07429426
0.0017588242 -0.16817711 0.045479473 -0.1668189 -0.07631518 0.22232795 0.17463571 0.0537881
-0.017352227 -0.13100754 0.07932925 -0.062101066 -0.11346001 -0.09166714 -0.039665263 0.131427
-0.1500764 -0.07077588 0.021922614 0.2036869 0.20864625 -0.11334271 -0.17933518 0.0021736028
-0.22199313 -0.006676151 -0.20416419 0.18875924 -0.040737625 -0.07853384 0.1625702 0.06696664
-0.055449277 -0.08636206 -0.04285 -0.109411955 -0.018894577 0.02586669 0.15413584 -0.00037493082
-0.15419747 -0.12755674 -0.17778504 0.0602383 0.05146983 0.2047493 -0.0013362085 0.19246322
-0.2711155 0.093526885 -0.10621626 0.012720262 -0.18686827 0.16495371 -0.0107874395 -0.029092288
-0.22868046 0.08617048 0.08015838 0.1418422 0.2132755 -0.0067627393 -0.24058886 0.16855454
-0.11269169 -0.17021245 0.11341692 -0.021742988 -0.022171248 0.06270802 0.13854556 0.060953498
-0.21130176 -0.23366152 0.076612175 -0.10005606 -0.19231986 -0.121148765 0.2213525 0.11993541
-0.08975232 -0.22581804 0.093231745 -0.021299535 0.21199945 -0.16836248 -0.15946825 -0.00442705
-0.055715248 0.051243693 -0.09927595 0.07645937 -0.03150816 -0.060491055 0.19835989 0.050591994
0.18082239 0.017460184 0.13594276 -0.22405387 -0.09646704 -0.106002025 -0.011835694 -0.11382234
-0.13577095 0.2126139 -0.14000165 -0.023725173 0.057380162 -0.012176031 0.24496539 0.07126805
-0.13907558 0.096707374 -0.14445385 -0.16220908 0.011736653 0.13931811 0.17251265 0.019475719
-0.0077946205 -0.016664632 0.011501458 -0.005055308 0.20205587 -0.015467133 -0.13097893 0.18388896
-0.035821173 0.020547971 0.16485716 -0.19409554 -0.0025326859 0.18609285 0.047867745 0.1443649
0.034727976 -0.010712769 0.07447743 -0.063286036 -0.0025673509 -0.033092722 0.07578687 0.09794177
-0.15529548 0.010565012 0.1731928 -0.009300703 0.20485039 -0.009012463 -0.045170344 -0.19577065
-0.1430085 0.15807486 -0.09972482 0.14357795 -0.14636587 -0.18472631 -0.028337264 0.05957986
0.082602225 -0.08998316 0.13802654 0.0038144416 -0.18430436 -0.23798537 0.049284372 -0.047033742
-0.09429454 0.084977396 -0.07971945 -0.096448 0.09749568 0.18103185 0.12824176 0.020085024

gru.bias_ih_l0 f4 [192]
00000000: 895f 4dbe d07f 163e d204 0ebd 8ef3 253e
00000010: 77d5 6f3c 0298 c03d 9119 9c3d a2e1 a83d
00000020: 2603 9e3d da95 f33d 5829 903d 0f07 ffbd
00000030: ef19 043e 01aa 583e b7e3 de3d 175e 143e
00000040: 39df 3b3e 80dd 8b3d ad9d 86bd 9653 1d3e
00000050: 44b5 293d 9ecf f33d be0e 1f3e f05b 113e
00000060: 8ec9 c33d 4140 3c3d 73cd 09bd aa5a 303c
00000070: 20bf 3d3e e359 ad3b 122b 223d 50af 893d
00000080: 299a 363e a100 d83d 6e35 1d3e 552a 64bd
00000090: b429 da3d 17c7 443d 3769 f43d eb40 723e
000000a0: 4c05 373e 066b b63c 3341 7e3d 08ca c3bc
000000b0: 250d 703d 4d4e 0fbc 71d3 13bd b272 00bd
000000c0: 6515 e2bc 5ba3 403d 26b5 df3d bf1f 6c3e
000000d0: 96d6 233e 3d88 013d 8d0b 123e ea46 933d
000000e0: 8cb2 c7bc 5d4d 1ebe 0b57 3a3e 76fc 203c
000000f0: 45c6 b83d bf25 8c3b fb7d ff3d 8ec2 c0bc
00000100: dd6d 43be 90d5 1b3d 1b3d bf3e 4adf 383e
00000110: ef27 efbd 9893 0dbe f193 b63b 1c3a 603a
00000120: 4984 c93d 96e2 92be 53e8 a6bd 246f d9bd
00000130: 8a51 88be 6b19 34be 58e3 83bd 19e8 1bbe
00000140: a4d1 393d 7929 92bd 0076 933d d5d4 73bd
00000150: 4abd 453e cff4 963c 737a 94bc 094a 15be
00000160: 4dde d1bc 1e13 80bd e948 513d b983 dc3d
00000170: 1d1c e5bb 57fd 8a3c 3e68 4cbd fd6f 7dbe
00000180: c7b3 043e 1c07 e1bc 7fee 893e 73e8 33be
00000190: a41e 32be 9c8a 39be 17cf e63c f667 b93e
000001a0: 732f e5bd 9f2c f23d 6f96 9d3d 1553 493d
000001b0: 1019 d23c c875 03bd 93c0 e9bc 4fc7 1e3d
000001c0: 1a55 90be 76d4 903d d7ab 3a3e 367e 98bd
000001d0: 66fc 2ebe aea5 7b3d 1b70 883d 03f4 c63c
000001e0: 8440 98bd 69da 06bc 64fe 043e 34a3 9b3e
000001f0: 9014 19be a213 52bd 0381 cdbd 1391 bd3d
00000200: 6114 9fbd 7bc8 e03d 809c 943c 54e7 07be
00000210: 37a3 2cbe 3bc7 143e 44d8 e13d ad28 54be
00000220: 7a2b 27be 8c7c 2e3e 2069 643e 01af a6bd
00000230: 2a42 1f3e 0a82 123e 5682 2bbe b47a 1b3e
00000240: 55c8 29be aa65 23be 2951 5d3b 6ae5 343c
00000250: 622e 32be 0de1 293e ecaf 483e 77e8 3c3e
00000260: d42d 09be 160c fa3c 364a 0d3e ed68 5fbe
00000270: 1fae 42be 3629 0bbe fcf8 263e 81c8 4d3e
00000280: a3b9 83be 7b0a 74be 9fa8 39bc 9cdf 4e3e
00000290: 8c2b 1c3e f471 19be 0405 17be b155 11bd
000002a0: 010c 45be 2cce ad3d c7b6 55bc f675 383e
000002b0: e051 12be 6c9b 2bbe a414 6d3e 7328 273d
000002c0: 0979 b63d 12fc fcbc fda1 0b3e a05c f7bd
000002d0: aff4 69be 36f0 8fbd bdaa 363e c090 60be
000002e0: d57f 02be 88d5 033e 23bb fbbd d639 60bd
000002f0: 77f6 cd3d 4b6a 5e3e 901c 3f3e 113f 633e
-0.20055975 0.14697194 -0.034672566 0.1620619 0.014638296 0.09403993 0.07622064 0.08246161
0.07715444 0.11893816 0.07039136 -0.12452518 0.12900518 0.21158601 0.10883277 0.14489017
0.18346871 0.06829357 -0.06573043 0.15363917 0.041432634 0.11904834 0.15532967 0.14195228
0.09559928 0.045959715 -0.033643197 0.0107638035 0.1852994 0.0052902563 0.039591856 0.06722891
0.17832245 0.10546995 0.15352413 -0.055704433 0.106524855 0.04804143 0.11934131 0.23657577
0.17873114 0.02226783 0.062073898 -0.023900047 0.058606286 -0.008746696 -0.036090318 -0.031359382
-0.027598092 0.047030788 0.10923223 0.23058985 0.15999827 0.031624068 0.14262219 0.0719126
-0.02437713 -0.15459199 0.18197267 0.009825816 0.09022192 0.0042769606 0.12475201 -0.02353027
-0.19084878 0.038045466 0.37351307 0.18053928 -0.116775386 -0.13825834 0.005571835 0.0008553581
0.098396845 -0.28688496 -0.08149781 -0.106169015 -0.2662471 -0.17587821 -0.06439847 -0.15225257
0.045365945 -0.071368165 0.07200241 -0.059529144 0.1931049 0.01842728 -0.018124795 -0.14579023
-0.025618697 -0.06253646 0.051094923 0.107673116 -0.0069918768 0.016966505 -0.0499041 -0.24749751
0.12959205 -0.02746921 0.2693977 -0.17569141 -0.17394501 -0.18119282 0.02817492 0.36212128
-0.11190691 0.11824917 0.076947086 0.0491515 0.025646716 -0.032094747 -0.02853421 0.038764294
-0.28189927 0.07071774 0.18229614 -0.07445948 -0.1708847 0.0614373 0.066620074 0.024286276
-0.074341804 -0.008230784 0.12987667 0.30397952 -0.1494925 -0.051288255 -0.10034373 0.09256186
-0.07767559 0.109757386 0.018141031 -0.13271838 -0.16859137 0.14529125 0.110275775 -0.20718642
-0.16325179 0.17039698 0.22305727 -0.08138848 0.15552583 0.14307418 -0.16748938 0.15183526
-0.16580327 -0.1595675 0.00337703 0.011041025 -0.17400506 0.16589756 0.19598359 0.18448053
-0.13396388 0.030523341 0.1379784 -0.2181737 -0.19011734 -0.1358994 0.16305918 0.20096017
-0.25727567 -0.23832123 -0.011331706 0.20202488 0.15250987 -0.14984876 -0.14748007 -0.035482112
-0.1924286 0.0848659 -0.013044066 0.18013749 -0.14289045 -0.16758507 0.23152405 0.04081006
0.089098044 -0.030881915 0.13636012 -0.12078214 -0.22847246 -0.070282385 0.17838569 -0.21930218
-0.12744077 0.12874424 -0.12291553 -0.054742657 0.10056775 0.21720235 0.1866324 0.22192027

gru.bias_hh_l0 f4 [192]
00000000: 3a8b ffbd e9be 513e e159 c13c f11d 6abb
00000010: b609 083e ef3a 483e 4cb2 a63d 1deb b93d
00000020: 5e9c 493e dc6b ce3d ae36 553d 5a27 0abd
00000030: 1286 0f3e ecb1 693d 3e6c 1f3e b5fe 623d
00000040: 1db9 4e3e f113 c03d dbc2 29be 7817 233e
00000050: f681 e2bd 4f21 823d 9c5f ac3b b35d 363e
00000060: f678 053e d5c6 633d 57b0 363e 2387 553d
00000070: 7be8 d73c 692a 083e ce5d 3bbb 1a4e 173e
00000080: e306 6abc 86d1 693e 98af 4c3d 1650 f73b
00000090: cddb 573e 464b 403e c181 053e 4682 f13d
000000a0: 1394 d43d 5bf5 253e 6c42 f83c abfb 8e3d
000000b0: 11ba 383e d775 7d3c 0275 463a df80 b6bc
000000c0: 1279 71bd f509 d4bb 1d56 3b3e 59b4 f93c
000000d0: 110f b73d 2ccf cc3c e9b2 073e 5e3c 3a3e
000000e0: 803d 32bc d66a fbbd ffbd ae3d 590b 37bd
000000f0: fce3 153e 93f0 ed3d 7dbe 39bd b27c b33c
00000100: 1cc3 f73b 8bf2 d8bd 6136 ea3e efc5 a83e
00000110: d924 063d e624 0dbe 4cd4 3dbe 186e 6ebe
00000120: 21c7 bc3d 7c8e 33be 2a8e 47be 1b8c 12bd
00000130: 0062 75be fa77 b1bd 0622 37be 7a53 32bd
00000140: c053 94bd f29b d8bd ea99 08be f377 3dbe
00000150: eec9 6a3e 1f87 53bd 4df4 09bd f74c 85bd
00000160: 5f6f 0ebe 9aa4 37be 4077 073d 1cbc 1abd
00000170: bb3a fdbd 3029 e43d 3ff7 043e 8f0e 8abe
00000180: 23e5 8d3d fc41 043d 2124 473e b4e4 123b
00000190: 2ba9 ffbd a3c3 07be 3c9e 03be 2e5c ef3e
000001a0: 99fd 17be e567 be3c 0e87 a43d 59e2 81bd
000001b0: 813d 1dbe 0cfb 5ebd 540d b5bd df98 413d
000001c0: 40ca 09be 58eb 10bd 2b37 783e d8c6 54bc
000001d0: 4235 4cbd 1c18 34be 9a76 9dbc d72f 963d
000001e0: 331b 17be 2b27 f5bd 5b70 afbb af19 883e
000001f0: a0a1 803b 5e9f 1c3e 9005 bc3c 62e2 c53d
00000200: 0820 32be a19f 523e e8d1 d1bd 1f7a cfbb
00000210: d6e4 5fbe ab47 6d3e 234f 393e 5e3b 28bd
00000220: c2ed 59be 6f3e 733e 887d 133e c248 88bc
00000230: e01c 683e 5a7a 3a3e 04ab 4fbd 34bf 4c3e
00000240: eeab 1ebe 8314 19bd cf91 d03d 2aed d1bd
00000250: 02f8 0cbe 6d3a 0b3e 8bef 473e e14e 9d3c
00000260: d338 0ebe 0d3d 0ebe af3e 3e3e 7d10 10be
00000270: a70c 0fbe 104d 43be afa3 103c 59d6 b03d
00000280: 2cdc 8bbc 4bbc 60be a69d 8cbd 11dc 883c
00000290: 3095 1b3e fe72 f9bd 5699 06bd 3137 acbd
000002a0: f7a3 b2ba b2d6 3a3e a71c e1bd f43b 043e
000002b0: 7f99 23be d266 3dbe 99d3 ca3d b949 fe3d
000002c0: 624a 953b 5ad3 09be dfb1 12bd 5a2e 76be
000002d0: 2060 19be 46db 19be 356d b93d 8509 91bb
000002e0: 3b27 cdbd 6caf 33bb 89b7 0bbe a8f8 bb3d
000002f0: 2d72 6b3e 3588 5a3d d1c1 193e 6bd3 3a3c
-0.12477727 0.20482983 0.023602428 -0.0035723413 0.13284954 0.19553731 0.08139476 0.090780474
0.19688556 0.10079166 0.0520541 -0.033728935 0.14015988 0.057054445 0.15568635 0.05541869
0.20187803 0.093788035 -0.16578238 0.15926921 -0.11059944 0.06354009 0.005260421 0.17809181
0.13034424 0.055609543 0.17840706 0.05213083 0.026355973 0.13297428 -0.0028589847 0.14775887
-0.0142838685 0.22833833 0.049972147 0.007547389 0.21079941 0.18778715 0.13037778 0.11792426
0.103798054 0.16206877 0.03030511 0.069815956 0.18039729 0.01546999 0.0007570536 -0.022278247
-0.058953352 -0.0064709135 0.18294568 0.030481504 0.089384206 0.025001131 0.13251843 0.18187091
-0.010878921 -0.12276237 0.08532333 -0.044688556 0.1463775 0.116181515 -0.04534768 0.021910045
0.0075611006 -0.105931364 0.45744613 0.3296351 0.032749984 -0.13783607 -0.18538016 -0.23284185
0.09217668 -0.17534822 -0.19487825 -0.035778146 -0.23963165 -0.08665462 -0.17884073 -0.04353664
-0.072425365 -0.10576619 -0.13339964 -0.18502788 0.22928593 -0.051642533 -0.03368025 -0.065088205
-0.13909672 -0.17933884 0.03307271 -0.03777705 -0.123647176 0.111406684 0.12984942 -0.26964232
0.0692847 0.03228949 0.19447376 0.002241415 -0.12483438 -0.13258223 -0.1285333 0.46750015
-0.14842834 0.0232429 0.08033572 -0.063420005 -0.15355493 -0.054438636 -0.08840433 0.04726493
-0.13456059 -0.03538069 0.24239795 -0.012986861 -0.049855478 -0.17587322 -0.019221593 0.073333435
-0.1475647 -0.11970361 -0.00535397 0.26582095 0.003925517 0.15295169 0.022951871 0.0966232
-0.17395031 0.20568706 -0.102451146 -0.0063316966 -0.21864638 0.2317187 0.18096595 -0.041072242
-0.21282104 0.23754285 0.14403355 -0.016636256 0.22667265 0.18210736 -0.050700203 0.19994813
-0.15495273 -0.037373077 0.10184061 -0.102503136 -0.13766482 0.13596506 0.19524972 0.019202651
-0.13888864 -0.13890477 0.185786 -0.1406879 -0.1396967 -0.19072366 0.008828088 0.086346336
-0.01707276 -0.21946828 -0.068660066 0.016706498 0.1519363 -0.12180136 -0.032861076 -0.084089644
-0.0013629188 0.18245962 -0.10991793 0.12913495 -0.15976523 -0.18496254 0.0990364 0.12416405
0.0045559863 -0.1345953 -0.035814162 -0.24041119 -0.14978075 -0.15025052 0.09054033 -0.0044261836
-0.10017248 -0.0027417792 -0.13644232 0.09178287 0.22992773 0.053352553 0.15015341 0.011402945

notes_decoder.weight f4 [128, 64]
00000000: 92b5 8a3d 3a0e c6bd e7e1 1f3e 81f4 383e
00000010: cb72 403e b944 70bd e1bf 4abd c624 9f3d
00000020: d6b1 133e b4c3 47be 962d 8ebe f4ae 8f3c
00000030: de49 b1bd 641a 92be 7ab2 663d 89d5 61be
00000040: f7c6 703e 4b1e a03d 3a88 813d 81da 363d
00000050: bc5a 963e ac32 3ebe a24b 8fbe fd98 2cbe
00000060: 0f61 923e 70b1 523e e71d 43be 4e83 483e
00000070: 3d54 283e d261 063e 81ef 39be 4d26 05be
00000080: 8a2c 1c3e 36b0 153e d3ee a0bd 2d0e 88be
00000090: 2f26 40be 17c4 483e fb2e 1e3e a0d5 6c3e
000000a0: df92 cb3d 67b3 49be 71e1 0f3e d8cc 79be
000000b0: 952b 5a3d 1abb 903e 5de4 34be 5014 5bbe
000000c0: 750b d83c d482 383e 28bf ffbd 665a 673e
000000d0: 7903 143e 60ac 043e fa80 43be 3850 023e
000000e0: 3027 803e 558b 01be 6588 103e 7ec8 bf3d
000000f0: f5c0 eabd 618e 01be f5d4 fbbd 4444 93bd
00000100: 4cea 493d 0706 85bd b7f0 203d 7c2d 493e
00000110: 01e7 fc3d c956 8fbe be31 e6bd b478 173e
00000120: 0e84 2f3e b5ef 86be b0d7 21be 625d e33d
00000130: 15b5 b4bd 6d98 9abd 7841 8e3e bd8d 25be
00000140: a15e 963e 1a41 8c3e 672c 00bd 2431 163e
00000150: ed15 4b3e abf6 fdbd 61be cebd 575a 5fbe
00000160: 038a bd3d 5243 6b3e 1175 50be e101 423e
00000170: a316 953e 9e75 093e 9d14 22be 88f6 48be
00000180: 9420 1c3e 0a6b 093e 4d60 36bd b99a 2abe
00000190: 8086 52be 35e0 5b3e 8904 0c3e 2894 403e
000001a0: abc4 3a3e 0866 5ebe 3f61 5b3d efe7 adbd
000001b0: 2c8b 8f3e 8440 ce3d d6dc 54be a9b4 70bd
000001c0: af67 803c 09e5 be3d 6fab 1dbe 9bcc 2c3e
000001d0: 2ed8 2b3e cf0b 4e3e b3d5 5bbe a52c 243e
000001e0: d69e 933e c3a8 fb3a 7057 6d3e 6a58 163d
000001f0: 68ec 84be 9567 88bd cf72 16be 9f99 08be
00000200: e10c 0ebd f0e7 55be e549 343e dbae 753e
00000210: cc15 863e 55dd bdbd bb85 9abd 7bda 5a3e
00000220: 001e 9a3e e093 9fbd 4e7f 2ebe e168 9abd
00000230: f9da 8abe e810 8bbe 2aa7 163e 1392 f2bd
00000240: 0774 bf3d 6b05 b73d 0102 873c 2450 db3c
00000250: 6a92 5e3e c500 e2bd e824 2fbe 845e 79be
00000260: 67ca 8e3e 3c88 683e 02aa 4fbe 3c8b 723e
00000270: a5a9 753e 68ff 4a3e ceab 34be 4ed3 45be
00000280: 63d7 bd3d 6ebc c73d 1df2 47be 0b09 61be
00000290: 9137 54be f185 2d3e 43bc 233e 1849 393e
000002a0: 7415 513e 4ffd 69bd 2ae1 823d da52 e8bd
000002b0: 886d 913e 5723 403e 15a7 84be e71f 6cbd
000002c0: 9d1f e73d 6f42 043e 6fa5 57be f824 1f3e
000002d0: 7703 813e f113 4e3e fa7f c9bd 1cae 0b3e
000002e0: 2038 313e 1ad0 0ebd f3b3 b63d 842b 1a3e
000002f0: 1a45 16bd ac66 96bd a0f8 d6bd 2ab0 34be
00000300: 566b 3d3d c28d 2cbe e4a7 6a3e 53ac c93d
00000310: e605 c13d a8a2 15be b7a2 a2bd 4622 a93d
00000320: f37d 803e e52b 03be 5921 6ebe ba45 573d
00000330: 1bcc 81be 726f 89bd 3118 8d3e 000e 17be
00000340: 9728 0e3e 31c1 a63d dfd0 8e3d a325 733e
00000350: c5c3 053e ad3a f5bd 5d35 90be 69ec a8bd
00000360: d569 693e 2958 6d3e 3993 5fbd 63dc 983e
00000370: 25f0 c03d 9944 883e ffef 41be fa23 96be
00000380: 67c6 673e 1da5 913e 65af c7bd cda1 80be
00000390: d727 9abd 0b51 3c3e 2103 8f3e fd76 2f3e
000003a0: ba2f 813e c7c5 06be 7fa5 6abb eda5 f8bd
000003b0: 8715 4e3e 627b ef3d d1d9 93be 4845 2bbe
000003c0: 4750 80bd 2d4f b43d f0cb 5fbe 7c0d 7a3d
000003d0: 84f4 663d cdac 073e bf0b 9fbd f91b 463e
000003e0: 0b20 173e 37aa 093d 1c1e 8c3e caef efbb
000003f0: 8c73 07be 6d0f e7bd fd88 24bd 16b0 98be
0.06772913 -0.09670682 0.15613519 0.18062021 0.1879379 -0.05865929 -0.049499396 0.07770686
0.14423308 -0.19508249 -0.27769154 0.017539479 -0.08656667 -0.2853576 0.056322552 -0.22054113
0.23513399 0.07818278 0.06324811 0.044641975 0.293661 -0.18574017 -0.2798739 -0.16855235
0.28589675 0.205755 -0.19054376 0.19581339 0.16438384 0.13123253 -0.1815777 -0.13002892
0.15251365 0.14618 -0.07858052 -0.26573315 -0.18764566 0.19606052 0.15447609 0.23128366
0.09940123 -0.19697343 0.14050843 -0.24394548 0.05326422 0.28267747 -0.17665239 -0.21394467
0.02637265 0.18018657 -0.12487632 0.22593078 0.1445445 0.12956381 -0.1909217 0.12725914
0.25029898 -0.12650807 0.1411453 0.09364413 -0.11462585 -0.1265197 -0.12296478 -0.07190755
0.04929571 -0.0649529 0.039292064 0.19646257 0.12348748 -0.279959 -0.11239956 0.14792138
0.17140219 -0.26354757 -0.15804935 0.11101796 -0.08823601 -0.07548604 0.27784324 -0.1616735
0.2936907 0.2739342 -0.031292345 0.14667183 0.19832583 -0.12400564 -0.10094906 -0.21811806
0.09254839 0.229749 -0.20357157 0.18946029 0.29118833 0.13423774 -0.15828176 -0.19625294
0.15246803 0.13419738 -0.044525433 -0.16660585 -0.2055912 0.21472247 0.13673605 0.18806517
0.18239085 -0.2171861 0.053559538 -0.084915034 0.28035867 0.10070899 -0.20787367 -0.05876604
0.01567444 0.09321029 -0.15397428 0.16874926 0.16781685 0.20121692 -0.21468239 0.16032656
0.2883212 0.0019200075 0.23177886 0.036705412 -0.25961614 -0.06660382 -0.14692234 -0.13339852
-0.03468025 -0.20889258 0.17606314 0.23992483 0.26188505 -0.09270731 -0.07545038 0.21372406
0.30101013 -0.07791877 -0.1704075 -0.07539535 -0.27120188 -0.27161336 0.14712206 -0.11844268
0.09348302 0.0893658 0.016480448 0.026771612 0.2173554 -0.11035303 -0.17103922 -0.24352461
0.27888796 0.2270822 -0.20279697 0.23685926 0.23990496 0.19823992 -0.17643663 -0.19318888
0.092695974 0.09752737 -0.19525953 -0.21976106 -0.20724322 0.16945626 0.15989785 0.1809429
0.2041834 -0.05712634 0.06390603 -0.11343928 0.28403878 0.18763481 -0.25908723 -0.057647612
0.11285327 0.12915967 -0.21059202 0.15541446 0.25197956 0.20124795 -0.09838863 0.13640636
0.17306566 -0.03486643 0.08921041 0.15055662 -0.036686994 -0.07343802 -0.1049664 -0.17645326
0.04624494 -0.16850951 0.22915608 0.09847321 0.09424953 -0.1461283 -0.07941192 0.0825849
0.25096092 -0.12809713 -0.23254909 0.05255673 -0.25351033 -0.0671071 0.2755752 -0.14751434
0.13882671 0.08142317 0.06973433 0.23744826 0.13062961 -0.11974082 -0.28165713 -0.08248217
0.22794278 0.23178162 -0.05458376 0.29855642 0.09420804 0.26614836 -0.18939207 -0.29324323
0.22634278 0.28446284 -0.09750251 -0.25123444 -0.0752713 0.1839029 0.27932075 0.17135234
0.25231725 -0.13161384 -0.003580421 -0.12141023 0.201254 0.11693455 -0.28877118 -0.16725647
-0.06265312 0.08804164 -0.2185514 0.061048016 0.056385532 0.13249512 -0.07765912 0.19346608
0.14758317 0.033609595 0.27366722 -0.0073222863 -0.13227671 -0.11282239 -0.040169705 -0.29821843

notes_decoder.bias f4 [128]
00000000: ff4e 03bd 546e 38be 94d3 10be 9333 77be
00000010: 244f 11be 01f3 13be 9ba2 4ebe e0ac 34be
00000020: 6af3 71be 935c 80be 3893 1abe 9f9b 68bd
00000030: 9a38 47bd 90eb 3dbe 31bb 6bbd 9b02 63be
00000040: 3a81 37bd 6f8b 4ebe e03d 63bd 271d a7bd
00000050: 1446 22be 4afd ffbd f479 6fbd f08e 0bbe
00000060: 6204 a0bd c213 48be 371f a8bd 80ed b1bd
00000070: 6c5c c9bd a9b2 0abd c00c 2dbe 65d8 51be
00000080: 3d61 43be e4f2 f8bd 7ca0 9ebd a8c8 17bd
00000090: 1fea 00be f431 87bd 8bf0 07bd d994 59be
000000a0: 16da 33be 0c72 a0bd dfde 70be f4b4 2ebe
000000b0: 1f61 63be 33da f1bd 9029 02be 5a92 03be
000000c0: 8f82 1bbe 107c 1abd 3aef 96bd 700a 26bd
000000d0: 1a52 d5bc 8857 1ebe 3525 6cbe 70fc 24be
000000e0: 1333 37be 37c5 0dbd 032a c13b f5a0 79be
000000f0: e60e 9fbb 4abf 10bd 3132 f7bc f7c9 11be
00000100: dfa8 66bc b74d 67be 427f c3bc 6a3c d8bd
00000110: b628 5ebe 2c6e 3dbe 8a5f 18be e72e 30be
00000120: 2954 5abe 58f2 6ebd 8cd0 d8bd 9239 11be
00000130: 893f 5cbe ab99 23bd 86a7 25be 8cfd b6bd
00000140: ac59 5fbe 4895 64be f90e 53be 99b3 58be
00000150: 7eaa 34be 6167 e8bd 27af 6cbd 427b 47be
00000160: 7067 20bd 0ea7 ebbd e0fe 75be ee5c 9dbd
00000170: f26b 32be 4b34 98bd 5412 4fbe 442c 84be
00000180: 3f54 89bd 0bc8 29bc fe02 42be e9cb 3bbe
00000190: 3fa2 3bbd bb77 88bd 53fa 81bd 9967 65be
000001a0: 1510 81be 578a 4dbd a30e 81be cf4e 88be
000001b0: 848c 74be a2fb e8bd 7014 84bd 78de 12be
000001c0: 5ce5 5cbe c597 adbd 625e a3bd 63f5 0ebe
000001d0: 60ed 4ebe c29c 5dbe 5f37 68be 566d 27be
000001e0: 31b9 8dbd cf00 6ebe dc0e 09be b02e 88bd
000001f0: 9f78 3bbd 0005 51bd d581 4fbe b5b9 eabd
-0.03205776 -0.18010837 -0.1414321 -0.24140768 -0.14190346 -0.14448167 -0.20179217 -0.17644072
-0.23628011 -0.2507063 -0.15095222 -0.056789037 -0.048637964 -0.18546891 -0.057551567 -0.22168963
-0.044800974 -0.20170377 -0.05547893 -0.08159857 -0.15847045 -0.12499483 -0.058465913 -0.13628745
-0.07813336 -0.19538787 -0.08209079 -0.08687878 -0.09832081 -0.03386179 -0.16899395 -0.20492704
-0.19080062 -0.12155703 -0.07745454 -0.037056595 -0.1258931 -0.06601325 -0.033188384 -0.21248187
-0.17563662 -0.07834253 -0.23522519 -0.17061216 -0.22205018 -0.11809196 -0.12711167 -0.12848797
-0.15186523 -0.03771597 -0.073698476 -0.040537298 -0.026040126 -0.15463078 -0.23061068 -0.16111922
-0.17890577 -0.034611907 0.0058949008 -0.24377806 -0.004854071 -0.035338677 -0.0301753 -0.142372
-0.014078348 -0.2258824 -0.023864392 -0.10558398 -0.21695217 -0.18499058 -0.14880195 -0.17205392
-0.21321167 -0.058336586 -0.10586652 -0.14182118 -0.21508612 -0.03994147 -0.16177186 -0.08935079
-0.21811551 -0.22322571 -0.2061118 -0.21162261 -0.17643163 -0.11347843 -0.057784226 -0.19480613
-0.039161146 -0.115064725 -0.24023008 -0.076837406 -0.1742399 -0.07431849 -0.20221835 -0.25815022
-0.06705522 -0.010362635 -0.18946454 -0.18339504 -0.045809027 -0.06663462 -0.06346574 -0.224028
-0.25207582 -0.05018076 -0.2520648 -0.26622626 -0.23881727 -0.1137612 -0.06449211 -0.14342678
-0.21571869 -0.08476213 -0.079769865 -0.13960795 -0.20207739 -0.2164183 -0.22677372 -0.16350302
-0.06920088 -0.23242496 -0.13384575 -0.0664953 -0.04576933 -0.05103016 -0.2026437 -0.11461202
