saved_models/generalist_BCE_1e-2_148.pth (torch_old, 167373 bytes, 8 tensors)

notes_encoder.weight f4 [64, 128]
00000000: 8146 abbd 36a3 65bd ba12 5c3d 6bea 8f3d
00000010: d930 91bd 493e 5ebd b8a1 093c 3dda 7bbd
00000020: 9bbf 7cbd 0064 aabb f818 76bc 4277 703d
00000030: d366 a7bd ecee 05bd 6035 3c3c ce73 673d
00000040: 3160 5cbd 4656 a8bd 1c92 92bc 98e2 913c
00000050: 7646 3b3d 3237 6cbd 3e43 abbd e0cf 923c
00000060: e756 b4bd 70f0 d73b 5670 313d 1003 ba3c
00000070: c2e1 773d 3c73 c5bc 3060 ca3c 409e 59bc
00000080: 6c95 4cbd 8ca2 d13c ec64 08bf 1e39 163d
00000090: e32a a7bc 10df ec3b dfa6 713e 6949 91bd
000000a0: b729 e03d 4e8f da3d e4fc 22bf 84fa 6cbc
000000b0: 82cd 473f e22f e2bd 33cd 2f3d 3197 2d3c
000000c0: b15a 7a3e afe0 243f 418d d73e f620 a7bc
000000d0: 5e15 03bd d853 293d e32d 04be 9783 0c3e
000000e0: 97da 0e3f 81df 3d3d fc7b d83d 3565 b73e
000000f0: 5aaa 9b3d 55e3 1f3f 3582 b13e 7694 d53e
00000100: 0cc0 0e3e 8ef4 76bc fe88 c8bc 0811 873e
00000110: 70cb 053f 15b1 843e 66c4 013f 9ccb 413f
00000120: e05b d53e 048c 2b3e 0904 c93e 0774 bbbe
00000130: 82a3 723e 392f db3e b68e 0bbd 60db 693e
00000140: ec80 0c3e 8483 1c3e c87a 6bba 185c 263c
00000150: 9aa2 30be f3aa bdbe 34be 7d3d 5c38 a7be
00000160: c1b2 d3bd 7b1c 8e3e d85c a0bd fd96 983d
00000170: 9c6e a7bc 949f e83c 006e fd3b 08e5 c8bc
00000180: 04eb 96bd 205c 54bb 6bf1 4fbd 95c6 9b3d
00000190: 5979 ac3d 4d47 ac3d 0ed7 d9bc 34c3 96bd
000001a0: 7021 69bc 320a 5d3d 3322 58bd beaf 303d
000001b0: 50f5 05bc a82c 34bc 39cf 0ebd d3c0 4fbd
000001c0: 727d 603d fc6e e43c 2232 313d 61d1 51bd
000001d0: c6b1 383d 24fb ea3c aeab 743d a6b8 5c3d
000001e0: 0072 593c 81c6 ac3d 8054 983b 2cba 89bc
000001f0: 6042 0d3c bcb0 39bd d252 793d a49d d63c
00000200: 815f a7bd 5a3f 753d a537 823d e0fa d53b
00000210: bfeb aebd f361 9b3d b033 c13c c804 96bd
00000220: 00dc df3b 9c25 bebc 8f75 803d b006 e1bb
00000230: a321 08bd baca 3b3d 2044 b13c 2032 4a3c
00000240: 2195 8ebd bbc9 a9bd 0872 da3c 800f 07ba
00000250: 8473 90bc c088 d9bb e05b 52bc a906 09bd
00000260: 3ef6 413d 6c15 d5bc 3c6a ddbc 52a5 8bbd
00000270: d8a2 923c 38fc c8bc c095 ae3b 4568 2cbd
00000280: 5e77 693d 6c62 cbbc 01d1 0c3c f449 ed3c
00000290: 580d f8bc 4033 913b ec20 41bc bec5 37bd
000002a0: 7d23 41bd 87de cbbd 923f 8dbd 9b71 41be
000002b0: cde9 87bd 392e 51bd 2328 e2bd 65eb b4bd
000002c0: 8803 dbbd 96ed 21bd 1290 9fbd ee61 27be
000002d0: 5251 55bc 0d15 3bbd f484 52bd 4f71 ebbd
000002e0: d7fe d9bd 3653 9abd 62c8 2bbe 4471 dbbd
000002f0: ff8a 1dbe 2c62 70bd c674 1cbd c56b f2bc
00000300: d3ab a9bd e1b6 7dbd f117 39be 867e 18be
00000310: fea2 d5bc 539d 2bbe 444f 9abd 8b6e 24be
00000320: a618 bbbd d519 debd fa3e 21bd aa93 5bbd
00000330: 7886 1cbd 5911 893c 33a9 eebd f6aa c8bd
00000340: 40be 14bd 43a6 00be 1a92 2fbd bfa6 33bd
00000350: e3fb 0bbe 85d1 81bc 3b0e 9fbb 7754 bbbd
00000360: 91ad 30bd 8625 0cbc 6439 8dbd 66d0 1a3d
00000370: 94d3 09bd ece3 bbbc f82e b3bc 01b0 9a3d
00000380: 8670 30bd 900a d73c ad62 13bd b14e 8a3d
00000390: e8eb 663c e26c 593d 0d6a 57bd e35b 813d
000003a0: faaf 383d ad0c 56bd 72f0 473d ba67 683d
000003b0: 47f7 24bd 5eef 513d a155 87bd 5c13 a5bc
000003c0: 1e74 a6bd c004 c8ba 3463 9cbd 65c5 9f3d
000003d0: c9a9 ae3d 0c4b d63c 9cc9 cabc c065 21bc
000003e0: c01c 7cbd 8ffc 0fbd 280d 02bc 322d 99bd
000003f0: 5ac5 363d 1ead 6b3d 1c20 f0bc 30f7 2e3c
-0.08363057 -0.056063853 0.053728797 0.070271336 -0.07089395 -0.05425862 0.008400373 -0.061487425
-0.061706167 -0.005199909 -0.015020601 0.058707483 -0.08173909 -0.032698557 0.011487335 0.056506924
-0.053802673 -0.0821958 -0.017891936 0.017808244 0.045721494 -0.057669826 -0.08362435 0.017921388
-0.08805638 0.0065899417 0.043320023 0.022706538 0.060518034 -0.0241028 0.024704069 -0.013282359
-0.049947187 0.025590204 -0.53278995 0.036675565 -0.020406192 0.0072287396 0.23598813 -0.0709408
0.109454565 0.106718644 -0.6366713 -0.014464024 0.78047955 -0.11044289 0.042920303 0.010595129
0.24448659 0.6440534 0.42099956 -0.02040146 -0.0320028 0.041339725 -0.1290813 0.13722073
0.5580229 0.046355728 0.10570523 0.35819402 0.07600851 0.62456256 0.34669653 0.4171483
0.13940448 -0.015072955 -0.024479385 0.2638018 0.52263546 0.25916353 0.50690305 0.7570131
0.41671658 0.1675263 0.3926089 -0.3661196 0.23695186 0.42809466 -0.034071647 0.22837591
0.13721055 0.15284544 -0.00089828344 0.010153793 -0.17249528 -0.37044486 0.06194897 -0.32660186
-0.10336829 0.27756104 -0.078302085 0.07450674 -0.020438485 0.028396405 0.0077340603 -0.024523273
-0.073690444 -0.0032403544 -0.050767343 0.07606236 0.08421583 0.08412037 -0.026591804 -0.07361451
-0.0142291635 0.0539648 -0.05276699 0.04313635 -0.008176163 -0.010996975 -0.03486559 -0.050721
0.054807134 0.027884953 0.0432607 -0.05122507 0.045091413 0.028684206 0.05973404 0.053887032
0.013271809 0.08436299 0.004648745 -0.016812406 0.008621782 -0.045334563 0.06087 0.026198216
-0.08172513 0.05987487 0.063582696 0.006530151 -0.08541059 0.07587042 0.023584217 -0.07325131
0.006831646 -0.023211293 0.062724225 -0.0068672523 -0.033235203 0.045847632 0.02163893 0.012341052
-0.06962038 -0.0829043 0.026665702 -0.0005152151 -0.017633207 -0.0066386163 -0.0128392875 -0.033453617
0.047353975 -0.026011191 -0.027028196 -0.06818642 0.017899916 -0.02453433 0.00532791 -0.042091627
0.056998603 -0.024827205 0.008594752 0.028965928 -0.0302798 0.0044311583 -0.011787634 -0.044866316
-0.047152985 -0.09954553 -0.06896891 -0.18890993 -0.06636391 -0.051069472 -0.11042812 -0.088339604
-0.10694033 -0.03953322 -0.07791151 -0.16345951 -0.013019877 -0.045674372 -0.051396325 -0.11496221
-0.1064431 -0.075354025 -0.16775659 -0.10714963 -0.15385054 -0.058687374 -0.0381973 -0.029592404
-0.08284726 -0.061941985 -0.18075539 -0.14892015 -0.026078697 -0.16759233 -0.0753465 -0.16057794
-0.09135561 -0.10844771 -0.0393667 -0.05360762 -0.038214177 0.016731905 -0.11653366 -0.09798233
-0.03631425 -0.12563424 -0.042863943 -0.043860193 -0.13670306 -0.015846977 -0.0048539913 -0.0914697
-0.043134276 -0.008553868 -0.06895712 0.0377964 -0.033649042 -0.02293583 -0.021872982 0.07553101
-0.04307606 0.026250154 -0.035982776 0.067532904 0.01409433 0.053082354 -0.052591372 0.06316354
0.0450897 -0.052258182 0.04881329 0.056739546 -0.040274885 0.05125367 -0.06608129 -0.020150833
-0.08127616 -0.0015260205 -0.07636109 0.07801322 0.08528478 0.026158832 -0.024754338 -0.009850919
-0.061550856 -0.035152968 -0.007937707 -0.074793234 0.044621803 0.057538144 -0.029312186 0.010679051

notes_encoder.bias f4 [64]
00000000: dbeb dabd da5a 2abe b497 26be c4fb 303e
00000010: 71bc 70bd 58c0 2bbe 3b90 43be eb9b 0c3e
00000020: 164e 203e 0c2b 433d 3fe0 f43d 8337 a33d
00000030: b711 e3bc eb15 173e ca7e ad3d c7cb 36be
00000040: 75d3 2cbe 2d07 30be 0a3a 0fbe 493d 143e
00000050: b0c5 37be 5940 24be 59b0 fe3d 735a 6abe
00000060: c19c 463e 814d 523e edc8 453e 997b 52be
00000070: 61a9 1f3d 6772 dabd 1172 b23d d93b 0cbe
00000080: 717e a23d d4c0 413e 48aa fdbd cf43 f4bd
00000090: bd22 963c 7f6c fd3d ab69 103e 6c2c e5bd
000000a0: 38f7 4dbd d59d 59be 8c14 873d 36a6 2fbe
000000b0: ea19 953d 65ce 78bc 915b 273e 65fd 033e
000000c0: 8098 1a3e ef46 2c3e ea7d 37bd 66b2 113e
000000d0: a8d1 483d 6bec 093e 0263 343e aed2 debd
000000e0: 59e9 2b3e f7f3 6c3d db4f febd 0f25 293e
000000f0: 4c1f 383e 8140 0e3e 4566 e8bd 953a 54be
-0.10689517 -0.1663622 -0.16268808 0.17283541 -0.05877346 -0.16772592 -0.19097988 0.13731353
0.15654787 0.047648475 0.11956834 0.079695724 -0.027718408 0.14754455 0.08471449 -0.17851172
-0.1687754 -0.17190237 -0.13986984 0.14476503 -0.17946506 -0.16040172 0.124359794 -0.22886066
0.19395734 0.20537378 0.19314928 -0.20554961 0.03897989 -0.10666352 0.08713163 -0.13694705
0.07934273 0.18921214 -0.12385994 -0.11926996 0.018327111 0.123742096 0.14102809 -0.111901134
-0.050284594 -0.21251614 0.06595716 -0.17153248 0.07280333 -0.015185927 0.16343524 0.12889631
0.15097237 0.16823934 -0.044797815 0.1422821 0.04902807 0.13469093 0.17615893 -0.10880028
0.16788234 0.05784985 -0.12417575 0.16518043 0.17980689 0.13891794 -0.11347631 -0.20725472

gru.weight_ih_l0 f4 [192, 64]
00000000: 5be0 373d 8ba8 653e 8b18 783e 7ce3 25bb
00000010: ff8f ca3c a845 383e 4697 053e 5476 3abc
00000020: f36f 6ebe 5421 a4bc 33ae 473d edf7 dabc
00000030: 6bf5 9c3d c5a7 42be 50d5 6ebd 8e03 413d
00000040: 3c35 583e ed68 343d 0780 413e a1bb e2bd
00000050: 9834 f23d 9a4a 243e 557e 64bd 1c22 323e
00000060: 600e 65be cc0c edbd 5c16 34be 3baa 2d3e
00000070: 06fd 11be 0e10 283e 22f2 59bd f6d3 303d
00000080: 9c68 3cbe a9da 59bd 9fa1 173e c99a 2b3e
00000090: 641f 88bd b1fa 33be 1e3e 73be 30ea 3d3d
000000a0: 4fe2 003e d8d0 d73d e84b f33c 8432 93bd
000000b0: f15d 41bc 236d 7a3d 72e9 0fbe b1b9 47bc
000000c0: adf4 b83c 017c 60be ec59 f2bd eb9e 07be
000000d0: 408a 483d 4133 36be 9117 b2bd ca83 9a3d
000000e0: d155 2bbe f4ef d0bc b1c9 f53d d1ce ebbd
000000f0: a9bd 80be 9b73 debd 980c d33d 798f 283d
00000100: ff80 2c3d c06d 68be c798 a3bd 491e 243e
00000110: 4fdb 30be 6097 15be 0fe9 2fbd b760 343e
00000120: 36ab d5b9 72ec b4bc cd8f 5b3c adab 813d
00000130: 13b3 a73c bfa7 c53d dc2b 923b 8653 d2bd
00000140: 676a d2bb e8d4 343c 0bf5 213b a730 113e
00000150: e312 52be 63bf 5dbe 5bec e6bc 83ec 4fbd
00000160: 52e2 5f3e b7d5 fa3d 1454 003e 313b c0bd
00000170: c603 243e 3fa9 8ebd 3d39 383e 5eae f9bd
00000180: f994 15bd 3f00 043d be6a 16bd d5d4 89bd
00000190: 7f29 de3d f666 423e 4049 c83d 79c1 21be
000001a0: 7875 21be c683 f3bd 43d2 863d a35b 943c
000001b0: f9d6 2b3e 8a67 c53d 02fe dc3d 2085 143e
000001c0: 44a1 233e 4fa5 193e d578 883d 490d 103e
000001d0: 2ecf 2bbd 8965 e63d f0e3 023d 086c 0abe
000001e0: 672f 5b3c fd43 b5bd 2767 32bd 3e96 28bb
000001f0: f3f9 5e3e dbce b23d f6bd 82bd 7790 e9bd
00000200: eeea 703e 8988 c1bd 90e8 47be d0c1 0f3e
00000210: 9f83 1abe 39e0 cb3c c513 88bc ffde 2a3e
00000220: fb4d bf3d e948 533e 174a fbbd acaa 233e
00000230: 7606 14bd 424d e4bc 43fe c2ba bd75 34bd
00000240: bb08 b4bd 9303 afbc f442 0b3d 7fa5 0b3e
00000250: ef26 ae3c 0adf 43be 0fbd d73d 3ed2 42be
00000260: 8b5f e33d f453 513d 9d0f ef3d 2188 d5bd
00000270: 3365 773d 22dd f9bc 1c62 513e c7ba 39be
00000280: 6f4f 203e abb7 79bc b27e 43bd 9638 11ba
00000290: 60d6 5d3e fed1 383d ee4a 053e 3e40 0fbe
000002a0: 4c46 86b7 4a3e 44be d0bb d53c f4bf fbbd
000002b0: 5760 1c3d 023b b9bd 430d 213c 9164 643d
000002c0: 1d56 01be db52 933d f4e6 b03d a95c 483e
000002d0: 257a 353e ca19 eb3d 20ec 1e3e 8d40 9cbc
000002e0: f10c 343e c932 aebd 572f 033d 1aaa 343e
000002f0: 30ee b83d d3ea 843d 582a 5dbd b8f9 17be
00000300: 0d47 1b3e fa78 f4bd a77b cebc 57a5 233d
00000310: de19 5bbe 5410 58bc 08fd 05be 02cc 273e
00000320: b051 403e d8c7 ba3d e0d5 a2bd 79e4 ff3d
00000330: 9a5a 5b3e 831a 0d3e 2f1c 973c 0894 0dbe
00000340: 8a54 2ebe 301b e9bd 3e78 cbbc bd9a 6d3d
00000350: 48cd 47be c448 55bd 264e be3d c730 f13c
00000360: 3194 b73d 717f fb3b e41d 04bd ada7 94bb
00000370: 4ea0 003e f562 d3bd cf47 4e3e 5205 96bd
00000380: 1905 c13d 9f49 443e fb3c b9bd 5da0 bdbc
00000390: 387a 643e 3b47 d13d b6ae 2e3e 7ae7 38bd
000003a0: 8de6 d7bd acb0 11be 5a64 1b3e 6b97 e5bd
000003b0: d8ea 133e bf96 aebd b8e3 e63d 9d97 173c
000003c0: 7429 0cbe 9278 aa3d 3aaa fb3b 5a7d 423e
000003d0: a91c db3a 6df2 d43c ddb2 c43c b922 0ebe
000003e0: d5db eb3d 9f59 3ebe 58c9 55be 469d c7bc
000003f0: b07b 00bd 9d3e 2d3e 5f06 03be a278 82bd
0.044891696 0.22427575 0.24228112 -0.0025312593 0.024726866 0.17995322 0.13045987 -0.011380751
-0.23284893 -0.020035423 0.048750114 -0.026729548 0.07663997 -0.19009311 -0.0583089 0.04712253
0.21114057 0.044045378 0.18896495 -0.110709436 0.11826438 0.16044083 -0.055784542 0.17395824
-0.22368765 -0.115747064 -0.17586654 0.16959469 -0.14256677 0.16412374 -0.05320943 0.04317089
-0.1839928 -0.053187046 0.14807747 0.16758265 -0.06646612 -0.175761 -0.23754165 0.046365917
0.1258633 0.10537881 0.02969928 -0.071873695 -0.0118021825 0.061139237 -0.14053896 -0.012190268
0.022577608 -0.21922304 -0.118335575 -0.13244216 0.04895997 -0.1779299 -0.08695901 0.07544668
-0.16731955 -0.025505044 0.1200136 -0.115140565 -0.251447 -0.10861894 0.103051364 0.04115245
0.042115208 -0.22698116 -0.07988124 0.16027178 -0.1727116 -0.14608526 -0.04294687 0.17615019
-0.00040754088 -0.022085402 0.013400984 0.06331573 0.020471131 0.09651136 0.004460795 -0.10269837
-0.0064213756 0.011037089 0.0024712707 0.14178716 -0.20515017 -0.2165504 -0.028188875 -0.050762665
0.21863678 0.12247794 0.12532073 -0.0938629 0.16017064 -0.06965875 0.17990585 -0.12191461
-0.036519025 0.032226797 -0.03672289 -0.067300476 0.108477585 0.18984589 0.09779596 -0.1579646
-0.15767467 -0.11890368 0.06583073 0.018110102 0.16781224 0.09638889 0.10790636 0.14503908
0.15979487 0.15004466 0.06663672 0.14067568 -0.04194563 0.11249835 0.03195566 -0.13517773
0.013378001 -0.08850858 -0.043555405 -0.0025724317 0.21775036 0.08730861 -0.063838884 -0.114045076
0.23527119 -0.0944987 -0.1952231 0.14038777 -0.15089272 0.024887191 -0.01661099 0.16686629
0.093410455 0.20633282 -0.12269991 0.15983075 -0.036138974 -0.02786887 -0.0014876801 -0.044057596
-0.08790728 -0.021364009 0.0339994 0.1363735 0.0212588 -0.19128051 0.10534107 -0.19025514
0.11102208 0.051105455 0.116729 -0.10426355 0.060399245 -0.030500952 0.20447582 -0.18137656
0.15655302 -0.015241544 -0.047728248 -0.0005539743 0.21663809 0.04512214 0.13016865 -0.1398935
-1.600678e-05 -0.19164386 0.026090533 -0.122924715 0.038177814 -0.09044458 0.009829822 0.05575997
-0.12630506 0.07193538 0.08637801 0.19566597 0.17722376 0.11479528 0.15519762 -0.019073749
0.17583062 -0.0850578 0.03202757 0.17643014 0.09029806 0.06490102 -0.05399546 -0.14841354
0.15163822 -0.11937137 -0.025205446 0.039952602 -0.21396586 -0.013187487 -0.13084805 0.16386417
0.18781161 0.091201484 -0.0795095 0.124947496 0.2142128 0.13779645 0.018446056 -0.13826
-0.17024437 -0.11382139 -0.02483761 0.058008898 -0.19511902 -0.052071348 0.092922494 0.029442204
0.08963812 0.0076751043 -0.03225507 -0.00453659 0.12561151 -0.10321609 0.2014458 -0.073252335
0.094248004 0.19168709 -0.09044834 -0.023147756 0.22312248 0.10218664 0.17058834 -0.04514263
-0.10542021 -0.14227551 0.15175 -0.11210521 0.14445055 -0.08524846 0.11273903 0.009252456
-0.13687688 0.08323778 0.0076802047 0.1899313 0.0016716915 0.025994504 0.02401107 -0.13880433
0.11516539 -0.18588875 -0.20877588 -0.024366986 -0.031367958 0.16918416 -0.12795399 -0.06370665

gru.weight_hh_l0 f4 [192, 64]
00000000: 23a0 e83c bc17 41bd 3069 0dbe 7eb0 4e3e
00000010: 4d62 a03d a030 15be 3a92 c2bd bdb3 223e
00000020: 6397 813e f780 54bd 4d97 b9bd b5aa 043e
00000030: 52a1 a5bb d93f 6bbe d5c7 b73c 9990 96bd
00000040: 1088 813d 6c9e 6d3e 9e80 e8bd 0342 bebc
00000050: b927 243e fe91 30be 6bcb 2ebe 499f 37be
00000060: 2998 293c 64f0 3a3e c7af 31be 9e71 d63d
00000070: 93d2 903c 05fc 533e 45c9 29be ec21 4abe
00000080: f343 503c c34b 713e a1f0 a2bd 066d 12bd
00000090: 6bb2 3fbe a054 283e 1be2 bdba 5292 2e3e
000000a0: e2a0 af3d 4143 1cbe 01a2 993d 98fe 1abe
000000b0: 4c32 2e3e e061 9c3d 5b9c d1bd bd51 b7bd
000000c0: a6d5 99bc cb26 343e 68ba 6ebe 12ca 213e
000000d0: b799 013e dd89 803d a36b 92bd 9529 4e3e
000000e0: 1718 9e3b 07c8 8bbd 866c 173e ffad 0c3d
000000f0: 4ef8 cdbd 2b62 e4bd e293 c0bd 381e 15be
00000100: b08f 2cbd 8172 363d 5658 8e3d de7d c7bd
00000110: 0c65 873c 4eae ce3d 571a 583e 7719 e4bc
00000120: 92ce 69bd 1a80 1e3e 9052 9c3d 5f4b c3bd
00000130: 7f54 bf3d bd72 c63d 8522 18be 9527 983d
00000140: 8689 e63a 9f36 2cbe af48 3a3d 93d2 2abe
00000150: 204b 9cbd f0a9 633e b4d3 323e e150 5c3d
00000160: 2f26 8ebc d726 06be 5f77 a23d a85d 7ebd
00000170: b85d e8bd fabb bbbd 1278 22bd cd94 063e
00000180: a1ad 19be f1f2 90bd fd96 b33c 4c93 503e
00000190: 5da7 553e 3820 e8bd a4a3 37be 8c73 0e3b
000001a0: 2b52 63be e2c3 dabb 6b10 51be 1a4a 413e
000001b0: 77dc 26bd 59d6 a0bd cd78 263e cd25 893d
000001c0: c41e 63bd 96de b0bd 8183 2fbd 5f13 e0bd
000001d0: bac8 9abc 73e6 d33c c9d5 1d3e c98d c4b9
000001e0: f1e5 1dbe 3c9e 02be 480d 36be 6abc 763d
000001f0: ffd1 523d cda9 513e 1223 afba 1415 453e
00000200: a7cf 8abe ff8a bf3d e187 d9bd ee68 503c
00000210: 645a 3fbe a0e9 283e 13be 30bc d052 eebc
00000220: 352b 6abe 1f7a b03d 0c2a a43d 153f 113e
00000230: e464 5a3e 859a ddbb ec5c 76be 8f99 2c3e
00000240: e0ca e6bd 2b4c 2ebe 2147 e83d 371e b2bc
00000250: 55a0 b5bc 086d 803d e2de 0d3e 4faa 793d
00000260: 7c5f 58be f544 6fbe d1e6 9c3d 29ea ccbd
00000270: 7fef 44be d11c f8bd 3aaa 623e aaa0 f53d
00000280: 09d0 b7bd d83c 67be 41f0 be3d 807c aebc
00000290: 6116 593e 3767 2cbe a54b 23be 3410 91bb
000002a0: 9b35 64bd d5e4 513d 2951 cbbd b496 9c3d
000002b0: a20e 01bd 67c5 77bd da1e 4b3e 7c39 4f3d
000002c0: 8129 393e cc08 8f3c 9334 0b3e 616e 65be
000002d0: 7c90 c5bd 9017 d9bd c4ea 41bc a81b e9bd
000002e0: 8907 0bbe 75b7 593e 985c 0fbe 255b c2bc
000002f0: 6507 6b3d 407e 47bc 33d8 7a3e f4f4 913d
00000300: d469 0ebe 7f0e c63d b6eb 13be 231a 26be
00000310: 4e4b 403c 68a9 0e3e 28a7 303e a88b 9f3c
00000320: 9269 ffbb 6184 88bc 6170 3c3c f2a6 a5bb
00000330: bce7 4e3e 136a 7dbc 571f 06be 634d 3c3e
00000340: 2cb9 12bd 5554 a83c 51d0 283e fbc0 46be
00000350: 7ffa 25bb 208f 3e3e eb10 443d 64d4 133e
00000360: f93e 0e3d 5884 2fbc 9a87 983d 169c 81bd
00000370: 2840 28bb 2f8c 07bd 2136 9b3d ac95 c83d
00000380: c705 1fbe 1619 2d3c 7459 313e 3362 18bc
00000390: 4dc4 513e cba8 13bc 7d04 39bd 1a78 48be
000003a0: d270 12be 60de 213e 823c ccbd 1906 133e
000003b0: efe0 15be e528 3dbe ac23 e8bc f609 743d
000003c0: 572b a93d 1249 b8bd d456 0d3e 8ffc 793b
000003d0: 48ba 3cbe 70b2 73be 5cde 493d 67a6 40bd
000003e0: 7a1d c1bd a008 ae3d ee43 a3bd 8486 c5bd
000003f0: ccab c73d 6a60 393e cf51 033e 3c89 a43c
0.028396672 -0.047141775 -0.13809657 0.20184514 0.078312494 -0.1456933 -0.09500547 0.15888877
0.2531081 -0.051880803 -0.090620615 0.12955745 -0.0050546313 -0.22973575 0.022434155 -0.073517986
0.0632478 0.23204964 -0.11352657 -0.023224836 0.16030778 -0.17243192 -0.17069785 -0.17931856
0.010351219 0.18255764 -0.1735221 0.104708895 0.017678535 0.20701607 -0.16580684 -0.19739503
0.012711513 0.23564057 -0.079560526 -0.035748504 -0.18720405 0.16438532 -0.001448694 0.17048004
0.08575608 -0.1526003 0.07501603 -0.15136182 0.17011374 0.07635856 -0.102349006 -0.08951137
-0.018778633 0.17592923 -0.23313296 0.1579974 0.12656294 0.06276295 -0.07149436 0.2013305
0.004824649 -0.068252616 0.14787492 0.034345623 -0.10057126 -0.111515366 -0.094032064 -0.14562309
-0.04212922 0.044542793 0.069504425 -0.09740804 0.016527675 0.1009184 0.21103798 -0.027844174
-0.057081766 0.15478554 0.07632935 -0.0953586 0.09342288 0.09689853 -0.14856918 0.07429425
0.0017588593 -0.16817711 0.045479473 -0.1668189 -0.076315165 0.22232795 0.17463571 0.05378807
-0.017352192 -0.13100754 0.079329245 -0.062101036 -0.113460004 -0.09166713 -0.03966529 0.131427
-0.1500764 -0.070775874 0.021922583 0.2036869 0.20864625 -0.1133427 -0.17933518 0.0021736352
-0.22199313 -0.006676183 -0.20416419 0.18875924 -0.040737595 -0.078533836 0.1625702 0.06696663
-0.055449262 -0.08636205 -0.04285002 -0.10941195 -0.018894542 0.025866723 0.15413584 -0.0003748967
-0.15419747 -0.12755674 -0.17778504 0.06023828 0.0514698 0.2047493 -0.0013361892 0.19246322
-0.2711155 0.09352683 -0.1062162 0.01272033 -0.18686825 0.16495371 -0.010787505 -0.029092222
-0.22868045 0.08617043 0.08015832 0.1418422 0.21327549 -0.006762805 -0.24058884 0.16855453
-0.11269164 -0.17021243 0.11341692 -0.021742923 -0.022171179 0.06270796 0.13854554 0.060953435
-0.21130174 -0.23366149 0.07661212 -0.100056 -0.19231986 -0.12114871 0.22135249 0.11993535
-0.089752264 -0.22581804 0.093231685 -0.0212996 0.21199943 -0.16836248 -0.15946825 -0.0044269804
-0.055715185 0.05124362 -0.099275894 0.07645932 -0.031508096 -0.060490992 0.19835988 0.05059193
0.18082239 0.01746025 0.13594274 -0.22405387 -0.09646699 -0.10600197 -0.011835758 -0.11382228
-0.13577093 0.2126139 -0.14000165 -0.023725102 0.0573801 -0.012176096 0.24496536 0.07126799
-0.13907558 0.09670734 -0.14445385 -0.16220908 0.011736704 0.13931811 0.17251265 0.019475773
-0.0077945674 -0.016664686 0.011501403 -0.005055302 0.20205587 -0.015467185 -0.13097893 0.18388896
-0.035821125 0.020548025 0.16485716 -0.19409554 -0.002532631 0.18609285 0.047867697 0.1443649
0.034728024 -0.010712706 0.07447739 -0.06328599 -0.0025673006 -0.033092674 0.07578684 0.09794173
-0.15529548 0.010565063 0.1731928 -0.009300756 0.20485039 -0.009012411 -0.045170296 -0.19577065
-0.1430085 0.15807486 -0.099724784 0.14357795 -0.14636587 -0.18472631 -0.028337322 0.059579812
0.082602195 -0.08998312 0.13802654 0.0038144921 -0.18430436 -0.23798537 0.049284324 -0.047033694
-0.0942945 0.08497739 -0.07971941 -0.096447974 0.097495645 0.18103185 0.12824176 0.02008497

gru.bias_ih_l0 f4 [192]
00000000: a134 4dbe d07f 163e dc04 0ebd 8ef3 253e
00000010: 49d5 6f3c 0098 c03d 8e19 9c3d a0e1 a83d
00000020: 2203 9e3d d795 f33d 5429 903d 96c3 febd
00000030: ef19 043e 01aa 583e b4e3 de3d 175e 143e
00000040: 39df 3b3e 7edd 8b3d 69d4 87bd 9653 1d3e
00000050: 3eb5 293d 9bcf f33d be0e 1f3e f05b 113e
00000060: 8bc9 c33d da40 3c3d 7dcd 09bd 735a 303c
00000070: 20bf 3d3e 9359 ad3b 092b 223d 4caf 893d
00000080: 299a 363e 9e00 d83d 6e35 1d3e 5f2a 64bd
00000090: b229 da3d 0dc7 443d 3569 f43d eb40 723e
000000a0: 4c05 373e eb6a b63c 2a41 7e3d 1dca c3bc
000000b0: 1c0d 703d 784e 0fbc 7ed3 13bd ba72 00bd
000000c0: e7cd e3bc 52a3 403d 23b5 df3d bf1f 6c3e
000000d0: 96d6 233e 3388 013d 8d0b 123e e846 933d
000000e0: a6b2 c7bc 34dd 1ebe 0b57 3a3e 440b 243c
000000f0: 43c6 b83d 6225 8c3b f67d ff3d a1c2 c0bc
00000100: 30c9 45be e3d1 213d 9747 bf3e d21e 393e
00000110: a908 e8bd b7a9 0cbe b284 d03b dcdd f839
00000120: 96cc c73d 9066 92be 8088 a0bd 9439 d7bd
00000130: 797d 87be 1603 32be 2e13 7abd 0cea 1cbe
00000140: 8be4 3e3d 15f9 91bd 3fe7 b13d de76 82bd
00000150: 37a4 373e a6f2 9d3c a0ee 6dbc 96b0 13be
00000160: ef8e c4bc a8c6 9cbd 3c42 cc3c 6196 de3d
00000170: 889a e4bb 6945 923c 7ec5 43bd ec9f 79be
00000180: 1681 053e 100b d3bc bd03 863e 4301 34be
00000190: 1605 30be 1340 37be b553 e73c ea8b 9d3e
000001a0: 793b e2bd 2b54 f33d 563b 953d ad64 563d
000001b0: 9b30 dd3c 4ef3 07bd dc48 debc fff3 1c3d
000001c0: bd6d 8bbe d361 943d 7b16 2e3e a3d5 96bd
000001d0: f523 2ebe 3e4a 823d 850f 8d3d a731 393c
000001e0: 73a1 95bd 1ab0 33bc 86dc 053e 1eb8 813e
000001f0: cf16 22be 164b 4cbd 566d edbd b194 b53d
00000200: 6258 a4bd 78c8 e03d 8b9c 943c 54e7 07be
00000210: 37a3 2cbe 3bc7 143e 40d8 e13d ad28 54be
00000220: 7a2b 27be 8c7c 2e3e 2069 643e 800f 8ebd
00000230: 2a42 1f3e 0a82 123e 5682 2bbe b47a 1b3e
00000240: 55c8 29be aa65 23be c8a6 a33a 7ce5 343c
00000250: 622e 32be 0de1 293e ecaf 483e 77e8 3c3e
00000260: d42d 09be cb06 fa3c 364a 0d3e ed68 5fbe
00000270: 1fae 42be 3629 0bbe fcf8 263e 81c8 4d3e
00000280: a3b9 83be 7b0a 74be 77a6 39bc 9cdf 4e3e
00000290: 8c2b 1c3e f471 19be 0405 17be f555 11bd
000002a0: 010c 45be 28ce ad3d 94b6 55bc f675 383e
000002b0: e051 12be 6c9b 2bbe a414 6d3e 6d28 273d
000002c0: 3da8 b73d f3fb fcbc fda1 0b3e 9d5c f7bd
000002d0: aff4 69be 2ff0 8fbd bdaa 363e c090 60be
000002e0: d57f 02be f7b7 fe3d 20bb fbbd 7239 60bd
000002f0: 73f6 cd3d 4b6a 5e3e 901c 3f3e 113f 633e
-0.20039608 0.14697194 -0.034672603 0.1620619 0.0146382535 0.09403992 0.07622062 0.082461596
0.07715441 0.11893814 0.07039133 -0.12439649 0.12900518 0.21158601 0.10883275 0.14489017
0.18346871 0.06829356 -0.06632311 0.15363917 0.04143261 0.11904832 0.15532967 0.14195228
0.09559926 0.045960285 -0.033643235 0.010763752 0.1852994 0.005290219 0.039591823 0.06722888
0.17832245 0.10546993 0.15352413 -0.05570447 0.10652484 0.048041392 0.11934129 0.23657577
0.17873114 0.02226778 0.062073864 -0.023900086 0.058606252 -0.008746736 -0.036090367 -0.03135941
-0.027808143 0.047030754 0.10923221 0.23058985 0.15999827 0.03162403 0.14262219 0.07191259
-0.024377178 -0.1551407 0.18197267 0.010012452 0.090221904 0.0042769173 0.12475197 -0.023530306
-0.19315028 0.039506804 0.37359306 0.18078163 -0.11329777 -0.13736616 0.0063634748 0.00047467544
0.097558185 -0.28593874 -0.07838535 -0.10509029 -0.26462916 -0.1738399 -0.061053447 -0.15323657
0.046604674 -0.07127587 0.08686685 -0.06370328 0.17933737 0.019280743 -0.014522225 -0.14422831
-0.023993937 -0.07655078 0.024933927 0.10868526 -0.0069764294 0.017855363 -0.047795765 -0.24377412
0.13037524 -0.025762111 0.26174727 -0.17578606 -0.1718944 -0.17895536 0.028238157 0.30770808
-0.110465 0.11881288 0.07286708 0.052342106 0.027000716 -0.033191018 -0.027134351 0.03831863
-0.2723216 0.07245221 0.17000763 -0.07364967 -0.17005904 0.06361817 0.06887726 0.011303342
-0.073061846 -0.010967279 0.13072404 0.25335783 -0.15829013 -0.049876295 -0.1159312 0.08866251
-0.0802467 0.109757364 0.018141052 -0.13271838 -0.16859137 0.14529125 0.110275745 -0.20718642
-0.16325179 0.17039698 0.22305727 -0.0693655 0.15552583 0.14307418 -0.16748938 0.15183526
-0.16580327 -0.1595675 0.0012485618 0.011041041 -0.17400506 0.16589756 0.19598359 0.18448053
-0.13396388 0.030520817 0.1379784 -0.2181737 -0.19011734 -0.1358994 0.16305918 0.20096017
-0.25727567 -0.23832123 -0.011331192 0.20202488 0.15250987 -0.14984876 -0.14748007 -0.035482366
-0.1924286 0.08486587 -0.013044018 0.18013749 -0.14289045 -0.16758507 0.23152405 0.040810037
0.08967636 -0.030881857 0.13636012 -0.120782115 -0.22847246 -0.07028233 0.17838569 -0.21930218
-0.12744077 0.12437432 -0.12291551 -0.054742284 0.10056772 0.21720235 0.1866324 0.22192027

gru.bias_hh_l0 f4 [192]
00000000: 6a35 ffbd e9be 513e c959 c13c c61e 6abb
00000010: b609 083e ef3a 483e 49b2 a63d 1beb b93d
00000020: 5e9c 493e d96b ce3d a336 553d 66a0 09bd
00000030: 1286 0f3e e2b1 693d 3e6c 1f3e aafe 623d
00000040: 1db9 4e3e ef13 c03d 3a5e 2abe 7817 233e
00000050: f681 e2bd 4c21 823d 3d5f ac3b b35d 363e
00000060: f678 053e 6ec7 633d 57b0 363e 1687 553d
00000070: 66e8 d73c 692a 083e 765e 3bbb 1a4e 173e
00000080: 1207 6abc 86d1 693e 8caf 4c3d c04f f73b
00000090: cddb 573e 464b 403e c181 053e 4182 f13d
000000a0: 1294 d43d 5bf5 253e 5742 f83c a8fb 8e3d
000000b0: 11ba 383e ac75 7d3c a371 463a f280 b6bc
000000c0: 5355 72bd 4b0a d4bb 1d56 3b3e 44b4 f93c
000000d0: 0f0f b73d 15cf cc3c e9b2 073e 5e3c 3a3e
000000e0: b03d 32bc 818a fcbd fdbd ae3d a447 36bd
000000f0: fce3 153e 90f0 ed3d 8cbe 39bd 9f7c b33c
00000100: 7758 ac3b 63f4 d5bd dd40 ea3e b3e5 a83e
00000110: 6a63 143d 053b 0cbe c504 3dbe e2d1 6ebe
00000120: 6e0f bb3d 7796 32be 415e 44be f720 0ebd
00000130: dfb9 73be 4d4b adbd 25b5 33be 495b 36bd
00000140: 4bca 91bd 8e6b d8bd 92c2 f2bd 2ebe 41be
00000150: dbb0 5c3e 3508 50bd 7765 f6bc 0f1a 82bd
00000160: 73c5 0cbe 5efe 45be b07b e23b d296 16bd
00000170: a332 fdbd 32fb e53d ef1f 073e 8626 88be
00000180: c47f 8f3d 0440 0b3d 9d4e 3f3e 50b1 0c3b
00000190: 1176 fbbd 1a79 05be a68d 03be 2280 d33e
000001a0: 9c83 16be 1206 c33c f52b 9c3d 1bb3 76bd
000001b0: 8eda 1bbe 9278 63bd 672f b2bd 8fc5 3f3d
000001c0: 03f7 ffbd a0d0 09bd cfa1 6b3e 3d82 47bc
000001d0: 83d3 48bd 68dc 31be f3f8 8abc 1432 773d
000001e0: abcb 15be e4c1 fabd 29ac 93bb 305d 5c3e
000001f0: 30a6 9fbb 8211 1e3e 0851 f13b 00e6 bd3d
00000200: ea20 32be a19f 523e e8d1 d1bd d179 cfbb
00000210: d6e4 5fbe ab47 6d3e 234f 393e 523b 28bd
00000220: c2ed 59be 6f3e 733e 887d 133e d21d 88bc
00000230: e01c 683e 5a7a 3a3e efaa 4fbd 34bf 4c3e
00000240: eeab 1ebe 7814 19bd b2c4 d03d 2aed d1bd
00000250: 02f8 0cbe 6d3a 0b3e 8bef 473e c54e 9d3c
00000260: d338 0ebe 753e 0ebe af3e 3e3e 7d10 10be
00000270: a70c 0fbe 104d 43be 6aa3 103c 52d6 b03d
00000280: 11dc 8bbc 4bbc 60be 049d 8cbd f6db 883c
00000290: 3095 1b3e fa72 f9bd 4c99 06bd 7137 acbd
000002a0: 92a1 b2ba b2d6 3a3e a21c e1bd f43b 043e
000002b0: 7f99 23be d266 3dbe 95d3 ca3d b949 fe3d
000002c0: 2898 953b 5ad3 09be e2b1 12bd 5a2e 76be
000002d0: 2060 19be 46db 19be 316d b93d 2b09 91bb
000002e0: 3727 cdbd 174d 35bb 89b7 0bbe 60ff bb3d
000002f0: 2d72 6b3e 2a88 5a3d d1c1 193e 38d3 3a3c
-0.1246136 0.20482983 0.023602383 -0.0035723909 0.13284954 0.19553731 0.08139474 0.09078046
0.19688556 0.10079164 0.05205406 -0.033600233 0.14015988 0.057054408 0.15568635 0.055418648
0.20187803 0.09378802 -0.16637507 0.15926921 -0.11059944 0.06354007 0.0052603767 0.17809181
0.13034424 0.055610113 0.17840706 0.05213078 0.026355933 0.13297428 -0.0028590239 0.14775887
-0.014283912 0.22833833 0.049972102 0.0075473487 0.21079941 0.18778715 0.13037778 0.11792422
0.10379805 0.16206877 0.03030507 0.06981593 0.18039729 0.01546995 0.0007570034 -0.022278283
-0.059163403 -0.0064709536 0.18294568 0.030481465 0.08938419 0.025001088 0.13251843 0.18187091
-0.010878965 -0.12331105 0.08532331 -0.044501916 0.1463775 0.11618149 -0.045347735 0.02191001
0.0052595693 -0.10447004 0.45752612 0.32987747 0.03622762 -0.13694389 -0.1845885 -0.23322251
0.09133802 -0.1744021 -0.1917658 -0.034699406 -0.23801373 -0.08461628 -0.1754957 -0.04452065
-0.071186624 -0.105673894 -0.118535176 -0.18920204 0.2155184 -0.050789077 -0.03007768 -0.063526265
-0.13747196 -0.19335315 0.0069117174 -0.036764927 -0.12363174 0.11229552 0.13195775 -0.2659189
0.07006791 0.033996597 0.18682332 0.0021467991 -0.12278379 -0.13034478 -0.12847003 0.41308695
-0.14698642 0.023806605 0.07625572 -0.060229402 -0.15220091 -0.055534907 -0.087004475 0.046819266
-0.124982856 -0.033646226 0.23010944 -0.012177047 -0.04902984 -0.17369235 -0.016964411 0.060350493
-0.14628474 -0.12244013 -0.004506607 0.21519923 -0.004872106 0.15436366 0.007364396 0.09272385
-0.17395368 0.20568706 -0.102451146 -0.0063316603 -0.21864638 0.2317187 0.18096595 -0.041072197
-0.21282104 0.23754285 0.14403355 -0.016615782 0.22667265 0.18210736 -0.050700124 0.19994813
-0.15495273 -0.037373036 0.10193767 -0.102503136 -0.13766482 0.13596506 0.19524972 0.0192026
-0.13888864 -0.13891013 0.185786 -0.1406879 -0.1396967 -0.19072366 0.008828023 0.08634628
-0.01707271 -0.21946828 -0.06865886 0.016706448 0.1519363 -0.12180133 -0.03286104 -0.08409012
-0.0013628474 0.18245962 -0.109917894 0.12913495 -0.15976523 -0.18496254 0.09903637 0.12416405
0.0045652576 -0.1345953 -0.035814174 -0.24041119 -0.14978075 -0.15025052 0.0905403 -0.0044261417
-0.10017245 -0.0027664357 -0.13644232 0.09179568 0.22992773 0.053352512 0.15015341 0.011402898

notes_decoder.weight f4 [128, 64]
00000000: 4b81 8c3d 031c c5bd 79e1 1f3e 85f3 383e
00000010: 5c99 3f3e 6345 6ebd 2cc8 47bd b3d2 9d3d
00000020: d4b6 123e f31a 47be 1d79 8dbe 911e 8e3c
00000030: 7169 afbd fbb5 91be 811a 633d 7e72 60be
00000040: ee1e 703e 8eac 9e3d 4c27 833d 17b6 333d
00000050: 7ad9 953e e93f 3dbe 24de 8ebe c1f8 2bbe
00000060: 0a04 923e 4577 4f3e a349 42be 7c40 473e
00000070: 6fc0 273e a6cd 053e 9a02 39be 3015 04be
00000080: 2d64 1b3e 74fb 143e 9fd4 9bbd 22ae 87be
00000090: d984 3fbe aa0f 483e 1e97 1d3e c6c6 693e
000000a0: 1277 ca3d bd92 48be 85f2 0e3e 821e 79be
000000b0: 0353 573d 5260 903e 8a52 33be 8533 5abe
000000c0: c317 e13c a6a9 373e d3a6 fcbd dbca 663e
000000d0: bf7a 133e a4cb 033e 29e8 42be 5545 013e
000000e0: f56d 7f3e b13a 01be c6e7 0f3e 6380 bc3d
000000f0: 6191 e9bd 0db7 00be ec46 f4bd b13b 90bd
00000100: 5145 4c3d e246 84bd 8aef 203d c82c 493e
00000110: 849b fb3d 6d24 8fbe d20b e5bd 9df4 163e
00000120: 23c8 2e3e 83ae 86be 68d8 20be 2751 e33d
00000130: 8448 b3bd 7163 99bd efe9 8d3e cf91 24be
00000140: 6c1d 963e 15f9 8b3e 2840 fcbc 8096 153e
00000150: e355 4a3e 3689 fcbd e674 cdbd 63dc 5ebe
00000160: c469 bc3d 7412 693e 9cd3 4fbe 9716 413e
00000170: 92dc 943e 5600 093e 5b60 21be b92f 48be
00000180: eb86 1b3e 6edf 083e d1b4 2fbd 9906 2abe
00000190: 9008 52be 1654 5b3e f78c 0b3e 83a8 3e3e
000001a0: 2854 3a3e 8b90 5dbe c08f 583d 4ad9 acbd
000001b0: 4144 8f3e bc25 cd3d 61be 53be b004 6ebd
000001c0: 0fbc 853c be97 bd3d ce92 1cbe 675b 2c3e
000001d0: 296d 2b3e 2160 4d3e e65d 5bbe fe66 233e
000001e0: 6149 933e 9744 123b a9d9 6c3e 2c67 113d
000001f0: 9ab0 84be eb1e 87bd f9e5 13be 0e84 07be
00000200: 16b7 0abd ff6f 55be 6c49 343e d8ad 753e
00000210: eea6 853e 8edf bcbd 9304 99bd e42f 5a3e
00000220: 399e 993e 8842 9ebd fc11 2dbe 11f2 9abd
00000230: 3360 8abe 08ab 8abe 31bb 153e 31b3 efbd
00000240: 2424 be3d d48c b53d b7a2 8c3c 46ed d43c
00000250: f08a 5d3e 1911 e0bd 8c48 2ebe fcbc 78be
00000260: 746c 8e3e 7935 653e ccd3 4ebe 7e45 713e
00000270: 9c15 753e 2a6a 4a3e 46b7 33be 6fc4 44be
00000280: 5b48 bc3d 3c50 c63d ce49 45be 0c48 60be
00000290: ad95 53be facf 2c3e a423 233e fe03 363e
000002a0: dc86 503e da51 65bd dbf7 803d 82f4 e6bd
000002b0: fb10 913e 676b 3f3e e1d7 83be 0783 68bd
000002c0: 1974 e93d 0664 033e be05 56be 4195 1e3e
000002d0: 99bf 803e e42c 4d3e cf4d c8bd 889d 0a3e
000002e0: 8f54 303e 8eba 0dbd 0471 b53d 21a6 183e
000002f0: 89e2 13bd f3b2 94bd a96c cfbd 8b1c 33be
00000300: 57ce 403d dc20 2cbe 78a7 6a3e 7daa c93d
00000310: 9a78 bf3d 922f 15be b648 a1bd e3ee a73d
00000320: 5c0b 803e 8293 02be 99d8 6cbe 2a0b 573d
00000330: 315e 81be 6a01 88bd b7ae 8c3e dcc6 15be
00000340: d290 0d3e 4d6f a53d 8226 903d 486e 723e
00000350: 5acc 043e aa7e f3bd 07d2 8fbe 46c9 a7bd
00000360: c0c0 683e d263 6a3e 328f 5cbd b549 983e
00000370: bde4 bf3d 4e01 883e 0c16 41be f6a8 95be
00000380: d411 673e 1353 913e d6ca c2bd c64a 80be
00000390: 7703 99bd 2dad 3b3e 46be 8e3e f291 2c3e
000003a0: 5bef 803e acbb 05be a8b3 90bb fc69 f7bd
000003b0: 606f 4d3e 9e30 ee3d f520 93be dd76 2abe
000003c0: d6f7 7dbd 4ec1 b23d 4b5b 5ebe f305 783d
000003d0: 3f08 653d 85de 063e 36f7 9dbd 6e27 453e
000003e0: ab53 163e e065 0b3d 4ad5 8b3e c917 10bc
000003f0: d6e9 06be af87 e5bd fbf1 16bd a8fc 97be
0.06860598 -0.096244834 0.15613355 0.18061645 0.18710846 -0.05817164 -0.048774883 0.07706203
0.14327556 -0.19443874 -0.27631465 0.01734856 -0.08565033 -0.28459153 0.055445198 -0.21918675
0.23449299 0.07747756 0.0640398 0.043874826 0.29267484 -0.18481411 -0.27903855 -0.16794111
0.28518707 0.20260341 -0.18973403 0.19458193 0.16382001 0.1306673 -0.18067399 -0.12898707
0.15174933 0.14549047 -0.07608914 -0.2650004 -0.18703021 0.19537225 0.15389678 0.22829732
0.09885992 -0.19587226 0.13959701 -0.24328044 0.0525694 0.28198487 -0.17511955 -0.21308716
0.02747715 0.1793581 -0.12336507 0.2253832 0.14402293 0.12870651 -0.19033875 0.12624104
0.24944289 -0.12620045 0.14053258 0.09204175 -0.11404682 -0.12569828 -0.1192759 -0.07042635
0.049870793 -0.06458832 0.039290942 0.19645989 0.122855216 -0.27957478 -0.11183895 0.1474175
0.17068534 -0.26305017 -0.15707552 0.11099463 -0.08754066 -0.0748967 0.2771754 -0.16071247
0.29319322 0.27338472 -0.03079231 0.14608192 0.19759326 -0.123308584 -0.10032062 -0.21763758
0.09199861 0.22760946 -0.20295566 0.18856274 0.29074532 0.13379034 -0.15759413 -0.19549455
0.15188186 0.13366482 -0.04289705 -0.1660408 -0.20511079 0.21418795 0.13627993 0.1861897
0.18196166 -0.2163717 0.052871466 -0.08439882 0.2798176 0.10016963 -0.20678093 -0.05810994
0.016325025 0.09257458 -0.15290377 0.16831742 0.1674086 0.20056202 -0.21422538 0.15957257
0.2876692 0.0022318715 0.23129906 0.035498783 -0.25915986 -0.06597694 -0.14443196 -0.13233969
-0.03386601 -0.20843504 0.17606133 0.23992097 0.2610392 -0.09222327 -0.074715756 0.21307331
0.30003527 -0.077275336 -0.16901392 -0.07565702 -0.2702652 -0.2708361 0.14622189 -0.117041
0.09284237 0.088647515 0.017167432 0.025992047 0.21635032 -0.10940761 -0.17019862 -0.24290842
0.27817118 0.2238368 -0.20197982 0.23561665 0.23934025 0.19767061 -0.17550382 -0.19215558
0.09193488 0.09683272 -0.19266436 -0.21902484 -0.20662566 0.16876212 0.15931565 0.1777496
0.20363945 -0.055986263 0.06297275 -0.11277105 0.28333268 0.18693314 -0.2575064 -0.056765582
0.11399097 0.12831125 -0.20900628 0.15486623 0.25146177 0.20036656 -0.09780466 0.13536656
0.17219757 -0.03460174 0.08859447 0.14907123 -0.036104713 -0.07260694 -0.10128147 -0.17491357
0.04707178 -0.1680941 0.22915447 0.09846971 0.09349175 -0.14568928 -0.07875197 0.08199861
0.25008667 -0.12751582 -0.231295 0.05250088 -0.25267175 -0.06640895 0.27477047 -0.1462664
0.13824776 0.080778696 0.07038595 0.23674881 0.12968579 -0.11889394 -0.28089926 -0.08192687
0.22729778 0.22889641 -0.0538475 0.29743734 0.093698 0.26563495 -0.18856066 -0.2923047
0.22565395 0.28383693 -0.09511344 -0.25057048 -0.07471364 0.1832778 0.27879542 0.16852549
0.25182614 -0.13059872 -0.004415948 -0.12080762 0.20062017 0.11630367 -0.28736082 -0.16646905
-0.062003933 0.08728276 -0.21714513 0.06055255 0.055916067 0.13170822 -0.07713167 0.19253322
0.14680354 0.034032702 0.27311164 -0.008794733 -0.13175139 -0.1120752 -0.036851864 -0.2968495

notes_decoder.bias f4 [128]
00000000: d057 02bd 0540 38be 7e99 10be d1fd 76be
00000010: 3b1d 11be 3bb9 13be 6967 4ebe cd7f 34be
00000020: 33bc 71be da3e 80be 415e 1abe d7bc 67bd
00000030: c946 46bd 2ba2 3dbe 2c1e 6bbd fedd 62be
00000040: bdd9 36bd da5e 4ebe 2172 62bd 3ab6 a6bd
00000050: 1d12 22be 56ac ffbd 1d7f 6ebd 2c5a 0bbe
00000060: 0fb0 9fbd e5e0 47be 838b a7bd 6d88 b1bd
00000070: 0ff8 c8bd c3f3 09bd d0d4 2cbe c9a1 51be
00000080: b638 43be 5f9c f8bd 71ac 9dbd 3a0b 17bd
00000090: efcf 00be 39b7 86bd 3452 08bd 604e 59be
000000a0: 3102 34be 0ee0 a0bd 3d77 71be 4ea2 2ebe
000000b0: 5dce 62be 0c0c f1bd 2221 01be 65dd 03be
000000c0: 3d53 1bbe 8826 1abd df4f 96bd fe78 24bd
000000d0: eaac d6bc b248 1ebe 1aac 6bbe de75 25be
000000e0: 8910 37be 4642 0cbd b57e b53b 01a4 79be
000000f0: 176d 9dbb 8df9 0ebd 54c3 f9bc 93aa 11be
00000100: d544 6bbc e4e7 66be 789d c1bc 305f d8bd
00000110: b5d5 5dbe 4b0d 3dbe 4298 17be 77a0 2fbe
00000120: 2e70 58be 3f0f 6cbd 05b6 d8bd 8595 10be
00000130: dba5 5bbe f456 1fbd 5ca1 25be d762 b7bd
00000140: 8c19 5fbe 2f30 64be fb14 52be 1d89 58be
00000150: 79aa 33be a07b e7bd bcfd 68bd 6231 47be
00000160: c24a 20bd 4423 ebbd b8d2 75be f105 9dbd
00000170: f336 32be 06c7 97bd 7add 4ebe 3510 84be
00000180: 08db 88bd 794e 27bc dcc6 41be e787 3bbe
00000190: 30fc 3abd b4ec 87bd 3b8b 81bd ce3a 65be
000001a0: feed 80be 3098 4cbd a4fa 80be 0c33 88be
000001b0: 4e5f 74be 0394 e8bd e8ab 83bd 5ca5 12be
000001c0: 1baf 5cbe ed23 adbd 95fb a2bd 7ac2 0ebe
000001d0: 24c6 4ebe 1758 5dbe 9ef3 67be 4438 27be
000001e0: f762 8dbd 78ca 6dbe b4c6 08be 7ecb 87bd
000001f0: 5c9e 3abd e23b 50bd 4257 4fbe 5f65 eabd
-0.031822026 -0.17993172 -0.14121053 -0.24120261 -0.14171307 -0.14426129 -0.20156635 -0.17626877
-0.23606949 -0.25047952 -0.15075018 -0.056576576 -0.04840735 -0.18518893 -0.05740182 -0.22154996
-0.044641245 -0.2015337 -0.055284623 -0.08140226 -0.15827222 -0.12484042 -0.058226693 -0.13608617
-0.077972524 -0.19519384 -0.081809066 -0.08668599 -0.098129384 -0.033679735 -0.16878057 -0.20471872
-0.19064602 -0.121392004 -0.07698906 -0.03687594 -0.1257932 -0.06577916 -0.03328152 -0.21221304
-0.17578961 -0.07855235 -0.23580642 -0.17054102 -0.22149034 -0.11769876 -0.12610295 -0.12877424
-0.15168472 -0.037634403 -0.07339453 -0.04015445 -0.026205499 -0.15457419 -0.2301487 -0.16158244
-0.17877401 -0.03424289 0.0055387863 -0.24378969 -0.0048042643 -0.03490596 -0.030488648 -0.14225225
-0.014359673 -0.22549397 -0.023634657 -0.105650306 -0.21663554 -0.18462102 -0.14804175 -0.17151056
-0.21136543 -0.057631727 -0.105815925 -0.14119537 -0.21449988 -0.038901284 -0.16174835 -0.08954399
-0.21787089 -0.22284006 -0.20515816 -0.21146055 -0.17545499 -0.113028765 -0.056882605 -0.19452432
-0.039133795 -0.11481336 -0.24006164 -0.07667149 -0.17403774 -0.074110076 -0.20201674 -0.25793615
-0.06682402 -0.01021158 -0.18923515 -0.18313561 -0.04565066 -0.066369444 -0.06325384 -0.22385713
-0.25181574 -0.049949825 -0.25191224 -0.26601446 -0.23864481 -0.11356356 -0.06429273 -0.14320892
-0.21551172 -0.08454118 -0.07958142 -0.13941374 -0.20192772 -0.21615635 -0.22651526 -0.16330057
-0.06903642 -0.23221767 -0.13357049 -0.0663061 -0.04556118 -0.05083836 -0.2024813 -0.11445116
