saved_models/generalist_BCE_1e-2_70.pth (torch_old, 167373 bytes, 8 tensors)

notes_encoder.weight f4 [64, 128]
00000000: 8146 abbd 36a3 65bd ba12 5c3d 6bea 8f3d
00000010: d930 91bd 493e 5ebd b8a1 093c 3dda 7bbd
00000020: 9bbf 7cbd 0064 aabb f818 76bc 4277 703d
00000030: d366 a7bd ecee 05bd 6035 3c3c ce73 673d
00000040: 3160 5cbd 4656 a8bd 1c92 92bc 98e2 913c
00000050: 7646 3b3d 3237 6cbd 3e43 abbd e0cf 923c
00000060: e756 b4bd 70f0 d73b 5670 313d 1003 ba3c
00000070: c2e1 773d 3c73 c5bc 3060 ca3c 409e 59bc
00000080: 6c95 4cbd 8ca2 d13c c9a1 9ebd 1e39 163d
00000090: c6bc 933d 10df ec3b 52d3 723d 3653 4d3e
000000a0: 19d1 3b3e 9a55 063e 04b1 d23d 9c8d 113e
000000b0: 1f5f 923e b022 933d c74c b83d 4753 383e
000000c0: 0779 7c3e 3761 383e fe81 8f3e 857f af3d
000000d0: 03e3 263e c0d1 523e aa57 283e 1120 1d3e
000000e0: 69b9 803e 2ded 433e 7de1 013e 3fd0 2b3e
000000f0: 582f 053e 9373 6c3e 321f 073e 8888 473e
00000100: 7861 063e 2d56 273e e842 8b3d 5e25 663e
00000110: e3a9 6a3e 9455 b33d 8c0e 593e 4ddc 663e
00000120: 830b 343e 78ae 623d 4699 2c3e 4e79 0d3d
00000130: 2857 223d 7a05 313e 2bf4 2f3d a6c7 c63d
00000140: 0d40 1c3d 2eb9 083e 9846 bb3d f76c 05bb
00000150: 7e30 da3d 9c4a 1c3e 3c70 ce3d f376 063e
00000160: e056 ad3d 836d 003e d85c a0bd fd96 983d
00000170: 9c6e a7bc 949f e83c 006e fd3b 08e5 c8bc
00000180: 04eb 96bd 205c 54bb 6bf1 4fbd 95c6 9b3d
00000190: 5979 ac3d 4d47 ac3d 0ed7 d9bc 34c3 96bd
000001a0: 7021 69bc 320a 5d3d 3322 58bd beaf 303d
000001b0: 50f5 05bc a82c 34bc 39cf 0ebd d3c0 4fbd
000001c0: 727d 603d fc6e e43c 2232 313d 61d1 51bd
000001d0: c6b1 383d 24fb ea3c aeab 743d a6b8 5c3d
000001e0: 0072 593c 81c6 ac3d 8054 983b 2cba 89bc
000001f0: 6042 0d3c bcb0 39bd d252 793d a49d d63c
00000200: 815f a7bd 5a3f 753d a537 823d e0fa d53b
00000210: bfeb aebd f361 9b3d b033 c13c c804 96bd
00000220: 00dc df3b 9c25 bebc 8f75 803d b006 e1bb
00000230: a321 08bd baca 3b3d 2044 b13c 2032 4a3c
00000240: 2195 8ebd bbc9 a9bd 0872 da3c 800f 07ba
00000250: 8473 90bc c088 d9bb e05b 52bc a906 09bd
00000260: 3ef6 413d 6c15 d5bc 3c6a ddbc 52a5 8bbd
00000270: d8a2 923c 38fc c8bc c095 ae3b 4568 2cbd
00000280: 5e77 693d 6c62 cbbc 6907 5b3b f449 ed3c
00000290: ab39 21bd 4033 913b 104a 08bb 5163 54bd
000002a0: 4c2e 50bd c686 cabd 026d 86bd a30c 45be
000002b0: 78f5 b4bd dfd8 56bd e2d2 eebd 1694 b2bd
000002c0: 158a e2bd c73a e6bc 2edb a5bd f789 2fbe
000002d0: 3f96 64bc 377c 1cbd 5d29 4abd 781b eabd
000002e0: 312a e9bd abdf 89bd 638a 2cbe 48af d8bd
000002f0: f810 1bbe 8fdb 70bd 688a 07bd 7fd9 ccbc
00000300: bd7c a0bd 9565 57bd fd85 37be 2258 14be
00000310: a762 00bd f435 24be 3194 98bd a4ca 2abe
00000320: d682 cabd 98fb 00be 30e0 1dbd c520 3fbd
00000330: 3cb7 3cbd 0b28 813b 5535 03be 559d e3bd
00000340: 4f6e 44bd 3061 0dbe 970d 5cbd be11 5dbd
00000350: acbb 14be 5986 adbc d0eb 27bc 4b2f bdbd
00000360: e42b 05bd a483 d7bc 6439 8dbd 66d0 1a3d
00000370: 94d3 09bd ece3 bbbc f82e b3bc 01b0 9a3d
00000380: 8670 30bd 900a d73c ad62 13bd b14e 8a3d
00000390: e8eb 663c e26c 593d 0d6a 57bd e35b 813d
000003a0: faaf 383d ad0c 56bd 72f0 473d ba67 683d
000003b0: 47f7 24bd 5eef 513d a155 87bd 5c13 a5bc
000003c0: 1e74 a6bd c004 c8ba 3463 9cbd 65c5 9f3d
000003d0: c9a9 ae3d 0c4b d63c 9cc9 cabc c065 21bc
000003e0: c01c 7cbd 8ffc 0fbd 280d 02bc 322d 99bd
000003f0: 5ac5 363d 1ead 6b3d 1c20 f0bc 30f7 2e3c
-0.08363057 -0.056063853 0.053728797 0.070271336 -0.07089395 -0.05425862 0.008400373 -0.061487425
-0.061706167 -0.005199909 -0.015020601 0.058707483 -0.08173909 -0.032698557 0.011487335 0.056506924
-0.053802673 -0.0821958 -0.017891936 0.017808244 0.045721494 -0.057669826 -0.08362435 0.017921388
-0.08805638 0.0065899417 0.043320023 0.022706538 0.060518034 -0.0241028 0.024704069 -0.013282359
-0.049947187 0.025590204 -0.07745702 0.036675565 0.0721374 0.0072287396 0.059283562 0.20051274
0.18341483 0.13118592 0.10287669 0.14214176 0.28588197 0.071843505 0.08999019 0.18000518
0.24655543 0.18005835 0.28028864 0.08569244 0.16297536 0.20587826 0.16439691 0.15344264
0.25141457 0.19133444 0.12683673 0.16778658 0.13006341 0.23090963 0.13195494 0.19485676
0.13123119 0.16341467 0.06799871 0.22475192 0.22916369 0.08756557 0.21196955 0.22544976
0.17582516 0.055342168 0.16855344 0.034539513 0.0396339 0.17287245 0.042957466 0.09706049
0.03814702 0.1335189 0.09144324 -0.0020359138 0.106537804 0.15262836 0.10080001 0.13131313
0.08463836 0.12541775 -0.078302085 0.07450674 -0.020438485 0.028396405 0.0077340603 -0.024523273
-0.073690444 -0.0032403544 -0.050767343 0.07606236 0.08421583 0.08412037 -0.026591804 -0.07361451
-0.0142291635 0.0539648 -0.05276699 0.04313635 -0.008176163 -0.010996975 -0.03486559 -0.050721
0.054807134 0.027884953 0.0432607 -0.05122507 0.045091413 0.028684206 0.05973404 0.053887032
0.013271809 0.08436299 0.004648745 -0.016812406 0.008621782 -0.045334563 0.06087 0.026198216
-0.08172513 0.05987487 0.063582696 0.006530151 -0.08541059 0.07587042 0.023584217 -0.07325131
0.006831646 -0.023211293 0.062724225 -0.0068672523 -0.033235203 0.045847632 0.02163893 0.012341052
-0.06962038 -0.0829043 0.026665702 -0.0005152151 -0.017633207 -0.0066386163 -0.0128392875 -0.033453617
0.047353975 -0.026011191 -0.027028196 -0.06818642 0.017899916 -0.02453433 0.00532791 -0.042091627
0.056998603 -0.024827205 0.0033421165 0.028965928 -0.039361637 0.0044311583 -0.0020796098 -0.051852528
-0.050825402 -0.09888987 -0.0656376 -0.19243102 -0.08835882 -0.05245292 -0.116613165 -0.087196514
-0.11061493 -0.0281042 -0.08098446 -0.17142473 -0.013951837 -0.038204398 -0.049355853 -0.114310205
-0.113850005 -0.067321144 -0.16849665 -0.10580307 -0.15143192 -0.058803137 -0.03309098 -0.025006054
-0.07836292 -0.05258711 -0.17922206 -0.14486745 -0.031344082 -0.16036206 -0.0745014 -0.16678864
-0.09888236 -0.12595975 -0.03854388 -0.04666211 -0.046073183 0.003941541 -0.12813313 -0.11113993
-0.04795676 -0.13806605 -0.053723898 -0.053972 -0.14524716 -0.021182226 -0.010249093 -0.09237536
-0.03251256 -0.026307888 -0.06895712 0.0377964 -0.033649042 -0.02293583 -0.021872982 0.07553101
-0.04307606 0.026250154 -0.035982776 0.067532904 0.01409433 0.053082354 -0.052591372 0.06316354
0.0450897 -0.052258182 0.04881329 0.056739546 -0.040274885 0.05125367 -0.06608129 -0.020150833
-0.08127616 -0.0015260205 -0.07636109 0.07801322 0.08528478 0.026158832 -0.024754338 -0.009850919
-0.061550856 -0.035152968 -0.007937707 -0.074793234 0.044621803 0.057538144 -0.029312186 0.010679051

notes_encoder.bias f4 [64]
00000000: 0311 263c e6d3 28be c861 20be 3e5f 2c3e
00000010: a088 89bd 6b43 28be 9195 45be 0bb8 003e
00000020: 9127 1f3e 25d7 783d dc8a 9b3c 5004 b33d
00000030: 638a a5bc a66d 113e 2c08 bd3d 07fa 35be
00000040: 5f0b 33be a6cd 26be ace4 11be ec37 163e
00000050: afd6 36be fedf 0ebe 7be9 f73d c9f6 46be
00000060: e2f1 463e 5462 4d3e c6ae 4a3e a21b 4ebe
00000070: cb01 2b3d 2e55 d6bd 1fe5 953d e2aa 10be
00000080: 6cd7 af3d 7374 3c3e 9b35 28bd c058 f3bd
00000090: 46b0 d03c 2427 003e 8bfb 143e 67f0 f0bd
000000a0: 3876 60bd cb87 57be cb22 9d3d f03a f1bd
000000b0: f17d a53d 511c b9bd f501 243e b3a6 113e
000000c0: deae 9f3d 36ec 2a3e ec2b 903d 31d7 163e
000000d0: 7562 9e3d 56d7 0f3e 50d2 2e3e c40d dabd
000000e0: f151 293e 48e1 c8bd ad14 0bbe 1dfe 2d3e
000000f0: 8b1f 353e 6c68 0f3e 74d6 f6bd 0cf6 52be
0.010135892 -0.16487083 -0.156623 0.16833207 -0.06715512 -0.16431968 -0.19295336 0.12570207
0.15542437 0.060752053 0.018987112 0.08741057 -0.02020759 0.14201984 0.09230074 -0.17771159
-0.17484806 -0.16289386 -0.14247388 0.1466977 -0.17855333 -0.13952634 0.1210508 -0.19430079
0.19428208 0.2005704 0.19793233 -0.20127729 0.041749757 -0.104654655 0.07319092 -0.14127687
0.0858601 0.18403797 -0.041066747 -0.11882162 0.025474679 0.12514931 0.14549081 -0.11764603
-0.054800242 -0.21047895 0.07672652 -0.117788196 0.08080662 -0.09038604 0.16016372 0.14223747
0.07797025 0.1669167 0.070396274 0.14730527 0.07733623 0.14046988 0.17072415 -0.10647157
0.16535164 -0.09808594 -0.13582106 0.16991468 0.17687814 0.14004678 -0.120526224 -0.20601672

gru.weight_ih_l0 f4 [192, 64]
00000000: 4f0e 603d b6a1 5a3e a54b 6b3e 105c 9f3b
00000010: 2d6c 873c 6a92 313e 3433 fe3d 5619 bcb9
00000020: 1128 67be da25 04bc fbd6 6c3d 5497 91bc
00000030: 520d 983d 906f 3abe adee 55bd 8d71 273d
00000040: e88c 523e 43c9 093d b279 393e b091 d6bd
00000050: f111 e43d 74f3 0e3e 76e8 26bd bf8e 233e
00000060: ddb3 5ebe 0189 e2bd 4984 2ebe 8d3b 263e
00000070: f944 0fbe e975 1d3e ffe0 0ebd 11f7 143d
00000080: f9bf 32be cd4b 41bd 4d9d 003e 447f 1a3e
00000090: 23a0 64bd ec2a 29be f82e 62be a955 033d
000000a0: 863b e93d 95e1 ca3d 6436 1b3d 86c0 d2bd
000000b0: e64f 0fba 34b2 253d 2c65 01be b49c d0bb
000000c0: cdb6 933d c464 58be ae17 debd 05ed 00be
000000d0: 8609 673d 70b5 2dbe 0c36 a5bd 407b 5c3d
000000e0: 059c 21be 6b5f eabc e944 ea3d 402a e0bd
000000f0: ba3c 75be 1655 bfbd 753b bf3d 2303 0f3d
00000100: e437 2c3d 5a51 68be f45f a3bd d900 243e
00000110: a4c0 30be ac7a 15be 1475 2fbd c742 343e
00000120: c26e 07ba 92b5 b5bc d987 5c3c 5e7d 813d
00000130: f186 a83c ee6e c53d 09a4 8e3b e219 d2bd
00000140: 27c7 cebb f0b6 363c e6ea 283b da13 113e
00000150: b8f5 51be 749f 5dbe 9abf e7bc bb79 4fbd
00000160: 6cc5 5f3e 9d9b fa3d 3537 003e 1602 c0bd
00000170: 8ff2 233e f16f 8ebd 6422 383e 0576 f9bd
00000180: 5afc 15bd fa8c 033d a114 16bd 7f9e 89bd
00000190: 0815 de3d 5248 423e e609 c83d dea6 21be
000001a0: d659 21be de49 f3bd d79a 863d 49b9 933c
000001b0: 93bf 2b3e 1a7e c53d c7c5 dc3d 7b68 143e
000001c0: a894 233e b787 193e cd3d 883d 48f0 0f3e
000001d0: 4d3b 2cbd 052d e63d 8b71 023d 9852 0abe
000001e0: 2267 593c 780b b5bd c0f5 31bd 4ad1 2fbb
000001f0: 23dd 5e3e 8897 b23d dd88 82bd 4756 e9bd
00000200: 54b4 703e 8c1d c1bd 1db3 47be b591 0f3e
00000210: 114e 1abe fb6f cd3c 729e 86bc 4fab 2a3e
00000220: 17ec be3d 7912 533e d0e1 fabd 9673 233e
00000230: ae96 14bd 2be7 e5bc 39f1 dcba b6b3 33bd
00000240: baab b3bd af8d adbc e413 0c3d c274 0b3e
00000250: 79ab af3c 78b5 43be 384e d73d ba9e 42be
00000260: 65fe e23d dc9a 503d f5ae ee3d ce24 d5bd
00000270: 5985 763d 1732 f8bc 602b 513e e486 39be
00000280: ef18 203e 9abb 7cbc 18ab 42bd e71e b5b9
00000290: d8a3 5d3e fb07 383d d11f 053e da08 0fbe
000002a0: 48c3 4239 5d0f 44be 5719 d43c 6ca1 fbbd
000002b0: c184 1b3d 8dca b8bd 2eb8 1d3c f39f 633d
000002c0: 0722 01be 77f5 923d 3b82 b03d d72c 483e
000002d0: ed44 353e c3b3 ea3d 93ba 1e3e 6a88 9abc
000002e0: fed8 333e ccd2 adbd 18f9 033d 7a7a 343e
000002f0: cf84 b83d 277e 843d af52 5cbd b4cb 17be
00000300: ad1a 1b3e 9824 f4bd 6828 cdbc acfe 223d
00000310: e3ee 5abe 5e6c 55bc 48d3 05be 37a2 273e
00000320: 7527 403e b970 ba3d a37e a2bd 118d ff3d
00000330: c733 5b3e 24f0 0c3e e0c8 953c f269 0dbe
00000340: c72a 2ebe b7c7 e8bd 6122 cabc 94f2 6c3d
00000350: 9ca3 47be f1a1 54bd b7f8 bd3d ec82 f23c
00000360: 4d40 b73d 214b f63b b6c5 04bd ba59 8fbb
00000370: a075 003e 8d0e d3bd a61d 4e3e 65b0 95bd
00000380: 7eae c03d 991f 443e 54e1 b8bd 9449 bcbc
00000390: 1b4e 643e 64f2 d03d e684 2e3e 1c3c 38bd
000003a0: 3a8f d7bd fb86 11be 7239 1b3e f378 e5bd
000003b0: 23bf 133e 5c3f aebd a28e e63d 16f6 143c
000003c0: 87fd 0bbe fc24 aa3d 0334 f63b 2553 423e
000003d0: ffb6 c53a e39d d33c f561 c33c dbf7 0dbe
000003e0: 5787 eb3d bb2f 3ebe 019f 55be 88eb c8bc
000003f0: a125 01bd f213 2d3e 51db 02be 2425 82bd
0.054701146 0.2135075 0.22978075 0.0048632696 0.016531074 0.17341009 0.1241211 -0.0003587703
-0.22573878 -0.008065665 0.05782221 -0.017772354 0.07424416 -0.1820662 -0.052229572 0.040879775
0.20561564 0.033639204 0.1811283 -0.104770064 0.111362346 0.13960057 -0.040749036 0.15972422
-0.217483 -0.11061288 -0.1704265 0.16233654 -0.13991155 0.1537701 -0.03488254 0.036368433
-0.17456044 -0.04719143 0.12560005 0.1508761 -0.05581678 -0.1652028 -0.2208823 0.032064114
0.11388306 0.099063076 0.037893668 -0.10290627 -0.0005466923 0.04045315 -0.1263625 -0.0063663367
0.07212601 -0.21132189 -0.1084436 -0.12590416 0.056405567 -0.16963744 -0.08066949 0.053828478
-0.15782173 -0.028609952 0.11438925 -0.109455585 -0.23948947 -0.09342401 0.093375124 0.0349151
0.04204549 -0.22687283 -0.07977286 0.16015948 -0.17260987 -0.14597577 -0.042836264 0.17603599
-0.00051663455 -0.022181306 0.013460123 0.0632274 0.020572158 0.09640299 0.0043530506 -0.10258843
-0.006310362 0.011152014 0.0025774776 0.14167729 -0.2050389 -0.21642858 -0.028289605 -0.0506532
0.21852654 0.12236712 0.1252106 -0.09375398 0.16010498 -0.06954945 0.17981869 -0.121807136
-0.036617614 0.032116868 -0.036640767 -0.06719684 0.10843855 0.189729 0.09767513 -0.15786311
-0.15756926 -0.118793234 0.06572502 0.018032687 0.16772299 0.096431926 0.107799105 0.14492981
0.15974677 0.14993177 0.066524126 0.14056504 -0.04204874 0.112390555 0.031846564 -0.1350807
0.013269218 -0.08840078 -0.043447256 -0.0026827627 0.21764044 0.087203085 -0.06373761 -0.11393409
0.2350629 -0.09429464 -0.1950192 0.14020427 -0.15068842 0.02507781 -0.016432974 0.16666912
0.09322374 0.20612516 -0.122501016 0.15962061 -0.03627651 -0.028064331 -0.0016856558 -0.043872558
-0.087729886 -0.021185724 0.034198657 0.13618758 0.02144407 -0.19112194 0.10512966 -0.19005862
0.11083678 0.050928935 0.11654464 -0.104074106 0.060185764 -0.030297322 0.20426702 -0.18117863
0.15634511 -0.015425587 -0.04752645 -0.00034546034 0.21644533 0.044929486 0.13000418 -0.1396822
0.0001857403 -0.19146486 0.02589099 -0.12286648 0.0379684 -0.090230085 0.009626431 0.05557246
-0.12610637 0.07175725 0.086185895 0.19548355 0.17702074 0.11460068 0.1550086 -0.018863875
0.17563245 -0.08487472 0.032219976 0.17624846 0.09009706 0.06469374 -0.05378979 -0.148238
0.15146895 -0.11921042 -0.025043681 0.039793655 -0.2138019 -0.013026325 -0.13068879 0.16370474
0.18765052 0.091035314 -0.0793431 0.12478078 0.2140647 0.13763481 0.018284261 -0.13809946
-0.17008506 -0.113662176 -0.024674596 0.057848528 -0.19496006 -0.05191225 0.09275954 0.029603444
0.08947811 0.0075162803 -0.032415114 -0.00437471 0.1254487 -0.1030551 0.20128497 -0.07309035
0.09408282 0.19152679 -0.09027353 -0.022984304 0.2229542 0.10202482 0.17042884 -0.0449792
-0.10525365 -0.14211647 0.15158632 -0.1120471 0.14428382 -0.085081786 0.11257674 0.009091875
-0.13670932 0.083078355 0.0075135245 0.1897703 0.0015084444 0.025832122 0.02385042 -0.1386408
0.115004234 -0.18572895 -0.20861436 -0.024526373 -0.031530026 0.1690214 -0.12778975 -0.0635474

gru.weight_hh_l0 f4 [192, 64]
00000000: 8710 943c 1253 2cbd ce2c 0ebe 437a 4d3e
00000010: 1712 883d 4894 0fbe fa6c afbd a4be 1a3e
00000020: b5c6 743e 3760 32bd 8229 84bd d2d6 ff3d
00000030: ba0c ee3b 0705 61be 1ff8 263c 7401 3fbd
00000040: 9e55 633d e678 643e 18a0 d0bd 1977 09bd
00000050: 7757 1c3e a7a1 22be b7e6 21be cc60 30be
00000060: 1cd7 cb3a ccf9 153e 7858 26be 5b58 b13d
00000070: 93e3 353c 9186 4d3e f968 1cbe ecfd 37be
00000080: 40dd 573b a21f 683e e1eb 89bc b4d2 dbbc
00000090: 8622 38be 5fc1 1f3e ff83 04bc 0afb e53d
000000a0: 3774 a33d 06a3 0abe 4b22 7a3d ccb0 12be
000000b0: 262a 253e 43ed 8a3d 4d68 a0bd 4e5e 9ebd
000000c0: de01 8f3b fdd3 283e c86a 51be f575 1b3e
000000d0: d4af f63d 420a 503d 2173 84bd e03a 3d3e
000000e0: bc19 cfbb e83a 76bd bdfd 0f3e 926b 303c
000000f0: 6a60 c0bd 5c5c cebd ca71 cdbc c43e f7bd
00000100: 31f1 2cbd 3704 363d 8c5c 8e3d a83f c7bd
00000110: 0d49 883c d076 ce3d 59fe 573e 263e e3bc
00000120: 6a5b 69bd 5563 1e3e ad17 9c3d e727 c3bd
00000130: eb1c bf3d 253b c63d 9d07 18be 1aed 973d
00000140: d7a7 f43a 881b 2cbe 4f20 3a3d 3eb6 2abe
00000150: e510 9cbd bd8d 633e 89b6 323e 33e4 5b3d
00000160: 1b47 8dbc 3116 06be 933e a23d 92e9 7dbd
00000170: 2526 e8bd 7686 bbbd 98dd 22bd e876 063e
00000180: 2a91 19be 72ba 90bd 72c5 b23c 4c77 503e
00000190: c58b 553e a7e8 e7bd 5188 37be 85eb 143b
000001a0: 6437 63be aefe ddbb a3f4 50be 062e 413e
000001b0: 676e 26bd 5c9f a0bd 875c 263e ecf0 883d
000001c0: 8ad2 62bd 56a8 b0bd 8bdc 2fbd 8ddc dfbd
000001d0: 41e8 99bc a8be d43c fbb9 1d3e 886e 8db9
000001e0: c1c9 1dbe 838e 02be 92f1 35be 385f 763d
000001f0: d164 523d 7a8d 513e 1f25 a7ba e8fb 443e
00000200: a1b2 8abe 2226 bf3d e317 d9bd a4da 533c
00000210: c525 3fbe 0db7 283e ca03 34bc 26b0 ecbc
00000220: f0f5 69be bf13 b03d f9bb a33d 321a 113e
00000230: 982f 5a3e e039 e4bb 4b27 76be 8e63 2c3e
00000240: 3864 e6bd 5b17 2ebe 7e3c e83d 787e b0bc
00000250: e0e4 b3bc e601 803d 29aa 0d3e 00d9 783d
00000260: 2f2b 58be 8107 6fbe 367d 9c3d 387d ccbd
00000270: 26bc 44be 19b4 f7bd 1b74 623e fe34 f53d
00000280: 1f67 b7bd b108 67be 207e be3d c61e b0bc
00000290: 08e2 583e 1333 2cbe a817 23be 7105 8abb
000002a0: eb64 63bd 900a 513d 62e7 cabd 1c2f 9c3d
000002b0: 533c 00bd 5ff3 76bd 0fe7 4a3e 0465 4e3d
000002c0: 41fd 383e 2fb0 903c c7fc 0a3e bb3a 65be
000002d0: ee2a c5bd 96ad d8bd 1823 45bc 4baf e8bd
000002e0: a6d2 0abe 2488 593e a628 0fbe cc97 c0bc
000002f0: 9f37 6a3d 51c9 4abc 8799 7a3e c584 913d
00000300: 1b42 0ebe dfbc c53d 80be 13be 62ec 25be
00000310: 0ee7 423c 9780 0e3e ae7d 303e 5bd5 a03c
00000320: 9314 fabb 73cf 89bc 06ac 393c 3c02 a5bb
00000330: 0fbd 4e3e dc02 80bc 5bf5 05be eb21 3c3e
00000340: 6a11 12bd a79d a93c d7b5 283e 4897 46be
00000350: e4df 1abb de64 3e3e b368 433d 30ab 133e
00000360: fce5 0e3d 165f 2cbc 4333 983d b542 81bd
00000370: ea05 1ebb bde8 06bd 8fe2 9a3d 2c3e c83d
00000380: ccda 1ebe 8dae 2f3c 4d2a 313e 8c0a 1bbc
00000390: 299b 513e 3a0b 11bc 3560 38bd c849 48be
000003a0: 0548 12be 7eb3 213e 3fe8 cbbd 5edc 123e
000003b0: d4b7 15be 6bff 3cbe 638c e9bc 3663 733d
000003c0: 83e3 a83d 3df5 b7bd db2a 0d3e f11d 823b
000003d0: 6491 3cbe 9888 73be 9339 493d 08fc 3fbd
000003e0: 0bc8 c0bd 12d3 ad3d 92f1 a2bd 5b40 c5bd
000003f0: e759 c73d ee35 393e 1325 033e 9427 a33c
0.018074287 -0.04207141 -0.13884279 0.2006617 0.06644075 -0.14021409 -0.085657075 0.15111786
0.23903926 -0.04354879 -0.064532295 0.124921456 0.0072647007 -0.21974574 0.010190993 -0.046632245
0.055501573 0.22311744 -0.101867855 -0.033560846 0.1526774 -0.15881978 -0.15810667 -0.17224425
0.0015551778 0.14646071 -0.16244686 0.086594306 0.011101621 0.20070864 -0.15274419 -0.17967957
0.0032938272 0.22668317 -0.016836109 -0.02683387 -0.1798192 0.15601109 -0.008088111 0.112295225
0.079811506 -0.13538751 0.06106786 -0.14325255 0.1612936 0.06783535 -0.07832394 -0.07732831
0.0043642363 0.16487117 -0.2045089 0.15181716 0.12045255 0.050791033 -0.064672716 0.1847949
-0.0063202064 -0.06011477 0.14061637 0.010767834 -0.093933895 -0.1007621 -0.025078673 -0.120725185
-0.042222206 0.044437613 0.06951246 -0.09728938 0.016636396 0.100812554 0.2109312 -0.027739596
-0.056971945 0.1546758 0.07621703 -0.09529095 0.093316875 0.0967925 -0.14846654 0.074182704
0.0018665743 -0.16807377 0.045440968 -0.16671082 -0.0762041 0.22222038 0.17452444 0.053684425
-0.01724582 -0.13094403 0.07922091 -0.061990328 -0.113354005 -0.09156506 -0.03976211 0.13131297
-0.14996782 -0.070668116 0.021822665 0.20358008 0.20854099 -0.11323672 -0.17923094 0.0022723388
-0.22189099 -0.006774745 -0.20405822 0.18865213 -0.04063263 -0.078428954 0.16246234 0.06686577
-0.055376567 -0.086258575 -0.042934936 -0.109307386 -0.018787505 0.025969818 0.15402977 -0.00026975968
-0.15408994 -0.12749676 -0.17767933 0.0601494 0.051365677 0.20464125 -0.0012752152 0.1923672
-0.27089408 0.09333445 -0.10600259 0.012930546 -0.18666752 0.16476078 -0.0109872315 -0.028892588
-0.22847724 0.08597516 0.07994837 0.14170149 0.21307218 -0.006964907 -0.24038427 0.16834852
-0.11249584 -0.17001097 0.11339663 -0.02154468 -0.021959722 0.06250362 0.13834442 0.060753822
-0.21110223 -0.23342706 0.076410696 -0.09984821 -0.19212398 -0.12094898 0.22114603 0.11972998
-0.08955216 -0.2256191 0.093014 -0.021499049 0.21179974 -0.16816358 -0.15926993 -0.0042120744
-0.055516165 0.051035464 -0.09907414 0.07626173 -0.03130753 -0.06029069 0.19814704 0.050389305
0.18065359 0.017662136 0.1357299 -0.22385685 -0.09627329 -0.10579984 -0.012032293 -0.113615595
-0.13556919 0.2124334 -0.1398035 -0.023509882 0.05718195 -0.012377099 0.24472629 0.07105402
-0.13892405 0.09655165 -0.14428139 -0.16203454 0.011895908 0.1391624 0.17235443 0.019632986
-0.007631847 -0.016822552 0.0113325175 -0.0050356667 0.20189308 -0.015626363 -0.13081877 0.18372314
-0.03566114 0.020705057 0.16475616 -0.19393647 -0.0023631984 0.18593165 0.04770727 0.14420772
0.0348873 -0.010520717 0.074316524 -0.063115515 -0.0024112412 -0.0329368 0.07562744 0.09777483
-0.15513152 0.0107227685 0.17301293 -0.009462964 0.20469345 -0.008852774 -0.045013625 -0.19559395
-0.14285286 0.15791127 -0.09956407 0.14341876 -0.14620906 -0.18456809 -0.028509324 0.059420787
0.082465194 -0.08982322 0.1378588 0.0039708545 -0.18414837 -0.23782575 0.049127173 -0.046871215
-0.09413155 0.08487524 -0.07956232 -0.096314155 0.097339444 0.18086979 0.12807111 0.019916333

gru.bias_ih_l0 f4 [192]
00000000: be5e 49be 5262 163e 1694 0ebd 3ecb 253e
00000010: a5a6 6d3c 015c c03d 25d8 9b3d f8a1 a83d
00000020: 93b9 9d3d fd53 f33d bfdd 8f3d 4c86 fabd
00000030: 0cf5 033e a488 583e 169e de3d 3038 143e
00000040: e1bb 3b3e 29a1 8b3d c5ba 87bd b634 1d3e
00000050: 9679 293d ea8a f33d 1feb 1e3e ed3c 113e
00000060: 9e84 c33d 0ab0 3b3d 1a5b 0abd 34cb 2d3c
00000070: e69f 3d3e c19e a93b 2baf 213d 2164 893d
00000080: 3176 363e 33be d73d cf0a 1d3e 41ad 64bd
00000090: a4eb d93d 1242 443d 992e f43d 4411 723e
000000a0: 6cea 363e ab3b b53c 69c5 7d3d b4c9 c4bc
000000b0: e692 6f3d aa5a 11bc 3d73 14bd a0e8 00bd
000000c0: 9ab9 e5bc 8724 403d 2770 df3d 2f00 6c3e
000000d0: bcb8 233e 9f07 013d 16ee 113e 7609 933d
000000e0: 62d7 c8bc c182 1fbe a837 3a3e 0499 b9ba
000000f0: 6289 b83d 90ce 873b ec1f ff3d e6a3 c1bc
00000100: 292e 45be 672c 343d db47 bf3e 358b 343e
00000110: d9c3 e2bd ce93 0bbe 2143 0c3c 043d 25bd
00000120: ad1b c73d 8228 90be 43ff 83bd c3fd 25be
00000130: 14d8 83be 5990 2abe 19e4 54bd dd15 21be
00000140: 6e64 533d 4998 01be eb42 37bd 126c a3bd
00000150: af9c 573e a191 c33c 81de 703c 2efd 0dbe
00000160: b977 a4bc 2e82 c6bc aa76 90bc eee5 e53d
00000170: 6df8 0dbc 364b a63c 7ec8 30bd 13b6 73be
00000180: 457e 0a3e a9fd bebc 0bdf 193e 0277 3bbe
00000190: 8b96 29be 4f0f 2fbe 19c5 d13c 51b2 683e
000001a0: d8ee dcbd d637 f73d 381e 243c 08f4 6d3d
000001b0: bed8 f43c 528b 12bd 0257 a2bc fd21 303d
000001c0: 8858 ebbd ce7c a03d 527d af3d 5dd0 96bd
000001d0: 2d11 2fbe 2e02 8f3d 5972 993d aa36 c1bd
000001e0: d102 8ebd 909e 28bc ce08 073e 4c8b 483e
000001f0: 32b3 3abe 4567 34bd 9d32 85bd b974 c03d
00000200: b1fc 06be 358d e03d 7731 953c 9dca 07be
00000210: 5980 2cbe 7ba7 143e b695 e13d 9d07 54be
00000220: 8309 27be fd59 2e3e 4545 643e a4de 463d
00000230: 411e 1f3e 8061 123e da61 2bbe 0959 1b3e
00000240: 63a3 29be 6645 23be 634f 323b ae6e 363c
00000250: 7b08 32be 87c0 293e fa8e 483e 8ac6 3c3e
00000260: d80b 09be 6899 fa3c 492b 0d3e 4745 5fbe
00000270: 2f8c 42be 8e08 0bbe e3d7 263e 1aa6 4d3e
00000280: c1a5 83be d6e8 73be cd32 3abc e5ba 4e3e
00000290: 450d 1c3e 1c50 19be 7ee3 16be f30a 11bd
000002a0: 92ee 44be dd87 ad3d a3ed 53bc 4f53 383e
000002b0: 1b30 12be 6578 2bbe 4cee 6c3e c2b4 263d
000002c0: 4584 d03d 0004 fcbc 0e8b 0b3e 301a f7bd
000002d0: b9d4 69be 68b2 8fbd f289 363e 776e 60be
000002e0: 205b 02be de27 fe3d 7f78 fbbd f63e 5ebd
000002f0: 2eb5 cd3d 0c48 5e3e ecf8 3e3e c315 633e
-0.19665048 0.14685944 -0.034809195 0.16190812 0.014505063 0.09392548 0.07609586 0.08234018
0.07701411 0.11881254 0.070247166 -0.12232646 0.12886447 0.21145874 0.10869996 0.14474559
0.18333389 0.06817848 -0.0662742 0.15352139 0.04137572 0.1189173 0.15519379 0.14183398
0.09546779 0.04582218 -0.033778287 0.010607529 0.18518028 0.0051763956 0.039473694 0.06708551
0.17818524 0.105343245 0.15336154 -0.05582929 0.10640648 0.047914572 0.1192295 0.23639399
0.17862862 0.022123178 0.061955843 -0.02402196 0.058489703 -0.008871714 -0.036242712 -0.03147185
-0.028042603 0.046909835 0.10910063 0.23046945 0.1598844 0.03150141 0.14250979 0.07179539
-0.024516765 -0.15577222 0.18185294 -0.0014159982 0.09010579 0.004144497 0.124572605 -0.023637723
-0.1925589 0.043987658 0.3735951 0.17631228 -0.11072511 -0.13630602 0.008560927 -0.040341392
0.097220756 -0.28155905 -0.06445172 -0.16210084 -0.25750792 -0.16656627 -0.051975343 -0.15730996
0.05160945 -0.12655748 -0.044741552 -0.07979597 0.21055864 0.023873152 0.014701487 -0.13866112
-0.02007662 -0.024231996 -0.017634708 0.11225496 -0.008665186 0.020299535 -0.043159954 -0.23799925
0.1352473 -0.023314314 0.1502649 -0.18307117 -0.16561334 -0.17095684 0.025606679 0.22724272
-0.10787743 0.12071197 0.01001697 0.058094054 0.029888507 -0.035777397 -0.01981688 0.043001164
-0.11491495 0.078363046 0.08568825 -0.07363961 -0.17096396 0.069828376 0.07492513 -0.094342545
-0.06934131 -0.0102917105 0.13186952 0.19584388 -0.1823242 -0.044043798 -0.06503794 0.09397263
-0.13182332 0.10964433 0.018212063 -0.13260885 -0.16845836 0.14517014 0.11014883 -0.20706029
-0.16312222 0.17026515 0.22292049 0.04855217 0.15538885 0.14295006 -0.16736546 0.15170683
-0.16566233 -0.15944442 0.0027207963 0.0111347865 -0.17386048 0.1657735 0.19585791 0.18435112
-0.13383424 0.030590728 0.13786043 -0.21803771 -0.18998788 -0.13577482 0.16293292 0.20082894
-0.25712398 -0.23819289 -0.011364651 0.20188482 0.15239437 -0.14971966 -0.14735219 -0.035410833
-0.19231632 0.084731795 -0.012935075 0.1800053 -0.14276163 -0.16745146 0.23137778 0.040699728
0.101814784 -0.030763626 0.13627264 -0.12065542 -0.22835054 -0.0701645 0.1782606 -0.21917139
-0.12730074 0.12409948 -0.12278842 -0.054259263 0.10044323 0.21707171 0.18649644 0.2217627

gru.bias_hh_l0 f4 [192]
00000000: 9f89 f7bd 6ba1 513e 5d3b c03c a432 74bb
00000010: cbe6 073e f31c 483e e070 a63d 73ab b93d
00000020: 9b77 493e ff29 ce3d 809f 543d ca25 01bd
00000030: 2f61 0f3e 622c 693d 6c49 1f3e 0d67 623d
00000040: c595 4e3e 9ad7 bf3d 6851 2abe 98f8 223e
00000050: c69f e2bd 9bdc 813d b1eb a73b b03e 363e
00000060: 8056 053e 9e36 633d ee8c 363e 46e3 543d
00000070: 94ee d63c 950c 083e 5b1c 43bb 8728 173e
00000080: 7846 6cbc 53b0 693e 1105 4c3d b838 f33b
00000090: c8bc 573e 0d2a 403e 7364 053e f422 f13d
000000a0: 475e d43d 74cf 253e d04a f73c bfbb 8e3d
000000b0: 869b 383e 7a69 7b3c 2882 1e3a bd6c b7bc
000000c0: 2d4b 73bd ab00 d8bb 9f33 3b3e d2b7 f83c
000000d0: 58d3 b63d f1cd cb3c 7295 073e a71d 3a3e
000000e0: 2987 34bc 9fd5 fdbd 3c7f ae3d 3817 65bd
000000f0: 8bc5 153e 28ab ed3d a37a 3abd 5a9b b23c
00000100: aab8 bf3b 29c7 ccbd 2141 ea3e e59b a63e
00000110: ffec 1e3d 1c25 0bbe bac4 3abe ce4e 8cbe
00000120: 855e ba3d 5c1a 2ebe a319 36be 76d2 bbbd
00000130: 1a6f 6cbe d965 9ebd 6269 2abe 900a 47bd
00000140: 5a8a 87bd 87d1 24be d312 80be c938 52be
00000150: 54a9 7c3e b738 3dbd b8dc 5fba 8666 6dbd
00000160: 8dc2 08be 516b 10be fd0c 12bd bbf7 07bd
00000170: 0754 00be a6fc ea3d 32df 0b3e 9931 85be
00000180: 2d7a 993d b046 153d 594c 9a3d 035f a8bb
00000190: fe98 eebd ac90 fabd 793f 06be 604d aa3e
000001a0: 4cdd 13be ca94 d23c 3aa3 5b3c c023 5fbd
000001b0: 8ae5 18be 9610 6ebd f032 a3bd 8df3 523d
000001c0: cfce 043d 4b35 e3bc fd49 153e db57 47bc
000001d0: 6888 4cbd 6f80 2bbe 3fdb 32bc ae87 39bd
000001e0: 58fc 11be b45f f9bd 7845 5cbb 4078 213e
000001f0: 92cc ecbc 750a 243e 919f 6e3d 08c6 c83d
00000200: d31c 32be 9981 523e 51ad d1bd f1e4 cbbb
00000210: 3dc1 5fbe c527 6d3e 472d 393e c5b4 27bd
00000220: d1ca 59be 2e1b 733e 2f59 133e e0a7 85bc
00000230: 13f8 673e e358 3a3e 3426 4fbd f09b 4c3e
00000240: 9586 1ebe 3391 18bd 9202 d13d b9ba d1bd
00000250: 93d3 0cbe 0419 0b3e 8dcd 473e ab3a 9c3c
00000260: 0b16 0ebe df2e 0ebe 321f 3e3e c7ea 0fbe
00000270: f6e9 0ebe ef2b 43be 507f 0e3c ad8f b03d
00000280: e9a8 8abc db99 60be 3aa6 8cbd c0aa 873c
00000290: 1c76 1b3e 1e2e f9bd d810 06bd 700d acbd
000002a0: 03d4 a3ba 81b2 3a3e 34e1 e0bd 5218 043e
000002b0: 6877 23be db42 3dbe 1887 ca3d 2f0d fe3d
000002c0: 3739 943b 7fb3 09be 1c0b 13bd b60c 76be
000002d0: ca3f 19be 5cbb 19be 3a2a b93d beb4 8cbb
000002e0: 05dc ccbd edb1 39bb c495 0bbe dad2 bc3d
000002f0: 7951 6b3e 43fd 593d 04a8 193e ac52 383c
-0.12086796 0.20471732 0.023465807 -0.003726163 0.13271634 0.19542293 0.08126998 0.090659045
0.19674532 0.10066604 0.051909924 -0.03153018 0.14001916 0.056927092 0.15555352 0.055274058
0.2017432 0.093672946 -0.16632617 0.15915143 -0.110656306 0.06340905 0.005124532 0.17797351
0.13021278 0.05547201 0.17827198 0.051974557 0.02623681 0.1328605 -0.002977154 0.14761554
-0.014421098 0.22821169 0.04980952 0.007422533 0.21068108 0.18766041 0.130266 0.11774245
0.103695445 0.16192418 0.03018704 0.069694035 0.18028077 0.015344972 0.00060466165 -0.022390718
-0.059397865 -0.0065918765 0.1828141 0.03036109 0.08927029 0.024878474 0.13240603 0.18175374
-0.011018553 -0.123942606 0.08520362 -0.055930346 0.14626138 0.11604911 -0.04552711 0.021802593
0.005850871 -0.09998924 0.45752814 0.32540813 0.038800236 -0.13588375 -0.18239108 -0.27403873
0.091000594 -0.17002243 -0.17783217 -0.091710016 -0.23089257 -0.0773427 -0.16641763 -0.048594058
-0.06618185 -0.16095553 -0.25014362 -0.20529474 0.24673969 -0.046196666 -0.00085396646 -0.057959102
-0.13355465 -0.14103438 -0.035656918 -0.03319524 -0.12532054 0.1147397 0.13659361 -0.26014403
0.07494006 0.036444366 0.075340934 -0.0051382794 -0.11650275 -0.12234625 -0.1311015 0.33262157
-0.14439887 0.025705714 0.013405615 -0.054477453 -0.14931312 -0.058121286 -0.079687 0.0515018
0.03242379 -0.027735373 0.14579006 -0.0121669425 -0.049934775 -0.16748212 -0.01091653 -0.04529541
-0.14256418 -0.12176457 -0.0033610743 0.15768528 -0.02890614 0.16019614 0.058257643 0.098033965
-0.17393808 0.2055725 -0.102381356 -0.0062223603 -0.21851058 0.23159702 0.18083678 -0.04094388
-0.21268775 0.23740837 0.1438949 -0.0163154 0.22653227 0.1819797 -0.050573543 0.1998136
-0.15481026 -0.037247848 0.102055684 -0.10240693 -0.13752584 0.13583761 0.19512005 0.019070944
-0.13875596 -0.13885067 0.18566588 -0.14054404 -0.13956437 -0.19059728 0.008697346 0.08621154
-0.016926246 -0.21933691 -0.06867643 0.016560912 0.15181774 -0.12166999 -0.032730907 -0.084010005
-0.0012499098 0.18232156 -0.10980454 0.12899902 -0.15963519 -0.18482535 0.09889048 0.12404858
0.004523422 -0.13447379 -0.035899267 -0.24028286 -0.1496574 -0.15012878 0.09041257 -0.004294007
-0.10002903 -0.0028334812 -0.1363135 0.09219904 0.22980298 0.053220045 0.15005499 0.011250179

notes_decoder.weight f4 [128, 64]
00000000: 42cb 7d3d bf90 c0bd f090 1f3e 799d 383e
00000010: 43a6 3b3e 57b6 64bd ece6 39bd 889b 973d
00000020: cd2d 0e3e 76ff 43be b441 8abe 6f2b a33c
00000030: 4ebb a6bd 77e1 8fbe a674 523d c71d 5abe
00000040: 0808 6d3e 6ceb 973d 43c9 883d c512 253d
00000050: 01cc 943e 4adc 38be 9ae0 8cbe 0306 29be
00000060: 9850 903e 2e0f 413e e469 3ebe 5978 413e
00000070: eb03 253e 5d11 033e 0bbd 34be 4e55 febd
00000080: 98bc 173e d7aa 113e 5872 80bd 44ed 85be
00000090: 4e8b 3cbe 8fc2 443e 89c9 1a3e 6fb4 5b3e
000000a0: f935 c53d 2366 43be a2a4 0a3e 4ceb 75be
000000b0: 55ff 493d 5eb7 8e3e 7b2d 2cbe 9f24 56be
000000c0: f181 fb3c d7ba 333e 658a eebd f221 643e
000000d0: 71ee 103e 6a76 ff3d 6315 40be 90e9 f83d
000000e0: 195c 7b3e c05f febd 50f2 0c3e 2429 ae3d
000000f0: 7bf6 e3bd c699 f9bd 0fb5 d2bd 7c70 82bd
00000100: cf46 383d 6aa5 80bd 949b 1f3d ead3 483e
00000110: a08f f53d a630 8ebe 86a5 dfbd 8c82 143e
00000120: 8460 2b3e ba78 85be c64c 1cbe fd56 e83d
00000130: 36ae acbd 6dba 93bd 3d53 8c3e 9c14 20be
00000140: 47e8 943e a3a6 8a3e 193f f1bc fac2 123e
00000150: 4db8 483e b8e8 f5bd 3570 c7bd fb86 5cbe
00000160: 7c1c b73d 4864 5f3e fbdd 4cbe 94df 3c3e
00000170: e8c6 933e c4d1 063e d81e 1ebe ab99 44be
00000180: b5b5 183e 914b 063e 3ee4 0cbd b64e 27be
00000190: 51b1 4fbe 02c0 583e 9153 093e f8ef 353e
000001a0: 613a 383e 87bc 59be 7d8d 4b3d d3d8 a7bd
000001b0: 4bf6 8d3e c4f2 c73d 63a9 4ebe 2793 61bd
000001c0: 1f6c 913c 3d8a b73d a098 17be a63d 2a3e
000001d0: 0169 293e 3a43 4a3e 8422 59be d7d4 1f3e
000001e0: 38bb 913e 1914 833b 0084 6a3e 608b f93c
000001f0: ab93 83be 931e 81bd ecb4 08be 2999 02be
00000200: c1c4 24bd 3332 53be 26fd 333e 3e5a 753e
00000210: faa5 833e 0126 b8bd 0304 92bd b710 573e
00000220: 2652 973e 6713 98bd 1f97 26be 7d10 96bd
00000230: 3e2b 88be f7d1 88be bc7b 113e 9fa9 e2bd
00000240: 61fe b73d 88b4 ae3d 4fe5 a13c 4154 b73c
00000250: 2667 5b3e 6c26 d7bd d94b 2abe edc7 75be
00000260: c2b6 8c3e ff70 563e 92ef 4abe d676 6b3e
00000270: 395b 723e 48ac 473e c954 2fbe d5e9 3fbe
00000280: 4609 b53d 70aa bf3d 6d00 37be 62c6 5cbe
00000290: f69c 50be da7f 293e ef55 203e 310b 273e
000002a0: 3be6 4d3e ac01 50bd 7566 703d e08d e0bd
000002b0: c461 8f3e b312 3c3e 612d 80be 8fe8 57bd
000002c0: 2cd4 ef3d 04c5 fe3d e4a7 4ebe aaee 1b3e
000002d0: 43fa 7e3e 0b05 493e 70ac c2bd 9db8 053e
000002e0: 5039 2c3e e418 06bd 3685 af3d 8006 123e
000002f0: 4caa 08bd d9d0 8cbd 3208 aebd c5fa 2bbe
00000300: cdfc 283d 0127 2abe 9954 6a3e 20fb c83d
00000310: 7887 b83d 391b 13be 9632 9bbd d37c a23d
00000320: df1b 7c3e b4bd ffbd 8939 67be d290 613d
00000330: 2feb 7ebe 7f95 81bd 02d9 8a3e 582e 10be
00000340: 3ae0 0a3e d47e 9f3d da8f 933d 8038 6f3e
00000350: abd2 023e 28c7 ebbd 3515 8ebe 9b9f a2bd
00000360: 70c6 653e f9c6 5d3e d201 4fbd efc3 953e
00000370: c61d bb3d a5ce 863e be4f 3dbe 3488 93be
00000380: dde5 633e f8df 8f3e cb51 aabd 6586 7dbe
00000390: 87d0 93bd fac9 383e 7d84 8d3e 0ee9 1f3e
000003a0: 0c92 7f3e af27 01be 31f1 04bc 50d3 f1bd
000003b0: 2a82 4a3e ce5d e83d 13fa 8fbe 60e2 26be
000003c0: 7d1a 77bd 38d4 ab3d 4913 58be d8bb 6e3d
000003d0: 382b 5c3d a948 033e b009 99bd 68eb 403e
000003e0: 2ac3 123e be9b 133d 2d8a 8a3e 51a6 71bc
000003f0: 2a76 04be 6dad debd 6074 babc 9bee 94be
0.06196142 -0.09402608 0.15582633 0.18028821 0.18325143 -0.055837955 -0.04538624 0.07402712
0.13884659 -0.1914042 -0.27003253 0.019918172 -0.08141194 -0.28101704 0.051380776 -0.21300422
0.23147595 0.0741795 0.066790126 0.040301103 0.29061893 -0.18052784 -0.27515107 -0.165062
0.28186488 0.18853447 -0.18595082 0.18893565 0.16114776 0.12799592 -0.17650239 -0.12418614
0.14818037 0.14225326 -0.06271809 -0.26157582 -0.18412516 0.19214843 0.15115942 0.21455549
0.09629435 -0.19081931 0.13539365 -0.2401554 0.04931577 0.27874273 -0.16814224 -0.20912407
0.03070161 0.17551742 -0.116474904 0.22278574 0.14153458 0.124737576 -0.18758158 0.121539235
0.24546851 -0.124206066 0.1376431 0.08503941 -0.11130997 -0.12187533 -0.102884404 -0.06369111
0.044989403 -0.0628155 0.03896673 0.19612089 0.11990285 -0.2777149 -0.10920243 0.14502925
0.16736037 -0.2606867 -0.15263662 0.11344717 -0.084316656 -0.07213292 0.27407256 -0.15632862
0.29083464 0.2708026 -0.029449033 0.1433219 0.19601555 -0.12007278 -0.09738199 -0.21535866
0.0894098 0.21815598 -0.20006554 0.18444663 0.2886269 0.13165957 -0.15441453 -0.19199245
0.14913066 0.13114764 -0.034397356 -0.1633862 -0.20282485 0.21166995 0.13410784 0.17767322
0.1799102 -0.21263324 0.04969548 -0.08195653 0.2772697 0.09763101 -0.20181803 -0.055071976
0.017751751 0.08961914 -0.14804316 0.1662508 0.16543962 0.19752207 -0.21204573 0.15608536
0.2846315 0.0040001986 0.22901917 0.030461967 -0.256986 -0.0630466 -0.13350266 -0.12753738
-0.0402267 -0.20624618 0.17577037 0.23960206 0.25712568 -0.08991624 -0.071296714 0.2100247
0.29554862 -0.07425576 -0.16268586 -0.07327364 -0.2659549 -0.2672269 0.14207357 -0.11067509
0.08984066 0.08530527 0.019762663 0.022379043 0.21426067 -0.10505375 -0.16630496 -0.24002047
0.27483183 0.20941542 -0.19817951 0.22994551 0.23667611 0.19499314 -0.17122187 -0.18741544
0.088396594 0.0935868 -0.17871256 -0.21560052 -0.20372376 0.16552678 0.15657781 0.16312863
0.20107357 -0.050782844 0.05869146 -0.109645605 0.28004277 0.18366508 -0.2503462 -0.05271202
0.117103904 0.124399215 -0.20181233 0.15227762 0.24900155 0.1963083 -0.09505546 0.13058706
0.16818738 -0.03273858 0.0857033 0.14260292 -0.033365533 -0.06875772 -0.08497657 -0.1679488
0.041256715 -0.16616441 0.22883834 0.09813523 0.090102136 -0.14365853 -0.07578008 0.079339646
0.24620007 -0.12487355 -0.22580542 0.055069752 -0.24894403 -0.06327342 0.2711869 -0.14080179
0.13562098 0.077878624 0.07205172 0.23361397 0.12775676 -0.115125954 -0.27750555 -0.079405986
0.22438979 0.21657933 -0.050538845 0.29251048 0.09136538 0.26329532 -0.1848745 -0.28814852
0.22255655 0.28100562 -0.08316382 -0.24758299 -0.07217508 0.18045798 0.27640143 0.15616247
0.24958056 -0.12612794 -0.008114145 -0.11807883 0.19776216 0.11346017 -0.2812048 -0.16297293
-0.060327996 0.08390087 -0.21101107 0.05828461 0.053752154 0.12820686 -0.07472551 0.188398
0.14332262 0.0360372 0.27058545 -0.014749126 -0.12935701 -0.10872922 -0.02276057 -0.29088292

notes_decoder.bias f4 [128]
00000000: 2fda fabc a94c 37be 6e71 0fbe 03f2 75be
00000010: f814 10be 4296 12be 864d 4dbe b38d 33be
00000020: b6b3 70be 8066 7fbe 6f5b 19be a297 63bd
00000030: df4f 41bd 4b4a 3cbe 192d 68bd 9d20 62be
00000040: 9d5e 33bd 6978 4dbe 6f5a 5ebd e29c a4bd
00000050: 7429 21be 0e10 febd 57f8 69bd 0346 0abe
00000060: 0d25 9ebd d5ee 46be 0207 a5bd 3581 afbd
00000070: d1fc c6bd eb42 06bd 54d6 2bbe a79e 50be
00000080: d85c 42be c8f0 f6bd 86e3 a0bd 8895 13bd
00000090: f095 04be fe54 84bd 8ece 1abd cb7c 59be
000000a0: 3d0c 3abe 3507 a3bd 83e1 74be cb5d 30be
000000b0: 5bef 62be 34f8 f2bd 4326 01be fd70 05be
000000c0: 8943 1cbe d6da 1dbd b52e 98bd a498 28bd
000000d0: d092 dcbc a60a 20be 1594 6bbe d55a 27be
000000e0: 3756 36be 434f 15bd 7a97 523b f63f 7bbe
000000f0: 613c 37bc 628f 14bd 0e6b 05bd 5795 12be
00000100: f257 89bc 5ea4 68be 786f d5bc 2f9c e1bd
00000110: a0fa 5ebe 4efa 40be 7309 19be eee2 30be
00000120: 4d06 57be 517b 6abd 3db8 ddbd a1fa 0fbe
00000130: 7c38 5bbe 7468 0ebd 0dd4 26be 7704 b5bd
00000140: 645f 5fbe 4068 61be 7e1b 4ebe b32a 59be
00000150: c397 30be 9026 eabd 700e 61bd 9492 46be
00000160: f05f 33bd 453b ecbd faf4 74be 8e4d 9bbd
00000170: 7549 31be d0ba 95bd ece8 4dbe 308c 83be
00000180: cb9f 86bd 843e 1bbc 51ac 40be d45b 3abe
00000190: 8670 37bd ac60 85bd 90ff 7ebd 1460 64be
000001a0: ba48 80be 2145 48bd bd91 80be a4ab 87be
000001b0: 7972 73be 0c9c e6bd fcb3 81bd 2e8e 11be
000001c0: 7db0 5bbe 9e1c abbd 2d0c a1bd 6bba 0dbe
000001d0: 37ee 4dbe dc2a 5cbe e0b4 66be cf3a 26be
000001e0: fd9f 8bbd f7bf 6cbe 4f81 07be 58e1 85bd
000001f0: 80af 36bd d341 4cbd 2888 4ebe 24a2 e8bd
-0.030621616 -0.17900337 -0.14008114 -0.24018101 -0.14070499 -0.14315131 -0.20049104 -0.17534523
-0.23506054 -0.24941444 -0.14976285 -0.05556453 -0.04719531 -0.18387716 -0.056683633 -0.22082753
-0.043791402 -0.20065464 -0.054285463 -0.080377355 -0.1573847 -0.12405406 -0.0571216 -0.1350327
-0.077219106 -0.19427045 -0.08057977 -0.08569566 -0.0971619 -0.03277866 -0.16780978 -0.20373021
-0.1898073 -0.12057644 -0.07855897 -0.036031276 -0.12947822 -0.064615235 -0.037794642 -0.21239011
-0.18168731 -0.07960359 -0.23914151 -0.17223279 -0.2216162 -0.11863747 -0.12612252 -0.13031383
-0.15260138 -0.038538776 -0.07430784 -0.041161194 -0.026925474 -0.15629062 -0.23005708 -0.16343243
-0.17806326 -0.036452543 0.0032133744 -0.24536118 -0.011183829 -0.036269553 -0.0325728 -0.14314781
-0.016765568 -0.22718951 -0.026054129 -0.11016118 -0.21775293 -0.18845484 -0.14945011 -0.17274067
-0.20998497 -0.05724651 -0.10826156 -0.14060451 -0.21408266 -0.034767583 -0.16291828 -0.08838742
-0.21813732 -0.22012424 -0.20127675 -0.21207695 -0.17245393 -0.114331365 -0.05494541 -0.19391853
-0.043792665 -0.11534742 -0.23921576 -0.07583152 -0.17313178 -0.07311022 -0.20108384 -0.25692892
-0.06573447 -0.009475354 -0.18815733 -0.18199092 -0.044785045 -0.06512579 -0.062255442 -0.22302276
-0.25055486 -0.04889405 -0.2511119 -0.2649814 -0.23774137 -0.11260232 -0.063331574 -0.14214393
-0.21454044 -0.08355068 -0.078636505 -0.13840644 -0.20110403 -0.21500725 -0.22529936 -0.16233371
-0.06817625 -0.23120104 -0.13232921 -0.065371215 -0.044600964 -0.049867462 -0.20169127 -0.11359051
