saved_models/generalist_BCE_1e-2_152.pth (torch_old, 167373 bytes, 8 tensors)

notes_encoder.weight f4 [64, 128]
00000000: 8146 abbd 36a3 65bd ba12 5c3d 6bea 8f3d
00000010: d930 91bd 493e 5ebd b8a1 093c 3dda 7bbd
00000020: 9bbf 7cbd 0064 aabb f818 76bc 4277 703d
00000030: d366 a7bd ecee 05bd 6035 3c3c ce73 673d
00000040: 3160 5cbd 4656 a8bd 1c92 92bc 98e2 913c
00000050: 7646 3b3d 3237 6cbd 3e43 abbd e0cf 923c
00000060: e756 b4bd 70f0 d73b 5670 313d 1003 ba3c
00000070: c2e1 773d 3c73 c5bc 3060 ca3c 409e 59bc
00000080: 6c95 4cbd 8ca2 d13c a15c 0dbf 1e39 163d
00000090: a0ee 333c 10df ec3b ff4f 423e d2ee a4bd
000000a0: 921a 023e 223b db3d 4307 2ebf 791e 90bd
000000b0: 7716 473f 5420 14be 4797 193d 566c cf3b
000000c0: 7fc1 713e 4fbd 263f dfb1 c73e 25c6 a2bc
000000d0: e450 4abd 0fe6 0e3d cfdc 2ebe 2eba 063e
000000e0: 870d 0e3f 5a01 063d d5d6 f93d 9bb5 bf3e
000000f0: 63aa ae3d ad8b 223f aad4 ad3e 5394 de3e
00000100: 7d7c 1f3e 51b0 03bc 7615 2cbd 4dba 873e
00000110: 9452 103f 3c2c 873e 99c2 043f 010a 443f
00000120: fd7f d73e b581 313e e114 c63e ddea c1be
00000130: 7958 793e 3d36 e83e 023c e4bc 4d0b 703e
00000140: 1d55 193e c9ee 273e 9068 79bc 22d7 dc3c
00000150: f182 34be e902 d2be e1b1 343d 9145 babe
00000160: fe9a fabd 31a5 903e d85c a0bd fd96 983d
00000170: 9c6e a7bc 949f e83c 006e fd3b 08e5 c8bc
00000180: 04eb 96bd 205c 54bb 6bf1 4fbd 95c6 9b3d
00000190: 5979 ac3d 4d47 ac3d 0ed7 d9bc 34c3 96bd
000001a0: 7021 69bc 320a 5d3d 3322 58bd beaf 303d
000001b0: 50f5 05bc a82c 34bc 39cf 0ebd d3c0 4fbd
000001c0: 727d 603d fc6e e43c 2232 313d 61d1 51bd
000001d0: c6b1 383d 24fb ea3c aeab 743d a6b8 5c3d
000001e0: 0072 593c 81c6 ac3d 8054 983b 2cba 89bc
000001f0: 6042 0d3c bcb0 39bd d252 793d a49d d63c
00000200: 815f a7bd 5a3f 753d a537 823d e0fa d53b
00000210: bfeb aebd f361 9b3d b033 c13c c804 96bd
00000220: 00dc df3b 9c25 bebc 8f75 803d b006 e1bb
00000230: a321 08bd baca 3b3d 2044 b13c 2032 4a3c
00000240: 2195 8ebd bbc9 a9bd 0872 da3c 800f 07ba
00000250: 8473 90bc c088 d9bb e05b 52bc a906 09bd
00000260: 3ef6 413d 6c15 d5bc 3c6a ddbc 52a5 8bbd
00000270: d8a2 923c 38fc c8bc c095 ae3b 4568 2cbd
00000280: 5e77 693d 6c62 cbbc fc3a ff3b f449 ed3c
00000290: dd0c f2bc 4033 913b 33e5 4ebc dbb3 37bd
000002a0: d16b 40bd e0dc ccbd d129 91bd 0006 42be
000002b0: 9e2e 87bd d51a 53bd 7e5f e0bd 0167 b6bd
000002c0: 2776 dbbd d6b3 29bd be3b a1bd 2637 27be
000002d0: 95a9 4bbc abf4 3bbd ec0c 53bd f8ad ebbd
000002e0: 41a8 d9bd 567b 9abd fb55 2bbe 997b dabd
000002f0: d34c 1dbe cf38 6fbd 82a8 1cbd 82d7 edbc
00000300: 6323 a9bd f5ed 7bbd 2144 3abe 1296 18be
00000310: 380c cfbc 8cfe 2bbe 5f63 9abd de8d 24be
00000320: c577 babd 538f dcbd 2da5 22bd c63a 5cbd
00000330: 5357 1bbd 6f10 8e3c fccb edbd 8441 c8bd
00000340: bd3b 14bd be44 00be 7e8b 2fbd 56e8 34bd
00000350: 1b78 0bbe fe71 86bc 9bd6 b8bb 88d3 bbbd
00000360: ba50 32bd a826 08bc 6439 8dbd 66d0 1a3d
00000370: 94d3 09bd ece3 bbbc f82e b3bc 01b0 9a3d
00000380: 8670 30bd 900a d73c ad62 13bd b14e 8a3d
00000390: e8eb 663c e26c 593d 0d6a 57bd e35b 813d
000003a0: faaf 383d ad0c 56bd 72f0 473d ba67 683d
000003b0: 47f7 24bd 5eef 513d a155 87bd 5c13 a5bc
000003c0: 1e74 a6bd c004 c8ba 3463 9cbd 65c5 9f3d
000003d0: c9a9 ae3d 0c4b d63c 9cc9 cabc c065 21bc
000003e0: c01c 7cbd 8ffc 0fbd 280d 02bc 322d 99bd
000003f0: 5ac5 363d 1ead 6b3d 1c20 f0bc 30f7 2e3c
-0.08363057 -0.056063853 0.053728797 0.070271336 -0.07089395 -0.05425862 0.008400373 -0.061487425
-0.061706167 -0.005199909 -0.015020601 0.058707483 -0.08173909 -0.032698557 0.011487335 0.056506924
-0.053802673 -0.0821958 -0.017891936 0.017808244 0.045721494 -0.057669826 -0.08362435 0.017921388
-0.08805638 0.0065899417 0.043320023 0.022706538 0.060518034 -0.0241028 0.024704069 -0.013282359
-0.049947187 0.025590204 -0.55219465 0.036675565 0.010982186 0.0072287396 0.18975829 -0.08053364
0.12705448 0.10704638 -0.6797983 -0.07037062 0.77768654 -0.14465457 0.037497785 0.0063300533
0.23608969 0.6513261 0.39002892 -0.019869873 -0.04939355 0.03488737 -0.1707642 0.1315696
0.5548939 0.032716133 0.12199179 0.3744324 0.085285924 0.6349438 0.33951312 0.43472537
0.15574832 -0.008037643 -0.042012654 0.26509324 0.56376004 0.26400936 0.5185943 0.76577765
0.42089835 0.17334636 0.38687804 -0.378745 0.24350156 0.4535388 -0.027860645 0.23441811
0.14973874 0.16399683 -0.015222684 0.026958052 -0.17628075 -0.41017845 0.04411495 -0.363812
-0.12236594 0.2825103 -0.078302085 0.07450674 -0.020438485 0.028396405 0.0077340603 -0.024523273
-0.073690444 -0.0032403544 -0.050767343 0.07606236 0.08421583 0.08412037 -0.026591804 -0.07361451
-0.0142291635 0.0539648 -0.05276699 0.04313635 -0.008176163 -0.010996975 -0.03486559 -0.050721
0.054807134 0.027884953 0.0432607 -0.05122507 0.045091413 0.028684206 0.05973404 0.053887032
0.013271809 0.08436299 0.004648745 -0.016812406 0.008621782 -0.045334563 0.06087 0.026198216
-0.08172513 0.05987487 0.063582696 0.006530151 -0.08541059 0.07587042 0.023584217 -0.07325131
0.006831646 -0.023211293 0.062724225 -0.0068672523 -0.033235203 0.045847632 0.02163893 0.012341052
-0.06962038 -0.0829043 0.026665702 -0.0005152151 -0.017633207 -0.0066386163 -0.0128392875 -0.033453617
0.047353975 -0.026011191 -0.027028196 -0.06818642 0.017899916 -0.02453433 0.00532791 -0.042091627
0.056998603 -0.024827205 0.007789014 0.028965928 -0.02954715 0.0044311583 -0.012627888 -0.044849258
-0.04697782 -0.10003066 -0.07088054 -0.18947601 -0.066006884 -0.05153926 -0.10955714 -0.08906365
-0.10715895 -0.04143127 -0.07872723 -0.16329631 -0.012430568 -0.04588763 -0.051525995 -0.11507791
-0.10627795 -0.07543056 -0.16732018 -0.10668106 -0.15361337 -0.058403786 -0.03824664 -0.029033426
-0.082587026 -0.06150623 -0.18190052 -0.14900997 -0.025274381 -0.1679632 -0.07538485 -0.16069743
-0.091048755 -0.107695244 -0.039708305 -0.05376699 -0.037925076 0.01734182 -0.116111726 -0.09778121
-0.036189783 -0.12526223 -0.04285764 -0.044166885 -0.13620035 -0.016411778 -0.0056408173 -0.09171206
-0.043534018 -0.008309998 -0.06895712 0.0377964 -0.033649042 -0.02293583 -0.021872982 0.07553101
-0.04307606 0.026250154 -0.035982776 0.067532904 0.01409433 0.053082354 -0.052591372 0.06316354
0.0450897 -0.052258182 0.04881329 0.056739546 -0.040274885 0.05125367 -0.06608129 -0.020150833
-0.08127616 -0.0015260205 -0.07636109 0.07801322 0.08528478 0.026158832 -0.024754338 -0.009850919
-0.061550856 -0.035152968 -0.007937707 -0.074793234 0.044621803 0.057538144 -0.029312186 0.010679051

notes_encoder.bias f4 [64]
00000000: 23bd e4bd 7e8f 2abe 94f5 26be 306b 313e
00000010: 09dd 6fbd 99ed 2bbe 36ad 43be 802d 0d3e
00000020: 956a 203e 74e2 413d 7e01 023e 954f a23d
00000030: 7d90 e9bc 219e 173e 4c31 ad3d 2a09 37be
00000040: 4f81 2cbe fcda 30be 6727 0fbe f93d 143e
00000050: cae6 37be 575f 25be 8287 ff3d e6e8 6cbe
00000060: 69a7 463e 9188 523e d7b0 453e e6cd 52be
00000070: 8793 1f3d 8b92 dabd 4411 b33d 34fc 0bbe
00000080: ae8e a13d a5d3 413e 4055 05be 2d46 f5bd
00000090: 39d0 953c 0b90 fb3d ddb7 0f3e cd05 e4bd
000000a0: e440 4cbd fad4 59be 7771 863d e0a8 31be
000000b0: b5fb 933d 2b7a 46bc c5a8 273e 30c8 033e
000000c0: 9d3d 1e3e 7c8e 2c3e 63ef 4ebd 678a 113e
000000d0: 8f29 443d 93bf 093e 3a7d 343e 780f dfbd
000000e0: f019 2c3e 432b 833d e5e3 fcbd f938 293e
000000f0: 624b 383e 1696 0e3e 3be3 e7bd 9966 54be
-0.111688875 -0.166563 -0.16304618 0.17326045 -0.058560405 -0.16789855 -0.19109043 0.13786888
0.15665658 0.047335103 0.12695882 0.07925335 -0.02851128 0.14806415 0.08456668 -0.1787459
-0.16846202 -0.17271036 -0.13979875 0.14476766 -0.17959133 -0.1614965 0.12477018 -0.23135719
0.193998 0.20559908 0.1930574 -0.20586357 0.038959052 -0.10672482 0.087435275 -0.13670427
0.07888542 0.18928392 -0.13020802 -0.119762756 0.018287765 0.122833334 0.14034982 -0.11133919
-0.049866572 -0.2127265 0.065646105 -0.17349577 0.07225744 -0.012114088 0.16372974 0.12869334
0.15453191 0.16851228 -0.050521266 0.14212953 0.047891196 0.13451986 0.17625895 -0.10891622
0.1680677 0.06404736 -0.12348155 0.1652564 0.17997506 0.1392444 -0.11322638 -0.20742263

gru.weight_ih_l0 f4 [192, 64]
00000000: 6488 343d 17e5 653e 6b61 783e 4224 30bb
00000010: b85b cc3c 416c 383e 40c0 053e 630f 3cbc
00000020: ad9f 6ebe b445 a7bc 5b86 443d fade dbbc
00000030: 6925 9d3d aade 42be f71f 6fbd a684 413d
00000040: f94c 583e 6c4a 353d 8ca3 413e 5708 e3bd
00000050: 4585 f23d 60c9 243e d7fc 65bd 998f 323e
00000060: c330 65be 7c43 edbd 1232 34be 08cf 2d3e
00000070: 41e5 11be 0139 283e 3041 5bbd e145 313d
00000080: 16a5 3cbe 2536 5abd c227 193e 0621 2c3e
00000090: 42f2 88bd cbc9 33be ef6f 73be 4121 3f3d
000000a0: 6430 013e 5a22 d83d 5e4e f13c 8749 92bd
000000b0: 2c6e 46bc d6a1 7d3d ba35 10be 1660 4abc
000000c0: 8c20 ae3c 5ba6 60be fb79 f2bd 32c5 07be
000000d0: 4ce1 473d 726d 36be 9d52 b2bd 7157 9b3d
000000e0: 1b8b 2bbe bddb d0bc 5af6 f53d be14 ecbd
000000f0: f8db 80be 4d3e dfbd 8880 d33d 4412 293d
00000100: 0381 2c3d c06d 68be c898 a3bd 491e 243e
00000110: 4fdb 30be 6097 15be 13e9 2fbd b760 343e
00000120: 4ba9 d5b9 6bec b4bc c38f 5b3c adab 813d
00000130: 0cb3 a73c c0a7 c53d fb2b 923b 8853 d2bd
00000140: 866a d2bb d8d4 343c cff4 213b a730 113e
00000150: e312 52be 63bf 5dbe 53ec e6bc 87ec 4fbd
00000160: 52e2 5f3e b9d5 fa3d 1454 003e 323b c0bd
00000170: c603 243e 41a9 8ebd 3d39 383e 5fae f9bd
00000180: f594 15bd 4300 043d c26a 16bd d6d4 89bd
00000190: 7f29 de3d f666 423e 4349 c83d 79c1 21be
000001a0: 7875 21be c883 f3bd 44d2 863d a75b 943c
000001b0: f9d6 2b3e 8a67 c53d 03fe dc3d 2085 143e
000001c0: 44a1 233e 4fa5 193e d778 883d 490d 103e
000001d0: 2acf 2bbd 8a65 e63d f4e3 023d 086c 0abe
000001e0: 762f 5b3c fe43 b5bd 2b67 32bd 0096 28bb
000001f0: f3f9 5e3e dcce b23d f7bd 82bd 7990 e9bd
00000200: efea 703e 8d88 c1bd 91e8 47be d0c1 0f3e
00000210: a083 1abe 2ce0 cb3c d213 88bc ffde 2a3e
00000220: ff4d bf3d ea48 533e 1b4a fbbd adaa 233e
00000230: 7206 14bd 344d e4bc 67fd c2ba c475 34bd
00000240: bf08 b4bd a003 afbc ed42 0b3d 7fa5 0b3e
00000250: e226 ae3c 0adf 43be 13bd d73d 3ed2 42be
00000260: 8f5f e33d fa53 513d a10f ef3d 2588 d5bd
00000270: 3b65 773d 30dd f9bc 1d62 513e c7ba 39be
00000280: 704f 203e 92b7 79bc b97e 43bd 653a 11ba
00000290: 60d6 5d3e 05d2 383d ee4a 053e 3f40 0fbe
000002a0: 537e 86b7 4a3e 44be debb d53c f4bf fbbd
000002b0: 5f60 1c3d 063b b9bd 5f0d 213c 9864 643d
000002c0: 1d56 01be df52 933d f8e6 b03d a95c 483e
000002d0: 267a 353e ce19 eb3d 20ec 1e3e 9b40 9cbc
000002e0: f10c 343e cd32 aebd 502f 033d 1aaa 343e
000002f0: 34ee b83d d7ea 843d 602a 5dbd b8f9 17be
00000300: 0d47 1b3e fe78 f4bd b27b cebc 5ca5 233d
00000310: de19 5bbe 6a10 58bc 08fd 05be 02cc 273e
00000320: b051 403e dcc7 ba3d e4d5 a2bd 7de4 ff3d
00000330: 9a5a 5b3e 831a 0d3e 3a1c 973c 0894 0dbe
00000340: 8a54 2ebe 341b e9bd 4978 cbbc c29a 6d3d
00000350: 48cd 47be c948 55bd 2a4e be3d bc30 f13c
00000360: 3594 b73d 9d7f fb3b df1d 04bd dba7 94bb
00000370: 4ea0 003e f962 d3bd cf47 4e3e 5605 96bd
00000380: 1d05 c13d 9f49 443e ff3c b9bd 68a0 bdbc
00000390: 387a 643e 3f47 d13d b6ae 2e3e 7fe7 38bd
000003a0: 91e6 d7bd acb0 11be 5a64 1b3e 6b97 e5bd
000003b0: d8ea 133e c396 aebd bce3 e63d b397 173c
000003c0: 7429 0cbe 9678 aa3d 68aa fb3b 5a7d 423e
000003d0: 5e1d db3a 78f2 d43c e8b2 c43c b922 0ebe
000003e0: d9db eb3d 9f59 3ebe 58c9 55be 3b9d c7bc
000003f0: ab7b 00bd 9d3e 2d3e 5f06 03be a678 82bd
0.044075385 0.22450672 0.24255912 -0.002687708 0.024946079 0.18010046 0.13061619 -0.011478278
-0.23303099 -0.02041898 0.047979694 -0.026839722 0.07673151 -0.19030252 -0.058380093 0.047245644
0.21123113 0.044260427 0.18910044 -0.11085575 0.118418254 0.16092443 -0.05614933 0.1743759
-0.22381882 -0.11585137 -0.17597225 0.16973507 -0.1424761 0.16427995 -0.053528965 0.043279532
-0.1842235 -0.053274292 0.14956573 0.16809472 -0.06686832 -0.17557447 -0.23773168 0.046662573
0.12616116 0.10553427 0.029456314 -0.071429305 -0.012111228 0.061921917 -0.14082995 -0.01235201
0.021255754 -0.2193846 -0.11839672 -0.13258818 0.048798844 -0.17815188 -0.087071635 0.075850375
-0.16752283 -0.025495404 0.120098785 -0.11527394 -0.25167823 -0.10900555 0.1032725 0.041277185
0.042115223 -0.22698116 -0.07988125 0.16027178 -0.1727116 -0.14608526 -0.042946886 0.17615019
-0.0004075266 -0.02208539 0.013400975 0.06331573 0.020471118 0.096511364 0.0044608093 -0.102698386
-0.00642139 0.011037074 0.0024712568 0.14178716 -0.20515017 -0.2165504 -0.02818886 -0.05076268
0.21863678 0.122477956 0.12532073 -0.093862906 0.16017064 -0.06965876 0.17990585 -0.12191462
-0.03651901 0.032226812 -0.036722906 -0.06730048 0.108477585 0.18984589 0.097795986 -0.1579646
-0.15767467 -0.1189037 0.06583074 0.01811011 0.16781224 0.09638889 0.107906364 0.14503908
0.15979487 0.15004466 0.06663673 0.14067568 -0.041945614 0.11249836 0.031955674 -0.13517773
0.013378015 -0.08850859 -0.04355542 -0.0025724173 0.21775036 0.087308615 -0.06383889 -0.11404509
0.2352712 -0.09449873 -0.19522311 0.14038777 -0.15089273 0.024887167 -0.016611014 0.16686629
0.093410484 0.20633283 -0.12269994 0.15983076 -0.03613896 -0.027868845 -0.0014876545 -0.044057623
-0.08790731 -0.021364033 0.033999372 0.1363735 0.021258775 -0.19128051 0.1053411 -0.19025514
0.11102211 0.051105477 0.11672903 -0.10426358 0.060399275 -0.030500978 0.20447583 -0.18137656
0.15655303 -0.0152415205 -0.047728274 -0.00055400125 0.21663809 0.045122165 0.13016865 -0.13989352
-1.603287e-05 -0.19164386 0.026090559 -0.122924715 0.038177844 -0.09044461 0.009829848 0.055759996
-0.12630506 0.07193541 0.08637804 0.19566597 0.17722377 0.11479531 0.15519762 -0.019073775
0.17583062 -0.08505783 0.032027543 0.17643014 0.09029809 0.06490105 -0.05399549 -0.14841354
0.15163822 -0.1193714 -0.025205467 0.03995262 -0.21396586 -0.013187507 -0.13084805 0.16386417
0.18781161 0.091201514 -0.07950953 0.124947526 0.2142128 0.13779645 0.018446077 -0.13826
-0.17024437 -0.11382142 -0.02483763 0.058008917 -0.19511902 -0.052071366 0.09292252 0.029442184
0.08963815 0.007675125 -0.03225505 -0.0045366115 0.12561151 -0.10321612 0.2014458 -0.073252365
0.094248034 0.19168709 -0.09044837 -0.023147777 0.22312248 0.10218667 0.17058834 -0.045142647
-0.10542024 -0.14227551 0.15175 -0.11210521 0.14445055 -0.08524849 0.11273906 0.0092524765
-0.13687688 0.08323781 0.007680226 0.1899313 0.0016717126 0.025994524 0.02401109 -0.13880433
0.11516542 -0.18588875 -0.20877588 -0.024366966 -0.03136794 0.16918416 -0.12795399 -0.06370668

gru.weight_hh_l0 f4 [192, 64]
00000000: eff6 de3c 0a83 41bd f268 0dbe f4b0 4e3e
00000010: 6de1 a03d a74d 15be 0af6 c2bd 5ddd 223e
00000020: 13bd 813e 9732 55bd cfaf babd d309 053e
00000030: e8df adbb 3875 6bbe 40d4 b93c bab1 97bd
00000040: 95da 813d 64ce 6d3e 4ca3 e9bd e687 bcbc
00000050: f093 243e e7da 30be cf0e 2fbe f0c4 37be
00000060: 1387 2c3c 97b2 3b3e a5ea 31be f133 d73d
00000070: 43ea 913c 891d 543e 400f 2abe f480 4abe
00000080: 2d68 533c 8d7b 713e 3f82 a5bd 492b 13bd
00000090: bad9 3fbe 4881 283e 023b acba 97af 2f3e
000000a0: 00e0 af3d a09f 1cbe 6d38 9a3d d129 1bbe
000000b0: 5e61 2e3e c8bc 9c3d 899e d2bd 3ed4 b7bd
000000c0: 9b34 9abc f361 343e b352 6fbe e4ea 213e
000000d0: 25ba 013e 0f0a 813d 30b4 92bd ad82 4e3e
000000e0: 778b a53b 1b3e 8cbd 2793 173e b6a5 0f3d
000000f0: f13e cebd 21d5 e4bd 4d7b c3bd f1a3 15be
00000100: ac8f 2cbd 8572 363d 5658 8e3d e07d c7bd
00000110: 0465 873c 4fae ce3d 571a 583e 7f19 e4bc
00000120: 96ce 69bd 1a80 1e3e 9252 9c3d 5f4b c3bd
00000130: 8054 bf3d be72 c63d 8522 18be 9727 983d
00000140: 0e89 e63a 9f36 2cbe af48 3a3d 93d2 2abe
00000150: 224b 9cbd f0a9 633e b4d3 323e e550 5c3d
00000160: 3726 8ebc d726 06be 6077 a23d ac5d 7ebd
00000170: b95d e8bd fbbb bbbd 0e78 22bd cd94 063e
00000180: a1ad 19be f2f2 90bd 0497 b33c 4c93 503e
00000190: 5da7 553e 3920 e8bd a4a3 37be 5573 0e3b
000001a0: 2b52 63be c7c3 dabb 6b10 51be 1a4a 413e
000001b0: 7bdc 26bd 5ad6 a0bd cd78 263e ce25 893d
000001c0: c81e 63bd 97de b0bd 7d83 2fbd 6013 e0bd
000001d0: c2c8 9abc 6be6 d33c c9d5 1d3e 9c8f c4b9
000001e0: f1e5 1dbe 3c9e 02be 480d 36be 6ebc 763d
000001f0: 03d2 523d cda9 513e 5423 afba 1415 453e
00000200: a7cf 8abe 038b bf3d e587 d9bd d168 503c
00000210: 655a 3fbe a0e9 283e f7bd 30bc de52 eebc
00000220: 362b 6abe 237a b03d 102a a43d 153f 113e
00000230: e564 5a3e 4d9a ddbb ed5c 76be 9099 2c3e
00000240: e4ca e6bd 2c4c 2ebe 2147 e83d 451e b2bc
00000250: 63a0 b5bc 0c6d 803d e3de 0d3e 56aa 793d
00000260: 7d5f 58be f744 6fbe d5e6 9c3d 2dea ccbd
00000270: 7fef 44be d51c f8bd 3baa 623e aea0 f53d
00000280: 0dd0 b7bd d83c 67be 45f0 be3d 727c aebc
00000290: 6216 593e 3767 2cbe a54b 23be 7010 91bb
000002a0: a235 64bd dde4 513d 2d51 cbbd b896 9c3d
000002b0: a90e 01bd 6ec5 77bd db1e 4b3e 8339 4f3d
000002c0: 8129 393e be08 8f3c 9434 0b3e 616e 65be
000002d0: 8090 c5bd 9417 d9bd a9ea 41bc ac1b e9bd
000002e0: 8a07 0bbe 75b7 593e 985c 0fbe 345b c2bc
000002f0: 6c07 6b3d 247e 47bc 35d8 7a3e f8f4 913d
00000300: d469 0ebe 830e c63d b6eb 13be 231a 26be
00000310: 384b 403c 68a9 0e3e 28a7 303e 9d8b 9f3c
00000320: c069 ffbb 5684 88bc 7970 3c3c f7a6 a5bb
00000330: bce7 4e3e fd69 7dbc 571f 06be 634d 3c3e
00000340: 31b9 12bd 4a54 a83c 51d0 283e fbc0 46be
00000350: ddfa 25bb 208f 3e3e f010 443d 64d4 133e
00000360: f43e 0e3d 7384 2fbc 9e87 983d 1a9c 81bd
00000370: 7e40 28bb 348c 07bd 2536 9b3d b095 c83d
00000380: c705 1fbe 0019 2d3c 7459 313e 1c62 18bc
00000390: 4dc4 513e e1a8 13bc 8204 39bd 1a78 48be
000003a0: d270 12be 60de 213e 863c ccbd 1906 133e
000003b0: efe0 15be e528 3dbe a023 e8bc fb09 743d
000003c0: 5b2b a93d 1649 b8bd d456 0d3e 38fc 793b
000003d0: 48ba 3cbe 70b2 73be 61de 493d 6ca6 40bd
000003e0: 7e1d c1bd a108 ae3d f243 a3bd 8786 c5bd
000003f0: d0ab c73d 6a60 393e cf51 033e 4789 a43c
0.027217356 -0.04724411 -0.13809565 0.2018469 0.078554966 -0.14580403 -0.095195845 0.15904756
0.25339565 -0.0520502 -0.09115564 0.12992029 -0.0053062327 -0.22993934 0.022684216 -0.074069455
0.06340519 0.23223263 -0.114080995 -0.02301402 0.16072059 -0.17271005 -0.17095493 -0.1794622
0.010530251 0.18329845 -0.17374666 0.10507954 0.0178119 0.20714392 -0.1660738 -0.19775754
0.012903255 0.23582287 -0.08081483 -0.03592995 -0.187354 0.16455567 -0.0013140144 0.17156826
0.085876465 -0.15295267 0.075302936 -0.1515267 0.1702933 0.07653195 -0.102841444 -0.08976029
-0.018823912 0.1761549 -0.23371391 0.1581226 0.12668665 0.06300747 -0.07163274 0.20167036
0.005052026 -0.06847783 0.14802228 0.035070144 -0.10070599 -0.111734636 -0.09545002 -0.1461332
-0.042129204 0.044542808 0.069504425 -0.097408056 0.01652766 0.100918405 0.21103798 -0.027844189
-0.05708178 0.15478554 0.076329365 -0.0953586 0.09342289 0.09689854 -0.14856918 0.07429426
0.0017588453 -0.16817711 0.045479473 -0.1668189 -0.07631518 0.22232795 0.17463571 0.053788085
-0.017352207 -0.13100754 0.07932925 -0.06210105 -0.11346001 -0.09166714 -0.039665274 0.131427
-0.1500764 -0.07077588 0.021922596 0.2036869 0.20864625 -0.11334271 -0.17933518 0.0021736224
-0.22199313 -0.0066761705 -0.20416419 0.18875924 -0.04073761 -0.07853384 0.1625702 0.06696664
-0.055449277 -0.08636206 -0.042850006 -0.109411955 -0.018894557 0.025866708 0.15413584 -0.0003749103
-0.15419747 -0.12755674 -0.17778504 0.060238294 0.051469814 0.2047493 -0.0013361969 0.19246322
-0.2711155 0.09352686 -0.10621623 0.012720303 -0.18686827 0.16495371 -0.010787479 -0.029092249
-0.22868046 0.08617046 0.08015835 0.1418422 0.2132755 -0.006762779 -0.24058886 0.16855454
-0.11269167 -0.17021245 0.11341692 -0.02174295 -0.022171205 0.06270799 0.13854556 0.06095346
-0.21130176 -0.23366152 0.07661215 -0.10005603 -0.19231986 -0.12114874 0.2213525 0.11993538
-0.089752294 -0.22581804 0.093231715 -0.021299575 0.21199945 -0.16836248 -0.15946825 -0.0044270083
-0.05571521 0.05124365 -0.099275924 0.07645935 -0.03150812 -0.060491018 0.19835989 0.050591957
0.18082239 0.017460223 0.13594276 -0.22405387 -0.09646702 -0.106002 -0.0118357325 -0.11382231
-0.13577095 0.2126139 -0.14000165 -0.02372513 0.057380125 -0.01217607 0.24496539 0.07126802
-0.13907558 0.09670737 -0.14445385 -0.16220908 0.011736684 0.13931811 0.17251265 0.019475752
-0.007794589 -0.016664665 0.011501425 -0.005055304 0.20205587 -0.015467164 -0.13097893 0.18388896
-0.035821144 0.020548005 0.16485716 -0.19409554 -0.0025326528 0.18609285 0.047867715 0.1443649
0.034728006 -0.010712731 0.07447742 -0.06328602 -0.0025673206 -0.033092692 0.075786866 0.097941756
-0.15529548 0.0105650425 0.1731928 -0.009300735 0.20485039 -0.009012432 -0.045170315 -0.19577065
-0.1430085 0.15807486 -0.099724814 0.14357795 -0.14636587 -0.18472631 -0.0283373 0.05957983
0.082602225 -0.08998315 0.13802654 0.003814472 -0.18430436 -0.23798537 0.049284343 -0.047033712
-0.09429453 0.084977396 -0.07971944 -0.096448 0.097495675 0.18103185 0.12824176 0.02008499

gru.bias_ih_l0 f4 [192]
00000000: 5148 4dbe d07f 163e d804 0ebd 8ef3 253e
00000010: 5bd5 6f3c 0298 c03d 9119 9c3d a2e1 a83d
00000020: 2603 9e3d da95 f33d 5829 903d 4adb febd
00000030: ef19 043e 01aa 583e b7e3 de3d 175e 143e
00000040: 39df 3b3e 80dd 8b3d a7ab 87bd 9653 1d3e
00000050: 42b5 293d 9ecf f33d be0e 1f3e f05b 113e
00000060: 8ec9 c33d ba40 3c3d 79cd 09bd 895a 303c
00000070: 20bf 3d3e b259 ad3b 0d2b 223d 50af 893d
00000080: 299a 363e a100 d83d 6e35 1d3e 5b2a 64bd
00000090: b429 da3d 11c7 443d 3769 f43d eb40 723e
000000a0: 4c05 373e f56a b63c 2e41 7e3d 15ca c3bc
000000b0: 200d 703d 664e 0fbc 79d3 13bd b672 00bd
000000c0: ae53 e3bc 56a3 403d 26b5 df3d bf1f 6c3e
000000d0: 96d6 233e 3788 013d 8d0b 123e ea46 933d
000000e0: 9cb2 c7bc 1cbd 1ebe 0b57 3a3e 0156 243c
000000f0: 45c6 b83d 8825 8c3b fa7d ff3d 99c2 c0bc
00000100: d75e 45be 4296 203d 3341 bf3e 980b 393e
00000110: 2938 e9bd 8ad5 0cbe 3208 cb3b ad50 093b
00000120: e42a c83d 5e82 92be c7fa a1bd 56bd d4bd
00000130: 1fac 87be e477 32be b0c4 7cbd 5fa1 1cbe
00000140: 61b8 3d3d b611 91bd 7040 a03d 0e48 80bd
00000150: f691 3a3e 226a 9c3c 5289 7bbc 2d09 14be
00000160: 0f3b c7bc 4c5e 99bd 1d2d ed3c 4f2b de3d
00000170: aa78 e3bb 81b6 903c 8596 45bd c149 7abe
00000180: fc4f 053e 8cd8 d5bc 5b62 863e c1c7 33be
00000190: 7c73 30be 0ac0 37be abaa e73c cdb0 a23e
000001a0: a5cc e2bd 0b12 f33d 8362 973d bfac 533d
000001b0: eaf3 da3c cdf5 06bd 8aaf e0bc 532d 1d3d
000001c0: a0f9 8cbe 5d95 933d f419 313e 421c 97bd
000001d0: 0841 2ebe db56 813d 3114 8c3d 0dcf 7e3c
000001e0: 2137 96bd 3d57 70bc 16b2 053e 7dc6 853e
000001f0: 3df8 1fbe 3399 4dbd e397 e9bd d9b4 b63d
00000200: 590c a1bd 7bc8 e03d 879c 943c 54e7 07be
00000210: 37a3 2cbe 3bc7 143e 44d8 e13d ad28 54be
00000220: 7a2b 27be 8c7c 2e3e 2069 643e d41c 96bd
00000230: 2a42 1f3e 0a82 123e 5682 2bbe b47a 1b3e
00000240: 55c8 29be aa65 23be cf3a 0c3b 73e5 343c
00000250: 622e 32be 0de1 293e ecaf 483e 77e8 3c3e
00000260: d42d 09be f507 fa3c 364a 0d3e ed68 5fbe
00000270: 1fae 42be 3629 0bbe fcf8 263e 81c8 4d3e
00000280: a3b9 83be 7b0a 74be 9da6 39bc 9cdf 4e3e
00000290: 8c2b 1c3e f471 19be 0405 17be eb55 11bd
000002a0: 010c 45be 2cce ad3d a6b6 55bc f675 383e
000002b0: e051 12be 6c9b 2bbe a414 6d3e 7128 273d
000002c0: 0579 b63d fefb fcbc fda1 0b3e a05c f7bd
000002d0: aff4 69be 33f0 8fbd bdaa 363e c090 60be
000002e0: d57f 02be 8e73 003e 23bb fbbd 7c3e 60bd
000002f0: 77f6 cd3d 4b6a 5e3e 901c 3f3e 113f 633e
-0.20047118 0.14697194 -0.034672588 0.1620619 0.01463827 0.09403993 0.07622064 0.08246161
0.07715444 0.11893816 0.07039136 -0.1244417 0.12900518 0.21158601 0.10883277 0.14489017
0.18346871 0.06829357 -0.06624537 0.15363917 0.041432627 0.11904834 0.15532967 0.14195228
0.09559928 0.045960166 -0.03364322 0.010763773 0.1852994 0.0052902335 0.039591838 0.06722891
0.17832245 0.10546995 0.15352413 -0.055704456 0.106524855 0.048041407 0.11934131 0.23657577
0.17873114 0.022267798 0.06207388 -0.023900071 0.058606267 -0.008746719 -0.036090348 -0.031359397
-0.027749863 0.04703077 0.10923223 0.23058985 0.15999827 0.031624045 0.14262219 0.0719126
-0.02437716 -0.15501827 0.18197267 0.010030271 0.09022192 0.004276935 0.124752 -0.023530291
-0.1927446 0.039205797 0.3735443 0.18070829 -0.11387665 -0.13753334 0.0061960453 0.0020952628
0.09773806 -0.28615087 -0.0790916 -0.103876755 -0.26498505 -0.17428547 -0.061711013 -0.15295933
0.046318416 -0.07083456 0.078247905 -0.06263743 0.18219742 0.019093577 -0.015352564 -0.14456625
-0.024320154 -0.07488689 0.028952176 0.10848104 -0.0069418745 0.01766515 -0.04823925 -0.24442197
0.13018793 -0.026104234 0.26246914 -0.17556669 -0.17231554 -0.17944351 0.028279623 0.31775513
-0.11074189 0.11868676 0.073918365 0.051678415 0.026727635 -0.032949258 -0.027427454 0.038373303
-0.275342 0.07206223 0.17295057 -0.073784366 -0.17016995 0.063153945 0.06839789 0.015552294
-0.07334734 -0.014669237 0.13056216 0.26127997 -0.15622039 -0.05019493 -0.11405923 0.08921213
-0.07863683 0.109757386 0.018141044 -0.13271838 -0.16859137 0.14529125 0.110275775 -0.20718642
-0.16325179 0.17039698 0.22305727 -0.07329717 0.15552583 0.14307418 -0.16748938 0.15183526
-0.16580327 -0.1595675 0.0021397357 0.011041033 -0.17400506 0.16589756 0.19598359 0.18448053
-0.13396388 0.030521372 0.1379784 -0.2181737 -0.19011734 -0.1358994 0.16305918 0.20096017
-0.25727567 -0.23832123 -0.011331228 0.20202488 0.15250987 -0.14984876 -0.14748007 -0.03548233
-0.1924286 0.0848659 -0.013044035 0.18013749 -0.14289045 -0.16758507 0.23152405 0.040810052
0.089098014 -0.030881878 0.13636012 -0.12078214 -0.22847246 -0.07028236 0.17838569 -0.21930218
-0.12744077 0.1254408 -0.12291553 -0.05474709 0.10056775 0.21720235 0.1866324 0.22192027

gru.bias_hh_l0 f4 [192]
00000000: cb5c ffbd e9be 513e d259 c13c 711e 6abb
00000010: b609 083e ef3a 483e 4cb2 a63d 1deb b93d
00000020: 5e9c 493e dc6b ce3d a736 553d cecf 09bd
00000030: 1286 0f3e e6b1 693d 3e6c 1f3e aefe 623d
00000040: 1db9 4e3e f113 c03d d849 2abe 7817 233e
00000050: f681 e2bd 4f21 823d 635f ac3b b35d 363e
00000060: f678 053e 4ec7 633d 57b0 363e 1b87 553d
00000070: 6ee8 d73c 692a 083e 345e 3bbb 1a4e 173e
00000080: ff06 6abc 86d1 693e 92af 4c3d e24f f73b
00000090: cddb 573e 464b 403e c181 053e 4582 f13d
000000a0: 1394 d43d 5bf5 253e 5f42 f83c abfb 8e3d
000000b0: 11ba 383e be75 7d3c f972 463a ea80 b6bc
000000c0: 3718 72bd 290a d4bb 1d56 3b3e 4cb4 f93c
000000d0: 110f b73d 1dcf cc3c e9b2 073e 5e3c 3a3e
000000e0: 9c3d 32bc 524a fcbd ffbd ae3d f534 36bd
000000f0: fce3 153e 93f0 ed3d 87be 39bd a77c b33c
00000100: a9a3 b93b 3392 d6bd 793a ea3e 16dc a83e
00000110: 6a04 123d d866 0cbe aa30 3dbe 0d29 6dbe
00000120: bc6d bb3d 12ce 32be 6417 45be 7e28 09bd
00000130: 2b17 74be eb34 aebd 8561 34be 9338 35bd
00000140: 5f60 92bd 2f84 d7bd b134 02be c6a6 40be
00000150: 9a9e 5f3e 76cc 50bd d032 fdbc 3ccb 82bd
00000160: f71a 0dbe 304a 44be 9713 333c f46c 17bd
00000170: 8520 fdbd 7997 e53d adab 063e 707b 88be
00000180: 8f1d 8f3d 45d9 093d d80b 403e b011 1b3b
00000190: db52 fcbd 11f9 05be c782 03be 05a5 d83e
000001a0: 32cc 16be 92fd c13c 2253 9e3d 096b 79bd
000001b0: 2522 1cbe 117b 62bd 12c9 b2bd e3fe 3f3d
000001c0: 4a13 03be 8c69 0bbd 48a5 6e3e 34b7 49bc
000001d0: d047 49bd 1a56 32be 42e6 8ebc b74c 843d
000001e0: 8216 16be 642b 01be 39fa 98bb ef79 643e
000001f0: d3a7 37bb fbbd 1d3e 2554 173c 2806 bf3d
00000200: 8320 32be a19f 523e e8d1 d1bd f079 cfbb
00000210: d6e4 5fbe ab47 6d3e 234f 393e 563b 28bd
00000220: c2ed 59be 6f3e 733e 887d 133e 9d2c 88bc
00000230: e01c 683e 5a7a 3a3e f6aa 4fbd 34bf 4c3e
00000240: eeab 1ebe 7c14 19bd 83bc d03d 2aed d1bd
00000250: 02f8 0cbe 6d3a 0b3e 8bef 473e cf4e 9d3c
00000260: d338 0ebe 253e 0ebe af3e 3e3e 7d10 10be
00000270: a70c 0fbe 104d 43be 82a3 103c 56d6 b03d
00000280: 1bdc 8bbc 4bbc 60be 109d 8cbd 00dc 883c
00000290: 3095 1b3e fe72 f9bd 5099 06bd 6737 acbd
000002a0: 4ca2 b2ba b2d6 3a3e a61c e1bd f43b 043e
000002b0: 7f99 23be d266 3dbe 99d3 ca3d b949 fe3d
000002c0: 0d83 953b 5ad3 09be dfb1 12bd 5a2e 76be
000002d0: 2060 19be 46db 19be 356d b93d 4f09 91bb
000002e0: 3b27 cdbd 97f0 34bb 89b7 0bbe bdf9 bb3d
000002f0: 2d72 6b3e 2e88 5a3d d1c1 193e 4cd3 3a3c
-0.12468871 0.20482983 0.0236024 -0.003572371 0.13284954 0.19553731 0.08139476 0.090780474
0.19688556 0.10079166 0.052054074 -0.033645444 0.14015988 0.057054423 0.15568635 0.055418663
0.20187803 0.093788035 -0.16629732 0.15926921 -0.11059944 0.06354009 0.0052603944 0.17809181
0.13034424 0.055609994 0.17840706 0.0521308 0.026355948 0.13297428 -0.0028590085 0.14775887
-0.014283895 0.22833833 0.049972124 0.0075473646 0.21079941 0.18778715 0.13037778 0.11792425
0.103798054 0.16206877 0.030305086 0.069815956 0.18039729 0.015469966 0.0007570233 -0.022278268
-0.059105124 -0.0064709377 0.18294568 0.03048148 0.089384206 0.025001103 0.13251843 0.18187091
-0.010878947 -0.12318863 0.08532333 -0.044484098 0.1463775 0.116181515 -0.045347717 0.021910025
0.0056652618 -0.10477104 0.45747736 0.32980412 0.03564874 -0.13711107 -0.18475595 -0.23160191
0.091517895 -0.17461422 -0.19247204 -0.033485882 -0.23836963 -0.08506187 -0.17615326 -0.044243407
-0.071472876 -0.10523259 -0.12715413 -0.18813619 0.21837845 -0.05097624 -0.030908018 -0.0638642
-0.13779818 -0.19168925 0.010929964 -0.03696914 -0.12359718 0.11210532 0.13151427 -0.26656675
0.0698806 0.03365447 0.18754518 0.0023661666 -0.12320491 -0.13083293 -0.12842856 0.423134
-0.14726332 0.023680482 0.077307 -0.060893092 -0.152474 -0.055293147 -0.08729757 0.04687394
-0.12800327 -0.034036204 0.23305237 -0.012311745 -0.04914075 -0.17415658 -0.01744378 0.06459945
-0.14657024 -0.12614208 -0.0046685007 0.22312139 -0.0028023615 0.15404503 0.00923637 0.09327346
-0.17395215 0.20568706 -0.102451146 -0.0063316748 -0.21864638 0.2317187 0.18096595 -0.041072212
-0.21282104 0.23754285 0.14403355 -0.016622836 0.22667265 0.18210736 -0.05070015 0.19994813
-0.15495273 -0.03737305 0.10192206 -0.102503136 -0.13766482 0.13596506 0.19524972 0.019202618
-0.13888864 -0.13890894 0.185786 -0.1406879 -0.1396967 -0.19072366 0.008828046 0.08634631
-0.017072728 -0.21946828 -0.06865895 0.016706467 0.1519363 -0.12180136 -0.032861054 -0.08409005
-0.001362869 0.18245962 -0.109917924 0.12913495 -0.15976523 -0.18496254 0.0990364 0.12416405
0.0045627416 -0.1345953 -0.035814162 -0.24041119 -0.14978075 -0.15025052 0.09054033 -0.0044261585
-0.10017248 -0.0027609223 -0.13644232 0.09178493 0.22992773 0.053352527 0.15015341 0.011402916

notes_decoder.weight f4 [128, 64]
00000000: c232 8c3d a251 c5bd 93e1 1f3e bdf3 383e
00000010: 7ec9 3f3e 95b6 6ebd 5870 48bd 8c1d 9e3d
00000020: 65ee 123e 4f40 47be 11a1 8dbe f84b 8e3c
00000030: cad3 afbd 35cc 91be 26e6 633d 15c1 60be
00000040: 2044 703e 68fe 9e3d 5fca 823d 2968 343d
00000050: 68f6 953e a675 3dbe 61f6 8ebe 3b1c 2cbe
00000060: a118 923e 262e 503e b178 42be f187 473e
00000070: 27e1 273e 73ee 053e 0a37 39be a551 04be
00000080: 8790 1b3e 7823 153e 6ffa 9cbd 65c3 87be
00000090: 8fa8 3fbe 9a37 483e bcb8 1d3e f674 6a3e
000000a0: e4b5 ca3d a3d2 48be 6927 0f3e 1a45 79be
000000b0: 4bf4 573d 6b74 903e 7dab 33be 4865 5abe
000000c0: ce21 df3c bad9 373e 5d56 fdbd a2ea 663e
000000d0: 0499 133e 64fd 033e fd09 43be 6c80 013e
000000e0: a29f 7f3e 7746 01be 540b 103e b240 bd3d
000000f0: 96d4 e9bd b7e6 00be 0af3 f5bd 99e7 90bd
00000100: f0e1 4b3d e970 84bd d1ef 203d f02c 493e
00000110: 66e4 fb3d 802f 8fbe 724c e5bd a911 173e
00000120: 75f1 2e3e d9bc 86be 8910 21be 854c e33d
00000130: ac98 b3bd 61a7 99bd 2ffd 8d3e 34c9 24be
00000140: c22b 963e ec08 8c3e f226 fdbc 81b8 153e
00000150: 6f80 4a3e 91d9 fcbd 58bd cdbd 15f8 5ebe
00000160: 25a9 bc3d c58d 693e 26f7 4fbe 524a 413e
00000170: 57e9 943e 201a 093e fc87 21be 6f5b 48be
00000180: b4a8 1b3e 21fe 083e 2331 31bd 2b27 2abe
00000190: 4124 52be e572 5b3e 42a7 0b3e 1a15 3f3e
000001a0: e56c 3a3e 7abf 5dbe 672e 593d cb14 adbd
000001b0: d953 8f3e ea63 cd3d 5cfd 53be f49b 6ebd
000001c0: f89b 843c 06e1 bd3d 8cd0 1cbe 4a74 2c3e
000001d0: b284 2b3e e085 4d3e 3d78 5bbe 7592 233e
000001e0: 2a5c 933e 06e3 0e3b 50f5 6c3e 4d85 123d
000001f0: c0bd 84be 2e67 87bd 8275 14be 15c1 07be
00000200: 6f4b 0bbd 6b8a 55be 8849 343e 10ae 753e
00000210: 5abf 853e 7517 bdbd 6b59 99bd 7955 5a3e
00000220: 5fba 993e d78c 9ebd 7462 2dbe 5cdf 9abd
00000230: 3e7b 8abe 79c1 8abe 2bef 153e 1155 f0bd
00000240: 216e be3d cadf b53d 135c 8b3c 6755 d63c
00000250: adc5 5d3e 487e e0bd 1679 2ebe 91e0 78be
00000260: 2681 8e3e e0f0 653e 0d03 4fbe 3e8d 713e
00000270: 3836 753e 0a8b 4a3e 23ed 33be 1900 45be
00000280: 41a0 bc3d 76a0 c63d 28e2 45be 9072 60be
00000290: 56b9 53be 0ff8 2c3e 4245 233e 48bd 363e
000002a0: 45a6 503e 2e59 66bd a763 813d af41 e7bd
000002b0: 5e25 913e eb93 3f3e 8605 84be c04e 69bd
000002c0: a1f5 e83d 0495 033e 6561 56be e9b4 1e3e
000002d0: 8cce 803e c95f 4d3e 4191 c8bd 96d9 0a3e
000002e0: af86 303e 33e3 0dbd 27b8 b53d 02ff 183e
000002f0: 0a69 14bd ee12 95bd 3b16 d1bd 7475 33be
00000300: ed3c 403d d838 2cbe 90a7 6a3e e5aa c93d
00000310: 1cd0 bf3d eb48 15be ec94 a1bd 9832 a83d
00000320: 9924 803e 13b5 02be 0121 6dbe c307 573d
00000330: 6676 81be 0952 88bd f3c5 8c3e e90e 16be
00000340: 40b2 0d3e b9b9 a53d 03dd 8f3d ab96 723e
00000350: 3c03 053e 76e0 f3bd e8e7 8fbe 6609 a8bd
00000360: fee5 683e 660a 6b3e 6e39 5dbd 036a 983e
00000370: a41f c03d 2010 883e 0d46 41be 0fc4 95be
00000380: 9939 673e 2665 913e 2fe2 c3bd f25d 80be
00000390: dd43 99bd 44d1 3b3e 70cd 8e3e e435 2d3e
000003a0: 89fd 803e 48f6 05be d6ab 8abb 93af f7bd
000003b0: f993 4d3e 7979 ee3d ad49 93be 54a4 2abe
000003c0: 4a89 7ebd f018 b33d 8aac 5ebe 6278 783d
000003d0: ad74 653d f50b 073e 1f34 9ebd 4d5d 453e
000003e0: af80 163e cb1a 0b3d 54e5 8b3e 29a2 0abc
000003f0: 2c08 07be f8dd e5bd 3af0 19bd 2d24 98be
0.06845619 -0.09634711 0.15613393 0.18061729 0.18729207 -0.058279593 -0.048935264 0.07720479
0.14348753 -0.19458126 -0.27661946 0.01737021 -0.085853174 -0.2847611 0.05563941 -0.21948655
0.23463488 0.07763368 0.063862555 0.044044647 0.29289556 -0.1850191 -0.27922347 -0.16807644
0.28534415 0.20330104 -0.18991353 0.19485451 0.16394483 0.13079242 -0.18087402 -0.1292177
0.15191852 0.14564312 -0.07664954 -0.26516262 -0.18716644 0.1955246 0.15402502 0.2289618
0.09897974 -0.19611602 0.13979878 -0.24342766 0.05272321 0.2821382 -0.17545886 -0.21327698
0.027237799 0.1795415 -0.12369988 0.22550443 0.1441384 0.1288963 -0.19046779 0.12646645
0.24963239 -0.12624536 0.14066821 0.09240855 -0.11417501 -0.1258801 -0.12009247 -0.07075424
0.049776018 -0.064668484 0.039291207 0.19646049 0.12299423 -0.27965927 -0.111962214 0.1475283
0.17084296 -0.26315954 -0.15728964 0.11098579 -0.08769354 -0.07502628 0.27732226 -0.16092378
0.2933026 0.27350557 -0.03090236 0.14621164 0.19775556 -0.12346185 -0.1004588 -0.21774323
0.09211949 0.22807987 -0.20309123 0.18876007 0.29084274 0.13388872 -0.1577453 -0.19566129
0.15201074 0.13378192 -0.04325975 -0.16616504 -0.20521642 0.21430548 0.13638023 0.18660393
0.18205602 -0.21655074 0.05302277 -0.084512316 0.27993658 0.10028823 -0.20702118 -0.058254197
0.016187653 0.092714354 -0.1531393 0.16841236 0.16749838 0.200706 -0.21432586 0.15973838
0.28781253 0.0021802797 0.23140454 0.035771657 -0.25926018 -0.06611477 -0.1449795 -0.13257249
-0.034007486 -0.20853584 0.17606175 0.23992181 0.26122552 -0.0923299 -0.07487758 0.21321668
0.30025002 -0.07741707 -0.16932088 -0.07562134 -0.2704715 -0.27100733 0.14642017 -0.11734975
0.09298349 0.08880575 0.017011678 0.02616377 0.21657439 -0.10961586 -0.17038378 -0.24304415
0.27832907 0.22455168 -0.20216008 0.23589036 0.23946464 0.19779602 -0.17570929 -0.19238319
0.092102535 0.09698574 -0.19324553 -0.21918702 -0.20676169 0.16891502 0.15944389 0.17845643
0.20375927 -0.056237392 0.06317835 -0.11291825 0.2834882 0.1870877 -0.25785464 -0.056959867
0.11374975 0.12849814 -0.2093559 0.15498699 0.25157583 0.2005607 -0.0979333 0.13559565
0.17238878 -0.034640502 0.08873015 0.14941028 -0.036232986 -0.07279001 -0.10209318 -0.17525274
0.046933103 -0.16818559 0.22915483 0.09847049 0.093658656 -0.14578597 -0.07889733 0.08212775
0.25027922 -0.12764387 -0.23157121 0.052497637 -0.25285643 -0.06656272 0.27494773 -0.14654125
0.13837528 0.080920644 0.070245765 0.23690288 0.12989515 -0.11908047 -0.28106618 -0.082049176
0.22743985 0.22953185 -0.054009847 0.2976838 0.09381035 0.26574802 -0.18874379 -0.29251143
0.22580566 0.28397483 -0.095646255 -0.25071675 -0.07483647 0.18341547 0.2789111 0.16915089
0.25193432 -0.1308223 -0.00423191 -0.12094035 0.20075978 0.11644263 -0.28767148 -0.16664249
-0.062142648 0.08744991 -0.21745506 0.06066168 0.056019474 0.13188155 -0.07724785 0.19273873
0.14697526 0.0339611 0.273234 -0.008461514 -0.13186711 -0.11223978 -0.037582614 -0.297151

notes_decoder.bias f4 [128]
00000000: 898e 02bd 344a 38be 4ba6 10be a809 77be
00000010: 3228 11be 08c6 13be 6c74 4ebe cf89 34be
00000020: 47c8 71be 5d45 80be ed69 1abe ebed 67bd
00000030: 5b7c 46bd 5eb2 3dbe 8b40 6bbd 11e6 62be
00000040: adfe 36bd c368 4ebe fb9e 62bd 1dcd a6bd
00000050: 941d 22be 28be ffbd 40b6 6ebd cd65 0bbe
00000060: 73c2 9fbd 05ec 47be 39ac a7bd db9e b1bd
00000070: 660e c9bd d41d 0abd 0ce1 2cbe b9ad 51be
00000080: b641 43be 72af f8bd daea 9dbd cd34 17bd
00000090: 6dd9 00be 38d2 86bd a225 08bd 4e5b 59be
000000a0: 74fa 33be 5ccf a0bd da51 71be c59c 2ebe
000000b0: 06e6 62be 8214 f1bd ab49 01be 75cb 03be
000000c0: 5858 1bbe 542e 1abd 4b4a 96bd 3ac6 24bd
000000d0: e603 d6bc 4944 1ebe b9b2 6bbe 134c 25be
000000e0: 5405 37be ebc6 0cbd b198 b73b f790 79be
000000f0: 6108 9ebb fa29 0fbd 2a35 f9bc fcbf 11be
00000100: b0f6 69bc 7c1d 67be a912 c2bc ba5c d8bd
00000110: 3ddd 5dbe 1113 3dbe 59be 17be bbb3 2fbe
00000120: 91d2 58be c77b 6cbd 4388 d8bd 05b9 10be
00000130: 92aa 5bbe fd22 20bd 8792 25be 1efe b6bd
00000140: 4a11 5fbe 623c 64be e12f 52be 2f8b 58be
00000150: 74e2 33be 5ab6 e7bd d38a 69bd e944 47be
00000160: a130 20bd 3948 ebbd 75dc 75be 3319 9dbd
00000170: 8d42 32be 11df 97bd 23e9 4ebe 6316 84be
00000180: fbf5 88bd 34d9 27bc fed3 41be db96 3bbe
00000190: e920 3bbd 310b 88bd bea3 81bd 9e44 65be
000001a0: 96f5 80be 34cd 4cbd 03ff 80be 2039 88be
000001b0: 4669 74be b5aa e8bd ecc2 83bd f9b1 12be
000001c0: 13bb 5cbe 3c3d adbd 6711 a3bd adcd 0ebe
000001d0: c8ce 4ebe f966 5dbe 7e02 68be fb43 27be
000001e0: 0c76 8dbd 55d6 6dbe 6bd6 08be 41e1 87bd
000001f0: 30ce 3abd 5d68 50bd a860 4fbe e377 eabd
-0.031874213 -0.17997056 -0.14125936 -0.24124777 -0.1417549 -0.14431012 -0.20161599 -0.17630695
-0.23611556 -0.2505292 -0.1507947 -0.05662338 -0.04845844 -0.18525073 -0.0574346 -0.22158076
-0.04467647 -0.20157151 -0.055327397 -0.08144591 -0.15831596 -0.12487441 -0.058279276 -0.13613053
-0.0780076 -0.19523628 -0.08187146 -0.086728774 -0.098171994 -0.033719853 -0.16882724 -0.20476426
-0.19068035 -0.121428385 -0.0771081 -0.03691559 -0.12582941 -0.06583065 -0.033239014 -0.21226236
-0.17576009 -0.07852051 -0.2356638 -0.1705199 -0.2215806 -0.1177149 -0.12625758 -0.12870581
-0.15170419 -0.03764184 -0.07338389 -0.040228106 -0.026124906 -0.15455736 -0.23017396 -0.16142301
-0.17873126 -0.03436939 0.005602919 -0.24371706 -0.004822776 -0.03495214 -0.030420858 -0.14233392
-0.014280006 -0.22569841 -0.023690538 -0.10564561 -0.21666427 -0.18464305 -0.14818706 -0.17158405
-0.21174075 -0.05773523 -0.10572865 -0.1413308 -0.21451786 -0.039095867 -0.16169177 -0.08935188
-0.21783939 -0.22288659 -0.20526077 -0.21146844 -0.17566854 -0.11314078 -0.05701716 -0.19459881
-0.039108876 -0.11488385 -0.24009879 -0.07670822 -0.174082 -0.074155934 -0.20206122 -0.2579833
-0.06687542 -0.010244656 -0.18928525 -0.18319266 -0.045685682 -0.066427596 -0.063300595 -0.22389457
-0.25187367 -0.050000384 -0.25194559 -0.26606083 -0.23868284 -0.11360685 -0.06433663 -0.14325704
-0.21555738 -0.08458945 -0.079623036 -0.13945647 -0.20196068 -0.21621312 -0.226572 -0.16334526
-0.06907281 -0.23226292 -0.13363044 -0.06634761 -0.045606792 -0.05088078 -0.20251715 -0.11448648
