saved_models/generalist_BCE_1e-2_175.pth (torch_old, 167373 bytes, 8 tensors)

notes_encoder.weight f4 [64, 128]
-0.08363057 -0.056063853 0.053728797 0.070271336 -0.07089395 -0.05425862 0.008400373 -0.061487425
-0.061706167 -0.005199909 -0.015020601 0.058707483 -0.08173909 -0.032698557 0.011487335 0.056506924
-0.053802673 -0.0821958 -0.017891936 0.017808244 0.045721494 -0.057669826 -0.08362435 0.017921388
-0.08805638 0.0065899417 0.043320023 0.022706538 0.060518034 -0.0241028 0.024704069 -0.013282359
-0.049947187 0.025590204 -0.514446 0.036675565 -0.04116221 0.0072287396 -0.08074116 -0.22773969
0.1367434 0.07275672 -0.8092216 -0.44337827 0.8329272 -0.37623483 0.112149395 0.16263855
0.2882215 0.45983392 0.41129175 0.0751685 -0.08279751 0.044614766 -0.24214683 0.14205043
0.62176013 -0.0030399887 0.21681675 0.31950656 0.12933734 0.66304815 0.23950168 0.38133776
0.20212732 0.013470728 -0.019389572 0.27123678 0.7455245 0.24270763 0.5201248 0.7557146
0.3758079 0.18834966 0.27545744 -0.4873192 0.29283637 0.5737148 -0.10185718 0.3252622
0.1743427 0.13417989 -0.010518691 -0.026338808 -0.22214997 -0.31633088 -0.027598899 -0.54042214
-0.2759857 0.1548322 -0.078302085 0.07450674 -0.020438485 0.028396405 0.0077340603 -0.024523273
-0.073690444 -0.0032403544 -0.050767343 0.07606236 0.08421583 0.08412037 -0.026591804 -0.07361451
-0.0142291635 0.0539648 -0.05276699 0.04313635 -0.008176163 -0.010996975 -0.03486559 -0.050721
0.054807134 0.027884953 0.0432607 -0.05122507 0.045091413 0.028684206 0.05973404 0.053887032
0.013271809 0.08436299 0.004648745 -0.016812406 0.008621782 -0.045334563 0.06087 0.026198216
-0.08172513 0.05987487 0.063582696 0.006530151 -0.08541059 0.07587042 0.023584217 -0.07325131
0.006831646 -0.023211293 0.062724225 -0.0068672523 -0.033235203 0.045847632 0.02163893 0.012341052
-0.06962038 -0.0829043 0.026665702 -0.0005152151 -0.017633207 -0.0066386163 -0.0128392875 -0.033453617
0.047353975 -0.026011191 -0.027028196 -0.06818642 0.017899916 -0.02453433 0.00532791 -0.042091627
0.056998603 -0.024827205 0.008968834 0.028965928 -0.032017212 0.0044311583 -0.010583129 -0.047402676
-0.04702135 -0.10598815 -0.08086869 -0.20138319 -0.06160417 -0.05897291 -0.10287049 -0.092119165
-0.10838703 -0.057785656 -0.07883116 -0.16128597 -0.007024593 -0.0457986 -0.051032614 -0.11628572
-0.10190867 -0.077275924 -0.1658125 -0.10284045 -0.15072589 -0.059708167 -0.03883903 -0.02523297
-0.078526326 -0.057428855 -0.18705837 -0.15027562 -0.019149981 -0.17085354 -0.07731211 -0.16563556
-0.090871796 -0.10625513 -0.042473923 -0.05893535 -0.035274215 0.021680135 -0.119069204 -0.09658315
-0.038017135 -0.12577955 -0.042150687 -0.050981984 -0.1348602 -0.010481641 -0.010191986 -0.09230264
-0.047016826 -0.0132326055 -0.06895712 0.0377964 -0.033649042 -0.02293583 -0.021872982 0.07553101
-0.04307606 0.026250154 -0.035982776 0.067532904 0.01409433 0.053082354 -0.052591372 0.06316354
0.0450897 -0.052258182 0.04881329 0.056739546 -0.040274885 0.05125367 -0.06608129 -0.020150833
-0.08127616 -0.0015260205 -0.07636109 0.07801322 0.08528478 0.026158832 -0.024754338 -0.009850919
-0.061550856 -0.035152968 -0.007937707 -0.074793234 0.044621803 0.057538144 -0.029312186 0.010679051
00000000: 8146 abbd 36a3 65bd ba12 5c3d 6bea 8f3d
00000010: d930 91bd 493e 5ebd b8a1 093c 3dda 7bbd
00000020: 9bbf 7cbd 0064 aabb f818 76bc 4277 703d
00000030: d366 a7bd ecee 05bd 6035 3c3c ce73 673d
00000040: 3160 5cbd 4656 a8bd 1c92 92bc 98e2 913c
00000050: 7646 3b3d 3237 6cbd 3e43 abbd e0cf 923c
00000060: e756 b4bd 70f0 d73b 5670 313d 1003 ba3c
00000070: c2e1 773d 3c73 c5bc 3060 ca3c 409e 59bc
00000080: 6c95 4cbd 8ca2 d13c bcb2 03bf 1e39 163d
00000090: b599 28bd 10df ec3b 9f5b a5bd 9834 69be
000000a0: 7606 0c3e 7a01 953d 2629 4fbf 7a02 e3be
000000b0: b83a 553f daa1 c0be 95ae e53d b88a 263e
000000c0: c591 933e 5a6f eb3e d594 d23e f1f1 993d
000000d0: be91 a9bd f9bd 363d 57f5 77be ab75 113e
000000e0: ac2b 1f3f 8c3a 47bb 3605 5e3e 5d96 a33e
000000f0: 0271 043e 86bd 293f ee3f 753e b43e c33e
00000100: 77fa 4e3e 54b4 5c3c e1d6 9ebc 8cdf 8a3e
00000110: b2da 3e3f 5988 783e e626 053f 8376 413f
00000120: e569 c03e bcde 403e c208 8d3e e781 f9be
00000130: a6ee 953e f9de 123f 7f9a d0bd c488 a63e
00000140: e586 323e 7466 093e 9656 2cbc 7cc4 d7bc
00000150: 487b 63be 1ff6 a1be 1617 e2bc 1b59 0abf
00000160: ff4d 8dbe 558c 1e3e d85c a0bd fd96 983d
00000170: 9c6e a7bc 949f e83c 006e fd3b 08e5 c8bc
00000180: 04eb 96bd 205c 54bb 6bf1 4fbd 95c6 9b3d
00000190: 5979 ac3d 4d47 ac3d 0ed7 d9bc 34c3 96bd
000001a0: 7021 69bc 320a 5d3d 3322 58bd beaf 303d
000001b0: 50f5 05bc a82c 34bc 39cf 0ebd d3c0 4fbd
000001c0: 727d 603d fc6e e43c 2232 313d 61d1 51bd
000001d0: c6b1 383d 24fb ea3c aeab 743d a6b8 5c3d
000001e0: 0072 593c 81c6 ac3d 8054 983b 2cba 89bc
000001f0: 6042 0d3c bcb0 39bd d252 793d a49d d63c
00000200: 815f a7bd 5a3f 753d a537 823d e0fa d53b
00000210: bfeb aebd f361 9b3d b033 c13c c804 96bd
00000220: 00dc df3b 9c25 bebc 8f75 803d b006 e1bb
00000230: a321 08bd baca 3b3d 2044 b13c 2032 4a3c
00000240: 2195 8ebd bbc9 a9bd 0872 da3c 800f 07ba
00000250: 8473 90bc c088 d9bb e05b 52bc a906 09bd
00000260: 3ef6 413d 6c15 d5bc 3c6a ddbc 52a5 8bbd
00000270: d8a2 923c 38fc c8bc c095 ae3b 4568 2cbd
00000280: 5e77 693d 6c62 cbbc 04f2 123c f449 ed3c
00000290: 7b24 03bd 4033 913b dc64 2dbc 4f29 42bd
000002a0: 7699 40bd 5110 d9bd 7c9e a5bd 6537 4ebe
000002b0: a754 7cbd 948d 71bd c3ad d2bd f9a8 bcbd
000002c0: 05fa ddbd a7b0 6cbd 3b72 a1bd 2628 25be
000002d0: 8f2e e6bb 5097 3bbd 9307 51bd 3527 eebd
000002e0: 7eb5 d0bd d742 9ebd c1ca 29be 049e d2bd
000002f0: e357 1abe 8d90 74bd ad15 1fbd 60b5 cebc
00000300: 69d2 a0bd 853a 6bbd 3b8c 3fbe dae1 19be
00000310: 6ce0 9cbc 3bf4 2ebe d055 9ebd 5e9c 29be
00000320: fe1a babd 4a9c d9bd 23f9 2dbd 3266 71bd
00000330: b27b 10bd 8a9a b13c 8eda f3bd 63cd c5bd
00000340: dbb7 1bbd 5bcc 00be 33a6 2cbd 7cd2 50bd
00000350: cb18 0abe 30bb 2bbc 4afc 26bc 2b09 bdbd
00000360: b794 40bd 92cd 58bc 6439 8dbd 66d0 1a3d
00000370: 94d3 09bd ece3 bbbc f82e b3bc 01b0 9a3d
00000380: 8670 30bd 900a d73c ad62 13bd b14e 8a3d
00000390: e8eb 663c e26c 593d 0d6a 57bd e35b 813d
000003a0: faaf 383d ad0c 56bd 72f0 473d ba67 683d
000003b0: 47f7 24bd 5eef 513d a155 87bd 5c13 a5bc
000003c0: 1e74 a6bd c004 c8ba 3463 9cbd 65c5 9f3d
000003d0: c9a9 ae3d 0c4b d63c 9cc9 cabc c065 21bc
000003e0: c01c 7cbd 8ffc 0fbd 280d 02bc 322d 99bd
000003f0: 5ac5 363d 1ead 6b3d 1c20 f0bc 30f7 2e3c

notes_encoder.bias f4 [64]
-0.12465186 -0.16707252 -0.16359484 0.174688 -0.05841389 -0.1682319 -0.1913568 0.1400499
0.15670782 0.04623055 0.13560507 0.079176016 -0.030500391 0.1487037 0.0854032 -0.17991902
-0.16749182 -0.174976 -0.14007229 0.14463204 -0.18017192 -0.16330402 0.12574033 -0.23575754
0.19428116 0.20600706 0.1932932 -0.20681562 0.040389154 -0.107034124 0.08697645 -0.13645165
0.077098824 0.18939978 -0.13835797 -0.11962125 0.017472034 0.12136034 0.14016353 -0.109562725
-0.048198897 -0.21321844 0.06464949 -0.1742089 0.06992843 -0.004757461 0.16439304 0.12879719
0.14862637 0.16929267 -0.05899975 0.1416199 0.04639651 0.13389008 0.17644474 -0.10845141
0.168344 0.07002669 -0.12208105 0.1655116 0.18013428 0.14014548 -0.11280272 -0.20817357
00000000: 7949 ffbd 0f15 2bbe 6885 27be 69e1 323e
00000010: 6743 6fbd fc44 2cbe 09f3 43be 3e69 0f3e
00000020: 0478 203e 3f5c 3d3d 0edc 0a3e 0927 a23d
00000030: f5db f9bc c845 183e dfe7 ae3d b13c 38be
00000040: fa82 2bbe e92c 33be 1c6f 0fbe 6c1a 143e
00000050: fd7e 38be 2b39 27be 13c2 003e 6d6a 71be
00000060: a4f1 463e 84f3 523e a7ee 453e 79c7 53be
00000070: 196f 253d b534 dbbd b620 b23d fbb9 0bbe
00000080: fde5 9d3d 04f2 413e b6ad 0dbe fcfb f4bd
00000090: 8321 8f3c c58b f83d 0787 0f3e 6c62 e0bd
000000a0: 356c 45bd ef55 5abe f466 843d d163 32be
000000b0: a336 8f3d 7ae4 9bbb a656 283e 69e3 033e
000000c0: 8331 183e 0f5b 2d3e b9a9 71bd cf04 113e
000000d0: 440a 3e3d 7b1a 093e eead 343e c61b debd
000000e0: 5f62 2c3e 276a 8f3d a105 fabd df7b 293e
000000f0: 1f75 383e 4c82 0f3e 1d05 e7bd 742b 55be

gru.weight_ih_l0 f4 [192, 64]
0.04127902 0.22471736 0.24284512 -0.0027333575 0.025267906 0.18027805 0.1307845 -0.011001228
-0.2332173 -0.02112712 0.045601904 -0.026449934 0.07657392 -0.19052154 -0.058086284 0.047203504
0.21116202 0.044212565 0.1890734 -0.111013025 0.11855347 0.16145222 -0.056612432 0.1752814
-0.22389318 -0.115852304 -0.17592487 0.16968524 -0.14044377 0.16413206 -0.05363044 0.04313394
-0.18434396 -0.053216938 0.15151311 0.16879651 -0.067573376 -0.17419791 -0.23830608 0.04713665
0.12675431 0.10569477 0.0290219 -0.070117645 -0.012576456 0.063634306 -0.14090745 -0.01256278
0.012272619 -0.21936566 -0.118534036 -0.1327114 0.04869339 -0.17848079 -0.08712797 0.07577524
-0.16759194 -0.025466137 0.12002885 -0.115315944 -0.2516485 -0.10930596 0.1034907 0.041329917
0.042115223 -0.22698116 -0.07988125 0.16027178 -0.1727116 -0.14608526 -0.0429469 0.17615019
-0.0004075002 -0.022085369 0.01340095 0.06331573 0.0204711 0.096511364 0.004460836 -0.102698386
-0.006421416 0.011037046 0.0024712298 0.14178716 -0.20515017 -0.2165504 -0.028188838 -0.050762698
0.21863678 0.122477956 0.12532073 -0.093862906 0.16017064 -0.06965876 0.17990585 -0.12191462
-0.036518995 0.03222683 -0.03672291 -0.06730048 0.108477585 0.18984589 0.097795986 -0.1579646
-0.15767467 -0.1189037 0.06583074 0.01811012 0.16781224 0.09638889 0.107906364 0.14503908
0.15979487 0.15004466 0.06663673 0.14067568 -0.0419456 0.11249836 0.03195569 -0.13517773
0.013378041 -0.08850859 -0.043555435 -0.0025723912 0.21775036 0.087308615 -0.06383889 -0.11404509
0.2352712 -0.09449876 -0.19522311 0.14038777 -0.15089273 0.024887124 -0.016611053 0.16686629
0.09341051 0.20633283 -0.12269996 0.15983076 -0.036138937 -0.0278688 -0.0014876086 -0.044057656
-0.08790732 -0.021364072 0.033999335 0.1363735 0.021258736 -0.19128051 0.10534113 -0.19025514
0.11102213 0.05110551 0.11672905 -0.1042636 0.060399316 -0.030501023 0.20447583 -0.18137656
0.15655303 -0.015241477 -0.04772831 -0.00055404956 0.21663809 0.045122202 0.13016865 -0.13989352
-1.6079666e-05 -0.19164386 0.026090603 -0.122924715 0.038177885 -0.09044464 0.009829896 0.055760033
-0.12630506 0.07193542 0.08637806 0.19566597 0.17722377 0.114795335 0.15519762 -0.019073823
0.17583062 -0.08505785 0.032027505 0.17643014 0.09029811 0.064901076 -0.053995527 -0.14841354
0.15163822 -0.11937141 -0.025205502 0.03995265 -0.21396586 -0.013187546 -0.13084805 0.16386417
0.18781161 0.09120153 -0.07950954 0.12494754 0.2142128 0.13779645 0.018446112 -0.13826
-0.17024437 -0.113821425 -0.024837665 0.058008946 -0.19511902 -0.052071396 0.09292253 0.029442148
0.08963816 0.007675161 -0.03225502 -0.004536649 0.12561151 -0.10321613 0.2014458 -0.07325237
0.09424804 0.19168709 -0.09044839 -0.023147812 0.22312248 0.10218668 0.17058834 -0.045142677
-0.105420254 -0.14227551 0.15175 -0.11210521 0.14445055 -0.08524851 0.112739064 0.009252516
-0.13687688 0.08323782 0.007680265 0.1899313 0.0016717506 0.02599456 0.024011126 -0.13880433
0.11516543 -0.18588875 -0.20877588 -0.02436693 -0.03136791 0.16918416 -0.12795399 -0.06370669
00000000: 3114 293d 4f1c 663e 64ac 783e 2122 33bb
00000010: a4fe ce3c cf9a 383e 5fec 053e 7f3e 34bc
00000020: 84d0 6ebe c812 adbc 10c9 3a3d 88ad d8bc
00000030: cad2 9c3d 1418 43be e2eb 6dbd 7658 413d
00000040: db3a 583e 3c18 353d 759c 413e cc5a e3bd
00000050: 29cc f23d bb53 253e 70e2 67bd f87c 333e
00000060: 4144 65be f943 edbd a625 34be f8c1 2d3e
00000070: 7ed0 0fbe 3c12 283e 98ab 5bbd 37ad 303d
00000080: aac4 3cbe 01fa 59bd 4126 1b3e fed8 2c3e
00000090: e963 8abd f060 32be 8206 74be 5c12 413d
000000a0: e2cb 013e 8076 d83d 56bf ed3c d799 8fbd
000000b0: 7b0d 4ebc b452 823d 0b4a 10be 1ed4 4dbc
000000c0: 1813 493c 64a1 60be f9c1 f2bd 7fe5 07be
000000d0: b872 473d abc3 36be 2670 b2bd 0d30 9b3d
000000e0: 399d 2bbe 5c9e d0bc b0d1 f53d c42a ecbd
000000f0: 12d8 80be cedb dfbd eff2 d33d 8f49 293d
00000100: 0381 2c3d c06d 68be c898 a3bd 491e 243e
00000110: 4fdb 30be 6097 15be 17e9 2fbd b760 343e
00000120: c0a5 d5b9 60ec b4bc a88f 5b3c adab 813d
00000130: 02b3 a73c c0a7 c53d 342c 923b 8853 d2bd
00000140: be6a d2bb bad4 343c 5bf4 213b a730 113e
00000150: e312 52be 63bf 5dbe 47ec e6bc 8cec 4fbd
00000160: 52e2 5f3e b9d5 fa3d 1454 003e 323b c0bd
00000170: c603 243e 41a9 8ebd 3d39 383e 5fae f9bd
00000180: f194 15bd 4800 043d c36a 16bd d6d4 89bd
00000190: 7f29 de3d f666 423e 4349 c83d 79c1 21be
000001a0: 7875 21be c883 f3bd 44d2 863d ad5b 943c
000001b0: f9d6 2b3e 8a67 c53d 03fe dc3d 2085 143e
000001c0: 44a1 233e 4fa5 193e d778 883d 490d 103e
000001d0: 26cf 2bbd 8a65 e63d f8e3 023d 086c 0abe
000001e0: 922f 5b3c fe43 b5bd 2f67 32bd 9095 28bb
000001f0: f3f9 5e3e dcce b23d f7bd 82bd 7990 e9bd
00000200: efea 703e 9188 c1bd 91e8 47be d0c1 0f3e
00000210: a083 1abe 15e0 cb3c e713 88bc ffde 2a3e
00000220: 024e bf3d ea48 533e 1e4a fbbd adaa 233e
00000230: 6c06 14bd 1c4d e4bc ddfb c2ba cd75 34bd
00000240: c108 b4bd b503 afbc e342 0b3d 7fa5 0b3e
00000250: cd26 ae3c 0adf 43be 17bd d73d 3ed2 42be
00000260: 925f e33d 0354 513d a40f ef3d 2888 d5bd
00000270: 4665 773d 48dd f9bc 1d62 513e c7ba 39be
00000280: 704f 203e 63b7 79bc c37e 43bd a33d 11ba
00000290: 60d6 5d3e 0fd2 383d ee4a 053e 3f40 0fbe
000002a0: d2e2 86b7 4a3e 44be f6bb d53c f4bf fbbd
000002b0: 6a60 1c3d 0a3b b9bd 920d 213c a264 643d
000002c0: 1d56 01be e152 933d fbe6 b03d a95c 483e
000002d0: 267a 353e d119 eb3d 20ec 1e3e b540 9cbc
000002e0: f10c 343e cf32 aebd 462f 033d 1aaa 343e
000002f0: 37ee b83d dbea 843d 6a2a 5dbd b8f9 17be
00000300: 0d47 1b3e ff78 f4bd c57b cebc 64a5 233d
00000310: de19 5bbe 9410 58bc 08fd 05be 02cc 273e
00000320: b051 403e dec7 ba3d e6d5 a2bd 7fe4 ff3d
00000330: 9a5a 5b3e 831a 0d3e 4d1c 973c 0894 0dbe
00000340: 8a54 2ebe 351b e9bd 5c78 cbbc ca9a 6d3d
00000350: 48cd 47be d148 55bd 2b4e be3d a930 f13c
00000360: 3694 b73d eb7f fb3b d71d 04bd 2ca8 94bb
00000370: 4ea0 003e fa62 d3bd cf47 4e3e 5705 96bd
00000380: 1e05 c13d 9f49 443e 013d b9bd 7ba0 bdbc
00000390: 387a 643e 4047 d13d b6ae 2e3e 87e7 38bd
000003a0: 93e6 d7bd acb0 11be 5a64 1b3e 6b97 e5bd
000003b0: d8ea 133e c596 aebd bde3 e63d dd97 173c
000003c0: 7429 0cbe 9778 aa3d bbaa fb3b 5a7d 423e
000003d0: a41e db3a 8bf2 d43c fbb2 c43c b922 0ebe
000003e0: dadb eb3d 9f59 3ebe 58c9 55be 289d c7bc
000003f0: a37b 00bd 9d3e 2d3e 5f06 03be a778 82bd

gru.weight_hh_l0 f4 [192, 64]
0.023111504 -0.047307085 -0.1380941 0.20184878 0.078705065 -0.14587212 -0.09531281 0.15915212
0.25357255 -0.05215431 -0.091485426 0.13041045 -0.005460897 -0.23006445 0.02283814 -0.07440844
0.06350187 0.23235288 -0.11582949 -0.022884008 0.16150567 -0.17288095 -0.17111342 -0.1795505
0.010640325 0.18376206 -0.17386945 0.10530668 0.017894069 0.20722252 -0.16623788 -0.19798069
0.013020935 0.23593496 -0.08280703 -0.03604156 -0.18744619 0.16466038 -0.0012310437 0.17189828
0.085950546 -0.1531693 0.075492576 -0.15162826 0.1704038 0.076638326 -0.10314436 -0.08991346
-0.018395772 0.1762935 -0.23405036 0.15819958 0.12676278 0.063157804 -0.07171783 0.20189488
0.005191795 -0.06810642 0.14811279 0.036826577 -0.100789845 -0.11186926 -0.096357025 -0.14644364
-0.042129193 0.044542823 0.069504425 -0.097408056 0.01652764 0.100918405 0.21103798 -0.02784421
-0.057081796 0.15478554 0.076329365 -0.0953586 0.09342289 0.09689854 -0.14856918 0.07429426
0.0017588201 -0.16817711 0.045479473 -0.1668189 -0.07631518 0.22232795 0.17463571 0.0537881
-0.017352227 -0.13100754 0.07932925 -0.062101066 -0.11346001 -0.09166714 -0.039665263 0.131427
-0.1500764 -0.07077588 0.021922614 0.2036869 0.20864625 -0.11334271 -0.17933518 0.0021735993
-0.22199313 -0.0066761468 -0.20416419 0.18875924 -0.040737625 -0.07853384 0.1625702 0.06696664
-0.055449277 -0.08636206 -0.04285 -0.109411955 -0.018894577 0.02586669 0.15413584 -0.0003749347
-0.15419747 -0.12755674 -0.17778504 0.0602383 0.05146983 0.2047493 -0.001336211 0.19246322
-0.2711155 0.093526885 -0.10621626 0.012720253 -0.18686827 0.16495371 -0.010787431 -0.029092293
-0.22868046 0.08617048 0.08015838 0.1418422 0.2132755 -0.006762732 -0.24058886 0.16855454
-0.11269169 -0.17021245 0.11341692 -0.021742994 -0.022171253 0.06270802 0.13854556 0.060953498
-0.21130176 -0.23366152 0.076612175 -0.10005606 -0.19231986 -0.121148765 0.2213525 0.11993541
-0.08975232 -0.22581804 0.093231745 -0.02129953 0.21199945 -0.16836248 -0.15946825 -0.004427057
-0.055715248 0.051243693 -0.09927595 0.07645937 -0.03150816 -0.060491055 0.19835989 0.050591994
0.18082239 0.017460179 0.13594276 -0.22405387 -0.09646704 -0.106002025 -0.011835686 -0.11382234
-0.13577095 0.2126139 -0.14000165 -0.02372518 0.057380162 -0.012176023 0.24496539 0.07126805
-0.13907558 0.096707374 -0.14445385 -0.16220908 0.011736646 0.13931811 0.17251265 0.019475717
-0.0077946265 -0.01666463 0.011501465 -0.005055308 0.20205587 -0.015467127 -0.13097893 0.18388896
-0.035821173 0.02054797 0.16485716 -0.19409554 -0.0025326922 0.18609285 0.047867745 0.1443649
0.034727976 -0.010712777 0.07447743 -0.063286036 -0.0025673567 -0.033092722 0.07578687 0.09794177
-0.15529548 0.010565005 0.1731928 -0.009300696 0.20485039 -0.00901247 -0.045170344 -0.19577065
-0.1430085 0.15807486 -0.09972482 0.14357795 -0.14636587 -0.18472631 -0.028337263 0.05957986
0.082602225 -0.08998316 0.13802654 0.0038144358 -0.18430436 -0.23798537 0.049284372 -0.047033742
-0.09429454 0.084977396 -0.07971945 -0.096448 0.09749568 0.18103185 0.12824176 0.020085026
00000000: 5654 bd3c 13c5 41bd 8a68 0dbe 72b1 4e3e
00000010: 1f30 a13d 805f 15be 5d33 c3bd c6f8 223e
00000020: 43d4 813e c29f 55bd b65c bbbd 518a 053e
00000030: 53f1 b2bb 0496 6bbe 0d17 bb3c 7463 98bd
00000040: 450d 823d eaed 6d3e 0338 edbd 3e77 bbbc
00000050: be61 253e b407 31be 5b38 2fbe 16dc 37be
00000060: c254 2e3c 1f2c 3c3e d50a 32be 07ab d73d
00000070: 9596 923c 2432 543e 433a 2abe 73bb 4abe
00000080: c255 553c ef98 713e bb96 a9bd 51a0 13bd
00000090: e5f1 3fbe bb9c 283e f95a a1ba 1a06 303e
000000a0: d706 b03d 6ad8 1cbe da9b 9a3d 7044 1bbe
000000b0: 557e 2e3e 8ef4 9c3d 5a3d d3bd 8c24 b8bd
000000c0: bbb2 96bc 4986 343e e6aa 6fbe 12ff 213e
000000d0: 1ace 013e e158 813d cce0 92bd 88bd 4e3e
000000e0: ef1f aa3b 617b 8bbd e1aa 173e 77d7 163d
000000f0: e86a cebd b61b e5bd d556 c5bd 52f5 15be
00000100: a98f 2cbd 8972 363d 5658 8e3d e07d c7bd
00000110: f964 873c 4fae ce3d 571a 583e 8a19 e4bc
00000120: 9ace 69bd 1a80 1e3e 9252 9c3d 5f4b c3bd
00000130: 8054 bf3d be72 c63d 8522 18be 9727 983d
00000140: 3688 e63a 9f36 2cbe af48 3a3d 93d2 2abe
00000150: 224b 9cbd f0a9 633e b4d3 323e e950 5c3d
00000160: 4226 8ebc d726 06be 6077 a23d b05d 7ebd
00000170: b95d e8bd fbbb bbbd 0b78 22bd cd94 063e
00000180: a1ad 19be f2f2 90bd 0e97 b33c 4c93 503e
00000190: 5da7 553e 3920 e8bd a4a3 37be f272 0e3b
000001a0: 2b52 63be 94c3 dabb 6b10 51be 1a4a 413e
000001b0: 7fdc 26bd 5ad6 a0bd cd78 263e ce25 893d
000001c0: c81e 63bd 97de b0bd 7b83 2fbd 6013 e0bd
000001d0: cdc8 9abc 61e6 d33c c9d5 1d3e e292 c4b9
000001e0: f1e5 1dbe 3c9e 02be 480d 36be 70bc 763d
000001f0: 07d2 523d cda9 513e cd23 afba 1415 453e
00000200: a7cf 8abe 068b bf3d e987 d9bd 9c68 503c
00000210: 655a 3fbe a0e9 283e c4bd 30bc f652 eebc
00000220: 362b 6abe 267a b03d 142a a43d 153f 113e
00000230: e564 5a3e e899 ddbb ed5c 76be 9099 2c3e
00000240: e7ca e6bd 2c4c 2ebe 2147 e83d 5d1e b2bc
00000250: 7da0 b5bc 106d 803d e3de 0d3e 60aa 793d
00000260: 7d5f 58be f744 6fbe d8e6 9c3d 31ea ccbd
00000270: 7fef 44be d81c f8bd 3baa 623e b2a0 f53d
00000280: 10d0 b7bd d83c 67be 49f0 be3d 5a7c aebc
00000290: 6216 593e 3767 2cbe a54b 23be d910 91bb
000002a0: ac35 64bd e8e4 513d 3051 cbbd bb96 9c3d
000002b0: b30e 01bd 78c5 77bd db1e 4b3e 8d39 4f3d
000002c0: 8129 393e a608 8f3c 9434 0b3e 616e 65be
000002d0: 8390 c5bd 9717 d9bd 77ea 41bc b01b e9bd
000002e0: 8a07 0bbe 75b7 593e 985c 0fbe 4f5b c2bc
000002f0: 7607 6b3d f17d 47bc 35d8 7a3e fcf4 913d
00000300: d469 0ebe 840e c63d b6eb 13be 231a 26be
00000310: 104b 403c 68a9 0e3e 28a7 303e 8a8b 9f3c
00000320: 116a ffbb 4384 88bc a470 3c3c ffa6 a5bb
00000330: bce7 4e3e d569 7dbc 571f 06be 634d 3c3e
00000340: 39b9 12bd 3754 a83c 51d0 283e fbc0 46be
00000350: 86fb 25bb 208f 3e3e f810 443d 64d4 133e
00000360: ec3e 0e3d a584 2fbc 9f87 983d 1c9c 81bd
00000370: 1941 28bb 3c8c 07bd 2636 9b3d b295 c83d
00000380: c705 1fbe d818 2d3c 7459 313e f261 18bc
00000390: 4dc4 513e 0aa9 13bc 8a04 39bd 1a78 48be
000003a0: d270 12be 60de 213e 873c ccbd 1906 133e
000003b0: efe0 15be e528 3dbe 8c23 e8bc 030a 743d
000003c0: 5b2b a93d 1749 b8bd d456 0d3e 9dfb 793b
000003d0: 48ba 3cbe 70b2 73be 69de 493d 74a6 40bd
000003e0: 7f1d c1bd a108 ae3d f343 a3bd 8786 c5bd
000003f0: d1ab c73d 6a60 393e cf51 033e 5a89 a43c

gru.bias_ih_l0 f4 [192]
-0.20051809 0.14697194 -0.034672566 0.1620619 0.014638302 0.09403993 0.07622064 0.08246161
0.07715444 0.11893816 0.07039136 -0.124534786 0.12900518 0.21158601 0.10883277 0.14489017
0.18346871 0.06829357 -0.065217555 0.15363917 0.041432634 0.11904834 0.15532967 0.14195228
0.09559928 0.04595942 -0.033643197 0.010763811 0.1852994 0.0052902605 0.039591856 0.06722891
0.17832245 0.10546995 0.15352413 -0.055704433 0.106524855 0.04804143 0.11934131 0.23657577
0.17873114 0.02226783 0.062073898 -0.023900047 0.058606286 -0.008746691 -0.036090318 -0.031359382
-0.02754917 0.047030788 0.10923223 0.23058985 0.15999827 0.031624068 0.14262219 0.0719126
-0.02437713 -0.15435725 0.18197267 0.009606836 0.09022192 0.0042769657 0.12475201 -0.02353027
-0.18892667 0.03724861 0.37351727 0.18039349 -0.11909773 -0.13879175 0.005135043 -0.0033847154
0.09886534 -0.28733256 -0.08292423 -0.11749263 -0.2670321 -0.17691545 -0.06637045 -0.1520318
0.044778053 -0.07250034 0.07131069 -0.05806327 0.19818832 0.017990937 -0.019715948 -0.14658004
-0.026581636 -0.046763845 0.07536266 0.10710383 -0.007134166 0.01649133 -0.050999448 -0.24991722
0.12923187 -0.028437424 0.27218515 -0.17654976 -0.17507967 -0.18229263 0.027914234 0.39753488
-0.11272859 0.117934726 0.07805014 0.04747832 0.024918221 -0.031585682 -0.02936325 0.039134476
-0.28411642 0.06989203 0.18777248 -0.07500321 -0.17154318 0.06030137 0.06545986 0.028671298
-0.074976906 0.011932216 0.12933666 0.32923555 -0.14566956 -0.05197851 -0.08607747 0.09615294
-0.07943233 0.109757386 0.018141031 -0.13271838 -0.16859137 0.14529125 0.110275775 -0.20718642
-0.16325179 0.17039698 0.22305727 -0.08320379 0.15552583 0.14307418 -0.16748938 0.15183526
-0.16580327 -0.1595675 0.0033979327 0.011041025 -0.17400506 0.16589756 0.19598359 0.18448053
-0.13396388 0.030524556 0.1379784 -0.2181737 -0.19011734 -0.1358994 0.16305918 0.20096017
-0.25727567 -0.23832123 -0.011332309 0.20202488 0.15250987 -0.14984876 -0.14748007 -0.035481922
-0.1924286 0.0848659 -0.013044074 0.18013749 -0.14289045 -0.16758507 0.23152405 0.04081006
0.089889646 -0.030881932 0.13636012 -0.12078214 -0.22847246 -0.070282385 0.17838569 -0.21930218
-0.12744077 0.13004094 -0.12291553 -0.05473062 0.10056775 0.21720235 0.1866324 0.22192027
00000000: 9d54 4dbe d07f 163e d204 0ebd 8ef3 253e
00000010: 7dd5 6f3c 0298 c03d 9119 9c3d a2e1 a83d
00000020: 2603 9e3d da95 f33d 5829 903d 180c ffbd
00000030: ef19 043e 01aa 583e b7e3 de3d 175e 143e
00000040: 39df 3b3e 80dd 8b3d c890 85bd 9653 1d3e
00000050: 44b5 293d 9ecf f33d be0e 1f3e f05b 113e
00000060: 8ec9 c33d f23f 3c3d 73cd 09bd b25a 303c
00000070: 20bf 3d3e ec59 ad3b 122b 223d 50af 893d
00000080: 299a 363e a100 d83d 6e35 1d3e 552a 64bd
00000090: b429 da3d 17c7 443d 3769 f43d eb40 723e
000000a0: 4c05 373e 066b b63c 3341 7e3d 08ca c3bc
000000b0: 250d 703d 484e 0fbc 71d3 13bd b272 00bd
000000c0: ccae e1bc 5ba3 403d 26b5 df3d bf1f 6c3e
000000d0: 96d6 233e 3d88 013d 8d0b 123e ea46 933d
000000e0: 8cb2 c7bc d40f 1ebe 0b57 3a3e fe65 1d3c
000000f0: 45c6 b83d ca25 8c3b fb7d ff3d 8ec2 c0bc
00000100: fe75 41be 0092 183d a83d bf3e 12b9 383e
00000110: 83e9 f3bd 6d1f 0ebe dd43 a83b 1ad2 5dbb
00000120: e979 ca3d 411d 93be 2ed4 a9bd fa9f f0bd
00000130: 6eb8 88be 5329 35be 3bed 87bd 39ae 1bbe
00000140: 3169 373d 0f7b 94bd 570b 923d c0d3 6dbd
00000150: e1f1 4a3e bb61 933c 5783 a1bc 1419 16be
00000160: bbc1 d9bc 728b 3fbd bd57 9a3d 4159 db3d
00000170: b9c5 e9bb d318 873c cce4 50bd 4dea 7fbe
00000180: 5c55 043e 9af5 e8bc da5b 8b3e 76c9 34be
00000190: 1648 33be ebaa 3abe 64ac e43c b189 cb3e
000001a0: 3fde e6bd c387 f13d c0d8 9f3d a078 423d
000001b0: 4c21 cc3c fd5f 01bd 338b f0bc 794b 203d
000001c0: b577 91be 8d23 8f3d 6e47 403e 489b 99bd
000001d0: 04a9 2fbe 92fe 763d d20f 863d 12e0 ea3c
000001e0: 7e8d 99bd 577f 433c d470 043e 9091 a83e
000001f0: 672a 15be 6be7 54bd 6249 b0bd d5eb c43d
00000200: 6bad a2bd 7bc8 e03d 809c 943c 54e7 07be
00000210: 37a3 2cbe 3bc7 143e 44d8 e13d ad28 54be
00000220: 7a2b 27be 8c7c 2e3e 2069 643e c066 aabd
00000230: 2a42 1f3e 0a82 123e 5682 2bbe b47a 1b3e
00000240: 55c8 29be aa65 23be daaf 5e3b 6ae5 343c
00000250: 622e 32be 0de1 293e ecaf 483e 77e8 3c3e
00000260: d42d 09be a20e fa3c 364a 0d3e ed68 5fbe
00000270: 1fae 42be 3629 0bbe fcf8 263e 81c8 4d3e
00000280: a3b9 83be 7b0a 74be 26ab 39bc 9cdf 4e3e
00000290: 8c2b 1c3e f471 19be 0405 17be 7e55 11bd
000002a0: 010c 45be 2cce ad3d d0b6 55bc f675 383e
000002b0: e051 12be 6c9b 2bbe a414 6d3e 7328 273d
000002c0: 1018 b83d 1bfc fcbc fda1 0b3e a05c f7bd
000002d0: aff4 69be 36f0 8fbd bdaa 363e c090 60be
000002e0: d57f 02be 7429 053e 23bb fbbd 372d 60bd
000002f0: 77f6 cd3d 4b6a 5e3e 901c 3f3e 113f 633e

gru.bias_hh_l0 f4 [192]
-0.12473561 0.20482983 0.023602428 -0.0035723355 0.13284954 0.19553731 0.08139476 0.090780474
0.19688556 0.10079166 0.0520541 -0.033738535 0.14015988 0.057054445 0.15568635 0.05541869
0.20187803 0.093788035 -0.1652695 0.15926921 -0.11059944 0.06354009 0.0052604266 0.17809181
0.13034424 0.05560925 0.17840706 0.05213083 0.026355973 0.13297428 -0.00285898 0.14775887
-0.014283863 0.22833833 0.049972147 0.0075473934 0.21079941 0.18778715 0.13037778 0.11792426
0.103798054 0.16206877 0.03030511 0.069815956 0.18039729 0.015469994 0.0007570595 -0.022278247
-0.058904428 -0.0064709084 0.18294568 0.030481504 0.089384206 0.025001131 0.13251843 0.18187091
-0.010878915 -0.12252763 0.08532333 -0.044907536 0.1463775 0.116181515 -0.04534768 0.021910045
0.009483218 -0.10672822 0.45745033 0.32948938 0.030427646 -0.13836949 -0.18581696 -0.23708193
0.092645176 -0.17579587 -0.19630468 -0.047101762 -0.24041665 -0.08769186 -0.18081272 -0.043315835
-0.07301325 -0.10689837 -0.13409136 -0.18356201 0.23436935 -0.052078877 -0.035271402 -0.06587801
-0.14005968 -0.16356622 0.057340436 -0.038346343 -0.12378946 0.11093151 0.12875408 -0.272062
0.068924524 0.03132128 0.19726118 0.001383067 -0.12596904 -0.13368204 -0.12879397 0.5029137
-0.14925003 0.022928461 0.08143877 -0.065093175 -0.1542834 -0.05392957 -0.089233376 0.047635112
-0.13677776 -0.036206406 0.24787429 -0.013530577 -0.05051395 -0.17700915 -0.020381797 0.07771845
-0.1481998 -0.09954062 -0.00589398 0.291077 0.007748442 0.15226144 0.037218127 0.10021427
-0.17395112 0.20568706 -0.102451146 -0.0063317013 -0.21864638 0.2317187 0.18096595 -0.041072242
-0.21282104 0.23754285 0.14403355 -0.016638286 0.22667265 0.18210736 -0.050700236 0.19994813
-0.15495273 -0.037373077 0.101770215 -0.102503136 -0.13766482 0.13596506 0.19524972 0.019202659
-0.13888864 -0.13890222 0.185786 -0.1406879 -0.1396967 -0.19072366 0.0088281045 0.086346336
-0.01707276 -0.21946828 -0.068661466 0.0167065 0.1519363 -0.12180136 -0.032861076 -0.08408931
-0.0013629422 0.18245962 -0.10991793 0.12913495 -0.15976523 -0.18496254 0.0990364 0.12416405
0.004553525 -0.1345953 -0.035814162 -0.24041119 -0.14978075 -0.15025052 0.09054033 -0.0044261883
-0.10017248 -0.002731244 -0.13644232 0.09179735 0.22992773 0.053352553 0.15015341 0.011402951
00000000: 6275 ffbd e9be 513e e159 c13c d81d 6abb
00000010: b609 083e ef3a 483e 4cb2 a63d 1deb b93d
00000020: 5e9c 493e dc6b ce3d ae36 553d 6b31 0abd
00000030: 1286 0f3e ecb1 693d 3e6c 1f3e b5fe 623d
00000040: 1db9 4e3e f113 c03d 683c 29be 7817 233e
00000050: f681 e2bd 4f21 823d a85f ac3b b35d 363e
00000060: f678 053e 86c6 633d 57b0 363e 2387 553d
00000070: 7be8 d73c 692a 083e ba5d 3bbb 1a4e 173e
00000080: dd06 6abc 86d1 693e 98af 4c3d 2050 f73b
00000090: cddb 573e 464b 403e c181 053e 4682 f13d
000000a0: 1394 d43d 5bf5 253e 6c42 f83c abfb 8e3d
000000b0: 11ba 383e dc75 7d3c 6775 463a df80 b6bc
000000c0: c545 71bd ea09 d4bb 1d56 3b3e 59b4 f93c
000000d0: 110f b73d 2ccf cc3c e9b2 073e 5e3c 3a3e
000000e0: 7a3d 32bc c4ef fabd ffbd ae3d f7f0 37bd
000000f0: fce3 153e 93f0 ed3d 7dbe 39bd b27c b33c
00000100: 805f 1b3c 5394 dabd ee36 ea3e d5b2 a83e
00000110: 6643 f93c bbb0 0dbe cd46 3ebe 9bc5 72be
00000120: c1bc bd3d d503 34be 1804 49be c7ed 40bd
00000130: c82f 76be ca97 b3bd f826 39be f26b 31bd
00000140: f987 95bd 88ed dabd 3f4f 09be aef7 3bbe
00000150: 85fe 6f3e a950 55bd bf78 10bd 0deb 86bd
00000160: ce6b 0fbe e77d 27be cedd 6a3d 0e11 1dbd
00000170: 5485 fdbd 0f30 e33d 1cd8 033e b64b 8bbe
00000180: 4d28 8d3d be4a 003d d6fe 493e 0748 b53a
00000190: 07fe 00be f2e3 08be 91e2 03be f4be 003f
000001a0: 00d5 18be 78d4 bb3c 5fc9 a63d 924f 85bd
000001b0: 78fc 1dbe 41e5 5cbd fdbf b6bd 091d 433d
000001c0: 780f 0cbe 2b4d 14bd c2d2 7d3e 5aaf 5dbc
000001d0: b7e7 4ebd e341 35be baf7 a6bc da2a 9f3d
000001e0: b0c1 17be f4db cbbd 4a22 c1bb 0b08 953e
000001f0: a4e6 fd3b 6cea 1b3e 0972 183d 243d cd3d
00000200: 3e20 32be a19f 523e e8d1 d1bd 297a cfbb
00000210: d6e4 5fbe ab47 6d3e 234f 393e 5e3b 28bd
00000220: c2ed 59be 6f3e 733e 887d 133e 044d 88bc
00000230: e01c 683e 5a7a 3a3e 0dab 4fbd 34bf 4c3e
00000240: eeab 1ebe 8314 19bd e76c d03d 2aed d1bd
00000250: 02f8 0cbe 6d3a 0b3e 8bef 473e e54e 9d3c
00000260: d338 0ebe 623c 0ebe af3e 3e3e 7d10 10be
00000270: a70c 0fbe 104d 43be c1a3 103c 59d6 b03d
00000280: 2cdc 8bbc 4bbc 60be 629e 8cbd 12dc 883c
00000290: 3095 1b3e fe72 f9bd 5699 06bd 0437 acbd
000002a0: c0a4 b2ba b2d6 3a3e a71c e1bd f43b 043e
000002b0: 7f99 23be d266 3dbe 99d3 ca3d b949 fe3d
000002c0: bc35 953b 5ad3 09be dfb1 12bd 5a2e 76be
000002d0: 2060 19be 46db 19be 356d b93d 8f09 91bb
000002e0: 3b27 cdbd acfe 32bb 89b7 0bbe 4000 bc3d
000002f0: 2d72 6b3e 3588 5a3d d1c1 193e 71d3 3a3c

notes_decoder.weight f4 [128, 64]
0.06723567 -0.09694013 0.15613599 0.18062209 0.1883568 -0.05890556 -0.0498653 0.07803247
0.14471665 -0.1954076 -0.27838692 0.017710617 -0.087029465 -0.28574446 0.056765653 -0.22122514
0.23545772 0.07853889 0.062843 0.0450294 0.29414105 -0.18620786 -0.2802958 -0.16886106
0.28625515 0.20734648 -0.19094986 0.19643532 0.16466857 0.13151799 -0.1820341 -0.1305551
0.15289967 0.14652826 -0.07980616 -0.26610315 -0.18795647 0.19640811 0.15476866 0.23277052
0.0996746 -0.19752957 0.1409686 -0.24428132 0.053615116 0.2830273 -0.17742655 -0.21437776
0.025771543 0.180605 -0.12563813 0.22620736 0.14480793 0.12999676 -0.19121611 0.12777323
0.25073135 -0.12672703 0.14145473 0.09439195 -0.11491825 -0.12693454 -0.124827474 -0.07265554
0.04896409 -0.06513855 0.0392926 0.19646391 0.12380944 -0.28015456 -0.11268502 0.14817794
0.1717672 -0.26380086 -0.15854524 0.11108281 -0.08859008 -0.075786136 0.2781833 -0.16216287
0.29394406 0.2742139 -0.031553395 0.14697222 0.19868794 -0.124360576 -0.101269044 -0.2183627
0.09282835 0.23083831 -0.20388342 0.18991734 0.29141393 0.13446555 -0.15863192 -0.19663914
0.1527665 0.13446857 -0.045337357 -0.16689359 -0.20583582 0.21499465 0.13696828 0.18900771
0.18260941 -0.2176008 0.053909816 -0.08517788 0.2806342 0.10098363 -0.20843011 -0.059100132
0.015304205 0.093534 -0.15451856 0.16896914 0.1680247 0.2015504 -0.21491513 0.16071044
0.28865317 0.0017131224 0.23202318 0.03728019 -0.25984848 -0.06692304 -0.14819022 -0.13393763
-0.035126794 -0.20912655 0.17606394 0.23992684 0.26231754 -0.0929548 -0.075826004 0.21405675
0.30150852 -0.07824775 -0.17112008 -0.07518123 -0.27168083 -0.2720108 0.14758234 -0.119159386
0.093810596 0.08973301 0.016130125 0.0271702 0.21784955 -0.11083643 -0.17146903 -0.24383967
0.2792544 0.22874136 -0.20321177 0.23749463 0.2401937 0.198531 -0.17691359 -0.19371721
0.093085125 0.09788254 -0.19655125 -0.22013749 -0.20755899 0.16981119 0.16019553 0.18255346
0.20446153 -0.05770928 0.06438305 -0.11378095 0.2843998 0.18799359 -0.25989547 -0.058098603
0.112219326 0.12959349 -0.21140116 0.15569478 0.25224432 0.20169857 -0.098687224 0.13693789
0.17350952 -0.03505769 0.08952536 0.15125512 -0.03698467 -0.07386296 -0.10685007 -0.17724046
0.045774367 -0.16871955 0.22915688 0.098475024 0.094632655 -0.14635023 -0.079745576 0.08288131
0.25140288 -0.12839104 -0.2331832 0.05264281 -0.25393432 -0.06746007 0.27598205 -0.1481453
0.13911942 0.08174901 0.06938954 0.23780186 0.13109384 -0.12016899 -0.2820403 -0.08276291
0.22826886 0.23324026 -0.054954037 0.29912224 0.0944659 0.26640794 -0.18981242 -0.29371777
0.22669104 0.28477928 -0.09868711 -0.25157014 -0.07555324 0.18421893 0.27958634 0.17276432
0.2525656 -0.13212709 -0.0031580366 -0.121714905 0.20157444 0.1172535 -0.2894843 -0.16765462
-0.06302423 0.08842532 -0.21926145 0.06129851 0.05662288 0.13289301 -0.07792579 0.1939377
0.14797732 0.03333706 0.27394807 -0.0066233217 -0.13254228 -0.11320015 -0.04184702 -0.29891056
00000000: dbb2 893d 8c88 c6bd 1de2 1f3e fff4 383e
00000010: 9be0 403e f546 71bd 8f3f 4cbd 7dcf 9f3d
00000020: 9a30 143e ee18 48be bb88 8ebe db15 913c
00000030: 813c b2bd 194d 92be 1a83 683d d888 62be
00000040: d41b 713e ffd8 a03d d5b3 803d c070 383d
00000050: a899 963e 46ad 3ebe ee82 8fbe eae9 2cbe
00000060: 0990 923e a352 543e 5c88 43be 5726 493e
00000070: e19e 283e a7ac 063e 2667 3abe 3cb0 05be
00000080: bb91 1c3e 810b 163e 6971 a3bd ac3e 88be
00000090: a977 40be 351f 493e ad7b 1e3e 655b 6e3e
000000a0: 3222 cc3d 3145 4abe 135a 103e e224 7abe
000000b0: 869b 5b3d f4e8 903e 4eaf 35be d885 5bbe
000000c0: d81e d33c 84f0 383e 48a7 00be e7a2 673e
000000d0: 8848 143e df1d 053e 28ce 43be fcd6 023e
000000e0: dc5f 803e bbc4 01be 82d9 103e 9150 c13d
000000f0: 425a ebbd 21fb 01be 8ca5 ffbd 6ecc 94bd
00000100: 928e 483d 5c67 85bd 47f1 203d d62d 493e
00000110: ce8f fd3d 6b70 8fbe 67c7 e6bd f5bb 173e
00000120: bee3 2f3e e810 87be af59 22be 627f e33d
00000130: b76e b5bd c335 9bbd 0b6e 8e3e 060e 26be
00000140: d67f 963e c465 8c3e 223e 01bd e37f 163e
00000150: da74 4b3e c2b0 febd 2566 cfbd 799a 5fbe
00000160: ca1c be3d e160 6c3e d1c6 50be b179 423e
00000170: 3534 953e 56b1 093e 6870 22be c55b 49be
00000180: d26e 1c3e 21b2 093e aab3 39bd 27e6 2abe
00000190: a0c6 52be 8f27 5c3e 6a41 0c3e 3d8b 413e
000001a0: f6fd 3a3e bed2 5ebe 8ad0 5c3d be71 aebd
000001b0: 49af 8f3e 81d0 ce3d b46e 55be fb12 72bd
000001c0: 7dbe 7a3c c18e bf3d 1d3a 1ebe 3f06 2d3e
000001d0: ab0e 2c3e 3a63 4e3e b612 5cbe 4791 243e
000001e0: 59ca 933e d98a e03a 7c97 6d3e 1db3 183d
000001f0: dc0a 85be f20e 89bd 2dbf 17be f226 09be
00000200: 1de1 0fbd 4525 56be 1b4a 343e 62af 753e
00000210: 7c4e 863e 165f bebd aa4a 9bbd b131 5b3e
00000220: 535f 9a3e 5b40 a0bd 1a3a 2fbe 9ef8 99bd
00000230: c019 8bbe 0045 8bbe d31f 173e d609 f4bd
00000240: c51f c03d f1c5 b73d 5323 843c 0a94 de3c
00000250: f413 5f3e 36fe e2bd 9495 2fbe 1bb1 79be
00000260: 6ffa 8e3e 2d3b 6a3e bf16 50be cb31 733e
00000270: 56f5 753e b64b 4b3e d628 35be ce5d 46be
00000280: 6aa3 be3d a476 c83d bb44 49be b96b 61be
00000290: 588a 54be fce2 2d3e 4c0a 243e 4bef 3a3e
000002a0: 5d5e 513e 9160 6cbd 43db 833d fd05 e9bd
000002b0: da9c 913e 6481 403e 0511 85be cdf8 6dbd
000002c0: 3fd3 e53d 28b4 043e 8c79 58be 746e 1f3e
000002d0: 2b26 813e 128a 4e3e 871c cabd 7239 0c3e
000002e0: 7bac 313e a798 0fbd 1259 b73d 9fe2 1a3e
000002f0: 3d7d 17bd 7745 97bd 36d4 dabd 867e 35be
00000300: e77d 3b3d d1c4 2cbe 1aa8 6a3e 46ad c93d
00000310: c4ce c13d d6dc 15be a651 a3bd adbd a93d
00000320: e1b7 803e f178 03be 94c7 6ebe fd9f 573d
00000330: ae03 82be 8128 8abd 854d 8d3e 67b3 17be
00000340: 5275 0e3e 066c a73d 1a1c 8e3d 5582 733e
00000350: 773d 063e 291b f6bd 9667 90be 9a7f a9bd
00000360: 50bf 693e 89d6 6e3e 7c17 61bd 8d26 993e
00000370: 5677 c13d 9f66 883e 305e 42be 2d62 96be
00000380: b221 683e 97ce 913e 781c cabd cdcd 80be
00000390: a8bb 9abd e3a3 3c3e f125 8f3e 21e9 303e
000003a0: 4750 813e 534c 07be 10f7 4ebb aa45 f9bd
000003b0: 8869 4e3e 9a22 f03d 4937 94be a7ad 2bbe
000003c0: d912 81bd 5618 b53d 1386 60be 2514 7b3d
000003d0: 65ed 673d 1b15 083e 8e97 9fbd 9b97 463e
000003e0: 5e87 173e 718c 083d ec42 8c3e 7308 d9bb
000003f0: 2ab9 07be 7bd5 e7bd c867 2bbd ce0a 99be

notes_decoder.bias f4 [128]
-0.032176796 -0.18019831 -0.14154539 -0.24151134 -0.14200076 -0.14459315 -0.2019068 -0.17652726
-0.2363868 -0.25082216 -0.15105425 -0.056896877 -0.048754837 -0.1856104 -0.057627738 -0.22176078
-0.044882536 -0.20178923 -0.055577252 -0.08169773 -0.15857047 -0.1250734 -0.05858815 -0.13638985
-0.078215465 -0.19548683 -0.082232125 -0.0869755 -0.09841696 -0.0339541 -0.16910258 -0.20503336
-0.19087861 -0.12164049 -0.0775935 -0.037148613 -0.12591062 -0.06613158 -0.033218317 -0.21271656
-0.1755589 -0.07839197 -0.23500022 -0.17089048 -0.22279358 -0.1184138 -0.12776072 -0.12848222
-0.15199122 -0.037769277 -0.07389017 -0.04105515 -0.02604084 -0.15470162 -0.23102431 -0.16096717
-0.17907198 -0.034691047 0.006012058 -0.2437684 -0.00486605 -0.035619076 -0.030116688 -0.14237705
-0.013964901 -0.22578375 -0.024011292 -0.10554926 -0.21715564 -0.18508716 -0.14909293 -0.1722771
-0.21362641 -0.058804344 -0.10589836 -0.1420934 -0.21537374 -0.040347844 -0.16189712 -0.08939983
-0.21814838 -0.22335576 -0.20671399 -0.21166082 -0.1768775 -0.11396535 -0.05822076 -0.19491635
-0.039269015 -0.11519354 -0.24031538 -0.07692057 -0.17434295 -0.07442358 -0.2023198 -0.25825888
-0.06717011 -0.010439765 -0.18958147 -0.18352574 -0.04588943 -0.0667699 -0.06357299 -0.22411518
-0.2522058 -0.05029885 -0.2521431 -0.26633483 -0.23890476 -0.11386224 -0.0645926 -0.1435368
-0.21582302 -0.08487454 -0.079864934 -0.13970709 -0.20215431 -0.21655314 -0.22690533 -0.16360518
-0.069284335 -0.23253079 -0.13398683 -0.06659158 -0.045875 -0.05112693 -0.20272514 -0.11469415
00000000: d1cb 03bd e885 38be 46f1 10be c04e 77be
00000010: a668 11be 3a10 14be a8c0 4ebe 90c3 34be
00000020: 620f 72be c36b 80be f7ad 1abe b30c 69bd
00000030: 27b3 47bd a710 3ebe 100b 6cbd 4215 63be
00000040: c0d6 37bd d6a1 4ebe f9a4 63bd 2451 a7bd
00000050: 4c60 22be 3e13 00be 21fa 6fbd c8a9 0bbe
00000060: 6e2f a0bd b32d 48be 5169 a8bd 3620 b2bd
00000070: d58e c9bd 7413 0bbd 3a29 2dbe 44f4 51be
00000080: af75 43be a61e f9bd 57e9 9ebd 2529 18bd
00000090: b7ee 00be fe6f 87bd ee0f 08bd 5fd2 59be
000000a0: b6c5 33be f88b a0bd e6a3 70be eafd 2ebe
000000b0: 0024 64be ef82 f2bd b5d3 02be d890 03be
000000c0: 96a3 1bbe f5b3 1abd bb53 97bd 7229 28bd
000000d0: 9a53 d5bc 1a6a 1ebe a391 6cbe 94d4 24be
000000e0: a55e 37be 3318 0ebd cc00 c53b 6c9e 79be
000000f0: 6373 9fbb 4fe5 11bd 46b7 f6bc 4acb 11be
00000100: 0acd 64bc db33 67be 54b3 c4bc 362a d8bd
00000110: 0c5e 5ebe 7d87 3dbe d1ab 18be 6869 30be
00000120: e2c0 5abe d3dc 70bd 3de1 d8bd ef80 11be
00000130: ef8a 5cbe c843 25bd 5cc8 25be 4217 b7bd
00000140: 4a62 5fbe 5fb7 64be d5ac 53be 9dbd 58be
00000150: 601f 35be aa66 e9bd e478 6ebd 2798 47be
00000160: 8cd8 20bd 97ea ebbd 3c15 76be 8888 9dbd
00000170: f586 32be 646b 98bd ec2c 4fbe 823a 84be
00000180: 7c90 89bd 8c0b 2bbc a521 42be 2cee 3bbe
00000190: 8ef6 3bbd a8be 88bd 8e32 82bd 737e 65be
000001a0: 1e21 81be 2b06 4ebd e718 81be 0a5d 88be
000001b0: 73a3 74be 9b30 e9bd 2049 84bd 50fb 12be
000001c0: b600 5dbe b4d2 adbd 3a90 a3bd 600f 0fbe
000001d0: 8a01 4fbe 1bc0 5dbe df59 68be 1e88 27be
000001e0: f2e4 8dbd 8d1c 6ebe d833 09be 2b61 88bd
000001f0: 6de7 3bbd 796a 51bd 2e97 4fbe c4e4 eabd
