saved_models/generalist_BCE_1e-2_189.pth (torch_old, 167373 bytes, 8 tensors)

notes_encoder.weight f4 [64, 128]
000000 81 46 ab bd 36 a3 65 bd ba 12 5c 3d 6b ea 8f 3d
       -0.08363057 -0.056063853 0.053728797 0.070271336
000010 d9 30 91 bd 49 3e 5e bd b8 a1 09 3c 3d da 7b bd
       -0.07089395 -0.05425862 0.008400373 -0.061487425
000020 9b bf 7c bd 00 64 aa bb f8 18 76 bc 42 77 70 3d
       -0.061706167 -0.005199909 -0.015020601 0.058707483
000030 d3 66 a7 bd ec ee 05 bd 60 35 3c 3c ce 73 67 3d
       -0.08173909 -0.032698557 0.011487335 0.056506924
000040 31 60 5c bd 46 56 a8 bd 1c 92 92 bc 98 e2 91 3c
       -0.053802673 -0.0821958 -0.017891936 0.017808244
000050 76 46 3b 3d 32 37 6c bd 3e 43 ab bd e0 cf 92 3c
       0.045721494 -0.057669826 -0.08362435 0.017921388
000060 e7 56 b4 bd 70 f0 d7 3b 56 70 31 3d 10 03 ba 3c
       -0.08805638 0.0065899417 0.043320023 0.022706538
000070 c2 e1 77 3d 3c 73 c5 bc 30 60 ca 3c 40 9e 59 bc
       0.060518034 -0.0241028 0.024704069 -0.013282359
000080 6c 95 4c bd 8c a2 d1 3c d2 29 05 bf 1e 39 16 3d
       -0.049947187 0.025590204 -0.5201694 0.036675565
000090 5c c8 78 bd 10 df ec 3b 2e 4a b7 bd 3e 31 54 be
       -0.060737953 0.0072287396 -0.089496955 -0.2072191
0000a0 9a 4f 78 3d a0 2e b5 3c f9 1b 5d bf 80 53 06 bf
       0.06062279 0.02211696 -0.8637081 -0.5247116
0000b0 6c b2 64 3f 34 30 ff be 23 fe a8 3d d1 49 6b 3e
       0.8933475 -0.49841464 0.08251598 0.22977377
0000c0 d0 93 ab 3e f2 38 d1 3e 01 b7 f6 3e 8f 6e d8 3d
       0.3351121 0.40863758 0.48186496 0.105679624
0000d0 bf f7 bc bd ee aa 91 3d 82 70 65 be 06 e1 29 3e
       -0.09226941 0.071126804 -0.224062 0.16589746
0000e0 f1 9e 3a 3f 2e e2 16 3d 91 4f 8a 3e b2 9c a6 3e
       0.72898775 0.036836796 0.2701383 0.32541424
0000f0 d7 70 34 3e 8d c3 3d 3f cc 3c 51 3e 77 55 82 3e
       0.1762117 0.7412651 0.20433348 0.2545583
000100 6c 70 77 3e 41 f6 35 3b 19 50 6e bd 9a 2c 77 3e
       0.2416398 0.0027765187 -0.058181856 0.24138108
000110 b6 70 50 3f fc 90 5c 3e cf a1 fa 3e 9b 15 4b 3f
       0.81421983 0.21539682 0.48951575 0.7932984
000120 4e 7d 95 3e ef 20 16 3e 97 d1 46 3e 0a 5b 16 bf
       0.29197162 0.14661 0.1941589 -0.58732665
000130 00 49 97 3e 63 34 16 3f e2 f7 51 be ba cc c0 3e
       0.29547882 0.58673686 -0.20504716 0.37656194
000140 5b b3 99 3e eb 57 e2 3d 9e db 8c 3d 73 c1 d7 bd
       0.3001965 0.11051925 0.06877826 -0.105349444
000150 45 1f 5e be b3 63 91 be 0e 6d d4 bd 14 d8 20 bf
       -0.21691616 -0.28396377 -0.10372363 -0.6282971
000160 42 c4 b2 be 02 fd 6f 3d d8 5c a0 bd fd 96 98 3d
       -0.34915358 0.058590896 -0.078302085 0.07450674
000170 9c 6e a7 bc 94 9f e8 3c 00 6e fd 3b 08 e5 c8 bc
       -0.020438485 0.028396405 0.0077340603 -0.024523273
000180 04 eb 96 bd 20 5c 54 bb 6b f1 4f bd 95 c6 9b 3d
       -0.073690444 -0.0032403544 -0.050767343 0.07606236
000190 59 79 ac 3d 4d 47 ac 3d 0e d7 d9 bc 34 c3 96 bd
       0.08421583 0.08412037 -0.026591804 -0.07361451
0001a0 70 21 69 bc 32 0a 5d 3d 33 22 58 bd be af 30 3d
       -0.0142291635 0.0539648 -0.05276699 0.04313635
0001b0 50 f5 05 bc a8 2c 34 bc 39 cf 0e bd d3 c0 4f bd
       -0.008176163 -0.010996975 -0.03486559 -0.050721
0001c0 72 7d 60 3d fc 6e e4 3c 22 32 31 3d 61 d1 51 bd
       0.054807134 0.027884953 0.0432607 -0.05122507
0001d0 c6 b1 38 3d 24 fb ea 3c ae ab 74 3d a6 b8 5c 3d
       0.045091413 0.028684206 0.05973404 0.053887032
0001e0 00 72 59 3c 81 c6 ac 3d 80 54 98 3b 2c ba 89 bc
       0.013271809 0.08436299 0.004648745 -0.016812406
0001f0 60 42 0d 3c bc b0 39 bd d2 52 79 3d a4 9d d6 3c
       0.008621782 -0.045334563 0.06087 0.026198216
000200 81 5f a7 bd 5a 3f 75 3d a5 37 82 3d e0 fa d5 3b
       -0.08172513 0.05987487 0.063582696 0.006530151
000210 bf eb ae bd f3 61 9b 3d b0 33 c1 3c c8 04 96 bd
       -0.08541059 0.07587042 0.023584217 -0.07325131
000220 00 dc df 3b 9c 25 be bc 8f 75 80 3d b0 06 e1 bb
       0.006831646 -0.023211293 0.062724225 -0.0068672523
000230 a3 21 08 bd ba ca 3b 3d 20 44 b1 3c 20 32 4a 3c
       -0.033235203 0.045847632 0.02163893 0.012341052
000240 21 95 8e bd bb c9 a9 bd 08 72 da 3c 80 0f 07 ba
       -0.06962038 -0.0829043 0.026665702 -0.0005152151
000250 84 73 90 bc c0 88 d9 bb e0 5b 52 bc a9 06 09 bd
       -0.017633207 -0.0066386163 -0.0128392875 -0.033453617
000260 3e f6 41 3d 6c 15 d5 bc 3c 6a dd bc 52 a5 8b bd
       0.047353975 -0.026011191 -0.027028196 -0.06818642
000270 d8 a2 92 3c 38 fc c8 bc c0 95 ae 3b 45 68 2c bd
       0.017899916 -0.02453433 0.00532791 -0.042091627
000280 5e 77 69 3d 6c 62 cb bc 29 51 e2 3b f4 49 ed 3c
       0.056998603 -0.024827205 0.0069066477 0.028965928
000290 35 fd fd bc 40 33 91 3b ba a0 29 3c d2 33 2b bd
       -0.031004528 0.0044311583 0.010353262 -0.041797467
0002a0 b6 94 3f bd 08 f6 e3 bd 23 d9 ab bd f0 63 51 be
       -0.04677268 -0.11130911 -0.08391025 -0.2044828
0002b0 87 fc 6f bd 89 77 82 bd 9e 67 cf bd c0 f2 c6 bd
       -0.05859044 -0.06370456 -0.10127185 -0.0971427
0002c0 48 42 e1 bd 2b 63 8a bd b8 b8 99 bd d4 26 22 be
       -0.1099897 -0.06757196 -0.075059354 -0.15835124
0002d0 3d 22 a4 ba 1a 19 3d bd 86 df 49 bd c0 a3 ed bd
       -0.0012522411 -0.046166517 -0.049285434 -0.116034985
0002e0 cc 91 c9 bd d5 73 a5 bd 41 5d 28 be d8 e5 c7 bd
       -0.09842262 -0.08078734 -0.16441824 -0.09760636
0002f0 e5 6e 16 be 2c 6c 78 bd 03 40 1d bd 84 e8 bb bc
       -0.1469074 -0.060650036 -0.038391124 -0.02293802
000300 82 69 94 bd 6d a1 61 bd 89 3f 43 be 50 e4 1b be
       -0.072466865 -0.05508559 -0.19067205 -0.15223813
000310 54 6b 7c bc 71 5d 31 be a7 e6 a3 bd ae 4f 2d be
       -0.015406448 -0.17320801 -0.08002978 -0.16924927
000320 38 a3 bc bd ec 54 d9 bd 55 8f 30 bd 2d 65 87 bd
       -0.09210819 -0.10611901 -0.043105442 -0.066110946
000330 cb c4 09 bd bb e5 bb 3c 0d 3c fd bd 1d 62 c5 bd
       -0.033634942 0.022936692 -0.123649694 -0.09637854
000340 8a 60 26 bd d7 08 01 be 09 84 28 bd 34 6f 70 bd
       -0.04061941 -0.12601028 -0.041141544 -0.0586998
000350 c7 31 09 be e5 97 1e bc 94 20 51 bc c7 49 c1 bd
       -0.13397895 -0.009679769 -0.012764115 -0.094379
000360 0f 6e 46 bd 01 6b 8f bc 64 39 8d bd 66 d0 1a 3d
       -0.048444804 -0.017507078 -0.06895712 0.0377964
000370 94 d3 09 bd ec e3 bb bc f8 2e b3 bc 01 b0 9a 3d
       -0.033649042 -0.02293583 -0.021872982 0.07553101
000380 86 70 30 bd 90 0a d7 3c ad 62 13 bd b1 4e 8a 3d
       -0.04307606 0.026250154 -0.035982776 0.067532904
000390 e8 eb 66 3c e2 6c 59 3d 0d 6a 57 bd e3 5b 81 3d
       0.01409433 0.053082354 -0.052591372 0.06316354
0003a0 fa af 38 3d ad 0c 56 bd 72 f0 47 3d ba 67 68 3d
       0.0450897 -0.052258182 0.04881329 0.056739546
0003b0 47 f7 24 bd 5e ef 51 3d a1 55 87 bd 5c 13 a5 bc
       -0.040274885 0.05125367 -0.06608129 -0.020150833
0003c0 1e 74 a6 bd c0 04 c8 ba 34 63 9c bd 65 c5 9f 3d
       -0.08127616 -0.0015260205 -0.07636109 0.07801322
0003d0 c9 a9 ae 3d 0c 4b d6 3c 9c c9 ca bc c0 65 21 bc
       0.08528478 0.026158832 -0.024754338 -0.009850919
0003e0 c0 1c 7c bd 8f fc 0f bd 28 0d 02 bc 32 2d 99 bd
       -0.061550856 -0.035152968 -0.007937707 -0.074793234
0003f0 5a c5 36 3d 1e ad 6b 3d 1c 20 f0 bc 30 f7 2e 3c
       0.044621803 0.057538144 -0.029312186 0.010679051

notes_encoder.bias f4 [64]
000000 07 84 02 be 7d 19 2b be 10 37 27 be 76 59 33 3e
       -0.12745677 -0.16708942 -0.16329598 0.17514595
000010 c2 41 70 bd 92 2e 2c be e6 ec 43 be 89 98 10 3e
       -0.05865646 -0.1681464 -0.19133338 0.14120688
000020 99 46 20 3e e8 59 38 3d d1 02 04 3e 06 ee a2 3d
       0.15651931 0.045007616 0.128917 0.079555556
000030 7f 00 00 bd fe 92 17 3e a4 b7 b0 3d 70 e6 38 be
       -0.031250473 0.14802167 0.08628777 -0.18056655
000040 7a 35 2b be d5 ee 33 be bb c9 0f be 35 fe 13 3e
       -0.16719618 -0.17571576 -0.14041798 0.14452441
000050 9a cd 38 be 1c 78 26 be d9 df 00 3e 9b 6a 70 be
       -0.18047181 -0.16256756 0.12585391 -0.23478167
000060 88 1e 47 3e bd f0 52 3e d3 57 46 3e 7a 10 54 be
       0.1944524 0.20599647 0.1936944 -0.2070941
000070 db 0b 26 3d 3b 82 db bd 74 18 af 3d f1 00 0c be
       0.04053865 -0.10718199 0.08549586 -0.13672234
000080 69 af 9a 3d 5d ed 41 3e a6 3f 05 be ce 92 f3 bd
       0.07552988 0.18938203 -0.13012561 -0.11893235
000090 01 57 8b 3c d3 65 fd 3d 64 5f 0e 3e bb 68 df bd
       0.01700926 0.12372937 0.13903576 -0.109086476
0000a0 eb a0 40 bd 4f 66 5a be fc e9 83 3d 1a 9b 2f be
       -0.047028463 -0.2132809 0.06441113 -0.1714901
0000b0 d2 62 8c 3d 0e da 9a bb a3 6e 28 3e 49 5f 04 3e
       0.06854786 -0.004725701 0.16448455 0.12926973
0000c0 3e a4 06 3e 4f a8 2d 3e 94 cf 59 bd 1b d7 10 3e
       0.13148591 0.16958736 -0.053176478 0.14144556
0000d0 c3 b6 41 3d 7e eb 08 3e b1 da 34 3e 89 d0 dc bd
       0.047293436 0.13371083 0.17661549 -0.107819624
0000e0 b3 59 2c 3e cc 7b 74 3d 9a a9 fa bd 5e 82 29 3e
       0.16831093 0.059688374 -0.1223938 0.16553637
0000f0 d9 5d 38 3e 20 eb 0f 3e 03 17 e7 bd 40 a0 55 be
       0.1800455 0.14054537 -0.11283686 -0.20861912

gru.weight_ih_l0 f4 [192, 64]
000000 88 6b 24 3d dc b7 65 3e 1b 35 78 3e 83 36 1c bb
       0.040141612 0.22433418 0.24239008 -0.0023836202
000010 c4 62 cd 3c 70 75 38 3e 36 b1 05 3e c3 c0 2a bc
       0.02507151 0.18013549 0.13055882 -0.010421935
000020 4a 86 6e be 64 02 aa bc c7 6b 39 3d 58 33 d3 bc
       -0.23293415 -0.020753093 0.0452688 -0.025781319
000030 89 01 9c 3d 3d bd 42 be 44 b1 6b bd e5 f1 3f 3d
       0.0761748 -0.19017501 -0.0575421 0.046861548
000040 08 f4 57 3e b1 af 32 3d 07 51 41 3e 0d 02 e3 bd
       0.21089184 0.043624584 0.18878566 -0.110843755
000050 eb 5a f2 3d bd 7a 24 3e 22 5c 66 bd bc 52 33 3e
       0.118337475 0.16062446 -0.05624021 0.1751203
000060 5c 06 65 be d9 c1 ec bd 62 d4 33 be 88 54 2d 3e
       -0.22365707 -0.11560411 -0.17561486 0.16926777
000070 f4 47 0d be c1 92 27 3e 19 00 59 bd de f4 2e 3d
       -0.13796979 0.16364576 -0.05297861 0.042713992
000080 0b 25 3c be cc fe 58 bd 6c 59 17 3e b6 62 2c 3e
       -0.18373506 -0.05297737 0.14780205 0.1683453
000090 fb bd 89 bd cb 3b 32 be 5d e8 73 be 82 f4 40 3d
       -0.06725689 -0.17405622 -0.23819108 0.04710818
0000a0 cf db 01 3e ff ef d7 3d 5a a1 ee 3c 7e a0 8d bd
       0.12681507 0.105438225 0.029129673 -0.06915377
0000b0 68 4d 49 bc 17 e9 82 3d af 97 0f be 9c d6 4a bc
       -0.0122865215 0.063921146 -0.14022706 -0.012380268
0000c0 7b 3f 96 3b ca 34 60 be 44 32 f4 bd 9d aa 07 be
       0.004585204 -0.21895137 -0.1192365 -0.13248678
0000d0 1d 62 48 3d 50 94 36 be b1 2f b2 bd ca bb 99 3d
       0.048921693 -0.17830014 -0.08700503 0.07506521
0000e0 0f 2f 2b be bf ae ce bc 1d 7a f5 3d 0a 88 eb bd
       -0.1671717 -0.02522981 0.11986182 -0.11500557
0000f0 7c 8b 80 be 0f 7f de bd ba 41 d3 3d 21 45 28 3d
       -0.25106418 -0.10864078 0.10315271 0.04108155
000100 03 81 2c 3d c0 6d 68 be c8 98 a3 bd 49 1e 24 3e
       0.042115223 -0.22698116 -0.07988125 0.16027178
000110 4f db 30 be 60 97 15 be 17 e9 2f bd b7 60 34 3e
       -0.1727116 -0.14608526 -0.0429469 0.17615019
000120 67 a5 d5 b9 60 ec b4 bc 9d 8f 5b 3c ad ab 81 3d
       -0.0004074976 -0.022085369 0.013400939 0.06331573
000130 02 b3 a7 3c c0 a7 c5 3d 39 2c 92 3b 88 53 d2 bd
       0.0204711 0.096511364 0.004460838 -0.102698386
000140 c1 6a d2 bb ba d4 34 3c 4d f4 21 3b a7 30 11 3e
       -0.0064214175 0.011037046 0.0024712265 0.14178716
000150 e3 12 52 be 63 bf 5d be 47 ec e6 bc 8c ec 4f bd
       -0.20515017 -0.2165504 -0.028188838 -0.050762698
000160 52 e2 5f 3e b9 d5 fa 3d 14 54 00 3e 32 3b c0 bd
       0.21863678 0.122477956 0.12532073 -0.093862906
000170 c6 03 24 3e 41 a9 8e bd 3d 39 38 3e 5f ae f9 bd
       0.16017064 -0.06965876 0.17990585 -0.12191462
000180 f1 94 15 bd 48 00 04 3d c3 6a 16 bd d6 d4 89 bd
       -0.036518995 0.03222683 -0.03672291 -0.06730048
000190 7f 29 de 3d f6 66 42 3e 43 49 c8 3d 79 c1 21 be
       0.108477585 0.18984589 0.097795986 -0.1579646
0001a0 78 75 21 be c8 83 f3 bd 44 d2 86 3d ad 5b 94 3c
       -0.15767467 -0.1189037 0.06583074 0.01811012
0001b0 f9 d6 2b 3e 8a 67 c5 3d 03 fe dc 3d 20 85 14 3e
       0.16781224 0.09638889 0.107906364 0.14503908
0001c0 44 a1 23 3e 4f a5 19 3e d7 78 88 3d 49 0d 10 3e
       0.15979487 0.15004466 0.06663673 0.14067568
0001d0 26 cf 2b bd 8a 65 e6 3d f8 e3 02 3d 08 6c 0a be
       -0.0419456 0.11249836 0.03195569 -0.13517773
0001e0 92 2f 5b 3c fe 43 b5 bd 2f 67 32 bd 86 95 28 bb
       0.013378041 -0.08850859 -0.043555435 -0.0025723889
0001f0 f3 f9 5e 3e dc ce b2 3d f7 bd 82 bd 79 90 e9 bd
       0.21775036 0.087308615 -0.06383889 -0.11404509
000200 ef ea 70 3e 91 88 c1 bd 91 e8 47 be d0 c1 0f 3e
       0.2352712 -0.09449876 -0.19522311 0.14038777
000210 a0 83 1a be 15 e0 cb 3c e7 13 88 bc ff de 2a 3e
       -0.15089273 0.024887124 -0.016611053 0.16686629
000220 02 4e bf 3d ea 48 53 3e 1e 4a fb bd ad aa 23 3e
       0.09341051 0.20633283 -0.12269996 0.15983076
000230 6c 06 14 bd 1c 4d e4 bc be fb c2 ba cd 75 34 bd
       -0.036138937 -0.0278688 -0.001487605 -0.044057656
000240 c1 08 b4 bd b5 03 af bc e3 42 0b 3d 7f a5 0b 3e
       -0.08790732 -0.021364072 0.033999335 0.1363735
000250 cd 26 ae 3c 0a df 43 be 17 bd d7 3d 3e d2 42 be
       0.021258736 -0.19128051 0.10534113 -0.19025514
000260 92 5f e3 3d 03 54 51 3d a4 0f ef 3d 28 88 d5 bd
       0.11102213 0.05110551 0.11672905 -0.1042636
000270 46 65 77 3d 48 dd f9 bc 1d 62 51 3e c7 ba 39 be
       0.060399316 -0.030501023 0.20447583 -0.18137656
000280 70 4f 20 3e 63 b7 79 bc c3 7e 43 bd e7 3d 11 ba
       0.15655303 -0.015241477 -0.04772831 -0.0005540535
000290 60 d6 5d 3e 0f d2 38 3d ee 4a 05 3e 3f 40 0f be
       0.21663809 0.045122202 0.13016865 -0.13989352
0002a0 15 eb 86 b7 4a 3e 44 be f6 bb d5 3c f4 bf fb bd
       -1.6083513e-05 -0.19164386 0.026090603 -0.122924715
0002b0 6a 60 1c 3d 0a 3b b9 bd 93 0d 21 3c a2 64 64 3d
       0.038177885 -0.09044464 0.0098298965 0.055760033
0002c0 1d 56 01 be e1 52 93 3d fb e6 b0 3d a9 5c 48 3e
       -0.12630506 0.07193542 0.08637806 0.19566597
0002d0 26 7a 35 3e d1 19 eb 3d 20 ec 1e 3e b5 40 9c bc
       0.17722377 0.114795335 0.15519762 -0.019073823
0002e0 f1 0c 34 3e cf 32 ae bd 46 2f 03 3d 1a aa 34 3e
       0.17583062 -0.08505785 0.032027505 0.17643014
0002f0 37 ee b8 3d db ea 84 3d 6a 2a 5d bd b8 f9 17 be
       0.09029811 0.064901076 -0.053995527 -0.14841354
000300 0d 47 1b 3e ff 78 f4 bd c5 7b ce bc 64 a5 23 3d
       0.15163822 -0.11937141 -0.025205502 0.03995265
000310 de 19 5b be 94 10 58 bc 08 fd 05 be 02 cc 27 3e
       -0.21396586 -0.013187546 -0.13084805 0.16386417
000320 b0 51 40 3e de c7 ba 3d e6 d5 a2 bd 7f e4 ff 3d
       0.18781161 0.09120153 -0.07950954 0.12494754
000330 9a 5a 5b 3e 83 1a 0d 3e 4d 1c 97 3c 08 94 0d be
       0.2142128 0.13779645 0.018446112 -0.13826
000340 8a 54 2e be 35 1b e9 bd 5c 78 cb bc ca 9a 6d 3d
       -0.17024437 -0.113821425 -0.024837665 0.058008946
000350 48 cd 47 be d1 48 55 bd 2b 4e be 3d a9 30 f1 3c
       -0.19511902 -0.052071396 0.09292253 0.029442148
000360 36 94 b7 3d f0 7f fb 3b d7 1d 04 bd 31 a8 94 bb
       0.08963816 0.0076751634 -0.03225502 -0.0045366515
000370 4e a0 00 3e fa 62 d3 bd cf 47 4e 3e 57 05 96 bd
       0.12561151 -0.10321613 0.2014458 -0.07325237
000380 1e 05 c1 3d 9f 49 44 3e 01 3d b9 bd 7b a0 bd bc
       0.09424804 0.19168709 -0.09044839 -0.023147812
000390 38 7a 64 3e 40 47 d1 3d b6 ae 2e 3e 87 e7 38 bd
       0.22312248 0.10218668 0.17058834 -0.045142677
0003a0 93 e6 d7 bd ac b0 11 be 5a 64 1b 3e 6b 97 e5 bd
       -0.105420254 -0.14227551 0.15175 -0.11210521
0003b0 d8 ea 13 3e c5 96 ae bd bd e3 e6 3d dd 97 17 3c
       0.14445055 -0.08524851 0.112739064 0.009252516
0003c0 74 29 0c be 97 78 aa 3d c1 aa fb 3b 5a 7d 42 3e
       -0.13687688 0.08323782 0.0076802676 0.1899313
0003d0 bd 1e db 3a 8b f2 d4 3c fb b2 c4 3c b9 22 0e be
       0.0016717535 0.02599456 0.024011126 -0.13880433
0003e0 da db eb 3d 9f 59 3e be 58 c9 55 be 28 9d c7 bc
       0.11516543 -0.18588875 -0.20877588 -0.02436693
0003f0 a3 7b 00 bd 9d 3e 2d 3e 5f 06 03 be a7 78 82 bd
       -0.03136791 0.16918416 -0.12795399 -0.06370669

gru.weight_hh_l0 f4 [192, 64]
000000 a9 ae b8 3c b7 df 40 bd ba 68 0d be b3 b0 4e 3e
       0.022544222 -0.04708835 -0.13809481 0.20184593
000010 c3 20 a0 3d 6f 21 15 be ed 5d c2 bd 3f a1 22 3e
       0.07818749 -0.14563535 -0.09490571 0.15881823
000020 b2 83 81 3e fc 23 54 bd 6d 05 b9 bd d4 35 05 3e
       0.25295788 -0.05179213 -0.09034238 0.13008815
000030 eb 50 a1 bb e8 23 6b be 40 b6 b6 3c 4d f9 95 bd
       -0.0049229763 -0.22962916 0.0223037 -0.07322941
000040 cd 5c 81 3d bf 88 6d 3e 3d 70 ed bd 01 28 bf bc
       0.063165285 0.23196696 -0.115936734 -0.023334505
000050 5b 3d 25 3e cf 6b 30 be 60 a8 2e be 99 8b 37 be
       0.16136687 -0.17228626 -0.17056417 -0.17924346
000060 51 0f 28 3c 8e 90 3a 3e b1 83 31 be 2d 0b d6 3d
       0.010257558 0.18219206 -0.17335393 0.1045135
000070 f3 40 90 3c 7b ea 53 3e a1 a4 29 be 54 f0 49 be
       0.017609095 0.20694916 -0.16566707 -0.19720584
000080 80 9d 4e 3c c5 32 71 3e a4 77 a7 bd 75 09 12 bd
       0.012610793 0.23554523 -0.081771165 -0.03565355
000090 d9 9d 3f be 3e 3d 28 3e b2 14 c7 ba 15 6d 2d 3e
       -0.18712558 0.16429612 -0.0015188663 0.16936143
0000a0 ef 7f af 3d e8 12 1c be 68 5d 99 3d 0e e8 1a be
       0.08569323 -0.15241587 0.07488519 -0.15127584
0000b0 bb 19 2e 3e 0d 32 9c 3d 61 15 d1 bd 95 0d b7 bd
       0.17002003 0.07626734 -0.10209156 -0.089381374
0000c0 2d 4d 96 bc c4 07 34 3e 93 54 6e be ea b8 21 3e
       -0.018347347 0.17581087 -0.2327445 0.15793195
0000d0 c9 88 01 3e cd 46 80 3d ae 45 92 bd 27 01 4e 3e
       0.12649836 0.06263504 -0.071421966 0.20117627
0000e0 61 31 9a 3b 13 cb 87 bd 44 58 17 3e 0e 09 18 3d
       0.0047055935 -0.0663053 0.14779764 0.03711801
0000f0 35 d4 cd bd d5 25 e4 bd 8d 37 bf bd 41 d6 14 be
       -0.10050241 -0.111400284 -0.09336767 -0.14534856
000100 a9 8f 2c bd 89 72 36 3d 56 58 8e 3d e0 7d c7 bd
       -0.042129193 0.044542823 0.069504425 -0.097408056
000110 f9 64 87 3c 4f ae ce 3d 57 1a 58 3e 8a 19 e4 bc
       0.01652764 0.100918405 0.21103798 -0.02784421
000120 9a ce 69 bd 1a 80 1e 3e 92 52 9c 3d 5f 4b c3 bd
       -0.057081796 0.15478554 0.076329365 -0.0953586
000130 80 54 bf 3d be 72 c6 3d 85 22 18 be 97 27 98 3d
       0.09342289 0.09689854 -0.14856918 0.07429426
000140 24 88 e6 3a 9f 36 2c be af 48 3a 3d 93 d2 2a be
       0.001758818 -0.16817711 0.045479473 -0.1668189
000150 22 4b 9c bd f0 a9 63 3e b4 d3 32 3e e9 50 5c 3d
       -0.07631518 0.22232795 0.17463571 0.0537881
000160 42 26 8e bc d7 26 06 be 60 77 a2 3d b0 5d 7e bd
       -0.017352227 -0.13100754 0.07932925 -0.062101066
000170 b9 5d e8 bd fb bb bb bd 0b 78 22 bd cd 94 06 3e
       -0.11346001 -0.09166714 -0.039665263 0.131427
000180 a1 ad 19 be f2 f2 90 bd 0e 97 b3 3c 4c 93 50 3e
       -0.1500764 -0.07077588 0.021922614 0.2036869
000190 5d a7 55 3e 39 20 e8 bd a4 a3 37 be ed 72 0e 3b
       0.20864625 -0.11334271 -0.17933518 0.0021735982
0001a0 2b 52 63 be 94 c3 da bb 6b 10 51 be 1a 4a 41 3e
       -0.22199313 -0.0066761468 -0.20416419 0.18875924
0001b0 7f dc 26 bd 5a d6 a0 bd cd 78 26 3e ce 25 89 3d
       -0.040737625 -0.07853384 0.1625702 0.06696664
0001c0 c8 1e 63 bd 97 de b0 bd 7b 83 2f bd 60 13 e0 bd
       -0.055449277 -0.08636206 -0.04285 -0.109411955
0001d0 cd c8 9a bc 61 e6 d3 3c c9 d5 1d 3e 24 93 c4 b9
       -0.018894577 0.02586669 0.15413584 -0.00037493662
0001e0 f1 e5 1d be 3c 9e 02 be 48 0d 36 be 70 bc 76 3d
       -0.15419747 -0.12755674 -0.17778504 0.0602383
0001f0 07 d2 52 3d cd a9 51 3e db 23 af ba 14 15 45 3e
       0.05146983 0.2047493 -0.0013362126 0.19246322
000200 a7 cf 8a be 06 8b bf 3d e9 87 d9 bd 9b 68 50 3c
       -0.2711155 0.093526885 -0.10621626 0.012720252
000210 65 5a 3f be a0 e9 28 3e c3 bd 30 bc f6 52 ee bc
       -0.18686827 0.16495371 -0.01078743 -0.029092293
000220 36 2b 6a be 26 7a b0 3d 14 2a a4 3d 15 3f 11 3e
       -0.22868046 0.08617048 0.08015838 0.1418422
000230 e5 64 5a 3e e0 99 dd bb ed 5c 76 be 90 99 2c 3e
       0.2132755 -0.006762728 -0.24058886 0.16855454
000240 e7 ca e6 bd 2c 4c 2e be 21 47 e8 3d 5d 1e b2 bc
       -0.11269169 -0.17021245 0.11341692 -0.021742994
000250 7d a0 b5 bc 10 6d 80 3d e3 de 0d 3e 60 aa 79 3d
       -0.022171253 0.06270802 0.13854556 0.060953498
000260 7d 5f 58 be f7 44 6f be d8 e6 9c 3d 31 ea cc bd
       -0.21130176 -0.23366152 0.076612175 -0.10005606
000270 7f ef 44 be d8 1c f8 bd 3b aa 62 3e b2 a0 f5 3d
       -0.19231986 -0.121148765 0.2213525 0.11993541
000280 10 d0 b7 bd d8 3c 67 be 49 f0 be 3d 5a 7c ae bc
       -0.08975232 -0.22581804 0.093231745 -0.02129953
000290 62 16 59 3e 37 67 2c be a5 4b 23 be e1 10 91 bb
       0.21199945 -0.16836248 -0.15946825 -0.004427061
0002a0 ac 35 64 bd e8 e4 51 3d 30 51 cb bd bb 96 9c 3d
       -0.055715248 0.051243693 -0.09927595 0.07645937
0002b0 b3 0e 01 bd 78 c5 77 bd db 1e 4b 3e 8d 39 4f 3d
       -0.03150816 -0.060491055 0.19835989 0.050591994
0002c0 81 29 39 3e a6 08 8f 3c 94 34 0b 3e 61 6e 65 be
       0.18082239 0.017460179 0.13594276 -0.22405387
0002d0 83 90 c5 bd 97 17 d9 bd 76 ea 41 bc b0 1b e9 bd
       -0.09646704 -0.106002025 -0.011835685 -0.11382234
0002e0 8a 07 0b be 75 b7 59 3e 98 5c 0f be 4f 5b c2 bc
       -0.13577095 0.2126139 -0.14000165 -0.02372518
0002f0 76 07 6b 3d f0 7d 47 bc 35 d8 7a 3e fc f4 91 3d
       0.057380162 -0.012176022 0.24496539 0.07126805
000300 d4 69 0e be 84 0e c6 3d b6 eb 13 be 23 1a 26 be
       -0.13907558 0.096707374 -0.14445385 -0.16220908
000310 10 4b 40 3c 68 a9 0e 3e 28 a7 30 3e 8a 8b 9f 3c
       0.011736646 0.13931811 0.17251265 0.019475717
000320 16 6a ff bb 43 84 88 bc a4 70 3c 3c ff a6 a5 bb
       -0.007794629 -0.01666463 0.011501465 -0.005055308
000330 bc e7 4e 3e d5 69 7d bc 57 1f 06 be 63 4d 3c 3e
       0.20205587 -0.015467127 -0.13097893 0.18388896
000340 39 b9 12 bd 37 54 a8 3c 51 d0 28 3e fb c0 46 be
       -0.035821173 0.02054797 0.16485716 -0.19409554
000350 95 fb 25 bb 20 8f 3e 3e f8 10 44 3d 64 d4 13 3e
       -0.0025326957 0.18609285 0.047867745 0.1443649
000360 ec 3e 0e 3d a5 84 2f bc 9f 87 98 3d 1c 9c 81 bd
       0.034727976 -0.010712777 0.07447743 -0.063286036
000370 26 41 28 bb 3c 8c 07 bd 26 36 9b 3d b2 95 c8 3d
       -0.0025673597 -0.033092722 0.07578687 0.09794177
000380 c7 05 1f be d8 18 2d 3c 74 59 31 3e f2 61 18 bc
       -0.15529548 0.010565005 0.1731928 -0.009300696
000390 4d c4 51 3e 0a a9 13 bc 8a 04 39 bd 1a 78 48 be
       0.20485039 -0.00901247 -0.045170344 -0.19577065
0003a0 d2 70 12 be 60 de 21 3e 87 3c cc bd 19 06 13 3e
       -0.1430085 0.15807486 -0.09972482 0.14357795
0003b0 ef e0 15 be e5 28 3d be 8c 23 e8 bc 03 0a 74 3d
       -0.14636587 -0.18472631 -0.028337263 0.05957986
0003c0 5b 2b a9 3d 17 49 b8 bd d4 56 0d 3e 90 fb 79 3b
       0.082602225 -0.08998316 0.13802654 0.0038144328
0003d0 48 ba 3c be 70 b2 73 be 69 de 49 3d 74 a6 40 bd
       -0.18430436 -0.23798537 0.049284372 -0.047033742
0003e0 7f 1d c1 bd a1 08 ae 3d f3 43 a3 bd 87 86 c5 bd
       -0.09429454 0.084977396 -0.07971945 -0.096448
0003f0 d1 ab c7 3d 6a 60 39 3e cf 51 03 3e 5a 89 a4 3c
       0.09749568 0.18103185 0.12824176 0.020085026

gru.bias_ih_l0 f4 [192]
000000 c3 2a 4d be d0 7f 16 3e d2 04 0e bd 8e f3 25 3e
       -0.20035844 0.14697194 -0.034672566 0.1620619
000010 7d d5 6f 3c 02 98 c0 3d 91 19 9c 3d a2 e1 a8 3d
       0.014638302 0.09403993 0.07622064 0.08246161
000020 26 03 9e 3d da 95 f3 3d 58 29 90 3d f0 0d ff bd
       0.07715444 0.11893816 0.07039136 -0.1245383
000030 ef 19 04 3e 01 aa 58 3e b7 e3 de 3d 17 5e 14 3e
       0.12900518 0.21158601 0.10883277 0.14489017
000040 39 df 3b 3e 80 dd 8b 3d 11 61 83 bd 96 53 1d 3e
       0.18346871 0.06829357 -0.06414998 0.15363917
000050 44 b5 29 3d 9e cf f3 3d be 0e 1f 3e f0 5b 11 3e
       0.041432634 0.11904834 0.15532967 0.14195228
000060 8e c9 c3 3d 77 3f 3c 3d 73 cd 09 bd b2 5a 30 3c
       0.09559928 0.045958962 -0.033643197 0.010763811
000070 20 bf 3d 3e ee 59 ad 3b 12 2b 22 3d 50 af 89 3d
       0.1852994 0.0052902615 0.039591856 0.06722891
000080 29 9a 36 3e a1 00 d8 3d 6e 35 1d 3e 55 2a 64 bd
       0.17832245 0.10546995 0.15352413 -0.055704433
000090 b4 29 da 3d 17 c7 44 3d 37 69 f4 3d eb 40 72 3e
       0.106524855 0.04804143 0.11934131 0.23657577
0000a0 4c 05 37 3e 06 6b b6 3c 33 41 7e 3d 08 ca c3 bc
       0.17873114 0.02226783 0.062073898 -0.023900047
0000b0 25 0d 70 3d 48 4e 0f bc 71 d3 13 bd b2 72 00 bd
       0.058606286 -0.008746691 -0.036090318 -0.031359382
0000c0 78 61 e1 bc 5b a3 40 3d 26 b5 df 3d bf 1f 6c 3e
       -0.027512297 0.047030788 0.10923223 0.23058985
0000d0 96 d6 23 3e 3d 88 01 3d 8d 0b 12 3e ea 46 93 3d
       0.15999827 0.031624068 0.14262219 0.0719126
0000e0 8c b2 c7 bc 57 c5 1d be 0b 57 3a 3e d2 32 17 3c
       -0.02437713 -0.1540731 0.18197267 0.009228425
0000f0 45 c6 b8 3d ce 25 8c 3b fb 7d ff 3d 8e c2 c0 bc
       0.09022192 0.0042769676 0.12475201 -0.02353027
000100 dd f3 3b be 06 c6 13 3d a4 36 bf 3e 87 57 38 3e
       -0.18354745 0.03607752 0.37346375 0.18002139
000110 85 c3 fa bd f2 e9 0e be 5d 76 90 3b da dd 99 bb
       -0.12244324 -0.1395643 0.0044086413 -0.004695636
000120 37 33 cc 3d c9 6b 93 be 2f 60 ad bd be b2 2c be
       0.09970706 -0.2879317 -0.08465611 -0.1686506
000130 6c 40 89 be fe c2 36 be 48 1f 8e bd d8 82 1b be
       -0.26806962 -0.17847821 -0.0693956 -0.15186632
000140 df 9a 33 3d 02 ca 96 bd e9 43 96 3d 6a cd 66 bd
       0.04384887 -0.07362749 0.073371716 -0.056348242
000150 c4 8a 50 3e ac 08 8e 3c d8 aa b1 bc 5c 41 17 be
       0.20365435 0.01733812 -0.02168791 -0.14771026
000160 15 51 e7 bc 43 14 ae bc 66 ff d9 3d 5c 57 d9 3d
       -0.028236905 -0.021249896 0.106444165 0.106123656
000170 c3 11 f0 bb ee c1 80 3c 1c 86 57 bd c9 b6 81 be
       -0.007326336 0.015717473 -0.05261813 -0.25334767
000180 5f bb 03 3e fb 34 f5 bc 57 99 8f 3e 1f 3e 37 be
       0.12864445 -0.02993249 0.28046677 -0.17894791
000190 48 0f 35 be 6c 40 3c be 22 a9 e0 3c 15 24 e9 3e
       -0.1768161 -0.1838395 0.027424399 0.4553534
0001a0 26 2d e9 bd de 57 f0 3d fb 0c a3 3d e7 37 38 3d
       -0.113855645 0.11735509 0.0796146 0.044975188
0001b0 13 47 c4 3c ec 5b fe bc c4 6c fb bc e2 a2 22 3d
       0.023959672 -0.031049691 -0.030691512 0.03970612
0001c0 e3 7a 92 be f6 a9 8c 3d 45 b1 4a 3e 65 5e 9b bd
       -0.2860938 0.06868355 0.19794185 -0.07586364
0001d0 45 ac 30 be 49 0c 70 3d f7 91 82 3d 65 a9 08 3d
       -0.17253216 0.058605466 0.06375497 0.033364672
0001e0 4e b5 9b bd 21 5e 16 3d ad 70 03 3e 80 c4 ba 3e
       -0.076029405 0.036710862 0.12835951 0.36478043
0001f0 33 79 0d be b1 28 59 bd c3 df 81 bd a4 9d d7 3d
       -0.13815765 -0.053017322 -0.06341507 0.105281144
000200 3e f4 ab bd 7b c8 e0 3d 80 9c 94 3c 54 e7 07 be
       -0.08396195 0.109757386 0.018141031 -0.13271838
000210 37 a3 2c be 3b c7 14 3e 44 d8 e1 3d ad 28 54 be
       -0.16859137 0.14529125 0.110275775 -0.20718642
000220 7a 2b 27 be 8c 7c 2e 3e 20 69 64 3e 3f f2 ae bd
       -0.16325179 0.17039698 0.22305727 -0.085422985
000230 2a 42 1f 3e 0a 82 12 3e 56 82 2b be b4 7a 1b 3e
       0.15552583 0.14307418 -0.16748938 0.15183526
000240 55 c8 29 be aa 65 23 be fb f3 81 3b 6a e5 34 3c
       -0.16580327 -0.1595675 0.0039658523 0.011041025
000250 62 2e 32 be 0d e1 29 3e ec af 48 3e 77 e8 3c 3e
       -0.17400506 0.16589756 0.19598359 0.18448053
000260 d4 2d 09 be 70 12 fa 3c 36 4a 0d 3e ed 68 5f be
       -0.13396388 0.03052637 0.1379784 -0.2181737
000270 1f ae 42 be 36 29 0b be fc f8 26 3e 81 c8 4d 3e
       -0.19011734 -0.1358994 0.16305918 0.20096017
000280 a3 b9 83 be 7b 0a 74 be ef b0 39 bc 9c df 4e 3e
       -0.25727567 -0.23832123 -0.011333688 0.20202488
000290 8c 2b 1c 3e f4 71 19 be 04 05 17 be 32 55 11 bd
       0.15250987 -0.14984876 -0.14748007 -0.03548164
0002a0 01 0c 45 be 2c ce ad 3d de b6 55 bc f6 75 38 3e
       -0.1924286 0.0848659 -0.013044087 0.18013749
0002b0 e0 51 12 be 6c 9b 2b be a4 14 6d 3e 73 28 27 3d
       -0.14289045 -0.16758507 0.23152405 0.04081006
0002c0 06 42 bb 3d 29 fc fc bc fd a1 0b 3e a0 5c f7 bd
       0.09143452 -0.030881958 0.13636012 -0.12078214
0002d0 af f4 69 be 36 f0 8f bd bd aa 36 3e c0 90 60 be
       -0.22847246 -0.070282385 0.17838569 -0.21930218
0002e0 d5 7f 02 be c0 7d 06 3e 23 bb fb bd 9b 18 60 bd
       -0.12744077 0.13133907 -0.12291553 -0.054710966
0002f0 77 f6 cd 3d 4b 6a 5e 3e 90 1c 3f 3e 11 3f 63 3e
       0.10056775 0.21720235 0.1866324 0.22192027

gru.bias_hh_l0 f4 [192]
000000 b0 21 ff bd e9 be 51 3e e1 59 c1 3c cb 1d 6a bb
       -0.12457597 0.20482983 0.023602428 -0.0035723324
000010 b6 09 08 3e ef 3a 48 3e 4c b2 a6 3d 1d eb b9 3d
       0.13284954 0.19553731 0.08139476 0.090780474
000020 5e 9c 49 3e dc 6b ce 3d ae 36 55 3d 1f 35 0a bd
       0.19688556 0.10079166 0.0520541 -0.033742066
000030 12 86 0f 3e ec b1 69 3d 3e 6c 1f 3e b5 fe 62 3d
       0.14015988 0.057054445 0.15568635 0.05541869
000040 1d b9 4e 3e f1 13 c0 3d 8c 24 28 be 78 17 23 3e
       0.20187803 0.093788035 -0.16420192 0.15926921
000050 f6 81 e2 bd 4f 21 82 3d ae 5f ac 3b b3 5d 36 3e
       -0.11059944 0.06354009 0.0052604293 0.17809181
000060 f6 78 05 3e 0b c6 63 3d 57 b0 36 3e 23 87 55 3d
       0.13034424 0.05560879 0.17840706 0.05213083
000070 7b e8 d7 3c 69 2a 08 3e ad 5d 3b bb 1a 4e 17 3e
       0.026355973 0.13297428 -0.002858977 0.14775887
000080 dd 06 6a bc 86 d1 69 3e 8a af 4c 3d 23 50 f7 3b
       -0.014283863 0.22833833 0.049972095 0.007547395
000090 cd db 57 3e 46 4b 40 3e c1 81 05 3e 46 82 f1 3d
       0.21079941 0.18778715 0.13037778 0.11792426
0000a0 13 94 d4 3d 5b f5 25 3e 6c 42 f8 3c ab fb 8e 3d
       0.103798054 0.16206877 0.03030511 0.069815956
0000b0 11 ba 38 3e dc 75 7d 3c a0 75 46 3a df 80 b6 bc
       0.18039729 0.015469994 0.0007570628 -0.022278247
0000c0 1d 1f 71 bd e5 09 d4 bb 1d 56 3b 3e 59 b4 f9 3c
       -0.058867563 -0.006470906 0.18294568 0.030481504
0000d0 11 0f b7 3d 2c cf cc 3c e9 b2 07 3e 5e 3c 3a 3e
       0.089384206 0.025001131 0.13251843 0.18187091
0000e0 7a 3d 32 bc cb 5a fa bd ff bd ae 3d c3 7d 39 bd
       -0.010878915 -0.12224349 0.08532333 -0.04528595
0000f0 fc e3 15 3e 93 f0 ed 3d 7d be 39 bd b2 7c b3 3c
       0.1463775 0.116181515 -0.04534768 0.021910045
000100 81 81 73 3c 50 fa dc bd ea 2f ea 3e 0d 82 a8 3e
       0.014862419 -0.10789931 0.4573968 0.3291172
000110 64 db dd 3c 40 7b 0e be 39 05 3f be 42 1d 74 be
       0.027082153 -0.13914204 -0.18654336 -0.23839286
000120 0f 76 bf 3d e5 a0 34 be 18 ca 4a be 66 3c c9 bd
       0.0934869 -0.17639501 -0.19803655 -0.09825973
000130 c8 3f 77 be 1b cb b6 bd 00 40 3c be 6c be 30 bd
       -0.24145424 -0.08925458 -0.18383789 -0.04315035
000140 21 6f 97 bd 7b 3c dd bd f6 32 07 be 19 36 3a be
       -0.07394243 -0.10802551 -0.13203034 -0.18184699
000150 68 97 75 3e 31 fd 57 bd 81 8c 18 bd a5 3b 89 bd
       0.23983538 -0.052731697 -0.03724337 -0.067008294
000160 b8 1d 11 be 91 5d 0d be 90 16 b5 3d dd 14 21 bd
       -0.14171493 -0.13805224 0.08842194 -0.039326537
000170 16 ea fd bd 55 9a e1 3d c7 2f 02 3e 59 0d 8d be
       -0.12398164 0.110157646 0.12713538 -0.27549246
000180 4c f4 8b 3d 1b 56 f4 3c d1 79 52 3e ae 0c 85 ba
       0.06833705 0.029826215 0.20554282 -0.0010150874
000190 39 c5 02 be 73 79 0a be fa 62 04 be 26 8c 0f 3f
       -0.12770547 -0.13522892 -0.12928382 0.56073225
0001a0 71 fc 19 be de 14 b7 3c 9a fd a9 3d ef 6f 8a bd
       -0.15037705 0.022348817 0.08300324 -0.06759631
0001b0 bf f7 1e be 3b b3 5a bd 60 78 b9 bd 72 74 45 3d
       -0.15524195 -0.053393584 -0.09056163 0.048206754
0001c0 d2 15 0e be 5a 40 19 bd 4c 1e 84 3e 4e c8 6b bc
       -0.13875511 -0.037414886 0.25804365 -0.014391018
0001d0 c2 f4 52 bd 74 fe 36 be 23 ef b4 bc 87 c7 a8 3d
       -0.05150295 -0.17870504 -0.022086686 0.08241182
0001e0 9a d5 18 be cd 1c 99 bd 01 27 e1 bb fb 3a a7 3e
       -0.14925233 -0.074761964 -0.0068711047 0.32662186
0001f0 a0 06 7a 3c 1b da 1a 3e 42 45 75 3d f3 ee df 3d
       0.015260369 0.15122263 0.059880503 0.10934248
000200 13 21 32 be a1 9f 52 3e e8 d1 d1 bd 2f 7a cf bb
       -0.1739543 0.20568706 -0.102451146 -0.006331704
000210 d6 e4 5f be ab 47 6d 3e 23 4f 39 3e 5e 3b 28 bd
       -0.21864638 0.2317187 0.18096595 -0.041072242
000220 c2 ed 59 be 6f 3e 73 3e 88 7d 13 3e 83 50 88 bc
       -0.21282104 0.23754285 0.14403355 -0.016639953
000230 e0 1c 68 3e 5a 7a 3a 3e 1b ab 4f bd 34 bf 4c 3e
       0.22667265 0.18210736 -0.05070029 0.19994813
000240 ee ab 1e be 83 14 19 bd 99 23 d0 3d 2a ed d1 bd
       -0.15495273 -0.037373077 0.1016304 -0.102503136
000250 02 f8 0c be 6d 3a 0b 3e 8b ef 47 3e e5 4e 9d 3c
       -0.13766482 0.13596506 0.19524972 0.019202659
000260 d3 38 0e be 65 3b 0e be af 3e 3e 3e 7d 10 10 be
       -0.13888864 -0.13889845 0.185786 -0.1406879
000270 a7 0c 0f be 10 4d 43 be d2 a3 10 3c 59 d6 b0 3d
       -0.1396967 -0.19072366 0.00882812 0.086346336
000280 2c dc 8b bc 4b bc 60 be 0d a0 8c bd 12 dc 88 3c
       -0.01707276 -0.21946828 -0.06866465 0.0167065
000290 30 95 1b 3e fe 72 f9 bd 56 99 06 bd bf 36 ac bd
       0.1519363 -0.12180136 -0.032861076 -0.084088795
0002a0 c4 a5 b2 ba b2 d6 3a 3e a7 1c e1 bd f4 3b 04 3e
       -0.0013629724 0.18245962 -0.10991793 0.12913495
0002b0 7f 99 23 be d2 66 3d be 99 d3 ca 3d b9 49 fe 3d
       -0.15976523 -0.18496254 0.0990364 0.12416405
0002c0 16 21 95 3b 5a d3 09 be df b1 12 bd 5a 2e 76 be
       0.0045510633 -0.1345953 -0.035814162 -0.24041119
0002d0 20 60 19 be 46 db 19 be 35 6d b9 3d 90 09 91 bb
       -0.14978075 -0.15025052 0.09054033 -0.0044261888
0002e0 3b 27 cd bd 38 26 32 bb 89 b7 0b be 90 0d bc 3d
       -0.10017248 -0.0027183425 -0.13644232 0.09182274
0002f0 2d 72 6b 3e 35 88 5a 3d d1 c1 19 3e 71 d3 3a 3c
       0.22992773 0.053352553 0.15015341 0.011402951

notes_decoder.weight f4 [128, 64]
000000 93 40 88 3d f4 49 c7 bd 71 e2 1f 3e d1 f5 38 3e
       0.066529416 -0.09730902 0.15613724 0.18062522
000010 3b 8e 41 3e 41 df 72 bd 2f 9e 4e bd 65 dd a0 3d
       0.18901913 -0.059294943 -0.050443824 0.07854728
000020 0a f9 14 3e b0 9f 48 be d7 18 8f be a8 c9 93 3c
       0.14548126 -0.19592166 -0.2794864 0.018040493
000030 24 bc b3 bd 47 9d 92 be b7 61 6b 3d 5b a4 63 be
       -0.08776119 -0.28635618 0.057466235 -0.22230665
000040 02 a2 71 3e 2a 00 a2 3d 23 c8 7e 3d 0d f3 3a 3d
       0.23596957 0.079101875 0.062202584 0.045641948
000050 94 f8 96 3e 1f 6f 3f be 5e da 8f be dc 69 2d be
       0.29486525 -0.18694733 -0.28096288 -0.16934913
000060 4c da 92 3e fe e5 56 3e d7 2e 44 be 1d 28 4a 3e
       0.28682172 0.20986173 -0.19158493 0.19741865
000070 e5 14 29 3e f7 22 07 3e 52 24 3b be 53 8a 06 be
       0.16511877 0.13196932 -0.18275574 -0.13138704
000080 b9 31 1d 3e d8 9b 16 3e 02 50 a7 bd 5d 8b 88 be
       0.15350999 0.14707887 -0.08169557 -0.26668826
000090 7b f8 40 be 46 af 49 3e f1 f4 1e 3e ab b8 70 3e
       -0.18844788 0.19695768 0.15523125 0.23507945
0000a0 cd 04 cd 3d b2 2b 4b be c1 18 11 3e 18 b0 7a be
       0.10010681 -0.19840887 0.14169599 -0.24481237
0000b0 49 e1 5d 3d 72 31 91 3e 2a f0 36 be 58 39 5c be
       0.054169927 0.28358036 -0.17865053 -0.2150625
0000c0 ec 49 cb 3c ee 9d 39 3e 55 e2 01 be 86 15 68 3e
       0.024815522 0.18126652 -0.12683995 0.2266446
0000d0 b5 b5 14 3e 53 d1 05 3e 30 48 44 be 06 ac 03 3e
       0.1452244 0.13068132 -0.19168162 0.1285859
0000e0 76 b9 80 3e ec 11 02 be c4 59 11 3e 72 96 c3 3d
       0.25141495 -0.12702149 0.14194399 0.095501795
0000f0 94 4c ec bd 14 a7 02 be 7e d6 02 be 54 38 97 bd
       -0.115380436 -0.12759048 -0.12777135 -0.073837906
000100 9b 9f 46 3d e9 00 86 bd 27 f2 20 3d 65 2e 49 3e
       0.048492055 -0.06543142 0.039293434 0.19646604
000110 1b 9a fe 3d de 98 8f be 84 b3 e7 bd 0b 26 18 3e
       0.12431737 -0.28046316 -0.11313537 0.14858262
000120 b4 7a 30 3e 4a 45 87 be c4 26 23 be 80 cf e3 3d
       0.17234308 -0.2642005 -0.15932757 0.11123562
000130 97 93 b6 bd fc 2d 9c bd 5d b4 8e 3e 6d d8 26 be
       -0.08914869 -0.07625958 0.2787198 -0.16293497
000140 3a b4 96 3e 9a 9f 8c 3e bc e9 02 bd 1e fc 16 3e
       0.29434377 0.27465516 -0.031961188 0.14744613
000150 c2 04 4c 3e 59 d6 ff bd d4 6e d0 bd aa ff 5f be
       0.1992369 -0.124920554 -0.10177389 -0.21874872
000160 5b 04 bf 3d 2f 23 6e 3e 9e 46 51 be b8 36 43 3e
       0.093270026 0.23255609 -0.20437095 0.19063842
000170 dc 62 95 3e 8e 0f 0a 3e 3b 01 23 be 7e fb 49 be
       0.29176986 0.13482496 -0.15918438 -0.19724843
000180 43 ea 1c 3e 45 22 0a 3e d7 d6 3e bd 24 5d 2b be
       0.15323739 0.13489635 -0.046591606 -0.16734749
000190 c9 2b 53 be 1f 98 5c 3e 75 a1 0c 3e 88 0a 43 3e
       -0.20622171 0.21542405 0.13733466 0.19046986
0001a0 58 58 3b 3e 42 7e 5f be d4 13 5f 3d 28 4b af bd
       0.18295419 -0.21825507 0.05446227 -0.08559257
0001b0 41 e8 8f 3e ae b3 cf 3d d5 54 56 be ab 3b 74 bd
       0.28106883 0.10141693 -0.20930798 -0.059627216
0001c0 81 f5 70 3c 82 9a c0 3d c5 1a 1f be 2d 61 2d 3e
       0.01470697 0.0940447 -0.15537556 0.16931601
0001d0 a3 64 2c 3e 27 ed 4e 3e f6 72 5c be ff 2f 25 3e
       0.16835265 0.20207654 -0.21528229 0.1613159
0001e0 ff 0e 94 3e ee 3d ba 3a 87 fc 6d 3e 0e 39 1c 3d
       0.2891769 0.001420913 0.23240863 0.03814035
0001f0 e7 3a 85 be fb 16 8a bd 4a cb 19 be de 05 0a be
       -0.260215 -0.067426644 -0.15018955 -0.134788
000200 3e 64 12 bd 97 86 56 be 73 4a 34 3e 3f b0 75 3e
       -0.03574013 -0.2094978 0.17606525 0.23993014
000210 6e a8 86 3e fa 2c bf bd 2b 83 9c bd 0f bc 5b 3e
       0.26300377 -0.093347505 -0.07642206 0.21458457
000220 fe c6 9a 3e 0d 52 a1 bd 85 62 30 be d0 21 99 bd
       0.30229944 -0.07876978 -0.17225082 -0.07477152
000230 5d 7d 8b be ab 97 8b be 4a df 17 3e 1d 5e f6 bd
       -0.27244082 -0.2726415 0.14831272 -0.120296694
000240 4c 30 c1 3d 62 f7 b8 3d 94 43 7f 3c 6a c2 e3 3c
       0.0943304 0.090315595 0.015580077 0.027802665
000250 ac d7 5f 3e 64 90 e4 bd 5f 48 30 be 28 34 7a be
       0.21859616 -0.11160353 -0.17215107 -0.24433959
000260 a8 46 8f 3e e9 ec 6c 3e 5d c1 50 be 18 3a 74 3e
       0.27983594 0.23137249 -0.20386262 0.23850286
000270 70 6d 76 3e cd c4 4b 3e 40 ef 35 be 93 39 47 be
       0.24065185 0.19899292 -0.17767048 -0.19455557
000280 2b e7 bf 3d 23 9e c9 3d 39 50 4b be 50 08 62 be
       0.09370264 0.09844615 -0.19854821 -0.22073483
000290 b2 0d 55 be 9f 76 2e 3e 20 86 24 3e 6c 81 3d 3e
       -0.20806006 0.17037438 0.1606679 0.18506402
0002a0 10 d2 51 3e 87 2a 70 bd f8 67 85 3d 3f 22 ea bd
       0.20490289 -0.058634307 0.06513971 -0.11432313
0002b0 f0 e7 91 3e a2 16 41 3e 1f b9 85 be 38 e7 70 bd
       0.28497267 0.1885629 -0.261178 -0.058814257
0002c0 8f c1 e3 3d 9e 68 05 3e 4f c9 59 be 0f e3 1f 3e
       0.11120903 0.1302819 -0.212682 0.1561396
0002d0 3b 5d 81 3e 88 45 4f 3e f2 14 cb bd 7e 16 0d 3e
       0.25266442 0.20241368 -0.099161044 0.13778111
0002e0 1c 65 32 3e 03 ae 10 bd 15 5f b8 3d 5d f2 1b 3e
       0.17421383 -0.0353222 0.090025105 0.15229173
0002f0 69 6c 19 bd fe a6 98 bd 68 f2 e0 bd e3 c5 36 be
       -0.037456904 -0.07453726 -0.10983735 -0.17848925
000300 f7 cc 38 3d d7 1a 2d be 6e a8 6a 3e c9 ae c9 3d
       0.045117345 -0.1690477 0.22915813 0.09847791
000310 9a 08 c3 3d bd 37 16 be f3 62 a4 bd 77 b0 aa 3d
       0.09523125 -0.146697 -0.080266856 0.08334439
000320 64 12 81 3e 4f f1 03 be 45 cb 6f be de 66 58 3d
       0.25209343 -0.1288502 -0.23417385 0.052832477
000330 80 5a 82 be a2 49 8b bd d8 a0 8d 3e d2 b5 18 be
       -0.2545967 -0.06801154 0.27661777 -0.14913109
000340 32 ed 0e 3e e9 76 a8 3d 92 03 8d 3d 28 13 74 3e
       0.1395767 0.08225805 0.068854466 0.23835433
000350 b8 f4 06 3e e2 79 f7 bd 0d b6 90 be 92 65 aa bd
       0.1317929 -0.12083794 -0.28263894 -0.08320154
000360 df 44 6a 3e c7 2b 71 3e 49 71 63 bd 6d 9a 99 3e
       0.22877835 0.23551856 -0.05552796 0.3000063
000370 8f 4a c2 3d c6 9b 88 3e 5a 0a 43 be 5a c3 96 be
       0.09486877 0.26681346 -0.19046918 -0.29445916
000380 56 b0 68 3e 65 0f 92 3e 94 d4 cd bd 8b 12 81 be
       0.22723517 0.2852737 -0.10050312 -0.2520946
000390 9a a2 9b bd 54 25 3d 3e 56 5c 8f 3e ca 22 33 3e
       -0.07599373 0.18471271 0.28000134 0.1749374
0003a0 20 83 81 3e 88 1e 08 be b0 b8 23 bb 3b 3f fa bd
       0.25295353 -0.13292897 -0.0024981909 -0.122190915
0003b0 c7 ec 4e 3e dd 27 f1 3d 50 c9 94 be b5 50 2c be
       0.20207511 0.117751814 -0.2905984 -0.16827662
0003c0 b6 4b 82 bd 9e 52 b6 3d 7e a8 61 be 86 ae 7c 3d
       -0.06362097 0.08902477 -0.22036931 0.061689876
0003d0 3c 72 69 3d 0f b8 08 3e fb 71 a0 bd c2 58 47 3e
       0.056993708 0.13351463 -0.0783424 0.19467452
0003e0 cc 28 18 3e f3 fa 06 3d 70 7c 8c 3e c8 f5 b6 bb
       0.14859313 0.032954168 0.27438688 -0.0055834986
0003f0 ea 25 08 be ee 0a e9 bd f4 22 36 bd 80 98 99 be
       -0.13295713 -0.11379038 -0.044466928 -0.2999916

notes_decoder.bias f4 [128]
000000 2d 91 04 bd 1b ab 38 be 65 20 11 be 34 79 77 be
       -0.032365013 -0.18034022 -0.14172514 -0.24167329
000010 2d 91 11 be 56 3e 14 be 00 f0 4e be 60 e7 34 be
       -0.14215536 -0.14476904 -0.2020874 -0.17666388
000020 ce 3a 72 be c1 83 80 be 36 d8 1a be 5b be 69 bd
       -0.23655245 -0.2510052 -0.1512154 -0.057066303
000030 fb 74 48 bd 41 4b 3e be 04 88 6c bd c6 32 63 be
       -0.048939686 -0.18583395 -0.057746902 -0.22187337
000040 1f 5e 38 bd 48 c5 4e be 27 47 64 bd d7 a3 a7 bd
       -0.045011636 -0.20192444 -0.05573192 -0.08185547
000050 aa 89 22 be a4 33 00 be f4 c5 70 bd e9 d3 0b be
       -0.15872827 -0.125197 -0.058782533 -0.13655056
000060 00 73 a0 bd 5d 56 48 be 5b de a8 bd 66 70 b2 bd
       -0.078344345 -0.19564195 -0.08245536 -0.087128446
000070 01 df c9 bd 3b ad 0b bd e4 55 2d be fa 1f 52 be
       -0.09856988 -0.034100752 -0.16927296 -0.2052001
000080 1b 96 43 be 4d 63 f9 bd e7 41 9f bd a4 c1 18 bd
       -0.1910023 -0.12177143 -0.07776242 -0.037294045
000090 2d fd 00 be 88 d0 87 bd f1 8a 08 bd c6 34 5a be
       -0.12596579 -0.06631571 -0.03333563 -0.21309194
0000a0 b8 a8 33 be ac 55 a0 bd c0 62 70 be be 28 2f be
       -0.1754483 -0.078288406 -0.2347517 -0.17105386
0000b0 de 53 65 be 5e 43 f3 bd 78 95 03 be 50 7b 03 be
       -0.22395274 -0.11878084 -0.12849987 -0.12840009
0000c0 66 b3 1b be d7 1c 1b bd 21 b8 97 bd 73 44 2a bd
       -0.15205154 -0.0378693 -0.07408167 -0.041569185
0000d0 97 77 d4 bc 2f 50 1e be 7f 04 6d be d4 9d 24 be
       -0.025935931 -0.15460275 -0.23146246 -0.16075832
0000e0 23 bd 37 be fb c8 0d bd b0 85 ca 3b ba a6 79 be
       -0.17943244 -0.034615498 0.0061804876 -0.24380007
0000f0 27 f1 9e bb ab 1d 13 bd 30 71 f7 bc 7a b9 11 be
       -0.004850525 -0.035916965 -0.03020534 -0.1423091
000100 31 1b 5e bc 98 e8 66 be ac f2 c5 bc cf e7 d7 bd
       -0.013556288 -0.22549665 -0.024163567 -0.10542261
000110 e7 8c 5e be 10 37 3d be 5e 85 18 be 46 41 30 be
       -0.21733437 -0.18478036 -0.14894626 -0.172124
000120 c4 b0 5a be 22 bc 72 bd 68 b4 d8 bd 6c f5 11 be
       -0.21356493 -0.05926145 -0.10581285 -0.14253777
000130 b1 f7 5c be 8f 33 28 bd 1e b1 25 be 5c 2e b7 bd
       -0.21578862 -0.041064795 -0.16180846 -0.08944389
000140 0d 89 5f be 1f d7 64 be ed 57 54 be 90 b1 58 be
       -0.21829624 -0.22347687 -0.20736666 -0.21161485
000150 4d b8 35 be 5f d8 ea bd 8c 58 71 bd 06 d8 47 be
       -0.17746086 -0.11467051 -0.058922336 -0.19516
000160 ca be 21 bd 95 52 ec bd 2c 38 76 be c8 cc 9d bd
       -0.03948859 -0.11539189 -0.24044865 -0.077050745
000170 ae b1 32 be b0 c1 98 bd db 56 4f be 19 51 84 be
       -0.17450592 -0.07458818 -0.20247976 -0.25843123
000180 da ee 89 bd b0 07 2d bc c2 51 42 be 53 23 3c be
       -0.067350104 -0.010560915 -0.189765 -0.1837285
000190 52 7c 3c bd 97 2e 89 bd 6c 8b 82 bd 88 a2 65 be
       -0.046017 -0.066983394 -0.06374249 -0.22425282
0001a0 01 3c 81 be 47 c9 4e bd 2a 29 81 be ac 73 88 be
       -0.25241092 -0.05048492 -0.25226718 -0.2665075
0001b0 6e c7 74 be 98 84 e9 bd 0b 9b 84 bd 9f 28 13 be
       -0.23904201 -0.114022434 -0.064748846 -0.14370964
0001c0 c5 2b 5d be 84 2e ae bd e4 de a3 bd 9b 38 0f be
       -0.21598728 -0.08504966 -0.080014974 -0.13986437
0001d0 a8 21 4f be a0 f7 5d be 93 90 68 be 54 b2 27 be
       -0.20227683 -0.21676493 -0.227114 -0.1637662
0001e0 dd 2a 8e bd f1 47 6e be 0f 6e 09 be 8d b0 88 bd
       -0.06941769 -0.23269631 -0.1342089 -0.066742994
0001f0 98 94 3c bd 15 0a 52 bd 73 b8 4f be d6 28 eb bd
       -0.046040148 -0.051279146 -0.20285206 -0.11482398
