saved_models/generalist_BCE_1e-2_180.pth (torch_old, 167373 bytes, 8 tensors)

notes_encoder.weight f4 [64, 128]
00000000: 8146 abbd 36a3 65bd ba12 5c3d 6bea 8f3d
00000010: d930 91bd 493e 5ebd b8a1 093c 3dda 7bbd
00000020: 9bbf 7cbd 0064 aabb f818 76bc 4277 703d
00000030: d366 a7bd ecee 05bd 6035 3c3c ce73 673d
00000040: 3160 5cbd 4656 a8bd 1c92 92bc 98e2 913c
00000050: 7646 3b3d 3237 6cbd 3e43 abbd e0cf 923c
00000060: e756 b4bd 70f0 d73b 5670 313d 1003 ba3c
00000070: c2e1 773d 3c73 c5bc 3060 ca3c 409e 59bc
00000080: 6c95 4cbd 8ca2 d13c b15e 04bf 1e39 163d
00000090: b9d5 afbd 10df ec3b 40b2 c2bd dc04 77be
000000a0: 6e14 e73d 1a9e 603d bfb7 53bf c1ae febe
000000b0: 4c3a 5b3f c27f dbbe 015f f03d 80f2 4f3e
000000c0: 2976 9b3e 07d9 c13e 3926 e53e ef71 df3d
000000d0: 4e32 b9bd 5403 563d 1597 6abe f35d 193e
000000e0: f5aa 273f 3956 cf3b c98d 723e 3db8 9d3e
000000f0: adf6 123e 44d3 2c3f 1847 603e ac8c ae3e
00000100: bb73 5b3e caed 403c be70 92bc 5ec2 883e
00000110: e411 443f f6c8 723e a646 033f 418b 413f
00000120: 326d b33e c96c 3a3e 7681 793e 9948 05bf
00000130: 2245 983e 1290 163f f390 19be 1075 b13e
00000140: 2cb2 553e 5afe 013e 12f8 a13c e551 9dbd
00000150: 4e56 65be a06c 94be c35b 54bd 3e1a 13bf
00000160: 6274 99be 8fc4 f33d d85c a0bd fd96 983d
00000170: 9c6e a7bc 949f e83c 006e fd3b 08e5 c8bc
00000180: 04eb 96bd 205c 54bb 6bf1 4fbd 95c6 9b3d
00000190: 5979 ac3d 4d47 ac3d 0ed7 d9bc 34c3 96bd
000001a0: 7021 69bc 320a 5d3d 3322 58bd beaf 303d
000001b0: 50f5 05bc a82c 34bc 39cf 0ebd d3c0 4fbd
000001c0: 727d 603d fc6e e43c 2232 313d 61d1 51bd
000001d0: c6b1 383d 24fb ea3c aeab 743d a6b8 5c3d
000001e0: 0072 593c 81c6 ac3d 8054 983b 2cba 89bc
000001f0: 6042 0d3c bcb0 39bd d252 793d a49d d63c
00000200: 815f a7bd 5a3f 753d a537 823d e0fa d53b
00000210: bfeb aebd f361 9b3d b033 c13c c804 96bd
00000220: 00dc df3b 9c25 bebc 8f75 803d b006 e1bb
00000230: a321 08bd baca 3b3d 2044 b13c 2032 4a3c
00000240: 2195 8ebd bbc9 a9bd 0872 da3c 800f 07ba
00000250: 8473 90bc c088 d9bb e05b 52bc a906 09bd
00000260: 3ef6 413d 6c15 d5bc 3c6a ddbc 52a5 8bbd
00000270: d8a2 923c 38fc c8bc c095 ae3b 4568 2cbd
00000280: 5e77 693d 6c62 cbbc 9087 093c f449 ed3c
00000290: d9b7 09bd 4033 913b f970 b8bb 74d5 3ebd
000002a0: 1f2f 40bd 53ef dcbd f694 a8bd c9b4 50be
000002b0: 71c0 77bd 9f7b 7abd b7a1 d0bd c65d bfbd
000002c0: a3d1 debd c859 83bd 7d32 9fbd 0ebf 23be
000002d0: 79ed abbb 3df4 3bbd ac5c 4fbd 5728 eebd
000002e0: fb21 cebd 1b53 a0bd ae3a 29be bc7f cfbd
000002f0: 22f8 18be 7d5a 77bd 8086 1fbd 05b3 c6bc
00000300: 3c75 9cbd 2599 67bd 7c77 40be d664 1abe
00000310: e0e3 91bc 7ecf 2fbe d5fb 9fbd 6220 2bbe
00000320: cccb babd 405f d9bd 6170 30bd 2c28 7bbd
00000330: 19d8 0dbd 7b51 b73c db1c f8bd b46c c5bd
00000340: a74e 1ebd c9d4 00be fc3a 2abd e688 5ebd
00000350: b7da 09be 8f5c 1bbc 2d3b 38bc 8c35 bebd
00000360: 726f 42bd 7eae 72bc 6439 8dbd 66d0 1a3d
00000370: 94d3 09bd ece3 bbbc f82e b3bc 01b0 9a3d
00000380: 8670 30bd 900a d73c ad62 13bd b14e 8a3d
00000390: e8eb 663c e26c 593d 0d6a 57bd e35b 813d
000003a0: faaf 383d ad0c 56bd 72f0 473d ba67 683d
000003b0: 47f7 24bd 5eef 513d a155 87bd 5c13 a5bc
000003c0: 1e74 a6bd c004 c8ba 3463 9cbd 65c5 9f3d
000003d0: c9a9 ae3d 0c4b d63c 9cc9 cabc c065 21bc
000003e0: c01c 7cbd 8ffc 0fbd 280d 02bc 322d 99bd
000003f0: 5ac5 363d 1ead 6b3d 1c20 f0bc 30f7 2e3c
-0.08363057 -0.056063853 0.053728797 0.070271336 -0.07089395 -0.05425862 0.008400373 -0.061487425
-0.061706167 -0.005199909 -0.015020601 0.058707483 -0.08173909 -0.032698557 0.011487335 0.056506924
-0.053802673 -0.0821958 -0.017891936 0.017808244 0.045721494 -0.057669826 -0.08362435 0.017921388
-0.08805638 0.0065899417 0.043320023 0.022706538 0.060518034 -0.0241028 0.024704069 -0.013282359
-0.049947187 0.025590204 -0.5170699 0.036675565 -0.08585686 0.0072287396 -0.09506655 -0.24122947
0.112831935 0.054838277 -0.8270225 -0.49742702 0.8563583 -0.4287091 0.117368706 0.2030735
0.30363587 0.3786089 0.44755724 0.10910403 -0.09042798 0.052249268 -0.22909196 0.14977245
0.65495235 0.006327417 0.23686899 0.30804625 0.14351912 0.67509866 0.2190212 0.340917
0.21430866 0.011775443 -0.017876025 0.2671079 0.765898 0.23709473 0.51279676 0.7560311
0.35044247 0.1820556 0.24365792 -0.520639 0.29740244 0.58813584 -0.149967 0.34659624
0.20868748 0.12694684 0.01977161 -0.07681636 -0.22396204 -0.28989124 -0.051845323 -0.5746192
-0.29971606 0.11902725 -0.078302085 0.07450674 -0.020438485 0.028396405 0.0077340603 -0.024523273
-0.073690444 -0.0032403544 -0.050767343 0.07606236 0.08421583 0.08412037 -0.026591804 -0.07361451
-0.0142291635 0.0539648 -0.05276699 0.04313635 -0.008176163 -0.010996975 -0.03486559 -0.050721
0.054807134 0.027884953 0.0432607 -0.05122507 0.045091413 0.028684206 0.05973404 0.053887032
0.013271809 0.08436299 0.004648745 -0.016812406 0.008621782 -0.045334563 0.06087 0.026198216
-0.08172513 0.05987487 0.063582696 0.006530151 -0.08541059 0.07587042 0.023584217 -0.07325131
0.006831646 -0.023211293 0.062724225 -0.0068672523 -0.033235203 0.045847632 0.02163893 0.012341052
-0.06962038 -0.0829043 0.026665702 -0.0005152151 -0.017633207 -0.0066386163 -0.0128392875 -0.033453617
0.047353975 -0.026011191 -0.027028196 -0.06818642 0.017899916 -0.02453433 0.00532791 -0.042091627
0.056998603 -0.024827205 0.008394137 0.028965928 -0.033622596 0.0044311583 -0.0056287018 -0.046590284
-0.04691994 -0.10787835 -0.08231537 -0.20381464 -0.06048626 -0.06115305 -0.10187095 -0.09344058
-0.10879829 -0.06413609 -0.07773302 -0.1599085 -0.005246815 -0.04588722 -0.05062549 -0.11628788
-0.10065075 -0.07828351 -0.16526291 -0.10131785 -0.14938405 -0.06038903 -0.03894663 -0.024255285
-0.07639548 -0.056542534 -0.1879558 -0.15077528 -0.017808855 -0.17168996 -0.07811705 -0.16711572
-0.091209024 -0.106138706 -0.043075923 -0.061317608 -0.034629915 0.02237772 -0.12114879 -0.09639874
-0.038649227 -0.12581171 -0.041560158 -0.054329775 -0.1346234 -0.009482517 -0.011244577 -0.09287557
-0.047469564 -0.01481211 -0.06895712 0.0377964 -0.033649042 -0.02293583 -0.021872982 0.07553101
-0.04307606 0.026250154 -0.035982776 0.067532904 0.01409433 0.053082354 -0.052591372 0.06316354
0.0450897 -0.052258182 0.04881329 0.056739546 -0.040274885 0.05125367 -0.06608129 -0.020150833
-0.08127616 -0.0015260205 -0.07636109 0.07801322 0.08528478 0.026158832 -0.024754338 -0.009850919
-0.061550856 -0.035152968 -0.007937707 -0.074793234 0.044621803 0.057538144 -0.029312186 0.010679051

notes_encoder.bias f4 [64]
00000000: e745 00be 2216 2bbe 846d 27be a103 333e
00000010: ada0 6fbd 673d 2cbe d3f1 43be 62bb 0f3e
00000020: f867 203e b933 3c3d a77a 083e d07c a23d
00000030: 450e fbbc 8b12 183e 3c83 af3d f86e 38be
00000040: f06b 2bbe 9d5c 33be 068c 0fbe d010 143e
00000050: 1c96 38be 99f9 26be 8ac6 003e d80d 71be
00000060: 01ff 463e 53ef 523e fd0d 463e 0edb 53be
00000070: 8af0 253d ae4b dbbd e644 b13d dacf 0bbe
00000080: 7719 9d3d f7ee 413e 2c30 0bbe a975 f4bd
00000090: 78f2 8d3c fcb5 f93d 286a 0f3e d318 e0bd
000000a0: 603d 44bd e559 5abe d243 843d 5576 31be
000000b0: 3373 8e3d 60c3 9cbb a758 283e fe0c 043e
000000c0: 0917 133e 276f 2d3e 523a 6abd f1f7 103e
000000d0: de57 3f3d 3d0c 093e 20b6 343e 97ad ddbd
000000e0: 565c 2c3e df2a 893d 5c34 fabd af7e 293e
000000f0: 5b69 383e 929a 0f3e 4712 e7bd 7f4c 55be
-0.12526666 -0.16707662 -0.1635037 0.17481853 -0.05850284 -0.16820298 -0.19135217 0.14036325
0.15664661 0.045947764 0.13328038 0.07933962 -0.030646453 0.14850824 0.08569953 -0.18011081
-0.16740394 -0.17515798 -0.14018258 0.14459538 -0.18026012 -0.16306151 0.12575737 -0.23540437
0.19433214 0.20599107 0.19341274 -0.20689031 0.0405126 -0.10707794 0.086557195 -0.13653508
0.07670873 0.18938814 -0.13592595 -0.119365044 0.017327532 0.12192914 0.14005339 -0.10942235
-0.047910094 -0.21323355 0.06458248 -0.17330296 0.06955566 -0.0047840327 0.16440068 0.12895581
0.14364256 0.16936933 -0.057184525 0.14157082 0.046714656 0.13383575 0.176476 -0.10824125
0.16832098 0.0669763 -0.12217018 0.16552232 0.1800894 0.14023808 -0.11282783 -0.20829962

gru.weight_ih_l0 f4 [192, 64]
00000000: 326b 273d f500 663e 7d8c 783e 8618 2cbb
00000010: 7594 ce3c 5790 383e 89db 053e b101 31bc
00000020: c8ba 6ebe dc4c acbc 382d 3a3d 09e2 d6bc
00000030: 6583 9c3d 51fe 42be a53a 6dbd 04e7 403d
00000040: 6f24 583e 1056 343d 2a84 413e 6f40 e3bd
00000050: 85aa f23d 4019 253e c576 67bd 5f7a 333e
00000060: 4831 65be 371b edbd cf0b 34be 41a0 2d3e
00000070: 35f5 0ebe ffea 273e ade2 5abd fc1f 303d
00000080: 6896 3cbe a3ae 59bd c806 1a3e 4bb5 2c3e
00000090: 5238 8abd a343 32be e717 74be ca1b 413d
000000a0: efd4 013e ae50 d83d 17f2 ed3c 7acb 8ebd
000000b0: 6ce5 4cbc ac8d 823d f814 10be 6807 4dbc
000000c0: 8647 1a3c db7f 60be e435 f3bd cfd4 07be
000000d0: 6db7 473d efb7 36be 205c b2bd 71b1 9a3d
000000e0: bf7b 2bbe c0fb cfbc 03b4 f53d 1ef9 ebbd
000000f0: 79c0 80be 4172 dfbd 7ec4 d33d e3fb 283d
00000100: 0381 2c3d c06d 68be c898 a3bd 491e 243e
00000110: 4fdb 30be 6097 15be 17e9 2fbd b760 343e
00000120: 94a5 d5b9 60ec b4bc a38f 5b3c adab 813d
00000130: 02b3 a73c c0a7 c53d 392c 923b 8853 d2bd
00000140: c16a d2bb bad4 343c 56f4 213b a730 113e
00000150: e312 52be 63bf 5dbe 47ec e6bc 8cec 4fbd
00000160: 52e2 5f3e b9d5 fa3d 1454 003e 323b c0bd
00000170: c603 243e 41a9 8ebd 3d39 383e 5fae f9bd
00000180: f194 15bd 4800 043d c36a 16bd d6d4 89bd
00000190: 7f29 de3d f666 423e 4349 c83d 79c1 21be
000001a0: 7875 21be c883 f3bd 44d2 863d ad5b 943c
000001b0: f9d6 2b3e 8a67 c53d 03fe dc3d 2085 143e
000001c0: 44a1 233e 4fa5 193e d778 883d 490d 103e
000001d0: 26cf 2bbd 8a65 e63d f8e3 023d 086c 0abe
000001e0: 922f 5b3c fe43 b5bd 2f67 32bd 8b95 28bb
000001f0: f3f9 5e3e dcce b23d f7bd 82bd 7990 e9bd
00000200: efea 703e 9188 c1bd 91e8 47be d0c1 0f3e
00000210: a083 1abe 15e0 cb3c e713 88bc ffde 2a3e
00000220: 024e bf3d ea48 533e 1e4a fbbd adaa 233e
00000230: 6c06 14bd 1c4d e4bc ccfb c2ba cd75 34bd
00000240: c108 b4bd b503 afbc e342 0b3d 7fa5 0b3e
00000250: cd26 ae3c 0adf 43be 17bd d73d 3ed2 42be
00000260: 925f e33d 0354 513d a40f ef3d 2888 d5bd
00000270: 4665 773d 48dd f9bc 1d62 513e c7ba 39be
00000280: 704f 203e 63b7 79bc c37e 43bd c73d 11ba
00000290: 60d6 5d3e 0fd2 383d ee4a 053e 3f40 0fbe
000002a0: 20e7 86b7 4a3e 44be f6bb d53c f4bf fbbd
000002b0: 6a60 1c3d 0a3b b9bd 930d 213c a264 643d
000002c0: 1d56 01be e152 933d fbe6 b03d a95c 483e
000002d0: 267a 353e d119 eb3d 20ec 1e3e b540 9cbc
000002e0: f10c 343e cf32 aebd 462f 033d 1aaa 343e
000002f0: 37ee b83d dbea 843d 6a2a 5dbd b8f9 17be
00000300: 0d47 1b3e ff78 f4bd c57b cebc 64a5 233d
00000310: de19 5bbe 9410 58bc 08fd 05be 02cc 273e
00000320: b051 403e dec7 ba3d e6d5 a2bd 7fe4 ff3d
00000330: 9a5a 5b3e 831a 0d3e 4d1c 973c 0894 0dbe
00000340: 8a54 2ebe 351b e9bd 5c78 cbbc ca9a 6d3d
00000350: 48cd 47be d148 55bd 2b4e be3d a930 f13c
00000360: 3694 b73d f07f fb3b d71d 04bd 31a8 94bb
00000370: 4ea0 003e fa62 d3bd cf47 4e3e 5705 96bd
00000380: 1e05 c13d 9f49 443e 013d b9bd 7ba0 bdbc
00000390: 387a 643e 4047 d13d b6ae 2e3e 87e7 38bd
000003a0: 93e6 d7bd acb0 11be 5a64 1b3e 6b97 e5bd
000003b0: d8ea 133e c596 aebd bde3 e63d dd97 173c
000003c0: 7429 0cbe 9778 aa3d c0aa fb3b 5a7d 423e
000003d0: b11e db3a 8bf2 d43c fbb2 c43c b922 0ebe
000003e0: dadb eb3d 9f59 3ebe 58c9 55be 289d c7bc
000003f0: a37b 00bd 9d3e 2d3e 5f06 03be a778 82bd
0.040873714 0.22461303 0.24272342 -0.0026259734 0.025217274 0.18023811 0.13072027 -0.010803626
-0.23313439 -0.021032743 0.04545328 -0.026230829 0.07642249 -0.19042327 -0.057917256 0.047095314
0.21107648 0.044027388 0.18898073 -0.11096274 0.1184893 0.16122913 -0.05650975 0.1752715
-0.2238208 -0.115774564 -0.1758263 0.16955663 -0.13960727 0.16398238 -0.05343883 0.042999253
-0.1841675 -0.053145062 0.1504165 0.16866033 -0.067490235 -0.17408614 -0.23837243 0.047145642
0.12678884 0.105622634 0.029046101 -0.06972404 -0.01250587 0.06374678 -0.14070499 -0.012513973
0.009416467 -0.21923773 -0.11875513 -0.13264774 0.048758913 -0.17843603 -0.08708978 0.075533755
-0.16746424 -0.025388598 0.11997225 -0.11522125 -0.25146845 -0.10910464 0.10340212 0.041255843
0.042115223 -0.22698116 -0.07988125 0.16027178 -0.1727116 -0.14608526 -0.0429469 0.17615019
-0.0004074989 -0.022085369 0.013400945 0.06331573 0.0204711 0.096511364 0.004460838 -0.102698386
-0.0064214175 0.011037046 0.0024712286 0.14178716 -0.20515017 -0.2165504 -0.028188838 -0.050762698
0.21863678 0.122477956 0.12532073 -0.093862906 0.16017064 -0.06965876 0.17990585 -0.12191462
-0.036518995 0.03222683 -0.03672291 -0.06730048 0.108477585 0.18984589 0.097795986 -0.1579646
-0.15767467 -0.1189037 0.06583074 0.01811012 0.16781224 0.09638889 0.107906364 0.14503908
0.15979487 0.15004466 0.06663673 0.14067568 -0.0419456 0.11249836 0.03195569 -0.13517773
0.013378041 -0.08850859 -0.043555435 -0.00257239 0.21775036 0.087308615 -0.06383889 -0.11404509
0.2352712 -0.09449876 -0.19522311 0.14038777 -0.15089273 0.024887124 -0.016611053 0.16686629
0.09341051 0.20633283 -0.12269996 0.15983076 -0.036138937 -0.0278688 -0.0014876067 -0.044057656
-0.08790732 -0.021364072 0.033999335 0.1363735 0.021258736 -0.19128051 0.10534113 -0.19025514
0.11102213 0.05110551 0.11672905 -0.1042636 0.060399316 -0.030501023 0.20447583 -0.18137656
0.15655303 -0.015241477 -0.04772831 -0.00055405166 0.21663809 0.045122202 0.13016865 -0.13989352
-1.608167e-05 -0.19164386 0.026090603 -0.122924715 0.038177885 -0.09044464 0.0098298965 0.055760033
-0.12630506 0.07193542 0.08637806 0.19566597 0.17722377 0.114795335 0.15519762 -0.019073823
0.17583062 -0.08505785 0.032027505 0.17643014 0.09029811 0.064901076 -0.053995527 -0.14841354
0.15163822 -0.11937141 -0.025205502 0.03995265 -0.21396586 -0.013187546 -0.13084805 0.16386417
0.18781161 0.09120153 -0.07950954 0.12494754 0.2142128 0.13779645 0.018446112 -0.13826
-0.17024437 -0.113821425 -0.024837665 0.058008946 -0.19511902 -0.052071396 0.09292253 0.029442148
0.08963816 0.0076751634 -0.03225502 -0.0045366515 0.12561151 -0.10321613 0.2014458 -0.07325237
0.09424804 0.19168709 -0.09044839 -0.023147812 0.22312248 0.10218668 0.17058834 -0.045142677
-0.105420254 -0.14227551 0.15175 -0.11210521 0.14445055 -0.08524851 0.112739064 0.009252516
-0.13687688 0.08323782 0.007680267 0.1899313 0.0016717521 0.02599456 0.024011126 -0.13880433
0.11516543 -0.18588875 -0.20877588 -0.02436693 -0.03136791 0.16918416 -0.12795399 -0.06370669

gru.weight_hh_l0 f4 [192, 64]
00000000: 83fe ba3c 2283 41bd 9668 0dbe 3eb1 4e3e
00000010: 24e2 a03d a84d 15be fef5 c2bd bcdf 223e
00000020: 1bbd 813e 9132 55bd 70b0 babd af6e 053e
00000030: f4df adbb 3575 6bbe d6d4 b93c bbb1 97bd
00000040: 89da 813d 00d1 6d3e 556f edbd c386 bcbc
00000050: 155b 253e e1da 30be f80e 2fbe f2c4 37be
00000060: 3387 2c3c edb5 3b3e 23e4 31be 7333 d73d
00000070: c8ea 913c 8a1d 543e 3d0f 2abe 0e81 4abe
00000080: 2167 533c 907b 713e 790c a9bd 5f2b 13bd
00000090: bad9 3fbe 4781 283e 0e33 acba b441 2f3e
000000a0: 0fe0 af3d a29f 1cbe 2941 9a3d e129 1bbe
000000b0: 6861 2e3e a1bc 9c3d ae9e d2bd 5ad4 b7bd
000000c0: 1510 97bc e961 343e 8f49 6fbe e7ea 213e
000000d0: 2dba 013e 150a 813d 33b4 92bd e187 4e3e
000000e0: 688b a53b 9850 8abd 2193 173e a557 173d
000000f0: a73f cebd 04d5 e4bd c995 c3bd caa2 15be
00000100: a98f 2cbd 8972 363d 5658 8e3d e07d c7bd
00000110: f964 873c 4fae ce3d 571a 583e 8a19 e4bc
00000120: 9ace 69bd 1a80 1e3e 9252 9c3d 5f4b c3bd
00000130: 8054 bf3d be72 c63d 8522 18be 9727 983d
00000140: 2d88 e63a 9f36 2cbe af48 3a3d 93d2 2abe
00000150: 224b 9cbd f0a9 633e b4d3 323e e950 5c3d
00000160: 4226 8ebc d726 06be 6077 a23d b05d 7ebd
00000170: b95d e8bd fbbb bbbd 0b78 22bd cd94 063e
00000180: a1ad 19be f2f2 90bd 0e97 b33c 4c93 503e
00000190: 5da7 553e 3920 e8bd a4a3 37be ed72 0e3b
000001a0: 2b52 63be 94c3 dabb 6b10 51be 1a4a 413e
000001b0: 7fdc 26bd 5ad6 a0bd cd78 263e ce25 893d
000001c0: c81e 63bd 97de b0bd 7b83 2fbd 6013 e0bd
000001d0: cdc8 9abc 61e6 d33c c9d5 1d3e 0593 c4b9
000001e0: f1e5 1dbe 3c9e 02be 480d 36be 70bc 763d
000001f0: 07d2 523d cda9 513e d223 afba 1415 453e
00000200: a7cf 8abe 068b bf3d e987 d9bd 9b68 503c
00000210: 655a 3fbe a0e9 283e c3bd 30bc f652 eebc
00000220: 362b 6abe 267a b03d 142a a43d 153f 113e
00000230: e564 5a3e e399 ddbb ed5c 76be 9099 2c3e
00000240: e7ca e6bd 2c4c 2ebe 2147 e83d 5d1e b2bc
00000250: 7da0 b5bc 106d 803d e3de 0d3e 60aa 793d
00000260: 7d5f 58be f744 6fbe d8e6 9c3d 31ea ccbd
00000270: 7fef 44be d81c f8bd 3baa 623e b2a0 f53d
00000280: 10d0 b7bd d83c 67be 49f0 be3d 5a7c aebc
00000290: 6216 593e 3767 2cbe a54b 23be de10 91bb
000002a0: ac35 64bd e8e4 513d 3051 cbbd bb96 9c3d
000002b0: b30e 01bd 78c5 77bd db1e 4b3e 8d39 4f3d
000002c0: 8129 393e a608 8f3c 9434 0b3e 616e 65be
000002d0: 8390 c5bd 9717 d9bd 76ea 41bc b01b e9bd
000002e0: 8a07 0bbe 75b7 593e 985c 0fbe 4f5b c2bc
000002f0: 7607 6b3d f07d 47bc 35d8 7a3e fcf4 913d
00000300: d469 0ebe 840e c63d b6eb 13be 231a 26be
00000310: 104b 403c 68a9 0e3e 28a7 303e 8a8b 9f3c
00000320: 166a ffbb 4384 88bc a470 3c3c ffa6 a5bb
00000330: bce7 4e3e d569 7dbc 571f 06be 634d 3c3e
00000340: 39b9 12bd 3754 a83c 51d0 283e fbc0 46be
00000350: 8dfb 25bb 208f 3e3e f810 443d 64d4 133e
00000360: ec3e 0e3d a584 2fbc 9f87 983d 1c9c 81bd
00000370: 1f41 28bb 3c8c 07bd 2636 9b3d b295 c83d
00000380: c705 1fbe d818 2d3c 7459 313e f261 18bc
00000390: 4dc4 513e 0aa9 13bc 8a04 39bd 1a78 48be
000003a0: d270 12be 60de 213e 873c ccbd 1906 133e
000003b0: efe0 15be e528 3dbe 8c23 e8bc 030a 743d
000003c0: 5b2b a93d 1749 b8bd d456 0d3e 97fb 793b
000003d0: 48ba 3cbe 70b2 73be 69de 493d 74a6 40bd
000003e0: 7f1d c1bd a108 ae3d f343 a3bd 8786 c5bd
000003f0: d1ab c73d 6a60 393e cf51 033e 5a89 a43c
0.022826439 -0.0472442 -0.13809428 0.201848 0.07855633 -0.14580405 -0.095195755 0.1590566
0.2533959 -0.052050177 -0.09115684 0.13030504 -0.0053062383 -0.2299393 0.022684496 -0.07406946
0.063405104 0.23224258 -0.115935005 -0.023013478 0.16148026 -0.17270996 -0.17095554 -0.17946222
0.010530281 0.18331118 -0.17372184 0.1050786 0.017812148 0.20714393 -0.16607375 -0.19775793
0.012903006 0.23582292 -0.08254332 -0.035930034 -0.187354 0.16455565 -0.0013137774 0.17114908
0.08587658 -0.1529527 0.075319596 -0.15152694 0.17029345 0.076531656 -0.10284172 -0.0897605
-0.018440286 0.17615475 -0.23367904 0.15812264 0.12668677 0.06300751 -0.071632765 0.20169021
0.005052019 -0.06753653 0.14802219 0.03694882 -0.100707345 -0.11173442 -0.095500536 -0.1461288
-0.042129193 0.044542823 0.069504425 -0.097408056 0.01652764 0.100918405 0.21103798 -0.02784421
-0.057081796 0.15478554 0.076329365 -0.0953586 0.09342289 0.09689854 -0.14856918 0.07429426
0.0017588191 -0.16817711 0.045479473 -0.1668189 -0.07631518 0.22232795 0.17463571 0.0537881
-0.017352227 -0.13100754 0.07932925 -0.062101066 -0.11346001 -0.09166714 -0.039665263 0.131427
-0.1500764 -0.07077588 0.021922614 0.2036869 0.20864625 -0.11334271 -0.17933518 0.0021735982
-0.22199313 -0.0066761468 -0.20416419 0.18875924 -0.040737625 -0.07853384 0.1625702 0.06696664
-0.055449277 -0.08636206 -0.04285 -0.109411955 -0.018894577 0.02586669 0.15413584 -0.0003749357
-0.15419747 -0.12755674 -0.17778504 0.0602383 0.05146983 0.2047493 -0.0013362116 0.19246322
-0.2711155 0.093526885 -0.10621626 0.012720252 -0.18686827 0.16495371 -0.01078743 -0.029092293
-0.22868046 0.08617048 0.08015838 0.1418422 0.2132755 -0.0067627295 -0.24058886 0.16855454
-0.11269169 -0.17021245 0.11341692 -0.021742994 -0.022171253 0.06270802 0.13854556 0.060953498
-0.21130176 -0.23366152 0.076612175 -0.10005606 -0.19231986 -0.121148765 0.2213525 0.11993541
-0.08975232 -0.22581804 0.093231745 -0.02129953 0.21199945 -0.16836248 -0.15946825 -0.0044270596
-0.055715248 0.051243693 -0.09927595 0.07645937 -0.03150816 -0.060491055 0.19835989 0.050591994
0.18082239 0.017460179 0.13594276 -0.22405387 -0.09646704 -0.106002025 -0.011835685 -0.11382234
-0.13577095 0.2126139 -0.14000165 -0.02372518 0.057380162 -0.012176022 0.24496539 0.07126805
-0.13907558 0.096707374 -0.14445385 -0.16220908 0.011736646 0.13931811 0.17251265 0.019475717
-0.007794629 -0.01666463 0.011501465 -0.005055308 0.20205587 -0.015467127 -0.13097893 0.18388896
-0.035821173 0.02054797 0.16485716 -0.19409554 -0.0025326938 0.18609285 0.047867745 0.1443649
0.034727976 -0.010712777 0.07447743 -0.063286036 -0.002567358 -0.033092722 0.07578687 0.09794177
-0.15529548 0.010565005 0.1731928 -0.009300696 0.20485039 -0.00901247 -0.045170344 -0.19577065
-0.1430085 0.15807486 -0.09972482 0.14357795 -0.14636587 -0.18472631 -0.028337263 0.05957986
0.082602225 -0.08998316 0.13802654 0.0038144344 -0.18430436 -0.23798537 0.049284372 -0.047033742
-0.09429454 0.084977396 -0.07971945 -0.096448 0.09749568 0.18103185 0.12824176 0.020085026

gru.bias_ih_l0 f4 [192]
00000000: 9648 4dbe d07f 163e d204 0ebd 8ef3 253e
00000010: 7dd5 6f3c 0298 c03d 9119 9c3d a2e1 a83d
00000020: 2603 9e3d da95 f33d 5829 903d d50b ffbd
00000030: ef19 043e 01aa 583e b7e3 de3d 175e 143e
00000040: 39df 3b3e 80dd 8b3d 28dd 84bd 9653 1d3e
00000050: 44b5 293d 9ecf f33d be0e 1f3e f05b 113e
00000060: 8ec9 c33d c83f 3c3d 73cd 09bd b25a 303c
00000070: 20bf 3d3e ee59 ad3b 122b 223d 50af 893d
00000080: 299a 363e a100 d83d 6e35 1d3e 552a 64bd
00000090: b429 da3d 17c7 443d 3769 f43d eb40 723e
000000a0: 4c05 373e 066b b63c 3341 7e3d 08ca c3bc
000000b0: 250d 703d 484e 0fbc 71d3 13bd b272 00bd
000000c0: 7889 e1bc 5ba3 403d 26b5 df3d bf1f 6c3e
000000d0: 96d6 233e 3d88 013d 8d0b 123e ea46 933d
000000e0: 8cb2 c7bc 67f2 1dbe 0b57 3a3e 6237 1b3c
000000f0: 45c6 b83d ce25 8c3b fb7d ff3d 8ec2 c0bc
00000100: 15f1 3fbe 65c5 163d fe3a bf3e ec98 383e
00000110: 7b8c f6bd 806d 0ebe 65c7 9f3b cb78 b0bb
00000120: 7e0b cb3d b53b 93be 304a abbd 8dd7 09be
00000130: 89ed 88be 32c0 35be f238 8abd 6b9e 1bbe
00000140: 7d0f 363d ae15 96bd ff35 8c3d 3e0f 6bbd
00000150: 66a9 4c3e 6664 913c 88e8 a7bc 2d88 16be
00000160: 9889 debc 148f 13bd 5769 b53d 8fa6 da3d
00000170: 2db9 ecbb 70d6 843c 8959 53bd 8ea6 80be
00000180: 4a1f 043e e176 edbc 669a 8c3e 8b94 35be
00000190: 97ef 33be 4f44 3bbe 1c18 e33c d59b d63e
000001a0: 2fc4 e7bd 001d f13d a1a6 a03d 1bac 3e3d
000001b0: cffd c83c 0876 00bd d4ab f4bc 1331 213d
000001c0: ace9 91be f039 8e3d 48c7 433e 7d41 9abd
000001d0: f80e 30be 096c 743d 83c3 843d f958 f83c
000001e0: d14f 9abd 7e7a bf3c fb17 043e fc4d af3e
000001f0: 84fc 12be 7d78 56bd 82f9 9ebd ec3d ca3d
00000200: b187 a5bd 7bc8 e03d 809c 943c 54e7 07be
00000210: 37a3 2cbe 3bc7 143e 44d8 e13d ad28 54be
00000220: 7a2b 27be 8c7c 2e3e 2069 643e 2d87 abbd
00000230: 2a42 1f3e 0a82 123e 5682 2bbe b47a 1b3e
00000240: 55c8 29be aa65 23be c192 643b 6ae5 343c
00000250: 622e 32be 0de1 293e ecaf 483e 77e8 3c3e
00000260: d42d 09be 0110 fa3c 364a 0d3e ed68 5fbe
00000270: 1fae 42be 3629 0bbe fcf8 263e 81c8 4d3e
00000280: a3b9 83be 7b0a 74be f3ac 39bc 9cdf 4e3e
00000290: 8c2b 1c3e f471 19be 0405 17be 6055 11bd
000002a0: 010c 45be 2cce ad3d d5b6 55bc f675 383e
000002b0: e051 12be 6c9b 2bbe a414 6d3e 7328 273d
000002c0: d723 b93d 20fc fcbc fda1 0b3e a05c f7bd
000002d0: aff4 69be 36f0 8fbd bdaa 363e c090 60be
000002e0: d57f 02be f1a4 053e 23bb fbbd a225 60bd
000002f0: 77f6 cd3d 4b6a 5e3e 901c 3f3e 113f 633e
-0.2004722 0.14697194 -0.034672566 0.1620619 0.014638302 0.09403993 0.07622064 0.08246161
0.07715444 0.11893816 0.07039136 -0.12453429 0.12900518 0.21158601 0.10883277 0.14489017
0.18346871 0.06829357 -0.06487495 0.15363917 0.041432634 0.11904834 0.15532967 0.14195228
0.09559928 0.045959264 -0.033643197 0.010763811 0.1852994 0.0052902615 0.039591856 0.06722891
0.17832245 0.10546995 0.15352413 -0.055704433 0.106524855 0.04804143 0.11934131 0.23657577
0.17873114 0.02226783 0.062073898 -0.023900047 0.058606286 -0.008746691 -0.036090318 -0.031359382
-0.02753137 0.047030788 0.10923223 0.23058985 0.15999827 0.031624068 0.14262219 0.0719126
-0.02437713 -0.154245 0.18197267 0.0094736535 0.09022192 0.0042769676 0.12475201 -0.02353027
-0.18744309 0.036809344 0.37349695 0.18027085 -0.12038513 -0.13908958 0.0048760646 -0.0053854934
0.09914301 -0.2875649 -0.083637595 -0.13461132 -0.26743725 -0.17749098 -0.06749143 -0.1519715
0.044448365 -0.07328354 0.068462364 -0.057387583 0.19986495 0.017748069 -0.020496622 -0.14700384
-0.02716522 -0.03602512 0.088579826 0.106763 -0.007224223 0.016215533 -0.05159906 -0.2512707
0.12902561 -0.02898735 0.27461547 -0.17732446 -0.17571865 -0.18287776 0.027721457 0.41915765
-0.11316716 0.117731094 0.07844282 0.04655085 0.024535088 -0.031362563 -0.02986709 0.03935344
-0.2849859 0.069446445 0.19118989 -0.07532022 -0.1719321 0.059673343 0.064826034 0.030315863
-0.07534755 0.023373839 0.12899773 0.34239185 -0.1435414 -0.052361 -0.077624336 0.09875092
-0.08082522 0.109757386 0.018141031 -0.13271838 -0.16859137 0.14529125 0.110275775 -0.20718642
-0.16325179 0.17039698 0.22305727 -0.08375392 0.15552583 0.14307418 -0.16748938 0.15183526
-0.16580327 -0.1595675 0.0034877511 0.011041025 -0.17400506 0.16589756 0.19598359 0.18448053
-0.13396388 0.03052521 0.1379784 -0.2181737 -0.19011734 -0.1358994 0.16305918 0.20096017
-0.25727567 -0.23832123 -0.011332738 0.20202488 0.15250987 -0.14984876 -0.14748007 -0.03548181
-0.1924286 0.0848659 -0.013044079 0.18013749 -0.14289045 -0.16758507 0.23152405 0.04081006
0.09040039 -0.030881941 0.13636012 -0.12078214 -0.22847246 -0.070282385 0.17838569 -0.21930218
-0.12744077 0.13051201 -0.12291553 -0.05472339 0.10056775 0.21720235 0.1866324 0.22192027

gru.bias_hh_l0 f4 [192]
00000000: 555d ffbd e9be 513e e159 c13c d21d 6abb
00000010: b609 083e ef3a 483e 4cb2 a63d 1deb b93d
00000020: 5e9c 493e dc6b ce3d ae36 553d e630 0abd
00000030: 1286 0f3e ecb1 693d 3e6c 1f3e b5fe 623d
00000040: 1db9 4e3e f113 c03d 98e2 28be 7817 233e
00000050: f681 e2bd 4f21 823d ad5f ac3b b35d 363e
00000060: f678 053e 5cc6 633d 57b0 363e 2387 553d
00000070: 7be8 d73c 692a 083e b55d 3bbb 1a4e 173e
00000080: dd06 6abc 86d1 693e 93af 4c3d 2350 f73b
00000090: cddb 573e 464b 403e c181 053e 4682 f13d
000000a0: 1394 d43d 5bf5 253e 6c42 f83c abfb 8e3d
000000b0: 11ba 383e dc75 7d3c 8475 463a df80 b6bc
000000c0: 1c33 71bd e509 d4bb 1d56 3b3e 59b4 f93c
000000d0: 110f b73d 2ccf cc3c e9b2 073e 5e3c 3a3e
000000e0: 7a3d 32bc ebb4 fabd ffbd ae3d 9f7c 38bd
000000f0: fce3 153e 93f0 ed3d 7dbe 39bd b27c b33c
00000100: 06ae 333c a07a dbbd 4434 ea3e c1a2 a83e
00000110: 8cb7 ee3c cefe 0dbe b18a 3ebe 19d2 74be
00000120: 564e be3d be40 34be 18bf 49be 0386 83bd
00000130: 009a 76be 88c5 b4bd d34c 3abe b82c 31bd
00000140: d234 96bd 2788 dcbd eb39 0cbe 8e46 3bbe
00000150: 0ab6 713e 544f 56bd 59ab 13bd 42c9 87bd
00000160: c904 10be ce7e 1cbe 8180 903d 7676 1ebd
00000170: 8cb4 fdbd 769f e23d ec3a 033e 1efd 8bbe
00000180: 26bc 8c3d 3514 fc3c ec7b 4c3e 9a7a 1f3a
00000190: 88a5 01be 567d 09be 1a15 04be 0648 063f
000001a0: f747 19be 6929 ba3c 4097 a73d d535 87bd
000001b0: e860 1ebe 4cfb 5bbd 26c8 b7bd a302 443d
000001c0: 63f3 0cbe 6420 16bd 4ea9 803e 06e1 62bc
000001d0: 857f 50bd 85e6 35be f128 acbc 1489 a23d
000001e0: d922 18be 3f6d b4bd 573d ccbb 77c4 9b3e
000001f0: 76d1 213c 2786 1b3e c911 3b3d 3b8f d23d
00000200: 7b20 32be a19f 523e e8d1 d1bd 2e7a cfbb
00000210: d6e4 5fbe ab47 6d3e 234f 393e 5e3b 28bd
00000220: c2ed 59be 6f3e 733e 887d 133e 9f4d 88bc
00000230: e01c 683e 5a7a 3a3e 12ab 4fbd 34bf 4c3e
00000240: eeab 1ebe 8314 19bd 2055 d03d 2aed d1bd
00000250: 02f8 0cbe 6d3a 0b3e 8bef 473e e54e 9d3c
00000260: d338 0ebe 073c 0ebe af3e 3e3e 7d10 10be
00000270: a70c 0fbe 104d 43be c9a3 103c 59d6 b03d
00000280: 2cdc 8bbc 4bbc 60be e69e 8cbd 12dc 883c
00000290: 3095 1b3e fe72 f9bd 5699 06bd eb36 acbd
000002a0: 24a5 b2ba b2d6 3a3e a71c e1bd f43b 043e
000002b0: 7f99 23be d266 3dbe 99d3 ca3d b949 fe3d
000002c0: 152d 953b 5ad3 09be dfb1 12bd 5a2e 76be
000002d0: 2060 19be 46db 19be 356d b93d 9009 91bb
000002e0: 3b27 cdbd e5a9 32bb 89b7 0bbe 1605 bc3d
000002f0: 2d72 6b3e 3588 5a3d d1c1 193e 71d3 3a3c
-0.124689735 0.20482983 0.023602428 -0.003572334 0.13284954 0.19553731 0.08139476 0.090780474
0.19688556 0.10079166 0.0520541 -0.03373804 0.14015988 0.057054445 0.15568635 0.05541869
0.20187803 0.093788035 -0.16492689 0.15926921 -0.11059944 0.06354009 0.005260429 0.17809181
0.13034424 0.055609092 0.17840706 0.05213083 0.026355973 0.13297428 -0.002858979 0.14775887
-0.014283863 0.22833833 0.049972128 0.007547395 0.21079941 0.18778715 0.13037778 0.11792426
0.103798054 0.16206877 0.03030511 0.069815956 0.18039729 0.015469994 0.0007570612 -0.022278247
-0.058886632 -0.006470906 0.18294568 0.030481504 0.089384206 0.025001131 0.13251843 0.18187091
-0.010878915 -0.122415386 0.08532333 -0.045040723 0.1463775 0.116181515 -0.04534768 0.021910045
0.010966783 -0.10716748 0.45743 0.3293667 0.029140256 -0.13866732 -0.18607594 -0.23908271
0.09292285 -0.17602822 -0.19701803 -0.06422045 -0.24082184 -0.088267386 -0.18193369 -0.043255538
-0.073342934 -0.107681565 -0.13693969 -0.18288633 0.23604599 -0.052321747 -0.03605208 -0.06630184
-0.14064325 -0.15282747 0.0705576 -0.038687192 -0.12387952 0.11065571 0.12815446 -0.2734155
0.06871824 0.030771354 0.19969147 0.00060836377 -0.12660801 -0.13426718 -0.12898675 0.5245365
-0.14968859 0.022724824 0.081831455 -0.066020645 -0.15466654 -0.053706452 -0.08973722 0.047854077
-0.1376472 -0.036651984 0.2512917 -0.013847595 -0.050902862 -0.17763717 -0.021015616 0.07936302
-0.14857043 -0.088098995 -0.006232898 0.30423328 0.0098766 0.15187894 0.045671258 0.10281225
-0.17395203 0.20568706 -0.102451146 -0.0063317036 -0.21864638 0.2317187 0.18096595 -0.041072242
-0.21282104 0.23754285 0.14403355 -0.016638575 0.22667265 0.18210736 -0.050700255 0.19994813
-0.15495273 -0.037373077 0.10172486 -0.102503136 -0.13766482 0.13596506 0.19524972 0.019202659
-0.13888864 -0.13890086 0.185786 -0.1406879 -0.1396967 -0.19072366 0.008828112 0.086346336
-0.01707276 -0.21946828 -0.06866245 0.0167065 0.1519363 -0.12180136 -0.032861076 -0.08408912
-0.0013629538 0.18245962 -0.10991793 0.12913495 -0.15976523 -0.18496254 0.0990364 0.12416405
0.0045524933 -0.1345953 -0.035814162 -0.24041119 -0.14978075 -0.15025052 0.09054033 -0.0044261888
-0.10017248 -0.002726191 -0.13644232 0.091806576 0.22992773 0.053352553 0.15015341 0.011402951

notes_decoder.weight f4 [128, 64]
00000000: e22a 893d 1ecd c6bd 3be2 1f3e 4af5 383e
00000010: 2a1e 413e b7d7 71bd a216 4dbd 2e2f a03d
00000020: aa77 143e b548 48be d3bb 8ebe 8efe 913c
00000030: 85c4 b2bd 8669 92be 8e87 693d 5ded 62be
00000040: 674b 713e a741 a13d bc3c 803d 7a54 393d
00000050: e7bb 963e 00f2 3ebe eea1 8fbe 4717 2dbe
00000060: 5daa 923e 763c 553e 9ec3 43be bb81 493e
00000070: b9c8 283e 99d6 063e 38aa 3abe 8efd 05be
00000080: 74ca 1c3e ae3e 163e 8bd4 a4bd dd59 88be
00000090: 56a5 40be 4952 493e aca6 1e3e 8033 6f3e
000000a0: 8a72 cc3d ea96 4abe af9d 103e 3d56 7abe
000000b0: c969 5c3d a802 913e 1121 36be 7dc5 5bbe
000000c0: e250 d03c 002e 393e 1617 01be 8acb 673e
000000d0: 3d6f 143e 7f5d 053e 6cf9 43be 8522 033e
000000e0: a17f 803e d4e3 01be fb06 113e b623 c23d
000000f0: 2eb0 ebbd 1838 02be 6fe4 00be 3fa8 95bd
00000100: cad7 473d eb9d 85bd 97f1 203d 082e 493e
00000110: 6cee fd3d cb7e 8fbe 4c1b e7bd a6e1 173e
00000120: 6219 303e 8523 87be 8da2 22be c998 e33d
00000130: c6d6 b5bd f58d 9bbd 0787 8e3e ef55 26be
00000140: 7392 963e 517a 8c3e 16d7 01bd 07ac 163e
00000150: bea8 4b3e 1219 ffbd 30c4 cfbd 6cbe 5fbe
00000160: 116f be3d e900 6d3e 5ff4 50be dabc 423e
00000170: c944 953e d0d2 093e dca3 22be 8594 49be
00000180: ae9a 1c3e f9d9 093e 548b 3bbd 6e10 2bbe
00000190: 92ea 52be 8d4f 5c3e 8a63 0c3e 5114 423e
000001a0: 121e 3b3e af0f 5fbe 619e 5d3d febe aebd
000001b0: 87c3 8f3e 3821 cf3d 78c0 55be 5ad7 72bd
000001c0: 0141 773c e2ed bf3d 008a 1ebe 8d26 2d3e
000001d0: 372d 2c3e 3b94 4e3e e934 5cbe acc9 243e
000001e0: bde2 933e 16a3 d13a 63bb 6d3e cbf9 193d
000001f0: ee1b 85be c26c 89bd 6e79 18be 2876 09be
00000200: d4d1 10bd c847 56be 394a 343e afaf 753e
00000210: 626e 863e 1ba8 bebd 7eb9 9bbd c462 5b3e
00000220: 1784 9a3e 6ca1 a0bd 3aa3 2fbe 8eb0 99bd
00000230: 143d 8bbe 5162 8bbe ba63 173e 4edd f4bd
00000240: 6c80 c03d 4632 b83d fc87 823c 746a e03c
00000250: a55a 5f3e d98c e3bd fdd4 2fbe 95df 79be
00000260: 7715 8f3e df2f 6b3e 8053 50be 868f 733e
00000270: ee1f 763e a876 4b3e 356f 35be bfab 46be
00000280: 3c16 bf3d 71df c83d 8700 4abe 42a3 61be
00000290: eeb8 54be 5817 2e3e 3736 243e 54da 3b3e
000002a0: 6687 513e 92b8 6dbd fa67 843d cd6a e9bd
000002b0: 7bb7 913e 53b6 403e a34c 85be f002 6fbd
000002c0: 7f15 e53d 28f4 043e bff0 58be ce97 1f3e
000002d0: b239 813e 8dcc 4e3e a174 cabd d987 0c3e
000002e0: f6ed 313e a106 10bd ffb5 b73d 6445 1b3e
000002f0: df2c 18bd d8c2 97bd d1ff dcbd a4f2 35be
00000300: e77c 3a3d 80e3 2cbe 38a8 6a3e cdad c93d
00000310: b63e c23d 42fd 15be 22b3 a3bd 4714 aa3d
00000320: 2ad8 803e e0a3 03be 3624 6fbe eedf 573d
00000330: a622 82be a38f 8abd 3e6b 8d3e 940f 18be
00000340: 14a0 0e3e 39cb a73d 6bb7 8d3d feb5 733e
00000350: bb7f 063e 4398 f6bd 9383 90be a1d1 a9bd
00000360: f4ee 693e 99ab 6f3e c1ee 61bd e24f 993e
00000370: aec2 c13d 9479 883e 9a9b 42be d784 96be
00000380: 9354 683e b4e5 913e 0273 cbbd 52e6 80be
00000390: 090e 9bbd 0fd2 3c3e 5839 8f3e 84b5 313e
000003a0: 6a62 813e 4e97 07be 2b8a 3fbb af9e f9bd
000003b0: 5998 4e3e cb7f f03d 606b 94be d0e7 2bbe
000003c0: d482 81bd 7088 b53d bbed 60be 86a6 7b3d
000003d0: 1878 683d 3b4f 083e 77e5 9fbd 80dc 463e
000003e0: f2c0 173e 68f0 073d 7057 8c3e 0fa9 ccbb
000003f0: f5df 07be dd43 e8bd cb3b 2fbd 5a3d 99be
0.06697632 -0.09707092 0.15613644 0.1806232 0.18859163 -0.059043612 -0.050070412 0.07821499
0.14498773 -0.19558986 -0.27877674 0.017821576 -0.087288894 -0.28596133 0.05701404 -0.2216086
0.2356392 0.0787385 0.06261584 0.04524658 0.29440233 -0.18647003 -0.2805323 -0.16903411
0.28645602 0.20823845 -0.19117591 0.19678394 0.1648282 0.131678 -0.18228996 -0.13085005
0.15311605 0.14672348 -0.08048352 -0.2663106 -0.1881307 0.19660296 0.15493268 0.2335949
0.09982784 -0.19784132 0.14122652 -0.2444696 0.053811822 0.2832234 -0.17786051 -0.21462055
0.025429193 0.18083954 -0.12606463 0.22636238 0.14495559 0.13023947 -0.19138116 0.12806137
0.25097373 -0.12684566 0.14162819 0.094794676 -0.11508213 -0.1271671 -0.1258714 -0.07307481
0.048789777 -0.06524261 0.039292898 0.19646466 0.12398991 -0.28026423 -0.11284503 0.14832172
0.17197183 -0.26394287 -0.1588232 0.11113126 -0.088788554 -0.075954355 0.27837393 -0.16243719
0.29408607 0.2743707 -0.031699263 0.1471406 0.19888589 -0.12455954 -0.10144842 -0.21849984
0.09298528 0.23144878 -0.2040572 0.19017354 0.2915404 0.13459325 -0.1588282 -0.19685562
0.1529338 0.13462056 -0.04578717 -0.16705486 -0.20597294 0.21514721 0.13709846 0.18953063
0.1827319 -0.21783327 0.05410612 -0.085325226 0.28078863 0.10113758 -0.20874202 -0.059287407
0.015091182 0.093715444 -0.1548233 0.16909237 0.16814123 0.20173733 -0.21504559 0.16092557
0.28883925 0.0015994038 0.23216014 0.037591737 -0.2599787 -0.06710197 -0.14890072 -0.1342398
-0.035356358 -0.2092582 0.17606439 0.23992799 0.2625609 -0.09309407 -0.07603739 0.21424395
0.30178902 -0.07843289 -0.1715211 -0.07504378 -0.27195036 -0.27223447 0.14784136 -0.11956273
0.093994945 0.08993964 0.015933983 0.02739451 0.21811922 -0.11110849 -0.17171092 -0.24401696
0.27946064 0.2296748 -0.20344353 0.23785219 0.24035618 0.19869483 -0.17718203 -0.19401453
0.09330413 0.09808243 -0.19726764 -0.22034934 -0.2077367 0.17001092 0.16036306 0.18345004
0.20461807 -0.058037348 0.064651445 -0.11397324 0.28460297 0.18819551 -0.26035032 -0.05835241
0.11185741 0.12983763 -0.21185587 0.15585253 0.2523933 0.20195217 -0.098855264 0.13723697
0.17375931 -0.03516257 0.0897026 0.15163189 -0.037152167 -0.0741021 -0.107909806 -0.17768341
0.045529272 -0.1688366 0.22915733 0.09847603 0.094846174 -0.14647391 -0.07993151 0.08304649
0.2516492 -0.12855482 -0.23353657 0.05270379 -0.2541706 -0.06765678 0.27620882 -0.14849693
0.13928252 0.081930585 0.0691975 0.23799893 0.13134663 -0.1204076 -0.28225383 -0.08291937
0.2284506 0.23405303 -0.055159334 0.29943758 0.0946096 0.26655257 -0.1900467 -0.29398224
0.22688513 0.28495562 -0.099340454 -0.2517572 -0.07571036 0.18439506 0.27973437 0.17354399
0.25270396 -0.13241312 -0.0029226642 -0.121884696 0.20175304 0.117431246 -0.2898817 -0.16787648
-0.063237816 0.08863914 -0.21965687 0.061438106 0.056755155 0.13311474 -0.07807439 0.19420052
0.14819697 0.033188254 0.2741046 -0.0062457393 -0.13269027 -0.11341069 -0.042781632 -0.2992962

notes_decoder.bias f4 [128]
00000000: cb11 04bd 2093 38be fc01 11be e55d 77be
00000010: 0077 11be 9920 14be 79d1 4ebe 47d0 34be
00000020: ea1e 72be 4774 80be f0bc 1abe ed4b 69bd
00000030: eff7 47bd 6d25 3ebe 9b37 6cbd bb1f 63be
00000040: d206 38bd 65ae 4ebe 9cde 63bd 646e a7bd
00000050: f76e 22be c61e 00be 4942 70bd cbb8 0bbe
00000060: 7a47 a0bd 303c 48be c192 a8bd 993c b2bd
00000070: 25ab c9bd d449 0bbd 2139 2dbe d603 52be
00000080: 2b81 43be 1337 f9bd 7b08 9fbd 3e5f 18bd
00000090: 56f2 00be 7e92 87bd b532 08bd fcf7 59be
000000a0: c5bb 33be 7d87 a0bd dd88 70be d516 2fbe
000000b0: a198 64be 7dbd f2bd 6e12 03be 788e 03be
000000c0: e0a4 1bbe 19d8 1abd 4d4f 97bd 5311 29bd
000000d0: 8ec8 d4bc 8f68 1ebe 41b8 6cbe a2b7 24be
000000e0: 3575 37be 9b0f 0ebd bc95 c73b 7e9f 79be
000000f0: 6104 9fbb 396c 12bd 3fd7 f6bc 39ca 11be
00000100: a87d 62bc 4c17 67be d24e c5bc fb16 d8bd
00000110: 516f 5ebe 9a75 3dbe feaa 18be 8a6e 30be
00000120: f2c8 5abe 0f5d 71bd 28d4 d8bd a5a7 11be
00000130: a8af 5cbe 3e8c 26bd 85bf 25be 002b b7bd
00000140: 916f 5fbe f1cb 64be 68fd 53be 99b8 58be
00000150: f25f 35be 8600 eabd 7986 6fbd b1aa 47be
00000160: 4a25 21bd 4e12 ecbd b521 76be d4a0 9dbd
00000170: 1a96 32be 1c8a 98bd c93b 4fbe 8142 84be
00000180: feb1 89bd 83c0 2bbc c632 42be 2d01 3cbe
00000190: f225 3cbd 67e6 88bd 1252 82bd 428b 65be
000001a0: a32a 81be 8a4b 4ebd ac1e 81be 0c65 88be
000001b0: 44b0 74be 5f4e e9bd 6766 84bd 6e0b 13be
000001c0: fe0f 5dbe 7ff3 adbd 20ac a3bd fd1d 0fbe
000001d0: eb0c 4fbe e0d3 5dbe 3e6d 68be 1997 27be
000001e0: a0fd 8dbd 072c 6ebe 8c48 09be 687d 88bd
000001f0: 2f25 3cbd 37a3 51bd 0ba3 4fbe eefc eabd
-0.03224353 -0.18024874 -0.14160913 -0.24156912 -0.14205551 -0.1446556 -0.20197095 -0.17657577
-0.23644605 -0.25088713 -0.15111136 -0.056957174 -0.048820432 -0.18568964 -0.057670217 -0.22180073
-0.04492838 -0.20183714 -0.05563222 -0.08175352 -0.15862642 -0.12511739 -0.058656964 -0.13644712
-0.07826133 -0.1955421 -0.08231116 -0.08702964 -0.09847096 -0.034005955 -0.16916324 -0.20509276
-0.19092242 -0.12168708 -0.077652894 -0.037200205 -0.12592444 -0.06619738 -0.033251483 -0.21286005
-0.17552097 -0.07838342 -0.23489709 -0.17098553 -0.22323848 -0.11852548 -0.12799999 -0.12847316
-0.15199614 -0.037803743 -0.07388172 -0.041276287 -0.025974538 -0.15469573 -0.23117162 -0.16085675
-0.17915805 -0.03468285 0.006090848 -0.24377248 -0.004852817 -0.03574774 -0.030131934 -0.14237298
-0.013823904 -0.22567481 -0.024085436 -0.10551258 -0.21722151 -0.18501893 -0.14908978 -0.17229667
-0.21365717 -0.05892664 -0.105873406 -0.14224108 -0.21551383 -0.04066109 -0.1618634 -0.089437485
-0.21819903 -0.22343422 -0.20702136 -0.21164168 -0.17712381 -0.11425881 -0.058477852 -0.19498707
-0.039342202 -0.11526929 -0.24036296 -0.07696691 -0.17440072 -0.07448217 -0.2023765 -0.25831988
-0.067234024 -0.01048291 -0.18964681 -0.18359824 -0.045934625 -0.06684571 -0.0636331 -0.22416404
-0.25227842 -0.05036501 -0.25218713 -0.26639593 -0.23895365 -0.11391901 -0.06464844 -0.14359829
-0.21588132 -0.08493709 -0.079918146 -0.13976283 -0.20219772 -0.21662855 -0.22697923 -0.16366233
-0.06933141 -0.23258983 -0.1340658 -0.06664544 -0.0459339 -0.051181044 -0.2027704 -0.11474024
