saved_models/generalist_BCE_1e-2_117.pth (torch_old, 167373 bytes, 8 tensors)

notes_encoder.weight f4 [64, 128]
0	0xbdab4681	-0.08363057
1	0xbd65a336	-0.056063853
2	0x3d5c12ba	0.053728797
3	0x3d8fea6b	0.070271336
4	0xbd9130d9	-0.07089395
5	0xbd5e3e49	-0.05425862
6	0x3c09a1b8	0.008400373
7	0xbd7bda3d	-0.061487425
8	0xbd7cbf9b	-0.061706167
9	0xbbaa6400	-0.005199909
10	0xbc7618f8	-0.015020601
11	0x3d707742	0.058707483
12	0xbda766d3	-0.08173909
13	0xbd05eeec	-0.032698557
14	0x3c3c3560	0.011487335
15	0x3d6773ce	0.056506924
16	0xbd5c6031	-0.053802673
17	0xbda85646	-0.0821958
18	0xbc92921c	-0.017891936
19	0x3c91e298	0.017808244
20	0x3d3b4676	0.045721494
21	0xbd6c3732	-0.057669826
22	0xbdab433e	-0.08362435
23	0x3c92cfe0	0.017921388
24	0xbdb456e7	-0.08805638
25	0x3bd7f070	0.0065899417
26	0x3d317056	0.043320023
27	0x3cba0310	0.022706538
28	0x3d77e1c2	0.060518034
29	0xbcc5733c	-0.0241028
30	0x3cca6030	0.024704069
31	0xbc599e40	-0.013282359
32	0xbd4c956c	-0.049947187
33	0x3cd1a28c	0.025590204
34	0xbe9ce378	-0.30642295
35	0x3d16391e	0.036675565
36	0x3d5c2496	0.05374583
37	0x3becdf10	0.0072287396
38	0x3e811f2a	0.2521909
39	0x3d88cdea	0.066799
40	0x3e8571e7	0.26063463
41	0x3de4b365	0.11167029
42	0xbe9c1d3c	-0.30491054
43	0x3e45d536	0.19319615
44	0x3f230e95	0.63694125
45	0x3cc3dc7e	0.02390885
46	0x3e592557	0.2120565
47	0x3e971dc7	0.29514906
48	0x3e7ea71b	0.24868433
49	0x3ee934f7	0.4554822
50	0x3ef79df4	0.48362696
51	0x3d3f0c6e	0.046642713
52	0x3e037a0e	0.12839529
53	0x3e3d233b	0.1847047
54	0x3d06f884	0.032951847
55	0x3e2feac6	0.17179403
56	0x3eee4288	0.46535134
57	0x3d9b4054	0.07580629
58	0x3bd2c661	0.00643234
59	0x3ea0fb7b	0.31441864
60	0x3d358cab	0.044323605
61	0x3eb80448	0.35940766
62	0x3e82cd10	0.25547075
63	0x3e9f6935	0.31134954
64	0x3da01979	0.078173585
65	0x3d6e778f	0.05821949
66	0xbda7edfa	-0.08199687
67	0x3e586478	0.21132076
68	0x3ec495ad	0.38395444
69	0x3e643cc4	0.22288805
70	0x3e9b925e	0.30385107
71	0x3ee9c912	0.45661217
72	0x3e8dfb59	0.27730826
73	0xbcd4d10e	-0.025978591
74	0x3e94229f	0.28932664
75	0xbe2fb9ab	-0.1716067
76	0x3e2458cf	0.16049503
77	0x3e8ca52e	0.27469772
78	0x3d05586d	0.032555033
79	0x3e61ef42	0.22063926
80	0x3d633ebc	0.05547975
81	0x3dfeec7a	0.12447448
82	0x3e0c7cb7	0.1371945
83	0xbccb4ca1	-0.024816813
84	0xbd5e5cc3	-0.054287683
85	0xbe39d5f0	-0.18148017
86	0x3e25e2d7	0.16199814
87	0xbdbcdb34	-0.09221497
88	0x3d683676	0.056692563
89	0x3e2a2ade	0.16617915
90	0xbda05cd8	-0.078302085
91	0x3d9896fd	0.07450674
92	0xbca76e9c	-0.020438485
93	0x3ce89f94	0.028396405
94	0x3bfd6e00	0.0077340603
95	0xbcc8e508	-0.024523273
96	0xbd96eb04	-0.073690444
97	0xbb545c20	-0.0032403544
98	0xbd4ff16b	-0.050767343
99	0x3d9bc695	0.07606236
100	0x3dac7959	0.08421583
101	0x3dac474d	0.08412037
102	0xbcd9d70e	-0.026591804
103	0xbd96c334	-0.07361451
104	0xbc692170	-0.0142291635
105	0x3d5d0a32	0.0539648
106	0xbd582233	-0.05276699
107	0x3d30afbe	0.04313635
108	0xbc05f550	-0.008176163
109	0xbc342ca8	-0.010996975
110	0xbd0ecf39	-0.03486559
111	0xbd4fc0d3	-0.050721
112	0x3d607d72	0.054807134
113	0x3ce46efc	0.027884953
114	0x3d313222	0.0432607
115	0xbd51d161	-0.05122507
116	0x3d38b1c6	0.045091413
117	0x3ceafb24	0.028684206
118	0x3d74abae	0.05973404
119	0x3d5cb8a6	0.053887032
120	0x3c597200	0.013271809
121	0x3dacc681	0.08436299
122	0x3b985480	0.004648745
123	0xbc89ba2c	-0.016812406
124	0x3c0d4260	0.008621782
125	0xbd39b0bc	-0.045334563
126	0x3d7952d2	0.06087
127	0x3cd69da4	0.026198216
128	0xbda75f81	-0.08172513
129	0x3d753f5a	0.05987487
130	0x3d8237a5	0.063582696
131	0x3bd5fae0	0.006530151
132	0xbdaeebbf	-0.08541059
133	0x3d9b61f3	0.07587042
134	0x3cc133b0	0.023584217
135	0xbd9604c8	-0.07325131
136	0x3bdfdc00	0.006831646
137	0xbcbe259c	-0.023211293
138	0x3d80758f	0.062724225
139	0xbbe106b0	-0.0068672523
140	0xbd0821a3	-0.033235203
141	0x3d3bcaba	0.045847632
142	0x3cb14420	0.02163893
143	0x3c4a3220	0.012341052
144	0xbd8e9521	-0.06962038
145	0xbda9c9bb	-0.0829043
146	0x3cda7208	0.026665702
147	0xba070f80	-0.0005152151
148	0xbc907384	-0.017633207
149	0xbbd988c0	-0.0066386163
150	0xbc525be0	-0.0128392875
151	0xbd0906a9	-0.033453617
152	0x3d41f63e	0.047353975
153	0xbcd5156c	-0.026011191
154	0xbcdd6a3c	-0.027028196
155	0xbd8ba552	-0.06818642
156	0x3c92a2d8	0.017899916
157	0xbcc8fc38	-0.02453433
158	0x3bae95c0	0.00532791
159	0xbd2c6845	-0.042091627
160	0x3d69775e	0.056998603
161	0xbccb626c	-0.024827205
162	0x3c89cac9	0.016820328
163	0x3ced49f4	0.028965928
164	0xbceea7d9	-0.02913277
165	0x3b913340	0.0044311583
166	0xbaecf256	-0.0018077593
167	0xbd3e49ed	-0.04645722
168	0xbd33a4f3	-0.04385848
169	0xbdcced01	-0.100061424
170	0xbd830972	-0.06398286
171	0xbe41cdfc	-0.18926233
172	0xbd961237	-0.07327693
173	0xbd589d08	-0.05288413
174	0xbde8af2c	-0.113615364
175	0xbdaacbef	-0.083396785
176	0xbde4b4ec	-0.111673206
177	0xbd0dbbb9	-0.034602854
178	0xbd9f328d	-0.07773314
179	0xbe2c5c1a	-0.16832009
180	0xbc71214d	-0.014717412
181	0xbd2ca954	-0.04215367
182	0xbd5b13d7	-0.053485718
183	0xbdebcc49	-0.11513574
184	0xbde0cf8b	-0.10977086
185	0xbd991f52	-0.07476677
186	0xbe30d7da	-0.17269841
187	0xbddbaa1b	-0.107258044
188	0xbe1ea378	-0.15492046
189	0xbd800e1f	-0.062526934
190	0xbd11750f	-0.035512026
191	0xbcf78674	-0.03021548
192	0xbdab90f1	-0.08377255
193	0xbd738f47	-0.05946281
194	0xbe3d9276	-0.18512902
195	0xbe190c3c	-0.14946073
196	0xbcebc855	-0.02878205
197	0xbe2805b7	-0.1640843
198	0xbd9f3935	-0.07774583
199	0xbe2993bc	-0.16560262
200	0xbdc4c7cf	-0.09608423
201	0xbdfb08b3	-0.122575186
202	0xbd25dd9f	-0.040494557
203	0xbd4f4c85	-0.050610084
204	0xbd22735b	-0.039660793
205	0x3c52870b	0.01284958
206	0xbdefd5ff	-0.117107384
207	0xbdcc04d3	-0.09961858
208	0xbd23c2e6	-0.03998079
209	0xbe036d99	-0.12834777
210	0xbd2e32f3	-0.042529058
211	0xbd388ea0	-0.045057893
212	0xbe0c60c4	-0.13708788
213	0xbc9f1742	-0.01942027
214	0xbb2db460	-0.0026505217
215	0xbdb6f42d	-0.089332916
216	0xbd18ff4f	-0.037352856
217	0xbc6a5b99	-0.014304065
218	0xbd8d3964	-0.06895712
219	0x3d1ad066	0.0377964
220	0xbd09d394	-0.033649042
221	0xbcbbe3ec	-0.02293583
222	0xbcb32ef8	-0.021872982
223	0x3d9ab001	0.07553101
224	0xbd307086	-0.04307606
225	0x3cd70a90	0.026250154
226	0xbd1362ad	-0.035982776
227	0x3d8a4eb1	0.067532904
228	0x3c66ebe8	0.01409433
229	0x3d596ce2	0.053082354
230	0xbd576a0d	-0.052591372
231	0x3d815be3	0.06316354
232	0x3d38affa	0.0450897
233	0xbd560cad	-0.052258182
234	0x3d47f072	0.04881329
235	0x3d6867ba	0.056739546
236	0xbd24f747	-0.040274885
237	0x3d51ef5e	0.05125367
238	0xbd8755a1	-0.06608129
239	0xbca5135c	-0.020150833
240	0xbda6741e	-0.08127616
241	0xbac804c0	-0.0015260205
242	0xbd9c6334	-0.07636109
243	0x3d9fc565	0.07801322
244	0x3daea9c9	0.08528478
245	0x3cd64b0c	0.026158832
246	0xbccac99c	-0.024754338
247	0xbc2165c0	-0.009850919
248	0xbd7c1cc0	-0.061550856
249	0xbd0ffc8f	-0.035152968
250	0xbc020d28	-0.007937707
251	0xbd992d32	-0.074793234
252	0x3d36c55a	0.044621803
253	0x3d6bad1e	0.057538144
254	0xbcf0201c	-0.029312186
255	0x3c2ef730	0.010679051

notes_encoder.bias f4 [64]
0	0xbd1953dc	-0.03743349
1	0xbe27b88f	-0.16378997
2	0xbe225fee	-0.15856907
3	0x3e2dd860	0.16977072
4	0xbd80f106	-0.062959716
5	0xbe29195f	-0.16513585
6	0xbe445768	-0.19173968
7	0x3e04c68d	0.12966366
8	0x3e1f718e	0.15570661
9	0x3d47cb29	0.048777733
10	0x3d835098	0.064118564
11	0x3d9fa3ac	0.0779489
12	0xbcbc3e08	-0.022978798
13	0x3e1139ef	0.14182256
14	0x3db2268b	0.08698758
15	0xbe34e79a	-0.17666474
16	0xbe2ec066	-0.17065582
17	0xbe2bdda3	-0.16783766
18	0xbe0f93fb	-0.14021294
19	0x3e14784d	0.14499016
20	0xbe371060	-0.1787734
21	0xbe189894	-0.14901954
22	0x3df72167	0.12066918
23	0xbe5d64d7	-0.21620499
24	0x3e46b278	0.19404018
25	0x3e50198b	0.20322244
26	0x3e47c4cb	0.19508664
27	0xbe4fc9f2	-0.2029188
28	0x3cb1492c	0.021641336
29	0xbdd622fc	-0.104558915
30	0x3d95dbe2	0.0731733
31	0xbe0d7e2e	-0.13817665
32	0x3d9d8e4c	0.076931566
33	0x3e3fe30b	0.18738954
34	0xbd3f01fa	-0.046632744
35	0xbdf1e88d	-0.11811934
36	0x3cc4961b	0.023997357
37	0x3e01ba3a	0.12668696
38	0x3e161ebf	0.14660166
39	0xbdedd3e3	-0.1161268
40	0xbd4adf11	-0.04952914
41	0xbe592b8f	-0.21208023
42	0x3d91d8e2	0.07121445
43	0xbe241bc3	-0.16026215
44	0x3d98ff13	0.074705265
45	0xbd8674b7	-0.0656523
46	0x3e24cc67	0.16093598
47	0x3e0d104f	0.13775752
48	0x3e1ab228	0.15107024
49	0x3e2b8fa5	0.16754015
50	0x3d142894	0.03617151
51	0x3e13b156	0.14423117
52	0x3d847511	0.06467641
53	0x3e0dac21	0.13835193
54	0x3e33c52a	0.17555681
55	0xbdd7eeff	-0.10543632
56	0x3e2a3ce8	0.16624796
57	0xbd655d45	-0.055997152
58	0xbe070c3a	-0.13188258
59	0x3e2ac113	0.16675214
60	0x3e36204a	0.17785755
61	0x3e0f8fa0	0.14019632
62	0xbdf06fea	-0.11740096
63	0xbe54ef14	-0.20794326

gru.weight_ih_l0 f4 [192, 64]
0	0x3d4c0134	0.049805835
1	0x3e61a8bf	0.22037028
2	0x3e735291	0.23761965
3	0x393ea75e	0.00018182161
4	0x3cafd1bf	0.02146232
5	0x3e35c1fa	0.17749777
6	0x3e031fd7	0.12805115
7	0xbbfaecbd	-0.007657616
8	0xbe6ba079	-0.23010434
9	0xbc7baf22	-0.015361579
10	0x3d60e56e	0.0549063
11	0xbcc2d9b3	-0.023785448
12	0x3d9b0fbc	0.075713605
13	0xbe3f7d35	-0.18700106
14	0xbd669c58	-0.056301445
15	0x3d37be81	0.044859413
16	0x3e56396e	0.20920345
17	0x3d244318	0.040103048
18	0x3e3e9b64	0.18613964
19	0xbdde0c18	-0.108421504
20	0x3decef7f	0.11569118
21	0x3e1c2a2f	0.15250467
22	0xbd4d25c6	-0.05008485
23	0x3e2c1268	0.16803896
24	0xbe62bd64	-0.2214256
25	0xbde92131	-0.11383284
26	0xbe321009	-0.1738893
27	0x3e2ae79b	0.16689913
28	0xbe121dd0	-0.14269185
29	0x3e2452d1	0.16047217
30	0xbd3fcdb0	-0.04682702
31	0x3d272bfd	0.040813435
32	0xbe38e134	-0.18054658
33	0xbd511042	-0.051040895
34	0x3e0c2191	0.1368468
35	0x3e24a173	0.16077213
36	0xbd7d1a53	-0.061792683
37	0xbe311dfe	-0.17296597
38	0xbe6d7712	-0.23189953
39	0x3d281a00	0.04104042
40	0x3df8644c	0.12128505
41	0x3dd2e685	0.10297874
42	0x3d07347d	0.03300904
43	0xbdace157	-0.08441418
44	0xbbf40f70	-0.0074481294
45	0x3d55cee6	0.052199267
46	0xbe0aa34a	-0.13538852
47	0xbc21366b	-0.009839634
48	0x3d3d68ed	0.046242643
49	0xbe5d6da6	-0.21623859
50	0xbdec8acc	-0.11549911
51	0xbe051907	-0.12997828
52	0x3d53cb1c	0.051707372
53	0xbe32d7c1	-0.17465116
54	0xbdad4781	-0.08460904
55	0x3d89db1e	0.067312464
56	0xbe27bf5c	-0.16381592
57	0xbcd6fdd2	-0.026244078
58	0x3df19bb0	0.11797273
59	0xbde765d4	-0.11298719
60	0xbe7d078f	-0.24709915
61	0xbdd25988	-0.10270983
62	0x3dcb7247	0.09933906
63	0x3d1f2caa	0.038860954
64	0x3d2c805d	0.042114604
65	0xbe686d81	-0.22698022
66	0xbda39848	-0.0798803
67	0x3e241e08	0.16027081
68	0xbe30db15	-0.17271073
69	0xbe159721	-0.14608432
70	0xbd2fe80f	-0.042945918
71	0x3e346076	0.17614922
72	0xb9d62994	-0.0004084824
73	0xbcb4ee2f	-0.022086231
74	0x3c5b91f7	0.0134015
75	0x3d81ab44	0.063314945
76	0x3ca7b4e4	0.020471998
77	0x3dc5a740	0.09651041
78	0x3b92240c	0.0044598635
79	0xbdd25305	-0.10269741
80	0xbbd26261	-0.006420419
81	0x3c34d911	0.011038081
82	0x3b220472	0.0024721888
83	0x3e113068	0.14178622
84	0xbe5212a3	-0.20514922
85	0xbe5dbf1d	-0.21654935
86	0xbce6ee2d	-0.028189743
87	0xbd4feb86	-0.050761722
88	0x3e5fe212	0.21863583
89	0x3dfad534	0.122476965
90	0x3e0053d5	0.1253198
91	0xbdc03ab2	-0.09386195
92	0x3e2403a1	0.1601701
93	0xbd8ea8be	-0.06965779
94	0x3e38390a	0.17990509
95	0xbdf9ade1	-0.12191368
96	0xbd1595de	-0.036519878
97	0x3d03ff40	0.032225847
98	0xbd166a00	-0.036722183
99	0xbd89d45c	-0.067299575
100	0x3dde2953	0.10847726
101	0x3e4266b3	0.18984489
102	0x3dc848b2	0.097794905
103	0xbe21c13f	-0.15796374
104	0xbe21753c	-0.15767378
105	0xbdf38344	-0.11890271
106	0x3d86d1ca	0.06582983
107	0x3c945a3f	0.018109439
108	0x3e2bd6c6	0.16781148
109	0x3dc567bc	0.096389264
110	0x3ddcfd85	0.107905425
111	0x3e1484e1	0.14503814
112	0x3e23a129	0.15979446
113	0x3e19a50e	0.1500437
114	0x3d887851	0.066635735
115	0x3e100d09	0.14067473
116	0xbd2bd01e	-0.041946523
117	0x3de6650b	0.11249741
118	0x3d02e2f4	0.03195472
119	0xbe0a6bcf	-0.13517688
120	0x3c5b2b78	0.013377063
121	0xbdb5437f	-0.088507645
122	0xbd32662d	-0.043554474
123	0xbb28a634	-0.002573383
124	0x3e5ef9b4	0.21774942
125	0x3db2ce62	0.08730771
126	0xbd82bd7e	-0.06383799
127	0xbde98ff4	-0.1140441
128	0x3e70ea75	0.23526938
129	0xbdc1879c	-0.094496936
130	0xbe47e818	-0.1952213
131	0x3e0fc163	0.14038615
132	0xbe1a8327	-0.15089093
133	0x3ccbe3ac	0.024888836
134	0xbc88108f	-0.016609458
135	0x3e2ade8c	0.16686457
136	0x3dbf4d22	0.09340884
137	0x3e534870	0.20633101
138	0xbdfb4932	-0.1226982
139	0x3e23aa33	0.15982895
140	0xbd1407b5	-0.036140162
141	0xbce450cb	-0.027870556
142	0xbac3377c	-0.0014893855
143	0xbd347411	-0.044056002
144	0xbdb407ee	-0.08790575
145	0xbcaf005d	-0.021362478
146	0x3d0b44c0	0.034001112
147	0x3e0ba511	0.13637187
148	0x3cae2a47	0.021260394
149	0xbe43deae	-0.19127914
150	0x3dd7bc1c	0.10533926
151	0xbe42d1cb	-0.19025342
152	0x3de35eb4	0.111020476
153	0x3d51525d	0.05110394
154	0x3def0ec7	0.116727404
155	0xbdd58746	-0.10426192
156	0x3d776345	0.060397405
157	0xbcf9d974	-0.030499198
158	0x3e5161a3	0.20447402
159	0xbe39ba53	-0.18137483
160	0x3e204ef6	0.15655121
161	0xbc79be50	-0.015243128
162	0xbd437ce1	-0.047726516
163	0xba10c01a	-0.00055217894
164	0x3e5dd5f0	0.21663642
165	0x3d38d041	0.04512048
166	0x3e054a8d	0.1301672
167	0xbe0f3fc5	-0.1398917
168	0xb76f669b	-1.42694e-05
169	0xbe443de1	-0.1916423
170	0x3cd5b834	0.026088811
171	0xbdfbbfb1	-0.122924216
172	0x3d1c5e71	0.038176004
173	0xbdb93a0c	-0.09044275
174	0x3c2105eb	0.009828071
175	0x3d6462df	0.055758353
176	0xbe0155a8	-0.12630332
177	0x3d93520e	0.07193385
178	0x3db0e619	0.08637638
179	0x3e485c3d	0.19566436
180	0x3e3579ad	0.17722197
181	0x3deb18ec	0.11479363
182	0x3e1eebb2	0.15519598
183	0xbc9c3cc2	-0.01907194
184	0x3e340c7c	0.17582887
185	0xbdae31f6	-0.08505623
186	0x3d033114	0.032029226
187	0x3e34a9ae	0.17642853
188	0x3db8ed47	0.09029632
189	0x3d84e9e2	0.06489922
190	0xbd5d287d	-0.05399369
191	0xbe17f952	-0.14841202
192	0x3e1b46aa	0.15163675
193	0xbdf47841	-0.11936999
194	0xbcce78bd	-0.025204057
195	0x3d23a3ea	0.039951243
196	0xbe5b197d	-0.21396442
197	0xbc580a7f	-0.013186096
198	0xbe05fcac	-0.13084668
199	0x3e27cba6	0.1638628
200	0x3e405152	0.18781021
201	0x3dbac717	0.091200046
202	0xbda2d51f	-0.07950806
203	0x3dffe3b7	0.12494605
204	0x3e5b5a43	0.21421151
205	0x3e0d1a25	0.13779505
206	0x3c971944	0.018444665
207	0xbe0d93aa	-0.1382586
208	0xbe2e542e	-0.170243
209	0xbde91a79	-0.113820024
210	0xbccb754b	-0.024836203
211	0x3d6d994b	0.05800752
212	0xbe47ccec	-0.19511765
213	0xbd554757	-0.052069988
214	0x3dbe4d6a	0.09292109
215	0x3cf133ae	0.029443588
216	0x3db79379	0.08963675
217	0x3bfb73f6	0.0076737357
218	0xbd041f55	-0.032256443
219	0xbb949bf8	-0.0045351945
220	0x3e009fee	0.12561008
221	0xbdd3623b	-0.1032147
222	0x3e4e4771	0.2014444
223	0xbd960498	-0.07325095
224	0x3dc1045a	0.09424658
225	0x3e444941	0.19168569
226	0xbdb93c33	-0.09044685
227	0xbcbd9d6a	-0.02314635
228	0x3e6479d5	0.223121
229	0x3dd14681	0.10218526
230	0x3e2eae59	0.17058696
231	0xbd38e600	-0.04514122
232	0xbdd7e5cb	-0.105418764
233	0xbe11b050	-0.14227414
234	0x3e1b63f9	0.15174855
235	0xbde59728	-0.112104714
236	0x3e13ea76	0.14444908
237	0xbdae95fd	-0.08524702
238	0x3de6e2fd	0.11273763
239	0x3c1791cf	0.009251072
240	0xbe0c2911	-0.1368754
241	0x3daa77db	0.08323642
242	0x3bfb9e32	0.0076787705
243	0x3e427cfc	0.1899299
244	0x3adaed78	0.0016702851
245	0x3cd4ef7f	0.025993107
246	0x3cc4aff6	0.024009686
247	0xbe0e2258	-0.13880289
248	0x3debdb1b	0.115164004
249	0xbe3e5942	-0.18588737
250	0xbe55c8fa	-0.20877448
251	0xbcc7a029	-0.024368363
252	0xbd007d27	-0.031369355
253	0x3e2d3e3d	0.16918273
254	0xbe0305fe	-0.12795255
255	0xbd8277eb	-0.06370529

gru.weight_hh_l0 f4 [192, 64]
0	0x3d0ac242	0.033876665
1	0xbd39cdf9	-0.045362446
2	0xbe0d6e1f	-0.13811539
3	0x3e4ea6f8	0.20180881
4	0x3d97c170	0.07409942
5	0xbe1337e1	-0.14376785
6	0xbdbbcac4	-0.09169534
7	0x3e1fe398	0.15614164
8	0x3e7e1061	0.24810936
9	0xbd4870aa	-0.04893557
10	0xbda68bbf	-0.08132123
11	0x3dff81c7	0.12475925
12	0xba3260ac	-0.00068045664
13	0xbe679ff8	-0.22619617
14	0x3c942b95	0.018087188
15	0xbd82ee05	-0.06393055
16	0x3d77da6f	0.06051105
17	0x3e6a6119	0.22888602
18	0xbddb7110	-0.10714924
19	0xbcdc46b8	-0.02688919
20	0x3e1e41be	0.15454766
21	0xbe2b9e61	-0.16759636
22	0xbe2a380f	-0.16622947
23	0xbe3510ae	-0.17682144
24	0x3bed312b	0.0072385273
25	0x3e2dc252	0.16968659
26	0xbe2dab40	-0.16959858
27	0x3dc93e57	0.098263435
28	0x3c7ba8e3	0.01536009
29	0x3e51b541	0.20479299
30	0xbe2508a0	-0.16116571
31	0xbe43adf1	-0.19109322
32	0x3c19a3bf	0.009377419
33	0x3e6e0ce7	0.2324711
34	0xbd716dcb	-0.058942597
35	0xbd0580c1	-0.032593492
36	0xbe3d06f5	-0.18459685
37	0x3e254c1e	0.16142318
38	0xbb78623f	-0.0037900356
39	0x3e19f500	0.15034866
40	0x3dab5778	0.08366293
41	0xbe15fd4c	-0.14647406
42	0x3d8f79bf	0.07005643
43	0xbe180f22	-0.14849523
44	0x3e2b000c	0.16699237
45	0x3d9634f8	0.07334322
46	0xbdc013b7	-0.0937876
47	0xbdae7519	-0.08518428
48	0xbc1c78fd	-0.00955033
49	0x3e302234	0.17200547
50	0xbe644f90	-0.22295976
51	0x3e1f8f6b	0.15582053
52	0x3dfecbd4	0.12441221
53	0x3d6faa54	0.058512047
54	0xbd8d7e33	-0.06908836
55	0x3e4823fe	0.1954498
56	0x3a646a51	0.0008713352
57	0xbd8ab247	-0.06772285
58	0x3e14ccd0	0.14531255
59	0x3cbf1d82	0.0233295
60	0xbdc92d13	-0.0982305
61	0xbddc9340	-0.10770273
62	0xbd8e2cd9	-0.06942148
63	0xbe0c07a9	-0.13674797
64	0xbd2c9089	-0.042130027
65	0x3d36718f	0.04454189
66	0x3d8e585d	0.06950448
67	0xbdc77d55	-0.09740702
68	0x3c876703	0.016528612
69	0x3dceadd5	0.100917496
70	0x3e581a19	0.21103705
71	0xbce41792	-0.02784327
72	0xbd69cd95	-0.057080824
73	0x3e1e7fdb	0.1547846
74	0x3d9c520c	0.07632837
75	0xbdc34b10	-0.095358014
76	0x3dbf5406	0.09342198
77	0x3dc67244	0.09689763
78	0xbe18224b	-0.14856832
79	0x3d982712	0.07429327
80	0x3ae6a8ab	0.0017597874
81	0xbe2c3665	-0.16817625
82	0x3d3a4856	0.04547914
83	0xbe2ad254	-0.16681796
84	0xbd9c4a9d	-0.07631419
85	0x3e63a9b2	0.22232702
86	0x3e32d374	0.17463475
87	0x3d5c4ff0	0.05378717
88	0xbc8e2443	-0.017351275
89	0xbe0626b5	-0.13100703
90	0x3da276e1	0.079328306
91	0xbd7e5ca8	-0.062100083
92	0xbde85d3f	-0.1134591
93	0xbdbbbb82	-0.09166624
94	0xbd2278f0	-0.039666116
95	0x3e06948c	0.13142604
96	0xbe19ad62	-0.15007547
97	0xbd90f274	-0.07077494
98	0x3cb3952e	0.02192172
99	0x3e50930e	0.20368597
100	0x3e55a721	0.20864536
101	0xbde81fbf	-0.1133418
102	0xbe37a36a	-0.17933431
103	0x3b0e81df	0.002174489
104	0xbe6351f1	-0.22199227
105	0xbbdacb05	-0.006677034
106	0xbe51102f	-0.2041633
107	0x3e4149dc	0.18875831
108	0xbd26db85	-0.040736694
109	0xbda0d5e0	-0.078532934
110	0x3e26788f	0.16256927
111	0x3d892556	0.066965744
112	0xbd631e1d	-0.05544864
113	0xbdb0de1d	-0.08636115
114	0xbd2f8447	-0.04285076
115	0xbde012e6	-0.109411046
116	0xbc9ac6cb	-0.01889362
117	0x3cd3e850	0.025867611
118	0x3e1dd58d	0.15413494
119	0xb9c41421	-0.0003739903
120	0xbe1de5b3	-0.15419655
121	0xbe029e1b	-0.12755625
122	0xbe360d0c	-0.17778414
123	0x3d76bb9d	0.060237516
124	0x3d52d10d	0.051468898
125	0x3e51a98f	0.20474838
126	0xbaaf118c	-0.001335667
127	0x3e4514dd	0.1924624
128	0xbe8acf67	-0.2711136
129	0x3dbf8a22	0.093525186
130	0xbdd986ec	-0.106214374
131	0x3c507087	0.012722141
132	0xbe3f59ed	-0.18686648
133	0x3e28e930	0.16495204
134	0xbc30c54b	-0.010789226
135	0xbcee4f34	-0.029090501
136	0xbe6a2abd	-0.22867866
137	0x3db0793e	0.08616875
138	0x3da4291a	0.08015652
139	0x3e113ec5	0.14184101
140	0x3e5a646c	0.2132737
141	0xbbdda921	-0.0067645465
142	0xbe765c74	-0.24058706
143	0x3e2c9916	0.16855273
144	0xbde6c9fe	-0.11268996
145	0xbe2e4bb4	-0.17021066
146	0x3de8470c	0.11341676
147	0xbcb21aa5	-0.02174122
148	0xbcb59c82	-0.022169355
149	0x3d806c1b	0.062706195
150	0x3e0dde6b	0.13854377
151	0x3d79a882	0.060951717
152	0xbe585f07	-0.2113
153	0xbe6f446f	-0.23365949
154	0x3d9ce5e8	0.07661039
155	0xbdcce938	-0.100054204
156	0xbe44ef0d	-0.19231816
157	0xbdf81bea	-0.12114699
158	0x3e62a9c1	0.22135068
159	0x3df59fbb	0.11993357
160	0xbdb7cf22	-0.08975054
161	0xbe673c63	-0.2258163
162	0x3dbeef46	0.093229815
163	0xbcae801c	-0.021301322
164	0x3e5915ec	0.21199769
165	0xbe2c66c2	-0.16836074
166	0xbe234b30	-0.1594665
167	0xbb9100ac	-0.004425129
168	0xbd6433cf	-0.05571347
169	0x3d51e2f3	0.051241826
170	0xbdcb5040	-0.09927416
171	0x3d9c95d0	0.07645762
172	0xbd010cd3	-0.03150637
173	0xbd77c398	-0.060489267
174	0x3e4b1e5f	0.19835804
175	0x3d4f37a8	0.050590187
176	0x3e39291e	0.18082091
177	0x3c8f0c72	0.01746199
178	0x3e0b3418	0.13594091
179	0xbe656dee	-0.22405216
180	0xbdc58f9e	-0.096465334
181	0xbdd916a6	-0.10600023
182	0xbc41f1df	-0.011837452
183	0xbde91ab7	-0.113820486
184	0xbe0b0712	-0.13576916
185	0x3e59b70b	0.21261232
186	0xbe0f5c23	-0.13999991
187	0xbcc25742	-0.023723248
188	0x3d6b059b	0.057378393
189	0xbc478581	-0.012177826
190	0x3e7ad7a9	0.2449633
191	0x3d91f3ff	0.07126617
192	0xbe0e697b	-0.13907425
193	0x3dc60dcc	0.096706
194	0xbe13eb53	-0.14445238
195	0xbe2619be	-0.16220757
196	0x3c405111	0.011738078
197	0x3e0ea90f	0.13931678
198	0x3e30a6cc	0.17251128
199	0x3c9f8e80	0.019477129
200	0xbbff5dd0	-0.0077931657
201	0xbc88873c	-0.016666047
202	0x3c3c6a49	0.01149995
203	0xbba5a586	-0.0050551323
204	0x3e4ee75c	0.20205444
205	0xbc7d6fd6	-0.015468558
206	0xbe061ef9	-0.13097753
207	0x3e3c4d01	0.1838875
208	0xbd12b7bc	-0.035819754
209	0x3ca8572d	0.020549381
210	0x3e28d017	0.1648563
211	0xbe46c09f	-0.19409417
212	0xbb25e203	-0.0025311715
213	0x3e3e8ec2	0.18609145
214	0x3d440f79	0.04786632
215	0x3e13d409	0.14436354
216	0x3d0e4067	0.034729388
217	0xbc2f7d69	-0.010711052
218	0x3d9886e1	0.07447601
219	0xbd819b50	-0.06328452
220	0xbb282996	-0.0025659553
221	0xbd078ac5	-0.033091325
222	0x3d9b356a	0.07578547
223	0x3dc894ea	0.09794028
224	0xbe1f0566	-0.15529403
225	0x3c2d1eca	0.010566423
226	0x3e31590b	0.17319123
227	0xbc18680f	-0.009302153
228	0x3e51c3f2	0.20484903
229	0xbc13a304	-0.009011034
230	0xbd390312	-0.045168944
231	0xbe4877b3	-0.19576912
232	0xbe127079	-0.14300717
233	0x3e21ddff	0.15807341
234	0xbdcc3bc9	-0.099723406
235	0x3e1305bd	0.14357658
236	0xbe15e095	-0.14636452
237	0xbe3d2889	-0.18472494
238	0xbce826c7	-0.028338803
239	0x3d740889	0.059578452
240	0x3da92ab8	0.08260101
241	0xbdb8485a	-0.08998175
242	0x3e0d5671	0.13802506
243	0x3b7a1329	0.0038158393
244	0xbe3cb9ef	-0.18430303
245	0xbe73b213	-0.23798399
246	0x3d49dcf0	0.049282968
247	0xbd40a4ef	-0.047032293
248	0xbdc11cbe	-0.0942931
249	0x3dae0828	0.084976494
250	0xbda3433a	-0.07971807
251	0xbdc585e9	-0.09644682
252	0x3dc7ab19	0.09749431
253	0x3e39600b	0.18103044
254	0x3e03516c	0.12824029
255	0x3ca48630	0.020083517

gru.bias_ih_l0 f4 [192]
0	0xbe4bdf32	-0.19909361
1	0x3e167f8f	0.14697097
2	0xbd0e0619	-0.034673784
3	0x3e25f335	0.16206057
4	0x3c6fd078	0.014637105
5	0x3dc0977b	0.094038926
6	0x3d9c18fc	0.07621953
7	0x3da8e112	0.08246054
8	0x3d9e0280	0.077153206
9	0x3df39544	0.118937045
10	0x3d9028ae	0.07039009
11	0xbdfd621a	-0.12372227
12	0x3e04199f	0.12900399
13	0x3e58a9b9	0.21158494
14	0x3ddee31a	0.1088316
15	0x3e145dc2	0.14488891
16	0x3e3bdeeb	0.18346755
17	0x3d8bdcf9	0.068292566
18	0xbd89eb2e	-0.0673431
19	0x3e1d5352	0.15363815
20	0x3d29b4b8	0.041432112
21	0x3df3cf04	0.119047195
22	0x3e1f0e6f	0.1553285
23	0x3e115bab	0.14195125
24	0x3dc3c8f4	0.09559813
25	0x3d3c408a	0.045959987
26	0xbd09ceb3	-0.03364439
27	0x3c3054cd	0.010762406
28	0x3e3dbedb	0.18529837
29	0x3bad515a	0.005289239
30	0x3d2229fa	0.039590813
31	0x3d89aea6	0.06722765
32	0x3e3699d9	0.17832126
33	0x3dd8000b	0.10546883
34	0x3e1d350c	0.15352267
35	0xbd642b81	-0.05570555
36	0x3dda2929	0.10652382
37	0x3d44c5e5	0.04804029
38	0x3df468b2	0.119340315
39	0x3e724080	0.23657417
40	0x3e370512	0.17873028
41	0x3cb6684e	0.022266533
42	0x3d7e401b	0.062072854
43	0xbcc3cc51	-0.023901137
44	0x3d700c0f	0.05860525
45	0xbc0f52fc	-0.008747812
46	0xbd13d4df	-0.03609168
47	0xbd0073bf	-0.031360384
48	0xbce90ada	-0.028447557
49	0x3d40a23a	0.04702971
50	0x3ddfb48c	0.109231085
51	0x3e6c1f79	0.23058881
52	0x3e23d655	0.1599973
53	0x3d018717	0.031622972
54	0x3e120b4c	0.14262122
55	0x3d934662	0.07191159
56	0xbcc7b52b	-0.02437838
57	0xbe1fd601	-0.1560898
58	0x3e3a56c5	0.18197162
59	0x3c167cd6	0.009185037
60	0x3db8c5bd	0.090220906
61	0x3b8c1bce	0.0042757755
62	0x3dff7d2c	0.124750465
63	0xbcc0c490	-0.023531228
64	0xbe46cf3b	-0.1941499
65	0x3d297554	0.04137166
66	0x3ebfa5be	0.3743114
67	0x3e39c55d	0.18141694
68	0xbde51302	-0.11185266
69	0xbe0befc0	-0.13665676
70	0x3bf36dfe	0.0074288836
71	0xbcbf648c	-0.023363374
72	0x3dc56673	0.09638681
73	0xbe919baa	-0.28439075
74	0xbd96d84a	-0.073654726
75	0xbde9d0f4	-0.11416808
76	0xbe861bad	-0.2619299
77	0xbe2eaa6e	-0.17057201
78	0xbd696fae	-0.05699127
79	0xbe1e8410	-0.15480065
80	0x3d48624b	0.048921864
81	0xbdc18a08	-0.094501555
82	0xbc8fce9f	-0.01755458
83	0xbd958b92	-0.073020115
84	0x3e1d41e5	0.15357168
85	0x3caa132f	0.0207611
86	0xbbe62765	-0.007023739
87	0xbe114c66	-0.141893
88	0xbcb532fb	-0.022119036
89	0xbd88f183	-0.0668669
90	0x3a2c265a	0.0006566994
91	0x3de0e55a	0.10981245
92	0xbbff085b	-0.0077829785
93	0x3c9bc92b	0.019016823
94	0xbd38fa82	-0.045160778
95	0xbe76b9b0	-0.24094272
96	0x3e0739dd	0.13205667
97	0xbcc53d27	-0.024077011
98	0x3e6fb196	0.23407587
99	0xbe3776c6	-0.17916402
100	0xbe2d3c65	-0.1691757
101	0xbe33cce5	-0.1755863
102	0x3cdede78	0.02720569
103	0x3e885e36	0.26634377
104	0xbddf9ca1	-0.109185465
105	0x3df5afce	0.11996423
106	0x3d65713c	0.05601619
107	0x3d634e05	0.055494327
108	0x3ce8e109	0.028427618
109	0xbd0ef6ec	-0.03490345
110	0xbcc9f3ee	-0.024652448
111	0x3d1fd8bc	0.039025053
112	0xbe598deb	-0.21245544
113	0x3d99e14e	0.075136766
114	0x3e18ab01	0.14908983
115	0xbd967eba	-0.0734839
116	0xbe2e4d39	-0.17021646
117	0x3d8850e6	0.06656055
118	0x3d931029	0.07180817
119	0xbd25c9b4	-0.040475562
120	0xbd91dc68	-0.07122117
121	0xbbfca2d1	-0.007709839
122	0x3e068ac2	0.1313887
123	0x3e55cb13	0.20878248
124	0xbe2fd3a3	-0.17170577
125	0xbd432c48	-0.04764965
126	0xbdc5e62b	-0.09663042
127	0x3db48b00	0.08815575
128	0xbddcfb6d	-0.10790143
129	0x3de0c7f3	0.10975637
130	0x3c949dd4	0.018141665
131	0xbe07e715	-0.13271745
132	0xbe2ca2e9	-0.1685902
133	0x3e14c6f5	0.14529021
134	0x3de1d7ad	0.11027465
135	0xbe542865	-0.20718534
136	0xbe272b2d	-0.16325064
137	0x3e2e7c3e	0.17039582
138	0x3e6468d0	0.22305608
139	0xbc95fc0a	-0.018308658
140	0x3e1f41d9	0.15552463
141	0x3e1281c1	0.1430731
142	0xbe2b820d	-0.16748829
143	0x3e1b7a68	0.15183413
144	0xbe29c805	-0.16580208
145	0xbe236563	-0.15956645
146	0x3c823f76	0.015899401
147	0x3c34e8b3	0.011041808
148	0xbe322e0c	-0.17400378
149	0x3e29e0c5	0.16589649
150	0x3e48afa2	0.19598249
151	0x3e3ce82a	0.18447939
152	0xbe092d86	-0.13396272
153	0x3cfa0033	0.030517673
154	0x3e0d49f7	0.13797747
155	0xbe5f689e	-0.21817252
156	0xbe42add4	-0.19011623
157	0xbe0b28ee	-0.13589832
158	0x3e26f8b2	0.16305807
159	0x3e4dc833	0.20095901
160	0xbe83b979	-0.25727442
161	0xbe740a31	-0.23832013
162	0xbc39a825	-0.011331593
163	0x3e4edf4c	0.20202368
164	0x3e1c2b47	0.15250884
165	0xbe1971a9	-0.14984764
166	0xbe1704bc	-0.147479
167	0xbd115580	-0.03548193
168	0xbe450bbf	-0.19242762
169	0x3dadcd8b	0.0848647
170	0xbc55b298	-0.013043068
171	0x3e3875a8	0.18013632
172	0xbe125193	-0.1428893
173	0xbe2b9b1e	-0.16758391
174	0x3e6d144e	0.23152277
175	0x3d272770	0.040809095
176	0x3dda50a6	0.10659914
177	0xbcfcf9c3	-0.030880814
178	0x3e0ba1cd	0.13635941
179	0xbdf75c0a	-0.12078102
180	0xbe69f468	-0.2284714
181	0xbd8fefa3	-0.07028129
182	0x3e36aa75	0.17838462
183	0xbe609074	-0.21930104
184	0xbe027f85	-0.12743957
185	0x3defef02	0.11715509
186	0xbdfbba8d	-0.12291441
187	0xbd5ff763	-0.054679286
188	0x3dcdf5e0	0.100566626
189	0x3e5e69fe	0.2172012
190	0x3e3f1c47	0.1866313
191	0x3e633eb6	0.22191891

gru.bias_hh_l0 f4 [192]
0	0xbdfc8a88	-0.1233111
1	0x3e51bea8	0.20482886
2	0x3cc15752	0.023601208
3	0xbb6a34ff	-0.0035737155
4	0x3e080968	0.13284838
5	0x3e483aae	0.19553635
6	0x3da6b1b7	0.08139365
7	0x3db9ea8d	0.0907794
8	0x3e499c0e	0.19688436
9	0x3dce6b46	0.100790545
10	0x3d553556	0.05205282
11	0xbd06dd6d	-0.03292601
12	0x3e0f85c2	0.14015868
13	0x3d69b0b9	0.0570533
14	0x3e1f6bf0	0.15568519
15	0x3d62fd5d	0.055417407
16	0x3e4eb8cf	0.20187686
17	0x3dc0136a	0.09378703
18	0xbe2b699b	-0.16739504
19	0x3e231734	0.1592682
20	0xbde28239	-0.11059994
21	0x3d8220b5	0.063538946
22	0x3bac5568	0.0052592047
23	0x3e365d6e	0.17809078
24	0x3e0578a9	0.1303431
25	0x3d63c71e	0.055609815
26	0x3e36b009	0.1784059
27	0x3d5585ab	0.05212943
28	0x3cd7e642	0.026354913
29	0x3e082a28	0.13297331
30	0xbb3b6f91	-0.0028600434
31	0x3e174dc6	0.14775762
32	0xbc6a0c05	-0.014285092
33	0x3e69d13e	0.22833726
34	0x3d4cae0d	0.049970675
35	0x3bf746b8	0.007546272
36	0x3e57db88	0.21079838
37	0x3e404afe	0.18778607
38	0x3e058181	0.13037683
39	0x3df18172	0.11792268
40	0x3dd49399	0.103797145
41	0x3e25f506	0.1620675
42	0x3cf84034	0.030304052
43	0x3d8efb1a	0.069814876
44	0x3e38b9ce	0.18039629
45	0x3c7d7128	0.015468873
46	0x3a461975	0.0007556894
47	0xbcb682fa	-0.022279251
48	0xbd74f3cd	-0.05980282
49	0xbbd4130a	-0.006471996
50	0x3e3b55d0	0.18294454
51	0x3cf9b217	0.030480428
52	0x3db70e8a	0.0893832
53	0x3cccccdd	0.02500003
54	0x3e07b2a8	0.13251746
55	0x3e3a3c1b	0.18186991
56	0xbc3242ba	-0.010880167
57	0xbdfe7c1f	-0.12426018
58	0x3daebd72	0.085322276
59	0xbd39ab3d	-0.04532932
60	0x3e15e3b9	0.1463765
61	0x3dedeff7	0.11618035
62	0xbd39c01e	-0.045349233
63	0x3cb37ab0	0.021909088
64	0x3b8b96f3	0.004259938
65	0xbdd222ad	-0.1026052
66	0x3eea9f04	0.45824444
67	0x3ea938f9	0.3305128
68	0x3d1a4eb7	0.037672725
69	0xbe0b810e	-0.13623449
70	0xbe3bed78	-0.18352306
71	0xbe839d73	-0.25706062
72	0x3db8a94b	0.09016665
73	0xbe3100ac	-0.17285413
74	0xbe3f8627	-0.18703519
75	0xbd334fbf	-0.043777224
76	0xbe70f64b	-0.23531453
77	0xbda699ff	-0.08134841
78	0xbe2f8c47	-0.17143355
79	0xbd3cc353	-0.046084713
80	0xbd8d0b6b	-0.068869434
81	0xbe03fe40	-0.12889957
82	0xbe644ebe	-0.22295663
83	0xbe4b4888	-0.19851887
84	0x3e424e89	0.18975271
85	0xbd49f7f3	-0.04930873
86	0xbcb8f800	-0.022579193
87	0xbd7aa364	-0.061190978
88	0xbe0ad9f4	-0.13559705
89	0xbe3c13ca	-0.18366924
90	0xbc8e421f	-0.017365513
91	0xbd11f8df	-0.035637733
92	0xbdfed97f	-0.12443828
93	0x3de85c20	0.113456964
94	0x3e09d2b0	0.13459277
95	0xbe86b368	-0.2630875
96	0x3d92f158	0.07174939
97	0x3d1226f5	0.035681684
98	0x3e22f8b8	0.15915191
99	0xbaa15f06	-0.0012311644
100	0xbdf5e4b3	-0.120065115
101	0xbe0205ec	-0.12697572
102	0xbe049c4e	-0.1295025
103	0x3ebe526e	0.37172264
104	0xbe15342f	-0.14570688
105	0x3ccc74a7	0.024957968
106	0x3d73527c	0.059404835
107	0xbd69c9c3	-0.05707718
108	0xbe1a6481	-0.15077402
109	0xbd6a7c30	-0.05724734
110	0xbdad1a2a	-0.08452256
111	0x3d42aa4c	0.04752569
112	0xbd855be6	-0.06511669
113	0xbcfda34d	-0.030961657
114	0x3e563655	0.20919164
115	0xbc44caea	-0.012011269
116	0xbd497896	-0.049187265
117	0xbe2ed916	-0.17074999
118	0xbc65eccc	-0.014033508
119	0x3c0c6fd7	0.008571587
120	0xbe13e927	-0.1444441
121	0xbdf4160f	-0.1191827
122	0xbb7bc900	-0.0038419366
123	0x3e2eb807	0.17062388
124	0xbc95d026	-0.01828773
125	0x3e205935	0.1565903
126	0x3cda70f4	0.026665188
127	0x3dbcdc4f	0.09221708
128	0xbe3227a9	-0.17397942
129	0x3e529f5e	0.20568606
130	0xbdd1d198	-0.10245055
131	0xbbcf71e5	-0.006330716
132	0xbe5fe485	-0.21864517
133	0x3e6d4764	0.23171765
134	0x3e394ed5	0.18096478
135	0xbd283a27	-0.041071083
136	0xbe59ed74	-0.21281987
137	0x3e733e20	0.23754168
138	0x3e137d37	0.14403234
139	0xbc8742fc	-0.016511433
140	0x3e681c8a	0.22667137
141	0x3e3a7a0a	0.18210617
142	0xbd4fa9bd	-0.050698984
143	0x3e4cbee4	0.19994694
144	0xbe1eab9c	-0.15495151
145	0xbd191354	-0.03737195
146	0x3dd1386f	0.10215842
147	0xbdd1ecc5	-0.10250238
148	0xbe0cf7b2	-0.13766363
149	0x3e0b3a21	0.13596393
150	0x3e47ef3a	0.19524851
151	0x3c9d4c5e	0.019201454
152	0xbe0e3885	-0.13888748
153	0xbe0e4063	-0.13891749
154	0x3e3e3e73	0.1857851
155	0xbe101027	-0.14068662
156	0xbe0f0c59	-0.13969554
157	0xbe434cc7	-0.19072257
158	0x3c109e86	0.008826857
159	0x3db0d5b0	0.08634508
160	0xbc8bd96c	-0.017071448
161	0xbe60bbfd	-0.21946712
162	0xbd8c9d3b	-0.06865927
163	0x3c88d956	0.016705196
164	0x3e1b94ea	0.15193525
165	0xbdf97260	-0.121800184
166	0xbd069821	-0.032859925
167	0xbdac3742	-0.08408977
168	0xbab27f80	-0.001361832
169	0x3e3ad662	0.18245843
170	0xbde11c1c	-0.109916896
171	0x3e043ba5	0.12913378
172	0xbe239931	-0.15976407
173	0xbe3d6682	-0.18496135
174	0x3dcad2ed	0.09903512
175	0x3dfe4935	0.12416307
176	0x3b967516	0.0045915945
177	0xbe09d30f	-0.13459419
178	0xbd12b2a3	-0.035814893
179	0xbe762e10	-0.24041009
180	0xbe195fd9	-0.14977969
181	0xbe19daf9	-0.15024938
182	0x3db96c9e	0.0905392
183	0xbb90ffa5	-0.0044250065
184	0xbdcd2693	-0.10017123
185	0xbb382875	-0.0028100286
186	0xbe0bb73e	-0.1364412
187	0x3dbc3b61	0.09191013
188	0x3e6b71e4	0.22992665
189	0x3d5a86f4	0.053351358
190	0x3e19c1a4	0.15015274
191	0x3c3acdb7	0.011401585

notes_decoder.weight f4 [128, 64]
0	0x3d8aa555	0.06769816
1	0xbdc37c6e	-0.095452175
2	0x3e1fe01b	0.15612833
3	0x3e38f13b	0.18060772
4	0x3e3e248c	0.18568629
5	0xbd6ad820	-0.05733502
6	0xbd42b179	-0.047532532
7	0x3d9b8eb9	0.075955816
8	0x3e110881	0.141634
9	0xbe45f985	-0.19333465
10	0xbe8c43d2	-0.27395493
11	0x3c9022f1	0.017594786
12	0xbdac31d5	-0.08407942
13	0xbe9109d5	-0.28327814
14	0x3d5cf150	0.05394107
15	0xbe5e1204	-0.2168656
16	0x3e6efec1	0.23339368
17	0x3d9c324b	0.0762678
18	0x3d86cd48	0.06582123
19	0x3d2e52cb	0.042559426
20	0x3e9513f6	0.2911679
21	0xbe3b9fb9	-0.18322648
22	0xbe8e226a	-0.2776063
23	0xbe2ae5ef	-0.16689275
24	0x3e91648a	0.28397018
25	0x3e49f00c	0.19720477
26	0xbe40dcca	-0.18834224
27	0x3e45172f	0.19247125
28	0x3e26c2e9	0.1628529
29	0x3e04cf83	0.12969784
30	0xbe376c7d	-0.17912479
31	0xbe024102	-0.12720111
32	0x3e1a0c9e	0.15043876
33	0x3e13c579	0.14430799
34	0xbd926d9c	-0.071498126
35	0xbe87096e	-0.26374382
36	0xbe3e7027	-0.1859747
37	0x3e46da47	0.19419204
38	0x3e1c92a4	0.15290314
39	0x3e6475af	0.22310518
40	0x3dc89048	0.097931445
41	0xbe46a3f5	-0.19398482
42	0x3e0d58c7	0.13803397
43	0xbe77f388	-0.24213994
44	0x3d5271a6	0.051377915
45	0x3e8fc4a5	0.28079715
46	0xbe30a1e6	-0.1724926
47	0xbe58b228	-0.21161711
48	0x3cf05c80	0.029340982
49	0x3e36354f	0.17793773
50	0xbdf75561	-0.120768316
51	0x3e65d4a0	0.22444391
52	0x3e12902c	0.1431281
53	0x3e024a62	0.12723687
54	0xbe41e20b	-0.18933885
55	0x3dfef6a9	0.124493904
56	0x3e7ded31	0.24797513
57	0xbe01251b	-0.12611811
58	0x3e0ed450	0.13948178
59	0x3db66219	0.089054294
60	0xbde788a1	-0.11305357
61	0xbdfe8bb0	-0.12428987
62	0xbde75663	-0.11295774
63	0xbd8b08d2	-0.06788792
64	0x3d49720c	0.04918103
65	0xbd83086b	-0.0639809
66	0x3d20eaf0	0.039286554
67	0x3e492afe	0.19645306
68	0x3df973b7	0.12180274
69	0xbe8ed089	-0.27893475
70	0xbde32280	-0.11090565
71	0x3e161897	0.14657818
72	0x3e2d8f60	0.16949224
73	0xbe8641f1	-0.26222184
74	0xbe1f2fb5	-0.15545543
75	0x3de4020b	0.11133202
76	0xbdb0e9c2	-0.08638336
77	0xbd97610e	-0.073915586
78	0x3e8d583d	0.27606383
79	0xbe22eeac	-0.15911359
80	0x3e95b0d5	0.29236475
81	0x3e8b8124	0.27246964
82	0xbcf33cb8	-0.029692039
83	0x3e149510	0.14509988
84	0x3e493a92	0.19651249
85	0xbdfa28f3	-0.12214842
86	0xbdcb5073	-0.09927454
87	0xbe5e0aa5	-0.21683748
88	0x3dba89dd	0.091083266
89	0x3e656e00	0.22405243
90	0xbe4ec64c	-0.20192832
91	0x3e3f8f16	0.18706927
92	0x3e947bdd	0.2900075
93	0x3e083d05	0.13304527
94	0xbe20345a	-0.1564497
95	0xbe46e4e0	-0.19423246
96	0x3e1a871a	0.150906
97	0x3e07f6fd	0.13277812
98	0xbd23ebd6	-0.040019833
99	0xbe290ffc	-0.16510004
100	0xbe5136d8	-0.20431077
101	0x3e5a6acb	0.21329801
102	0x3e0ac5d7	0.13552032
103	0x3e3b6cdf	0.1830325
104	0x3e3998c2	0.18124679
105	0xbe5c2d48	-0.21501648
106	0x3d53de8c	0.05172591
107	0xbdab16a2	-0.08353926
108	0x3e8ece30	0.27891684
109	0x3dcb4eee	0.09927164
110	0xbe51e1d6	-0.20496306
111	0xbd698bb8	-0.05701801
112	0x3c8df7e0	0.01733011
113	0x3dbb6d00	0.091516495
114	0xbe1abef7	-0.1511191
115	0x3e2b9ede	0.16759822
116	0x3e2abae4	0.16672856
117	0x3e4c4262	0.19947198
118	0xbe5a965d	-0.21346422
119	0x3e221dc0	0.15831661
120	0x3e92bb1f	0.28658387
121	0x3b1f15df	0.002427451
122	0x3e6c0836	0.23050007
123	0x3d089c0d	0.033351947
124	0xbe844cf8	-0.25839972
125	0xbd84fbcb	-0.06493338
126	0xbe0fa8c8	-0.14029229
127	0xbe05b64d	-0.13057823
128	0xbd0e354c	-0.034718797
129	0xbe54a27a	-0.20765105
130	0x3e34480e	0.17605612
131	0x3e75ab80	0.23991203
132	0x3e84e91c	0.25959098
133	0xbdbb2cbf	-0.09139394
134	0xbd967104	-0.07345775
135	0x3e590b97	0.21195827
136	0x3e98c37a	0.29836637
137	0xbd9c00c2	-0.07617332
138	0xbe2aa0bc	-0.16662878
139	0xbd9a9e6b	-0.07549747
140	0xbe898e04	-0.26866162
141	0xbe89fc94	-0.26950514
142	0x3e14272c	0.14468068
143	0xbdeac970	-0.114642024
144	0x3dbbe4dd	0.091745116
145	0x3db3079c	0.08741686
146	0x3c9a4539	0.018831836
147	0x3cc9fdd9	0.024657177
148	0x3e5bf6b8	0.21480834
149	0xbddcc07d	-0.10778902
150	0xbe2ccf3f	-0.16875933
151	0xbe77a856	-0.24185309
152	0x3e8dcb94	0.2769438
153	0x3e5f8616	0.21828493
154	0xbe4d6411	-0.20057704
155	0x3e6f17ea	0.23348966
156	0x3e74180e	0.23837301
157	0x3e496a8b	0.19669549
158	0xbe3214a4	-0.17390686
159	0xbe42f4bf	-0.19038676
160	0x3db99d17	0.09063166
161	0x3dc3e085	0.09564308
162	0xbe4063b8	-0.1878804
163	0xbe5efd8c	-0.21776408
164	0xbe528065	-0.20556791
165	0x3e2b9860	0.16757345
166	0x3e221e36	0.15831837
167	0x3e3057e1	0.17221023
168	0x3e4f9297	0.20270763
169	0xbd5d538e	-0.054034762
170	0x3d7b6374	0.061374143
171	0xbde49c79	-0.11162657
172	0x3e90727b	0.28212342
173	0x3e3e3069	0.18573155
174	0xbe827547	-0.254801
175	0xbd6253b5	-0.05525561
176	0x3ded22c0	0.11578894
177	0x3e01e740	0.12685871
178	0xbe533c30	-0.20628428
179	0x3e1d9f10	0.15392709
180	0x3e804b54	0.2505747
181	0x3e4ba158	0.19885767
182	0xbdc64161	-0.09680439
183	0x3e08ca49	0.13358416
184	0x3e2ecef1	0.1707113
185	0xbd0d5e85	-0.03451397
186	0x3db347ea	0.08753951
187	0x3e15ce2f	0.14629434
188	0xbd0fcc94	-0.03510721
189	0xbd91c8e1	-0.07118393
190	0xbdc2840b	-0.094978414
191	0xbe3069c4	-0.17227846
192	0x3d3d7898	0.046257585
193	0xbe2b6abb	-0.16739933
194	0x3e6aa620	0.22914934
195	0x3dc9a626	0.098461434
196	0x3dbce0c1	0.09222556
197	0xbe146f20	-0.14495516
198	0xbd9f067e	-0.0776491
199	0x3da5ecff	0.08101844
200	0x3e7e97df	0.24862622
201	0xbe0194cb	-0.12654416
202	0xbe6ab387	-0.22920047
203	0x3d586de4	0.052839175
204	0xbe80a68d	-0.25127068
205	0xbd859dc2	-0.065242305
206	0x3e8bfe7b	0.2734259
207	0xbe13a47b	-0.14418213
208	0x3e0c9327	0.13728009
209	0x3da33a80	0.07970142
210	0x3d92ca4e	0.07167493
211	0x3e713be7	0.23558007
212	0x3e035ca0	0.12828302
213	0xbdf098d5	-0.117479004
214	0xbe8f2c0f	-0.27963302
215	0xbda5e2aa	-0.08099873
216	0x3e67a630	0.22621989
217	0x3e657551	0.22408034
218	0xbd57829c	-0.052614793
219	0x3e9754b3	0.29556808
220	0x3dbe25b5	0.09284536
221	0x3e8790d1	0.26477674
222	0xbe3fa9f1	-0.18717171
223	0xbe94db74	-0.2907368
224	0x3e65e411	0.22450282
225	0x3e90c9f3	0.28279075
226	0xbdba20dd	-0.090882994
227	0xbe7f72ad	-0.24946089
228	0xbd971abe	-0.073781475
229	0x3e3a9b52	0.18223312
230	0x3e8e4b28	0.27791715
231	0x3e27adf0	0.16374946
232	0x3e8083bd	0.25100508
233	0xbe03ff2b	-0.12890308
234	0xbbbe72c8	-0.005812023
235	0xbdf559eb	-0.11980041
236	0x3e4c59ae	0.19956085
237	0x3dec07da	0.11524935
238	0xbe91ec37	-0.2850053
239	0xbe291e01	-0.16515352
240	0xbd796e74	-0.060896352
241	0x3db0288b	0.08601483
242	0xbe5bf273	-0.21479206
243	0x3d74a16a	0.05972425
244	0x3d61d125	0.055131096
245	0x3e0585e0	0.1303935
246	0xbd9c28f8	-0.07625002
247	0x3e438ea2	0.19097379
248	0x3e14fe33	0.14550094
249	0x3d0c7b7d	0.034297455
250	0x3e8b5b90	0.27218294
251	0xbc3b189d	-0.0114194425
252	0xbe06039f	-0.13087319
253	0xbde2f918	-0.11082667
254	0xbd004386	-0.031314395
255	0xbe96d103	-0.29456338

notes_decoder.bias f4 [128]
0	0xbd00af21	-0.031417016
1	0xbe37f2b7	-0.17963682
2	0xbe1035d0	-0.14083028
3	0xbe76a3c5	-0.2408591
4	0xbe10c9bc	-0.14139456
5	0xbe13559c	-0.14388126
6	0xbe4e06fd	-0.20119853
7	0xbe343182	-0.1759701
8	0xbe716387	-0.23573123
9	0xbe800e7f	-0.2501106
10	0xbe1a078a	-0.15041938
11	0xbd664b29	-0.056224022
12	0xbd449ef8	-0.048003167
13	0xbe3d2834	-0.18472368
14	0xbd6a20d9	-0.057160232
15	0xbe62a048	-0.22131455
16	0xbd35b754	-0.04436429
17	0xbe4e11f9	-0.20124044
18	0xbd6122f8	-0.05496499
19	0xbda6008b	-0.08105572
20	0xbe21bd37	-0.15794836
21	0xbdff2476	-0.12458126
22	0xbd6ce1a8	-0.05783239
23	0xbe0aff92	-0.13574055
24	0xbd9f2c7c	-0.077721566
25	0xbe478e72	-0.19487932
26	0xbda698f0	-0.08134639
27	0xbdb0dbc5	-0.08635668
28	0xbdc849b6	-0.09779684
29	0xbd08bb25	-0.0333816
30	0xbe2c7c10	-0.16844201
31	0xbe5149e2	-0.2043834
32	0xbe42f1ad	-0.19037504
33	0xbdf80c25	-0.121116914
34	0xbd9c73ed	-0.076392986
35	0xbd15d83a	-0.036583163
36	0xbe00a93b	-0.12564556
37	0xbd85eb72	-0.06539048
38	0xbd0c6bac	-0.03428237
39	0xbe59824b	-0.21241109
40	0xbe34b52d	-0.17647238
41	0xbda1e2b2	-0.07904567
42	0xbe72cebf	-0.2371168
43	0xbe2ef0bf	-0.17084025
44	0xbe62a84d	-0.22134514
45	0xbdf13dda	-0.117793754
46	0xbe00d8fa	-0.1258277
47	0xbe04af22	-0.12957433
48	0xbe1ac56f	-0.15114377
49	0xbd1d1cf2	-0.038357683
50	0xbd966158	-0.073427856
51	0xbd242ba6	-0.04008069
52	0xbcd60bf7	-0.026128752
53	0xbe1ec8a6	-0.15506229
54	0xbe6bd350	-0.23029828
55	0xbe265ec0	-0.16247082
56	0xbe36e5c5	-0.17861088
57	0xbd0b0436	-0.033939563
58	0x3bb3e94d	0.005490458
59	0xbe7a9201	-0.24469759
60	0xbbc78e3b	-0.0060899532
61	0xbd102a02	-0.03519631
62	0xbd011fb2	-0.031524368
63	0xbe11ef8e	-0.14251539
64	0xbc76e5e4	-0.015069459
65	0xbe665548	-0.2249347
66	0xbcc4ecee	-0.024038758
67	0xbddad9eb	-0.10686096
68	0xbe5dba6c	-0.21653146
69	0xbe3e830e	-0.18604681
70	0xbe173413	-0.14765958
71	0xbe301c0b	-0.17198198
72	0xbe567e79	-0.20946683
73	0xbd69c0cd	-0.057068635
74	0xbddab3eb	-0.10678848
75	0xbe0f8879	-0.14016904
76	0xbe5b3407	-0.21406566
77	0xbd214db5	-0.039380748
78	0xbe2601c3	-0.1621161
79	0xbdb94d9e	-0.090480074
80	0xbe5f9b45	-0.21836574
81	0xbe63ceff	-0.22246931
82	0xbe516a85	-0.2045079
83	0xbe586b8c	-0.21134776
84	0xbe329039	-0.17437829
85	0xbde7f387	-0.11325746
86	0xbd666261	-0.056246165
87	0xbe469fa5	-0.19396837
88	0xbd249a79	-0.04018638
89	0xbdea6798	-0.1144554
90	0xbe7587cc	-0.23977584
91	0xbd9c7312	-0.076391354
92	0xbe31e281	-0.1737156
93	0xbd9715dc	-0.07377216
94	0xbe4e86e4	-0.20168644
95	0xbe83e24a	-0.25758582
96	0xbd881180	-0.06643963
97	0xbc233e37	-0.009963564
98	0xbe416778	-0.18887126
99	0xbe3b1a54	-0.18271762
100	0xbd39dcd0	-0.0453766
101	0xbd870b92	-0.06594004
102	0xbd80d292	-0.06290163
103	0xbe64f349	-0.22358431
104	0xbe80b33e	-0.2513675
105	0xbd4b0e97	-0.04957446
106	0xbe80da07	-0.25166342
107	0xbe880641	-0.2656727
108	0xbe7411cc	-0.23834914
109	0xbde7eb99	-0.113242336
110	0xbd8300c8	-0.063966334
111	0xbe1245a8	-0.14284384
112	0xbe5c56a4	-0.21517426
113	0xbdac6c8d	-0.08419142
114	0xbda256e2	-0.07926728
115	0xbe0e6c1e	-0.13908431
116	0xbe4e81a2	-0.20166638
117	0xbe5ceef9	-0.21575536
118	0xbe67846b	-0.22609107
119	0xbe26e0c8	-0.16296685
120	0xbd8ccf73	-0.06875505
121	0xbe6d72f4	-0.23188382
122	0xbe0854fb	-0.13313667
123	0xbd872a65	-0.06599883
124	0xbd394340	-0.04523015
125	0xbd4ee71b	-0.050513368
126	0xbe4f111a	-0.20221367
127	0xbde9d895	-0.11418263
