saved_models/generalist_BCE_1e-2_120.pth (torch_old, 167373 bytes, 8 tensors)

notes_encoder.weight f4 [64, 128]
0	0xbdab4681	-0.08363057
1	0xbd65a336	-0.056063853
2	0x3d5c12ba	0.053728797
3	0x3d8fea6b	0.070271336
4	0xbd9130d9	-0.07089395
5	0xbd5e3e49	-0.05425862
6	0x3c09a1b8	0.008400373
7	0xbd7bda3d	-0.061487425
8	0xbd7cbf9b	-0.061706167
9	0xbbaa6400	-0.005199909
10	0xbc7618f8	-0.015020601
11	0x3d707742	0.058707483
12	0xbda766d3	-0.08173909
13	0xbd05eeec	-0.032698557
14	0x3c3c3560	0.011487335
15	0x3d6773ce	0.056506924
16	0xbd5c6031	-0.053802673
17	0xbda85646	-0.0821958
18	0xbc92921c	-0.017891936
19	0x3c91e298	0.017808244
20	0x3d3b4676	0.045721494
21	0xbd6c3732	-0.057669826
22	0xbdab433e	-0.08362435
23	0x3c92cfe0	0.017921388
24	0xbdb456e7	-0.08805638
25	0x3bd7f070	0.0065899417
26	0x3d317056	0.043320023
27	0x3cba0310	0.022706538
28	0x3d77e1c2	0.060518034
29	0xbcc5733c	-0.0241028
30	0x3cca6030	0.024704069
31	0xbc599e40	-0.013282359
32	0xbd4c956c	-0.049947187
33	0x3cd1a28c	0.025590204
34	0xbea4c446	-0.32180995
35	0x3d16391e	0.036675565
36	0x3d2a44c3	0.041569483
37	0x3becdf10	0.0072287396
38	0x3e8bd8ca	0.27313834
39	0x3d537b1c	0.051631078
40	0x3e824471	0.25442842
41	0x3de4209e	0.11139034
42	0xbeb3fdd9	-0.35154608
43	0x3e3d8e7c	0.18511385
44	0x3f29f714	0.66392636
45	0x3c287632	0.010282086
46	0x3e576c4a	0.21037403
47	0x3e9070a1	0.2821093
48	0x3e80fba3	0.25191984
49	0x3ef4d185	0.478161
50	0x3efe29cd	0.49641266
51	0x3d291d56	0.041287743
52	0x3deed502	0.11661722
53	0x3e3174f2	0.17329767
54	0x3c5843f2	0.013199793
55	0x3e330dad	0.17485686
56	0x3ef8a068	0.4855988
57	0x3d7dc19f	0.06195223
58	0x3b93fd34	0.004516268
59	0x3ea18117	0.315438
60	0x3d21aab4	0.039469436
61	0x3ec6a67e	0.38798898
62	0x3e879dd5	0.26487604
63	0x3ea15519	0.31510237
64	0x3d94f0ab	0.07272466
65	0x3d1e747a	0.0386853
66	0xbdb2ea02	-0.0873604
67	0x3e5d3859	0.21603526
68	0x3ecb9551	0.39762357
69	0x3e6b7050	0.22992063
70	0x3ea4d387	0.32192633
71	0x3efc181f	0.49237153
72	0x3e962f31	0.2933288
73	0xbca3ef30	-0.020011514
74	0x3e9b2068	0.30298162
75	0xbe4c60c8	-0.19958794
76	0x3e3535d5	0.17696317
77	0x3e918371	0.28420594
78	0x3d120725	0.035651345
79	0x3e6d7f95	0.231932
80	0x3d6d7832	0.057975955
81	0x3df54e27	0.11977797
82	0x3e068f2f	0.13140558
83	0xbcdfdbf6	-0.027326565
84	0xbd9459b0	-0.07243669
85	0xbe4a8c1a	-0.19780007
86	0x3e256a75	0.16153891
87	0xbdef704a	-0.11691339
88	0x3ceadf76	0.028671008
89	0x3e2ba68f	0.16762756
90	0xbda05cd8	-0.078302085
91	0x3d9896fd	0.07450674
92	0xbca76e9c	-0.020438485
93	0x3ce89f94	0.028396405
94	0x3bfd6e00	0.0077340603
95	0xbcc8e508	-0.024523273
96	0xbd96eb04	-0.073690444
97	0xbb545c20	-0.0032403544
98	0xbd4ff16b	-0.050767343
99	0x3d9bc695	0.07606236
100	0x3dac7959	0.08421583
101	0x3dac474d	0.08412037
102	0xbcd9d70e	-0.026591804
103	0xbd96c334	-0.07361451
104	0xbc692170	-0.0142291635
105	0x3d5d0a32	0.0539648
106	0xbd582233	-0.05276699
107	0x3d30afbe	0.04313635
108	0xbc05f550	-0.008176163
109	0xbc342ca8	-0.010996975
110	0xbd0ecf39	-0.03486559
111	0xbd4fc0d3	-0.050721
112	0x3d607d72	0.054807134
113	0x3ce46efc	0.027884953
114	0x3d313222	0.0432607
115	0xbd51d161	-0.05122507
116	0x3d38b1c6	0.045091413
117	0x3ceafb24	0.028684206
118	0x3d74abae	0.05973404
119	0x3d5cb8a6	0.053887032
120	0x3c597200	0.013271809
121	0x3dacc681	0.08436299
122	0x3b985480	0.004648745
123	0xbc89ba2c	-0.016812406
124	0x3c0d4260	0.008621782
125	0xbd39b0bc	-0.045334563
126	0x3d7952d2	0.06087
127	0x3cd69da4	0.026198216
128	0xbda75f81	-0.08172513
129	0x3d753f5a	0.05987487
130	0x3d8237a5	0.063582696
131	0x3bd5fae0	0.006530151
132	0xbdaeebbf	-0.08541059
133	0x3d9b61f3	0.07587042
134	0x3cc133b0	0.023584217
135	0xbd9604c8	-0.07325131
136	0x3bdfdc00	0.006831646
137	0xbcbe259c	-0.023211293
138	0x3d80758f	0.062724225
139	0xbbe106b0	-0.0068672523
140	0xbd0821a3	-0.033235203
141	0x3d3bcaba	0.045847632
142	0x3cb14420	0.02163893
143	0x3c4a3220	0.012341052
144	0xbd8e9521	-0.06962038
145	0xbda9c9bb	-0.0829043
146	0x3cda7208	0.026665702
147	0xba070f80	-0.0005152151
148	0xbc907384	-0.017633207
149	0xbbd988c0	-0.0066386163
150	0xbc525be0	-0.0128392875
151	0xbd0906a9	-0.033453617
152	0x3d41f63e	0.047353975
153	0xbcd5156c	-0.026011191
154	0xbcdd6a3c	-0.027028196
155	0xbd8ba552	-0.06818642
156	0x3c92a2d8	0.017899916
157	0xbcc8fc38	-0.02453433
158	0x3bae95c0	0.00532791
159	0xbd2c6845	-0.042091627
160	0x3d69775e	0.056998603
161	0xbccb626c	-0.024827205
162	0x3c88953e	0.016672727
163	0x3ced49f4	0.028965928
164	0xbcf038bf	-0.029323934
165	0x3b913340	0.0044311583
166	0xbb399090	-0.0028314926
167	0xbd3dfc50	-0.046383202
168	0xbd330219	-0.043703172
169	0xbdcc4564	-0.09974173
170	0xbd843e5f	-0.06457209
171	0xbe41b347	-0.18916045
172	0xbd93986a	-0.07206805
173	0xbd588992	-0.052865572
174	0xbde7e327	-0.11322623
175	0xbdaac29f	-0.08337902
176	0xbde351ab	-0.11099561
177	0xbd0d8bc4	-0.03455712
178	0xbd9e8435	-0.0774006
179	0xbe2bb1d0	-0.16767049
180	0xbc709092	-0.014682906
181	0xbd2d76d4	-0.04234965
182	0xbd5c6fb9	-0.053817485
183	0xbdeb7911	-0.11497701
184	0xbddf792e	-0.10911785
185	0xbd9a3b95	-0.075308956
186	0xbe30a084	-0.17248732
187	0xbddb91e5	-0.107211865
188	0xbe1ead15	-0.15495713
189	0xbd7e8d20	-0.062146306
190	0xbd129504	-0.035786644
191	0xbcf84f34	-0.030311204
192	0xbdabb490	-0.08384049
193	0xbd764d82	-0.06013251
194	0xbe3d669b	-0.18496172
195	0xbe18efe2	-0.14935258
196	0xbce81656	-0.028330963
197	0xbe281dd2	-0.16417626
198	0xbd9ec6a1	-0.07752729
199	0xbe28f28d	-0.16498776
200	0xbdc36fe2	-0.09542824
201	0xbdf92580	-0.12165356
202	0xbd24f720	-0.04027474
203	0xbd518c4c	-0.05115919
204	0xbd209b95	-0.039210875
205	0x3c5968b7	0.013269595
206	0xbdef21c9	-0.11676366
207	0xbdcad337	-0.09903567
208	0xbd22b0cb	-0.039719384
209	0xbe036305	-0.12830742
210	0xbd2d1cce	-0.0422638
211	0xbd37359f	-0.04472887
212	0xbe0c9d57	-0.13731895
213	0xbc9d148d	-0.019174838
214	0xbb21f643	-0.0024713434
215	0xbdb82b02	-0.08992578
216	0xbd1d477e	-0.03839826
217	0xbc652ebd	-0.013988194
218	0xbd8d3964	-0.06895712
219	0x3d1ad066	0.0377964
220	0xbd09d394	-0.033649042
221	0xbcbbe3ec	-0.02293583
222	0xbcb32ef8	-0.021872982
223	0x3d9ab001	0.07553101
224	0xbd307086	-0.04307606
225	0x3cd70a90	0.026250154
226	0xbd1362ad	-0.035982776
227	0x3d8a4eb1	0.067532904
228	0x3c66ebe8	0.01409433
229	0x3d596ce2	0.053082354
230	0xbd576a0d	-0.052591372
231	0x3d815be3	0.06316354
232	0x3d38affa	0.0450897
233	0xbd560cad	-0.052258182
234	0x3d47f072	0.04881329
235	0x3d6867ba	0.056739546
236	0xbd24f747	-0.040274885
237	0x3d51ef5e	0.05125367
238	0xbd8755a1	-0.06608129
239	0xbca5135c	-0.020150833
240	0xbda6741e	-0.08127616
241	0xbac804c0	-0.0015260205
242	0xbd9c6334	-0.07636109
243	0x3d9fc565	0.07801322
244	0x3daea9c9	0.08528478
245	0x3cd64b0c	0.026158832
246	0xbccac99c	-0.024754338
247	0xbc2165c0	-0.009850919
248	0xbd7c1cc0	-0.061550856
249	0xbd0ffc8f	-0.035152968
250	0xbc020d28	-0.007937707
251	0xbd992d32	-0.074793234
252	0x3d36c55a	0.044621803
253	0x3d6bad1e	0.057538144
254	0xbcf0201c	-0.029312186
255	0x3c2ef730	0.010679051

notes_encoder.bias f4 [64]
0	0xbd3012fe	-0.042986862
1	0xbe27f350	-0.1640141
2	0xbe22b294	-0.15888435
3	0x3e2df953	0.16989641
4	0xbd801690	-0.062543035
5	0xbe295951	-0.16537978
6	0xbe44216b	-0.19153373
7	0x3e054df8	0.13018024
8	0x3e1f7c8b	0.15574853
9	0x3d48bebc	0.049010023
10	0x3d880d7a	0.066431955
11	0x3da0f335	0.07858888
12	0xbcbd4e2e	-0.023108568
13	0x3e11bcbc	0.14232153
14	0x3db1c1ba	0.086795285
15	0xbe350e1e	-0.17681167
16	0xbe2ea048	-0.1705333
17	0xbe2bc858	-0.16775644
18	0xbe0f8ae8	-0.14017832
19	0x3e14717c	0.14496416
20	0xbe37122f	-0.1787803
21	0xbe194ea6	-0.14971408
22	0x3df7a1ec	0.12091431
23	0xbe5cd4ab	-0.21565501
24	0x3e46a2d3	0.1939805
25	0x3e503a63	0.20334773
26	0x3e478b67	0.19486772
27	0xbe4fee69	-0.2030579
28	0x3ccc0c59	0.024908232
29	0xbdd69872	-0.104782954
30	0x3d997f75	0.074950136
31	0xbe0d7b1f	-0.13816498
32	0x3d9f32ee	0.07773386
33	0x3e3ff85a	0.18747082
34	0xbd5ed583	-0.05440284
35	0xbdf194f6	-0.1179599
36	0x3cbf3f0e	0.023345497
37	0x3e012e83	0.12615399
38	0x3e14c82d	0.14529486
39	0xbded0700	-0.11573601
40	0xbd4c9708	-0.049948722
41	0xbe590f3d	-0.21197219
42	0x3d90d53c	0.07071921
43	0xbe228704	-0.15871817
44	0x3d996a95	0.07491032
45	0xbd78538c	-0.06062655
46	0x3e24dd92	0.16100147
47	0x3e0bdfed	0.1365964
48	0x3e1454e3	0.14485507
49	0x3e2b712a	0.16742387
50	0x3ce7e2e6	0.028306436
51	0x3e137e4c	0.14403647
52	0x3d8189aa	0.063250855
53	0x3e0d3984	0.13791472
54	0x3e339a31	0.17539288
55	0xbdd87f37	-0.10571139
56	0x3e2a53bb	0.16633503
57	0xbd3322c6	-0.043734334
58	0xbe064350	-0.13111615
59	0x3e2a7e07	0.16649638
60	0x3e363935	0.1779526
61	0x3e0f1ca7	0.13975774
62	0xbdef8ece	-0.1169716
63	0xbe54972c	-0.20760792

gru.weight_ih_l0 f4 [192, 64]
0	0x3d4ad86b	0.0495228
1	0x3e621628	0.22078764
2	0x3e73d67b	0.23812287
3	0xb8e7b971	-0.000110494795
4	0x3cb2991e	0.021801528
5	0x3e360701	0.1777611
6	0x3e0362cb	0.12830655
7	0xbc04e617	-0.008111498
8	0xbe6bea7f	-0.23038672
9	0xbc819a6e	-0.015820708
10	0x3d5edd32	0.054410167
11	0xbcc58c2b	-0.024114689
12	0x3d9b38c3	0.07579186
13	0xbe3fd11d	-0.18732114
14	0xbd679387	-0.056537177
15	0x3d38c00d	0.04510503
16	0x3e5672b0	0.20942187
17	0x3d260770	0.040534437
18	0x3e3eedff	0.18645476
19	0xbdde8859	-0.1086585
20	0x3ded809a	0.115967944
21	0x3e1d0b66	0.1533638
22	0xbd4f934a	-0.050677575
23	0x3e2cb543	0.16866021
24	0xbe62fdf0	-0.22167182
25	0xbde98d80	-0.11403942
26	0xbe32472e	-0.17409965
27	0x3e2b3405	0.16719063
28	0xbe120b7c	-0.14262193
29	0x3e24c081	0.1608906
30	0xbd42b436	-0.047535144
31	0x3d283ee3	0.0410756
32	0xbe393c30	-0.18089366
33	0xbd521775	-0.0512919
34	0x3e0cdf8a	0.13757148
35	0x3e25523c	0.16144651
36	0xbd7efaa0	-0.062250733
37	0xbe319336	-0.17341313
38	0xbe6e2e59	-0.23259868
39	0x3d2a755c	0.04161583
40	0x3df96347	0.12177139
41	0x3dd36ad3	0.103231095
42	0x3d05d593	0.032674383
43	0xbda99d8d	-0.082820036
44	0xbc01288a	-0.0078832
45	0x3d5926fa	0.053015687
46	0xbe0b36c0	-0.13595104
47	0xbc250e61	-0.010074229
48	0x3d31100e	0.0432282
49	0xbe5dc28c	-0.21656245
50	0xbded5110	-0.11587727
51	0xbe055dde	-0.13024089
52	0x3d529509	0.051411662
53	0xbe333035	-0.17498858
54	0xbdadd280	-0.08487415
55	0x3d8ba9d2	0.068195
56	0xbe282242	-0.16419318
57	0xbcd617f1	-0.026134463
58	0x3df21320	0.11820054
59	0xbde7dccc	-0.113214105
60	0xbe7d831c	-0.24757046
61	0xbdd39b5a	-0.10332365
62	0x3dcc3efb	0.0997295
63	0x3d203596	0.039113604
64	0x3d2c8089	0.04211477
65	0xbe686d92	-0.22698048
66	0xbda3986a	-0.07988055
67	0x3e241e1a	0.16027108
68	0xbe30db25	-0.17271097
69	0xbe159732	-0.14608458
70	0xbd2fe855	-0.04294618
71	0x3e346088	0.17614949
72	0xb9d60708	-0.000408225
73	0xbcb4edb5	-0.022086004
74	0x3c5b9161	0.01340136
75	0x3d81ab5f	0.063315146
76	0x3ca7b465	0.020471761
77	0x3dc5a762	0.09651066
78	0x3b92262e	0.004460118
79	0xbdd25328	-0.10269767
80	0xbbd26494	-0.0064206813
81	0x3c34d7ee	0.01103781
82	0x3b22003d	0.002471938
83	0x3e113079	0.14178647
84	0xbe5212b4	-0.20514947
85	0xbe5dbf30	-0.21654963
86	0xbce6edae	-0.028189506
87	0xbd4febcb	-0.05076198
88	0x3e5fe223	0.21863608
89	0x3dfad558	0.12247723
90	0x3e0053e6	0.12532005
91	0xbdc03ad4	-0.093862206
92	0x3e2403ab	0.16017024
93	0xbd8ea8e1	-0.06965805
94	0x3e383918	0.1799053
95	0xbdf9ae03	-0.12191393
96	0xbd15959f	-0.036519643
97	0x3d03ff86	0.032226108
98	0xbd166a34	-0.036722377
99	0xbd89d47d	-0.06729982
100	0x3dde2960	0.108477354
101	0x3e4266c6	0.18984517
102	0x3dc848d9	0.097795196
103	0xbe21c14f	-0.15796398
104	0xbe21754d	-0.15767403
105	0xbdf38368	-0.11890298
106	0x3d86d1eb	0.065830074
107	0x3c945aa0	0.01810962
108	0x3e2bd6d4	0.16781169
109	0x3dc567ae	0.09638916
110	0x3ddcfda6	0.10790567
111	0x3e1484f2	0.1450384
112	0x3e23a131	0.15979458
113	0x3e19a520	0.15004396
114	0x3d887875	0.066636
115	0x3e100d1a	0.14067498
116	0xbd2bcfdc	-0.041946277
117	0x3de6652d	0.112497665
118	0x3d02e339	0.031954978
119	0xbe0a6bdf	-0.13517712
120	0x3c5b2c8c	0.01337732
121	0xbdb543a1	-0.0885079
122	0xbd326672	-0.04355473
123	0xbb28a1d6	-0.0025731227
124	0x3e5ef9c5	0.21774967
125	0x3db2ce83	0.08730795
126	0xbd82bd9f	-0.063838236
127	0xbde99018	-0.11404437
128	0x3e70ea96	0.23526987
129	0xbdc187dc	-0.09449741
130	0xbe47e839	-0.1952218
131	0x3e0fc181	0.1403866
132	0xbe1a8348	-0.15089142
133	0x3ccbe2bb	0.024888387
134	0xbc881171	-0.01660988
135	0x3e2adeaa	0.16686502
136	0x3dbf4d5e	0.093409285
137	0x3e534891	0.2063315
138	0xbdfb4971	-0.12269867
139	0x3e23aa54	0.15982944
140	0xbd14075e	-0.03613984
141	0xbce44fd4	-0.027870096
142	0xbac327d3	-0.0014889188
143	0xbd347486	-0.044056438
144	0xbdb40827	-0.087906174
145	0xbcaf013f	-0.021362899
146	0x3d0b4442	0.034000643
147	0x3e0ba52f	0.13637231
148	0x3cae295d	0.021259958
149	0xbe43dec7	-0.19127952
150	0x3dd7bc5f	0.10533976
151	0xbe42d1e9	-0.19025387
152	0x3de35eef	0.111020915
153	0x3d5152cd	0.051104356
154	0x3def0f01	0.11672784
155	0xbdd58782	-0.10426237
156	0x3d7763cd	0.06039791
157	0xbcf9da76	-0.030499678
158	0x3e5161c4	0.20447451
159	0xbe39ba72	-0.1813753
160	0x3e204f17	0.1565517
161	0xbc79bc7e	-0.015242694
162	0xbd437d60	-0.04772699
163	0xba10e113	-0.0005526703
164	0x3e5dd60e	0.21663687
165	0x3d38d0bb	0.045120936
166	0x3e054aa8	0.1301676
167	0xbe0f3fe6	-0.13989219
168	0xb777609f	-1.4744844e-05
169	0xbe443dfd	-0.19164272
170	0x3cd5b931	0.026089283
171	0xbdfbbfc4	-0.12292436
172	0x3d1c5ef6	0.0381765
173	0xbdb93a50	-0.09044325
174	0x3c2107ee	0.009828551
175	0x3d646356	0.055758797
176	0xbe0155c7	-0.12630378
177	0x3d935247	0.071934275
178	0x3db0e655	0.08637682
179	0x3e485c5b	0.19566481
180	0x3e3579ce	0.17722246
181	0x3deb1929	0.11479408
182	0x3e1eebd0	0.15519643
183	0xbc9c3dcc	-0.019072436
184	0x3e340c9b	0.17582934
185	0xbdae322f	-0.085056655
186	0x3d03309a	0.032028772
187	0x3e34a9cc	0.17642897
188	0x3db8ed86	0.09029679
189	0x3d84ea24	0.06489971
190	0xbd5d28ff	-0.053994175
191	0xbe17f96d	-0.14841242
192	0x3e1b46c5	0.15163715
193	0xbdf47874	-0.11937037
194	0xbcce7989	-0.025204437
195	0x3d23a44e	0.039951615
196	0xbe5b1998	-0.21396482
197	0xbc580c18	-0.013186477
198	0xbe05fcc5	-0.13084705
199	0x3e27cbbf	0.16386317
200	0x3e40516b	0.18781058
201	0x3dbac74b	0.09120043
202	0xbda2d553	-0.079508446
203	0x3dffe3ec	0.124946445
204	0x3e5b5a5b	0.21421187
205	0x3e0d1a3e	0.13779542
206	0x3c971a11	0.018445047
207	0xbe0d93c3	-0.13825898
208	0xbe2e5447	-0.17024337
209	0xbde91aac	-0.113820404
210	0xbccb761a	-0.024836589
211	0x3d6d99b0	0.058007896
212	0xbe47cd05	-0.19511802
213	0xbd5547bb	-0.05207036
214	0x3dbe4d9d	0.09292147
215	0x3cf132e2	0.029443208
216	0x3db793ac	0.08963713
217	0x3bfb771b	0.0076741106
218	0xbd041ef0	-0.032256067
219	0xbb949f2b	-0.004535576
220	0x3e00a008	0.12561047
221	0xbdd3626e	-0.10321508
222	0x3e4e478a	0.20144477
223	0xbd9604cb	-0.07325133
224	0x3dc1048e	0.09424697
225	0x3e44495a	0.19168606
226	0xbdb93c6a	-0.09044726
227	0xbcbd9e39	-0.023146736
228	0x3e6479f0	0.2231214
229	0x3dd146b4	0.10218564
230	0x3e2eae72	0.17058733
231	0xbd38e667	-0.045141604
232	0xbdd7e600	-0.10541916
233	0xbe11b069	-0.14227451
234	0x3e1b6414	0.15174896
235	0xbde5973b	-0.112104855
236	0x3e13ea91	0.14444949
237	0xbdae9632	-0.08524741
238	0x3de6e330	0.11273801
239	0x3c179365	0.00925145
240	0xbe0c292c	-0.13687581
241	0x3daa780e	0.0832368
242	0x3bfba17d	0.007679163
243	0x3e427d15	0.18993028
244	0x3adafa62	0.00167067
245	0x3cd4f04d	0.02599349
246	0x3cc4b0c2	0.024010066
247	0xbe0e2273	-0.13880329
248	0x3debdb4e	0.115164384
249	0xbe3e595b	-0.18588774
250	0xbe55c913	-0.20877485
251	0xbcc79f5f	-0.024367986
252	0xbd007cc0	-0.03136897
253	0x3e2d3e57	0.16918312
254	0xbe030619	-0.12795295
255	0xbd82781e	-0.06370567

gru.weight_hh_l0 f4 [192, 64]
0	0x3d0bbf9b	0.034118276
1	0xbd3a97fb	-0.045555096
2	0xbe0d6d56	-0.1381124
3	0x3e4ea86a	0.20181432
4	0x3d98b079	0.074555345
5	0xbe136e87	-0.14397632
6	0xbdbc869c	-0.09205362
7	0x3e20317e	0.1564388
8	0x3e7e9e33	0.24865036
9	0xbd49bef3	-0.04925437
10	0xbda89b57	-0.08232754
11	0x3e002c24	0.12516838
12	0xba973cf3	-0.001153855
13	0xbe680465	-0.22657926
14	0x3c98062e	0.018557634
15	0xbd850dfb	-0.06496807
16	0x3d791111	0.06080729
17	0x3e6abac9	0.22922815
18	0xbddd03b3	-0.10791721
19	0xbcd90704	-0.026492603
20	0x3e1eb251	0.1549771
21	0xbe2c2791	-0.16811968
22	0xbe2ab6d4	-0.16671306
23	0xbe355789	-0.17709173
24	0x3bf83b69	0.0075754416
25	0x3e2f2f7c	0.17107958
26	0xbe2e1ab1	-0.1700237
27	0x3dcaac12	0.09896101
28	0x3c7fc58c	0.015611064
29	0x3e51f457	0.20503365
30	0xbe258c4b	-0.16166799
31	0xbe4460b8	-0.1917752
32	0x3c1f8d64	0.0097383
33	0x3e6e66d6	0.23281416
34	0xbd7ac078	-0.06121871
35	0xbd06e6dc	-0.03293501
36	0xbe3d50f1	-0.18487908
37	0x3e25a02b	0.1617438
38	0xbb67c60b	-0.0035365846
39	0x3e1c39f0	0.15256476
40	0x3dabce45	0.08388952
41	0xbe16ab18	-0.14713705
42	0x3d909305	0.07059292
43	0xbe186079	-0.14880551
44	0x3e2b589d	0.16733022
45	0x3d96e019	0.07366962
46	0xbdc1f97a	-0.09471412
47	0xbdaf6a9f	-0.08565258
48	0xbc349137	-0.01102095
49	0x3e309187	0.17243014
50	0xbe657137	-0.2240647
51	0x3e1fcd32	0.1560562
52	0x3dff45e7	0.12464505
53	0x3d718cbc	0.058972105
54	0xbd8e06c1	-0.06934882
55	0x3e48cadf	0.19608639
56	0x3aaa4a4f	0.0012992116
57	0xbd8a820a	-0.06763084
58	0x3e151587	0.14558993
59	0x3cc8c024	0.024505682
60	0xbdc9b1ea	-0.098483875
61	0xbddd6b9a	-0.10811539
62	0xbd93a171	-0.07208527
63	0xbe0d0377	-0.13770853
64	0xbd2c904d	-0.042129803
65	0x3d3671d1	0.044542138
66	0x3d8e585a	0.069504455
67	0xbdc77d7a	-0.0974073
68	0x3c876679	0.016528355
69	0x3dceadf6	0.10091774
70	0x3e581a2a	0.21103731
71	0xbce41817	-0.027843518
72	0xbd69cddb	-0.057081085
73	0x3e1e7fec	0.15478486
74	0x3d9c5230	0.076328635
75	0xbdc34b25	-0.09535817
76	0x3dbf5427	0.09342223
77	0x3dc67265	0.09689788
78	0xbe18225b	-0.14856856
79	0x3d982736	0.07429354
80	0x3ae6a025	0.0017595334
81	0xbe2c3675	-0.16817649
82	0x3d3a486e	0.04547923
83	0xbe2ad265	-0.16681822
84	0xbd9c4ac1	-0.07631446
85	0x3e63a9c3	0.22232728
86	0x3e32d385	0.17463501
87	0x3d5c5032	0.053787418
88	0xbc8e24c9	-0.017351525
89	0xbe0626bf	-0.13100718
90	0x3da27703	0.07932856
91	0xbd7e5cee	-0.062100343
92	0xbde85d60	-0.11345935
93	0xbdbbbba3	-0.09166648
94	0xbd2278b3	-0.03966589
95	0x3e06949e	0.1314263
96	0xbe19ad73	-0.15007572
97	0xbd90f296	-0.070775196
98	0x3cb395ad	0.021921957
99	0x3e50931f	0.20368622
100	0x3e55a732	0.20864561
101	0xbde81fe0	-0.11334205
102	0xbe37a37a	-0.17933455
103	0x3b0e7df5	0.0021742557
104	0xbe635201	-0.22199251
105	0xbbdac912	-0.0066768015
106	0xbe511040	-0.20416355
107	0x3e4149ed	0.18875857
108	0xbd26dbc7	-0.04073694
109	0xbda0d601	-0.07853318
110	0x3e2678a0	0.16256952
111	0x3d892577	0.06696599
112	0xbd631e4b	-0.05544881
113	0xbdb0de3e	-0.08636139
114	0xbd2f8411	-0.042850558
115	0xbde01307	-0.10941129
116	0xbc9ac753	-0.018893873
117	0x3cd3e7ce	0.025867369
118	0x3e1dd59e	0.1541352
119	0xb9c4356a	-0.0003742383
120	0xbe1de5c4	-0.1541968
121	0xbe029e24	-0.12755638
122	0xbe360d1d	-0.1777844
123	0x3d76bbd6	0.060237728
124	0x3d52d14f	0.051469143
125	0x3e51a9a0	0.20474863
126	0xbaaf165c	-0.0013358104
127	0x3e4514ed	0.19246264
128	0xbe8acf78	-0.2711141
129	0x3dbf8a5e	0.09352563
130	0xbdd9872f	-0.10621487
131	0x3c506e72	0.012721645
132	0xbe3f5a0e	-0.18686697
133	0x3e28e94e	0.16495249
134	0xbc30c351	-0.010788755
135	0xbcee5031	-0.029090973
136	0xbe6a2ade	-0.22867915
137	0x3db0797d	0.08616922
138	0x3da4295c	0.08015701
139	0x3e113edb	0.14184134
140	0x3e5a648d	0.2132742
141	0xbbdda522	-0.00676407
142	0xbe765c95	-0.24058755
143	0x3e2c9937	0.16855322
144	0xbde6ca3d	-0.11269043
145	0xbe2e4bd5	-0.17021115
146	0x3de84712	0.113416806
147	0xbcb21b9f	-0.021741686
148	0xbcb59d8d	-0.022169853
149	0x3d806c5b	0.06270667
150	0x3e0dde8c	0.13854426
151	0x3d79a900	0.060952187
152	0xbe585f26	-0.21130046
153	0xbe6f4494	-0.23366004
154	0x3d9ce627	0.076610856
155	0xbdcce97a	-0.100054696
156	0xbe44ef2b	-0.1923186
157	0xbdf81c29	-0.12114746
158	0x3e62a9e2	0.22135118
159	0x3df59ffd	0.11993406
160	0xbdb7cf61	-0.08975101
161	0xbe673c82	-0.22581676
162	0x3dbeef8b	0.09323033
163	0xbcae7f1f	-0.02130085
164	0x3e59160b	0.21199815
165	0xbe2c66e1	-0.1683612
166	0xbe234b4f	-0.15946697
167	0xbb9104ec	-0.0044256356
168	0xbd64344d	-0.05571394
169	0x3d51e377	0.051242318
170	0xbdcb507f	-0.09927463
171	0x3d9c960f	0.07645809
172	0xbd010d52	-0.031506844
173	0xbd77c417	-0.06048974
174	0x3e4b1e80	0.19835854
175	0x3d4f3829	0.050590668
176	0x3e392939	0.18082131
177	0x3c8f0b72	0.017461512
178	0x3e0b3439	0.1359414
179	0xbe656e0c	-0.22405261
180	0xbdc58fdb	-0.09646579
181	0xbdd916e6	-0.10600071
182	0xbc41efee	-0.011836989
183	0xbde91af9	-0.11382098
184	0xbe0b0733	-0.13576965
185	0x3e59b727	0.21261273
186	0xbe0f5c42	-0.14000037
187	0xbcc25852	-0.023723755
188	0x3d6b0619	0.057378862
189	0xbc478384	-0.012177352
190	0x3e7ad7cf	0.24496387
191	0x3d91f442	0.071266666
192	0xbe0e6993	-0.13907461
193	0x3dc60dfd	0.09670637
194	0xbe13eb6e	-0.14445278
195	0xbe2619d9	-0.16220798
196	0x3c404f7e	0.011737702
197	0x3e0ea927	0.13931714
198	0x3e30a6e5	0.17251165
199	0x3c9f8db9	0.019476758
200	0xbbff6108	-0.0077935494
201	0xbc888675	-0.016665677
202	0x3c3c6bf4	0.011500347
203	0xbba5a5ea	-0.005055179
204	0x3e4ee776	0.20205483
205	0xbc7d6e43	-0.015468183
206	0xbe061f12	-0.1309779
207	0x3e3c4d1c	0.1838879
208	0xbd12b821	-0.03582013
209	0x3ca85666	0.02054901
210	0x3e28d027	0.16485654
211	0xbe46c0b8	-0.19409454
212	0xbb25e8b7	-0.002531571
213	0x3e3e8edb	0.18609183
214	0x3d440fde	0.047866695
215	0x3e13d421	0.1443639
216	0x3d0e4003	0.034729015
217	0xbc2f7f4f	-0.010711505
218	0x3d988714	0.07447639
219	0xbd819b86	-0.06328492
220	0xbb282fc3	-0.0025663234
221	0xbd078b28	-0.033091694
222	0x3d9b359d	0.07578585
223	0x3dc8951f	0.097940676
224	0xbe1f0581	-0.15529443
225	0x3c2d1d3a	0.01056605
226	0x3e315927	0.17319165
227	0xbc186675	-0.009301771
228	0x3e51c40a	0.20484939
229	0xbc13a498	-0.00901141
230	0xbd390375	-0.045169313
231	0xbe4877ce	-0.19576952
232	0xbe127091	-0.14300753
233	0x3e21de1a	0.15807381
234	0xbdcc3bfc	-0.099723786
235	0x3e1305d6	0.14357695
236	0xbe15e0ad	-0.14636488
237	0xbe3d28a2	-0.18472531
238	0xbce825ee	-0.028338399
239	0x3d7408ed	0.059578825
240	0x3da92ae3	0.08260133
241	0xbdb8488d	-0.08998213
242	0x3e0d568c	0.13802546
243	0x3b7a0cf9	0.0038154705
244	0xbe3cba07	-0.18430339
245	0xbe73b22c	-0.23798436
246	0x3d49dd54	0.04928334
247	0xbd40a556	-0.047032677
248	0xbdc11cf1	-0.09429348
249	0x3dae0849	0.08497674
250	0xbda3436c	-0.07971844
251	0xbdc58614	-0.09644714
252	0x3dc7ab4a	0.09749468
253	0x3e396025	0.18103082
254	0x3e035187	0.12824069
255	0x3ca48705	0.020083914

gru.bias_ih_l0 f4 [192]
0	0xbe4c0420	-0.19923449
1	0x3e167fa1	0.14697124
2	0xbd0e05c2	-0.03467346
3	0x3e25f34d	0.16206093
4	0x3c6fd1c9	0.014637419
5	0x3dc0979f	0.094039194
6	0x3d9c1924	0.07621983
7	0x3da8e139	0.08246083
8	0x3d9e02ac	0.07715353
9	0x3df3956c	0.11893734
10	0x3d9028dc	0.07039043
11	0xbdfd8526	-0.12378912
12	0x3e0419b5	0.12900431
13	0x3e58a9cd	0.21158524
14	0x3ddee344	0.10883191
15	0x3e145dd9	0.14488925
16	0x3e3bdf00	0.18346786
17	0x3d8bdd1d	0.068292834
18	0xbd89a76b	-0.067213856
19	0x3e1d5365	0.15363844
20	0x3d29b4dc	0.041432247
21	0x3df3cf2d	0.1190475
22	0x3e1f0e84	0.15532881
23	0x3e115bbe	0.14195153
24	0x3dc3c91d	0.09559844
25	0x3d3c40cf	0.045960244
26	0xbd09ce5e	-0.033644073
27	0x3c305658	0.010762773
28	0x3e3dbeee	0.18529865
29	0x3bad539b	0.0052895076
30	0x3d222a44	0.03959109
31	0x3d89aed4	0.06722799
32	0x3e3699ef	0.17832159
33	0x3dd80033	0.10546913
34	0x3e1d3527	0.15352307
35	0xbd642b32	-0.055705257
36	0x3dda294e	0.106524095
37	0x3d44c636	0.04804059
38	0x3df468d6	0.11934058
39	0x3e72409e	0.23657462
40	0x3e370522	0.17873052
41	0x3cb66905	0.022266874
42	0x3d7e4065	0.06207313
43	0xbcc3cbb7	-0.02390085
44	0x3d700c59	0.058605526
45	0xbc0f51c0	-0.008747518
46	0xbd13d47f	-0.036091324
47	0xbd007378	-0.03136012
48	0xbce8721a	-0.02837472
49	0x3d40a286	0.047029994
50	0x3ddfb4b5	0.10923139
51	0x3e6c1f8c	0.23058909
52	0x3e23d667	0.15999757
53	0x3d018765	0.031623263
54	0x3e120b5e	0.14262149
55	0x3d934687	0.071911864
56	0xbcc7b47a	-0.02437805
57	0xbe1fbe4e	-0.15599939
58	0x3e3a56d8	0.18197191
59	0x3c190d3f	0.009341537
60	0x3db8c5e2	0.09022118
61	0x3b8c1e6c	0.0042760875
62	0x3dff7d65	0.12475089
63	0xbcc0c408	-0.023530975
64	0xbe46e507	-0.19423304
65	0x3d28d7b0	0.04122132
66	0x3ebf98e9	0.3742135
67	0x3e39b684	0.1813603
68	0xbde51def	-0.1118735
69	0xbe0bf687	-0.13668261
70	0x3bf147da	0.0073633017
71	0xbcaf34ac	-0.02138742
72	0x3dc5a24f	0.096500985
73	0xbe91ad9f	-0.28452775
74	0xbd97b002	-0.07406618
75	0xbdebc7c5	-0.115127124
76	0xbe863c71	-0.26217988
77	0xbe2ef4b7	-0.17085539
78	0xbd6acfb7	-0.057327
79	0xbe1e6c91	-0.15471102
80	0x3d47912e	0.04872244
81	0xbdba709b	-0.09103509
82	0xbc32572a	-0.010885039
83	0xbd93e02b	-0.07220491
84	0x3e19fda7	0.15038167
85	0x3ca8fa1e	0.020627078
86	0xbc00efdf	-0.00786969
87	0xbe1181f8	-0.14209735
88	0xbcb636c2	-0.022242907
89	0xbd8ebcbc	-0.06969592
90	0x3b37b136	0.002802921
91	0x3de0c20b	0.10974511
92	0xbbfbe7ec	-0.0076875594
93	0x3c9b1bad	0.018934095
94	0xbd399d01	-0.045315746
95	0xbe76e18f	-0.24109481
96	0x3e071114	0.13190109
97	0xbcc5e0d4	-0.024155058
98	0x3e730e89	0.23736013
99	0xbe36f942	-0.17868522
100	0xbe2d784b	-0.1694042
101	0xbe341517	-0.1758617
102	0x3ce003d2	0.027345572
103	0x3e891908	0.2677691
104	0xbddfc4bc	-0.10926196
105	0x3df58741	0.11988688
106	0x3d70b0da	0.05876241
107	0x3d62ca18	0.055368513
108	0x3ce820de	0.028335985
109	0xbd0e457e	-0.03473424
110	0xbccbb630	-0.024867147
111	0x3d1f2eda	0.03886304
112	0xbe649755	-0.22323354
113	0x3d9977ca	0.07493551
114	0x3e1b602c	0.15173405
115	0xbd966cca	-0.073449686
116	0xbe2e3c6a	-0.17015234
117	0x3d87da45	0.066334285
118	0x3d92a2f5	0.07159988
119	0xbd07aded	-0.033124853
120	0xbd921157	-0.071322136
121	0xbbd68642	-0.0065467665
122	0x3e0689a5	0.13138445
123	0x3e5bb387	0.21455203
124	0xbe2ec62a	-0.17067781
125	0xbd43df4d	-0.047820378
126	0xbdcd980c	-0.10038766
127	0x3db4005e	0.087891325
128	0xbdd73123	-0.10507419
129	0x3de0c817	0.10975664
130	0x3c949d7a	0.018141497
131	0xbe07e726	-0.1327177
132	0xbe2ca2fe	-0.16859052
133	0x3e14c708	0.1452905
134	0x3de1d7d5	0.11027495
135	0xbe542879	-0.20718564
136	0xbe272b42	-0.16325095
137	0x3e2e7c53	0.17039613
138	0x3e6468e6	0.2230564
139	0xbcbd3591	-0.023096832
140	0x3e1f41ef	0.15552495
141	0x3e1281d5	0.1430734
142	0xbe2b8221	-0.16748859
143	0x3e1b7a7c	0.15183443
144	0xbe29c81b	-0.1658024
145	0xbe236576	-0.15956673
146	0x3c5339cd	0.012892199
147	0x3c34e7ca	0.011041591
148	0xbe322e23	-0.17400412
149	0x3e29e0d9	0.16589679
150	0x3e48afb6	0.19598278
151	0x3e3ce83f	0.1844797
152	0xbe092d9b	-0.13396303
153	0x3cfa0075	0.030517796
154	0x3e0d4a09	0.13797773
155	0xbe5f68b3	-0.21817283
156	0xbe42ade9	-0.19011654
157	0xbe0b2902	-0.13589862
158	0x3e26f8c6	0.16305837
159	0x3e4dc848	0.20095932
160	0xbe83b985	-0.25727478
161	0xbe740a45	-0.23832043
162	0xbc39a7b8	-0.011331491
163	0x3e4edf62	0.20202401
164	0x3e1c2b5a	0.15250912
165	0xbe1971be	-0.14984795
166	0xbe1704d0	-0.1474793
167	0xbd1155ab	-0.03548209
168	0xbe450bd1	-0.19242789
169	0x3dadcdb6	0.08486502
170	0xbc55b3ab	-0.013043324
171	0x3e3875bd	0.18013664
172	0xbe1251a8	-0.14288962
173	0xbe2b9b33	-0.16758423
174	0x3e6d1466	0.23152313
175	0x3d2727b6	0.040809356
176	0x3dd51991	0.10405267
177	0xbcfcfa59	-0.030881094
178	0x3e0ba1db	0.13635962
179	0xbdf75c32	-0.12078132
180	0xbe69f47b	-0.22847168
181	0xbd8fefc9	-0.07028157
182	0x3e36aa89	0.17838491
183	0xbe609089	-0.21930136
184	0xbe027f9b	-0.1274399
185	0x3df128ba	0.11775346
186	0xbdfbbab5	-0.12291471
187	0xbd5fffc1	-0.054687265
188	0x3dcdf608	0.10056692
189	0x3e5e6a13	0.21720152
190	0x3e3f1c5c	0.18663162
191	0x3e633ece	0.22191927

gru.bias_hh_l0 f4 [192]
0	0xbdfcd464	-0.12345198
1	0x3e51beba	0.20482913
2	0x3cc157ff	0.02360153
3	0xbb6a2eea	-0.003573353
4	0x3e08097d	0.1328487
5	0x3e483ac0	0.19553661
6	0x3da6b1df	0.08139395
7	0x3db9eab4	0.09077969
8	0x3e499c24	0.19688469
9	0x3dce6b6e	0.10079084
10	0x3d5535b1	0.052053157
11	0xbd072386	-0.032992862
12	0x3e0f85d8	0.14015901
13	0x3d69b10a	0.057053603
14	0x3e1f6c05	0.1556855
15	0x3d62fdb8	0.055417746
16	0x3e4eb8e4	0.20187718
17	0x3dc0138e	0.0937873
18	0xbe2b47ba	-0.1672658
19	0x3e231747	0.15926848
20	0xbde28227	-0.11059981
21	0x3d8220de	0.06353925
22	0x3bac5819	0.0052595255
23	0x3e365d81	0.17809106
24	0x3e0578be	0.1303434
25	0x3d63c763	0.055610072
26	0x3e36b01e	0.17840621
27	0x3d55860e	0.052129798
28	0x3cd7e6d8	0.026355192
29	0x3e082a3a	0.13297358
30	0xbb3b6ae3	-0.0028597645
31	0x3e174ddd	0.14775796
32	0xbc6a0aaa	-0.014284769
33	0x3e69d152	0.22833756
34	0x3d4cae74	0.04997106
35	0x3bf74930	0.0075465664
36	0x3e57db9b	0.21079867
37	0x3e404b12	0.18778637
38	0x3e058192	0.13037708
39	0x3df181ab	0.1179231
40	0x3dd493ba	0.10379739
41	0x3e25f51d	0.16206785
42	0x3cf840ca	0.030304331
43	0x3d8efb41	0.06981517
44	0x3e38b9e1	0.18039657
45	0x3c7d7264	0.015469167
46	0x3a463193	0.0007560488
47	0xbcb6826c	-0.022278987
48	0xbd74a76d	-0.059729982
49	0xbbd410a6	-0.006471711
50	0x3e3b55e5	0.18294485
51	0x3cf9b2b0	0.030480713
52	0x3db70eae	0.08938347
53	0x3ccccd79	0.02500032
54	0x3e07b2ba	0.13251773
55	0x3e3a3c2e	0.18187019
56	0xbc324159	-0.010879838
57	0xbdfe4cb8	-0.12416977
58	0x3daebd98	0.08532256
59	0xbd390722	-0.045172818
60	0x3e15e3cc	0.14637679
61	0x3dedf021	0.116180666
62	0xbd39bfae	-0.045348816
63	0x3cb37b38	0.021909341
64	0x3b88dd72	0.004176789
65	0xbdd2717e	-0.10275553
66	0x3eea922f	0.45814654
67	0x3ea9318c	0.33045614
68	0x3d1a38dd	0.037651885
69	0xbe0b87d5	-0.13626035
70	0xbe3bfea9	-0.18358864
71	0xbe829a75	-0.25508466
72	0x3db8e527	0.09028082
73	0xbe312496	-0.17299113
74	0xbe3ff203	-0.18744664
75	0xbd373d60	-0.044736266
76	0xbe7137d2	-0.2355645
77	0xbda72e90	-0.08163178
78	0xbe2fe449	-0.17176928
79	0xbd3c6558	-0.045995086
80	0xbd8d73fa	-0.069068864
81	0xbe00718a	-0.12543312
82	0xbe5d7a5c	-0.21628708
83	0xbe4a72d5	-0.19770367
84	0x3e3f0a4b	0.1865627
85	0xbd4a847a	-0.049442746
86	0xbcbfe617	-0.023425145
87	0xbd7b79ab	-0.06139533
88	0xbe0afa6e	-0.13572094
89	0xbe3ef967	-0.18649827
90	0xbc795a55	-0.015219291
91	0xbd123f7e	-0.035705082
92	0xbdfea778	-0.12434286
93	0x3de830c0	0.11337423
94	0x3e09aa10	0.1344378
95	0xbe86c757	-0.2632396
96	0x3d929fc6	0.071593806
97	0x3d11d51f	0.03560364
98	0x3e2655ab	0.16243617
99	0xba45397f	-0.0007523521
100	0xbdf65c7e	-0.1202936
101	0xbe024e1e	-0.12725112
102	0xbe0477a2	-0.12936261
103	0x3ebf0d40	0.37314796
104	0xbe15483b	-0.14578335
105	0x3ccbd275	0.024880627
106	0x3d7e921a	0.062151052
107	0xbd6a4db0	-0.057202995
108	0xbe1a7c87	-0.15086566
109	0xbd69cac2	-0.05707813
110	0xbdad8aba	-0.084737256
111	0x3d42006a	0.047363676
112	0xbd9b6eba	-0.07589479
113	0xbcff495f	-0.031162916
114	0x3e58eb80	0.21183586
115	0xbc443b6a	-0.011977056
116	0xbd49355b	-0.04912315
117	0xbe2f1466	-0.17097625
118	0xbc69566f	-0.014241799
119	0x3c826f7a	0.015922297
120	0xbe14039e	-0.14454505
121	0xbdf1b446	-0.118019626
122	0xbb7c104e	-0.0038461867
123	0x3e34a07b	0.17639343
124	0xbc8d6458	-0.017259762
125	0x3e202c73	0.15641956
126	0x3cbba973	0.022907948
127	0x3dbc51ad	0.09195266
128	0xbe3226f6	-0.17397675
129	0x3e529f70	0.20568633
130	0xbdd1d1ae	-0.10245071
131	0xbbcf740f	-0.006330974
132	0xbe5fe49b	-0.2186455
133	0x3e6d4777	0.23171793
134	0x3e394eea	0.1809651
135	0xbd283a79	-0.04107139
136	0xbe59ed89	-0.21282019
137	0x3e733e35	0.23754199
138	0x3e137d4d	0.14403267
139	0xbc875910	-0.01652196
140	0x3e681ca0	0.2266717
141	0x3e3a7a1f	0.18210648
142	0xbd4faa0e	-0.050699286
143	0x3e4cbef9	0.19994725
144	0xbe1eabb2	-0.15495184
145	0xbd1913a3	-0.037372243
146	0x3dd12ab6	0.102132246
147	0xbdd1ece3	-0.10250261
148	0xbe0cf7c8	-0.13766396
149	0x3e0b3a35	0.13596423
150	0x3e47ef4f	0.19524883
151	0x3c9d4d05	0.019201765
152	0xbe0e389a	-0.1388878
153	0xbe0e4044	-0.13891703
154	0x3e3e3e85	0.18578537
155	0xbe10103e	-0.14068696
156	0xbe0f0c6e	-0.13969585
157	0xbe434cdb	-0.19072287
158	0x3c109fd5	0.008827169
159	0x3db0d5db	0.0863454
160	0xbc8bda26	-0.017071795
161	0xbe60bc12	-0.21946743
162	0xbd8c9d2e	-0.06865917
163	0x3c88da0e	0.01670554
164	0x3e1b94fd	0.15193553
165	0xbdf9728a	-0.1218005
166	0xbd069873	-0.03286023
167	0xbdac375a	-0.08408995
168	0xbab2888b	-0.0013621015
169	0x3e3ad678	0.18245876
170	0xbde11c40	-0.109917164
171	0x3e043bba	0.12913409
172	0xbe239946	-0.15976438
173	0xbe3d6698	-0.18496168
174	0x3dcad31b	0.099035464
175	0x3dfe4959	0.12416334
176	0x3b965cfb	0.004588721
177	0xbe09d322	-0.13459447
178	0xbd12b26d	-0.03581469
179	0xbe762e24	-0.24041039
180	0xbe195fec	-0.14977998
181	0xbe19db0d	-0.15024967
182	0x3db96cc6	0.0905395
183	0xbb910242	-0.004425318
184	0xbdcd26c1	-0.10017157
185	0xbb37e0bd	-0.0028057538
186	0xbe0bb753	-0.13644151
187	0x3dbc351a	0.09189816
188	0x3e6b71f8	0.22992694
189	0x3d5a8748	0.05335167
190	0x3e19c1b2	0.15015295
191	0x3c3acf39	0.011401945

notes_decoder.weight f4 [128, 64]
0	0x3d8b3648	0.06797463
1	0xbdc3a607	-0.095531516
2	0x3e1fe05c	0.1561293
3	0x3e38f195	0.18060906
4	0x3e3e49d0	0.18582845
5	0xbd6b2feb	-0.057418745
6	0xbd4333b8	-0.047656745
7	0x3d9bc8bb	0.07606646
8	0x3e113382	0.14179805
9	0xbe461678	-0.19344509
10	0xbe8c62b6	-0.2741906
11	0x3c8fa2d7	0.017533703
12	0xbdac8423	-0.084236406
13	0xbe911b0a	-0.28340942
14	0x3d5d8ef1	0.054091398
15	0xbe5e4eca	-0.21709743
16	0x3e6f1b93	0.23350362
17	0x3d9c71ba	0.07638879
18	0x3d8664d1	0.06562198
19	0x3d2edcad	0.04269092
20	0x3e95203e	0.2912616
21	0xbe3bc951	-0.18338515
22	0xbe8e352e	-0.27774948
23	0xbe2b016b	-0.1669976
24	0x3e91747d	0.28409186
25	0x3e4a7d44	0.19774348
26	0xbe410147	-0.18848144
27	0x3e454e75	0.1926821
28	0x3e26dc45	0.16294964
29	0x3e04e8ee	0.1297948
30	0xbe379512	-0.1792796
31	0xbe026fca	-0.12737957
32	0x3e1a2ef6	0.15056977
33	0x3e13e479	0.14442624
34	0xbd936c90	-0.07198441
35	0xbe8719e5	-0.26386943
36	0xbe3e8bd3	-0.18608026
37	0x3e46f936	0.19431004
38	0x3e1cacb2	0.15300253
39	0x3e64feb2	0.22362784
40	0x3dc8c0fa	0.09802432
41	0xbe46d563	-0.19417338
42	0x3e0d81bc	0.13819021
43	0xbe78116e	-0.24225399
44	0x3d52ee91	0.051497046
45	0x3e8fd436	0.28091592
46	0xbe30e6ad	-0.17275496
47	0xbe58d8ab	-0.21176402
48	0x3ceee63c	0.029162519
49	0x3e365a85	0.17807968
50	0xbdf7dd8d	-0.12102804
51	0x3e65ed43	0.2245379
52	0x3e12a7a5	0.14321764
53	0x3e0270e3	0.12738375
54	0xbe41fc43	-0.18943886
55	0x3dff524e	0.1246687
56	0x3e7e13a6	0.24812183
57	0xbe012839	-0.12613
58	0x3e0eefde	0.1395869
59	0x3db7041d	0.089363314
60	0xbde7bcb7	-0.113152914
61	0xbdfed580	-0.12443066
62	0xbde8a0db	-0.11358806
63	0xbd8b8dbb	-0.06814142
64	0x3d4a3d02	0.049374588
65	0xbd8327ae	-0.06404053
66	0x3d20ebe4	0.039287463
67	0x3e492b4c	0.19645423
68	0x3df9a9c8	0.12190586
69	0xbe8ed8c4	-0.27899754
70	0xbde35275	-0.11099712
71	0x3e162e2b	0.14666049
72	0x3e2dae03	0.16960911
73	0xbe864c96	-0.26230305
74	0xbe1f5947	-0.155614
75	0x3de3e27d	0.111271836
76	0xbdb12531	-0.08649672
77	0xbd979377	-0.074011736
78	0x3e8d6683	0.27617273
79	0xbe2317b3	-0.1592701
80	0x3e95bb7a	0.29244596
81	0x3e8b8ce6	0.27255934
82	0xbcf43a4a	-0.02981295
83	0x3e14ae49	0.1451961
84	0x3e494bcf	0.19657825
85	0xbdfa6488	-0.12226206
86	0xbdcb8630	-0.099377036
87	0xbe5e1f36	-0.21691594
88	0x3dbab8e6	0.09117298
89	0x3e65c924	0.2244001
90	0xbe4ee0b3	-0.20202903
91	0x3e3fb56a	0.18721548
92	0x3e948559	0.29007986
93	0x3e08502c	0.13311833
94	0xbe2051bc	-0.15656179
95	0xbe470547	-0.19435607
96	0x3e1aa02c	0.15100163
97	0x3e080dc6	0.13286504
98	0xbd2522d9	-0.040316436
99	0xbe292828	-0.16519225
100	0xbe514b69	-0.20438923
101	0x3e5a81a9	0.21338524
102	0x3e0ad95e	0.13559482
103	0x3e3bbe54	0.18334323
104	0x3e39ab23	0.1813169
105	0xbe5c5011	-0.21514918
106	0x3d545438	0.05183813
107	0xbdab42d0	-0.08362353
108	0x3e8ed9c2	0.2790051
109	0x3dcb7d13	0.099359654
110	0xbe521079	-0.20514096
111	0xbd69fbdc	-0.057124957
112	0x3c8d3bbc	0.017240398
113	0x3dbba357	0.09162014
114	0xbe1aeccd	-0.15129395
115	0x3e2bb15c	0.16766876
116	0x3e2acc62	0.16679528
117	0x3e4c5e5f	0.19957875
118	0xbe5aa9ef	-0.21353887
119	0x3e223e07	0.15843974
120	0x3e92c90f	0.2866902
121	0x3b1dba4c	0.002406734
122	0x3e6c1cc0	0.23057842
123	0x3d097e39	0.03356764
124	0xbe8456be	-0.2584743
125	0xbd853167	-0.065035634
126	0xbe1012d1	-0.14069678
127	0xbe05e37c	-0.1307506
128	0xbd0d20b4	-0.034455016
129	0xbe54b706	-0.20772943
130	0x3e34484d	0.17605706
131	0x3e75abdb	0.23991339
132	0x3e84fc10	0.25973558
133	0xbdbb5837	-0.09147685
134	0xbd96b2e3	-0.07358339
135	0x3e5928cb	0.21206968
136	0x3e98d951	0.298533
137	0xbd9c3a7b	-0.07628342
138	0xbe2adf1f	-0.16686676
139	0xbd9abaa8	-0.07555133
140	0xbe89a2ff	-0.2688217
141	0xbe8a0e00	-0.26963806
142	0x3e144f81	0.14483453
143	0xbdeb46ee	-0.11488138
144	0x3dbc1e55	0.09185473
145	0x3db34812	0.08753981
146	0x3c98b454	0.018640675
147	0x3ccb1564	0.024790473
148	0x3e5c1004	0.21490484
149	0xbddd1534	-0.1079506
150	0xbe2cf4eb	-0.16890304
151	0xbe77c3f9	-0.24195851
152	0x3e8ddba5	0.27706638
153	0x3e601729	0.21883835
154	0xbe4d88cf	-0.2007172
155	0x3e6f4f8f	0.23370193
156	0x3e743164	0.23846966
157	0x3e498416	0.19679293
158	0xbe323e6d	-0.17406626
159	0xbe432308	-0.19056332
160	0x3db9e154	0.09076181
161	0x3dc41ed3	0.09576192
162	0xbe40e885	-0.18838699
163	0xbe5f1e8e	-0.21789
164	0xbe529c19	-0.20567359
165	0x3e2bb77f	0.16769217
166	0x3e223856	0.15841803
167	0x3e30e9d2	0.17276695
168	0x3e4fab00	0.20280075
169	0xbd5e1fc3	-0.05422951
170	0x3d7c0ad6	0.06153377
171	0xbde4d86a	-0.1117409
172	0x3e908250	0.2822442
173	0x3e3e4fdf	0.18585156
174	0xbe8298a8	-0.25507092
175	0xbd62f1c1	-0.055406336
176	0x3decc980	0.115618706
177	0x3e020d43	0.12700371
178	0xbe53837c	-0.20655626
179	0x3e1db7aa	0.15402094
180	0x3e8056f4	0.2506634
181	0x3e4bc8d5	0.1990083
182	0xbdc675c8	-0.09690434
183	0x3e08f8fd	0.13376231
184	0x3e2ef5d7	0.17085968
185	0xbd0d6b61	-0.034526233
186	0x3db37f2c	0.087644905
187	0x3e161976	0.1465815
188	0xbd103517	-0.03520688
189	0xbd921360	-0.07132602
190	0xbdc3cd60	-0.095606565
191	0xbe30aead	-0.17254134
192	0x3d3e76a1	0.046499852
193	0xbe2b7c6e	-0.16746685
194	0x3e6aa660	0.2291503
195	0x3dc9a6d3	0.09846272
196	0x3dbd2127	0.09234839
197	0xbe1481d2	-0.14502648
198	0xbd9f3e9b	-0.07775613
199	0x3da61ee2	0.08111359
200	0x3e7ebd00	0.24876785
201	0xbe01ad85	-0.12663849
202	0xbe6ae8bf	-0.22940348
203	0x3d582a73	0.052774858
204	0xbe80b85d	-0.25140658
205	0xbd85d91b	-0.0653555
206	0x3e8c0f93	0.27355632
207	0xbe13d970	-0.14438415
208	0x3e0cabc7	0.13737403
209	0x3da37151	0.07980598
210	0x3d928211	0.071537144
211	0x3e7159a0	0.23569345
212	0x3e0372f3	0.12836818
213	0xbdf0e0c7	-0.11761623
214	0xbe8f3c29	-0.27975586
215	0xbda611e6	-0.081088826
216	0x3e67c19c	0.2263245
217	0x3e65ef8c	0.22454661
218	0xbd580010	-0.052734435
219	0x3e976c74	0.2957493
220	0x3dbe511d	0.09292815
221	0x3e879bbd	0.26486006
222	0xbe3fcd40	-0.1873064
223	0xbe94ef61	-0.29088882
224	0x3e660158	0.2246145
225	0x3e90d743	0.28289232
226	0xbdbb02ea	-0.09131415
227	0xbe7f8ee6	-0.24956855
228	0xbd974a30	-0.07387197
229	0x3e3ab5e6	0.18233451
230	0x3e8e5655	0.2780024
231	0x3e2827ea	0.16421476
232	0x3e808e31	0.25108483
233	0xbe042a43	-0.12906747
234	0xbbba02f5	-0.005676622
235	0xbdf58d2c	-0.11989817
236	0x3e4c74a1	0.19966365
237	0x3dec3d7e	0.11535166
238	0xbe920a23	-0.2852336
239	0xbe293f72	-0.16528109
240	0xbd79db1f	-0.060999986
241	0x3db06906	0.08613782
242	0xbe5c2e49	-0.21502031
243	0x3d74f5c1	0.05980468
244	0x3d622118	0.055207342
245	0x3e05a74d	0.13052101
246	0xbd9c55d9	-0.07633562
247	0x3e43b64e	0.19112512
248	0x3e151f52	0.14562729
249	0x3d0c6189	0.034272704
250	0x3e8b6761	0.2722731
251	0xbc36d245	-0.011158531
252	0xbe0619f9	-0.13095845
253	0xbde3389a	-0.1109478
254	0xbd02758b	-0.03185038
255	0xbe96ee0d	-0.29478493

notes_decoder.bias f4 [128]
0	0xbd00d9bf	-0.03145766
1	0xbe37fa55	-0.17966588
2	0xbe103fce	-0.1408684
3	0xbe76ac8c	-0.24089259
4	0xbe10d20e	-0.1414263
5	0xbe135f66	-0.1439186
6	0xbe4e1024	-0.20123345
7	0xbe343966	-0.17600021
8	0xbe716c12	-0.23576382
9	0xbe801324	-0.25014603
10	0xbe1a0ff1	-0.15045144
11	0xbd666e5c	-0.05625759
12	0xbd44ca2c	-0.04804437
13	0xbe3d3404	-0.18476874
14	0xbd6a38c8	-0.057183057
15	0xbe62a642	-0.22133735
16	0xbd35d4ad	-0.044392277
17	0xbe4e1986	-0.20126924
18	0xbd6143ce	-0.054996304
19	0xbda612d3	-0.08109059
20	0xbe21c529	-0.15797867
21	0xbdff31b5	-0.12460653
22	0xbd6d08d2	-0.05786974
23	0xbe0b08bc	-0.1357755
24	0xbd9f388a	-0.07774456
25	0xbe47965b	-0.1949095
26	0xbda6af50	-0.08138907
27	0xbdb0ece0	-0.0863893
28	0xbdc85ae7	-0.09782963
29	0xbd08d92d	-0.03341024
30	0xbe2c8456	-0.16847357
31	0xbe51524a	-0.20441547
32	0xbe42f8e3	-0.19040255
33	0xbdf81a03	-0.12114336
34	0xbd9c8116	-0.07641809
35	0xbd15f530	-0.036610782
36	0xbe00a32a	-0.12562242
37	0xbd85ffa5	-0.06542901
38	0xbd0bccba	-0.03413079
39	0xbe59758e	-0.2123625
40	0xbe3498b8	-0.17636383
41	0xbda1835e	-0.078863844
42	0xbe72ab0b	-0.2369806
43	0xbe2ed22d	-0.17072363
44	0xbe629153	-0.2212575
45	0xbdf11420	-0.11771417
46	0xbe00ba3f	-0.12571047
47	0xbe0488fc	-0.1294288
48	0xbe1abfb7	-0.15112196
49	0xbd1cc34c	-0.038272187
50	0xbd9629e4	-0.07332209
51	0xbd24120d	-0.040056277
52	0xbcd58853	-0.026065981
53	0xbe1ebd3c	-0.15501875
54	0xbe6bb362	-0.23017648
55	0xbe265536	-0.16243443
56	0xbe371725	-0.17879923
57	0xbd0a3e27	-0.03375068
58	0x3bb65979	0.005564865
59	0xbe7a57de	-0.24447581
60	0xbbbd38ae	-0.005774579
61	0xbd0fcaf2	-0.035105653
62	0xbd00560f	-0.031332072
63	0xbe11e704	-0.14248282
64	0xbc75f36b	-0.015011649
65	0xbe66421d	-0.22486158
66	0xbcc2f09f	-0.023796378
67	0xbdda1fe4	-0.10650614
68	0xbe5da3b5	-0.2164448
69	0xbe3e386f	-0.18576215
70	0xbe170cb7	-0.14750944
71	0xbe2ff10b	-0.17181794
72	0xbe569d61	-0.20958473
73	0xbd69a979	-0.057046387
74	0xbdda70aa	-0.1066602
75	0xbe0f9de3	-0.14025073
76	0xbe5b58a1	-0.21420528
77	0xbd21fa8b	-0.039545577
78	0xbe25dc0c	-0.16197222
79	0xbdb988bd	-0.09059284
80	0xbe5f78ec	-0.21823472
81	0xbe63d473	-0.22249012
82	0xbe51bc1e	-0.20481917
83	0xbe586d67	-0.21135484
84	0xbe32be2d	-0.17455359
85	0xbde7af06	-0.1131268
86	0xbd66835b	-0.056277614
87	0xbe46a195	-0.19397576
88	0xbd23e9ec	-0.040018007
89	0xbdea5b53	-0.114432
90	0xbe758f25	-0.23980387
91	0xbd9c817d	-0.076418854
92	0xbe31ea6a	-0.17374578
93	0xbd9726c0	-0.07380438
94	0xbe4e8f2d	-0.20171805
95	0xbe83e6ad	-0.2576193
96	0xbd882472	-0.066475764
97	0xbc23a279	-0.009987467
98	0xbe417094	-0.18890601
99	0xbe3b2486	-0.18275651
100	0xbd39f9d2	-0.045404263
101	0xbd8720b2	-0.06598033
102	0xbd80e461	-0.0629356
103	0xbe64f9fe	-0.2236099
104	0xbe80b8eb	-0.2514108
105	0xbd4b33c0	-0.0496099
106	0xbe80dd3a	-0.25168782
107	0xbe880a7f	-0.26570508
108	0xbe741997	-0.23837887
109	0xbde7fbcb	-0.113273226
110	0xbd831125	-0.063997544
111	0xbe124ed9	-0.1428789
112	0xbe5c5f11	-0.2152064
113	0xbdac7d86	-0.08422379
114	0xbda266e0	-0.07929778
115	0xbe0e74bf	-0.13911723
116	0xbe4e88b3	-0.20169334
117	0xbe5cf8b7	-0.21579252
118	0xbe678f36	-0.22613224
119	0xbe26e925	-0.16299875
120	0xbd8cde1d	-0.06878302
121	0xbe6d7b78	-0.23191631
122	0xbe085fa0	-0.13317728
123	0xbd8739c9	-0.066028185
124	0xbd396385	-0.045260925
125	0xbd4f08bf	-0.05054545
126	0xbe4f17c1	-0.20223905
127	0xbde9e69d	-0.11420939
