saved_models/generalist_BCE_1e-2_71.pth (torch_old, 167373 bytes, 8 tensors)

notes_encoder.weight f4 [64, 128]
0	0xbdab4681	-0.08363057
1	0xbd65a336	-0.056063853
2	0x3d5c12ba	0.053728797
3	0x3d8fea6b	0.070271336
4	0xbd9130d9	-0.07089395
5	0xbd5e3e49	-0.05425862
6	0x3c09a1b8	0.008400373
7	0xbd7bda3d	-0.061487425
8	0xbd7cbf9b	-0.061706167
9	0xbbaa6400	-0.005199909
10	0xbc7618f8	-0.015020601
11	0x3d707742	0.058707483
12	0xbda766d3	-0.08173909
13	0xbd05eeec	-0.032698557
14	0x3c3c3560	0.011487335
15	0x3d6773ce	0.056506924
16	0xbd5c6031	-0.053802673
17	0xbda85646	-0.0821958
18	0xbc92921c	-0.017891936
19	0x3c91e298	0.017808244
20	0x3d3b4676	0.045721494
21	0xbd6c3732	-0.057669826
22	0xbdab433e	-0.08362435
23	0x3c92cfe0	0.017921388
24	0xbdb456e7	-0.08805638
25	0x3bd7f070	0.0065899417
26	0x3d317056	0.043320023
27	0x3cba0310	0.022706538
28	0x3d77e1c2	0.060518034
29	0xbcc5733c	-0.0241028
30	0x3cca6030	0.024704069
31	0xbc599e40	-0.013282359
32	0xbd4c956c	-0.049947187
33	0x3cd1a28c	0.025590204
34	0xbdae4002	-0.08508302
35	0x3d16391e	0.036675565
36	0x3d8c2c00	0.0684433
37	0x3becdf10	0.0072287396
38	0x3d6834ed	0.0566911
39	0x3e4c3190	0.19940782
40	0x3e3e6650	0.18593717
41	0x3e08ca72	0.13358477
42	0x3dce9675	0.10087291
43	0x3e137db1	0.14403416
44	0x3e951863	0.29120168
45	0x3d92ccc4	0.07167962
46	0x3dbe504d	0.0929266
47	0x3e3a0948	0.18167603
48	0x3e7f46e0	0.2492938
49	0x3e3d9cec	0.18516892
50	0x3e91f571	0.2850757
51	0x3db2ca05	0.087299384
52	0x3e266c57	0.16252266
53	0x3e54990d	0.20761509
54	0x3e276b5f	0.16349553
55	0x3e1eefb5	0.15521128
56	0x3e823557	0.2543132
57	0x3e449550	0.19197583
58	0x3e01f891	0.12692477
59	0x3e2d5d3b	0.16930096
60	0x3e05a125	0.13049753
61	0x3e6df251	0.23236968
62	0x3e081d6c	0.13292474
63	0x3e48f5fe	0.19625089
64	0x3e086ac9	0.13321985
65	0x3e2761a6	0.16345844
66	0x3d8a3a9c	0.0674946
67	0x3e6787f1	0.22610451
68	0x3e6cea04	0.23136145
69	0x3db7f41c	0.08982107
70	0x3e5a5598	0.21321714
71	0x3e68a284	0.22718245
72	0x3e34a07b	0.17639343
73	0x3d5ffc4a	0.05468396
74	0x3e2e8f87	0.17046939
75	0x3d03b5b7	0.03215572
76	0x3d2085ad	0.039189983
77	0x3e2fcf10	0.17168832
78	0x3d287a66	0.041132353
79	0x3dc5e2b9	0.096623845
80	0x3d153b83	0.036433708
81	0x3e05acb6	0.13054165
82	0x3dba7ea1	0.09106184
83	0xbba6562c	-0.0050761905
84	0x3dd099bf	0.10185575
85	0x3e19f165	0.15033491
86	0x3dce66b6	0.10078184
87	0x3e013fc7	0.12621985
88	0x3dab635e	0.08368562
89	0x3dfda924	0.12385777
90	0xbda05cd8	-0.078302085
91	0x3d9896fd	0.07450674
92	0xbca76e9c	-0.020438485
93	0x3ce89f94	0.028396405
94	0x3bfd6e00	0.0077340603
95	0xbcc8e508	-0.024523273
96	0xbd96eb04	-0.073690444
97	0xbb545c20	-0.0032403544
98	0xbd4ff16b	-0.050767343
99	0x3d9bc695	0.07606236
100	0x3dac7959	0.08421583
101	0x3dac474d	0.08412037
102	0xbcd9d70e	-0.026591804
103	0xbd96c334	-0.07361451
104	0xbc692170	-0.0142291635
105	0x3d5d0a32	0.0539648
106	0xbd582233	-0.05276699
107	0x3d30afbe	0.04313635
108	0xbc05f550	-0.008176163
109	0xbc342ca8	-0.010996975
110	0xbd0ecf39	-0.03486559
111	0xbd4fc0d3	-0.050721
112	0x3d607d72	0.054807134
113	0x3ce46efc	0.027884953
114	0x3d313222	0.0432607
115	0xbd51d161	-0.05122507
116	0x3d38b1c6	0.045091413
117	0x3ceafb24	0.028684206
118	0x3d74abae	0.05973404
119	0x3d5cb8a6	0.053887032
120	0x3c597200	0.013271809
121	0x3dacc681	0.08436299
122	0x3b985480	0.004648745
123	0xbc89ba2c	-0.016812406
124	0x3c0d4260	0.008621782
125	0xbd39b0bc	-0.045334563
126	0x3d7952d2	0.06087
127	0x3cd69da4	0.026198216
128	0xbda75f81	-0.08172513
129	0x3d753f5a	0.05987487
130	0x3d8237a5	0.063582696
131	0x3bd5fae0	0.006530151
132	0xbdaeebbf	-0.08541059
133	0x3d9b61f3	0.07587042
134	0x3cc133b0	0.023584217
135	0xbd9604c8	-0.07325131
136	0x3bdfdc00	0.006831646
137	0xbcbe259c	-0.023211293
138	0x3d80758f	0.062724225
139	0xbbe106b0	-0.0068672523
140	0xbd0821a3	-0.033235203
141	0x3d3bcaba	0.045847632
142	0x3cb14420	0.02163893
143	0x3c4a3220	0.012341052
144	0xbd8e9521	-0.06962038
145	0xbda9c9bb	-0.0829043
146	0x3cda7208	0.026665702
147	0xba070f80	-0.0005152151
148	0xbc907384	-0.017633207
149	0xbbd988c0	-0.0066386163
150	0xbc525be0	-0.0128392875
151	0xbd0906a9	-0.033453617
152	0x3d41f63e	0.047353975
153	0xbcd5156c	-0.026011191
154	0xbcdd6a3c	-0.027028196
155	0xbd8ba552	-0.06818642
156	0x3c92a2d8	0.017899916
157	0xbcc8fc38	-0.02453433
158	0x3bae95c0	0.00532791
159	0xbd2c6845	-0.042091627
160	0x3d69775e	0.056998603
161	0xbccb626c	-0.024827205
162	0x3b8a4bc7	0.004220459
163	0x3ced49f4	0.028965928
164	0xbd1f6e3d	-0.03892349
165	0x3b913340	0.0044311583
166	0xbae15110	-0.0017190296
167	0xbd54ad8b	-0.051923316
168	0xbd50769b	-0.05089436
169	0xbdcb2401	-0.099189766
170	0xbd86ce7e	-0.06582354
171	0xbe453549	-0.19258608
172	0xbdb52937	-0.08845752
173	0xbd56e995	-0.052468855
174	0xbdef2114	-0.11676231
175	0xbdb231d3	-0.087009095
176	0xbde3413c	-0.11096427
177	0xbce927f3	-0.028461432
178	0xbda6418c	-0.08117971
179	0xbe2fc9b8	-0.17166793
180	0xbc651991	-0.013983146
181	0xbd1d9ce7	-0.03847971
182	0xbd4a8ac5	-0.049448747
183	0xbdea9c02	-0.114555374
184	0xbde9692a	-0.113970116
185	0xbd8a52e2	-0.0675409
186	0xbe2cb8dc	-0.16867393
187	0xbdd8cba3	-0.105857156
188	0xbe1b4233	-0.15161972
189	0xbd7156d2	-0.05892069
190	0xbd07c716	-0.033148848
191	0xbccddf49	-0.025130885
192	0xbda13684	-0.07871726
193	0xbd5818a0	-0.05275786
194	0xbe37a64a	-0.17934528
195	0xbe149e3e	-0.1451349
196	0xbd007d0c	-0.031369254
197	0xbe245903	-0.1604958
198	0xbd98eced	-0.07467065
199	0xbe2ad3a8	-0.16682303
200	0xbdca7fc9	-0.09887654
201	0xbe011657	-0.12606178
202	0xbd1e680c	-0.038673446
203	0xbd3ee4fc	-0.046605095
204	0xbd3bfed8	-0.045897335
205	0x3b91ad72	0.004445725
206	0xbe02fc6b	-0.12791602
207	0xbde2e188	-0.11078173
208	0xbd42ed0c	-0.047589347
209	0xbe0cbbe1	-0.13743545
210	0xbd5ad87b	-0.053429108
211	0xbd5b6d6c	-0.05357115
212	0xbe142726	-0.14468059
213	0xbcaeab98	-0.021322057
214	0xbc23b626	-0.009992158
215	0xbdbc46bd	-0.0919318
216	0xbd0482ed	-0.032351423
217	0xbcd228b5	-0.025654176
218	0xbd8d3964	-0.06895712
219	0x3d1ad066	0.0377964
220	0xbd09d394	-0.033649042
221	0xbcbbe3ec	-0.02293583
222	0xbcb32ef8	-0.021872982
223	0x3d9ab001	0.07553101
224	0xbd307086	-0.04307606
225	0x3cd70a90	0.026250154
226	0xbd1362ad	-0.035982776
227	0x3d8a4eb1	0.067532904
228	0x3c66ebe8	0.01409433
229	0x3d596ce2	0.053082354
230	0xbd576a0d	-0.052591372
231	0x3d815be3	0.06316354
232	0x3d38affa	0.0450897
233	0xbd560cad	-0.052258182
234	0x3d47f072	0.04881329
235	0x3d6867ba	0.056739546
236	0xbd24f747	-0.040274885
237	0x3d51ef5e	0.05125367
238	0xbd8755a1	-0.06608129
239	0xbca5135c	-0.020150833
240	0xbda6741e	-0.08127616
241	0xbac804c0	-0.0015260205
242	0xbd9c6334	-0.07636109
243	0x3d9fc565	0.07801322
244	0x3daea9c9	0.08528478
245	0x3cd64b0c	0.026158832
246	0xbccac99c	-0.024754338
247	0xbc2165c0	-0.009850919
248	0xbd7c1cc0	-0.061550856
249	0xbd0ffc8f	-0.035152968
250	0xbc020d28	-0.007937707
251	0xbd992d32	-0.074793234
252	0x3d36c55a	0.044621803
253	0x3d6bad1e	0.057538144
254	0xbcf0201c	-0.029312186
255	0x3c2ef730	0.010679051

notes_encoder.bias f4 [64]
0	0x3c0f9528	0.008763589
1	0xbe28b0fc	-0.16473764
2	0xbe206844	-0.15664774
3	0x3e2c7734	0.16842347
4	0xbd895a78	-0.06706709
5	0xbe283ca1	-0.16429378
6	0xbe459cf6	-0.19298157
7	0x3e00d93e	0.12582871
8	0x3e1f2872	0.15542772
9	0x3d75e0da	0.06002889
10	0x3cac13c0	0.021005511
11	0x3db1942f	0.08670842
12	0xbca64579	-0.020296799
13	0x3e114b78	0.14188945
14	0x3dbc9d2f	0.09209668
15	0xbe35dcbb	-0.17759983
16	0xbe32cf91	-0.17461993
17	0xbe272f16	-0.16326556
18	0xbe11cb02	-0.14237598
19	0x3e161c14	0.14659148
20	0xbe36dbfe	-0.17857358
21	0xbe0f425b	-0.13990156
22	0x3df7b7d4	0.12095609
23	0xbe488f81	-0.19585992
24	0x3e46f8dd	0.19430871
25	0x3e4d825b	0.20069258
26	0x3e4a97c7	0.19784461
27	0xbe4e2d2e	-0.20134422
28	0x3d22c3c1	0.039737467
29	0xbdd63753	-0.10459771
30	0x3d94cf0c	0.072660536
31	0xbe1075ca	-0.14107433
32	0x3dae40b1	0.08508433
33	0x3e3ca312	0.18421581
34	0xbd21876b	-0.039435785
35	0xbdf343e5	-0.11878184
36	0x3cd15966	0.025555324
37	0x3e005125	0.12530954
38	0x3e15989d	0.14608999
39	0xbdf0ea96	-0.11763494
40	0xbd5e9b48	-0.054347306
41	0xbe57ae75	-0.21062644
42	0x3d9cc32c	0.076544136
43	0xbdf7305b	-0.1206977
44	0x3da4886d	0.08033834
45	0xbdb8e3ca	-0.09027822
46	0x3e2407a6	0.16018543
47	0x3e11cd71	0.14238526
48	0x3dac0422	0.08399226
49	0x3e2b01ad	0.16699858
50	0x3d90690a	0.070512846
51	0x3e16b4cd	0.14717408
52	0x3d9dc70d	0.077039815
53	0x3e0fd768	0.14047015
54	0x3e2f2da6	0.17107257
55	0xbdd9c2b4	-0.1063284
56	0x3e2956c0	0.16536999
57	0xbdcaaaa3	-0.098958276
58	0xbe0b17eb	-0.13583343
59	0x3e2de80f	0.16983055
60	0x3e3524e3	0.17689852
61	0x3e0f8d60	0.14018774
62	0xbdf6bac5	-0.12047342
63	0xbe533451	-0.20625426

gru.weight_ih_l0 f4 [192, 64]
0	0x3d5f1e0d	0.054472018
1	0x3e5ae7b9	0.21377458
2	0x3e6b9739	0.23006906
3	0x3b998ad5	0.0046857395
4	0x3c88efa5	0.016715834
5	0x3e31bc24	0.17356926
6	0x3dfe8003	0.1242676
7	0xba27f726	-0.00064073724
8	0xbe675323	-0.22590308
9	0xbc0870df	-0.008327692
10	0x3d6d0804	0.057868972
11	0xbc93b455	-0.018030325
12	0x3d98211a	0.074281886
13	0xbe3a9ed1	-0.18224646
14	0xbd56a501	-0.052403454
15	0x3d28171f	0.041037675
16	0x3e52b1d7	0.20575653
17	0x3d0ac66b	0.033880632
18	0x3e39ae8d	0.18132992
19	0xbdd6db23	-0.10491016
20	0x3de468bd	0.1115279
21	0x3e0f6bc1	0.14005949
22	0xbd285a76	-0.041101895
23	0x3e23d884	0.16000563
24	0xbe5edbc5	-0.21763523
25	0xbde2cb20	-0.11073899
26	0xbe2ea986	-0.17056856
27	0x3e266bd4	0.1625207
28	0xbe0f816a	-0.14014211
29	0x3e1db8c8	0.1540252
30	0xbd10b882	-0.03533221
31	0x3d15b303	0.036547672
32	0xbe32fdc8	-0.17479622
33	0xbd41ecf7	-0.047345128
34	0x3e00fbb5	0.12596019
35	0x3e1addc6	0.15123662
36	0xbd657f19	-0.056029413
37	0xbe2982a7	-0.16553746
38	0xbe629ec1	-0.22130872
39	0x3d04d21e	0.032426946
40	0x3de9cb33	0.1141571
41	0x3dcb2eed	0.0992106
42	0x3d1a7ab0	0.03771466
43	0xbdd1b29f	-0.102391474
44	0xba553f1a	-0.0008134708
45	0x3d27b47f	0.04094362
46	0xbe01befb	-0.1267051
47	0xbbd5402e	-0.006507895
48	0x3d9305d6	0.071788475
49	0xbe5896d4	-0.21151286
50	0xbddec68d	-0.10877714
51	0xbe0116f3	-0.1260641
52	0x3d66414e	0.056214623
53	0xbe2de748	-0.16982758
54	0xbda5877b	-0.080824815
55	0x3d5e90fa	0.05433748
56	0xbe21d8cd	-0.15805359
57	0xbce927f8	-0.028461441
58	0x3dea9368	0.11453897
59	0xbde07218	-0.10959262
60	0xbe758b2f	-0.23978876
61	0xbdc00cdb	-0.09377452
62	0x3dbfbb48	0.09361893
63	0x3d0fa1a5	0.035066266
64	0x3d2c3ec8	0.04205206
65	0xbe685407	-0.22688304
66	0xbda3654f	-0.079783075
67	0x3e24039f	0.16017006
68	0xbe30c328	-0.17261946
69	0xbe157d60	-0.14598608
70	0xbd2f8003	-0.04284669
71	0x3e34459a	0.17604676
72	0xba04bcb0	-0.0005063517
73	0xbcb5a29d	-0.022172267
74	0x3c5c7079	0.01345455
75	0x3d8181bb	0.06323572
76	0x3ca872f8	0.020562634
77	0x3dc57449	0.0964132
78	0x3b8ef93a	0.004363206
79	0xbdd21f51	-0.102598794
80	0xbbcf1eee	-0.006320826
81	0x3c368981	0.011141182
82	0x3b2842f3	0.002567467
83	0x3e111691	0.14168765
84	0xbe51f878	-0.2050494
85	0xbe5da277	-0.21644007
86	0xbce7abb1	-0.028280111
87	0xbd4f848d	-0.05066352
88	0x3e5fc826	0.21853694
89	0x3dfaa117	0.12237757
90	0x3e0039ee	0.12522098
91	0xbdc00778	-0.093764246
92	0x3e23f42f	0.16011117
93	0xbd8e7557	-0.069559745
94	0x3e38248b	0.1798269
95	0xbdf97b55	-0.12181727
96	0xbd15f29c	-0.036608323
97	0x3d0397d7	0.032127228
98	0xbd161cbf	-0.03664851
99	0xbd89a39e	-0.067206606
100	0x3dde16f6	0.10844223
101	0x3e424b35	0.18974002
102	0x3dc80fde	0.097686514
103	0xbe21a960	-0.15787268
104	0xbe215c71	-0.1575792
105	0xbdf34f53	-0.11880364
106	0x3d86a010	0.06573498
107	0x3c93c897	0.018039985
108	0x3e2bc1c7	0.16773139
109	0x3dc57bfa	0.09642787
110	0x3ddccb14	0.107809216
111	0x3e146b2e	0.14494011
112	0x3e2395d9	0.15975131
113	0x3e198a81	0.14994241
114	0x3d88435d	0.066534735
115	0x3e0ff304	0.14057547
116	0xbd2c311d	-0.042039026
117	0x3de63259	0.11240072
118	0x3d027c54	0.03185685
119	0xbe0a54fe	-0.13508984
120	0x3c599224	0.013279472
121	0xbdb510cc	-0.088410944
122	0xbd320070	-0.04345745
123	0xbb2f22d0	-0.002672363
124	0x3e5edfda	0.2176508
125	0x3db29cbf	0.08721303
126	0xbd828dde	-0.06374715
127	0xbde95bc3	-0.11394455
128	0x3e70b97a	0.23508254
129	0xbdc127a2	-0.094313875
130	0xbe47b827	-0.19503842
131	0x3e0f963e	0.14022157
132	0xbe1a531d	-0.15070768
133	0x3ccd4a4c	0.025059842
134	0xbc86c1a3	-0.016449755
135	0x3e2ab02e	0.1666877
136	0x3dbef551	0.09324134
137	0x3e53179b	0.20614474
138	0xbdfaeba5	-0.12251977
139	0x3e2378c8	0.15964043
140	0xbd148915	-0.036263544
141	0xbce5c087	-0.028045906
142	0xbada7efa	-0.0016669922
143	0xbd33c601	-0.043890003
144	0xbdb3b47f	-0.08774661
145	0xbcadb0ef	-0.021202533
146	0x3d0c0032	0.034179874
147	0x3e0b795a	0.1362051
148	0x3caf86d9	0.021426605
149	0xbe43b963	-0.19113688
150	0x3dd758ab	0.10514959
151	0xbe42a395	-0.19007714
152	0x3de3078e	0.11085425
153	0x3d50ac4f	0.050945576
154	0x3deeb811	0.11656202
155	0xbdd52e2b	-0.104091965
156	0x3d769a74	0.06020589
157	0xbcf85a5a	-0.03031652
158	0x3e513089	0.20428671
159	0xbe398bc8	-0.18119729
160	0x3e201e12	0.15636471
161	0xbc7c72d5	-0.015408237
162	0xbd42bf0c	-0.047545478
163	0xb9bf6d5e	-0.00036511844
164	0x3e5da89b	0.21646349
165	0x3d381b06	0.044947647
166	0x3e0523e1	0.13001968
167	0xbe0f0e13	-0.13970213
168	0x392ed199	0.00016672014
169	0xbe4413c9	-0.19148172
170	0x3cd440ca	0.0259098
171	0xbdfba44e	-0.12287198
172	0x3d1b9974	0.03798814
173	0xbdb8d527	-0.090250306
174	0x3c1e089b	0.009645606
175	0x3d63b27c	0.055590138
176	0xbe0126f0	-0.1261251
177	0x3d92fe45	0.07177404
178	0x3db08bba	0.08620401
179	0x3e483159	0.19550075
180	0x3e3549f1	0.17703988
181	0x3deabd61	0.114619024
182	0x3e1ebf3f	0.15502642
183	0xbc9ab1e9	-0.018883662
184	0x3e33dde3	0.17565112
185	0xbdaddbd9	-0.08489198
186	0x3d03e613	0.032201838
187	0x3e347ef7	0.17626558
188	0x3db88ebe	0.09011601
189	0x3d848865	0.06471328
190	0xbd5c6704	-0.05380918
191	0xbe17d00a	-0.14825454
192	0x3e1b1edc	0.1514849
193	0xbdf42c8c	-0.11922559
194	0xbccd4863	-0.02505893
195	0x3d230e62	0.03980864
196	0xbe5af2f0	-0.21381736
197	0xbc55ac15	-0.013041516
198	0xbe05d737	-0.13070379
199	0x3e27a628	0.16371977
200	0x3e402b70	0.1876657
201	0x3dba78ef	0.091050975
202	0xbda286dc	-0.07935879
203	0x3dff954e	0.124796495
204	0x3e5b3770	0.21407866
205	0x3e0cf423	0.13765006
206	0x3c95e8dc	0.018299513
207	0xbe0d6de9	-0.13811459
208	0xbe2e2eb7	-0.17010008
209	0xbde8cf95	-0.11367718
210	0xbcca429a	-0.024689961
211	0x3d6d026e	0.057863645
212	0xbe47a78a	-0.19497505
213	0xbd54b1ab	-0.05192725
214	0x3dbe00c5	0.092774905
215	0x3cf2630c	0.029588245
216	0x3db74835	0.08949319
217	0x3bf6c8b7	0.0075312513
218	0xbd04b5e4	-0.032400027
219	0xbb8fd9ba	-0.0043899687
220	0x3e0079a6	0.12546405
221	0xbdd31682	-0.103070274
222	0x3e4e21a0	0.20130014
223	0xbd95b867	-0.073105626
224	0x3dc0b6a8	0.09409839
225	0x3e44238f	0.1915419
226	0xbdb8e9f8	-0.09029001
227	0xbcbc69e4	-0.022999711
228	0x3e645243	0.22297005
229	0x3dd0fa63	0.102040075
230	0x3e2e88d7	0.17044388
231	0xbd384c43	-0.044994604
232	0xbdd79775	-0.10526935
233	0xbe118ae9	-0.14213146
234	0x3e1b3d7d	0.15160175
235	0xbde57bd3	-0.11205258
236	0x3e13c342	0.14429954
237	0xbdae4799	-0.0850975
238	0x3de696a8	0.11259204
239	0x3c153593	0.009107011
240	0xbe0c01ab	-0.13672511
241	0x3daa2cdd	0.08309338
242	0x3bf6b7d1	0.007529237
243	0x3e425720	0.18978548
244	0x3ac7bb56	0.0015238326
245	0x3cd3bdfd	0.02584743
246	0x3cc381b7	0.023865564
247	0xbe0dfbe5	-0.13865621
248	0x3deb8f4e	0.115019426
249	0xbe3e33ae	-0.18574402
250	0xbe55a2ff	-0.2086296
251	0xbcc8cc06	-0.024511348
252	0xbd01159c	-0.03151475
253	0x3e2d17f7	0.16903673
254	0xbe02df60	-0.12780523
255	0xbd822d03	-0.063562416

gru.weight_hh_l0 f4 [192, 64]
0	0x3c9b36fc	0.018947117
1	0xbd2cd8f9	-0.04219911
2	0xbe0e1afe	-0.13877484
3	0x3e4d9613	0.2007678
4	0x3d88a9e2	0.066730276
5	0xbe0fb851	-0.14035155
6	0xbdafe54a	-0.08588655
7	0x3e1af0ef	0.15130971
8	0x3e752051	0.23938109
9	0xbd3337bd	-0.043754328
10	0xbd85729c	-0.06516001
11	0x3dff8499	0.12476463
12	0x3be4388d	0.006964749
13	0xbe614531	-0.2199905
14	0x3c2bda97	0.010489128
15	0xbd41a6f6	-0.047278367
16	0x3d641e49	0.055692945
17	0x3e64b263	0.22333674
18	0xbdd04561	-0.10169483
19	0xbd086e03	-0.03330804
20	0x3e1c727d	0.15278049
21	0xbe22f869	-0.15915073
22	0xbe22372b	-0.15841357
23	0xbe308ebc	-0.17241949
24	0x3ae830a3	0.001771469
25	0x3e16dccd	0.14732666
26	0xbe269f79	-0.16271771
27	0x3db23e1c	0.08703253
28	0x3c389185	0.011265163
29	0x3e4dafb3	0.20086555
30	0xbe1cbc2f	-0.15306161
31	0xbe386e5e	-0.18010852
32	0x3b670581	0.0035251083
33	0x3e685963	0.22690348
34	0xbc97421a	-0.018464137
35	0xbcdd9e2f	-0.027052967
36	0xbe385274	-0.18000203
37	0x3e1ff76b	0.15621726
38	0xbc01d04a	-0.007923195
39	0x3de8fbfb	0.113761865
40	0x3da3c1f8	0.07995981
41	0xbe0b101b	-0.13580362
42	0x3d7b84c5	0.061405916
43	0xbe12e53a	-0.14345255
44	0x3e2562ff	0.16151045
45	0x3d8b5b36	0.068045065
46	0xbda197a4	-0.07890251
47	0xbd9ef9ab	-0.07762464
48	0x3b946808	0.004529003
49	0x3e291ab4	0.16514093
50	0xbe521eee	-0.20519611
51	0x3e1b9e56	0.15197119
52	0x3df6ffd5	0.12060515
53	0x3d513be5	0.05108251
54	0xbd84cbec	-0.064842075
55	0x3e3da3d2	0.18519524
56	0xbbc62f05	-0.0060480856
57	0xbd786f00	-0.060652733
58	0x3e102cdb	0.14079611
59	0x3c325ca6	0.010886347
60	0xbdc0b6d9	-0.094098754
61	0xbdcee635	-0.10102502
62	0xbcdaf1c2	-0.026726607
63	0xbdf878d0	-0.12132418
64	0xbd2ce800	-0.04221344
65	0x3d360e9c	0.044447526
66	0x3d8e5c26	0.0695117
67	0xbdc74585	-0.09730057
68	0x3c88338f	0.016626148
69	0x3dce7c0b	0.10082253
70	0x3e5800fd	0.21094127
71	0xbce352d2	-0.027749453
72	0xbd696645	-0.056982297
73	0x3e1e660b	0.15468614
74	0x3d9c1d3a	0.07622762
75	0xbdc32b3f	-0.09529733
76	0x3dbf2228	0.09332687
77	0x3dc64063	0.096802495
78	0xbe180a27	-0.14847623
79	0x3d97f29d	0.07419322
80	0x3af35327	0.001856421
81	0xbe2c1e16	-0.16808352
82	0x3d3a241d	0.045444597
83	0xbe2ab8ea	-0.16672102
84	0xbd9c1662	-0.07621457
85	0x3e639065	0.22223051
86	0x3e32b949	0.17453493
87	0x3d5bee71	0.053694192
88	0xbc8d5c22	-0.017255846
89	0xbe0617c3	-0.13095002
90	0x3da243ed	0.07923112
91	0xbd7df483	-0.062000763
92	0xbde82b62	-0.113363996
93	0xbdbb8b81	-0.09157468
94	0xbd22d406	-0.039752983
95	0x3e0679b9	0.13132371
96	0xbe1993d9	-0.14997806
97	0xbd90bfc5	-0.07067827
98	0x3cb2d932	0.021832082
99	0x3e5079f0	0.20359015
100	0x3e558e5f	0.20855092
101	0xbde7ede4	-0.11324671
102	0xbe378ae4	-0.17924076
103	0x3b144f70	0.0022630356
104	0xbe6339ea	-0.22190061
105	0xbbddb0bf	-0.0067654545
106	0xbe50f741	-0.2040682
107	0x3e4130ac	0.18866223
108	0xbd2678c7	-0.040642526
109	0xbda0a48b	-0.07843884
110	0x3e265f32	0.16247252
111	0x3d88f5e8	0.06687528
112	0xbd62d9ba	-0.05538342
113	0xbdb0ad73	-0.08626833
114	0xbd2fd427	-0.042926934
115	0xbddfe1b8	-0.10931724
116	0xbc99fd6a	-0.018797595
117	0x3cd4aa47	0.0259601
118	0x3e1dbc9a	0.15403977
119	0xb992a0a6	-0.00027966982
120	0xbe1dcc69	-0.15410008
121	0xbe028fff	-0.12750243
122	0xbe35f42f	-0.1776893
123	0x3d766801	0.06015778
124	0x3d526f1b	0.05137549
125	0x3e519026	0.20465145
126	0xbaa7e601	-0.0012809635
127	0x3e44fe47	0.19237624
128	0xbe8ab55d	-0.27091494
129	0x3dbf2fa4	0.093352586
130	0xbdd92272	-0.10602273
131	0x3c538787	0.01291073
132	0xbe3f2abb	-0.18668644
133	0x3e28bbd1	0.16477896
134	0xbc33b4d3	-0.010968405
135	0xbcecd79d	-0.028911406
136	0xbe69faf6	-0.2284964
137	0x3db01d65	0.085993566
138	0x3da3c659	0.07996816
139	0x3e111dac	0.14171475
140	0x3e5a349e	0.21309134
141	0xbbe39a11	-0.0069458564
142	0xbe762c59	-0.24040355
143	0x3e2c68a5	0.16836794
144	0xbde66de5	-0.112514295
145	0xbe2e1c55	-0.17002995
146	0x3de83d7f	0.113398544
147	0xbcb0a5a9	-0.021563368
148	0xbcb40ead	-0.021979654
149	0x3d800bff	0.06252288
150	0x3e0daf21	0.13836338
151	0x3d78ecbb	0.06077264
152	0xbe58301d	-0.21112104
153	0xbe6f0d4c	-0.23344916
154	0x3d9c872b	0.07642969
155	0xbdcc877d	-0.0998678
156	0xbe44c0fd	-0.19214244
157	0xbdf7bdf8	-0.120967805
158	0x3e627935	0.2211655
159	0x3df53f24	0.11974934
160	0xbdb77103	-0.08957102
161	0xbe670d9b	-0.22563784
162	0x3dbe88e2	0.09303452
163	0xbcaff759	-0.02148025
164	0x3e58e6f7	0.21181856
165	0xbe2c37fd	-0.16818233
166	0xbe231c8e	-0.15928861
167	0xbb8aaf60	-0.004232332
168	0xbd637897	-0.055534925
169	0x3d511f23	0.051055085
170	0xbdcaf15a	-0.099093154
171	0x3d9c38e0	0.076280355
172	0xbd005026	-0.031326436
173	0xbd77072b	-0.06030957
174	0x3e4aec51	0.1981671
175	0x3d4e790b	0.050408404
176	0x3e39016d	0.1806695
177	0x3c908846	0.017643105
178	0x3e0b0209	0.13574995
179	0xbe653f99	-0.22387542
180	0xbdc53481	-0.09629155
181	0xbdd8b793	-0.10581889
182	0xbc44d564	-0.012013767
183	0xbde8b981	-0.11363507
184	0xbe0ad7a2	-0.1355882
185	0x3e598c9a	0.21245041
186	0xbe0f2d8b	-0.13982217
187	0xbcc0c258	-0.02353017
188	0x3d6a4b35	0.05720063
189	0xbc4a79d9	-0.012358152
190	0x3e7a9f6f	0.24474882
191	0x3d918f58	0.07107419
192	0xbe0e45d9	-0.13893832
193	0x3dc5c491	0.09656633
194	0xbe13c2c3	-0.14429764
195	0xbe25f0b2	-0.16205099
196	0x3c42a81d	0.011880902
197	0x3e0e8470	0.13917708
198	0x3e308197	0.17236935
199	0x3ca0b647	0.019618167
200	0xbbfa953d	-0.007647185
201	0xbc89b03e	-0.016807672
202	0x3c39eecb	0.011348437
203	0xbba511c3	-0.0050375178
204	0x3e4ec115	0.20190842
205	0xbc7fc6ca	-0.01561136
206	0xbe05f950	-0.13083386
207	0x3e3c2604	0.18373877
208	0xbd12213b	-0.035676222
209	0x3ca97e9c	0.020690255
210	0x3e28b856	0.16476569
211	0xbe469b36	-0.19395146
212	0xbb1bebd6	-0.0023791692
213	0x3e3e68da	0.18594685
214	0x3d43788e	0.04772239
215	0x3e13af12	0.14422253
216	0x3d0ed63d	0.034872282
217	0xbc2caafe	-0.010538815
218	0x3d983b36	0.074331686
219	0xbd814b22	-0.063131586
220	0xbb1efcb6	-0.0024259514
221	0xbd06f825	-0.032951493
222	0x3d9aea6f	0.07564246
223	0x3dc8466b	0.09779056
224	0xbe1eded9	-0.15514697
225	0x3c2f7034	0.010707904
226	0x3e312ebf	0.17302988
227	0xbc1aca6b	-0.009447674
228	0x3e519f0a	0.20470825
229	0xbc114a57	-0.008867822
230	0xbd386fb1	-0.045028392
231	0xbe484e26	-0.19561061
232	0xbe124bde	-0.14286754
233	0x3e21b788	0.15792668
234	0xbdcbf031	-0.09957922
235	0x3e12e04d	0.14343376
236	0xbe15bbb4	-0.14622384
237	0xbe3d0354	-0.18458301
238	0xbce96a63	-0.028493112
239	0x3d7372ee	0.059435777
240	0x3da8ea48	0.082478106
241	0xbdb7fd24	-0.089838296
242	0x3e0d2f00	0.1378746
243	0x3b81a24e	0.003956116
244	0xbe3c953f	-0.18416308
245	0xbe738c8a	-0.2378408
246	0x3d49491b	0.049141984
247	0xbd400c17	-0.04688653
248	0xbdc0d019	-0.094146915
249	0x3dadd81e	0.08488487
250	0xbda2f956	-0.07957713
251	0xbdc546f8	-0.09632677
252	0x3dc7619f	0.097354166
253	0x3e3939ef	0.18088506
254	0x3e03294a	0.1280872
255	0x3ca348ea	0.01993223

gru.bias_ih_l0 f4 [192]
0	0xbe49782b	-0.19674747
1	0x3e16651a	0.14687005
2	0xbd0e8696	-0.03479632
3	0x3e25cf0b	0.16192262
4	0x3c6ddb4d	0.014517617
5	0x3dc061a9	0.09393627
6	0x3d9bde4f	0.076107614
7	0x3da8a7f8	0.082351625
8	0x3d9dc082	0.077027336
9	0x3df35a32	0.11882438
10	0x3d8fe4df	0.070260756
11	0xbdfaad5e	-0.122400984
12	0x3e03f886	0.12887773
13	0x3e588bc9	0.21147074
14	0x3ddea4a6	0.10871248
15	0x3e143bc3	0.14475922
16	0x3e3bbf36	0.1833466
17	0x3d8ba6d9	0.06818933
18	0xbd87ff88	-0.066405356
19	0x3e1d379f	0.15353249
20	0x3d297f35	0.04138108
21	0x3df39164	0.118929654
22	0x3e1eee7a	0.15520659
23	0x3e113fd9	0.14184512
24	0x3dc38b1d	0.09548018
25	0x3d3bbdd9	0.04583535
26	0xbd0a4dc1	-0.03376556
27	0x3c2e08f7	0.010622255
28	0x3e3da2d8	0.18519151
29	0x3ba9f8c2	0.005187125
30	0x3d21bad8	0.03948483
31	0x3d896b37	0.06709903
32	0x3e367995	0.17819817
33	0x3dd7c476	0.10535519
34	0x3e1d0ed3	0.15337686
35	0xbd64a0eb	-0.055817526
36	0x3dd9f17d	0.10641763
37	0x3d444e9b	0.047926527
38	0x3df4341f	0.11924004
39	0x3e7215c2	0.23641112
40	0x3e36ecf5	0.1786383
41	0x3cb55841	0.02213681
42	0x3d7dd114	0.06196697
43	0xbcc4b19d	-0.024010474
44	0x3d6f9e6b	0.05850069
45	0xbc112941	-0.008859933
46	0xbd14642e	-0.03622835
47	0xbd00dd83	-0.03146125
48	0xbce6419c	-0.028107457
49	0x3d40307b	0.046921235
50	0x3ddf76a8	0.10911304
51	0x3e6c0328	0.23048079
52	0x3e23bb8d	0.15989514
53	0x3d0113bd	0.031512965
54	0x3e11f0dd	0.14252038
55	0x3d930f41	0.07180644
56	0xbcc8bbca	-0.024503607
57	0xbe1f8f6d	-0.15582056
58	0x3e3a3a9d	0.18186422
59	0xbaab4557	-0.001306693
60	0x3db88f1f	0.09011673
61	0x3b883744	0.004156979
62	0x3dff28cb	0.124589525
63	0xbcc18eaa	-0.023627598
64	0xbe454812	-0.19265774
65	0x3d33dc86	0.04391148
66	0x3ebf5f15	0.3737723
67	0x3e352000	0.17687988
68	0xbde2e0ed	-0.110780574
69	0xbe0b9d13	-0.13634138
70	0x3c0af32a	0.008480826
71	0xbd249a4d	-0.040186215
72	0x3dc6ba5b	0.09703513
73	0xbe9036c7	-0.28166792
74	0xbd848b0f	-0.06471836
75	0xbe25717b	-0.1615657
76	0xbe83eb65	-0.2576553
77	0xbe2ab320	-0.16669893
78	0xbd556931	-0.05210227
79	0xbe21188a	-0.15732017
80	0x3d52ff61	0.05151308
81	0xbe016370	-0.12635589
82	0xbd36fc13	-0.04467399
83	0xbda34f96	-0.07974164
84	0x3e57986c	0.21054238
85	0x3cc22e91	0.023703845
86	0x3c664b8c	0.014056098
87	0xbe0e1433	-0.13874893
88	0xbca5325e	-0.020165619
89	0xbcc59e49	-0.024123328
90	0xbc8faf37	-0.017539604
91	0x3de59c59	0.112114616
92	0xbc0e0634	-0.008668471
93	0x3ca5ebe0	0.020254076
94	0xbd31560b	-0.043294948
95	0xbe73fa41	-0.23825933
96	0x3e0a5af0	0.13511252
97	0xbcbf6b60	-0.02336663
98	0x3e1be3f2	0.15223673
99	0xbe3ba4db	-0.18324606
100	0xbe29b275	-0.16571982
101	0xbe2f3eef	-0.17113851
102	0x3cd1a9b1	0.02559361
103	0x3e713ec6	0.23559102
104	0xbddd0707	-0.10792356
105	0x3df716d6	0.120649025
106	0x3c2e1fd5	0.010627707
107	0x3d6d3bf3	0.0579185
108	0x3cf4606c	0.029831134
109	0xbd12d383	-0.035846245
110	0xbca4983f	-0.020092128
111	0x3d300528	0.042973667
112	0xbdeb43cc	-0.114875406
113	0x3da0345b	0.07822486
114	0x3db39510	0.08768666
115	0xbd96e175	-0.07367221
116	0xbe2f15b1	-0.17098118
117	0x3d8ed0fb	0.069734536
118	0x3d993545	0.074808635
119	0xbdc0338f	-0.09384834
120	0xbd8e4a7e	-0.06947802
121	0xbc2e97af	-0.010656281
122	0x3e06f659	0.13179912
123	0x3e449610	0.1919787
124	0xbe3a938a	-0.18220344
125	0xbd350c6a	-0.044201292
126	0xbd84c8b2	-0.06483592
127	0x3dc0841a	0.094001964
128	0xbe066983	-0.13126187
129	0x3de092cb	0.109654985
130	0x3c95236d	0.018205369
131	0xbe07cd52	-0.13261917
132	0xbe2c83a2	-0.16847089
133	0x3e14aa79	0.14518155
134	0x3de19bfb	0.11016079
135	0xbe540abb	-0.20707218
136	0xbe270cb6	-0.16313443
137	0x3e2e5d3f	0.17027758
138	0x3e6448a6	0.22293338
139	0x3d3d8ab4	0.046274856
140	0x3e1f21a3	0.15540175
141	0x3e126491	0.14296176
142	0xbe2b64e9	-0.16737713
143	0x3e1b5c35	0.15171893
144	0xbe29a6df	-0.16567563
145	0xbe234870	-0.15945601
146	0x3b989005	0.0046558403
147	0x3c364995	0.011125942
148	0xbe320c0e	-0.17387411
149	0x3e29c397	0.16578518
150	0x3e489215	0.19586976
151	0x3e3cc9bd	0.18436332
152	0xbe090f0c	-0.13384646
153	0x3cfa8a45	0.03058351
154	0x3e0d2e34	0.13787156
155	0xbe5f48a3	-0.21805052
156	0xbe428f62	-0.19000009
157	0xbe0b0ba2	-0.13578656
158	0x3e26db01	0.16294481
159	0x3e4da958	0.20084131
160	0xbe83a7a1	-0.25713828
161	0xbe73ec02	-0.23820499
162	0xbc3a2599	-0.011361503
163	0x3e4ebe5b	0.20189802
164	0x3e1c101f	0.15240525
165	0xbe19534c	-0.14973181
166	0xbe16e6a7	-0.14736424
167	0xbd11120b	-0.035417598
168	0xbe44f158	-0.1923269
169	0x3dad8e7d	0.08474443
170	0xbc5418bc	-0.01294535
171	0x3e385693	0.18001775
172	0xbe12334a	-0.14277378
173	0xbe2b7bb2	-0.16746405
174	0x3e6cf1e9	0.23139156
175	0x3d26bfa9	0.040710125
176	0x3dd39525	0.103311814
177	0xbcfc1b5d	-0.030774767
178	0x3e0b8d38	0.1362809
179	0xbdf72073	-0.12066736
180	0xbe69d7bc	-0.22836202
181	0xbd8fb83a	-0.0701756
182	0x3e368d0a	0.1782724
183	0xbe6071b3	-0.21918373
184	0xbe025e96	-0.12731394
185	0x3dfd64cb	0.1237274
186	0xbdfb7ec7	-0.1228004
187	0xbd5e464d	-0.054266263
188	0x3dcdbb55	0.100454964
189	0x3e5e4b46	0.21708402
190	0x3e3efc49	0.18650927
191	0x3e6319a7	0.22177754

gru.bias_hh_l0 f4 [192]
0	0xbdf7bc78	-0.120964944
1	0x3e51a433	0.20472793
2	0x3cc0565d	0.023478681
3	0xbb733f76	-0.0037116683
4	0x3e07ea16	0.1327289
5	0x3e481fc7	0.19543372
6	0x3da6770a	0.08128174
7	0x3db9b173	0.09067049
8	0x3e497b12	0.19675854
9	0x3dce3034	0.10067788
10	0x3d54adbf	0.05192351
11	0xbd0173ee	-0.0316047
12	0x3e0f64a9	0.14003243
13	0x3d6938f8	0.056939095
14	0x3e1f4cb4	0.15556604
15	0x3d627558	0.05528769
16	0x3e4e991a	0.20175591
17	0x3dbfdd4a	0.093683794
18	0xbe2a73c9	-0.16645731
19	0x3e22fb81	0.15916254
20	0xbde29cf6	-0.11065094
21	0x3d81e315	0.063421406
22	0x3ba8571a	0.0051373364
23	0x3e36419c	0.17798465
24	0x3e0559c0	0.13022518
25	0x3d63446d	0.055485178
26	0x3e369044	0.1782847
27	0x3d54f2b7	0.051989283
28	0x3cd70621	0.02624804
29	0x3e080f65	0.13287123
30	0xbb42618c	-0.0029660193
31	0x3e172c12	0.14762905
32	0xbc6c103b	-0.0144081665
33	0x3e69b374	0.22822362
34	0x3d4c1522	0.04982484
35	0x3bf39b69	0.007434298
36	0x3e57bfb5	0.21069224
37	0x3e402d2f	0.18767236
38	0x3e056736	0.13027653
39	0x3df12bf0	0.117759585
40	0x3dd46359	0.103705116
41	0x3e25d307	0.16193782
42	0x3cf76225	0.030198166
43	0x3d8ec1c5	0.06970552
44	0x3e389e67	0.18029176
45	0x3c7b9ae3	0.015356752
46	0x3a2245cf	0.0006190212
47	0xbcb75683	-0.02238012
48	0xbd738f2e	-0.05946272
49	0xbbd7a10e	-0.0065804785
50	0x3e3b36df	0.1828265
51	0x3cf8cf9e	0.030372437
52	0x3db6d8f9	0.08928103
53	0x3ccbe62e	0.024890032
54	0x3e079839	0.13241662
55	0x3e3a208c	0.18176478
56	0xbc344ff9	-0.011005395
57	0xbdfdeef7	-0.123990946
58	0x3dae8526	0.0852149
59	0xbd64a49b	-0.055821043
60	0x3e15c86a	0.14627233
61	0x3dedb1b3	0.11606159
62	0xbd3a68e5	-0.04551019
63	0x3cb2b096	0.021812718
64	0x3bbc7b93	0.005752036
65	0xbdccef1a	-0.100065425
66	0x3eea585b	0.45770535
67	0x3ea6e64b	0.32597575
68	0x3d1eb2d7	0.038744774
69	0xbe0b2e61	-0.13591911
70	0xbe3ad9b9	-0.18247117
71	0xbe8c3a77	-0.27388355
72	0x3db9fd33	0.09081497
73	0xbe2e36e6	-0.1701313
74	0xbe365f89	-0.17809881
75	0xbdbab9e5	-0.09117488
76	0xbe6c95bc	-0.23103994
77	0xbd9eab68	-0.07747537
78	0xbe2a8aa8	-0.16654456
79	0xbd471542	-0.048604257
80	0xbd87bce1	-0.06627823
81	0xbe249cae	-0.16075394
82	0xbe8009f8	-0.25007606
83	0xbe522a8b	-0.20524041
84	0x3e7ca511	0.24672343
85	0xbd3dea3f	-0.046365973
86	0xbac48602	-0.0014993551
87	0xbd6dc29a	-0.058046915
88	0xbe08d9e2	-0.13364366
89	0xbe104ed4	-0.1409257
90	0xbd11a944	-0.035561815
91	0xbd088ae5	-0.033335585
92	0xbe0054e3	-0.12532382
93	0x3deae4d0	0.11469424
94	0x3e0bbbcf	0.13645862
95	0xbe8553b0	-0.2604041
96	0x3d993382	0.074805275
97	0x3d150fd5	0.03639205
98	0x3d9e5627	0.07731276
99	0xbbae1a29	-0.005313177
100	0xbdeed0d2	-0.11660923
101	0xbdfaefec	-0.12252793
102	0xbe0642e6	-0.13111457
103	0x3eae939b	0.3409699
104	0xbe13e964	-0.144445
105	0x3cd210cb	0.025642773
106	0x3c65a4d7	0.014016352
107	0xbd5fdbd5	-0.054653008
108	0xbe18f494	-0.14937049
109	0xbd6e58c7	-0.058190133
110	0xbda3c33f	-0.079962246
111	0x3d52d6b8	0.051474303
112	0x3d04f847	0.03246334
113	0xbce45716	-0.027873557
114	0x3e1755dc	0.14778847
115	0xbc47e09a	-0.012199545
116	0xbd4c9a79	-0.049952004
117	0xbe2b9908	-0.16757596
118	0xbc34c3e0	-0.011033028
119	0xbd378177	-0.0448012
120	0xbe12202f	-0.1427009
121	0xbdfa1ed8	-0.12212914
122	0xbb60e2d5	-0.003431489
123	0x3e1d8304	0.1538201
124	0xbcebcf50	-0.028785378
125	0x3e23e12c	0.16003865
126	0x3d6f7368	0.05845967
127	0x3dc8d569	0.0980633
128	0xbe321e9a	-0.17394486
129	0x3e52846d	0.20558329
130	0xbdd1b0c4	-0.102387935
131	0xbbcc3b5d	-0.0062326626
132	0xbe5fc497	-0.21852337
133	0x3e6d2ac7	0.2316085
134	0x3e393077	0.18084894
135	0xbd27c173	-0.040955972
136	0xbe59ce1c	-0.2127003
137	0x3e731e81	0.23742105
138	0x3e135c9c	0.14390796
139	0xbc85b947	-0.016323699
140	0x3e67fb8a	0.22654548
141	0x3e3a5c0a	0.18199173
142	0xbd4f32b5	-0.050585467
143	0x3e4c9f43	0.19982629
144	0xbe1e8a1a	-0.15482369
145	0xbd189d93	-0.03725965
146	0x3dd10c7e	0.10207461
147	0xbdd1bf7c	-0.10241601
148	0xbe0cd702	-0.13753894
149	0x3e0b1c2a	0.13584962
150	0x3e47d0c0	0.19513226
151	0x3c9c54b0	0.01908335
152	0xbe0e1952	-0.13876846
153	0xbe0e30af	-0.13885759
154	0x3e3e222b	0.18567722
155	0xbe0fee55	-0.1405576
156	0xbe0eed3b	-0.13957684
157	0xbe432f0e	-0.19060919
158	0x3c0eb2f1	0.008709655
159	0x3db09655	0.086224236
160	0xbc8ac5dd	-0.016940052
161	0xbe609d1a	-0.2193493
162	0xbd8ca55d	-0.06867478
163	0x3c87c785	0.01657463
164	0x3e1b790a	0.15182891
165	0xbdf9349b	-0.12168237
166	0xbd061db5	-0.032743175
167	0xbdac116b	-0.0840176
168	0xbaa538f5	-0.0012605475
169	0x3e3ab5ea	0.18233457
170	0xbde0e6d0	-0.10981524
171	0x3e041bae	0.12901184
172	0xbe237a9e	-0.15964743
173	0xbe3d463f	-0.18483828
174	0x3dca8e4e	0.09890424
175	0x3dfe12e4	0.12405947
176	0x3b947918	0.004531037
177	0xbe09b67f	-0.13448523
178	0xbd1302b2	-0.035891242
179	0xbe760fe2	-0.24029496
180	0xbe1942d6	-0.14966902
181	0xbe19be5d	-0.15014024
182	0x3db9308a	0.09042461
183	0xbb8d1d3b	-0.004306463
184	0xbdcce31b	-0.100042544
185	0xbb399bf5	-0.0028321717
186	0xbe0b98f3	-0.13632564
187	0x3dbcd180	0.092196465
188	0x3e6b548e	0.22981474
189	0x3d5a0a5b	0.053232532
190	0x3e19aa75	0.1500643
191	0x3c388f0d	0.011264575

notes_decoder.weight f4 [128, 64]
0	0x3d7e6a32	0.062112994
1	0xbdc0a70d	-0.094068624
2	0x3e1f9864	0.15585476
3	0x3e38a53d	0.18031783
4	0x3e3bb727	0.18331586
5	0xbd64e49b	-0.055882078
6	0xbd3a23e2	-0.045444377
7	0x3d97b78c	0.07408056
8	0x3e0e40b6	0.13891873
9	0xbe440d96	-0.19145808
10	0xbe8a4e3c	-0.27012813
11	0x3ca2a534	0.019854166
12	0xbda6df82	-0.081480995
13	0xbe8fe96b	-0.2810777
14	0x3d52ba9a	0.05144749
15	0xbe5a3681	-0.21309854
16	0x3e6d15fc	0.23152918
17	0x3d9808fa	0.07423587
18	0x3d88e69d	0.06684611
19	0x3d2551e3	0.040361296
20	0x3e94d02b	0.2906507
21	0xbe38eea7	-0.18059789
22	0xbe8ce926	-0.27521628
23	0xbe29135e	-0.16511294
24	0x3e905819	0.28192213
25	0x3e4140eb	0.1887242
26	0xbe3e7a9c	-0.1860146
27	0x3e418f72	0.18902376
28	0x3e2510a6	0.16119632
29	0x3e031df0	0.12804389
30	0xbe34ceaf	-0.17656969
31	0xbdfe7d93	-0.12426295
32	0x3e17cc86	0.14824113
33	0x3e11b9a5	0.14230974
34	0xbd80df2a	-0.06292565
35	0xbe85f4f0	-0.26163435
36	0xbe3c98e9	-0.18417706
37	0x3e44d127	0.1922041
38	0x3e1ad668	0.15120852
39	0x3e5be75a	0.21474972
40	0x3dc54e6b	0.09634098
41	0xbe437ae4	-0.19089848
42	0x3e0ab63c	0.1354608
43	0xbe75f9a5	-0.24021013
44	0x3d4a3a2d	0.049371887
45	0x3e8ebeaf	0.27879855
46	0xbe2c48f7	-0.16824709
47	0xbe56357b	-0.20918839
48	0x3cfbe4df	0.030748783
49	0x3e33cb6c	0.17558068
50	0xbdeebfe1	-0.11657692
51	0x3e642e5c	0.2228331
52	0x3e10fa9f	0.14158104
53	0x3dff9879	0.12480254
54	0xbe402267	-0.18763123
55	0x3df91106	0.1216145
56	0x3e7b6d5e	0.24553439
57	0xbdfe8894	-0.12428394
58	0x3e0cffca	0.13769451
59	0x3dae3581	0.08506299
60	0xbde4103e	-0.111359105
61	0xbdf9bb64	-0.12193945
62	0xbdd325ba	-0.1030993
63	0xbd82a544	-0.06379178
64	0x3d38c4e1	0.045109633
65	0xbd80ba6a	-0.06285556
66	0x3d1fbb48	0.038996965
67	0x3e48dc10	0.19615197
68	0x3df5ae00	0.119960785
69	0xbe8e3614	-0.27775633
70	0xbddfc164	-0.10925558
71	0x3e148f81	0.14507867
72	0x3e2b712f	0.16742395
73	0xbe857f35	-0.26073614
74	0xbe1c617d	-0.15271564
75	0x3de8379b	0.11338731
76	0xbdacce7c	-0.08437821
77	0xbd93d754	-0.07218805
78	0x3e8c5b11	0.27413228
79	0xbe202921	-0.1564069
80	0x3e94eeb1	0.29088357
81	0x3e8aad6c	0.27085435
82	0xbcf0d1bd	-0.029396886
83	0x3e12d148	0.14337647
84	0x3e48c0ff	0.19604872
85	0xbdf60944	-0.12013486
86	0xbdc78e9e	-0.09743999
87	0xbe5c9366	-0.21540603
88	0x3db737f8	0.08946222
89	0x3e5f8a6e	0.2183015
90	0xbe4cecff	-0.20012282
91	0x3e3cf348	0.1845218
92	0x3e93ccd8	0.2886722
93	0x3e06dd8b	0.1317045
94	0xbe1e2e96	-0.15447459
95	0xbe44aaeb	-0.19205825
96	0x3e18c423	0.1491857
97	0x3e06591d	0.13119932
98	0xbd0d8092	-0.034546442
99	0xbe275cae	-0.16343948
100	0xbe4fbdea	-0.2028729
101	0x3e58cd66	0.21172103
102	0x3e095f92	0.13415363
103	0x3e361409	0.1778108
104	0x3e3845dc	0.17995399
105	0xbe59ce7f	-0.21270178
106	0x3d4bcbb2	0.049754806
107	0xbda7f333	-0.082006834
108	0x3e8dfd0f	0.2773213
109	0x3dc80dac	0.09768233
110	0xbe4ec02e	-0.20190498
111	0xbd61cfa9	-0.05512968
112	0x3c91c701	0.017795088
113	0x3db7a824	0.08967617
114	0xbe17ae94	-0.1481269
115	0x3e2a4944	0.16629511
116	0x3e29745d	0.16548295
117	0x3e4a5283	0.19758038
118	0xbe592e9f	-0.21209191
119	0x3e1fe601	0.15615083
120	0x3e91c2f7	0.2846906
121	0x3b80f899	0.003935885
122	0x3e6a9081	0.22906686
123	0x3cf9bc97	0.030485434
124	0xbe8399ae	-0.25703186
125	0xbd813cd8	-0.06310433
126	0xbe08df7a	-0.133665
127	0xbe02af15	-0.12762101
128	0xbd242790	-0.040076792
129	0xbe533d66	-0.2062889
130	0x3e340431	0.17579724
131	0x3e7561c3	0.23963074
132	0x3e83aeaf	0.2571921
133	0xbdb83d47	-0.08996063
134	0xbd922342	-0.07135631
135	0x3e571f03	0.21007924
136	0x3e975be5	0.29562297
137	0xbd983003	-0.074310325
138	0xbe26b0db	-0.16278403
139	0xbd963201	-0.07333756
140	0xbe883498	-0.26602626
141	0xbe88da20	-0.26728916
142	0x3e118ddc	0.14214271
143	0xbde2dd71	-0.11077393
144	0x3db81a9e	0.08989452
145	0x3daed2ec	0.08536324
146	0x3ca25b88	0.019819036
147	0x3cb7d5db	0.022440841
148	0x3e5b6f62	0.21429208
149	0xbdd74c59	-0.10512609
150	0xbe2a5d45	-0.16637142
151	0xbe75d588	-0.24007237
152	0x3e8cbe6c	0.2748903
153	0x3e56a52e	0.20961449
154	0xbe4b00a8	-0.19824469
155	0x3e6b8e7d	0.23003574
156	0x3e726820	0.23672533
157	0x3e47b914	0.19504195
158	0xbe2f6727	-0.17129193
159	0xbe3ffe1b	-0.18749277
160	0x3db52976	0.08845799
161	0x3dbfc8a0	0.09364438
162	0xbe373add	-0.17893548
163	0xbe5cd5fc	-0.21566004
164	0xbe50aac8	-0.20377648
165	0x3e298ebc	0.16558355
166	0x3e206303	0.1566277
167	0x3e2742ac	0.16334027
168	0x3e4df2a5	0.20112093
169	0xbd50587e	-0.050865643
170	0x3d70af35	0.05876084
171	0xbde0ab0e	-0.10970126
172	0x3e8f6951	0.28010038
173	0x3e3c21ae	0.18372223
174	0xbe803bc0	-0.25045586
175	0xbd582e82	-0.05277873
176	0x3defecd2	0.11715092
177	0x3dfee74b	0.124464594
178	0xbe4ec448	-0.20192063
179	0x3e1bfb3d	0.15232559
180	0x3e7f0685	0.24904831
181	0x3e4916b5	0.19637568
182	0xbdc2c6d3	-0.09510579
183	0x3e05cd02	0.13066486
184	0x3e2c4b08	0.16825497
185	0xbd06669c	-0.0328127
186	0x3dafa09f	0.08575558
187	0x3e120c22	0.14262441
188	0xbd08dead	-0.033415485
189	0xbd8cf345	-0.068823375
190	0xbdae7b3b	-0.08519598
191	0xbe2c168a	-0.16805473
192	0x3d298ade	0.0413922
193	0xbe2a315f	-0.16620396
194	0x3e6a5c48	0.22886765
195	0x3dc90b0b	0.098165594
196	0x3db8a6d9	0.09016199
197	0xbe1325f8	-0.14369953
198	0xbd9b4ee6	-0.07583408
199	0x3da296df	0.079389326
200	0x3e7c2d63	0.24626689
201	0xbdffd7db	-0.12492343
202	0xbe675088	-0.22589314
203	0x3d61524e	0.055010132
204	0xbe7efbf9	-0.24900807
205	0xbd81b309	-0.06332976
206	0x3e8ae124	0.27124894
207	0xbe104546	-0.14088926
208	0x3e0aed22	0.13567021
209	0x3d9f9a51	0.077931054
210	0x3d93ab82	0.07210447
211	0x3e6f4723	0.2336698
212	0x3e02db1e	0.12778899
213	0xbdebe93a	-0.11519094
214	0xbe8e1d1a	-0.27756578
215	0xbda2b86f	-0.07945334
216	0x3e65d45c	0.2244429
217	0x3e5df432	0.21675184
218	0xbd4f3fb8	-0.050597876
219	0x3e95ce8a	0.2925914
220	0x3dbb356d	0.091410495
221	0x3e86d47f	0.26333997
222	0xbe3d6025	-0.18493707
223	0xbe939166	-0.28821868
224	0x3e63f487	0.22261249
225	0x3e8fe6d7	0.28105804
226	0xbdaab5ba	-0.08335443
227	0xbe7d9493	-0.24763708
228	0xbd93e9cd	-0.07222328
229	0x3e38d781	0.18050958
230	0x3e8d8a78	0.27644706
231	0x3e20185c	0.15634292
232	0x3e7f9d6c	0.24962395
233	0xbe013af8	-0.12620151
234	0xbc03ecac	-0.008052032
235	0xbdf1ede9	-0.11812956
236	0x3e4a8fda	0.19781438
237	0x3de878fe	0.113512024
238	0xbe9006c9	-0.28130177
239	0xbe26f209	-0.16303267
240	0xbd76e9be	-0.060281508
241	0x3dabf305	0.08395962
242	0xbe582c23	-0.21110587
243	0x3d6ee9ff	0.058328625
244	0x3d5c586d	0.053795267
245	0x3e03587e	0.12826726
246	0xbd9921da	-0.0747716
247	0x3e40fdae	0.18846771
248	0x3e12d326	0.14338359
249	0x3d1353f1	0.035968725
250	0x3e8a906f	0.2706332
251	0xbc714b46	-0.014727419
252	0xbe048224	-0.1294027
253	0xbddecc8d	-0.10878859
254	0xbcbc0608	-0.022952095
255	0xbe94fad7	-0.29097626

notes_decoder.bias f4 [128]
0	0xbcfb1538	-0.030649766
1	0xbe375376	-0.17902932
2	0xbe0f7892	-0.14010838
3	0xbe75f8d6	-0.24020705
4	0xbe101c30	-0.14073253
5	0xbe129d79	-0.14317884
6	0xbe4d54dd	-0.20051904
7	0xbe339410	-0.1753695
8	0xbe70ba35	-0.23508532
9	0xbe7f6d5e	-0.24944064
10	0xbe1961ef	-0.14978765
11	0xbd63b26a	-0.05559007
12	0xbd416d94	-0.047223642
13	0xbe3c51f3	-0.18390636
14	0xbd68420f	-0.056703623
15	0xbe622624	-0.22084862
16	0xbd3375d6	-0.04381355
17	0xbe4d7e8b	-0.20067804
18	0xbd5e764f	-0.054312047
19	0xbda4aa27	-0.080402665
20	0xbe212f22	-0.15740636
21	0xbdfe1b6a	-0.124075726
22	0xbd6a1592	-0.057149477
23	0xbe0a4cb3	-0.13505821
24	0xbd9e30bc	-0.07724139
25	0xbe46f518	-0.19429433
26	0xbda51607	-0.08060842
27	0xbdaf8e7a	-0.08572097
28	0xbdc709a4	-0.09718636
29	0xbd065c98	-0.032803148
30	0xbe2bdce3	-0.1678348
31	0xbe50a533	-0.20375519
32	0xbe4262a7	-0.18982945
33	0xbdf6fc35	-0.120598234
34	0xbda09af9	-0.07842059
35	0xbd13acea	-0.036053576
36	0xbe047112	-0.12933758
37	0xbd846305	-0.06464199
38	0xbd1a7d12	-0.037716933
39	0xbe59775b	-0.21236937
40	0xbe39dd21	-0.1815076
41	0xbda32675	-0.079663195
42	0xbe74d9d7	-0.23911224
43	0xbe3048ef	-0.17215322
44	0xbe6309ab	-0.22171657
45	0xbdf2da76	-0.11858074
46	0xbe012800	-0.12612915
47	0xbe058659	-0.13039531
48	0xbe1c5763	-0.1526771
49	0xbd1d9bee	-0.038478784
50	0xbd980c9c	-0.0742428
51	0xbd2840b4	-0.04107733
52	0xbcdc6663	-0.02690429
53	0xbe200065	-0.1562515
54	0xbe6b9aa7	-0.23008214
55	0xbe274c69	-0.16337742
56	0xbe365a99	-0.17807998
57	0xbd14c265	-0.0363182
58	0x3b4f6f27	0.0031651945
59	0xbe7b47b8	-0.24539077
60	0xbc35ad56	-0.01108869
61	0xbd142a07	-0.036172893
62	0xbd0574f0	-0.032582223
63	0xbe127c33	-0.1430519
64	0xbc88ec43	-0.01671422
65	0xbe687ef2	-0.22704676
66	0xbcd4c6b7	-0.02597366
67	0xbde1705c	-0.11007759
68	0xbe5ee80b	-0.21768205
69	0xbe40eafb	-0.18839638
70	0xbe190b90	-0.14945817
71	0xbe30f160	-0.17279577
72	0xbe571ec0	-0.21007824
73	0xbd6acfdf	-0.057327148
74	0xbdddc5ce	-0.10828744
75	0xbe0fe757	-0.14053093
76	0xbe5b40e3	-0.21411471
77	0xbd0e7bde	-0.034786098
78	0xbe26ca80	-0.16288185
79	0xbdb4cd33	-0.08828201
80	0xbe5f6195	-0.21814568
81	0xbe6184c4	-0.22023302
82	0xbe4e1f03	-0.20129018
83	0xbe5910c9	-0.2119781
84	0xbe30826c	-0.17237252
85	0xbdea332c	-0.114355415
86	0xbd614098	-0.054993242
87	0xbe4686c1	-0.19387342
88	0xbd33107a	-0.043716885
89	0xbdebf951	-0.11522163
90	0xbe74fa9c	-0.23923725
91	0xbd9b58cc	-0.07585296
92	0xbe314f5a	-0.17315426
93	0xbd95c846	-0.0731359
94	0xbe4deedb	-0.20110647
95	0xbe838f72	-0.25695378
96	0xbd86ae0b	-0.06576165
97	0xbc1b91c4	-0.009495202
98	0xbe40b35d	-0.18818422
99	0xbe3a6295	-0.18201669
100	0xbd37897e	-0.044808857
101	0xbd8571df	-0.0651586
102	0xbd7f189c	-0.06227933
103	0xbe64667f	-0.22304724
104	0xbe804cbe	-0.2505855
105	0xbd486088	-0.048920184
106	0xbe8094c3	-0.25113496
107	0xbe87af70	-0.26501036
108	0xbe73788a	-0.23776451
109	0xbde6a9bd	-0.11262844
110	0xbd81c08c	-0.063355535
111	0xbe11954e	-0.14217111
112	0xbe5bb6bf	-0.21456431
113	0xbdab2993	-0.08357539
114	0xbda1193c	-0.07866141
115	0xbe0dc14d	-0.1384327
116	0xbe4df3df	-0.2011256
117	0xbe5c3243	-0.21503548
118	0xbe66bc65	-0.22532804
119	0xbe264136	-0.16235813
120	0xbd8bac58	-0.06819981
121	0xbe6cc6b4	-0.23122674
122	0xbe07897c	-0.1323604
123	0xbd85eeab	-0.06539663
124	0xbd36c9d9	-0.04462609
125	0xbd4c5b38	-0.04989168
126	0xbe4e8daf	-0.20171236
127	0xbde8af11	-0.11361516
