saved_models/generalist_BCE_1e-2_177.pth (torch_old, 167373 bytes, 8 tensors)

notes_encoder.weight f4 [64, 128]
-0.08363057 -0.056063853 0.053728797 0.070271336 -0.07089395 -0.05425862 0.008400373 -0.061487425
-0.061706167 -0.005199909 -0.015020601 0.058707483 -0.08173909 -0.032698557 0.011487335 0.056506924
-0.053802673 -0.0821958 -0.017891936 0.017808244 0.045721494 -0.057669826 -0.08362435 0.017921388
-0.08805638 0.0065899417 0.043320023 0.022706538 0.060518034 -0.0241028 0.024704069 -0.013282359
-0.049947187 0.025590204 -0.5146457 0.036675565 -0.07014277 0.0072287396 -0.08822874 -0.24149145
0.12766391 0.06568277 -0.81618434 -0.47073796 0.84248096 -0.39770365 0.11572945 0.1805487
0.29361847 0.4233105 0.4258865 0.08968666 -0.086273424 0.04774704 -0.23708625 0.14460208
0.6343776 0.0002635693 0.22534057 0.3136116 0.13469692 0.6665206 0.23065901 0.3660842
0.20701507 0.01312338 -0.017127112 0.27044505 0.7535631 0.24082318 0.51787335 0.75462276
0.36667782 0.18694322 0.2625381 -0.5001472 0.29478857 0.5807449 -0.12232263 0.33385435
0.18598442 0.13124716 0.00084691914 -0.04762834 -0.22342618 -0.3039009 -0.03674738 -0.5542052
-0.2853843 0.14051017 -0.078302085 0.07450674 -0.020438485 0.028396405 0.0077340603 -0.024523273
-0.073690444 -0.0032403544 -0.050767343 0.07606236 0.08421583 0.08412037 -0.026591804 -0.07361451
-0.0142291635 0.0539648 -0.05276699 0.04313635 -0.008176163 -0.010996975 -0.03486559 -0.050721
0.054807134 0.027884953 0.0432607 -0.05122507 0.045091413 0.028684206 0.05973404 0.053887032
0.013271809 0.08436299 0.004648745 -0.016812406 0.008621782 -0.045334563 0.06087 0.026198216
-0.08172513 0.05987487 0.063582696 0.006530151 -0.08541059 0.07587042 0.023584217 -0.07325131
0.006831646 -0.023211293 0.062724225 -0.0068672523 -0.033235203 0.045847632 0.02163893 0.012341052
-0.06962038 -0.0829043 0.026665702 -0.0005152151 -0.017633207 -0.0066386163 -0.0128392875 -0.033453617
0.047353975 -0.026011191 -0.027028196 -0.06818642 0.017899916 -0.02453433 0.00532791 -0.042091627
0.056998603 -0.024827205 0.0087949615 0.028965928 -0.033175346 0.0044311583 -0.008869607 -0.047424797
-0.04699229 -0.1067391 -0.08150873 -0.20261735 -0.06114457 -0.05986571 -0.102430835 -0.09258212
-0.10855088 -0.060453754 -0.07843308 -0.16075598 -0.006350544 -0.04581966 -0.0509108 -0.11631323
-0.10140631 -0.07764004 -0.16558929 -0.1022666 -0.15020809 -0.060006898 -0.038903303 -0.02483196
-0.07770049 -0.057067126 -0.18738697 -0.1504512 -0.018617397 -0.17118311 -0.07760614 -0.16623938
-0.09098442 -0.10620075 -0.04274104 -0.059853155 -0.035024635 0.021993103 -0.119933665 -0.096503414
-0.038231984 -0.1257932 -0.041913893 -0.052324433 -0.13477352 -0.009988956 -0.010622082 -0.09250204
-0.047195416 -0.013858715 -0.06895712 0.0377964 -0.033649042 -0.02293583 -0.021872982 0.07553101
-0.04307606 0.026250154 -0.035982776 0.067532904 0.01409433 0.053082354 -0.052591372 0.06316354
0.0450897 -0.052258182 0.04881329 0.056739546 -0.040274885 0.05125367 -0.06608129 -0.020150833
-0.08127616 -0.0015260205 -0.07636109 0.07801322 0.08528478 0.026158832 -0.024754338 -0.009850919
-0.061550856 -0.035152968 -0.007937707 -0.074793234 0.044621803 0.057538144 -0.029312186 0.010679051
00000000: 8146 abbd 36a3 65bd ba12 5c3d 6bea 8f3d
00000010: d930 91bd 493e 5ebd b8a1 093c 3dda 7bbd
00000020: 9bbf 7cbd 0064 aabb f818 76bc 4277 703d
00000030: d366 a7bd ecee 05bd 6035 3c3c ce73 673d
00000040: 3160 5cbd 4656 a8bd 1c92 92bc 98e2 913c
00000050: 7646 3b3d 3237 6cbd 3e43 abbd e0cf 923c
00000060: e756 b4bd 70f0 d73b 5670 313d 1003 ba3c
00000070: c2e1 773d 3c73 c5bc 3060 ca3c 409e 59bc
00000080: 6c95 4cbd 8ca2 d13c d2bf 03bf 1e39 163d
00000090: 03a7 8fbd 10df ec3b 45b1 b4bd 8949 77be
000000a0: 54ba 023e b084 863d 75f1 50bf 9104 f1be
000000b0: d5ac 573f d09f cbbe 9003 ed3d c2e1 383e
000000c0: 2955 963e 27bc d83e cc0d da3e a4ad b73d
000000d0: 1fb0 b0bd 6692 433d bdc6 72be 9112 143e
000000e0: 9266 223f ac2f 8a39 aebf 663e b391 a03e
000000f0: fded 093e 18a1 2a3f e031 6c3e 636f bb3e
00000100: c2fb 533e 7203 573c 284e 8cbc c677 8a3e
00000110: 83e9 403f 5a9a 763e 5993 043f f52e 413f
00000120: 32bd bb3e 0b6e 3f3e 656b 863e a609 00bf
00000130: 87ee 963e b3ab 143f 4984 fabd f5ee aa3e
00000140: b372 3e3e a865 063e c803 5e3a ef15 43bd
00000150: d5c9 64be e698 9bbe 6c84 16bd 64e0 0dbf
00000160: e41d 92be e6e1 0f3e d85c a0bd fd96 983d
00000170: 9c6e a7bc 949f e83c 006e fd3b 08e5 c8bc
00000180: 04eb 96bd 205c 54bb 6bf1 4fbd 95c6 9b3d
00000190: 5979 ac3d 4d47 ac3d 0ed7 d9bc 34c3 96bd
000001a0: 7021 69bc 320a 5d3d 3322 58bd beaf 303d
000001b0: 50f5 05bc a82c 34bc 39cf 0ebd d3c0 4fbd
000001c0: 727d 603d fc6e e43c 2232 313d 61d1 51bd
000001d0: c6b1 383d 24fb ea3c aeab 743d a6b8 5c3d
000001e0: 0072 593c 81c6 ac3d 8054 983b 2cba 89bc
000001f0: 6042 0d3c bcb0 39bd d252 793d a49d d63c
00000200: 815f a7bd 5a3f 753d a537 823d e0fa d53b
00000210: bfeb aebd f361 9b3d b033 c13c c804 96bd
00000220: 00dc df3b 9c25 bebc 8f75 803d b006 e1bb
00000230: a321 08bd baca 3b3d 2044 b13c 2032 4a3c
00000240: 2195 8ebd bbc9 a9bd 0872 da3c 800f 07ba
00000250: 8473 90bc c088 d9bb e05b 52bc a906 09bd
00000260: 3ef6 413d 6c15 d5bc 3c6a ddbc 52a5 8bbd
00000270: d8a2 923c 38fc c8bc c095 ae3b 4568 2cbd
00000280: 5e77 693d 6c62 cbbc be18 103c f449 ed3c
00000290: dfe2 07bd 4033 913b d451 11bc 8140 42bd
000002a0: fd7a 40bd 079a dabd 0dee a6bd ec7a 4fbe
000002b0: bb72 7abd bf35 75bd 42c7 d1bd b29b bdbd
000002c0: ec4f debd 5b9e 77bd 86a1 a0bd 379d 24be
000002d0: 3918 d0bb 65ad 3bbd d887 50bd a135 eebd
000002e0: 1dae cfbd be01 9fbd 3d90 29be 2771 d1bd
000002f0: 26d0 19be cbc9 75bd 1259 1fbd 656c cbbc
00000300: 6f21 9fbd 38bf 69bd 5fe2 3fbe e10f 1abe
00000310: 8383 98bc a04a 2fbe f8ef 9ebd a83a 2abe
00000320: 0a56 babd c77f d9bd 3b11 2fbd 9528 75bd
00000330: fe75 0fbd e12a b43c c89f f5bd 95a3 c5bd
00000340: 2499 1cbd efcf 00be e7ad 2bbd 2552 56bd
00000350: 1202 0abe b8a8 23bc 3e08 2ebc b671 bdbd
00000360: fb4f 41bd aa0f 63bc 6439 8dbd 66d0 1a3d
00000370: 94d3 09bd ece3 bbbc f82e b3bc 01b0 9a3d
00000380: 8670 30bd 900a d73c ad62 13bd b14e 8a3d
00000390: e8eb 663c e26c 593d 0d6a 57bd e35b 813d
000003a0: faaf 383d ad0c 56bd 72f0 473d ba67 683d
000003b0: 47f7 24bd 5eef 513d a155 87bd 5c13 a5bc
000003c0: 1e74 a6bd c004 c8ba 3463 9cbd 65c5 9f3d
000003d0: c9a9 ae3d 0c4b d63c 9cc9 cabc c065 21bc
000003e0: c01c 7cbd 8ffc 0fbd 280d 02bc 322d 99bd
000003f0: 5ac5 363d 1ead 6b3d 1c20 f0bc 30f7 2e3c

notes_encoder.bias f4 [64]
-0.124864444 -0.16707505 -0.16356112 0.17473921 -0.05845036 -0.16821991 -0.19135681 0.14016767
0.15668426 0.046131983 0.13469976 0.07924152 -0.030547261 0.1486323 0.08552216 -0.179993
-0.16745545 -0.17504527 -0.14011575 0.14461675 -0.18020628 -0.16321301 0.1257474 -0.23563448
0.19430098 0.20599991 0.1933382 -0.206845 0.040447235 -0.10705002 0.08681339 -0.1364824
0.076955795 0.18939352 -0.13745396 -0.119519465 0.017418107 0.121541046 0.14015695 -0.10950514
-0.048089188 -0.21322607 0.06462398 -0.17384742 0.069785595 -0.0047711344 0.16439594 0.12886585
0.14673805 0.16932288 -0.05830033 0.14160137 0.046524577 0.13387002 0.17645481 -0.10836282
0.16833451 0.06883541 -0.1221126 0.16551699 0.18011485 0.14018156 -0.1128149 -0.20822251
00000000: eeb8 ffbd b915 2bbe 917c 27be d6ee 323e
00000010: a569 6fbd d741 2cbe 0af3 43be 1d88 0f3e
00000020: d771 203e e4f4 3c3d bcee 093e 6149 a23d
00000030: 403e fabc 1133 183e 3e26 af3d 1650 38be
00000040: 7179 2bbe 113f 33be 817a 0fbe 6a16 143e
00000050: ff87 38be 5021 27be edc3 003e 2a4a 71be
00000060: d6f6 463e a4f1 523e 73fa 453e 2dcf 53be
00000070: 00ac 253d 0a3d dbbd 38cb b13d 0bc2 0bbe
00000080: 009b 9d3d 60f0 413e bbc0 0cbe 9fc6 f4bd
00000090: 6bb0 8e3c 83ea f83d 4e85 0f3e 3b44 e0bd
000000a0: 2bf9 44bd ef57 5abe 9459 843d 0f05 32be
000000b0: c0eb 8e3d 2d57 9cbb 6957 283e 69f5 033e
000000c0: 8042 163e fa62 2d3e 54cc 6ebd f3ff 103e
000000d0: 8e90 3e3d 3915 093e 92b0 343e 54ed ddbd
000000e0: e25f 2c3e 94f9 8c3d 2c16 fabd 497d 293e
000000f0: 0770 383e c18b 0f3e 800b e7bd 4838 55be

gru.weight_ih_l0 f4 [192, 64]
0.041118395 0.22467986 0.242802 -0.0026932582 0.025250377 0.1802636 0.13076131 -0.01092389
-0.2331871 -0.02109576 0.045535956 -0.026365582 0.07651422 -0.19048603 -0.05802226 0.047162455
0.2111294 0.044142608 0.18903792 -0.11099448 0.1185299 0.16137348 -0.056575842 0.17528373
-0.2238662 -0.11582298 -0.17588742 0.16963692 -0.14012054 0.16407542 -0.053559538 0.043082565
-0.18427947 -0.053189907 0.15111743 0.1687465 -0.0675446 -0.17414345 -0.23834287 0.04714176
0.12676911 0.10566881 0.029029394 -0.06996076 -0.0125522325 0.0636795 -0.14083236 -0.01254564
0.01114317 -0.2193175 -0.11861432 -0.13268822 0.04871764 -0.17846568 -0.087113306 0.07568084
-0.16754426 -0.025437836 0.12000647 -0.11528061 -0.25158057 -0.10923157 0.103459395 0.04130245
0.042115223 -0.22698116 -0.07988125 0.16027178 -0.1727116 -0.14608526 -0.0429469 0.17615019
-0.0004074996 -0.022085369 0.013400948 0.06331573 0.0204711 0.096511364 0.0044608368 -0.102698386
-0.006421417 0.011037046 0.0024712293 0.14178716 -0.20515017 -0.2165504 -0.028188838 -0.050762698
0.21863678 0.122477956 0.12532073 -0.093862906 0.16017064 -0.06965876 0.17990585 -0.12191462
-0.036518995 0.03222683 -0.03672291 -0.06730048 0.108477585 0.18984589 0.097795986 -0.1579646
-0.15767467 -0.1189037 0.06583074 0.01811012 0.16781224 0.09638889 0.107906364 0.14503908
0.15979487 0.15004466 0.06663673 0.14067568 -0.0419456 0.11249836 0.03195569 -0.13517773
0.013378041 -0.08850859 -0.043555435 -0.0025723907 0.21775036 0.087308615 -0.06383889 -0.11404509
0.2352712 -0.09449876 -0.19522311 0.14038777 -0.15089273 0.024887124 -0.016611053 0.16686629
0.09341051 0.20633283 -0.12269996 0.15983076 -0.036138937 -0.0278688 -0.0014876077 -0.044057656
-0.08790732 -0.021364072 0.033999335 0.1363735 0.021258736 -0.19128051 0.10534113 -0.19025514
0.11102213 0.05110551 0.11672905 -0.1042636 0.060399316 -0.030501023 0.20447583 -0.18137656
0.15655303 -0.015241477 -0.04772831 -0.00055405055 0.21663809 0.045122202 0.13016865 -0.13989352
-1.6080588e-05 -0.19164386 0.026090603 -0.122924715 0.038177885 -0.09044464 0.0098298965 0.055760033
-0.12630506 0.07193542 0.08637806 0.19566597 0.17722377 0.114795335 0.15519762 -0.019073823
0.17583062 -0.08505785 0.032027505 0.17643014 0.09029811 0.064901076 -0.053995527 -0.14841354
0.15163822 -0.11937141 -0.025205502 0.03995265 -0.21396586 -0.013187546 -0.13084805 0.16386417
0.18781161 0.09120153 -0.07950954 0.12494754 0.2142128 0.13779645 0.018446112 -0.13826
-0.17024437 -0.113821425 -0.024837665 0.058008946 -0.19511902 -0.052071396 0.09292253 0.029442148
0.08963816 0.007675162 -0.03225502 -0.00453665 0.12561151 -0.10321613 0.2014458 -0.07325237
0.09424804 0.19168709 -0.09044839 -0.023147812 0.22312248 0.10218668 0.17058834 -0.045142677
-0.105420254 -0.14227551 0.15175 -0.11210521 0.14445055 -0.08524851 0.112739064 0.009252516
-0.13687688 0.08323782 0.0076802657 0.1899313 0.0016717513 0.02599456 0.024011126 -0.13880433
0.11516543 -0.18588875 -0.20877588 -0.02436693 -0.03136791 0.16918416 -0.12795399 -0.06370669
00000000: c36b 283d 7a12 663e 16a1 783e 6081 30bb
00000010: e1d9 ce3c 0597 383e 4be6 053e 1efa 32bc
00000020: 99c8 6ebe 04d1 acbc e983 3a3d a2fc d7bc
00000030: 7db3 9c3d c50e 43be c0a8 6dbd 6b2d 413d
00000040: 4e32 583e e1ce 343d 2893 413e 1351 e3bd
00000050: cebf f23d 173f 253e 12bc 67bd 947d 333e
00000060: 2e3d 65be 9934 edbd d51b 34be 4db5 2d3e
00000070: c27b 0fbe 6303 283e 3f61 5bbd 5877 303d
00000080: c2b3 3cbe a9dd 59bd 87be 1a3e e2cb 2c3e
00000090: d354 8abd a952 32be 2710 74be b817 413d
000000a0: c3cf 013e e468 d83d 0dcf ed3c 9647 8fbd
000000b0: e1a7 4dbc 666a 823d 5c36 10be 3a8c 4dbc
000000c0: d891 363c c494 60be 11ec f2bd 6cdf 07be
000000d0: 268c 473d b5bf 36be 7668 b2bd 8efe 9a3d
000000e0: b990 2bbe 0263 d0bc f4c5 f53d 3e18 ecbd
000000f0: 2bcf 80be cdb4 dfbd 85e2 d33d c22c 293d
00000100: 0381 2c3d c06d 68be c898 a3bd 491e 243e
00000110: 4fdb 30be 6097 15be 17e9 2fbd b760 343e
00000120: aca5 d5b9 60ec b4bc a68f 5b3c adab 813d
00000130: 02b3 a73c c0a7 c53d 362c 923b 8853 d2bd
00000140: c06a d2bb bad4 343c 59f4 213b a730 113e
00000150: e312 52be 63bf 5dbe 47ec e6bc 8cec 4fbd
00000160: 52e2 5f3e b9d5 fa3d 1454 003e 323b c0bd
00000170: c603 243e 41a9 8ebd 3d39 383e 5fae f9bd
00000180: f194 15bd 4800 043d c36a 16bd d6d4 89bd
00000190: 7f29 de3d f666 423e 4349 c83d 79c1 21be
000001a0: 7875 21be c883 f3bd 44d2 863d ad5b 943c
000001b0: f9d6 2b3e 8a67 c53d 03fe dc3d 2085 143e
000001c0: 44a1 233e 4fa5 193e d778 883d 490d 103e
000001d0: 26cf 2bbd 8a65 e63d f8e3 023d 086c 0abe
000001e0: 922f 5b3c fe43 b5bd 2f67 32bd 8e95 28bb
000001f0: f3f9 5e3e dcce b23d f7bd 82bd 7990 e9bd
00000200: efea 703e 9188 c1bd 91e8 47be d0c1 0f3e
00000210: a083 1abe 15e0 cb3c e713 88bc ffde 2a3e
00000220: 024e bf3d ea48 533e 1e4a fbbd adaa 233e
00000230: 6c06 14bd 1c4d e4bc d5fb c2ba cd75 34bd
00000240: c108 b4bd b503 afbc e342 0b3d 7fa5 0b3e
00000250: cd26 ae3c 0adf 43be 17bd d73d 3ed2 42be
00000260: 925f e33d 0354 513d a40f ef3d 2888 d5bd
00000270: 4665 773d 48dd f9bc 1d62 513e c7ba 39be
00000280: 704f 203e 63b7 79bc c37e 43bd b43d 11ba
00000290: 60d6 5d3e 0fd2 383d ee4a 053e 3f40 0fbe
000002a0: cde4 86b7 4a3e 44be f6bb d53c f4bf fbbd
000002b0: 6a60 1c3d 0a3b b9bd 930d 213c a264 643d
000002c0: 1d56 01be e152 933d fbe6 b03d a95c 483e
000002d0: 267a 353e d119 eb3d 20ec 1e3e b540 9cbc
000002e0: f10c 343e cf32 aebd 462f 033d 1aaa 343e
000002f0: 37ee b83d dbea 843d 6a2a 5dbd b8f9 17be
00000300: 0d47 1b3e ff78 f4bd c57b cebc 64a5 233d
00000310: de19 5bbe 9410 58bc 08fd 05be 02cc 273e
00000320: b051 403e dec7 ba3d e6d5 a2bd 7fe4 ff3d
00000330: 9a5a 5b3e 831a 0d3e 4d1c 973c 0894 0dbe
00000340: 8a54 2ebe 351b e9bd 5c78 cbbc ca9a 6d3d
00000350: 48cd 47be d148 55bd 2b4e be3d a930 f13c
00000360: 3694 b73d ed7f fb3b d71d 04bd 2ea8 94bb
00000370: 4ea0 003e fa62 d3bd cf47 4e3e 5705 96bd
00000380: 1e05 c13d 9f49 443e 013d b9bd 7ba0 bdbc
00000390: 387a 643e 4047 d13d b6ae 2e3e 87e7 38bd
000003a0: 93e6 d7bd acb0 11be 5a64 1b3e 6b97 e5bd
000003b0: d8ea 133e c596 aebd bde3 e63d dd97 173c
000003c0: 7429 0cbe 9778 aa3d bdaa fb3b 5a7d 423e
000003d0: aa1e db3a 8bf2 d43c fbb2 c43c b922 0ebe
000003e0: dadb eb3d 9f59 3ebe 58c9 55be 289d c7bc
000003f0: a37b 00bd 9d3e 2d3e 5f06 03be a778 82bd

gru.weight_hh_l0 f4 [192, 64]
0.022980716 -0.047284167 -0.13809416 0.20184849 0.07865088 -0.14584732 -0.09527015 0.15911739
0.25350818 -0.05211636 -0.09136569 0.13037059 -0.0054045347 -0.23001885 0.022782149 -0.07428491
0.06346661 0.23231278 -0.11588011 -0.022931185 0.16149975 -0.17281863 -0.17105588 -0.17951833
0.010600222 0.18359777 -0.1738157 0.10522355 0.017864216 0.20719388 -0.16617806 -0.1978995
0.012977956 0.23589413 -0.08271883 -0.03600092 -0.18741259 0.16462222 -0.0012611917 0.17162113
0.08592359 -0.15309037 0.07542976 -0.15159133 0.17036358 0.07659945 -0.10303408 -0.08985772
-0.018414548 0.17624295 -0.23391543 0.15817153 0.12673508 0.063103035 -0.07168683 0.20182055
0.005140858 -0.06789322 0.14807977 0.03687994 -0.1007598 -0.11182012 -0.09604526 -0.1463289
-0.042129193 0.044542823 0.069504425 -0.097408056 0.01652764 0.100918405 0.21103798 -0.02784421
-0.057081796 0.15478554 0.076329365 -0.0953586 0.09342289 0.09689854 -0.14856918 0.07429426
0.0017588197 -0.16817711 0.045479473 -0.1668189 -0.07631518 0.22232795 0.17463571 0.0537881
-0.017352227 -0.13100754 0.07932925 -0.062101066 -0.11346001 -0.09166714 -0.039665263 0.131427
-0.1500764 -0.07077588 0.021922614 0.2036869 0.20864625 -0.11334271 -0.17933518 0.0021735989
-0.22199313 -0.0066761468 -0.20416419 0.18875924 -0.040737625 -0.07853384 0.1625702 0.06696664
-0.055449277 -0.08636206 -0.04285 -0.109411955 -0.018894577 0.02586669 0.15413584 -0.00037493516
-0.15419747 -0.12755674 -0.17778504 0.0602383 0.05146983 0.2047493 -0.0013362112 0.19246322
-0.2711155 0.093526885 -0.10621626 0.012720252 -0.18686827 0.16495371 -0.01078743 -0.029092293
-0.22868046 0.08617048 0.08015838 0.1418422 0.2132755 -0.006762731 -0.24058886 0.16855454
-0.11269169 -0.17021245 0.11341692 -0.021742994 -0.022171253 0.06270802 0.13854556 0.060953498
-0.21130176 -0.23366152 0.076612175 -0.10005606 -0.19231986 -0.121148765 0.2213525 0.11993541
-0.08975232 -0.22581804 0.093231745 -0.02129953 0.21199945 -0.16836248 -0.15946825 -0.004427058
-0.055715248 0.051243693 -0.09927595 0.07645937 -0.03150816 -0.060491055 0.19835989 0.050591994
0.18082239 0.017460179 0.13594276 -0.22405387 -0.09646704 -0.106002025 -0.011835685 -0.11382234
-0.13577095 0.2126139 -0.14000165 -0.02372518 0.057380162 -0.012176022 0.24496539 0.07126805
-0.13907558 0.096707374 -0.14445385 -0.16220908 0.011736646 0.13931811 0.17251265 0.019475717
-0.0077946275 -0.01666463 0.011501465 -0.005055308 0.20205587 -0.015467127 -0.13097893 0.18388896
-0.035821173 0.02054797 0.16485716 -0.19409554 -0.002532693 0.18609285 0.047867745 0.1443649
0.034727976 -0.010712777 0.07447743 -0.063286036 -0.0025673574 -0.033092722 0.07578687 0.09794177
-0.15529548 0.010565005 0.1731928 -0.009300696 0.20485039 -0.00901247 -0.045170344 -0.19577065
-0.1430085 0.15807486 -0.09972482 0.14357795 -0.14636587 -0.18472631 -0.028337263 0.05957986
0.082602225 -0.08998316 0.13802654 0.003814435 -0.18430436 -0.23798537 0.049284372 -0.047033742
-0.09429454 0.084977396 -0.07971945 -0.096448 0.09749568 0.18103185 0.12824176 0.020085026
00000000: 0e42 bc3c 0bad 41bd 8e68 0dbe 5fb1 4e3e
00000010: b613 a13d 0059 15be ff1c c3bd abef 223e
00000020: d3cb 813e f777 55bd ef1d bbbd de7f 053e
00000030: 8618 b1bb 108a 6bbe a1a1 ba3c b022 98bd
00000040: c8fa 813d 67e3 6d3e 8d52 edbd 2eda bbbc
00000050: 3160 253e 5ef7 30be 4629 2fbe a7d3 37be
00000060: 8eac 2d3c 0e01 3c3e befc 31be 727f d73d
00000070: fa57 923c a22a 543e 952a 2abe 2ba6 4abe
00000080: 7ea1 543c 3b8e 713e 7d68 a9bd b375 13bd
00000090: 16e9 3fbe ba92 283e 924e a5ba 73bd 2f3e
000000a0: b5f8 af3d b9c3 1cbe eb7a 9a3d c23a 1bbe
000000b0: ca73 2e3e 2ce0 9c3d 8803 d3bd 5307 b8bd
000000c0: 1bda 96bc 0879 343e 8787 6fbe b8f7 213e
000000d0: d7c6 013e 2a3c 813d 8bd0 92bd 0caa 4e3e
000000e0: a474 a83b 9a0b 8bbd 39a2 173e 6c0f 173d
000000f0: 275b cebd f201 e5bd 61b3 c4bd 3ed7 15be
00000100: a98f 2cbd 8972 363d 5658 8e3d e07d c7bd
00000110: f964 873c 4fae ce3d 571a 583e 8a19 e4bc
00000120: 9ace 69bd 1a80 1e3e 9252 9c3d 5f4b c3bd
00000130: 8054 bf3d be72 c63d 8522 18be 9727 983d
00000140: 3288 e63a 9f36 2cbe af48 3a3d 93d2 2abe
00000150: 224b 9cbd f0a9 633e b4d3 323e e950 5c3d
00000160: 4226 8ebc d726 06be 6077 a23d b05d 7ebd
00000170: b95d e8bd fbbb bbbd 0b78 22bd cd94 063e
00000180: a1ad 19be f2f2 90bd 0e97 b33c 4c93 503e
00000190: 5da7 553e 3920 e8bd a4a3 37be f072 0e3b
000001a0: 2b52 63be 94c3 dabb 6b10 51be 1a4a 413e
000001b0: 7fdc 26bd 5ad6 a0bd cd78 263e ce25 893d
000001c0: c81e 63bd 97de b0bd 7b83 2fbd 6013 e0bd
000001d0: cdc8 9abc 61e6 d33c c9d5 1d3e f292 c4b9
000001e0: f1e5 1dbe 3c9e 02be 480d 36be 70bc 763d
000001f0: 07d2 523d cda9 513e cf23 afba 1415 453e
00000200: a7cf 8abe 068b bf3d e987 d9bd 9b68 503c
00000210: 655a 3fbe a0e9 283e c3bd 30bc f652 eebc
00000220: 362b 6abe 267a b03d 142a a43d 153f 113e
00000230: e564 5a3e e699 ddbb ed5c 76be 9099 2c3e
00000240: e7ca e6bd 2c4c 2ebe 2147 e83d 5d1e b2bc
00000250: 7da0 b5bc 106d 803d e3de 0d3e 60aa 793d
00000260: 7d5f 58be f744 6fbe d8e6 9c3d 31ea ccbd
00000270: 7fef 44be d81c f8bd 3baa 623e b2a0 f53d
00000280: 10d0 b7bd d83c 67be 49f0 be3d 5a7c aebc
00000290: 6216 593e 3767 2cbe a54b 23be db10 91bb
000002a0: ac35 64bd e8e4 513d 3051 cbbd bb96 9c3d
000002b0: b30e 01bd 78c5 77bd db1e 4b3e 8d39 4f3d
000002c0: 8129 393e a608 8f3c 9434 0b3e 616e 65be
000002d0: 8390 c5bd 9717 d9bd 76ea 41bc b01b e9bd
000002e0: 8a07 0bbe 75b7 593e 985c 0fbe 4f5b c2bc
000002f0: 7607 6b3d f07d 47bc 35d8 7a3e fcf4 913d
00000300: d469 0ebe 840e c63d b6eb 13be 231a 26be
00000310: 104b 403c 68a9 0e3e 28a7 303e 8a8b 9f3c
00000320: 136a ffbb 4384 88bc a470 3c3c ffa6 a5bb
00000330: bce7 4e3e d569 7dbc 571f 06be 634d 3c3e
00000340: 39b9 12bd 3754 a83c 51d0 283e fbc0 46be
00000350: 8afb 25bb 208f 3e3e f810 443d 64d4 133e
00000360: ec3e 0e3d a584 2fbc 9f87 983d 1c9c 81bd
00000370: 1c41 28bb 3c8c 07bd 2636 9b3d b295 c83d
00000380: c705 1fbe d818 2d3c 7459 313e f261 18bc
00000390: 4dc4 513e 0aa9 13bc 8a04 39bd 1a78 48be
000003a0: d270 12be 60de 213e 873c ccbd 1906 133e
000003b0: efe0 15be e528 3dbe 8c23 e8bc 030a 743d
000003c0: 5b2b a93d 1749 b8bd d456 0d3e 9afb 793b
000003d0: 48ba 3cbe 70b2 73be 69de 493d 74a6 40bd
000003e0: 7f1d c1bd a108 ae3d f343 a3bd 8786 c5bd
000003f0: d1ab c73d 6a60 393e cf51 033e 5a89 a43c

gru.bias_ih_l0 f4 [192]
-0.20050137 0.14697194 -0.034672566 0.1620619 0.014638302 0.09403993 0.07622064 0.08246161
0.07715444 0.11893816 0.07039136 -0.124534495 0.12900518 0.21158601 0.10883277 0.14489017
0.18346871 0.06829357 -0.06508613 0.15363917 0.041432634 0.11904834 0.15532967 0.14195228
0.09559928 0.04595936 -0.033643197 0.010763811 0.1852994 0.0052902615 0.039591856 0.06722891
0.17832245 0.10546995 0.15352413 -0.055704433 0.106524855 0.04804143 0.11934131 0.23657577
0.17873114 0.02226783 0.062073898 -0.023900047 0.058606286 -0.008746691 -0.036090318 -0.031359382
-0.02754154 0.047030788 0.10923223 0.23058985 0.15999827 0.031624068 0.14262219 0.0719126
-0.02437713 -0.15431085 0.18197267 0.009554595 0.09022192 0.0042769667 0.12475201 -0.02353027
-0.18837743 0.037071288 0.37351027 0.18034595 -0.1196208 -0.13891223 0.0050324607 -0.004312328
0.09897381 -0.28742748 -0.08321923 -0.122977525 -0.26719803 -0.1771466 -0.066820584 -0.15200475
0.04464667 -0.07283207 0.0683081 -0.057785206 0.1989094 0.017893191 -0.020038608 -0.14675178
-0.02681185 -0.042456347 0.080932975 0.10696973 -0.0071711973 0.016381817 -0.051241085 -0.25046718
0.12915018 -0.02865786 0.27308664 -0.17683907 -0.17533603 -0.18253002 0.02783823 0.40667793
-0.11290756 0.11785474 0.07820097 0.04710496 0.024761083 -0.031490866 -0.029564498 0.03922215
-0.28448883 0.06971238 0.18911025 -0.07513011 -0.17170016 0.06004882 0.06520438 0.029374076
-0.07512406 0.016732994 0.12920395 0.3344486 -0.14484997 -0.052132107 -0.08266242 0.097124994
-0.07996755 0.109757386 0.018141031 -0.13271838 -0.16859137 0.14529125 0.110275775 -0.20718642
-0.16325179 0.17039698 0.22305727 -0.08340901 0.15552583 0.14307418 -0.16748938 0.15183526
-0.16580327 -0.1595675 0.003436234 0.011041025 -0.17400506 0.16589756 0.19598359 0.18448053
-0.13396388 0.030524818 0.1379784 -0.2181737 -0.19011734 -0.1358994 0.16305918 0.20096017
-0.25727567 -0.23832123 -0.011332473 0.20202488 0.15250987 -0.14984876 -0.14748007 -0.035481878
-0.1924286 0.0848659 -0.013044076 0.18013749 -0.14289045 -0.16758507 0.23152405 0.04081006
0.09009657 -0.030881936 0.13636012 -0.12078214 -0.22847246 -0.070282385 0.17838569 -0.21930218
-0.12744077 0.13024329 -0.12291553 -0.054727744 0.10056775 0.21720235 0.1866324 0.22192027
00000000: 3b50 4dbe d07f 163e d204 0ebd 8ef3 253e
00000010: 7dd5 6f3c 0298 c03d 9119 9c3d a2e1 a83d
00000020: 2603 9e3d da95 f33d 5829 903d f10b ffbd
00000030: ef19 043e 01aa 583e b7e3 de3d 175e 143e
00000040: 39df 3b3e 80dd 8b3d e04b 85bd 9653 1d3e
00000050: 44b5 293d 9ecf f33d be0e 1f3e f05b 113e
00000060: 8ec9 c33d e23f 3c3d 73cd 09bd b25a 303c
00000070: 20bf 3d3e ee59 ad3b 122b 223d 50af 893d
00000080: 299a 363e a100 d83d 6e35 1d3e 552a 64bd
00000090: b429 da3d 17c7 443d 3769 f43d eb40 723e
000000a0: 4c05 373e 066b b63c 3341 7e3d 08ca c3bc
000000b0: 250d 703d 484e 0fbc 71d3 13bd b272 00bd
000000c0: cc9e e1bc 5ba3 403d 26b5 df3d bf1f 6c3e
000000d0: 96d6 233e 3d88 013d 8d0b 123e ea46 933d
000000e0: 8cb2 c7bc aa03 1ebe 0b57 3a3e e08a 1c3c
000000f0: 45c6 b83d cc25 8c3b fb7d ff3d 8ec2 c0bc
00000100: 03e6 40be 10d8 173d bd3c bf3e 9cac 383e
00000110: c0fb f4bd 023f 0ebe 57e7 a43b 6e4e 8dbb
00000120: c8b2 ca3d b229 93be d86e aabd a4db fbbd
00000130: 2ece 88be eb65 35be 3bd9 88bd 22a7 1bbe
00000140: 6ddf 363d fb28 95bd 1ee5 8b3d 2eb0 6cbd
00000150: e8ae 4b3e be94 923c 0228 a4bc 1946 16be
00000160: 86a4 dbbc b5e6 2dbd 30c0 a53d f212 db3d
00000170: 5dfc eabb 2933 863c 2ce2 51bd 3c3d 80be
00000180: f23f 043e e3c3 eabc 03d2 8b3e 4d15 35be
00000190: 4a8b 33be 26e9 3abe 000d e43c 1738 d03e
000001a0: 143c e7bd d35d f13d d527 a03d 21f1 403d
000001b0: c1d7 ca3c 91fc 00bd 3f31 f2bc 68a7 203d
000001c0: 85a8 91be 5dc5 8e3d 1ea6 413e d1dd 99bd
000001d0: 2bd2 2fbe c0f5 753d e089 853d e7a1 f03c
000001e0: a5da 99bd a213 893c 0a4e 043e d93c ab3e
000001f0: 8d53 14be 7a88 55bd ea4a a9bd 78e9 c63d
00000200: 07c6 a3bd 7bc8 e03d 809c 943c 54e7 07be
00000210: 37a3 2cbe 3bc7 143e 44d8 e13d ad28 54be
00000220: 7a2b 27be 8c7c 2e3e 2069 643e 58d2 aabd
00000230: 2a42 1f3e 0a82 123e 5682 2bbe b47a 1b3e
00000240: 55c8 29be aa65 23be 7132 613b 6ae5 343c
00000250: 622e 32be 0de1 293e ecaf 483e 77e8 3c3e
00000260: d42d 09be 2f0f fa3c 364a 0d3e ed68 5fbe
00000270: 1fae 42be 3629 0bbe fcf8 263e 81c8 4d3e
00000280: a3b9 83be 7b0a 74be d6ab 39bc 9cdf 4e3e
00000290: 8c2b 1c3e f471 19be 0405 17be 7255 11bd
000002a0: 010c 45be 2cce ad3d d2b6 55bc f675 383e
000002b0: e051 12be 6c9b 2bbe a414 6d3e 7328 273d
000002c0: 8d84 b83d 1dfc fcbc fda1 0b3e a05c f7bd
000002d0: aff4 69be 36f0 8fbd bdaa 363e c090 60be
000002e0: d57f 02be 7f5e 053e 23bb fbbd 332a 60bd
000002f0: 77f6 cd3d 4b6a 5e3e 901c 3f3e 113f 633e

gru.bias_hh_l0 f4 [192]
-0.1247189 0.20482983 0.023602428 -0.0035723348 0.13284954 0.19553731 0.08139476 0.090780474
0.19688556 0.10079166 0.0520541 -0.033738244 0.14015988 0.057054445 0.15568635 0.05541869
0.20187803 0.093788035 -0.16513807 0.15926921 -0.11059944 0.06354009 0.0052604275 0.17809181
0.13034424 0.05560919 0.17840706 0.05213083 0.026355973 0.13297428 -0.0028589796 0.14775887
-0.014283863 0.22833833 0.04997214 0.0075473944 0.21079941 0.18778715 0.13037778 0.11792426
0.103798054 0.16206877 0.03030511 0.069815956 0.18039729 0.015469994 0.00075706025 -0.022278247
-0.0588968 -0.0064709075 0.18294568 0.030481504 0.089384206 0.025001131 0.13251843 0.18187091
-0.010878915 -0.122481234 0.08532333 -0.04495978 0.1463775 0.116181515 -0.04534768 0.021910045
0.010032453 -0.10690554 0.45744333 0.32944185 0.029904582 -0.13848996 -0.18591954 -0.23800954
0.09275365 -0.17589079 -0.19659966 -0.05258666 -0.2405826 -0.087923 -0.18126285 -0.043288793
-0.07314464 -0.1072301 -0.13709396 -0.18328394 0.23509043 -0.052176625 -0.035594065 -0.066049755
-0.14028989 -0.15925871 0.06291075 -0.038480453 -0.1238265 0.11082199 0.12851244 -0.27261198
0.06884282 0.031100845 0.19816265 0.0010937524 -0.1262254 -0.13391943 -0.12886998 0.51205677
-0.149429 0.022848472 0.08158961 -0.06546654 -0.15444054 -0.053834755 -0.08943462 0.047722787
-0.13715015 -0.036386054 0.24921206 -0.013657481 -0.05067093 -0.17726171 -0.02063727 0.07842123
-0.14834695 -0.09473984 -0.0060266773 0.29629004 0.008568031 0.15210783 0.04063317 0.10118633
-0.17395145 0.20568706 -0.102451146 -0.006331702 -0.21864638 0.2317187 0.18096595 -0.041072242
-0.21282104 0.23754285 0.14403355 -0.016638381 0.22667265 0.18210736 -0.050700244 0.19994813
-0.15495273 -0.037373077 0.10175275 -0.102503136 -0.13766482 0.13596506 0.19524972 0.019202659
-0.13888864 -0.13890167 0.185786 -0.1406879 -0.1396967 -0.19072366 0.008828108 0.086346336
-0.01707276 -0.21946828 -0.06866184 0.0167065 0.1519363 -0.12180136 -0.032861076 -0.084089234
-0.0013629469 0.18245962 -0.10991793 0.12913495 -0.15976523 -0.18496254 0.0990364 0.12416405
0.004553096 -0.1345953 -0.035814162 -0.24041119 -0.14978075 -0.15025052 0.09054033 -0.0044261888
-0.10017248 -0.0027291586 -0.13644232 0.09180099 0.22992773 0.053352553 0.15015341 0.011402951
00000000: 9f6c ffbd e9be 513e e159 c13c d51d 6abb
00000010: b609 083e ef3a 483e 4cb2 a63d 1deb b93d
00000020: 5e9c 493e dc6b ce3d ae36 553d 1d31 0abd
00000030: 1286 0f3e ecb1 693d 3e6c 1f3e b5fe 623d
00000040: 1db9 4e3e f113 c03d f419 29be 7817 233e
00000050: f681 e2bd 4f21 823d aa5f ac3b b35d 363e
00000060: f678 053e 76c6 633d 57b0 363e 2387 553d
00000070: 7be8 d73c 692a 083e b85d 3bbb 1a4e 173e
00000080: dd06 6abc 86d1 693e 96af 4c3d 2250 f73b
00000090: cddb 573e 464b 403e c181 053e 4682 f13d
000000a0: 1394 d43d 5bf5 253e 6c42 f83c abfb 8e3d
000000b0: 11ba 383e dc75 7d3c 7475 463a df80 b6bc
000000c0: c53d 71bd e809 d4bb 1d56 3b3e 59b4 f93c
000000d0: 110f b73d 2ccf cc3c e9b2 073e 5e3c 3a3e
000000e0: 7a3d 32bc 71d7 fabd ffbd ae3d bf27 38bd
000000f0: fce3 153e 93f0 ed3d 7dbe 39bd b27c b33c
00000100: 285f 243c 4bf1 dabd 0336 ea3e 9aac a83e
00000110: 74fa f43c 50d0 0dbe b161 3ebe c6b8 73be
00000120: a0f5 bd3d b71c 34be 6c51 49be 1c65 57bd
00000130: 495b 76be f910 b4bd f89c 39be 974f 31bd
00000140: dbcc 95bd 749b dbbd 5c62 0cbe c9ae 3bbe
00000150: 8cbb 703e 28b7 55bd 15cb 11bd 1845 87bd
00000160: 27a8 0fbe b714 23be 5ad7 803d ae9d 1dbd
00000170: bf98 fdbd a4f6 e23d c498 033e cc93 8bbe
00000180: 77fd 8c3d 33c7 fe3c 26eb 4a3e 3e5c 8f3a
00000190: 3b41 01be 2d22 09be 7ef6 03be 2716 033f
000001a0: ea03 19be b82c bb3c 7418 a73d 5213 86bd
000001b0: a925 1ebe d581 5cbd 8029 b7bd f878 433d
000001c0: 1771 0cbe 8b09 15bd 7231 7f3e a1c3 5fbc
000001d0: 528c 4fbd 1884 35be 7e0f a9bc 4f9b a03d
000001e0: 43e8 17be f606 c2bd 6f7b c5bb 54b3 973e
000001f0: ed60 0c3c 28c2 1b3e f86e 263d c73a cf3d
00000200: 5420 32be a19f 523e e8d1 d1bd 2b7a cfbb
00000210: d6e4 5fbe ab47 6d3e 234f 393e 5e3b 28bd
00000220: c2ed 59be 6f3e 733e 887d 133e 374d 88bc
00000230: e01c 683e 5a7a 3a3e 0fab 4fbd 34bf 4c3e
00000240: eeab 1ebe 8314 19bd bf63 d03d 2aed d1bd
00000250: 02f8 0cbe 6d3a 0b3e 8bef 473e e54e 9d3c
00000260: d338 0ebe 3d3c 0ebe af3e 3e3e 7d10 10be
00000270: a70c 0fbe 104d 43be c5a3 103c 59d6 b03d
00000280: 2cdc 8bbc 4bbc 60be 949e 8cbd 12dc 883c
00000290: 3095 1b3e fe72 f9bd 5699 06bd fa36 acbd
000002a0: e9a4 b2ba b2d6 3a3e a71c e1bd f43b 043e
000002b0: 7f99 23be d266 3dbe 99d3 ca3d b949 fe3d
000002c0: 2332 953b 5ad3 09be dfb1 12bd 5a2e 76be
000002d0: 2060 19be 46db 19be 356d b93d 9009 91bb
000002e0: 3b27 cdbd afdb 32bb 89b7 0bbe 2802 bc3d
000002f0: 2d72 6b3e 3588 5a3d d1c1 193e 71d3 3a3c

notes_decoder.weight f4 [128, 64]
0.06713056 -0.09699233 0.15613617 0.18062253 0.18845052 -0.058960658 -0.04994716 0.078105316
0.14482483 -0.19548033 -0.27854252 0.01775383 -0.087133005 -0.285831 0.056864787 -0.22137818
0.23553015 0.078618556 0.06275238 0.045116078 0.294246 -0.1863125 -0.28039017 -0.16893013
0.28633532 0.2077025 -0.19104022 0.19657445 0.16473228 0.13158186 -0.18213622 -0.13067281
0.15298602 0.14660618 -0.080077454 -0.26618594 -0.18802601 0.19648588 0.15483412 0.23310038
0.09973576 -0.197654 0.14107154 -0.24435647 0.053693622 0.28310555 -0.17759974 -0.21447465
0.025634894 0.1806986 -0.1258084 0.22626923 0.14486687 0.13009362 -0.19128197 0.12788823
0.2508281 -0.12677553 0.14152396 0.09455401 -0.114983656 -0.12702736 -0.12524414 -0.07282288
0.048893385 -0.0651801 0.03929272 0.19646421 0.1238815 -0.28019834 -0.112748906 0.14823534
0.17184891 -0.26385757 -0.15865622 0.11110121 -0.08866932 -0.0758533 0.27825943 -0.1622724
0.29400077 0.27427652 -0.03161168 0.14703946 0.1987674 -0.124440014 -0.10134067 -0.21841745
0.09289101 0.23108207 -0.2039529 0.19001964 0.29146442 0.13451654 -0.15871029 -0.19672558
0.1528333 0.13452925 -0.04551749 -0.16695799 -0.20589057 0.21505557 0.13702026 0.189217
0.18265831 -0.21769361 0.0539882 -0.08523671 0.28069586 0.101045094 -0.20855464 -0.059174906
0.015219284 0.09360644 -0.15464026 0.16901834 0.16807123 0.20162503 -0.21496722 0.16079634
0.28872746 0.0016669477 0.23207787 0.037405435 -0.25990048 -0.06699448 -0.14847392 -0.13405827
-0.035220366 -0.20917907 0.17606412 0.23992729 0.26241463 -0.09301036 -0.07591033 0.21413143
0.30162042 -0.078321606 -0.17128006 -0.075127676 -0.27178836 -0.27210003 0.14768568 -0.119320296
0.09388414 0.089815445 0.016051803 0.027259687 0.21795782 -0.110944964 -0.17156553 -0.2439104
0.27933666 0.22911379 -0.20330438 0.23763728 0.24025851 0.19859636 -0.17702068 -0.19383582
0.09317249 0.09796228 -0.1968381 -0.22022201 -0.20762987 0.16989088 0.16026236 0.18291205
0.20452398 -0.05784016 0.06449013 -0.113857664 0.28448087 0.18807414 -0.26007694 -0.058199856
0.11207487 0.12969089 -0.21158263 0.15575771 0.25230375 0.20179975 -0.098754264 0.13705721
0.17360917 -0.03510043 0.08959606 0.15140674 -0.037051495 -0.07395837 -0.107272886 -0.17741719
0.04567469 -0.16876633 0.22915706 0.09847543 0.09471802 -0.14639968 -0.07981991 0.08294734
0.25150135 -0.12845652 -0.23332448 0.05266617 -0.2540288 -0.06753871 0.2760727 -0.14828587
0.13918462 0.0818216 0.069312714 0.23788065 0.1311954 -0.12026438 -0.28212565 -0.08282546
0.22834152 0.2335652 -0.055036202 0.2992483 0.09452335 0.26646575 -0.18990608 -0.2938235
0.22676863 0.2848498 -0.098949 -0.25164494 -0.075616054 0.18428934 0.27964553 0.17307667
0.2526209 -0.13224143 -0.003063939 -0.12178279 0.20164584 0.11732455 -0.28964317 -0.16774331
-0.06310943 0.088510804 -0.21941955 0.061354317 0.056675762 0.13298166 -0.07798519 0.19404277
0.14806513 0.03327661 0.27401066 -0.0064714146 -0.13260144 -0.11328432 -0.04222067 -0.29906473
00000000: bf7b 893d eaa3 c6bd 29e2 1f3e 1df5 383e
00000010: 2cf9 403e bb80 71bd 6595 4cbd aef5 9f3d
00000020: f64c 143e ff2b 48be 209d 8ebe 7b70 913c
00000030: ca72 b2bd 7158 92be 0deb 683d f6b0 62be
00000040: d12e 713e c402 a13d 5284 803d a3cb 383d
00000050: 69a7 963e b4c8 3ebe 4d8f 8fbe 05fc 2cbe
00000060: 8b9a 923e f7af 543e 0ca0 43be d04a 493e
00000070: 94af 283e 65bd 063e eb81 3abe 18cf 05be
00000080: 5ea8 1c3e ee1f 163e a6ff a3bd 8649 88be
00000090: e489 40be 9833 493e d68c 1e3e deb1 6e3e
000000a0: 4342 cc3d cf65 4abe 0f75 103e 9538 7abe
000000b0: d8ed 5b3d 36f3 903e b5dc 35be 3e9f 5bbe
000000c0: 4500 d23c 0e09 393e ebd3 00be 1fb3 673e
000000d0: fb57 143e 4337 053e 6cdf 43be 22f5 023e
000000e0: 8a6c 803e 72d1 01be a8eb 103e 88a5 c13d
000000f0: 8d7c ebbd 7613 02be 0040 00be 2a24 95bd
00000100: 6e44 483d 257d 85bd 67f1 203d ea2d 493e
00000110: 95b5 fd3d 2876 8fbe e6e8 e6bd 01cb 173e
00000120: 29f9 2f3e 5718 87be c776 22be 0889 e33d
00000130: 4398 b5bd fa58 9bbd 0578 8e3e bc2a 26be
00000140: 4587 963e f96d 8c3e 407b 01bd 8391 163e
00000150: ae89 4b3e 68da febd b28b cfbd d3a8 5fbe
00000160: a43d be3d c7a0 6c3e 07d9 50be 8294 423e
00000170: d33a 953e b4be 093e f384 22be 6e72 49be
00000180: 5580 1c3e 09c2 093e 8c70 3abd 09f7 2abe
00000190: fad4 52be 8737 5c3e 0a4f 0c3e 1ac2 413e
000001a0: c80a 3b3e 13eb 5ebe bb22 5d3d 9690 aebd
000001b0: 5eb7 8f3e bbf0 ce3d 598f 55be 6361 72bd
000001c0: 4e5a 793c bcb4 bf3d 045a 1ebe 2513 2d3e
000001d0: dd1a 2c3e cb76 4e3e 5e20 5cbe cca7 243e
000001e0: 16d4 933e 7c7d da3a d2a5 6d3e 7136 193d
000001f0: ad11 85be 6734 89bd 8c09 18be 9246 09be
00000200: 3b43 10bd 0a33 56be 274a 343e 80af 753e
00000210: 365b 863e 377c bebd e076 9bbd 4545 5b3e
00000220: fe6d 9a3e 1467 a0bd 0a64 2fbe 8adc 99bd
00000230: d827 8bbe b250 8bbe ea3a 173e 335e f4bd
00000240: 5446 c03d 29f1 b73d 127f 833c b54f df3c
00000250: 5630 5f3e 1d37 e3bd e0ae 2fbe a6c3 79be
00000260: 3705 8f3e ce9c 6a3e 062f 50be 3057 733e
00000270: 5406 763e d85c 4b3e e944 35be e67c 46be
00000280: 38d1 be3d 73a0 c83d ed8f 49be e181 61be
00000290: ed9c 54be e0f7 2d3e d11b 243e 4c4d 3b3e
000002a0: bc6e 513e cee9 6cbd 6713 843d 352e e9bd
000002b0: 7aa7 913e 8296 403e ce28 85be f962 6ebd
000002c0: 8287 e53d b0cd 043e 1ea9 58be f37e 1f3e
000002d0: f52d 813e 98a4 4e3e ad3f cabd ba58 0c3e
000002e0: 9ac6 313e 78c5 0fbd 247e b73d 5e0a 1b3e
000002f0: 4fc3 17bd 7c77 97bd e3b1 dbbd daac 35be
00000300: 6215 3b3d 15d1 2cbe 26a8 6a3e 7cad c93d
00000310: 85fb c13d cce9 15be 9f78 a3bd 4ce0 a93d
00000320: c9c4 803e 1b8a 03be 9dec 6ebe 7bb8 573d
00000330: 1010 82be bc51 8abd 6759 8d3e 40d8 17be
00000340: 6a86 0e3e 1592 a73d d3f3 8d3d fc96 733e
00000350: 1658 063e 2c4d f6bd c672 90be 65a0 a9bd
00000360: 5cd2 693e b72b 6f3e a46d 61bd 1337 993e
00000370: 7595 c13d 336e 883e bd76 42be 0970 96be
00000380: 0936 683e d5d7 913e c6a5 cabd 9bd7 80be
00000390: 97dc 9abd 58b6 3c3e b32d 8f3e 033b 313e
000003a0: 8757 813e 4c6a 07be 5ecc 48bb 4169 f9bd
000003b0: 3f7c 4e3e db47 f03d 1c4c 94be e7c4 2bbe
000003c0: 843f 81bd 2745 b53d 85af 60be aa4e 7b3d
000003d0: d824 683d 582c 083e b3b6 9fbd 26b3 463e
000003e0: 639e 173e 0e4d 083d 204b 8c3e 290e d4bb
000003f0: acc8 07be 9c01 e8bd 95ef 2cbd 031f 99be

notes_decoder.bias f4 [128]
-0.032203432 -0.18021844 -0.14157082 -0.24153444 -0.1420226 -0.14461808 -0.20193242 -0.17654662
-0.23641051 -0.25084808 -0.15107705 -0.056920964 -0.04878102 -0.18564203 -0.057644717 -0.22177672
-0.04490083 -0.20180835 -0.05559921 -0.08171998 -0.1585928 -0.12509097 -0.058615595 -0.13641274
-0.07823379 -0.19550891 -0.08226367 -0.08699711 -0.098438494 -0.03397478 -0.16912682 -0.2050571
-0.1908961 -0.1216591 -0.07761808 -0.037169207 -0.12591556 -0.0661579 -0.033230294 -0.21277463
-0.1755436 -0.07839522 -0.23495705 -0.17093709 -0.22297472 -0.11846131 -0.12786263 -0.12848124
-0.15198477 -0.037782647 -0.073885985 -0.0411551 -0.02601531 -0.15470734 -0.23108873 -0.1609111
-0.17909619 -0.034699798 0.0060504847 -0.24376808 -0.0048553846 -0.035674736 -0.030119684 -0.14237842
-0.013909319 -0.2257477 -0.02404342 -0.1055376 -0.21718337 -0.18507296 -0.14910416 -0.17230017
-0.21363801 -0.05885944 -0.10589392 -0.14215788 -0.21542183 -0.04045611 -0.16189101 -0.089408934
-0.21816328 -0.22339332 -0.20684655 -0.21165483 -0.17698498 -0.11408656 -0.058321133 -0.19494313
-0.039297424 -0.115224145 -0.24033439 -0.07693909 -0.174366 -0.074447 -0.20234244 -0.25828323
-0.067195654 -0.010457002 -0.18960758 -0.18355475 -0.04590746 -0.06680016 -0.06359698 -0.22413468
-0.2522348 -0.05032527 -0.2521607 -0.26635918 -0.2389243 -0.11388489 -0.06461494 -0.14356136
-0.21584632 -0.08489956 -0.079886176 -0.13972934 -0.20217161 -0.21658327 -0.22693482 -0.163628
-0.069303095 -0.23255439 -0.13401838 -0.06661309 -0.04589855 -0.051148545 -0.20274323 -0.114712544
00000000: bfe7 03bd 2f8b 38be f1f7 10be ce54 77be
00000010: 5f6e 11be c316 14be 5fc7 4ebe a3c8 34be
00000020: 9915 72be 296f 80be f1b3 1abe f525 69bd
00000030: 9bce 47bd f218 3ebe de1c 6cbd 7019 63be
00000040: efe9 37bd d9a6 4ebe ffbb 63bd ce5c a7bd
00000050: 2766 22be d917 00be e816 70bd c8af 0bbe
00000060: 0a39 a0bd 7d33 48be db79 a8bd 8a2b b2bd
00000070: 1f9a c9bd 2429 0bbd 952f 2dbe 7dfa 51be
00000080: 447a 43be 6828 f9bd 3af6 9ebd bd3e 18bd
00000090: 02f0 00be cb7d 87bd 7d1c 08bd 98e1 59be
000000a0: b4c1 33be ac8d a0bd 9598 70be 220a 2fbe
000000b0: 7c53 64be d89b f2bd 6cee 02be 9690 03be
000000c0: e5a1 1bbe fac1 1abd 8951 97bd 4092 28bd
000000d0: 0f1e d5bc 9a6b 1ebe 86a2 6cbe e1c5 24be
000000e0: fe64 37be 6021 0ebd 2543 c63b 579e 79be
000000f0: eb19 9fbb ac1f 12bd 8ebd f6bc a6cb 11be
00000100: eae3 63bc 682a 67be b5f6 c4bc 1924 d8bd
00000110: 5165 5ebe c483 3dbe c3ae 18be 756f 30be
00000120: ecc3 5abe 9916 71bd e9de d8bd d691 11be
00000130: 8a97 5cbe 4eb5 25bd c2c6 25be 081c b7bd
00000140: 3266 5fbe 38c1 64be 95cf 53be 0bbc 58be
00000150: 8d3b 35be 37a6 e9bd 24e2 6ebd 2c9f 47be
00000160: 56f6 20bd a3fa ebbd 381a 76be 3e92 9dbd
00000170: 008d 32be ab77 98bd db32 4fbe b33d 84be
00000180: e09d 89bd d853 2bbc 7d28 42be c7f5 3bbe
00000190: 7609 3cbd 86ce 88bd 223f 82bd 9083 65be
000001a0: eb24 81be df21 4ebd 351b 81be 3b60 88be
000001b0: 92a8 74be 7b3c e9bd d654 84bd c001 13be
000001c0: d106 5dbe d2df adbd 5d9b a3bd 3515 0fbe
000001d0: 1306 4fbe 01c8 5dbe 9a61 68be 198e 27be
000001e0: c8ee 8dbd bd22 6ebe 1d3c 09be 726c 88bd
000001f0: 1e00 3cbd 2381 51bd ec9b 4fbe 69ee eabd
