saved_models/generalist_BCE_1e-2_140.pth (torch_old, 167373 bytes, 8 tensors)

notes_encoder.weight f4 [64, 128]
00000000: 8146 abbd 36a3 65bd ba12 5c3d 6bea 8f3d
00000010: d930 91bd 493e 5ebd b8a1 093c 3dda 7bbd
00000020: 9bbf 7cbd 0064 aabb f818 76bc 4277 703d
00000030: d366 a7bd ecee 05bd 6035 3c3c ce73 673d
00000040: 3160 5cbd 4656 a8bd 1c92 92bc 98e2 913c
00000050: 7646 3b3d 3237 6cbd 3e43 abbd e0cf 923c
00000060: e756 b4bd 70f0 d73b 5670 313d 1003 ba3c
00000070: c2e1 773d 3c73 c5bc 3060 ca3c 409e 59bc
00000080: 6c95 4cbd 8ca2 d13c f944 eebe 1e39 163d
00000090: 0816 29bd 10df ec3b abb5 973e 5217 58bd
000000a0: 7f62 003e abca da3d ed80 10bf d866 933d
000000b0: 8833 463f 4885 8abd cc9f b63d 31c7 9b3d
000000c0: 9f3b 8b3e 02b0 1d3f 522b f43e 3561 57bc
000000d0: 4791 a73c 2388 8d3d a5d0 a1bd 4439 1e3e
000000e0: 068f 0f3f 0de0 6b3d 55f5 913d 1b4b a53e
000000f0: b74f 723d 4275 163f 41f4 ab3e 161e bf3e
00000100: c057 d03d 2470 c8bc 3e42 71bc a969 843e
00000110: f7c2 ee3e c0fc 7a3e 3924 ef3e 3730 373f
00000120: 877c ca3e 51dd fc3d cc3a c63e 7377 afbe
00000130: 29bf 6e3e 2ea1 bf3e 3f14 febc 8aa3 753e
00000140: 6a10 cc3d 6e3a f63d 1989 1e3d 9835 aebc
00000150: e565 28be bba3 95be 1016 d23d 153e 87be
00000160: 71a9 b7bd 8022 783e d85c a0bd fd96 983d
00000170: 9c6e a7bc 949f e83c 006e fd3b 08e5 c8bc
00000180: 04eb 96bd 205c 54bb 6bf1 4fbd 95c6 9b3d
00000190: 5979 ac3d 4d47 ac3d 0ed7 d9bc 34c3 96bd
000001a0: 7021 69bc 320a 5d3d 3322 58bd beaf 303d
000001b0: 50f5 05bc a82c 34bc 39cf 0ebd d3c0 4fbd
000001c0: 727d 603d fc6e e43c 2232 313d 61d1 51bd
000001d0: c6b1 383d 24fb ea3c aeab 743d a6b8 5c3d
000001e0: 0072 593c 81c6 ac3d 8054 983b 2cba 89bc
000001f0: 6042 0d3c bcb0 39bd d252 793d a49d d63c
00000200: 815f a7bd 5a3f 753d a537 823d e0fa d53b
00000210: bfeb aebd f361 9b3d b033 c13c c804 96bd
00000220: 00dc df3b 9c25 bebc 8f75 803d b006 e1bb
00000230: a321 08bd baca 3b3d 2044 b13c 2032 4a3c
00000240: 2195 8ebd bbc9 a9bd 0872 da3c 800f 07ba
00000250: 8473 90bc c088 d9bb e05b 52bc a906 09bd
00000260: 3ef6 413d 6c15 d5bc 3c6a ddbc 52a5 8bbd
00000270: d8a2 923c 38fc c8bc c095 ae3b 4568 2cbd
00000280: 5e77 693d 6c62 cbbc f0a2 3c3c f449 ed3c
00000290: de7b fcbc 4033 913b 2e2a 20bc 82dd 39bd
000002a0: 853e 3fbd 3c77 cabd bb9e 88bd 2f4f 41be
000002b0: 83a9 89bd dae7 51bd c44d e4bd d8de b0bd
000002c0: 35f5 dabd 22b8 14bd 896b 9dbd 842a 28be
000002d0: 3da1 61bc e976 37bd fdd0 55bd 132d ebbd
000002e0: c971 dabd 4cae 9abd acf7 2cbe 9eac dcbd
000002f0: 2be7 1dbe 0044 73bd e487 1bbd 688b f9bc
00000300: a2b0 aabd 8a2c 7fbd 6077 38be b753 18be
00000310: 4c2b ddbc df97 2abe 95dd 9abd b5fd 24be
00000320: 35b8 bcbd 187f e4bd a830 20bd e2ac 5abd
00000330: 78cd 1cbd d363 803c f4f2 efbd a57f c8bd
00000340: 9fdc 18bd 2ef9 01be 9da1 2ebd be96 32bd
00000350: b3f1 0cbe d217 7ebc f397 61bb 9bda babd
00000360: 09a7 2fbd 8f2e 24bc 6439 8dbd 66d0 1a3d
00000370: 94d3 09bd ece3 bbbc f82e b3bc 01b0 9a3d
00000380: 8670 30bd 900a d73c ad62 13bd b14e 8a3d
00000390: e8eb 663c e26c 593d 0d6a 57bd e35b 813d
000003a0: faaf 383d ad0c 56bd 72f0 473d ba67 683d
000003b0: 47f7 24bd 5eef 513d a155 87bd 5c13 a5bc
000003c0: 1e74 a6bd c004 c8ba 3463 9cbd 65c5 9f3d
000003d0: c9a9 ae3d 0c4b d63c 9cc9 cabc c065 21bc
000003e0: c01c 7cbd 8ffc 0fbd 280d 02bc 322d 99bd
000003f0: 5ac5 363d 1ead 6b3d 1c20 f0bc 30f7 2e3c
-0.08363057 -0.056063853 0.053728797 0.070271336 -0.07089395 -0.05425862 0.008400373 -0.061487425
-0.061706167 -0.005199909 -0.015020601 0.058707483 -0.08173909 -0.032698557 0.011487335 0.056506924
-0.053802673 -0.0821958 -0.017891936 0.017808244 0.045721494 -0.057669826 -0.08362435 0.017921388
-0.08805638 0.0065899417 0.043320023 0.022706538 0.060518034 -0.0241028 0.024704069 -0.013282359
-0.049947187 0.025590204 -0.46536997 0.036675565 -0.041280776 0.0072287396 0.2963079 -0.052756615
0.12537573 0.10683187 -0.56446725 0.0719735 0.7742238 -0.06763703 0.089171976 0.07606352
0.27193925 0.6159669 0.476893 -0.013145735 0.020455016 0.06910732 -0.07901124 0.15451533
0.5607761 0.05758672 0.071268715 0.32283863 0.059158053 0.5877267 0.33584788 0.3732764
0.10172987 -0.024467535 -0.014725266 0.25861862 0.4663312 0.24510479 0.46707323 0.71557945
0.39548132 0.123469 0.38716733 -0.3427082 0.2331511 0.37427658 -0.031015513 0.23988166
0.09964068 0.12022863 0.038704965 -0.02126579 -0.1644512 -0.2922648 0.10258114 -0.26414552
-0.08967865 0.2423191 -0.078302085 0.07450674 -0.020438485 0.028396405 0.0077340603 -0.024523273
-0.073690444 -0.0032403544 -0.050767343 0.07606236 0.08421583 0.08412037 -0.026591804 -0.07361451
-0.0142291635 0.0539648 -0.05276699 0.04313635 -0.008176163 -0.010996975 -0.03486559 -0.050721
0.054807134 0.027884953 0.0432607 -0.05122507 0.045091413 0.028684206 0.05973404 0.053887032
0.013271809 0.08436299 0.004648745 -0.016812406 0.008621782 -0.045334563 0.06087 0.026198216
-0.08172513 0.05987487 0.063582696 0.006530151 -0.08541059 0.07587042 0.023584217 -0.07325131
0.006831646 -0.023211293 0.062724225 -0.0068672523 -0.033235203 0.045847632 0.02163893 0.012341052
-0.06962038 -0.0829043 0.026665702 -0.0005152151 -0.017633207 -0.0066386163 -0.0128392875 -0.033453617
0.047353975 -0.026011191 -0.027028196 -0.06818642 0.017899916 -0.02453433 0.00532791 -0.042091627
0.056998603 -0.024827205 0.011513457 0.028965928 -0.030820783 0.0044311583 -0.009775681 -0.045377262
-0.046690483 -0.098860234 -0.066709004 -0.18877862 -0.06721785 -0.0512465 -0.11147645 -0.08636254
-0.10691301 -0.036308415 -0.07686526 -0.16422468 -0.013771352 -0.044791136 -0.05220126 -0.114832066
-0.10666234 -0.07552776 -0.16891354 -0.107751116 -0.15420215 -0.05939102 -0.037971392 -0.030461982
-0.08334471 -0.062298335 -0.18014288 -0.14875685 -0.026998185 -0.16659497 -0.07561795 -0.16112407
-0.09214822 -0.11157054 -0.039108902 -0.05338753 -0.038281888 0.0156726 -0.117162615 -0.09789971
-0.037319776 -0.12692711 -0.042634595 -0.04360079 -0.13764076 -0.015508609 -0.0034422844 -0.09123727
-0.042883907 -0.010020866 -0.06895712 0.0377964 -0.033649042 -0.02293583 -0.021872982 0.07553101
-0.04307606 0.026250154 -0.035982776 0.067532904 0.01409433 0.053082354 -0.052591372 0.06316354
0.0450897 -0.052258182 0.04881329 0.056739546 -0.040274885 0.05125367 -0.06608129 -0.020150833
-0.08127616 -0.0015260205 -0.07636109 0.07801322 0.08528478 0.026158832 -0.024754338 -0.009850919
-0.061550856 -0.035152968 -0.007937707 -0.074793234 0.044621803 0.057538144 -0.029312186 0.010679051

notes_encoder.bias f4 [64]
00000000: 3092 bebd 00d0 29be 009b 25be ec06 303e
00000010: 5ab7 73bd 923d 2bbe 0367 43be ed07 0b3e
00000020: a804 203e 6d16 463d 41d3 cf3d 0de0 a43d
00000030: 8b9d d4bc d5b0 153e 0aa7 ae3d 9555 36be
00000040: ed78 2dbe 883e 2ebe 0068 0fbe 8f3c 143e
00000050: 9985 37be 2e43 21be cea8 fc3d 025e 64be
00000060: 098e 463e beb4 513e 0823 463e 32bd 51be
00000070: 5279 1d3d 35ed d9bd a715 af3d f9cc 0cbe
00000080: 18d7 a33d 326a 413e f99a dbbd ad0d f2bd
00000090: 15e0 993c 432d 003e c99c 113e 8f80 e7bd
000000a0: e179 50bd af2f 59be dbef 883d 26c0 29be
000000b0: e240 973d 1c19 c6bc e896 263e 4e03 053e
000000c0: 6e85 103e eab9 2b3e 7b4a ebbc 4416 123e
000000d0: b117 563d d072 0a3e 6d0d 343e 4aa0 ddbd
000000e0: 6c6d 2b3e 22bb 1c3d b5e8 00be 8722 293e
000000f0: 7f9c 373e 41be 0d3e 81d9 e9bd e3f1 53be
-0.09305227 -0.16583252 -0.16172409 0.1719014 -0.05950103 -0.16722706 -0.19082265 0.13577242
0.15626776 0.04836123 0.10147715 0.08050547 -0.025954029 0.14618237 0.08527954 -0.17806084
-0.16940661 -0.17016041 -0.14004517 0.14476226 -0.17922057 -0.15748283 0.123368844 -0.22301486
0.1939012 0.20479104 0.19349301 -0.20482329 0.03844578 -0.10640947 0.08549052 -0.13750066
0.0800001 0.18888167 -0.10722918 -0.11819015 0.018783608 0.12517266 0.14219965 -0.113038175
-0.050897483 -0.21209596 0.06686374 -0.16577205 0.07385422 -0.024181895 0.16268504 0.12989542
0.141134 0.1677014 -0.028722038 0.14266306 0.052268688 0.1352036 0.17583247 -0.10821588
0.1674096 0.0382644 -0.1258877 0.16517077 0.17930792 0.13842107 -0.11418439 -0.20697741

gru.weight_ih_l0 f4 [192, 64]
00000000: 06e7 3e3d 4aec 643e b938 773e 626d 05bb
00000010: 4553 c53c 3bcf 373e 991e 053e d117 32bc
00000020: 67e3 6dbe 41c9 9bbc 6e8c 4e3d 6a17 d7bc
00000030: 207b 9c3d e907 42be d191 6dbd c65a 3f3d
00000040: 75e0 573e d48c 313d 2203 413e fbd4 e1bd
00000050: c73b f13d 90cc 223e 2803 60bd 65f3 303e
00000060: afa2 64be 5359 ecbd 87b9 33be 492e 2d3e
00000070: e400 12be 4975 273e e26f 55bd 0734 2f3d
00000080: 48b3 3bbe 127d 58bd 7823 143e 6225 2a3e
00000090: 7e00 86bd b7f5 33be 0976 72be da03 3a3d
000000a0: 03f5 ff3d 01e0 d63d 62dc f83c 44a5 96bd
000000b0: 5dc8 32bc 5704 723d 18f7 0ebe 3cff 3fbc
000000c0: 92b7 d53c f6f0 5fbe a29d f1bd 9027 07be
000000d0: 76a1 4a3d dd89 35be 244b b1bd c59c 973d
000000e0: 99ad 2abe e188 d1bc 911b f53d f4f8 eabd
000000f0: eb58 80be 091b dcbd d5a2 d13d 6fe8 263d
00000100: f680 2c3d bd6d 68be bf98 a3bd 461e 243e
00000110: 4ddb 30be 5d97 15be 00e9 2fbd b460 343e
00000120: 60b2 d5b9 8bec b4bc ef8f 5b3c a5ab 813d
00000130: 2db3 a73c b7a7 c53d 692b 923b 7e53 d2bd
00000140: f469 d2bb 24d5 343c ecf5 213b a430 113e
00000150: e012 52be 5fbf 5dbe 76ec e6bc 75ec 4fbd
00000160: 4fe2 5f3e afd5 fa3d 1154 003e 293b c0bd
00000170: c603 243e 37a9 8ebd 3c39 383e 56ae f9bd
00000180: 0695 15bd 3000 043d b46a 16bd cdd4 89bd
00000190: 7f29 de3d f366 423e 3849 c83d 77c1 21be
000001a0: 7675 21be be83 f3bd 3bd2 863d 905b 943c
000001b0: f8d6 2b3e 8b67 c53d fafd dc3d 1d85 143e
000001c0: 44a1 233e 4ca5 193e cd78 883d 460d 103e
000001d0: 3bcf 2bbd 8165 e63d e3e3 023d 066c 0abe
000001e0: 2e2f 5b3c f543 b5bd 1a67 32bd 2697 28bb
000001f0: f0f9 5e3e d3ce b23d eebd 82bd 6f90 e9bd
00000200: e6ea 703e 7c88 c1bd 88e8 47be c8c1 0f3e
00000210: 9783 1abe 6be0 cb3c 9713 88bc f7de 2a3e
00000220: ef4d bf3d e148 533e 0a4a fbbd a4aa 233e
00000230: 8906 14bd 754d e4bc 7d01 c3ba a575 34bd
00000240: b008 b4bd 6503 afbc 0e43 0b3d 77a5 0b3e
00000250: 2027 ae3c 04df 43be 02bd d73d 36d2 42be
00000260: 7f5f e33d dd53 513d 910f ef3d 1588 d5bd
00000270: 1765 773d ecdc f9bc 1462 513e bfba 39be
00000280: 674f 203e 0bb8 79bc 987e 43bd ca31 11ba
00000290: 58d6 5d3e e5d1 383d e74a 053e 3640 0fbe
000002a0: cf73 85b7 433e 44be 9dbb d53c f1bf fbbd
000002b0: 3c60 1c3d f53a b9bd d90c 213c 7964 643d
000002c0: 1556 01be d052 933d e8e6 b03d a15c 483e
000002d0: 1d7a 353e be19 eb3d 18ec 1e3e 5540 9cbc
000002e0: e90c 343e bd32 aebd 702f 033d 12aa 343e
000002f0: 23ee b83d c6ea 843d 3d2a 5dbd b1f9 17be
00000300: 0647 1b3e f078 f4bd 7d7b cebc 42a5 233d
00000310: d719 5bbe ff0f 58bc 02fd 05be fccb 273e
00000320: aa51 403e cdc7 ba3d d5d5 a2bd 6ee4 ff3d
00000330: 945a 5b3e 7d1a 0d3e 051c 973c 0294 0dbe
00000340: 8454 2ebe 261b e9bd 1478 cbbc a89a 6d3d
00000350: 42cd 47be af48 55bd 1b4e be3d f130 f13c
00000360: 2794 b73d cc7e fb3b f91d 04bd 03a7 94bb
00000370: 47a0 003e eb62 d3bd c947 4e3e 4805 96bd
00000380: 0e05 c13d 9949 443e f03c b9bd 33a0 bdbc
00000390: 317a 643e 3147 d13d b0ae 2e3e 65e7 38bd
000003a0: 82e6 d7bd a6b0 11be 5364 1b3e 6897 e5bd
000003b0: d1ea 133e b496 aebd ade3 e63d 4897 173c
000003c0: 6d29 0cbe 8878 aa3d 8da9 fb3b 547d 423e
000003d0: 001a db3a 43f2 d43c b3b2 c43c b222 0ebe
000003e0: cbdb eb3d 9959 3ebe 52c9 55be 709d c7bc
000003f0: c57b 00bd 963e 2d3e 5806 03be 9878 82bd
0.04660704 0.22355762 0.24142732 -0.0020359387 0.024087558 0.17950146 0.12999953 -0.010869936
-0.23231278 -0.019016864 0.050426893 -0.026256282 0.07640672 -0.1894833 -0.05800039 0.046717428
0.21081717 0.043347195 0.18848851 -0.11026951 0.1177898 0.15898347 -0.05469051 0.17280348
-0.22327684 -0.11540475 -0.17551242 0.16912188 -0.14258152 0.16353334 -0.052108653 0.042774227
-0.18330109 -0.05285365 0.14466655 0.16615823 -0.065430626 -0.17574202 -0.2367784 0.04541383
0.12497904 0.10491944 0.030378524 -0.07355741 -0.010912028 0.05908617 -0.13961446 -0.011718567
0.02608851 -0.21869263 -0.11797644 -0.13198686 0.049470387 -0.17728372 -0.0865691 0.07402948
-0.16667785 -0.025577964 0.119681485 -0.11473265 -0.2506784 -0.10747344 0.10236136 0.04074901
0.042115174 -0.22698112 -0.079881184 0.16027173 -0.17271157 -0.14608522 -0.042946815 0.17615014
-0.00040759426 -0.022085449 0.013401016 0.06331567 0.02047118 0.0965113 0.0044607413 -0.10269831
-0.006421322 0.011037145 0.0024713231 0.14178711 -0.20515013 -0.21655034 -0.028188925 -0.050762612
0.21863674 0.12247788 0.12532069 -0.09386284 0.16017064 -0.06965869 0.17990583 -0.12191455
-0.036519073 0.03222674 -0.036722854 -0.06730042 0.108477585 0.18984585 0.0977959 -0.15796457
-0.15767464 -0.11890362 0.06583067 0.018110067 0.16781223 0.0963889 0.1079063 0.14503904
0.15979487 0.15004462 0.06663666 0.14067563 -0.041945677 0.11249829 0.03195561 -0.1351777
0.013377948 -0.088508524 -0.043555357 -0.0025724857 0.21775031 0.08730855 -0.063838825 -0.11404502
0.23527107 -0.094498605 -0.19522297 0.14038765 -0.1508926 0.024887284 -0.016610904 0.16686617
0.093410365 0.2063327 -0.12269981 0.15983063 -0.036139045 -0.027868966 -0.0014877763 -0.044057507
-0.087907195 -0.021363923 0.033999495 0.13637339 0.02125889 -0.19128042 0.10534097 -0.19025502
0.11102199 0.05110537 0.11672891 -0.10426346 0.06039914 -0.030500852 0.2044757 -0.18137644
0.1565529 -0.015241633 -0.04772815 -0.000553873 0.21663797 0.045122046 0.13016854 -0.13989338
-1.5908763e-05 -0.19164376 0.026090438 -0.12292469 0.038177714 -0.09044448 0.009829723 0.05575988
-0.12630494 0.071935296 0.08637792 0.19566585 0.17722364 0.11479519 0.1551975 -0.019073645
0.1758305 -0.08505771 0.03202766 0.17643002 0.09029796 0.06490092 -0.05399536 -0.14841343
0.15163812 -0.119371295 -0.025205368 0.039952524 -0.21396576 -0.0131874075 -0.13084796 0.16386408
0.18781152 0.0912014 -0.079509415 0.124947414 0.21421272 0.13779636 0.018445978 -0.13825992
-0.17024428 -0.11382131 -0.024837531 0.05800882 -0.19511893 -0.05207127 0.09292241 0.029442282
0.08963805 0.0076750275 -0.032255147 -0.004536511 0.12561141 -0.103216015 0.20144571 -0.07325226
0.09424792 0.191687 -0.09044826 -0.023147678 0.22312237 0.10218657 0.17058825 -0.04514255
-0.10542013 -0.14227542 0.1517499 -0.11210519 0.14445044 -0.08524838 0.112738945 0.009252377
-0.13687678 0.08323771 0.007680124 0.18993121 0.0016716123 0.025994426 0.024010992 -0.13880423
0.115165316 -0.18588866 -0.20877579 -0.024367064 -0.031368036 0.16918406 -0.12795389 -0.06370658

gru.weight_hh_l0 f4 [192, 64]
00000000: 7434 fd3c 64c8 3fbd eb69 0dbe 12af 4e3e
00000010: 24d5 9e3d e9d5 14be 475a c1bd 1332 223e
00000020: 9c21 813e d855 52bd c12a b6bd 70a0 033e
00000030: 3bdd 8bbb 0f99 6abe ff60 b13c fe08 93bd
00000040: 2886 803d 0609 6d3e 82e8 e5bd 87a7 c3bc
00000050: bbee 223e 1fae 2fbe d4f8 2dbe 9f29 37be
00000060: 606d 203c bf91 383e 40f7 30be 3712 d43d
00000070: 9568 8d3c 4693 533e 90ee 28be f2f8 48be
00000080: 5a72 463c 6ab6 703e a34d 9bbd 621a 10bd
00000090: 9237 3fbe 0cc9 273e 110c f5ba 23f8 2a3e
000000a0: a0db ae3d 9022 1bbe 97cd 973d 8477 1abe
000000b0: 349f 2d3e bb45 9b3d 7975 cebd e8b9 b5bd
000000c0: 6ef2 93bc e86d 333e c0dc 6cbe 8063 213e
000000d0: 6034 013e 72f2 7d3d e788 91bd 0114 4d3e
000000e0: edce 863b f0cf 8abd c9f3 163e 2635 043d
000000f0: a81b cdbd ddfa e2bd 6483 b7bd 1b7c 13be
00000100: bc8f 2cbd 7472 363d 5658 8e3d d67d c7bd
00000110: 2865 873c 46ae ce3d 551a 583e 5c19 e4bc
00000120: 85ce 69bd 1780 1e3e 8852 9c3d 5a4b c3bd
00000130: 7754 bf3d b572 c63d 8322 18be 8d27 983d
00000140: 488b e63a 9d36 2cbe a948 3a3d 90d2 2abe
00000150: 184b 9cbd eea9 633e b1d3 323e d450 5c3d
00000160: 1326 8ebc d726 06be 5777 a23d 995d 7ebd
00000170: b05d e8bd f2bb bbbd 1e78 22bd ca94 063e
00000180: 9ead 19be e9f2 90bd e396 b33c 4a93 503e
00000190: 5ba7 553e 3020 e8bd a2a3 37be 5d74 0e3b
000001a0: 2952 63be 4ac4 dabb 6910 51be 184a 413e
000001b0: 6adc 26bd 51d6 a0bd cb78 263e c525 893d
000001c0: bb1e 63bd 8ede b0bd 8c83 2fbd 5713 e0bd
000001d0: 9ec8 9abc 8ee6 d33c c7d5 1d3e eb86 c4b9
000001e0: efe5 1dbe 3c9e 02be 460d 36be 5fbc 763d
000001f0: f2d1 523d cba9 513e 1822 afba 1315 453e
00000200: a4cf 8abe f38a bf3d d487 d9bd 5b69 503c
00000210: 5c5a 3fbe 98e9 283e 7bbe 30bc 9d52 eebc
00000220: 2d2b 6abe 137a b03d ff29 a43d 103f 113e
00000230: dc64 5a3e 589b ddbb e45c 76be 8799 2c3e
00000240: d4ca e6bd 234c 2ebe 2147 e83d 041e b2bc
00000250: 1da0 b5bc fb6c 803d dade 0d3e 35aa 793d
00000260: 745f 58be ed44 6fbe c4e6 9c3d 1cea ccbd
00000270: 77ef 44be c41c f8bd 32aa 623e 9da0 f53d
00000280: fccf b7bd d03c 67be 34f0 be3d b37c aebc
00000290: 5916 593e 2f67 2cbe 9d4b 23be 540f 91bb
000002a0: 8135 64bd bae4 513d 1c51 cbbd a896 9c3d
000002b0: 880e 01bd 4dc5 77bd d21e 4b3e 6239 4f3d
000002c0: 7a29 393e 0009 8f3c 8b34 0b3e 596e 65be
000002d0: 7090 c5bd 8317 d9bd 2ceb 41bc 9b1b e9bd
000002e0: 8107 0bbe 6db7 593e 905c 0fbe ed5a c2bc
000002f0: 4c07 6b3d a87e 47bc 2bd8 7a3e e7f4 913d
00000300: ce69 0ebe 750e c63d afeb 13be 1c1a 26be
00000310: a24b 403c 62a9 0e3e 22a7 303e d08b 9f3c
00000320: e868 ffbb 8a84 88bc 0a70 3c3c dda6 a5bb
00000330: b5e7 4e3e 676a 7dbc 511f 06be 5c4d 3c3e
00000340: 17b9 12bd 7d54 a83c 4fd0 283e f5c0 46be
00000350: 1ff9 25bb 1a8f 3e3e d610 443d 5ed4 133e
00000360: 0e3f 0e3d f483 2fbc 9087 983d 0b9c 81bd
00000370: e13e 28bb 1a8c 07bd 1736 9b3d a195 c83d
00000380: c005 1fbe 6a19 2d3c 6d59 313e 8862 18bc
00000390: 47c4 513e 77a8 13bc 6804 39bd 1378 48be
000003a0: cc70 12be 59de 213e 783c ccbd 1306 133e
000003b0: e9e0 15be df28 3dbe d923 e8bc e109 743d
000003c0: 4e2b a93d 0849 b8bd cd56 0d3e d6fd 793b
000003d0: 42ba 3cbe 6ab2 73be 47de 493d 52a6 40bd
000003e0: 6f1d c1bd 9808 ae3d e443 a3bd 7b86 c5bd
000003f0: c2ab c73d 6460 393e c851 033e 0f89 a43c
0.0309088 -0.046821967 -0.13809936 0.20183972 0.07755497 -0.14534725 -0.09441047 0.15839414
0.25220954 -0.0513514 -0.088948734 0.12854171 -0.004268316 -0.2290995 0.021652697 -0.071794495
0.06275588 0.23147973 -0.11225988 -0.023883594 0.15911381 -0.17156266 -0.16989452 -0.17886971
0.009791702 0.18024348 -0.17281818 0.10355037 0.017261783 0.20661649 -0.16497254 -0.19626215
0.0121122245 0.23507085 -0.075831674 -0.03518141 -0.18673542 0.16385287 -0.0018695613 0.16696219
0.08537984 -0.15149903 0.0741226 -0.15084654 0.16955262 0.075816594 -0.10081 -0.088733494
-0.018059935 0.17522395 -0.23131084 0.15760612 0.12617636 0.061998792 -0.0710619 0.20027162
0.004114023 -0.06777942 0.14741434 0.03227725 -0.10015041 -0.110830046 -0.08960608 -0.14402811
-0.042129263 0.044542745 0.069504425 -0.09740798 0.016527727 0.10091834 0.21103795 -0.027844124
-0.057081718 0.1547855 0.07632929 -0.095358565 0.09342282 0.096898474 -0.14856915 0.07429419
0.0017589116 -0.16817708 0.04547945 -0.16681886 -0.076315105 0.22232792 0.17463566 0.05378802
-0.01735214 -0.13100754 0.079329185 -0.06210098 -0.113459945 -0.09166707 -0.039665334 0.13142696
-0.15007636 -0.070775814 0.021922534 0.20368686 0.20864622 -0.11334264 -0.17933515 0.0021736838
-0.2219931 -0.0066762315 -0.20416416 0.18875921 -0.040737547 -0.078533776 0.16257016 0.06696657
-0.05544923 -0.08636199 -0.042850062 -0.10941189 -0.01889449 0.025866773 0.15413581 -0.00037484555
-0.15419744 -0.12755674 -0.17778501 0.06023824 0.05146975 0.20474927 -0.0013361601 0.1924632
-0.27111542 0.09352674 -0.1062161 0.012720431 -0.18686813 0.16495359 -0.010787602 -0.029092127
-0.22868033 0.08617034 0.080158226 0.14184213 0.21327537 -0.006762903 -0.24058872 0.16855441
-0.11269155 -0.17021231 0.11341692 -0.021742828 -0.022171075 0.062707864 0.13854542 0.060953338
-0.21130162 -0.23366137 0.076612025 -0.1000559 -0.19231974 -0.121148616 0.22135237 0.11993525
-0.08975217 -0.22581792 0.09323159 -0.021299696 0.21199931 -0.16836236 -0.15946813 -0.004426876
-0.055715088 0.05124352 -0.0992758 0.07645923 -0.031508 -0.060490895 0.19835976 0.050591834
0.18082228 0.017460346 0.13594262 -0.22405376 -0.0964669 -0.10600188 -0.0118358545 -0.113822185
-0.13577081 0.21261378 -0.14000154 -0.023724997 0.057380006 -0.012176193 0.24496524 0.071267895
-0.13907549 0.09670726 -0.14445375 -0.16220897 0.011736782 0.13931802 0.17251256 0.019475847
-0.007794488 -0.016664762 0.011501322 -0.005055292 0.20205577 -0.015467263 -0.13097884 0.18388885
-0.035821047 0.0205481 0.16485713 -0.19409545 -0.002532549 0.18609276 0.04786762 0.1443648
0.034728102 -0.010712612 0.074477315 -0.06328591 -0.0025672244 -0.033092596 0.07578676 0.097941644
-0.15529537 0.010565141 0.1731927 -0.009300835 0.2048503 -0.009012333 -0.045170218 -0.19577055
-0.14300841 0.15807475 -0.09972471 0.14357786 -0.14636578 -0.18472622 -0.028337406 0.059579734
0.08260213 -0.089983046 0.13802643 0.0038145683 -0.18430427 -0.23798528 0.049284246 -0.047033615
-0.09429442 0.08497733 -0.079719335 -0.09644791 0.09749557 0.18103176 0.12824166 0.020084886

gru.bias_ih_l0 f4 [192]
00000000: 2bf7 4cbe cd7f 163e ef04 0ebd 88f3 253e
00000010: 03d5 6f3c f897 c03d 8619 9c3d 98e1 a83d
00000020: 1903 9e3d cf95 f33d 4b29 903d 5b81 febd
00000030: ea19 043e fda9 583e abe3 de3d 125e 143e
00000040: 34df 3b3e 76dd 8b3d 3522 88bd 9353 1d3e
00000050: 36b5 293d 93cf f33d b90e 1f3e ed5b 113e
00000060: 83c9 c33d 0d41 3c3d 8ecd 09bd 215a 303c
00000070: 1dbf 3d3e 1c59 ad3b fa2a 223d 43af 893d
00000080: 249a 363e 9600 d83d 6735 1d3e 702a 64bd
00000090: aa29 da3d fcc6 443d 2d69 f43d e440 723e
000000a0: 4a05 373e c56a b63c 1b41 7e3d 3eca c3bc
000000b0: 0d0d 703d b94e 0fbc 92d3 13bd c972 00bd
000000c0: 7ade e4bc 42a3 403d 1bb5 df3d bb1f 6c3e
000000d0: 93d6 233e 2288 013d 8a0b 123e e046 933d
000000e0: cab2 c7bc 6e1b 1fbe 0757 3a3e 384f 223c
000000f0: 3bc6 b83d d724 8c3b eb7d ff3d bdc2 c0bc
00000100: f078 46be b919 243d e158 bf3e 5f49 393e
00000110: c259 e6bd ac62 0cbe 2505 db3b fd69 a7bb
00000120: fa17 c73d 5e2f 92be 70af 9dbd 5d25 dfbd
00000130: 1e21 87be fe1d 31be 2737 75bd 4d84 1dbe
00000140: 2155 413d f445 97bd 1f27 ae3d de3b 87bd
00000150: fd45 2f3e 1503 a13c 40d2 51bc 7605 13be
00000160: 0db8 bfbc a2b9 9fbd 58fb 943c 7b55 df3d
00000170: a0f2 e8bb 2938 953c 4d5f 40bd 269d 78be
00000180: 66eb 053e e60d cebc 2e9b 823e 75b1 34be
00000190: 2438 2fbe fd48 36be 07ef e53c ad22 953e
000001a0: 9548 e1bd 51e6 f33d f0d7 8f3d 2e37 5b3d
000001b0: 5d1b e13c 16e3 09bd 6964 d9bc ddd3 1c3d
000001c0: eb33 87be 8ef6 953d e510 283e a378 96bd
000001d0: a909 2ebe 6315 843d 93e5 8e3d eade 2fba
000001e0: 1a7a 94bd 569d 2ebb 1825 063e 2a0a 763e
000001f0: 2a4f 26be 62ab 49bd 713a efbd 3329 b43d
00000200: 3750 afbd 70c8 e03d 9e9c 943c 51e7 07be
00000210: 32a3 2cbe 37c7 143e 38d8 e13d a928 54be
00000220: 752b 27be 877c 2e3e 1b69 643e 33c9 71bd
00000230: 2442 1f3e 0582 123e 5182 2bbe af7a 1b3e
00000240: 50c8 29be a665 23be b666 db39 a4e5 343c
00000250: 5c2e 32be 09e1 293e e7af 483e 72e8 3c3e
00000260: cf2d 09be 9104 fa3c 354a 0d3e e868 5fbe
00000270: 1bae 42be 3229 0bbe f7f8 263e 7cc8 4d3e
00000280: a3b9 83be 770a 74be 76a6 39bc 97df 4e3e
00000290: 882b 1c3e f071 19be 0005 17be ff55 11bd
000002a0: fd0b 45be 1fce ad3d 55b6 55bc f175 383e
000002b0: db51 12be 679b 2bbe 9f14 6d3e 6028 273d
000002c0: 3414 bc3d d1fb fcbc fda1 0b3e 955c f7bd
000002d0: abf4 69be 27f0 8fbd b9aa 363e bc90 60be
000002e0: d07f 02be aa98 fa3d 18bb fbbd 352b 60bd
000002f0: 6bf6 cd3d 476a 5e3e 8e1c 3f3e 0b3f 633e
-0.20016162 0.1469719 -0.034672674 0.16206181 0.014638188 0.09403986 0.07622056 0.082461536
0.077154346 0.11893808 0.07039126 -0.12427016 0.1290051 0.21158595 0.10883268 0.1448901
0.18346864 0.0682935 -0.066471495 0.15363912 0.04143258 0.11904826 0.1553296 0.14195223
0.0955992 0.045960475 -0.033643298 0.010763676 0.18529935 0.0052901637 0.039591767 0.06722882
0.17832237 0.10546987 0.15352403 -0.055704534 0.10652478 0.04804133 0.11934123 0.23657566
0.17873111 0.022267709 0.06207381 -0.023900148 0.058606196 -0.008746796 -0.03609044 -0.031359468
-0.027938116 0.047030695 0.10923215 0.23058979 0.15999822 0.031623967 0.14262214 0.07191253
-0.024377245 -0.15537807 0.18197261 0.0099065825 0.090221845 0.0042768526 0.12475189 -0.023530358
-0.19382071 0.040063594 0.37372497 0.18094395 -0.11247589 -0.13709515 0.006683963 -0.0051090703
0.0972137 -0.28551763 -0.07699478 -0.10895798 -0.26392454 -0.17296597 -0.05986705 -0.153825
0.047200326 -0.073863894 0.085035555 -0.06603216 0.17116542 0.01965479 -0.012806475 -0.14357552
-0.023403192 -0.077990785 0.018186256 0.10904976 -0.0071090013 0.018215256 -0.046965886 -0.24278697
0.13078079 -0.025153112 0.25509018 -0.1764582 -0.1711126 -0.1780128 0.028068079 0.29128018
-0.11000172 0.11909164 0.07023609 0.05351942 0.027478868 -0.03366383 -0.026537137 0.038287986
-0.26406798 0.07322417 0.16412695 -0.073472284 -0.16995873 0.06449392 0.069773816 -0.0006708937
-0.072498515 -0.0026644072 0.13100088 0.24027315 -0.16241136 -0.04923571 -0.11681069 0.087969206
-0.08560222 0.109757304 0.018141087 -0.13271834 -0.16859129 0.1452912 0.110275686 -0.20718636
-0.16325171 0.17039691 0.2230572 -0.05902977 0.15552574 0.14307411 -0.1674893 0.15183519
-0.1658032 -0.15956745 0.0004184746 0.011041079 -0.17400497 0.1658975 0.19598351 0.18448046
-0.13396381 0.030519756 0.13797839 -0.21817362 -0.19011728 -0.13589934 0.1630591 0.2009601
-0.25727567 -0.23832117 -0.011331191 0.2020248 0.15250981 -0.1498487 -0.14748001 -0.035482403
-0.19242854 0.0848658 -0.01304396 0.18013741 -0.14289038 -0.167585 0.23152398 0.04080999
0.09183541 -0.030881794 0.13636012 -0.120782055 -0.2284724 -0.07028227 0.17838563 -0.21930212
-0.12744069 0.122361496 -0.12291545 -0.054728705 0.10056766 0.21720229 0.18663236 0.22192018

gru.bias_hh_l0 f4 [192]
00000000: 7cba febd e6be 513e a559 c13c 0620 6abb
00000010: b109 083e ec3a 483e 41b2 a63d 13eb b93d
00000020: 599c 493e d16b ce3d 9036 553d f11b 09bd
00000030: 0d86 0f3e d1b1 693d 396c 1f3e 97fe 623d
00000040: 18b9 4e3e e713 c03d 1f85 2abe 7517 233e
00000050: fa81 e2bd 4421 823d af5e ac3b b05d 363e
00000060: f278 053e a1c7 633d 52b0 363e 0187 553d
00000070: 47e8 d73c 662a 083e 6e5f 3bbb 154e 173e
00000080: 5807 6abc 82d1 693e 75af 4c3d 3e4f f73b
00000090: cadb 573e 424b 403e be81 053e 3682 f13d
000000a0: 0a94 d43d 56f5 253e 3842 f83c a0fb 8e3d
000000b0: 0eba 383e 6b75 7d3c a56c 463a 0f81 b6bc
000000c0: 9ddd 72bd ca0a d4bb 1956 3b3e 25b4 f93c
000000d0: 070f b73d f4ce cc3c e6b2 073e 5b3c 3a3e
000000e0: f83d 32bc f706 fdbd f5bd ae3d a7b6 36bd
000000f0: f9e3 153e 87f0 ed3d a1be 39bd 837c b33c
00000100: 8760 963b 7ad0 d4bd 2752 ea3e f9fa a83e
00000110: 37c1 173d faf3 0bbe c2b0 3cbe a189 74be
00000120: d25a ba3d 1028 32be b9f1 42be 8ef8 1dbd
00000130: 2701 73be 1e81 abbd 237e 32be 4fc4 38bd
00000140: 0192 90bd 6db8 ddbd b282 f6bd af20 44be
00000150: a152 543e fd7f 4ebd 4757 e8bc cec3 80bd
00000160: 972a 0cbe da77 47be 7403 2c39 9b18 15bd
00000170: 2578 fdbd e2b7 e63d 7bf9 073e 24a5 87be
00000180: 6654 903d 97be 0d3d 7f7d 383e 6849 c13a
00000190: 2cdc f9bd 0482 04be 3cba 03be e516 cb3e
000001a0: 280a 16be ae4e c53c 8fc8 963d 9ae0 71bd
000001b0: 365d 1bbe 5a68 65bd 4af6 b0bd 6da5 3f3d
000001c0: bf0f efbd 28a7 06bd 399c 653e 389a 44bc
000001d0: 556a 48bd d6f6 30be bca0 83bc 2e26 463d
000001e0: ff37 15be ccc0 e9bd bf99 8abb 1ef7 4e3e
000001f0: bd58 13bc 6fb9 1e3e 8b7f d43b 827a bc3d
00000200: 2b22 32be 9d9f 523e e3d1 d1bd 5e79 cfbb
00000210: d0e4 5fbe a747 6d3e 1e4f 393e 403b 28bd
00000220: bded 59be 6a3e 733e 827d 133e a8f4 87bc
00000230: d91c 683e 537a 3a3e dbaa 4fbd 2ebf 4c3e
00000240: e9ab 1ebe 6714 19bd b2d6 d03d 26ed d1bd
00000250: fdf7 0cbe 683a 0b3e 83ef 473e a14e 9d3c
00000260: ce38 0ebe 0e3f 0ebe af3e 3e3e 7710 10be
00000270: a20c 0fbe 0b4d 43be 1ca3 103c 48d6 b03d
00000280: ebdb 8bbc 46bc 60be ff9c 8cbd d0db 883c
00000290: 2c95 1b3e f172 f9bd 3b99 06bd 7e37 acbd
000002a0: 4b9f b2ba add6 3a3e 9a1c e1bd ef3b 043e
000002b0: 7a99 23be cd66 3dbe 8cd3 ca3d b149 fe3d
000002c0: 9bc6 953b 53d3 09be ecb1 12bd 562e 76be
000002d0: 1c60 19be 3edb 19be 296d b93d a308 91bb
000002e0: 2e27 cdbd 5d01 36bb 85b7 0bbe f40d bc3d
000002f0: 2872 6b3e 1788 5a3d d1c1 193e ead2 3a3c
-0.12437913 0.20482978 0.023602316 -0.0035724654 0.13284947 0.19553727 0.08139468 0.0907804
0.19688548 0.10079158 0.052053988 -0.033473913 0.1401598 0.057054345 0.15568627 0.055418577
0.20187795 0.09378796 -0.16652344 0.15926917 -0.11059947 0.06354001 0.0052603106 0.17809176
0.13034418 0.055610303 0.17840698 0.052130703 0.026355876 0.13297424 -0.0028590816 0.1477588
-0.014283977 0.22833827 0.049972016 0.007547288 0.21079937 0.18778709 0.13037774 0.11792414
0.10379799 0.1620687 0.030305013 0.069815874 0.18039724 0.015469889 0.000756929 -0.022278337
-0.05929338 -0.0064710127 0.18294562 0.030481407 0.08938413 0.025001027 0.13251838 0.18187086
-0.010879032 -0.12354844 0.08532325 -0.044607785 0.14637746 0.116181426 -0.045347814 0.021909958
0.0045891437 -0.10391326 0.45765802 0.33003977 0.0370495 -0.13667288 -0.18426803 -0.23880626
0.09099354 -0.17398095 -0.19037522 -0.03856712 -0.23730908 -0.083742365 -0.1743093 -0.04510909
-0.07059098 -0.10826192 -0.12036647 -0.19153093 0.20734645 -0.050415028 -0.02836193 -0.06287347
-0.13688122 -0.19479313 0.00016404485 -0.03640042 -0.123764314 0.112655416 0.13278763 -0.2649318
0.07047348 0.03460559 0.18016623 0.0014746608 -0.122001976 -0.12940222 -0.12864012 0.39665905
-0.14652312 0.024085369 0.07362472 -0.059052087 -0.15172276 -0.05600772 -0.08640726 0.04678862
-0.11672925 -0.032874256 0.22422875 -0.011999659 -0.04892953 -0.1728166 -0.016067855 0.048376255
-0.14572142 -0.11413726 -0.0042297537 0.20211455 -0.008993325 0.15500425 0.006484931 0.09203054
-0.17395847 0.205687 -0.10245111 -0.006331607 -0.21864629 0.23171864 0.18096587 -0.04107213
-0.21282096 0.23754278 0.14403346 -0.016596153 0.22667255 0.18210725 -0.05070005 0.19994804
-0.15495266 -0.037372973 0.101972 -0.102503106 -0.13766475 0.13596499 0.1952496 0.019202532
-0.13888857 -0.13891241 0.185786 -0.14068781 -0.13969663 -0.19072358 0.008827951 0.08634621
-0.017072638 -0.2194682 -0.06865882 0.016706377 0.15193623 -0.121801265 -0.032860976 -0.08409022
-0.0013627795 0.18245955 -0.109917834 0.12913488 -0.15976515 -0.18496247 0.099036306 0.12416399
0.0045707948 -0.1345952 -0.03581421 -0.24041113 -0.14978069 -0.1502504 0.09054024 -0.0044260784
-0.100172386 -0.0027771809 -0.13644226 0.09182349 0.22992766 0.05335244 0.15015341 0.011402825

notes_decoder.weight f4 [128, 64]
00000000: 15d0 8c3d 23b1 c4bd 41e1 1f3e 13f3 383e
00000010: 6e39 3f3e c863 6dbd 0279 46bd 853d 9d3d
00000020: 1848 123e 7fd0 46be 7f29 8dbe e30c 8e3c
00000030: 7e95 aebd b089 91be a584 613d ded5 5fbe
00000040: ccd4 6f3e 6809 9e3d 1ef1 833d 3353 323d
00000050: db9f 953e ced4 3cbe d6ad 8ebe 0fb2 2bbe
00000060: 00db 913e d40a 4e3e cfeb 41be 14b2 463e
00000070: 387f 273e 458c 053e 179a 38be b29c 03be
00000080: c70b 1b3e b5ab 143e b381 99bd c183 87be
00000090: ad3d 3fbe 11c0 473e 1d54 1d3e 816a 683e
000000a0: dbf9 c93d 6513 48be 1989 0e3e 98d1 78be
000000b0: 9411 563d 4538 903e 47a1 32be 5ad0 59be
000000c0: 650f e53c d649 373e c148 fbbd 848b 663e
000000d0: 6a3e 133e 8068 033e bda4 42be 89cf 003e
000000e0: f30a 7f3e c22d 01be eba0 0f3e 60f9 ba3d
000000f0: 6d0b e9bd 0c58 00be caf1 f0bd 1ae5 8ebd
00000100: 769d 4c3d c8f3 83bd eaee 203d 772c 493e
00000110: 690b fb3d 890e 8fbe 0c8c e4bd 2ebb 163e
00000120: 7276 2e3e 2b92 86be 7269 20be ee65 e33d
00000130: 09aa b2bd 1edd 98bd e1c3 8d3e 4d24 24be
00000140: 1301 963e c4d9 8b3e 094d fabc 4553 153e
00000150: 0702 4a3e 57ea fbbd ace5 ccbd a1a5 5ebe
00000160: 74ec bb3d ad1e 683e 518d 4fbe 50b0 403e
00000170: 54c3 943e 59cd 083e fe11 21be 4cd9 47be
00000180: 1e44 1b3e bea2 083e 1fbb 2cbd 34c6 29be
00000190: d0d1 51be 2b17 5b3e fb58 0b3e 3dd1 3d3e
000001a0: 3c23 3a3e bd33 5dbe 0b56 573d a063 acbd
000001b0: 6e25 8f3e ccaa cc3d dd41 53be a0d9 6cbd
000001c0: a2f8 873c db06 bd3d ab18 1cbe 302a 2c3e
000001d0: a33e 2b3e 7e15 4d3e cf29 5bbe 0811 233e
000001e0: 3a24 933e f10d 173b fba2 6c3e 6228 0f3d
000001f0: 9896 84be 0a90 86bd 39ca 12be 650b 07be
00000200: 691d 0abd 543b 55be 3249 343e 61ad 753e
00000210: 4376 853e 2470 bcbd 7f5b 98bd fae4 593e
00000220: 2366 993e 6fae 9dbd a171 2cbe f103 9bbd
00000230: 4f2a 8abe 4e7e 8abe 9a53 153e 9d70 eebd
00000240: ad90 bd3d 78e7 b43d da79 8f3c 921f d23c
00000250: d515 5d3e 8237 dfbd d0e7 2dbe 1276 78be
00000260: 3743 8e3e 0bc0 633e 9375 4ebe 81b6 703e
00000270: 9fd4 743e a528 4a3e ee4b 33be 894d 44be
00000280: 3099 bb3d 59b0 c53d 3315 44be 51f3 5fbe
00000290: 9b4e 53be 1880 2c3e a2e0 223e a291 343e
000002a0: 4148 503e 1545 63bd ff20 803d b45a e6bd
000002b0: 5ae8 903e a91a 3f3e ee7c 83be 08ed 66bd
000002c0: 6b6e ea3d 6402 033e f34e 55be 2856 1e3e
000002d0: cda1 803e 78c7 4c3e 65c7 c7bd cd25 0a3e
000002e0: aaf0 2f3e d98b 0dbd 3ee3 b43d 42f1 173e
000002f0: 75d6 12bd acf3 93bd a41c ccbd 5d6b 32be
00000300: 5c5b 413d 59f1 2bbe 41a7 6a3e a7a9 c93d
00000310: 4ecb be3d 5efd 14be cab1 a0bd c768 a73d
00000320: c5b2 7f3e 0951 02be 3549 6cbe 8b2c 573d
00000330: 402e 81be c161 87bd b480 8c3e 2d38 15be
00000340: 9e4e 0d3e e5db a43d 82bf 903d 4e1e 723e
00000350: f85f 043e febc f2bd b4a6 8fbe 484a a7bd
00000360: ff76 683e f619 693e ed3d 5bbd bc09 983e
00000370: 1670 bf3d f2e3 873e fdb6 40be 4d73 95be
00000380: 10c3 663e 492f 913e 8c9a c0bd cf24 80be
00000390: ec83 98bd b265 3b3e 3ba0 8e3e 664c 2b3e
000003a0: 46d3 803e 9a47 05be 17a5 9cbb 2ae0 f6bd
000003b0: e526 4d3e 57a0 ed3d 54d0 92be d21c 2abe
000003c0: d0cc 7cbd c213 b23d 50ba 5dbe 5123 773d
000003d0: 7e31 643d 8a84 063e 967e 9dbd bcbc 443e
000003e0: 87fa 153e a6d1 0b3d 85b5 8b3e 2813 1bbc
000003f0: c3ad 06be cfdc e4bd b304 11bd 65ae 97be
0.06875626 -0.09604099 0.15613271 0.18061475 0.18674251 -0.057956487 -0.048455246 0.076777495
0.14285314 -0.19415472 -0.27570722 0.01734013 -0.08524607 -0.2842536 0.05505814 -0.21858928
0.2342102 0.07716638 0.06442474 0.043536376 0.29223523 -0.18440554 -0.27867 -0.16767143
0.28487396 0.20121318 -0.1893761 0.19403869 0.16357124 0.1304179 -0.1802753 -0.12852743
0.15141211 0.14518626 -0.07495441 -0.26467708 -0.18675871 0.19506861 0.15364118 0.22696878
0.09862109 -0.19538648 0.13919486 -0.24298704 0.052262858 0.2816793 -0.17444335 -0.21270886
0.027961442 0.1789926 -0.12269736 0.22514158 0.14379278 0.12832832 -0.19008155 0.12579168
0.2490652 -0.12615111 0.14026229 0.09129596 -0.113791324 -0.12533587 -0.117648676 -0.069772914
0.049954854 -0.06442982 0.039290346 0.19645868 0.12258036 -0.27940777 -0.11159524 0.14719841
0.17037371 -0.26283392 -0.15665224 0.11103426 -0.08723838 -0.0746405 0.27688506 -0.16029473
0.29297695 0.2731458 -0.030554311 0.14582546 0.19727336 -0.12300556 -0.10004744 -0.2174287
0.09175959 0.22667952 -0.20268752 0.18817258 0.29055274 0.13359584 -0.1572952 -0.19516486
0.15162703 0.13343331 -0.04217064 -0.16579515 -0.20490193 0.21395557 0.13608162 0.1853685
0.18177503 -0.21601768 0.05257229 -0.084174395 0.27958244 0.099935144 -0.20630594 -0.05782473
0.01659805 0.09229823 -0.15243785 0.16812968 0.16723113 0.2002773 -0.21402667 0.15924466
0.28738576 0.0023049081 0.23109047 0.03495062 -0.25896144 -0.06570442 -0.14334954 -0.1318794
-0.033719454 -0.20823413 0.17606047 0.2399192 0.2606679 -0.092010766 -0.074393265 0.21278754
0.29960737 -0.07699286 -0.16840221 -0.07569111 -0.26985404 -0.27049488 0.14582673 -0.11642573
0.0925611 0.08833212 0.017514158 0.02564982 0.2159036 -0.10899259 -0.1698296 -0.2426379
0.27785656 0.22241227 -0.20162039 0.2350712 0.23909234 0.19742067 -0.17509434 -0.19170202
0.091600776 0.09652776 -0.19148712 -0.21870162 -0.20635454 0.16845739 0.15906003 0.1763368
0.20340063 -0.055485804 0.062562935 -0.11247769 0.2830227 0.18662514 -0.2568125 -0.056378394
0.11446842 0.1279388 -0.20830898 0.15462554 0.25123444 0.19997966 -0.09754828 0.13490982
0.1718165 -0.034557197 0.088324055 0.14838126 -0.035849053 -0.07224211 -0.099664 -0.17423768
0.047206268 -0.16791286 0.22915365 0.09846812 0.09316121 -0.14549777 -0.078464106 0.081742816
0.24970539 -0.12726225 -0.23074801 0.052532714 -0.25230598 -0.06610442 0.27441943 -0.1457221
0.13799521 0.08049754 0.07067777 0.23644373 0.12927234 -0.11852454 -0.28056872 -0.08168465
0.22701643 0.2276381 -0.053525854 0.29694927 0.093475506 0.26541096 -0.18819804 -0.2918953
0.22535348 0.28356388 -0.094044775 -0.25028083 -0.07447037 0.18300512 0.2785662 0.16728362
0.2516119 -0.13015595 -0.0047804224 -0.12054475 0.20034368 0.11602848 -0.28674567 -0.16612557
-0.061718762 0.08695175 -0.21653104 0.060336415 0.055711262 0.13136497 -0.0769016 0.19212621
0.1464635 0.034135483 0.27286926 -0.009465016 -0.13152222 -0.111749284 -0.035404872 -0.2962524

notes_decoder.bias f4 [128]
00000000: baea 01bd e02b 38be fb7f 10be 5be6 76be
00000010: 8c07 11be a39f 13be c94d 4ebe cd6b 34be
00000020: 8fa4 71be 0b32 80be 4347 1abe 945b 67bd
00000030: 7bdb 45bd 1582 3dbe acda 6abd f2cd 62be
00000040: f18f 36bd 094b 4ebe cd19 62bd 3488 a6bd
00000050: 75fb 21be ff88 ffbd fa11 6ebd 0843 0bbe
00000060: 338c 9fbd 0acb 47be b24a a7bd bf5b b1bd
00000070: 4bcb c8bd cda0 09bd ddbc 2cbe 5e8a 51be
00000080: b126 43be 8f76 f8bd 6832 9dbd 58b9 16bd
00000090: 76b9 00be f781 86bd b1df 08bd 8e3e 59be
000000a0: 3616 34be 33fc a0bd a8c7 71be 349a 2ebe
000000b0: 4887 62be 64e5 f0bd 81e5 00be 31f0 03be
000000c0: e73f 1bbe 185a 1abd 6b34 96bd aeb0 23bd
000000d0: cd59 d6bc b53f 1ebe 4f95 6bbe 91d0 25be
000000e0: 5344 37be 3845 0abd fee9 b43b f9ea 79be
000000f0: 379a 9ebb b310 0fbd 6a87 fbbc 9877 11be
00000100: 13de 6dbc 275f 66be 4660 c0bc e489 d8bd
00000110: bbc3 5dbe d028 3dbe 6e40 17be 8e9e 2fbe
00000120: 0ee3 57be 11c2 6abd a845 d9bd a024 10be
00000130: 4ebc 5bbe 80c4 1fbd eda8 25be 92a3 b8bd
00000140: 8459 5fbe f822 64be 8e2b 52be f88e 58be
00000150: 6c66 33be abe2 e6bd 4448 68bd 5c04 47be
00000160: 4ec7 20bd 3dca eabd 58bf 75be b5df 9cbd
00000170: 3320 32be c997 97bd 7cc6 4ebe 0104 84be
00000180: 8fa5 88bd ea3c 26bc 39ad 41be 7d6a 3bbe
00000190: e3b2 3abd b0b0 87bd ad5a 81bd 9227 65be
000001a0: cade 80be b42f 4cbd 0cf2 80be 1b27 88be
000001b0: 754b 74be 6567 e8bd 887e 83bd 508c 12be
000001c0: 8497 5cbe 6bf2 acbd 5ed0 a2bd 3eac 0ebe
000001d0: e1b4 4ebe 433b 5dbe 4bd6 67be 1a21 27be
000001e0: f13c 8dbd 3eb3 6dbe 08a8 08be b2a0 87bd
000001f0: ac40 3abd 7ce3 4fbd af44 4fbe cb40 eabd
-0.031717993 -0.17985487 -0.1411132 -0.24111311 -0.14163035 -0.14416365 -0.2014686 -0.17619248
-0.2359793 -0.2503818 -0.15066247 -0.05648382 -0.048305016 -0.18506654 -0.057337448 -0.22148874
-0.044570867 -0.20145811 -0.055200387 -0.081314474 -0.1581858 -0.12477302 -0.058122613 -0.13599789
-0.07790413 -0.19511047 -0.08168544 -0.08660077 -0.098044 -0.033600617 -0.1686892 -0.20462939
-0.19057728 -0.12131988 -0.0767563 -0.03679785 -0.12570748 -0.065677576 -0.033416454 -0.21215269
-0.17586598 -0.07860603 -0.23611319 -0.17051011 -0.22121918 -0.11762503 -0.12587549 -0.12884595
-0.15161096 -0.037683576 -0.07334217 -0.039963417 -0.026165867 -0.1545399 -0.23006175 -0.16192843
-0.17897157 -0.03375742 0.005521058 -0.24406041 -0.004840161 -0.034928035 -0.030704219 -0.14205778
-0.014518279 -0.22497235 -0.023483407 -0.105731755 -0.21656696 -0.184726 -0.14770672 -0.17150328
-0.21082708 -0.057313982 -0.10608989 -0.14076471 -0.21458551 -0.039005756 -0.16177721 -0.090155736
-0.21811491 -0.22278965 -0.20524427 -0.21148288 -0.1751954 -0.11273702 -0.056709543 -0.19435257
-0.03925257 -0.11464355 -0.23998773 -0.07659856 -0.17395096 -0.074019976 -0.20192903 -0.25784305
-0.06672203 -0.010146359 -0.18913735 -0.18302341 -0.045580756 -0.06625497 -0.06316123 -0.22378376
-0.25169975 -0.04985018 -0.25184667 -0.26592335 -0.2385691 -0.11347846 -0.06420618 -0.14311337
-0.21542174 -0.08444675 -0.07949899 -0.13932893 -0.20186187 -0.21604638 -0.2264034 -0.16321221
-0.06896389 -0.23212907 -0.13345349 -0.06622447 -0.045471832 -0.050754055 -0.20241044 -0.114381395
