saved_models/generalist_BCE_1e-2_200.pth (torch_old, 167373 bytes, 8 tensors)

notes_encoder.weight f4 [64, 128]
000000 81 46 ab bd 36 a3 65 bd ba 12 5c 3d 6b ea 8f 3d
       -0.08363057 -0.056063853 0.053728797 0.070271336
000010 d9 30 91 bd 49 3e 5e bd b8 a1 09 3c 3d da 7b bd
       -0.07089395 -0.05425862 0.008400373 -0.061487425
000020 9b bf 7c bd 00 64 aa bb f8 18 76 bc 42 77 70 3d
       -0.061706167 -0.005199909 -0.015020601 0.058707483
000030 d3 66 a7 bd ec ee 05 bd 60 35 3c 3c ce 73 67 3d
       -0.08173909 -0.032698557 0.011487335 0.056506924
000040 31 60 5c bd 46 56 a8 bd 1c 92 92 bc 98 e2 91 3c
       -0.053802673 -0.0821958 -0.017891936 0.017808244
000050 76 46 3b 3d 32 37 6c bd 3e 43 ab bd e0 cf 92 3c
       0.045721494 -0.057669826 -0.08362435 0.017921388
000060 e7 56 b4 bd 70 f0 d7 3b 56 70 31 3d 10 03 ba 3c
       -0.08805638 0.0065899417 0.043320023 0.022706538
000070 c2 e1 77 3d 3c 73 c5 bc 30 60 ca 3c 40 9e 59 bc
       0.060518034 -0.0241028 0.024704069 -0.013282359
000080 6c 95 4c bd 8c a2 d1 3c fd 5a ff be 1e 39 16 3d
       -0.049947187 0.025590204 -0.49874106 0.036675565
000090 c8 0a f9 bd 10 df ec 3b b4 39 64 bd e7 18 5c be
       -0.121602595 0.0072287396 -0.055719092 -0.21493874
0000a0 c8 10 43 bc d6 c3 4c bd 41 df 68 bf 15 d8 0b bf
       -0.011905856 -0.04999145 -0.9096566 -0.5462659
0000b0 4e 3e 6b 3f b7 6b 07 bf 2c c8 36 3c 26 e5 72 3e
       0.91891944 -0.52898735 0.011156123 0.23720226
0000c0 37 19 ad 3e 19 98 ed 3e c8 e5 ee 3e b2 86 82 3c
       0.338083 0.46405104 0.46659684 0.015933368
0000d0 ec 1b 93 bd ba 1d e6 3d 2e 8f 7e be 9b e2 3a 3e
       -0.0718306 0.11236139 -0.24859306 0.18250506
0000e0 79 eb 53 3f b6 42 dd 3d fe 49 a2 3e 10 fe b7 3e
       0.8278118 0.1080374 0.31697077 0.35936022
0000f0 d6 47 6b 3e 36 6f 5b 3f 96 ca 57 3e 2e 71 1c 3e
       0.22976622 0.8571657 0.21073374 0.1527755
000100 e4 28 93 3e c1 88 b2 bc db a6 03 be b3 9e 41 3e
       0.28742135 -0.021793725 -0.12856619 0.18908195
000110 0a c2 5c 3f 15 64 3a 3e 36 34 f0 3e 5e b6 55 3f
       0.8623358 0.18202241 0.46914834 0.83481395
000120 b2 6e 71 3e ef 1d f3 3d 9e 0e 0a 3e 64 aa 28 bf
       0.23577383 0.11870944 0.13482139 -0.65884995
000130 e9 ba 91 3e d1 7e 0c 3f 36 f4 72 be 5b f7 cf 3e
       0.28462914 0.54881006 -0.23725972 0.40618405
000140 5e ba a9 3e be 33 b8 3d 1d ab e4 3d b1 41 a8 bd
       0.3315 0.08994244 0.1116545 -0.08215655
000150 22 d2 48 be e2 ba 8a be 93 05 0f be 97 15 2b bf
       -0.1961141 -0.27095705 -0.1396697 -0.6682982
000160 53 ed d7 be 94 84 19 bb d8 5c a0 bd fd 96 98 3d
       -0.42173252 -0.002342497 -0.078302085 0.07450674
000170 9c 6e a7 bc 94 9f e8 3c 00 6e fd 3b 08 e5 c8 bc
       -0.020438485 0.028396405 0.0077340603 -0.024523273
000180 04 eb 96 bd 20 5c 54 bb 6b f1 4f bd 95 c6 9b 3d
       -0.073690444 -0.0032403544 -0.050767343 0.07606236
000190 59 79 ac 3d 4d 47 ac 3d 0e d7 d9 bc 34 c3 96 bd
       0.08421583 0.08412037 -0.026591804 -0.07361451
0001a0 70 21 69 bc 32 0a 5d 3d 33 22 58 bd be af 30 3d
       -0.0142291635 0.0539648 -0.05276699 0.04313635
0001b0 50 f5 05 bc a8 2c 34 bc 39 cf 0e bd d3 c0 4f bd
       -0.008176163 -0.010996975 -0.03486559 -0.050721
0001c0 72 7d 60 3d fc 6e e4 3c 22 32 31 3d 61 d1 51 bd
       0.054807134 0.027884953 0.0432607 -0.05122507
0001d0 c6 b1 38 3d 24 fb ea 3c ae ab 74 3d a6 b8 5c 3d
       0.045091413 0.028684206 0.05973404 0.053887032
0001e0 00 72 59 3c 81 c6 ac 3d 80 54 98 3b 2c ba 89 bc
       0.013271809 0.08436299 0.004648745 -0.016812406
0001f0 60 42 0d 3c bc b0 39 bd d2 52 79 3d a4 9d d6 3c
       0.008621782 -0.045334563 0.06087 0.026198216
000200 81 5f a7 bd 5a 3f 75 3d a5 37 82 3d e0 fa d5 3b
       -0.08172513 0.05987487 0.063582696 0.006530151
000210 bf eb ae bd f3 61 9b 3d b0 33 c1 3c c8 04 96 bd
       -0.08541059 0.07587042 0.023584217 -0.07325131
000220 00 dc df 3b 9c 25 be bc 8f 75 80 3d b0 06 e1 bb
       0.006831646 -0.023211293 0.062724225 -0.0068672523
000230 a3 21 08 bd ba ca 3b 3d 20 44 b1 3c 20 32 4a 3c
       -0.033235203 0.045847632 0.02163893 0.012341052
000240 21 95 8e bd bb c9 a9 bd 08 72 da 3c 80 0f 07 ba
       -0.06962038 -0.0829043 0.026665702 -0.0005152151
000250 84 73 90 bc c0 88 d9 bb e0 5b 52 bc a9 06 09 bd
       -0.017633207 -0.0066386163 -0.0128392875 -0.033453617
000260 3e f6 41 3d 6c 15 d5 bc 3c 6a dd bc 52 a5 8b bd
       0.047353975 -0.026011191 -0.027028196 -0.06818642
000270 d8 a2 92 3c 38 fc c8 bc c0 95 ae 3b 45 68 2c bd
       0.017899916 -0.02453433 0.00532791 -0.042091627
000280 5e 77 69 3d 6c 62 cb bc b8 b7 ac 3b f4 49 ed 3c
       0.056998603 -0.024827205 0.0052709244 0.028965928
000290 5e 5d fe bc 40 33 91 3b 39 53 2f 3d fd 47 13 bd
       -0.03105038 0.0044311583 0.042803977 -0.035957325
0002a0 38 31 3f bd de 6f ee bd 0a 4e ae bd 64 e7 50 be
       -0.046677798 -0.11642431 -0.085109785 -0.20400769
0002b0 79 1d 65 bd 8f 76 82 bd 55 92 d0 bd e7 42 d3 bd
       -0.05593631 -0.063702695 -0.101841606 -0.10315495
0002c0 0e 2b e7 bd a3 13 8f bd 2f c5 92 bd 12 1b 22 be
       -0.11287509 -0.06986167 -0.07166516 -0.15830639
0002d0 3e 4c b1 3b 8c 50 3f bd 36 fc 40 bd 71 57 ed bd
       0.0054107 -0.046707675 -0.047115527 -0.11588944
0002e0 d5 25 c4 bd 82 11 ac bd e4 49 27 be 08 5d bb bd
       -0.095775284 -0.08401777 -0.16336781 -0.09148604
0002f0 eb 53 13 be 81 d7 75 bd c5 94 18 bd bd 94 b7 bc
       -0.14387481 -0.060019974 -0.037251253 -0.022409791
000300 03 06 8c bd af e7 5a bd 86 ad 46 be f2 5a 1e be
       -0.06837084 -0.053443607 -0.19402131 -0.1546438
000310 c2 23 66 bc a1 7e 32 be 5c 07 a9 bd b5 d4 30 be
       -0.014046611 -0.17431118 -0.08253357 -0.17268641
000320 4d f0 be bd cf 6d d7 bd cc 6f 29 bd 0e 82 93 bd
       -0.093231775 -0.10518991 -0.041366383 -0.0720254
000330 bf 52 06 bd c7 4a ba 3c 6c 05 ff bd 1f f1 c4 bd
       -0.032793757 0.022740735 -0.12452206 -0.09616303
000340 29 5f 33 bd 8e 77 01 be 6a 64 29 bd 6c 74 7c bd
       -0.043791924 -0.12643263 -0.041355528 -0.061634466
000350 35 0c 08 be 7a 01 2d bc ee a1 63 bc 8c 40 c6 bd
       -0.13285907 -0.010559434 -0.0138935875 -0.0968028
000360 ec 98 4b bd 65 81 a4 bc 64 39 8d bd 66 d0 1a 3d
       -0.049706385 -0.020081231 -0.06895712 0.0377964
000370 94 d3 09 bd ec e3 bb bc f8 2e b3 bc 01 b0 9a 3d
       -0.033649042 -0.02293583 -0.021872982 0.07553101
000380 86 70 30 bd 90 0a d7 3c ad 62 13 bd b1 4e 8a 3d
       -0.04307606 0.026250154 -0.035982776 0.067532904
000390 e8 eb 66 3c e2 6c 59 3d 0d 6a 57 bd e3 5b 81 3d
       0.01409433 0.053082354 -0.052591372 0.06316354
0003a0 fa af 38 3d ad 0c 56 bd 72 f0 47 3d ba 67 68 3d
       0.0450897 -0.052258182 0.04881329 0.056739546
0003b0 47 f7 24 bd 5e ef 51 3d a1 55 87 bd 5c 13 a5 bc
       -0.040274885 0.05125367 -0.06608129 -0.020150833
0003c0 1e 74 a6 bd c0 04 c8 ba 34 63 9c bd 65 c5 9f 3d
       -0.08127616 -0.0015260205 -0.07636109 0.07801322
0003d0 c9 a9 ae 3d 0c 4b d6 3c 9c c9 ca bc c0 65 21 bc
       0.08528478 0.026158832 -0.024754338 -0.009850919
0003e0 c0 1c 7c bd 8f fc 0f bd 28 0d 02 bc 32 2d 99 bd
       -0.061550856 -0.035152968 -0.007937707 -0.074793234
0003f0 5a c5 36 3d 1e ad 6b 3d 1c 20 f0 bc 30 f7 2e 3c
       0.044621803 0.057538144 -0.029312186 0.010679051

notes_encoder.bias f4 [64]
000000 b3 81 06 be 0d 20 2b be 40 e5 26 be ff ea 33 3e
       -0.13135414 -0.16711445 -0.1629839 0.17570113
000010 87 38 71 bd d0 14 2c be 95 f4 43 be f3 d9 11 3e
       -0.0588918 -0.16804814 -0.1913627 0.14243297
000020 78 1e 20 3e f8 3f 32 3d 2e 3f fc 3d 49 64 a3 3d
       0.15636623 0.043518037 0.12316738 0.07978112
000030 25 c4 04 bd a8 da 16 3e 0a 9b b2 3d cb a4 39 be
       -0.03241362 0.14731848 0.087209776 -0.1812927
000040 3c c9 2a be 2e f6 34 be 95 1f 10 be 94 e1 13 3e
       -0.16678327 -0.17672035 -0.14074548 0.1444152
000050 a0 24 39 be b9 c7 25 be ef 1f 01 3e 4a d2 6f be
       -0.18080378 -0.1618947 0.12609838 -0.23420063
000060 2c 50 47 3e cf f9 52 3e 60 ca 46 3e 3f 69 54 be
       0.19464177 0.20603107 0.19413137 -0.20743273
000070 00 dd 27 3d ad b9 db bd 85 32 ab 3d 1c 3d 0c be
       0.040982246 -0.10728774 0.08359245 -0.13695186
000080 b5 a0 96 3d 71 ce 41 3e 38 33 fb bd 24 66 f2 bd
       0.07354871 0.18926407 -0.122656286 -0.11835888
000090 fb 9c 89 3c bd 6d 00 3e 75 4b 0c 3e 48 d6 dd bd
       0.016798487 0.12541862 0.1370066 -0.108318865
0000a0 d5 9a 39 bd 3e 86 5a be 6f 71 83 3d e2 88 2b be
       -0.045313675 -0.21340272 0.0641812 -0.16751435
0000b0 05 b7 88 3d d6 c1 94 bb 66 a5 28 3e c8 05 05 3e
       0.06675533 -0.0045397086 0.16469344 0.12990487
0000c0 b0 5a e0 3d f0 0c 2e 3e 7f 8d 42 bd 2f a0 10 3e
       0.10954797 0.16997123 -0.047498222 0.14123605
0000d0 16 00 45 3d c6 bf 08 3e 7a f5 34 3e 50 ff da bd
       0.048095785 0.13354406 0.17671767 -0.10693228
0000e0 07 61 2c 3e 48 cd 41 3d 1a 09 fb bd 92 9c 29 3e
       0.16833888 0.047314912 -0.12257595 0.16563633
0000f0 82 4c 38 3e 7f 99 10 3e d6 16 e7 bd cb 19 56 be
       0.17997935 0.14121054 -0.112836525 -0.20908277

gru.weight_ih_l0 f4 [192, 64]
000000 08 33 20 3d cf 3a 65 3e 81 a0 77 3e 0a 33 06 bb
       0.039111167 0.22385715 0.24182321 -0.00204772
000010 c4 97 cb 3c 73 49 38 3e c7 72 05 3e 81 27 23 bc
       0.02485264 0.17996769 0.13032065 -0.009958149
000020 34 3b 6e be cb 56 a6 bc f5 9b 38 3d 17 6d ce bc
       -0.23264772 -0.020305058 0.045070607 -0.025198502
000030 a8 98 9b 3d a6 57 42 be 37 9b 69 bd d2 ac 3e 3d
       0.07597476 -0.18978748 -0.05703279 0.046551533
000040 4f af 57 3e c7 83 30 3d c5 0c 41 3e d6 a8 e2 bd
       0.21062969 0.043094423 0.18852527 -0.11067359
000050 ed eb f1 3d c3 79 23 3e 52 b5 64 bd fb f4 32 3e
       0.118125774 0.15964417 -0.055836983 0.17476265
000060 62 cb 64 be c2 47 ec bd 50 89 33 be d2 eb 2c 3e
       -0.2234321 -0.11537124 -0.1753285 0.16886833
000070 63 29 0b be 36 19 27 3e b2 f4 55 bd 5d 6f 2d 3d
       -0.13590007 0.16318211 -0.052235313 0.042342532
000080 e8 73 3b be a4 f5 57 bd 93 92 13 3e 26 fb 2b 3e
       -0.18305933 -0.052724496 0.14411382 0.16795024
000090 f7 11 89 bd 6d 65 32 be 44 01 73 be 86 67 40 3d
       -0.0669288 -0.17421503 -0.23730952 0.046973728
0000a0 36 cf 01 3e e2 5b d7 3d be 7f ef 3c c4 42 8d bd
       0.12676701 0.10515572 0.029235717 -0.068975
0000b0 4a 9a 42 bc 91 82 83 3d 51 e0 0e be 0e aa 47 bc
       -0.011877606 0.06421388 -0.13952757 -0.01218654
0000c0 82 34 01 3a 37 cc 5f be 60 ae f5 bd 48 68 07 be
       0.0004928784 -0.21855246 -0.1199615 -0.13223374
0000d0 0b 45 49 3d 47 5d 36 be 02 ee b1 bd 66 85 98 3d
       0.04913811 -0.1780902 -0.086879745 0.07447319
0000e0 68 c2 2a be 37 6d cc bc cd 32 f5 3d cc e8 ea bd
       -0.16675723 -0.024954421 0.1197258 -0.11470184
0000f0 7c 3e 80 be bf 4a dd bd 7c 62 d2 3d 2f 36 27 3d
       -0.25047672 -0.10805272 0.10272691 0.040823158
000100 03 81 2c 3d c0 6d 68 be c8 98 a3 bd 49 1e 24 3e
       0.042115223 -0.22698116 -0.07988125 0.16027178
000110 4f db 30 be 60 97 15 be 17 e9 2f bd b7 60 34 3e
       -0.1727116 -0.14608526 -0.0429469 0.17615019
000120 4c a5 d5 b9 60 ec b4 bc 9d 8f 5b 3c ad ab 81 3d
       -0.00040749682 -0.022085369 0.013400939 0.06331573
000130 02 b3 a7 3c c0 a7 c5 3d 39 2c 92 3b 88 53 d2 bd
       0.0204711 0.096511364 0.004460838 -0.102698386
000140 c1 6a d2 bb ba d4 34 3c 4a f4 21 3b a7 30 11 3e
       -0.0064214175 0.011037046 0.0024712258 0.14178716
000150 e3 12 52 be 63 bf 5d be 47 ec e6 bc 8c ec 4f bd
       -0.20515017 -0.2165504 -0.028188838 -0.050762698
000160 52 e2 5f 3e b9 d5 fa 3d 14 54 00 3e 32 3b c0 bd
       0.21863678 0.122477956 0.12532073 -0.093862906
000170 c6 03 24 3e 41 a9 8e bd 3d 39 38 3e 5f ae f9 bd
       0.16017064 -0.06965876 0.17990585 -0.12191462
000180 f1 94 15 bd 48 00 04 3d c3 6a 16 bd d6 d4 89 bd
       -0.036518995 0.03222683 -0.03672291 -0.06730048
000190 7f 29 de 3d f6 66 42 3e 43 49 c8 3d 79 c1 21 be
       0.108477585 0.18984589 0.097795986 -0.1579646
0001a0 78 75 21 be c8 83 f3 bd 44 d2 86 3d ad 5b 94 3c
       -0.15767467 -0.1189037 0.06583074 0.01811012
0001b0 f9 d6 2b 3e 8a 67 c5 3d 03 fe dc 3d 20 85 14 3e
       0.16781224 0.09638889 0.107906364 0.14503908
0001c0 44 a1 23 3e 4f a5 19 3e d7 78 88 3d 49 0d 10 3e
       0.15979487 0.15004466 0.06663673 0.14067568
0001d0 26 cf 2b bd 8a 65 e6 3d f8 e3 02 3d 08 6c 0a be
       -0.0419456 0.11249836 0.03195569 -0.13517773
0001e0 92 2f 5b 3c fe 43 b5 bd 2f 67 32 bd 86 95 28 bb
       0.013378041 -0.08850859 -0.043555435 -0.0025723889
0001f0 f3 f9 5e 3e dc ce b2 3d f7 bd 82 bd 79 90 e9 bd
       0.21775036 0.087308615 -0.06383889 -0.11404509
000200 ef ea 70 3e 91 88 c1 bd 91 e8 47 be d0 c1 0f 3e
       0.2352712 -0.09449876 -0.19522311 0.14038777
000210 a0 83 1a be 15 e0 cb 3c e7 13 88 bc ff de 2a 3e
       -0.15089273 0.024887124 -0.016611053 0.16686629
000220 02 4e bf 3d ea 48 53 3e 1e 4a fb bd ad aa 23 3e
       0.09341051 0.20633283 -0.12269996 0.15983076
000230 6c 06 14 bd 1c 4d e4 bc b6 fb c2 ba cd 75 34 bd
       -0.036138937 -0.0278688 -0.0014876041 -0.044057656
000240 c1 08 b4 bd b5 03 af bc e3 42 0b 3d 7f a5 0b 3e
       -0.08790732 -0.021364072 0.033999335 0.1363735
000250 cd 26 ae 3c 0a df 43 be 17 bd d7 3d 3e d2 42 be
       0.021258736 -0.19128051 0.10534113 -0.19025514
000260 92 5f e3 3d 03 54 51 3d a4 0f ef 3d 28 88 d5 bd
       0.11102213 0.05110551 0.11672905 -0.1042636
000270 46 65 77 3d 48 dd f9 bc 1d 62 51 3e c7 ba 39 be
       0.060399316 -0.030501023 0.20447583 -0.18137656
000280 70 4f 20 3e 63 b7 79 bc c3 7e 43 bd f6 3d 11 ba
       0.15655303 -0.015241477 -0.04772831 -0.0005540544
000290 60 d6 5d 3e 0f d2 38 3d ee 4a 05 3e 3f 40 0f be
       0.21663809 0.045122202 0.13016865 -0.13989352
0002a0 e7 ec 86 b7 4a 3e 44 be f6 bb d5 3c f4 bf fb bd
       -1.6084361e-05 -0.19164386 0.026090603 -0.122924715
0002b0 6a 60 1c 3d 0a 3b b9 bd 93 0d 21 3c a2 64 64 3d
       0.038177885 -0.09044464 0.0098298965 0.055760033
0002c0 1d 56 01 be e1 52 93 3d fb e6 b0 3d a9 5c 48 3e
       -0.12630506 0.07193542 0.08637806 0.19566597
0002d0 26 7a 35 3e d1 19 eb 3d 20 ec 1e 3e b5 40 9c bc
       0.17722377 0.114795335 0.15519762 -0.019073823
0002e0 f1 0c 34 3e cf 32 ae bd 46 2f 03 3d 1a aa 34 3e
       0.17583062 -0.08505785 0.032027505 0.17643014
0002f0 37 ee b8 3d db ea 84 3d 6a 2a 5d bd b8 f9 17 be
       0.09029811 0.064901076 -0.053995527 -0.14841354
000300 0d 47 1b 3e ff 78 f4 bd c5 7b ce bc 64 a5 23 3d
       0.15163822 -0.11937141 -0.025205502 0.03995265
000310 de 19 5b be 94 10 58 bc 08 fd 05 be 02 cc 27 3e
       -0.21396586 -0.013187546 -0.13084805 0.16386417
000320 b0 51 40 3e de c7 ba 3d e6 d5 a2 bd 7f e4 ff 3d
       0.18781161 0.09120153 -0.07950954 0.12494754
000330 9a 5a 5b 3e 83 1a 0d 3e 4d 1c 97 3c 08 94 0d be
       0.2142128 0.13779645 0.018446112 -0.13826
000340 8a 54 2e be 35 1b e9 bd 5c 78 cb bc ca 9a 6d 3d
       -0.17024437 -0.113821425 -0.024837665 0.058008946
000350 48 cd 47 be d1 48 55 bd 2b 4e be 3d a9 30 f1 3c
       -0.19511902 -0.052071396 0.09292253 0.029442148
000360 36 94 b7 3d f0 7f fb 3b d7 1d 04 bd 31 a8 94 bb
       0.08963816 0.0076751634 -0.03225502 -0.0045366515
000370 4e a0 00 3e fa 62 d3 bd cf 47 4e 3e 57 05 96 bd
       0.12561151 -0.10321613 0.2014458 -0.07325237
000380 1e 05 c1 3d 9f 49 44 3e 01 3d b9 bd 7b a0 bd bc
       0.09424804 0.19168709 -0.09044839 -0.023147812
000390 38 7a 64 3e 40 47 d1 3d b6 ae 2e 3e 87 e7 38 bd
       0.22312248 0.10218668 0.17058834 -0.045142677
0003a0 93 e6 d7 bd ac b0 11 be 5a 64 1b 3e 6b 97 e5 bd
       -0.105420254 -0.14227551 0.15175 -0.11210521
0003b0 d8 ea 13 3e c5 96 ae bd bd e3 e6 3d dd 97 17 3c
       0.14445055 -0.08524851 0.112739064 0.009252516
0003c0 74 29 0c be 97 78 aa 3d c1 aa fb 3b 5a 7d 42 3e
       -0.13687688 0.08323782 0.0076802676 0.1899313
0003d0 c2 1e db 3a 8b f2 d4 3c fb b2 c4 3c b9 22 0e be
       0.001671754 0.02599456 0.024011126 -0.13880433
0003e0 da db eb 3d 9f 59 3e be 58 c9 55 be 28 9d c7 bc
       0.11516543 -0.18588875 -0.20877588 -0.02436693
0003f0 a3 7b 00 bd 9d 3e 2d 3e 5f 06 03 be a7 78 82 bd
       -0.03136791 0.16918416 -0.12795399 -0.06370669

gru.weight_hh_l0 f4 [192, 64]
000000 b3 24 b6 3c 80 d7 3f bd fa 68 0d be c5 af 4e 3e
       0.022234296 -0.046836376 -0.13809577 0.20184238
000010 fe e7 9e 3d f2 d9 14 be 13 68 c1 bd bf 3b 22 3e
       0.07759093 -0.14536265 -0.09443679 0.15843104
000020 d8 26 81 3e 86 6e 52 bd f4 52 b6 bd 4f d3 04 3e
       0.25224948 -0.051374935 -0.08902541 0.12971233
000030 ff 02 8d bb 75 a0 6a be 03 ab b1 3c 39 31 93 bd
       -0.0043033357 -0.22912772 0.02168799 -0.07187123
000040 89 91 80 3d 2f 13 6d 3e e7 02 ed bd 09 69 c3 bc
       0.06277759 0.23151849 -0.11572819 -0.023853796
000050 17 0b 25 3e 3b b8 2f be 7d 02 2e be e1 2e 37 be
       0.16117512 -0.17160122 -0.16993137 -0.17888977
000060 ce d5 20 3c ee b4 38 3e 1c e6 30 be 3d 2c d4 3d
       0.0098166 0.18037769 -0.1727528 0.1036
000070 60 90 8d 3c ee 97 53 3e 44 f8 28 be 52 06 49 be
       0.017280757 0.20663425 -0.16500956 -0.19631317
000080 10 e0 46 3c 10 bd 70 3e 92 de a4 bd 9b 34 10 bd
       0.012138382 0.23509622 -0.080502644 -0.03520642
000090 07 3d 3f be 3e cf 27 3e 65 8d f2 ba b2 84 2a 3e
       -0.18675624 0.1638765 -0.0018505274 0.16652182
0000a0 83 e4 ae 3d 5d 2f 1b be 10 e9 97 3d 99 7d 1a be
       0.08539679 -0.15154786 0.074175 -0.15086974
0000b0 d6 a5 2d 3e 01 52 9b 3d 5c 99 ce bd 2b cc b5 bd
       0.16957793 0.075840004 -0.10087845 -0.088768326
0000c0 5c ef 90 bc 05 76 33 3e 34 bf 6c be 14 68 21 3e
       -0.01769226 0.1752549 -0.23119813 0.15762359
0000d0 ec 38 01 3e 23 16 7e 3d fd 92 91 bd e9 24 4d 3e
       0.1261937 0.06203283 -0.07108114 0.20033611
0000e0 72 d6 87 3b 84 64 84 bd 18 f9 16 3e 92 fb 18 3d
       0.004145437 -0.06464484 0.14743459 0.03734929
0000f0 01 26 cd bd 9c 0a e3 bd 15 1e b8 bd 19 8b 13 be
       -0.10017014 -0.11086008 -0.08990113 -0.1440853
000100 a9 8f 2c bd 89 72 36 3d 56 58 8e 3d e0 7d c7 bd
       -0.042129193 0.044542823 0.069504425 -0.097408056
000110 f9 64 87 3c 4f ae ce 3d 57 1a 58 3e 8a 19 e4 bc
       0.01652764 0.100918405 0.21103798 -0.02784421
000120 9a ce 69 bd 1a 80 1e 3e 92 52 9c 3d 5f 4b c3 bd
       -0.057081796 0.15478554 0.076329365 -0.0953586
000130 80 54 bf 3d be 72 c6 3d 85 22 18 be 97 27 98 3d
       0.09342289 0.09689854 -0.14856918 0.07429426
000140 23 88 e6 3a 9f 36 2c be af 48 3a 3d 93 d2 2a be
       0.0017588179 -0.16817711 0.045479473 -0.1668189
000150 22 4b 9c bd f0 a9 63 3e b4 d3 32 3e e9 50 5c 3d
       -0.07631518 0.22232795 0.17463571 0.0537881
000160 42 26 8e bc d7 26 06 be 60 77 a2 3d b0 5d 7e bd
       -0.017352227 -0.13100754 0.07932925 -0.062101066
000170 b9 5d e8 bd fb bb bb bd 0b 78 22 bd cd 94 06 3e
       -0.11346001 -0.09166714 -0.039665263 0.131427
000180 a1 ad 19 be f2 f2 90 bd 0e 97 b3 3c 4c 93 50 3e
       -0.1500764 -0.07077588 0.021922614 0.2036869
000190 5d a7 55 3e 39 20 e8 bd a4 a3 37 be ed 72 0e 3b
       0.20864625 -0.11334271 -0.17933518 0.0021735982
0001a0 2b 52 63 be 94 c3 da bb 6b 10 51 be 1a 4a 41 3e
       -0.22199313 -0.0066761468 -0.20416419 0.18875924
0001b0 7f dc 26 bd 5a d6 a0 bd cd 78 26 3e ce 25 89 3d
       -0.040737625 -0.07853384 0.1625702 0.06696664
0001c0 c8 1e 63 bd 97 de b0 bd 7b 83 2f bd 60 13 e0 bd
       -0.055449277 -0.08636206 -0.04285 -0.109411955
0001d0 cd c8 9a bc 61 e6 d3 3c c9 d5 1d 3e 32 93 c4 b9
       -0.018894577 0.02586669 0.15413584 -0.00037493702
0001e0 f1 e5 1d be 3c 9e 02 be 48 0d 36 be 70 bc 76 3d
       -0.15419747 -0.12755674 -0.17778504 0.0602383
0001f0 07 d2 52 3d cd a9 51 3e dd 23 af ba 14 15 45 3e
       0.05146983 0.2047493 -0.0013362129 0.19246322
000200 a7 cf 8a be 06 8b bf 3d e9 87 d9 bd 9b 68 50 3c
       -0.2711155 0.093526885 -0.10621626 0.012720252
000210 65 5a 3f be a0 e9 28 3e c3 bd 30 bc f6 52 ee bc
       -0.18686827 0.16495371 -0.01078743 -0.029092293
000220 36 2b 6a be 26 7a b0 3d 14 2a a4 3d 15 3f 11 3e
       -0.22868046 0.08617048 0.08015838 0.1418422
000230 e5 64 5a 3e e0 99 dd bb ed 5c 76 be 90 99 2c 3e
       0.2132755 -0.006762728 -0.24058886 0.16855454
000240 e7 ca e6 bd 2c 4c 2e be 21 47 e8 3d 5d 1e b2 bc
       -0.11269169 -0.17021245 0.11341692 -0.021742994
000250 7d a0 b5 bc 10 6d 80 3d e3 de 0d 3e 60 aa 79 3d
       -0.022171253 0.06270802 0.13854556 0.060953498
000260 7d 5f 58 be f7 44 6f be d8 e6 9c 3d 31 ea cc bd
       -0.21130176 -0.23366152 0.076612175 -0.10005606
000270 7f ef 44 be d8 1c f8 bd 3b aa 62 3e b2 a0 f5 3d
       -0.19231986 -0.121148765 0.2213525 0.11993541
000280 10 d0 b7 bd d8 3c 67 be 49 f0 be 3d 5a 7c ae bc
       -0.08975232 -0.22581804 0.093231745 -0.02129953
000290 62 16 59 3e 37 67 2c be a5 4b 23 be e1 10 91 bb
       0.21199945 -0.16836248 -0.15946825 -0.004427061
0002a0 ac 35 64 bd e8 e4 51 3d 30 51 cb bd bb 96 9c 3d
       -0.055715248 0.051243693 -0.09927595 0.07645937
0002b0 b3 0e 01 bd 78 c5 77 bd db 1e 4b 3e 8d 39 4f 3d
       -0.03150816 -0.060491055 0.19835989 0.050591994
0002c0 81 29 39 3e a6 08 8f 3c 94 34 0b 3e 61 6e 65 be
       0.18082239 0.017460179 0.13594276 -0.22405387
0002d0 83 90 c5 bd 97 17 d9 bd 76 ea 41 bc b0 1b e9 bd
       -0.09646704 -0.106002025 -0.011835685 -0.11382234
0002e0 8a 07 0b be 75 b7 59 3e 98 5c 0f be 4f 5b c2 bc
       -0.13577095 0.2126139 -0.14000165 -0.02372518
0002f0 76 07 6b 3d f0 7d 47 bc 35 d8 7a 3e fc f4 91 3d
       0.057380162 -0.012176022 0.24496539 0.07126805
000300 d4 69 0e be 84 0e c6 3d b6 eb 13 be 23 1a 26 be
       -0.13907558 0.096707374 -0.14445385 -0.16220908
000310 10 4b 40 3c 68 a9 0e 3e 28 a7 30 3e 8a 8b 9f 3c
       0.011736646 0.13931811 0.17251265 0.019475717
000320 16 6a ff bb 43 84 88 bc a4 70 3c 3c ff a6 a5 bb
       -0.007794629 -0.01666463 0.011501465 -0.005055308
000330 bc e7 4e 3e d5 69 7d bc 57 1f 06 be 63 4d 3c 3e
       0.20205587 -0.015467127 -0.13097893 0.18388896
000340 39 b9 12 bd 37 54 a8 3c 51 d0 28 3e fb c0 46 be
       -0.035821173 0.02054797 0.16485716 -0.19409554
000350 95 fb 25 bb 20 8f 3e 3e f8 10 44 3d 64 d4 13 3e
       -0.0025326957 0.18609285 0.047867745 0.1443649
000360 ec 3e 0e 3d a5 84 2f bc 9f 87 98 3d 1c 9c 81 bd
       0.034727976 -0.010712777 0.07447743 -0.063286036
000370 26 41 28 bb 3c 8c 07 bd 26 36 9b 3d b2 95 c8 3d
       -0.0025673597 -0.033092722 0.07578687 0.09794177
000380 c7 05 1f be d8 18 2d 3c 74 59 31 3e f2 61 18 bc
       -0.15529548 0.010565005 0.1731928 -0.009300696
000390 4d c4 51 3e 0a a9 13 bc 8a 04 39 bd 1a 78 48 be
       0.20485039 -0.00901247 -0.045170344 -0.19577065
0003a0 d2 70 12 be 60 de 21 3e 87 3c cc bd 19 06 13 3e
       -0.1430085 0.15807486 -0.09972482 0.14357795
0003b0 ef e0 15 be e5 28 3d be 8c 23 e8 bc 03 0a 74 3d
       -0.14636587 -0.18472631 -0.028337263 0.05957986
0003c0 5b 2b a9 3d 17 49 b8 bd d4 56 0d 3e 90 fb 79 3b
       0.082602225 -0.08998316 0.13802654 0.0038144328
0003d0 48 ba 3c be 70 b2 73 be 69 de 49 3d 74 a6 40 bd
       -0.18430436 -0.23798537 0.049284372 -0.047033742
0003e0 7f 1d c1 bd a1 08 ae 3d f3 43 a3 bd 87 86 c5 bd
       -0.09429454 0.084977396 -0.07971945 -0.096448
0003f0 d1 ab c7 3d 6a 60 39 3e cf 51 03 3e 5a 89 a4 3c
       0.09749568 0.18103185 0.12824176 0.020085026

gru.bias_ih_l0 f4 [192]
000000 86 fa 4c be d0 7f 16 3e d2 04 0e bd 8e f3 25 3e
       -0.20017442 0.14697194 -0.034672566 0.1620619
000010 7d d5 6f 3c 02 98 c0 3d 91 19 9c 3d a2 e1 a8 3d
       0.014638302 0.09403993 0.07622064 0.08246161
000020 26 03 9e 3d da 95 f3 3d 58 29 90 3d a2 10 ff bd
       0.07715444 0.11893816 0.07039136 -0.12454344
000030 ef 19 04 3e 01 aa 58 3e b7 e3 de 3d 17 5e 14 3e
       0.12900518 0.21158601 0.10883277 0.14489017
000040 39 df 3b 3e 80 dd 8b 3d e3 1b 81 bd 96 53 1d 3e
       0.18346871 0.06829357 -0.06304147 0.15363917
000050 44 b5 29 3d 9e cf f3 3d be 0e 1f 3e f0 5b 11 3e
       0.041432634 0.11904834 0.15532967 0.14195228
000060 8e c9 c3 3d 12 3f 3c 3d 73 cd 09 bd b2 5a 30 3c
       0.09559928 0.045958586 -0.033643197 0.010763811
000070 20 bf 3d 3e ee 59 ad 3b 12 2b 22 3d 50 af 89 3d
       0.1852994 0.0052902615 0.039591856 0.06722891
000080 29 9a 36 3e a1 00 d8 3d 6e 35 1d 3e 55 2a 64 bd
       0.17832245 0.10546995 0.15352413 -0.055704433
000090 b4 29 da 3d 17 c7 44 3d 37 69 f4 3d eb 40 72 3e
       0.106524855 0.04804143 0.11934131 0.23657577
0000a0 4c 05 37 3e 06 6b b6 3c 33 41 7e 3d 08 ca c3 bc
       0.17873114 0.02226783 0.062073898 -0.023900047
0000b0 25 0d 70 3d 48 4e 0f bc 71 d3 13 bd b2 72 00 bd
       0.058606286 -0.008746691 -0.036090318 -0.031359382
0000c0 8a 6e e1 bc 5b a3 40 3d 26 b5 df 3d bf 1f 6c 3e
       -0.02751853 0.047030788 0.10923223 0.23058985
0000d0 96 d6 23 3e 3d 88 01 3d 8d 0b 12 3e ea 46 93 3d
       0.15999827 0.031624068 0.14262219 0.0719126
0000e0 8c b2 c7 bc 70 93 1d be 0b 57 3a 3e 6c 31 13 3c
       -0.02437713 -0.15388274 0.18197267 0.008983951
0000f0 45 c6 b8 3d ce 25 8c 3b fb 7d ff 3d 8e c2 c0 bc
       0.09022192 0.0042769676 0.12475201 -0.02353027
000100 39 f3 32 be db 6b 10 3d 37 34 bf 3e 3e f0 37 3e
       -0.17475595 0.03525911 0.37344524 0.17962739
000110 72 54 ff bd ea 68 0f be 26 63 7c 3b a0 12 a5 38
       -0.124672785 -0.14004865 0.0038511246 7.871282e-05
000120 39 bb cd 3d 8d 9e 93 be ca 3a af bd ad af 3e be
       0.100454755 -0.28831902 -0.08556135 -0.18621702
000130 21 97 89 be f7 e3 37 be a9 9c 92 bd 23 67 1b be
       -0.26873115 -0.17958055 -0.07158787 -0.15176062
000140 09 a0 30 3d 42 14 96 bd 7a 45 a7 3d d3 c3 63 bd
       0.04312137 -0.073280826 0.081675485 -0.055606674
000150 b7 48 54 3e 61 42 8a 3c e0 d3 bb bc c6 11 18 be
       0.20730864 0.016877355 -0.022928178 -0.1485053
000160 38 ee f1 bc 65 5f 40 bc 9f 0c fa 3d 7f c9 d7 3d
       -0.029532537 -0.011741494 0.122094385 0.10536479
000170 b8 6b f2 bb 63 f2 77 3c 7f 2c 5c bd f1 cc 82 be
       -0.007398095 0.015133473 -0.053753372 -0.25546983
000180 b0 42 03 3e 72 d8 fd bc d4 35 94 3e fc 8c 39 be
       0.12818408 -0.030986998 0.28947318 -0.18120188
000190 b4 55 36 be 20 4b 3d be 03 da dd 3c b8 91 fb 3e
       -0.1780613 -0.18485689 0.027081495 0.49134612
0001a0 f4 a6 ea bd a4 6b ef 3d 87 ef a6 3d 81 14 31 3d
       -0.11457625 0.11690453 0.08151155 0.043232445
0001b0 8a 8b bf 3c 4e 8e fc bc e3 6b 01 bd c9 0b 24 3d
       0.023381967 -0.030829575 -0.03159703 0.0400503
0001c0 5e e2 92 be cf ed 8a 3d 72 65 64 3e e9 a0 9c bd
       -0.2868833 0.0678364 0.22304323 -0.07647879
0001d0 9d 4a 31 be 4c 3d 6b 3d c1 32 80 3d d6 78 19 3d
       -0.17313619 0.057431504 0.062596805 0.037468754
0001e0 3e 78 9d bd b8 8e 25 3d b7 a0 02 3e 1b 2a c6 3e
       -0.0768895 0.04041931 0.1275662 0.38704
0001f0 b9 f2 03 be 01 22 5c bd 35 ce 28 bd 60 c0 f3 3d
       -0.1288556 -0.053743366 -0.04121228 0.11901927
000200 67 3c b5 bd 7b c8 e0 3d 80 9c 94 3c 54 e7 07 be
       -0.088494115 0.109757386 0.018141031 -0.13271838
000210 37 a3 2c be 3b c7 14 3e 44 d8 e1 3d ad 28 54 be
       -0.16859137 0.14529125 0.110275775 -0.20718642
000220 7a 2b 27 be 8c 7c 2e 3e 20 69 64 3e f8 f8 b3 bd
       -0.16325179 0.17039698 0.22305727 -0.087877214
000230 2a 42 1f 3e 0a 82 12 3e 56 82 2b be b4 7a 1b 3e
       0.15552583 0.14307418 -0.16748938 0.15183526
000240 55 c8 29 be aa 65 23 be d4 2e a9 3b 6a e5 34 3c
       -0.16580327 -0.1595675 0.005163053 0.011041025
000250 62 2e 32 be 0d e1 29 3e ec af 48 3e 77 e8 3c 3e
       -0.17400506 0.16589756 0.19598359 0.18448053
000260 d4 2d 09 be 7c 15 fa 3c 36 4a 0d 3e ed 68 5f be
       -0.13396388 0.030527823 0.1379784 -0.2181737
000270 1f ae 42 be 36 29 0b be fc f8 26 3e 81 c8 4d 3e
       -0.19011734 -0.1358994 0.16305918 0.20096017
000280 a3 b9 83 be 7b 0a 74 be ad b6 39 bc 9c df 4e 3e
       -0.25727567 -0.23832123 -0.011335057 0.20202488
000290 8c 2b 1c 3e f4 71 19 be 04 05 17 be 03 55 11 bd
       0.15250987 -0.14984876 -0.14748007 -0.035481464
0002a0 01 0c 45 be 2c ce ad 3d e9 b6 55 bc f6 75 38 3e
       -0.1924286 0.0848659 -0.013044097 0.18013749
0002b0 e0 51 12 be 6c 9b 2b be a4 14 6d 3e 73 28 27 3d
       -0.14289045 -0.16758507 0.23152405 0.04081006
0002c0 3c 31 be 3d 34 fc fc bc fd a1 0b 3e a0 5c f7 bd
       0.092867345 -0.030881979 0.13636012 -0.12078214
0002d0 af f4 69 be 36 f0 8f bd bd aa 36 3e c0 90 60 be
       -0.22847246 -0.070282385 0.17838569 -0.21930218
0002e0 d5 7f 02 be 5d 08 08 3e 23 bb fb bd 3e 0d 60 bd
       -0.12744077 0.1328444 -0.12291553 -0.05470013
0002f0 77 f6 cd 3d 4b 6a 5e 3e 90 1c 3f 3e 11 3f 63 3e
       0.10056775 0.21720235 0.1866324 0.22192027

gru.bias_hh_l0 f4 [192]
000000 38 c1 fe bd e9 be 51 3e e1 59 c1 3c cb 1d 6a bb
       -0.12439197 0.20482983 0.023602428 -0.0035723324
000010 b6 09 08 3e ef 3a 48 3e 4c b2 a6 3d 1d eb b9 3d
       0.13284954 0.19553731 0.08139476 0.090780474
000020 5e 9c 49 3e dc 6b ce 3d ae 36 55 3d 81 3a 0a bd
       0.19688556 0.10079166 0.0520541 -0.0337472
000030 12 86 0f 3e ec b1 69 3d 3e 6c 1f 3e b5 fe 62 3d
       0.14015988 0.057054445 0.15568635 0.05541869
000040 1d b9 4e 3e f1 13 c0 3d f5 01 27 be 78 17 23 3e
       0.20187803 0.093788035 -0.1630934 0.15926921
000050 f6 81 e2 bd 4f 21 82 3d ae 5f ac 3b b3 5d 36 3e
       -0.11059944 0.06354009 0.0052604293 0.17809181
000060 f6 78 05 3e a6 c5 63 3d 57 b0 36 3e 23 87 55 3d
       0.13034424 0.055608414 0.17840706 0.05213083
000070 7b e8 d7 3c 69 2a 08 3e ad 5d 3b bb 1a 4e 17 3e
       0.026355973 0.13297428 -0.002858977 0.14775887
000080 dd 06 6a bc 86 d1 69 3e 7f af 4c 3d 23 50 f7 3b
       -0.014283863 0.22833833 0.049972054 0.007547395
000090 cd db 57 3e 46 4b 40 3e c1 81 05 3e 46 82 f1 3d
       0.21079941 0.18778715 0.13037778 0.11792426
0000a0 13 94 d4 3d 5b f5 25 3e 6c 42 f8 3c ab fb 8e 3d
       0.103798054 0.16206877 0.03030511 0.069815956
0000b0 11 ba 38 3e dc 75 7d 3c b0 75 46 3a df 80 b6 bc
       0.18039729 0.015469994 0.00075706374 -0.022278247
0000c0 a5 25 71 bd e5 09 d4 bb 1d 56 3b 3e 59 b4 f9 3c
       -0.05887379 -0.006470906 0.18294568 0.030481504
0000d0 11 0f b7 3d 2c cf cc 3c e9 b2 07 3e 5e 3c 3a 3e
       0.089384206 0.025001131 0.13251843 0.18187091
0000e0 7a 3d 32 bc fa f6 f9 bd ff bd ae 3d 1d 7e 3a bd
       -0.010878915 -0.1220531 0.08532333 -0.045530427
0000f0 fc e3 15 3e 93 f0 ed 3d 7d be 39 bd b2 7c b3 3c
       0.1463775 0.116181515 -0.04534768 0.021910045
000100 da c5 c1 3c 65 a7 de bd 7d 2d ea 3e 67 4e a8 3e
       0.023653913 -0.10871772 0.4573783 0.32872316
000110 b3 97 cb 3c 38 fa 0e be 5f 97 3f be af 39 6f be
       0.02485261 -0.13962638 -0.18710087 -0.23361848
000120 11 fe c0 3d 6a 06 35 be 66 b7 4b be 46 36 ed bd
       0.09423459 -0.17678228 -0.1989418 -0.115826175
000130 32 ed 77 be 0d 0d b9 bd b2 7e 3e be 96 4f 30 bd
       -0.24211577 -0.09035692 -0.18603018 -0.04304465
000140 8c ec 98 bd bb 86 dc bd 5b 64 fd bd b4 73 39 be
       -0.07466993 -0.10767885 -0.12372657 -0.18110543
000150 5b 55 79 3e 58 e0 59 bd 05 a1 1d bd 78 dc 8a bd
       0.24348967 -0.053192466 -0.03848364 -0.06780332
000160 5c 71 12 be ff a0 03 be c9 23 d5 3d 97 30 24 bd
       -0.14301056 -0.12854384 0.10407216 -0.0400854
000170 b3 0f fe bd 25 68 e0 3d 2e 06 01 3e 81 23 8e be
       -0.12405338 0.10957364 0.12600014 -0.27761462
000180 f0 02 8b 3d a4 b2 eb 3c c9 b2 5b 3e 8e 3d 56 bb
       0.0678767 0.028771706 0.2145492 -0.0032690498
000190 a5 0b 04 be 27 84 0b be de bc 04 be f7 c2 18 3f
       -0.12895067 -0.13624631 -0.12962672 0.5967249
0001a0 57 b9 1a be ee 63 b3 3c 26 e0 ad 3d a2 01 8e bd
       -0.15109764 0.021898236 0.084900185 -0.06933905
0001b0 2f 8f 1f be 6f cc 59 bd 20 53 bb bd 59 dd 46 3d
       -0.15581964 -0.05317348 -0.09146714 0.048550937
0001c0 c7 e4 0e be a6 b8 1c bd 62 f8 90 3e 75 dc 75 bc
       -0.13954459 -0.038262032 0.283145 -0.015006174
0001d0 25 6e 55 bd 32 32 38 be f6 6b be bc 43 2f b1 3d
       -0.052106995 -0.17987898 -0.02324484 0.086515926
0001e0 12 b7 19 be 81 84 91 bd c4 25 fb bb 96 a0 b2 3e
       -0.15011242 -0.07105351 -0.007664414 0.34888142
0001f0 1e 37 c9 3c c7 1b 1a 3e 4c 1b a8 3d af 11 fc 3d
       0.024562415 0.15049659 0.082083315 0.123080604
000200 0c 22 32 be a1 9f 52 3e e8 d1 d1 bd 2f 7a cf bb
       -0.173958 0.20568706 -0.102451146 -0.006331704
000210 d6 e4 5f be ab 47 6d 3e 23 4f 39 3e 5e 3b 28 bd
       -0.21864638 0.2317187 0.18096595 -0.041072242
000220 c2 ed 59 be 6f 3e 73 3e 88 7d 13 3e 56 54 88 bc
       -0.21282104 0.23754285 0.14403355 -0.016641777
000230 e0 1c 68 3e 5a 7a 3a 3e 26 ab 4f bd 34 bf 4c 3e
       0.22667265 0.18210736 -0.05070033 0.19994813
000240 ee ab 1e be 83 14 19 bd 2d d9 cf 3d 2a ed d1 bd
       -0.15495273 -0.037373077 0.10148845 -0.102503136
000250 02 f8 0c be 6d 3a 0b 3e 8b ef 47 3e e5 4e 9d 3c
       -0.13766482 0.13596506 0.19524972 0.019202659
000260 d3 38 0e be 98 3a 0e be af 3e 3e 3e 7d 10 10 be
       -0.13888864 -0.13889539 0.185786 -0.1406879
000270 a7 0c 0f be 10 4d 43 be dd a3 10 3c 59 d6 b0 3d
       -0.1396967 -0.19072366 0.008828131 0.086346336
000280 2c dc 8b bc 4b bc 60 be b7 a1 8c bd 12 dc 88 3c
       -0.01707276 -0.21946828 -0.06866782 0.0167065
000290 30 95 1b 3e fe 72 f9 bd 56 99 06 bd 94 36 ac bd
       0.1519363 -0.12180136 -0.032861076 -0.084088475
0002a0 75 a6 b2 ba b2 d6 3a 3e a7 1c e1 bd f4 3b 04 3e
       -0.001362993 0.18245962 -0.10991793 0.12913495
0002b0 7f 99 23 be d2 66 3d be 99 d3 ca 3d b9 49 fe 3d
       -0.15976523 -0.18496254 0.0990364 0.12416405
0002c0 d9 1a 95 3b 5a d3 09 be df b1 12 bd 5a 2e 76 be
       0.0045503196 -0.1345953 -0.035814162 -0.24041119
0002d0 20 60 19 be 46 db 19 be 35 6d b9 3d 90 09 91 bb
       -0.14978075 -0.15025052 0.09054033 -0.0044261888
0002e0 3b 27 cd bd 2b 90 31 bb 89 b7 0b be 88 14 bc 3d
       -0.10017248 -0.0027093987 -0.13644232 0.091836035
0002f0 2d 72 6b 3e 35 88 5a 3d d1 c1 19 3e 71 d3 3a 3c
       0.22992773 0.053352553 0.15015341 0.011402951

notes_decoder.weight f4 [128, 64]
000000 8c 2c 87 3d cc e4 c7 bd b3 e2 1f 3e 80 f6 38 3e
       0.066002935 -0.097604364 0.15613823 0.18062782
000010 40 19 42 3e 28 26 74 bd e1 83 50 bd 79 b5 a1 3d
       0.18954945 -0.0596067 -0.05090702 0.07895941
000020 83 99 15 3e 92 0b 49 be 37 8c 8f be 52 2c 96 3c
       0.14609341 -0.1963332 -0.28036663 0.01833168
000030 4b ef b4 bd 78 dd 92 be e1 ad 6d 3d 5b 87 64 be
       -0.08834704 -0.28684592 0.058027152 -0.22317259
000040 6f 0d 72 3e 7a ec a2 3d 5d b7 7c 3d 4a f5 3c 3d
       0.23637937 0.079552606 0.061698306 0.046132363
000050 47 41 97 3e 55 0a 40 be 5d 20 90 be 4f d0 2d be
       0.2954199 -0.18753941 -0.2814969 -0.16973995
000060 c4 15 93 3e a1 f5 58 3e 0a b3 44 be 81 f6 4a 3e
       0.28727543 0.2118745 -0.19208923 0.19820596
000070 63 73 29 3e b1 81 07 3e c9 bb 3b be ef 38 07 be
       0.16547923 0.13233067 -0.18333353 -0.13205312
000080 d3 b1 1d 3e 68 0f 17 3e f1 50 aa bd c5 c8 88 be
       0.15399866 0.14751971 -0.083162196 -0.26715675
000090 a1 5f 41 be a0 22 4a 3e 07 56 1f 3e c5 95 72 3e
       -0.18884136 0.19739771 0.1556016 0.23689945
0000a0 3e ba cd 3d 3f e4 4b be 64 b1 11 3e 8e 1f 7b be
       0.100452885 -0.19911288 0.14227825 -0.24523756
0000b0 14 b3 5f 3d 7d 6b 91 3e 0f f1 37 be 0f c9 5c be
       0.05461414 0.2840232 -0.1796305 -0.21561073
0000c0 10 55 c5 3c c8 28 3a 3e 71 dd 02 be 4d 71 68 3e
       0.024088413 0.1817962 -0.12779786 0.22699471
0000d0 20 0d 15 3e 01 61 06 3e e5 a9 44 be 93 56 04 3e
       0.14555788 0.13122942 -0.19205435 0.1292365
0000e0 35 01 81 3e 7c 33 02 be 72 c0 11 3e cd 4f c5 3d
       0.25196233 -0.12714952 0.14233568 0.096343614
0000f0 88 0e ed bd bf 30 03 be 1b 40 05 be 43 28 99 bd
       -0.11575037 -0.12811564 -0.13012736 -0.074783824
000100 83 37 45 3d 16 7b 86 bd d7 f2 20 3d de 2e 49 3e
       0.048148643 -0.065664455 0.03929409 0.19646785
000110 fe 6d ff 3d 0e b9 8f be 63 6f e8 bd 70 7a 18 3e
       0.12472151 -0.28070873 -0.1134937 0.14890456
000120 d0 f2 30 3e f5 6e 87 be f1 c9 23 be f4 1e e4 3d
       0.17280126 -0.2645184 -0.15995003 0.11138716
000130 a1 7c b7 bd 7c f3 9c bd 51 ec 8e 3e 76 79 27 be
       -0.08959318 -0.076636285 0.2791467 -0.16354927
000140 eb dd 96 3e 9f cd 8c 3e d2 30 04 bd f4 5e 17 3e
       0.29466185 0.27500626 -0.03227312 0.14782315
000150 0a 73 4c 3e f9 5f 00 be 6e 41 d1 bd 2c 50 60 be
       0.19965759 -0.1253661 -0.10217558 -0.21905583
000160 9b bc bf 3d 42 89 6f 3e 9a ab 51 be 20 cd 43 3e
       0.093621455 0.23392203 -0.20475617 0.19121218
000170 fb 87 95 3e 85 5a 0a 3e 75 74 23 be 92 7a 4a be
       0.29205307 0.13511093 -0.15962394 -0.1977332
000180 7e 4c 1d 3e 7e 7b 0a 3e 18 d2 42 bd d1 bb 2b be
       0.1536121 0.13523671 -0.047563642 -0.16770865
000190 47 7c 53 be af f1 5c 3e e1 ed 0c 3e 1a 37 44 3e
       -0.20652877 0.2157657 0.13762619 0.19161645
0001a0 44 a0 3b 3e ba 06 60 be a5 e0 60 3d 27 f8 af bd
       0.18322855 -0.21877566 0.054901738 -0.08592253
0001b0 96 15 90 3e 6d 68 d0 3d ef 0b 57 be 6b f3 75 bd
       0.2814147 0.10176168 -0.21000646 -0.060046595
0001c0 5d 5e 69 3c 8c 6f c1 3d d6 cc 1f be 87 a9 2d 3e
       0.014243689 0.09445104 -0.15605482 0.16959201
0001d0 0a a9 2c 3e e3 5a 4f 3e 8c bf 5c be 44 ae 25 3e
       0.16861358 0.20249514 -0.21557444 0.16179758
0001e0 9f 45 94 3e 42 c2 a5 3a ed 4c 6e 3e 7b e7 1e 3d
       0.28959367 0.0012646394 0.23271532 0.038794976
0001f0 1b 61 85 be 11 e9 8a bd 1d 6c 1b be 20 b7 0a be
       -0.26050648 -0.06782735 -0.1517796 -0.13546419
000200 5e 26 14 bd 40 d4 56 be c0 4a 34 3e f7 b0 75 3e
       -0.036169402 -0.20979404 0.1760664 0.23993288
000210 37 f0 86 3e 4a d1 bf bd 8c 7c 9d bd 74 2a 5c 3e
       0.26355144 -0.093660906 -0.07689771 0.2150057
000220 b6 19 9b 3e 76 2c a2 bd 0f 4f 31 be 2a 61 98 bd
       0.30293053 -0.079186365 -0.17315315 -0.074404076
000230 da cc 8b be a2 d9 8b be 13 78 18 3e f0 39 f8 bd
       -0.27304727 -0.27314478 0.14889555 -0.12120426
000240 c9 09 c2 3d 15 eb b9 3d a0 4d 78 3c d1 e4 e7 3c
       0.094745226 0.090780415 0.015155226 0.02830735
000250 bb 6c 60 3e 54 d1 e5 bd 0c d7 30 be bd 9c 7a be
       0.21916477 -0.11221567 -0.17269534 -0.24473853
000260 7b 83 8f 3e e1 12 6f 3e 5c 48 51 be 00 0d 75 3e
       0.2803 0.23347045 -0.20437759 0.2393074
000270 46 cd 76 3e 6e 25 4c 3e 97 8d 36 be f4 e8 47 be
       0.24101743 0.19936153 -0.1782745 -0.19522458
000280 85 e9 c0 3d ef 89 ca 3d c4 e4 4c be 44 85 62 be
       0.0941954 0.0988959 -0.20009142 -0.2212115
000290 83 76 55 be 71 ec 2e 3e f0 e8 24 3e 78 86 3f 3e
       -0.2084599 0.17082383 0.16104484 0.1870364
0002a0 64 2e 52 3e 8e 30 73 bd 6f a4 86 3d 18 05 eb bd
       0.20525509 -0.059372477 0.06574332 -0.11475581
0002b0 dd 23 92 3e bb 8d 41 3e 45 3f 86 be 0d 3e 73 bd
       0.28542987 0.18901722 -0.26220146 -0.059385348
0002c0 60 2b e2 3d a0 f8 05 3e fa d3 5a be 1b 40 20 3e
       0.110434294 0.13083124 -0.21369925 0.15649454
0002d0 2e 89 81 3e 1f db 4f 3e 2f db cb bd d6 c6 0d 3e
       0.25299972 0.20298432 -0.09953915 0.13845381
0002e0 72 f8 32 3e 22 36 11 bd 2b 30 b9 3d 17 bf 1c 3e
       0.17477587 -0.035452016 0.090423904 0.1530727
0002f0 62 f7 1a bd 1c c1 99 bd 65 d3 e5 bd eb ca 37 be
       -0.03783358 -0.07507536 -0.11221961 -0.17948501
000300 8f e7 36 3d 8f 5e 2d be b0 a8 6a 3e 06 b0 c9 3d
       0.044654425 -0.16930602 0.22915912 0.09848027
000310 a6 ff c3 3d 4d 7f 16 be 1a 3a a5 bd 95 6f ab 3d
       0.095702454 -0.14696999 -0.080677226 0.08370892
000320 a5 59 81 3e 10 50 04 be b6 97 70 be b0 28 59 3d
       0.25263706 -0.12921166 -0.23495373 0.05301732
000330 d8 9e 82 be 3f 2d 8c bd 6f e2 8d 3e 41 81 19 be
       -0.25511813 -0.068445675 0.27711818 -0.14990713
000340 90 4b 0f 3e fd 48 a9 3d 47 2e 8c 3d 2c 85 74 3e
       0.13993669 0.082658745 0.06844764 0.23878926
000350 fc 7f 07 3e fc 8d f8 bd d2 f3 90 be 9a 1a ab bd
       0.13232416 -0.12136456 -0.2831102 -0.08354683
000360 01 ae 6a 3e c7 01 73 3e 2a 48 65 bd a3 f5 99 3e
       0.2291794 0.23731147 -0.055977024 0.30070218
000370 d7 f0 c2 3d 9f c5 88 3e e1 91 43 be db 0f 97 be
       0.09518593 0.26713273 -0.19098617 -0.29504284
000380 a2 20 69 3e 69 42 92 3e b5 af d0 bd a8 48 81 be
       0.22766355 0.28566292 -0.101897635 -0.25250745
000390 66 58 9c bd 39 8b 3d 3e 27 87 8f 3e 58 dd 34 3e
       -0.07634048 0.1851014 0.280328 0.17662561
0003a0 26 ab 81 3e 03 c4 08 be c8 ae 01 bb b1 03 fb bd
       0.25325888 -0.13356023 -0.0019788016 -0.122565635
0003b0 1a 54 4f 3e 8a f5 f1 3d 46 3c 95 be 12 d1 2c be
       0.20246926 0.11814411 -0.29147547 -0.16876629
0003c0 c2 3b 83 bd 08 4a b7 3d 56 8c 62 be 93 f1 7d 3d
       -0.06407882 0.08949667 -0.22123846 0.06199796
0003d0 55 a4 6a 3d 57 38 09 3e ef 1d a1 bd cf f0 47 3e
       0.057285625 0.13400398 -0.078670375 0.19525455
0003e0 e0 a7 18 3e 56 21 06 3d b9 a9 8c 3e e9 3b 9d bb
       0.14907789 0.032746635 0.27473238 -0.0047984016
0003f0 83 7b 08 be 88 fe e9 bd f5 94 3e bd f9 07 9a be
       -0.13328366 -0.11425501 -0.046528775 -0.30084208

notes_decoder.bias f4 [128]
000000 31 2f 05 bd b4 c8 38 be 01 46 11 be a3 9a 77 be
       -0.03251571 -0.18045312 -0.1418686 -0.24180083
000010 b4 b1 11 be 0d 63 14 be c5 15 4f be 06 04 35 be
       -0.14227945 -0.1449091 -0.20223148 -0.17677316
000020 bb 5c 72 be e7 96 80 be 22 fa 1a be 05 4b 6a bd
       -0.23668186 -0.2511513 -0.1513448 -0.05720045
000030 90 0f 49 bd 4c 7a 3e be 89 ea 6c bd 55 4a 63 be
       -0.049087107 -0.1860134 -0.057840858 -0.22196324
000040 bc c9 38 bd c3 e1 4e be 4e c8 64 bd 72 e6 a7 bd
       -0.045114264 -0.20203309 -0.055855088 -0.08198251
000050 db aa 22 be 49 4d 00 be c3 69 71 bd 21 f5 0b be
       -0.15885489 -0.12529482 -0.058938753 -0.13667728
000060 96 a8 a0 bd 78 76 48 be c8 3c a9 bd 1b b1 b2 bd
       -0.07844655 -0.19576442 -0.08263546 -0.087251864
000070 0b 20 ca bd 76 29 0c bd 41 79 2d be 82 42 52 be
       -0.09869393 -0.034219228 -0.16940786 -0.20533183
000080 26 b0 43 be c2 99 f9 bd 6d a1 9f bd 9d 3b 19 bd
       -0.19110164 -0.1218753 -0.077944614 -0.037410367
000090 fa 12 01 be 19 1c 88 bd b3 11 09 bd 62 7a 5a be
       -0.12604895 -0.06645984 -0.033464145 -0.21335748
0000a0 1b 90 33 be d4 2c a0 bd bb 45 70 be 54 69 2f be
       -0.1753544 -0.0782105 -0.234641 -0.17130023
0000b0 fa 23 66 be 8d 2a f4 bd 8f 01 04 be fe 60 03 be
       -0.22474661 -0.119221784 -0.1289122 -0.12829968
0000c0 2a ae 1b be aa 5f 1b bd 9f 9d 97 bd ac 2b 2c bd
       -0.15203157 -0.03793303 -0.07403111 -0.042033836
0000d0 46 d7 d3 bc e7 23 1e be e1 74 6d be 60 6c 24 be
       -0.025859486 -0.15443383 -0.23189117 -0.16056967
0000e0 9b eb 37 be 82 f5 0d bd 01 7e cf 3b 3c b6 79 be
       -0.1796097 -0.034657963 0.0063321595 -0.24385923
0000f0 d3 4e a3 bb 7c 41 14 bd 6c 35 f9 bc 0a c2 11 be
       -0.004983762 -0.036195263 -0.030420981 -0.14234176
000100 7b 02 5a bc 27 d6 66 be e2 e5 c6 bc c7 ef d7 bd
       -0.013306255 -0.2254263 -0.024279539 -0.10543781
000110 58 b8 5e be 76 4c 3d be 1f 7c 18 be fd 4f 30 be
       -0.21750009 -0.18486199 -0.14891098 -0.17218013
000120 c9 ef 5a be ab 1f 74 bd 45 16 d9 bd 48 95 12 be
       -0.21380533 -0.059600513 -0.10599951 -0.14314759
000130 e5 3c 5d be 43 50 29 bd de c6 25 be 41 52 b7 bd
       -0.2160526 -0.04133631 -0.16189143 -0.089512356
000140 e0 75 5f be 92 ee 64 be a8 c7 54 be c0 bc 58 be
       -0.2182231 -0.22356632 -0.20779288 -0.21165752
000150 90 26 36 be 19 ba eb bd 31 ac 73 bd 62 1e 48 be
       -0.17788148 -0.11510105 -0.059490386 -0.1954284
000160 fe 87 22 bd 77 a4 ec bd 9b 53 76 be ef 02 9e bd
       -0.039680474 -0.11554807 -0.2405533 -0.07715403
000170 eb d3 32 be 2a 06 99 bd 8f 78 4f be 46 63 84 be
       -0.17463653 -0.07471879 -0.20260833 -0.2585699
000180 83 3a 8a bd ee 98 2e bc dd 77 42 be ee 4c 3c be
       -0.067494415 -0.0106565785 -0.18991037 -0.18388721
000190 8a e7 3c bd dc 87 89 bd 86 d2 82 bd 5a bf 65 be
       -0.04611925 -0.06715366 -0.063878104 -0.22436276
0001a0 a4 51 81 be 11 64 4f bd 22 36 81 be e3 85 88 be
       -0.252576 -0.05063254 -0.25236613 -0.26664647
0001b0 d0 e3 74 be ed c7 e9 bd 3e db 84 bd 9a 4c 13 be
       -0.23915029 -0.11415086 -0.0648713 -0.1438469
0001c0 36 4e 5d be 7d 76 ae bd f2 1d a4 bd 98 59 0f be
       -0.21611866 -0.085186936 -0.08013524 -0.13999021
0001d0 54 3b 4f be 7f 23 5e be 95 bc 68 be 1a d4 27 be
       -0.20237476 -0.21693228 -0.22728188 -0.16389504
0001e0 94 63 8e bd 1b 6a 6e be 4f 9c 09 be 85 ef 88 bd
       -0.06952587 -0.23282664 -0.13438533 -0.0668631
0001f0 1c 1d 3d bd f0 88 52 bd b3 d2 4f be 20 5f eb bd
       -0.04617034 -0.051400125 -0.20295219 -0.11492753
