saved_models/generalist_BCE_1e-2_123.pth (torch_old, 167373 bytes, 8 tensors)

notes_encoder.weight f4 [64, 128]
-0.08363057 -0.056063853 0.053728797 0.070271336 -0.07089395 -0.05425862 0.008400373 -0.061487425
-0.061706167 -0.005199909 -0.015020601 0.058707483 -0.08173909 -0.032698557 0.011487335 0.056506924
-0.053802673 -0.0821958 -0.017891936 0.017808244 0.045721494 -0.057669826 -0.08362435 0.017921388
-0.08805638 0.0065899417 0.043320023 0.022706538 0.060518034 -0.0241028 0.024704069 -0.013282359
-0.049947187 0.025590204 -0.3378922 0.036675565 0.028297383 0.0072287396 0.291052 0.034911588
0.24382217 0.11241178 -0.39749202 0.17428036 0.6880808 -0.0044769333 0.20504454 0.26456252
0.2576243 0.5018479 0.50669014 0.035025768 0.10423554 0.16092217 -0.0071893907 0.17669691
0.50398505 0.05201108 0.007100794 0.31491598 0.037102103 0.42030856 0.2746426 0.31921187
0.06985627 0.020478036 -0.087425396 0.22272447 0.41025943 0.23516856 0.34197953 0.52965736
0.31004614 -0.00890603 0.31750876 -0.22762099 0.19152403 0.29344186 0.034356985 0.24123767
0.059743892 0.11398121 0.122569494 -0.030919356 -0.09129965 -0.21104139 0.15886582 -0.14208344
-0.0014852453 0.17087337 -0.078302085 0.07450674 -0.020438485 0.028396405 0.0077340603 -0.024523273
-0.073690444 -0.0032403544 -0.050767343 0.07606236 0.08421583 0.08412037 -0.026591804 -0.07361451
-0.0142291635 0.0539648 -0.05276699 0.04313635 -0.008176163 -0.010996975 -0.03486559 -0.050721
0.054807134 0.027884953 0.0432607 -0.05122507 0.045091413 0.028684206 0.05973404 0.053887032
0.013271809 0.08436299 0.004648745 -0.016812406 0.008621782 -0.045334563 0.06087 0.026198216
-0.08172513 0.05987487 0.063582696 0.006530151 -0.08541059 0.07587042 0.023584217 -0.07325131
0.006831646 -0.023211293 0.062724225 -0.0068672523 -0.033235203 0.045847632 0.02163893 0.012341052
-0.06962038 -0.0829043 0.026665702 -0.0005152151 -0.017633207 -0.0066386163 -0.0128392875 -0.033453617
0.047353975 -0.026011191 -0.027028196 -0.06818642 0.017899916 -0.02453433 0.00532791 -0.042091627
0.056998603 -0.024827205 0.016390985 0.028965928 -0.02957328 0.0044311583 -0.003961471 -0.046359815
-0.043980416 -0.0993969 -0.06514737 -0.1891258 -0.07100989 -0.052806154 -0.112879224 -0.083477564
-0.11026038 -0.03449548 -0.077172086 -0.16705425 -0.014675259 -0.04258388 -0.054087814 -0.11486714
-0.10853463 -0.07570425 -0.17211744 -0.10723448 -0.15492795 -0.061691962 -0.03612337 -0.030401856
-0.08384657 -0.0607364 -0.18454304 -0.1491972 -0.027948365 -0.16435044 -0.07724602 -0.16435139
-0.09479087 -0.12057776 -0.040061735 -0.051671475 -0.038827885 0.013659534 -0.11659286 -0.09855057
-0.03945647 -0.12829289 -0.04211901 -0.044451755 -0.13756306 -0.018791294 -0.0023906208 -0.09043231
-0.03951255 -0.013617879 -0.06895712 0.0377964 -0.033649042 -0.02293583 -0.021872982 0.07553101
-0.04307606 0.026250154 -0.035982776 0.067532904 0.01409433 0.053082354 -0.052591372 0.06316354
0.0450897 -0.052258182 0.04881329 0.056739546 -0.040274885 0.05125367 -0.06608129 -0.020150833
-0.08127616 -0.0015260205 -0.07636109 0.07801322 0.08528478 0.026158832 -0.024754338 -0.009850919
-0.061550856 -0.035152968 -0.007937707 -0.074793234 0.044621803 0.057538144 -0.029312186 0.010679051
00000000: 8146 abbd 36a3 65bd ba12 5c3d 6bea 8f3d
00000010: d930 91bd 493e 5ebd b8a1 093c 3dda 7bbd
00000020: 9bbf 7cbd 0064 aabb f818 76bc 4277 703d
00000030: d366 a7bd ecee 05bd 6035 3c3c ce73 673d
00000040: 3160 5cbd 4656 a8bd 1c92 92bc 98e2 913c
00000050: 7646 3b3d 3237 6cbd 3e43 abbd e0cf 923c
00000060: e756 b4bd 70f0 d73b 5670 313d 1003 ba3c
00000070: c2e1 773d 3c73 c5bc 3060 ca3c 409e 59bc
00000080: 6c95 4cbd 8ca2 d13c 3500 adbe 1e39 163d
00000090: eacf e73c 10df ec3b c504 953e 74ff 0e3d
000000a0: 85ac 793e 2638 e63d 1384 cbbe 8d76 323e
000000b0: 1026 303f 3db3 92bb 32f7 513e bd74 873e
000000c0: 55e7 833e 1b79 003f 72b6 013f 2e77 0f3d
000000d0: 7179 d53d c8c8 243e fb94 ebbb 09f0 343e
000000e0: 2a05 013f 9209 553d c7ad e83b ab3c a13e
000000f0: 60f8 173d af32 d73e f49d 8c3e bd6f a33e
00000100: ce10 8f3d 8ec1 a73c 160c b3bd e211 643e
00000110: 860d d23e 07d0 703e f117 af3e a097 073f
00000120: 5ebe 9e3e 99ea 11bc 8290 a23e 7a15 69be
00000130: e01e 443e 033e 963e e9b9 0c3d 0207 773e
00000140: 03b6 743d fb6e e93d b705 fb3d 974a fdbc
00000150: 50fb babd 3c1b 58be b9ad 223e 527e 11be
00000160: 90ac c2ba 6ef9 2e3e d85c a0bd fd96 983d
00000170: 9c6e a7bc 949f e83c 006e fd3b 08e5 c8bc
00000180: 04eb 96bd 205c 54bb 6bf1 4fbd 95c6 9b3d
00000190: 5979 ac3d 4d47 ac3d 0ed7 d9bc 34c3 96bd
000001a0: 7021 69bc 320a 5d3d 3322 58bd beaf 303d
000001b0: 50f5 05bc a82c 34bc 39cf 0ebd d3c0 4fbd
000001c0: 727d 603d fc6e e43c 2232 313d 61d1 51bd
000001d0: c6b1 383d 24fb ea3c aeab 743d a6b8 5c3d
000001e0: 0072 593c 81c6 ac3d 8054 983b 2cba 89bc
000001f0: 6042 0d3c bcb0 39bd d252 793d a49d d63c
00000200: 815f a7bd 5a3f 753d a537 823d e0fa d53b
00000210: bfeb aebd f361 9b3d b033 c13c c804 96bd
00000220: 00dc df3b 9c25 bebc 8f75 803d b006 e1bb
00000230: a321 08bd baca 3b3d 2044 b13c 2032 4a3c
00000240: 2195 8ebd bbc9 a9bd 0872 da3c 800f 07ba
00000250: 8473 90bc c088 d9bb e05b 52bc a906 09bd
00000260: 3ef6 413d 6c15 d5bc 3c6a ddbc 52a5 8bbd
00000270: d8a2 923c 38fc c8bc c095 ae3b 4568 2cbd
00000280: 5e77 693d 6c62 cbbc 6346 863c f449 ed3c
00000290: aa43 f2bc 4033 913b 3acf 81bb cae3 3dbd
000002a0: cf24 34bd 9a90 cbbd fc6b 85bd 32aa 41be
000002b0: a26d 91bd 444b 58bd 392d e7bd 49f6 aabd
000002c0: 32d0 e1bd 224b 0dbd 660c 9ebd 4510 2bbe
000002d0: 7f70 70bc 6f6c 2ebd 2f8b 5dbd 773f ebbd
000002e0: 6747 debd d40a 9bbd 8e3f 30be c09d dbbd
000002f0: 6fa5 1ebe b6b0 7cbd 19f6 13bd 500d f9bc
00000300: c0b7 abbd bbc6 78bd daf8 3cbe 27c7 18be
00000310: f8f3 e4bc 7b4b 28be 2933 9ebd bb4b 28be
00000320: b721 c2bd 79f1 f6bd c617 24bd 78a5 53bd
00000330: fd09 1fbd 3dcc 5f3c 3dc8 eebd e2d4 c9bd
00000340: 1c9d 21bd 365f 03be fc84 2cbd 0b13 36bd
00000350: 55dd 0cbe 33f0 99bc f6ab 1cbb 9334 b9bd
00000360: e9d7 21bd 861d 5fbc 6439 8dbd 66d0 1a3d
00000370: 94d3 09bd ece3 bbbc f82e b3bc 01b0 9a3d
00000380: 8670 30bd 900a d73c ad62 13bd b14e 8a3d
00000390: e8eb 663c e26c 593d 0d6a 57bd e35b 813d
000003a0: faaf 383d ad0c 56bd 72f0 473d ba67 683d
000003b0: 47f7 24bd 5eef 513d a155 87bd 5c13 a5bc
000003c0: 1e74 a6bd c004 c8ba 3463 9cbd 65c5 9f3d
000003d0: c9a9 ae3d 0c4b d63c 9cc9 cabc c065 21bc
000003e0: c01c 7cbd 8ffc 0fbd 280d 02bc 322d 99bd
000003f0: 5ac5 363d 1ead 6b3d 1c20 f0bc 30f7 2e3c

notes_encoder.bias f4 [64]
-0.04952895 -0.16426632 -0.15925749 0.1700864 -0.06208505 -0.16564722 -0.19134918 0.13083851
0.1558045 0.04912978 0.069865905 0.07913184 -0.023338728 0.14287293 0.086568676 -0.17697552
-0.170388 -0.16782516 -0.1401426 0.14493375 -0.17880556 -0.15060915 0.12120921 -0.21565285
0.19393216 0.20351335 0.19463551 -0.2032456 0.027905324 -0.10502555 0.07676377 -0.13811961
0.0784181 0.1876046 -0.062595725 -0.1178667 0.022653848 0.1257545 0.14421341 -0.115325145
-0.05029551 -0.21190284 0.07016645 -0.15802819 0.07500127 -0.055177923 0.16113736 0.13541713
0.14024477 0.16735621 0.019799022 0.14382775 0.061662808 0.13746598 0.17530386 -0.10603555
0.16645491 -0.03078703 -0.13030358 0.16624163 0.17809361 0.13937624 -0.11652087 -0.20733678
00000000: dede 4abd 6e35 28be 6514 23be 212b 2e3e
00000010: e54c 7ebd 6d9f 29be 0af1 43be 88fa 053e
00000020: 378b 1f3e 4f3c 493d db15 8f3d e00f a23d
00000030: dc30 bfbc 484d 123e eb4a b13d 1239 35be
00000040: 317a 2ebe 5cda 2bbe 8b81 0fbe 8369 143e
00000050: ce18 37be 4939 1abe 893c f83d 1ad4 5cbe
00000060: 2796 463e ce65 503e 884e 473e 9d1f 50be
00000070: b599 e43c a317 d7bd 5336 9d3d 3a6f 0dbe
00000080: ab99 a03d 6c1b 403e 3032 80bd 1964 f1bd
00000090: 9094 b93c cac5 003e aeac 133e 972f ecbd
000000a0: aa02 4ebd 0ffd 58be 6eb3 8f3d 24d2 21be
000000b0: 449a 993d 3f02 62bd 3101 253e caaa 0a3e
000000c0: 539c 0f3e 6d5f 2b3e 8f31 a23c 9547 133e
000000d0: 2492 7c3d e2c3 0c3e db82 333e 2b29 d9bd
000000e0: 2873 2a3e 1535 fcbc 4d6e 05be 3f3b 2a3e
000000f0: 2c5e 363e a5b8 0e3e 7ea2 eebd 1850 54be

gru.weight_ih_l0 f4 [192, 64]
0.049212247 0.2212243 0.23864791 -0.00041533122 0.022157444 0.17803669 0.12857288 -0.008581141
-0.23068321 -0.016300257 0.053879518 -0.024459613 0.07587273 -0.18765599 -0.0567821 0.04536168
0.20964922 0.04098491 0.18678392 -0.10890763 0.11625652 0.15425895 -0.051298562 0.16930993
-0.2219281 -0.114255846 -0.174321 0.16749713 -0.14256692 0.16132545 -0.048271846 0.04134956
-0.18125896 -0.05155285 0.1383771 0.16215663 -0.06273101 -0.17387122 -0.23332275 0.04221936
0.12227684 0.10349512 0.03232357 -0.08118063 -0.008342484 0.05388625 -0.13653687 -0.010322922
0.040148802 -0.21690162 -0.1162613 -0.13051619 0.051102966 -0.17534274 -0.08515102 0.06912021
-0.1645871 -0.026022617 0.11843959 -0.11345191 -0.2480639 -0.10396751 0.100141264 0.039376903
0.04211489 -0.22698067 -0.07988074 0.16027127 -0.17271115 -0.14608477 -0.042946372 0.17614968
-0.00040803483 -0.022085836 0.013401257 0.0633153 0.020471586 0.09651085 0.0044603054 -0.102697864
-0.006420875 0.01103761 0.002471753 0.14178666 -0.20514967 -0.21654984 -0.028189331 -0.05076217
0.21863627 0.122477435 0.12532024 -0.09386239 0.16017036 -0.06965824 0.17990544 -0.12191412
-0.03651947 0.032226298 -0.036722522 -0.0673 0.10847742 0.18984538 0.097795404 -0.15796416
-0.15767422 -0.118903175 0.06583025 0.018109754 0.16781184 0.096389085 0.10790586 0.14503859
0.15979467 0.15004416 0.066636205 0.14067517 -0.0419461 0.11249785 0.031955168 -0.13517728
0.01337751 -0.088508084 -0.04355492 -0.0025729307 0.21774986 0.08730813 -0.063838415 -0.11404457
0.23527023 -0.09449777 -0.19522215 0.14038691 -0.15089178 0.024888055 -0.016610188 0.16686536
0.093409605 0.20633186 -0.122699015 0.1598298 -0.0361396 -0.027869755 -0.0014885741 -0.044056762
-0.08790648 -0.021363208 0.034000296 0.13637264 0.021259634 -0.1912798 0.10534012 -0.19025421
0.111021236 0.05110466 0.11672816 -0.104262695 0.060398284 -0.030500032 0.20447487 -0.18137564
0.15655206 -0.0152423745 -0.04772734 -0.0005530332 0.2166372 0.04512127 0.13016789 -0.13989255
-1.5096008e-05 -0.19164303 0.026089631 -0.12292446 0.038176864 -0.090443626 0.009828905 0.05575912
-0.12630413 0.07193458 0.08637715 0.19566512 0.17722282 0.114794426 0.15519676 -0.0190728
0.1758297 -0.085056975 0.032028437 0.17642929 0.09029714 0.06490008 -0.053994533 -0.14841273
0.15163745 -0.11937065 -0.025204718 0.03995189 -0.2139651 -0.013186757 -0.13084733 0.16386345
0.18781087 0.091200724 -0.07950874 0.124946736 0.21421212 0.1377957 0.018445328 -0.13825926
-0.17024365 -0.11382068 -0.024836874 0.05800818 -0.19511831 -0.052070636 0.092921756 0.029442929
0.089637406 0.0076743867 -0.032255787 -0.004535858 0.12561075 -0.10321537 0.20144506 -0.07325161
0.09424726 0.19168635 -0.09044757 -0.02314702 0.2231217 0.10218592 0.17058761 -0.045141887
-0.10541945 -0.1422748 0.15174924 -0.11210496 0.14444977 -0.0852477 0.1127383 0.00925173
-0.1368761 0.083237074 0.007679453 0.18993056 0.0016709543 0.025993774 0.024010345 -0.13880357
0.11516467 -0.18588802 -0.20877513 -0.024367707 -0.031368688 0.1691834 -0.12795323 -0.06370594
00000000: c892 493d 9f88 623e 1e60 743e d0c0 d9b9
00000010: 8783 b53c 404f 363e 9ca8 033e ea97 0cbc
00000020: 3838 6cbe 1e88 85bc c5b0 5c3d 875f c8bc
00000030: 2963 9b3d e428 40be 5994 68bd 2bcd 393d
00000040: 49ae 563e cbdf 273d 4944 3f3e f70a dfbd
00000050: e617 ee3d 0ff6 1d3e 711e 52bd 955f 2d3e
00000060: 1f41 63be f8fe e9bd 3481 32be 5e84 2b3e
00000070: 10fd 11be 8032 253e b3b8 45bd 285e 293d
00000080: f39b 39be 1529 53bd bab2 0d3e 630c 263e
00000090: 1e79 80bd 4c0b 32be 29ec 6ebe 35ee 2c3d
000000a0: 486c fa3d 40f5 d33d b865 043d 0842 a6bd
000000b0: eaae 08bc d4b7 5c3d 52d0 0bbe 7921 29bc
000000c0: 1273 243d 751b 5ebe 681a eebd 09a6 05be
000000d0: 5851 513d 0c8d 33be a863 aebd e68e 8d3d
000000e0: 8589 28be 622d d5bc 7590 f23d 7a59 e8bd
000000f0: 7704 7ebe ebec d4bd dd16 cd3d ad49 213d
00000100: aa80 2c3d 9f6d 68be 8398 a3bd 271e 243e
00000110: 31db 30be 3f97 15be 89e8 2fbd 9560 343e
00000120: 82ed d5b9 5bed b4bc f290 5b3c 74ab 813d
00000130: 07b4 a73c 7ba7 c53d c127 923b 4253 d2bd
00000140: 3466 d2bb 17d7 343c 22fd 213b 8630 113e
00000150: c112 52be 3ebf 5dbe 50ed e6bc feeb 4fbd
00000160: 30e2 5f3e 73d5 fa3d f353 003e ed3a c0bd
00000170: b303 243e fba8 8ebd 2239 383e 1cae f9bd
00000180: 7195 15bd b9ff 033d 5b6a 16bd 95d4 89bd
00000190: 6929 de3d d466 423e f548 c83d 5bc1 21be
000001a0: 5a75 21be 8283 f3bd 03d2 863d e85a 943c
000001b0: ded6 2b3e a467 c53d bffd dc3d ff84 143e
000001c0: 37a1 233e 2da5 193e 9078 883d 270d 103e
000001d0: accf 2bbd 4665 e63d 6ce3 023d ea6b 0abe
000001e0: 582d 5b3c ba43 b5bd a566 32bd 9d9e 28bb
000001f0: d2f9 5e3e 9bce b23d b7bd 82bd 3390 e9bd
00000200: aeea 703e 0c88 c1bd 51e8 47be 96c1 0f3e
00000210: 6083 1abe 09e2 cb3c 1712 88bc c1de 2a3e
00000220: 894d bf3d a948 533e 9f49 fbbd 6caa 233e
00000230: 1e07 14bd 1d4f e4bc 421c c3ba dd74 34bd
00000240: 5008 b4bd e501 afbc e543 0b3d 45a5 0b3e
00000250: af28 ae3c dade 43be 90bc d73d 00d2 42be
00000260: 1a5f e33d 1f53 513d 2c0f ef3d ae87 d5bd
00000270: 3164 773d 34db f9bc dc61 513e 89ba 39be
00000280: 2f4f 203e 27bb 79bc be7d 43bd 6ef9 10ba
00000290: 24d6 5d3e 15d1 383d bb4a 053e fe3f 0fbe
000002a0: dc44 7db7 123e 44be ecb9 d53c d2bf fbbd
000002b0: 585f 1c3d 823a b9bd 6a09 213c ad63 643d
000002c0: df55 01be 7052 933d 81e6 b03d 705c 483e
000002d0: e679 353e 5719 eb3d e6eb 1e3e 903e 9cbc
000002e0: b30c 343e 5a32 aebd 4030 033d e1a9 343e
000002f0: b5ed b83d 55ea 843d 5f29 5dbd 82f9 17be
00000300: d946 1b3e 9978 f4bd 207a cebc 98a4 233d
00000310: ab19 5bbe 450d 58bc d8fc 05be d2cb 273e
00000320: 7e51 403e 72c7 ba3d 7ad5 a2bd 13e4 ff3d
00000330: 6c5a 5b3e 511a 0d3e a81a 973c d693 0dbe
00000340: 5a54 2ebe d11a e9bd b376 cbbc fc99 6d3d
00000350: 18cd 47be 0548 55bd c34d be3d 4c32 f13c
00000360: d193 b73d 6c79 fb3b a51e 04bd 89a1 94bb
00000370: 1ba0 003e 9462 d3bd 9d47 4e3e f104 96bd
00000380: b504 c13d 6d49 443e 933c b9bd d29e bdbc
00000390: 047a 643e da46 d13d 85ae 2e3e b3e6 38bd
000003a0: 27e6 d7bd 7cb0 11be 2764 1b3e 4997 e5bd
000003b0: a4ea 133e 5996 aebd 56e3 e63d 9194 173c
000003c0: 4029 0cbe 3378 aa3d eca3 fb3b 287d 423e
000003d0: ec03 db3a e5f0 d43c 58b1 c43c 8622 0ebe
000003e0: 74db eb3d 6e59 3ebe 26c9 55be c99e c7bc
000003f0: 747c 00bd 6a3e 2d3e 2c06 03be 4378 82bd

gru.weight_hh_l0 f4 [192, 64]
0.034182582 -0.045756053 -0.13810979 0.20181926 0.07503103 -0.14419377 -0.09242741 0.15674883
0.24921481 -0.049586963 -0.08337752 0.12563169 -0.0016477709 -0.22697896 0.019048471 -0.06605062
0.06111635 0.22958511 -0.108676925 -0.02607884 0.1555254 -0.1686657 -0.1672176 -0.17737374
0.007926938 0.17253289 -0.17046715 0.09968883 0.01587288 0.2052847 -0.16219205 -0.19248675
0.010114802 0.23317207 -0.06356927 -0.0332913 -0.1851735 0.1620783 -0.0032721811 0.15487035
0.084125906 -0.14782879 0.07115257 -0.14912924 0.16768269 0.07401014 -0.09568084 -0.08614118
-0.012463548 0.17287321 -0.22521631 0.15630202 0.124887936 0.0594521 -0.069620535 0.19675043
0.0017456228 -0.067547254 0.1458793 0.025727067 -0.09874819 -0.10854592 -0.07486417 -0.13871075
-0.042129643 0.04454232 0.06950443 -0.0974075 0.016528165 0.10091792 0.2110375 -0.027843699
-0.057081275 0.15478505 0.07632884 -0.09535829 0.093422405 0.09689806 -0.14856873 0.07429374
0.0017593459 -0.16817667 0.045479298 -0.16681841 -0.07631466 0.22232747 0.1746352 0.0537876
-0.017351711 -0.13100728 0.079328746 -0.062100537 -0.11345953 -0.09166666 -0.039665718 0.1314265
-0.15007591 -0.07077538 0.02192213 0.20368642 0.2086458 -0.113342226 -0.17933473 0.0021740834
-0.22199269 -0.006676629 -0.20416375 0.18875876 -0.040737122 -0.07853336 0.16256972 0.06696617
-0.055448934 -0.08636157 -0.04285041 -0.10941147 -0.01889406 0.02586719 0.15413539 -0.00037442148
-0.15419699 -0.12755649 -0.17778459 0.06023788 0.051469326 0.20474882 -0.0013359162 0.1924628
-0.2711145 0.093525976 -0.106215246 0.012721279 -0.18686733 0.16495281 -0.010788407 -0.029091321
-0.22867951 0.08616956 0.08015738 0.14184158 0.21327455 -0.006763718 -0.2405879 0.16855358
-0.11269077 -0.17021151 0.11341684 -0.021742033 -0.022170221 0.06270703 0.13854462 0.060952533
-0.21130082 -0.23366044 0.076611206 -0.10005506 -0.19231895 -0.12114781 0.22135153 0.11993442
-0.08975136 -0.22581711 0.09323071 -0.021300502 0.2119985 -0.16836156 -0.15946732 -0.0044260095
-0.055714287 0.05124268 -0.09927498 0.07645843 -0.03150719 -0.060490087 0.1983589 0.050591018
0.18082161 0.01746116 0.13594176 -0.22405295 -0.09646613 -0.10600106 -0.011836647 -0.11382134
-0.13577001 0.21261305 -0.14000073 -0.02372413 0.05737921 -0.012177002 0.24496427 0.07126704
-0.13907488 0.096706636 -0.14445308 -0.16220827 0.011737426 0.13931741 0.17251194 0.019476485
-0.007793833 -0.016665403 0.011500642 -0.005055213 0.20205511 -0.015467906 -0.13097818 0.18388818
-0.035820406 0.020548737 0.16485672 -0.19409482 -0.0025318663 0.18609211 0.047866978 0.14436418
0.03472874 -0.010711839 0.07447667 -0.06328522 -0.0025665953 -0.033091966 0.07578613 0.09794097
-0.15529472 0.010565775 0.17319196 -0.009301489 0.20484968 -0.009011689 -0.045169584 -0.19576983
-0.1430078 0.1580741 -0.09972406 0.14357723 -0.14636517 -0.1847256 -0.0283381 0.0595791
0.08260158 -0.089982405 0.13802576 0.003815198 -0.18430366 -0.23798464 0.049283613 -0.04703296
-0.094293766 0.08497692 -0.07971871 -0.09644736 0.097494945 0.18103111 0.12824099 0.020084206
00000000: 0903 0c3d b36a 3bbd a76c 0dbe b5a9 4e3e
00000010: dea9 993d 88a7 13be 954a bdbd c482 203e
00000020: 2b32 7f3e b31b 4bbd d5c1 aabd 98a5 003e
00000030: 04fa d7ba 2c6d 68be 8a0b 9c3c 8c45 87bd
00000040: 2355 7a3d 5c18 6b3e 0292 debd 4ba3 d5bc
00000050: 0d42 1f3e b4b6 2cbe 173b 2bbe 76a1 35be
00000060: fddf 013c 76ac 303e f18e 2ebe a829 cc3d
00000070: d807 823c 2736 523e ac15 26be 3f1b 45be
00000080: 8eb8 253c a9c4 6e3e 9b30 82bd 755c 08bd
00000090: 1f9e 3dbe dbf7 253e 1772 56bb 5596 1e3e
000000a0: 344a ac3d 6e60 17be 70b8 913d 56b5 18be
000000b0: 03b5 2b3e a192 973d 51f4 c3bd c96a b0bd
000000c0: e933 4cbc ad05 313e 1b9f 66be a30d 203e
000000d0: 3fc5 ff3d 0c84 733d 3695 8ebd f278 493e
000000e0: 62cd e43a 3756 8abd 6261 153e 92c1 d23c
000000f0: 7e3c cabd 534d debd 6352 99bd 310a 0ebe
00000100: 2290 2cbd 0272 363d 5758 8e3d 957d c7bd
00000110: 1366 873c 0eae ce3d 371a 583e 7818 e4bc
00000120: 0ece 69bd f97f 1e3e 4b52 9c3d 354b c3bd
00000130: 3f54 bf3d 7d72 c63d 6722 18be 5127 983d
00000140: da99 e63a 8136 2cbe 8048 3a3d 72d2 2abe
00000150: dc4a 9cbd d0a9 633e 92d3 323e 6350 5c3d
00000160: 2d25 8ebc c626 06be 1c77 a23d 225d 7ebd
00000170: 785d e8bd bbbb bbbd 8578 22bd ab94 063e
00000180: 80ad 19be aff2 90bd 0a96 b33c 2c93 503e
00000190: 3fa7 553e f81f e8bd 86a3 37be 117b 0e3b
000001a0: 0d52 63be a0c7 dabb 4d10 51be fa49 413e
000001b0: f8db 26bd 19d6 a0bd ad78 263e 8f25 893d
000001c0: 6c1e 63bd 56de b0bd e983 2fbd 1f13 e0bd
000001d0: b7c7 9abc 6ee7 d33c abd5 1d3e 004e c4b9
000001e0: d1e5 1dbe 2b9e 02be 2a0d 36be ffbb 763d
000001f0: 80d1 523d ada9 513e e919 afba f814 453e
00000200: 85cf 8abe 8c8a bf3d 6187 d9bd e96c 503c
00000210: 265a 3fbe 64e9 283e dcc1 30bc ec50 eebc
00000220: f62a 6abe ab79 b03d 8d29 a43d eb3e 113e
00000230: a564 5a3e 2ea2 ddbb ad5c 76be 4f99 2c3e
00000240: 6bca e6bd ed4b 2ebe 1747 e83d 591c b2bc
00000250: 539e b5bc 8b6c 803d a4de 0d3e 5da9 793d
00000260: 3e5f 58be af44 6fbe 56e6 9c3d abe9 ccbd
00000270: 42ef 44be 581c f8bd faa9 623e 2da0 f53d
00000280: 90cf b7bd 9a3c 67be beef be3d 647e aebc
00000290: 2316 593e f966 2cbe 674b 23be 0f08 91bb
000002a0: aa34 64bd d8e3 513d ae50 cbbd 3d96 9c3d
000002b0: af0d 01bd 74c4 77bd 981e 4b3e 8738 4f3d
000002c0: 4d29 393e b50a 8f3c 5134 0b3e 236e 65be
000002d0: 0990 c5bd 1517 d9bd 7fee 41bc 2a1b e9bd
000002e0: 4b07 0bbe 3cb7 593e 5a5c 0fbe 1b59 c2bc
000002f0: 7606 6b3d 0c82 47bc ead7 7a3e 74f4 913d
00000300: a569 0ebe 210e c63d 82eb 13be ed19 26be
00000310: 554e 403c 39a9 0e3e f8a6 303e 268d 9f3c
00000320: 6963 ffbb e285 88bc 306d 3c3c 33a6 a5bb
00000330: 89e7 4e3e 1a6d 7dbc 251f 06be 2f4d 3c3e
00000340: 6bb8 12bd d355 a83c 33d0 283e cbc0 46be
00000350: abed 25bb ee8e 3e3e 2a10 443d 34d4 133e
00000360: b93f 0e3d b680 2fbc 3987 983d ae9b 81bd
00000370: 5334 28bb 718b 07bd c235 9b3d 4695 c83d
00000380: 9405 1fbe 131c 2d3c 3c59 313e 4665 18bc
00000390: 1dc4 513e c3a5 13bc be03 39bd e377 48be
000003a0: a370 12be 2dde 213e 213c ccbd e905 133e
000003b0: c0e0 15be b528 3dbe 4e25 e8bc 3709 743d
000003c0: 042b a93d b248 b8bd a056 0d3e 6708 7a3b
000003d0: 19ba 3cbe 3fb2 73be 9ddd 493d a2a5 40bd
000003e0: 171d c1bd 6108 ae3d 9043 a3bd 3286 c5bd
000003f0: 6eab c73d 3860 393e 9b51 033e a287 a43c

gru.bias_ih_l0 f4 [192]
-0.19938144 0.14697143 -0.034673225 0.1620612 0.014637652 0.094039395 0.07622005 0.08246104
0.07715378 0.11893757 0.07039068 -0.123862624 0.12900455 0.21158545 0.108832136 0.1448895
0.1834681 0.068293035 -0.06708624 0.15363865 0.041432347 0.11904772 0.15532905 0.14195174
0.09559866 0.04596041 -0.033643838 0.010763045 0.18529886 0.0052897055 0.039591294 0.067228235
0.17832182 0.10546935 0.15352336 -0.05570504 0.106524296 0.048040815 0.119340785 0.23657493
0.1787307 0.022267127 0.062073335 -0.023900637 0.058605727 -0.0087473 -0.03609106 -0.031359926
-0.028301967 0.047030207 0.10923161 0.2305893 0.15999776 0.031623475 0.14262168 0.071912065
-0.024377808 -0.15590711 0.18197212 0.0094695855 0.09022138 0.0042763185 0.124751195 -0.023530789
-0.19429293 0.041064706 0.37412333 0.18130468 -0.111903645 -0.13671969 0.007283792 -0.019302128
0.09660795 -0.2846694 -0.07447928 -0.11546438 -0.26243716 -0.17115316 -0.0576776 -0.15462464
0.04850904 -0.08769141 -0.0024997594 -0.07134279 0.15143788 0.02048495 -0.008690245 -0.14230716
-0.022381846 -0.07206123 0.005016399 0.109666206 -0.007592823 0.018844422 -0.045504414 -0.24128835
0.13173707 -0.02425338 0.24053347 -0.1782576 -0.16964124 -0.17615312 0.027475832 0.26976815
-0.10934634 0.119790174 0.061291885 0.05520161 0.028233184 -0.034571406 -0.025101786 0.038720295
-0.23244922 0.074716635 0.15382671 -0.07342401 -0.1700972 0.06609408 0.071372904 -0.026041543
-0.07144992 -0.0051224832 0.13136345 0.21645765 -0.16961358 -0.04800553 -0.10396656 0.087725356
-0.10203971 0.10975684 0.018141374 -0.13271789 -0.16859075 0.1452907 0.11027517 -0.20718585
-0.16325119 0.17039637 0.22305664 -0.028392777 0.1555252 0.1430736 -0.1674888 0.15183467
-0.16580264 -0.15956694 0.010167826 0.011041432 -0.17400438 0.165897 0.195983 0.18447994
-0.13396327 0.03051798 0.13797793 -0.21817307 -0.19011678 -0.13589883 0.16305858 0.20095956
-0.25727504 -0.23832066 -0.01133141 0.20202425 0.15250933 -0.1498482 -0.1474795 -0.035482205
-0.19242808 0.08486525 -0.013043514 0.18013687 -0.14288986 -0.16758446 0.23152338 0.040809546
0.10160278 -0.030881302 0.13635977 -0.12078154 -0.22847189 -0.070281774 0.17838512 -0.2193016
-0.12744014 0.118382655 -0.12291493 -0.05469443 0.10056715 0.21720175 0.18663186 0.22191955
00000000: a62a 4cbe ae7f 163e 8305 0ebd 5ff3 253e
00000010: c3d2 6f3c ba97 c03d 4219 9c3d 55e1 a83d
00000020: cd02 9e3d 8a95 f33d fd28 903d b0ab fdbd
00000030: c519 043e dba9 583e 62e3 de3d ea5d 143e
00000040: 10df 3b3e 38dd 8b3d 8364 89bd 7353 1d3e
00000050: f7b4 293d 4bcf f33d 940e 1f3e cc5b 113e
00000060: 3bc9 c33d fc40 3c3d 1fce 09bd 7c57 303c
00000070: fcbe 3d3e 4455 ad3b 7b2a 223d f5ae 893d
00000080: ff99 363e 5100 d83d 3a35 1d3e f82a 64bd
00000090: 6929 da3d 72c6 443d f168 f43d b340 723e
000000a0: 2e05 373e 8d69 b63c 9c40 7e3d 45cb c3bc
000000b0: 8f0c 703d d650 0fbc 38d4 13bd 4473 00bd
000000c0: 87d9 e7bc bfa2 403d d3b4 df3d 9a1f 6c3e
000000d0: 74d6 233e 9e87 013d 6b0b 123e a246 933d
000000e0: f8b3 c7bc 1da6 1fbe e656 3a3e 5226 1b3c
000000f0: fdc5 b83d 5c20 8c3b 8e7d ff3d a4c3 c0bc
00000100: baf4 46be 7733 283d 188d bf3e efa7 393e
00000110: bd2d e5bd 3f00 0cbe e0ac ee3b 7f1f 9ebc
00000120: 64da c53d 30c0 91be 9888 98bd 9778 ecbd
00000130: 2a5e 86be c642 2fbe 593f 6cbd ec55 1ebe
00000140: 6ab1 463d 8e97 b3bd 01d3 23bb 2b1c 92bd
00000150: 8812 1b3e 0ed0 a73c 8861 0ebc f8b8 11be
00000160: 225a b7bc d794 93bd 9b60 a43b ad98 e03d
00000170: 37cd f8bb 9e5f 9a3c d662 3abd 4b14 77be
00000180: 15e6 063e 06af c6bc 684e 763e 2989 36be
00000190: 6fb6 2dbe 7c61 34be ff14 e13c 0d1f 8a3e
000001a0: f9f0 dfbd 8d54 f53d 330d 7b3d 151b 623d
000001b0: 4749 e73c bf9a 0dbd 43a2 cdbc 2c99 1e3d
000001c0: 2b07 6ebe 0905 993d c084 1d3e 545f 96bd
000001d0: f62d 2ebe 555c 873d f52b 923d 1355 d5bc
000001e0: 5654 92bd 81da a7bb 2484 063e 13a7 5d3e
000001f0: 2faf 2dbe 72a1 44bd 6bec d4bd 5aa9 b33d
00000200: 32fa d0bd 32c8 e03d 389d 943c 33e7 07be
00000210: 0ea3 2cbe 16c7 143e f3d7 e13d 8728 54be
00000220: 522b 27be 637c 2e3e f668 643e f897 e8bc
00000230: ff41 1f3e e381 123e 2f82 2bbe 8c7a 1b3e
00000240: 2bc8 29be 8465 23be f496 263c 1fe7 343c
00000250: 342e 32be e7e0 293e c4af 483e 4fe8 3c3e
00000260: ab2d 09be d800 fa3c 164a 0d3e c368 5fbe
00000270: f9ad 42be 1029 0bbe d4f8 263e 58c8 4d3e
00000280: 8eb9 83be 550a 74be 61a7 39bc 72df 4e3e
00000290: 682b 1c3e ce71 19be de04 17be ca55 11bd
000002a0: de0b 45be d5cd ad3d 77b4 55bc cd75 383e
000002b0: b851 12be 439b 2bbe 7714 6d3e e927 273d
000002c0: 1e15 d03d c9fa fcbc e5a1 0b3e 505c f7bd
000002d0: 89f4 69be e4ef 8fbd 97aa 363e 9990 60be
000002e0: ab7f 02be 9b72 f23d d3ba fbbd 4407 60bd
000002f0: 26f6 cd3d 236a 5e3e 6c1c 3f3e e13e 633e

gru.bias_hh_l0 f4 [192]
-0.12359893 0.20482932 0.023601767 -0.0035730852 0.13284893 0.1955368 0.08139417 0.0907799
0.19688493 0.10079107 0.052053407 -0.033066373 0.14015925 0.057053827 0.15568574 0.055417996
0.20187742 0.0937875 -0.16713819 0.15926869 -0.11059971 0.063539475 0.0052597625 0.17809127
0.13034365 0.05561024 0.17840645 0.05213007 0.026355399 0.13297378 -0.0028595584 0.14775822
-0.014284531 0.22833776 0.049971346 0.007546784 0.21079887 0.18778658 0.13037728 0.11792342
0.10379757 0.1620681 0.030304538 0.069815375 0.18039678 0.015469385 0.0007563142 -0.02227879
-0.059657227 -0.0064715007 0.18294509 0.030480921 0.08938367 0.025000533 0.13251792 0.1818704
-0.010879595 -0.12407749 0.08532276 -0.045044772 0.146377 0.11618089 -0.04534851 0.021909527
0.0041169077 -0.10291215 0.4580564 0.3304005 0.03762174 -0.13629742 -0.18366817 -0.25299937
0.09038779 -0.17313276 -0.18785974 -0.045073524 -0.23582177 -0.081929535 -0.17211987 -0.045908704
-0.06928226 -0.12208944 -0.20790179 -0.19684155 0.18761891 -0.049584873 -0.024245702 -0.06160514
-0.13585989 -0.18886358 -0.013005813 -0.03578398 -0.124248125 0.113284566 0.13424912 -0.26343313
0.071429774 0.035505317 0.16560951 -0.00032475236 -0.12053066 -0.12754254 -0.12923235 0.375147
-0.14586772 0.024783919 0.064680524 -0.0573699 -0.15096845 -0.056915294 -0.08497189 0.04722093
-0.08511048 -0.031381793 0.21392852 -0.011951382 -0.049068034 -0.17121646 -0.014468775 0.023005607
-0.14467284 -0.11659534 -0.003867189 0.17829905 -0.016195549 0.15623441 0.019329058 0.09178669
-0.17397393 0.20568652 -0.10245083 -0.0063311644 -0.21864574 0.23171814 0.18096533 -0.041071612
-0.21282043 0.23754223 0.14403291 -0.016533371 0.22667195 0.18210672 -0.05069951 0.19994749
-0.1549521 -0.037372462 0.10210595 -0.10250276 -0.1376642 0.13596447 0.19524907 0.019201994
-0.13888803 -0.13891648 0.18578556 -0.14068721 -0.13969609 -0.19072308 0.008827401 0.08634564
-0.01707205 -0.21946767 -0.06865909 0.016705792 0.15193574 -0.12180072 -0.032860454 -0.08409007
-0.0013623016 0.182459 -0.109917365 0.12913433 -0.15976462 -0.18496192 0.09903572 0.12416354
0.0045858095 -0.13459468 -0.035814546 -0.24041063 -0.14978018 -0.15024988 0.09053972 -0.0044255476
-0.10017182 -0.0028014379 -0.13644175 0.0918867 0.22992715 0.053351905 0.1501531 0.011402211
00000000: 7021 fdbd c7be 513e 7e58 c13c 6c2a 6abb
00000010: 8d09 083e cd3a 483e fdb1 a63d d0ea b93d
00000020: 349c 493e 8c6b ce3d f435 553d 9b70 07bd
00000030: e885 0f3e 46b1 693d 156c 1f3e fbfd 623d
00000040: f4b8 4e3e a913 c03d 4626 2bbe 5517 233e
00000050: 1a82 e2bd fc20 823d 165a ac3b 8f5d 363e
00000060: ce78 053e 90c7 633d 2eb0 363e 5786 553d
00000070: 47e7 d73c 472a 083e 6e67 3bbb ee4d 173e
00000080: aa09 6abc 60d1 693e c1ae 4c3d 034b f73b
00000090: a9db 573e 204b 403e 9f81 053e d681 f13d
000000a0: d293 d43d 2ef5 253e 3941 f83c 5dfb 8e3d
000000b0: efb9 383e 4e73 7d3c 6343 463a 0282 b6bc
000000c0: 235b 74bd e20e d4bb f555 3b3e 20b3 f93c
000000d0: c90e b73d ebcd cc3c c7b2 073e 3c3c 3a3e
000000e0: 5440 32bc 571c febd b3bd ae3d de80 38bd
000000f0: dae3 153e 3ff0 ed3d 5cbf 39bd 9c7b b33c
00000100: 20e7 863b 9bc3 d2bd 5e86 ea3e 412a a93e
00000110: 4119 1a3d 8d91 0bbe 8213 3cbe 2289 81be
00000120: 3c1d b93d b749 31be 4e5e 40be 049f 38bd
00000130: 437b 71be acca a7bd 3140 30be c40a 3cbd
00000140: dce3 8dbd 070a fabd 35e4 54be d590 49be
00000150: 2c1f 403e 8219 4bbd ec9e c6bc ac55 7cbd
00000160: db1e 0bbe 7465 41be 5516 55bc 3992 12bd
00000170: cd75 febd bd01 e83d 9a78 093e b5e0 86be
00000180: c649 923d 066e 113d 8a95 293e 8643 aab9
00000190: c7d8 f6bd 839a 02be 7c55 04be 4513 c03e
000001a0: 595e 15be a507 cb3c 3977 843d b3fc 6abd
000001b0: 7997 1abe 0320 69bd be05 aebd bc6a 413d
000001c0: 674e aebd 328a 00bd 1410 5b3e bbcf 43bc
000001d0: 90fb 48bd 5e53 2fbe 710e 6dbc 4176 bc3c
000001e0: 1e25 14be 8ac9 eebd aa70 7dbb 0794 363e
000001f0: 87ac 84bc eafb 1f3e f957 9e3c a9fa bb3d
00000200: 3926 32be 7d9f 523e bed1 d1bd a875 cfbb
00000210: abe4 5fbe 8547 6d3e fa4e 393e b53a 28bd
00000220: 99ed 59be 453e 733e 5d7d 133e fe70 87bc
00000230: b11c 683e 2f7a 3a3e 4aaa 4fbd 09bf 4c3e
00000240: c3ab 1ebe de13 19bd ed1c d13d f8ec d1bd
00000250: d8f7 0cbe 453a 0b3e 5fef 473e 804d 9d3c
00000260: aa38 0ebe 1f40 0ebe 923e 3e3e 4f10 10be
00000270: 7e0c 0fbe e94c 43be cea0 103c fcd5 b03d
00000280: afda 8bbc 22bc 60be 239d 8cbd 96da 883c
00000290: 0b95 1b3e a872 f9bd af98 06bd 6a37 acbd
000002a0: 428f b2ba 88d6 3a3e 5b1c e1bd ca3b 043e
000002b0: 5699 23be a866 3dbe 3dd3 ca3d 7449 fe3d
000002c0: 8f44 963b 30d3 09be 46b2 12bd 342e 76be
000002d0: fa5f 19be 1bdb 19be e46c b93d 2f04 91bb
000002e0: e226 cdbd 5498 37bb 63b7 0bbe 182f bc3d
000002f0: 0672 6b3e 8787 5a3d bcc1 193e 57d0 3a3c

notes_decoder.weight f4 [128, 64]
0.06821356 -0.09560917 0.15613008 0.18061021 0.18596765 -0.0575007 -0.04777837 0.07617479
0.14195871 -0.1935532 -0.27442148 0.0174831 -0.08439015 -0.28353798 0.054238614 -0.21732453
0.23361126 0.076507255 0.06542797 0.04281969 0.29137808 -0.18354054 -0.27788967 -0.16710025
0.28421098 0.19827138 -0.18861772 0.19288863 0.16304433 0.12988973 -0.17943121 -0.12755434
0.15069805 0.14454201 -0.072453804 -0.26399246 -0.18618363 0.19442558 0.15309983 0.22413877
0.09811525 -0.19435808 0.13834323 -0.24236567 0.051613696 0.2810322 -0.17301196 -0.21190791
0.028984427 0.1782187 -0.12128237 0.22462988 0.14330527 0.1275276 -0.1895368 0.12483985
0.24826549 -0.12613627 0.13968979 0.089662865 -0.11325018 -0.12456852 -0.11420576 -0.06838976
0.049543463 -0.06409923 0.039288174 0.19645518 0.122007474 -0.2790594 -0.11108724 0.14674155
0.16972429 -0.26238307 -0.15577032 0.11122042 -0.08660843 -0.07410646 0.27628002 -0.15942435
0.29252598 0.2726477 -0.029931856 0.14529091 0.19666053 -0.12237404 -0.099478036 -0.21699321
0.09126137 0.224743 -0.20212826 0.18735959 0.29015115 0.1331903 -0.15667224 -0.19447787
0.15109585 0.13295068 -0.040605005 -0.1652831 -0.20446649 0.21347117 0.13566817 0.18364912
0.18138595 -0.21527997 0.051948715 -0.08370654 0.2790921 0.09944637 -0.20531633 -0.057230353
0.017148845 0.09172228 -0.15146627 0.16773824 0.166861 0.19968396 -0.21361239 0.15856105
0.286795 0.0023899486 0.2306556 0.03377849 -0.25854772 -0.06513639 -0.14109576 -0.13092051
-0.034226898 -0.20780651 0.17605782 0.23991455 0.25987786 -0.09155839 -0.073707 0.21217926
0.29869694 -0.07639172 -0.16710098 -0.07559471 -0.26897922 -0.26976883 0.14498593 -0.115116954
0.09196255 0.08766076 0.01845493 0.02492162 0.21502529 -0.10810959 -0.16904444 -0.24206223
0.277187 0.21938321 -0.20085506 0.23391083 0.23856474 0.19688877 -0.17422312 -0.19073705
0.090889856 0.09587882 -0.18887816 -0.21801387 -0.20577754 0.16780896 0.15851603 0.17331383
0.20289235 -0.054421168 0.06169084 -0.111853376 0.28236303 0.18596964 -0.25533655 -0.05555465
0.11544879 0.12714641 -0.20682386 0.15411325 0.2507506 0.19915654 -0.09700264 0.13393757
0.17100568 -0.034533743 0.08774858 0.14686114 -0.03530492 -0.07146583 -0.09622505 -0.17280008
0.04671149 -0.16753374 0.22915106 0.09846381 0.09247018 -0.14509715 -0.077862225 0.08120791
0.2489083 -0.12673198 -0.22960483 0.052720338 -0.25154132 -0.06546773 0.27368563 -0.1445845
0.13746713 0.07990962 0.071401246 0.23580587 0.12847525 -0.117752306 -0.27987763 -0.08117813
0.2264282 0.22500926 -0.052853048 0.29592904 0.09301021 0.26494268 -0.18743996 -0.2910396
0.22472525 0.28299296 -0.09173642 -0.24967527 -0.07396167 0.18243502 0.27808693 0.16467573
0.25116387 -0.12923048 -0.0055423602 -0.11999508 0.19976556 0.115453094 -0.28546 -0.16540758
-0.061105303 0.08625976 -0.21524666 0.059884395 0.055282902 0.13064745 -0.076420456 0.19127518
0.14575256 0.034252044 0.27236244 -0.0109018525 -0.13104296 -0.11106789 -0.032382254 -0.29500467
00000000: 8db3 8b3d bece c3bd 90e0 1f3e e2f1 383e
00000010: 4e6e 3e3e db85 6bbd 41b3 43bd 8701 9c3d
00000020: a05d 113e cf32 46be f980 8cbe b838 8f3c
00000030: bed4 acbd e42b 91be 4f29 5e3d 528a 5ebe
00000040: ca37 6f3e d6af 9c3d 19ff 853d b363 2f3d
00000050: 822f 953e 0df2 3bbe 8e47 8ebe 541c 2bbe
00000060: 1a84 913e a707 4b3e 0125 41be 9984 453e
00000070: 18f5 263e d001 053e d1bc 37be 9b9d 02be
00000080: 9750 1a3e d202 143e a962 94bd 052a 87be
00000090: eca6 3ebe 8017 473e 34c6 1c3e a284 653e
000000a0: a6f0 c83d ce05 47be d9a9 0d3e b52e 78be
000000b0: e268 533d 74e3 8f3e 0c2a 31be 63fe 58be
000000c0: c070 ed3c f77e 363e e462 f8bd 6005 663e
000000d0: 9ebe 123e 9896 023e ef15 42be 09ac ff3d
000000e0: 4f39 7e3e de29 01be d70a 0f3e 2aa1 b73d
000000f0: b6ef e7bd c81d ffbd b6e4 e9bd ee0f 8cbd
00000100: 16ee 4a3d 7546 83bd a3ec 203d 8c2b 493e
00000110: 0edf f93d e0e0 8ebe b581 e3bd 6b43 163e
00000120: 34cc 2d3e 1357 86be 4182 1fbe 88c7 e33d
00000130: c35f b1bd 21c5 97bd 9374 8d3e 2340 23be
00000140: f7c5 953e 7b98 8b3e a733 f5bc 24c7 143e
00000150: 6161 493e 3e9f fabd 24bb cbbd 7833 5ebe
00000160: 3ee7 ba3d 0723 663e b6fa 4ebe 31db 3f3e
00000170: b18e 943e 0a63 083e b06e 20be 3525 47be
00000180: dfb8 1a3e 3924 083e 6f51 26bd f93f 29be
00000190: aa5f 51be 3098 5a3e 99ec 0a3e 840e 3c3e
000001a0: 3dbd 393e 5a72 5cbe 2dc8 543d 566e abbd
000001b0: 29e5 8e3e 8aaa cb3d 723e 52be 606a 6abd
000001c0: bc7b 8c3c e4d8 bb3d f919 1bbe 93c3 2b3e
000001d0: 9cdd 2a3e f479 4c3e 35bd 5abe d45d 223e
000001e0: cbd6 923e afa0 1c3b fb30 6c3e 505b 0a3d
000001f0: 5e60 84be 3a66 85bd 687b 10be 0710 06be
00000200: 8131 0cbd 3bcb 54be 8048 343e 29ac 753e
00000210: b60e 853e f782 bbbd b2f3 96bd 8545 593e
00000220: ceee 983e 4373 9cbd 851c 2bbe 66d1 9abd
00000230: a5b7 89be 241f 8abe 3177 143e 70c2 ebbd
00000240: dd56 bc3d 7c87 b33d cb2e 973c 6d28 cc3c
00000250: 972f 5c3e 9068 ddbd fc19 2dbe 29df 77be
00000260: 74eb 8d3e fea5 603e f3ac 4dbe 5286 6f3e
00000270: 514a 743e 369d 493e 8c67 32be 9350 43be
00000280: 7624 ba3d 1d5c c43d 4769 41be 073f 5fbe
00000290: 59b7 52be 1dd6 2b3e 0752 223e 2e79 313e
000002a0: 03c3 4f3e bbe8 5ebd 89af 7c3d 6213 e5bd
000002b0: e391 903e d36e 3e3e 79bb 82be 468d 63bd
000002c0: 6a70 ec3d ab32 023e a2c9 53be ddcf 1d3e
000002d0: 6262 803e b1ef 4b3e 52a9 c6bd ee26 093e
000002e0: 1d1c 2f3e 4173 0dbd 87b5 b33d c462 163e
000002f0: e49b 10bd ad5c 92bd a411 c5bd 81f2 30be
00000300: 8c54 3f3d f78d 2bbe 93a6 6a3e 65a7 c93d
00000310: 0161 bd3d 5994 14be 3b76 9fbd 5550 a63d
00000320: d1e1 7e3e 07c6 01be 871d 6bbe 48f1 573d
00000330: 06ca 80be f213 86bd 8620 8c3e f60d 14be
00000340: 2fc4 0c3e a8a7 a33d d13a 923d 1877 713e
00000350: 048f 033e 1f28 f1bd 1f4c 8fbe b840 a6bd
00000360: cbdc 673e d468 663e 707c 58bd 0384 973e
00000370: 237c be3d 91a6 873e 43f0 3fbe 2403 95be
00000380: 601e 663e 74e4 903e 4ee0 bbbd e0aa 7fbe
00000390: 3779 97bd 3fd0 3a3e 6961 8e3e c1a0 283e
000003a0: 8d98 803e ff54 04be b09c b5bb fbbf f5bd
000003b0: 588f 4c3e ac72 ec3d d027 92be 9b60 29be
000003c0: 8e49 7abd f5a8 b03d 9f69 5cbe 5749 753d
000003d0: 5370 623d 72c8 053e 5482 9cbd a4dd 433e
000003e0: 2940 153e df4b 0c3d 1773 8b3e af9d 32bc
000003f0: 2030 06be 9077 e3bd 41a3 04bd da0a 97be

notes_decoder.bias f4 [128]
-0.031497397 -0.17969444 -0.14090584 -0.24092571 -0.14145733 -0.14395562 -0.20126818 -0.17602968
-0.23579586 -0.25018108 -0.15048291 -0.05629114 -0.048084605 -0.18481316 -0.05720579 -0.22136006
-0.044419747 -0.20129776 -0.05502699 -0.08112492 -0.15800895 -0.12463157 -0.057907104 -0.13580966
-0.07776761 -0.19493936 -0.081432074 -0.08642131 -0.097862065 -0.03343851 -0.16850504 -0.20444717
-0.19042946 -0.12116965 -0.07644395 -0.036638293 -0.12561014 -0.06546662 -0.03398857 -0.21231772
-0.17626075 -0.07874681 -0.2368448 -0.17062423 -0.22115998 -0.11767199 -0.12564963 -0.12927891
-0.15119423 -0.038170904 -0.07329569 -0.040036984 -0.02608013 -0.15491281 -0.23008022 -0.16236357
-0.17890233 -0.03361648 0.0055511096 -0.24430256 -0.0055311946 -0.03502879 -0.031156423 -0.14241144
-0.014933769 -0.22475395 -0.023594754 -0.10626269 -0.2164389 -0.18548892 -0.14742495 -0.1716895
-0.20975885 -0.05707686 -0.106547326 -0.14029197 -0.21435098 -0.039612673 -0.16184904 -0.090662725
-0.21813066 -0.22257894 -0.2050043 -0.21138358 -0.1746616 -0.1129749 -0.05632486 -0.19400029
-0.039860774 -0.114424005 -0.23983161 -0.07644592 -0.17377578 -0.07383626 -0.20174925 -0.25765246
-0.0665119 -0.010011166 -0.18894021 -0.1827954 -0.045431368 -0.06602066 -0.06296922 -0.22363539
-0.251454 -0.049645305 -0.25171173 -0.2657373 -0.23840797 -0.11330378 -0.06402848 -0.14291383
-0.2152382 -0.08425621 -0.079327896 -0.1391495 -0.20171958 -0.21582936 -0.22617275 -0.16303042
-0.06881054 -0.23194814 -0.1332177 -0.0660573 -0.045291677 -0.050577007 -0.20226435 -0.11423554
00000000: 6a03 01bd d201 38be 9f49 10be 3bb5 76be
00000010: 31da 10be 1a69 13be 3f19 4ebe 2041 34be
00000020: 7874 71be bc17 80be 3118 1abe 8a91 66bd
00000030: 5df4 44bd a93f 3dbe 9e50 6abd 36ac 62be
00000040: 7bf1 35bd 0021 4ebe fb63 61bd d224 a6bd
00000050: 19cd 21be d63e ffbd 0030 6dbd b011 0bbe
00000060: a044 9fbd 2f9e 47be dcc5 a6bd a8fd b0bd
00000070: e86b c8bd d2f6 08bd 968c 2cbe 995a 51be
00000080: f1ff 42be cb27 f8bd a58e 9cbd 0912 16bd
00000090: f29f 00be 5d13 86bd 9937 0bbd d169 59be
000000a0: b37d 34be 0246 a1bd 7187 72be 1eb8 2ebe
000000b0: c377 62be 03fe f0bd 4caa 00be b161 04be
000000c0: a9d2 1abe 1859 1cbd 0d1c 96bd d2fd 23bd
000000d0: ffa5 d5bc 77a1 1ebe 269a 6bbe a342 26be
000000e0: 2c32 37be 6fb1 09bd 15e6 b53b 732a 7abe
000000f0: 063f b5bb 597a 0fbd c13b ffbc 4ed4 11be
00000100: c4ac 74bc e625 66be c949 c1bc 41a0 d9bd
00000110: 29a2 5dbe cff0 3dbe 91f6 16be 5fcf 2fbe
00000120: 06cb 56be 6dc9 69bd 7c35 dabd b3a8 0fbe
00000130: d37e 5bbe e640 22bd c1bb 25be 61ad b9bd
00000140: a55d 5fbe bceb 63be a6ec 51be f074 58be
00000150: 7eda 32be 625f e7bd e5b4 66bd 03a8 46be
00000160: 0d45 23bd 2257 eabd 6b96 75be ae8f 9cbd
00000170: 47f2 31be 7737 97bd 5b97 4ebe 06eb 83be
00000180: 6437 88bd e005 24bc 8b79 41be b82e 3bbe
00000190: 3e16 3abd d735 87bd 02f6 80bd ad00 65be
000001a0: 94be 80be e058 4bbd 5ce0 80be b80e 88be
000001b0: 3821 74be d00b e8bd 5d21 83bd 0158 12be
000001c0: 6767 5cbe 858e acbd aa76 a2bd 357d 0ebe
000001d0: 948f 4ebe 5f02 5dbe d499 67be 72f1 26be
000001e0: 8aec 8cbd d083 6dbe 396a 08be 0d49 87bd
000001f0: c483 39bd d629 4fbd 631e 4fbe 53f4 e9bd
