saved_models/generalist_BCE_1e-2_179.pth (torch_old, 167373 bytes, 8 tensors)

notes_encoder.weight f4 [64, 128]
00000000: 8146 abbd 36a3 65bd ba12 5c3d 6bea 8f3d
00000010: d930 91bd 493e 5ebd b8a1 093c 3dda 7bbd
00000020: 9bbf 7cbd 0064 aabb f818 76bc 4277 703d
00000030: d366 a7bd ecee 05bd 6035 3c3c ce73 673d
00000040: 3160 5cbd 4656 a8bd 1c92 92bc 98e2 913c
00000050: 7646 3b3d 3237 6cbd 3e43 abbd e0cf 923c
00000060: e756 b4bd 70f0 d73b 5670 313d 1003 ba3c
00000070: c2e1 773d 3c73 c5bc 3060 ca3c 409e 59bc
00000080: 6c95 4cbd 8ca2 d13c 7f1d 04bf 1e39 163d
00000090: 7226 acbd 10df ec3b a032 bfbd e77a 79be
000000a0: e782 f13d 7820 6f3d 3ec6 52bf a711 fbbe
000000b0: 2e10 5a3f f957 d6be c584 f03d fff3 483e
000000c0: 809e 993e 7226 c83e ba8a e13e f574 d33d
000000d0: 3ca4 b6bd 6bda 4f3d 3c40 6dbe a574 173e
000000e0: 02da 253f 4615 883b 74cd 6e3e 6b68 9e3e
000000f0: 02e1 0f3e 28f0 2b3f b1ec 633e dbfc b23e
00000100: 04f6 583e 6221 4a3c 7df1 8abc 287d 893e
00000110: 3dfd 423f bf3c 743e fac4 033f 5546 413f
00000120: 6a5b b63e 2a91 3c3e 6dd3 7f3e 797e 03bf
00000130: 7cdd 973e ed0b 163f d5b6 10be a353 af3e
00000140: 4a3b 4d3e fa7a 033e ee02 5b3c 0b03 8bbd
00000150: 3055 65be d46d 96be de0f 3fbd 6560 11bf
00000160: bdf7 96be cf32 013e d85c a0bd fd96 983d
00000170: 9c6e a7bc 949f e83c 006e fd3b 08e5 c8bc
00000180: 04eb 96bd 205c 54bb 6bf1 4fbd 95c6 9b3d
00000190: 5979 ac3d 4d47 ac3d 0ed7 d9bc 34c3 96bd
000001a0: 7021 69bc 320a 5d3d 3322 58bd beaf 303d
000001b0: 50f5 05bc a82c 34bc 39cf 0ebd d3c0 4fbd
000001c0: 727d 603d fc6e e43c 2232 313d 61d1 51bd
000001d0: c6b1 383d 24fb ea3c aeab 743d a6b8 5c3d
000001e0: 0072 593c 81c6 ac3d 8054 983b 2cba 89bc
000001f0: 6042 0d3c bcb0 39bd d252 793d a49d d63c
00000200: 815f a7bd 5a3f 753d a537 823d e0fa d53b
00000210: bfeb aebd f361 9b3d b033 c13c c804 96bd
00000220: 00dc df3b 9c25 bebc 8f75 803d b006 e1bb
00000230: a321 08bd baca 3b3d 2044 b13c 2032 4a3c
00000240: 2195 8ebd bbc9 a9bd 0872 da3c 800f 07ba
00000250: 8473 90bc c088 d9bb e05b 52bc a906 09bd
00000260: 3ef6 413d 6c15 d5bc 3c6a ddbc 52a5 8bbd
00000270: d8a2 923c 38fc c8bc c095 ae3b 4568 2cbd
00000280: 5e77 693d 6c62 cbbc 60f6 0b3c f449 ed3c
00000290: e9ca 09bd 4033 913b 9c0b dfbb 8066 40bd
000002a0: 0e4d 40bd 2529 dcbd 9a12 a8bd 3e63 50be
000002b0: 49a2 78bd 84c8 78bd 4efb d0bd eabb bebd
000002c0: 1aa5 debd 200a 81bd 6cb4 9fbd e308 24be
000002d0: ac63 b8bb 0bd7 3bbd acce 4fbd bd30 eebd
000002e0: 0fa6 cebd b0d9 9fbd 5156 29be 222c d0bd
000002f0: a040 19be 4be1 76bd 7a81 1fbd 8c35 c8bc
00000300: e05b 9dbd 3a4b 68bd 9f41 40be 1146 1abe
00000310: 4419 94bc a4a2 2fbe 5f9d 9fbd b9d5 2abe
00000320: caa0 babd d767 d9bd a208 30bd dc1c 79bd
00000330: ad63 0ebd 725e b63c 3f52 f7bd 207d c5bd
00000340: e9ad 1dbd fad2 00be 62b1 2abd 4ede 5bbd
00000350: b8e8 09be 8787 1dbc 4ce8 34bc 4cef bdbd
00000360: 770d 42bd a477 6dbc 6439 8dbd 66d0 1a3d
00000370: 94d3 09bd ece3 bbbc f82e b3bc 01b0 9a3d
00000380: 8670 30bd 900a d73c ad62 13bd b14e 8a3d
00000390: e8eb 663c e26c 593d 0d6a 57bd e35b 813d
000003a0: faaf 383d ad0c 56bd 72f0 473d ba67 683d
000003b0: 47f7 24bd 5eef 513d a155 87bd 5c13 a5bc
000003c0: 1e74 a6bd c004 c8ba 3463 9cbd 65c5 9f3d
000003d0: c9a9 ae3d 0c4b d63c 9cc9 cabc c065 21bc
000003e0: c01c 7cbd 8ffc 0fbd 280d 02bc 322d 99bd
000003f0: 5ac5 363d 1ead 6b3d 1c20 f0bc 30f7 2e3c
-0.08363057 -0.056063853 0.053728797 0.070271336 -0.07089395 -0.05425862 0.008400373 -0.061487425
-0.061706167 -0.005199909 -0.015020601 0.058707483 -0.08173909 -0.032698557 0.011487335 0.056506924
-0.053802673 -0.0821958 -0.017891936 0.017808244 0.045721494 -0.057669826 -0.08362435 0.017921388
-0.08805638 0.0065899417 0.043320023 0.022706538 0.060518034 -0.0241028 0.024704069 -0.013282359
-0.049947187 0.025590204 -0.5160751 0.036675565 -0.0840577 0.0072287396 -0.09335828 -0.2436329
0.11792546 0.058380574 -0.82333744 -0.49036905 0.8518094 -0.41863993 0.11744074 0.19624327
0.30003738 0.3909183 0.44051152 0.10325042 -0.08918044 0.05074541 -0.23169035 0.1479059
0.6478578 0.0041529266 0.23320562 0.3093904 0.14050677 0.67163324 0.2225826 0.34958538
0.21187598 0.012337061 -0.016960854 0.268533 0.7616766 0.23851298 0.5147244 0.75497943
0.35616618 0.1841475 0.24982996 -0.51364857 0.29661167 0.5861195 -0.14132245 0.34243497
0.20042148 0.1283988 0.013367398 -0.0678769 -0.22395778 -0.29380667 -0.04664599 -0.5678771
-0.29485884 0.12617038 -0.078302085 0.07450674 -0.020438485 0.028396405 0.0077340603 -0.024523273
-0.073690444 -0.0032403544 -0.050767343 0.07606236 0.08421583 0.08412037 -0.026591804 -0.07361451
-0.0142291635 0.0539648 -0.05276699 0.04313635 -0.008176163 -0.010996975 -0.03486559 -0.050721
0.054807134 0.027884953 0.0432607 -0.05122507 0.045091413 0.028684206 0.05973404 0.053887032
0.013271809 0.08436299 0.004648745 -0.016812406 0.008621782 -0.045334563 0.06087 0.026198216
-0.08172513 0.05987487 0.063582696 0.006530151 -0.08541059 0.07587042 0.023584217 -0.07325131
0.006831646 -0.023211293 0.062724225 -0.0068672523 -0.033235203 0.045847632 0.02163893 0.012341052
-0.06962038 -0.0829043 0.026665702 -0.0005152151 -0.017633207 -0.0066386163 -0.0128392875 -0.033453617
0.047353975 -0.026011191 -0.027028196 -0.06818642 0.017899916 -0.02453433 0.00532791 -0.042091627
0.056998603 -0.024827205 0.008542627 0.028965928 -0.033640776 0.0044311583 -0.006806804 -0.04697275
-0.046948485 -0.10750035 -0.08206673 -0.20350358 -0.060701642 -0.0607381 -0.102041826 -0.093131855
-0.108713344 -0.06300759 -0.077980846 -0.16019015 -0.005627116 -0.045859378 -0.050734207 -0.1163039
-0.10090267 -0.078051925 -0.16536833 -0.10164668 -0.14966059 -0.06027345 -0.038941838 -0.024439596
-0.076835394 -0.056712367 -0.18775032 -0.1506579 -0.018078454 -0.17151886 -0.07793688 -0.16683091
-0.09112699 -0.10615509 -0.042976983 -0.060818538 -0.034763027 0.022261832 -0.12076234 -0.09643006
-0.03849593 -0.12580481 -0.04167307 -0.053678803 -0.13467681 -0.009614832 -0.011041712 -0.09274158
-0.047376122 -0.014493857 -0.06895712 0.0377964 -0.033649042 -0.02293583 -0.021872982 0.07553101
-0.04307606 0.026250154 -0.035982776 0.067532904 0.01409433 0.053082354 -0.052591372 0.06316354
0.0450897 -0.052258182 0.04881329 0.056739546 -0.040274885 0.05125367 -0.06608129 -0.020150833
-0.08127616 -0.0015260205 -0.07636109 0.07801322 0.08528478 0.026158832 -0.024754338 -0.009850919
-0.061550856 -0.035152968 -0.007937707 -0.074793234 0.044621803 0.057538144 -0.029312186 0.010679051

notes_encoder.bias f4 [64]
00000000: b61e 00be e915 2bbe ce72 27be befc 323e
00000010: 188f 6fbd 223f 2cbe 8af2 43be 9da8 0f3e
00000020: 826b 203e 0d7d 3c3d 8ffd 083e f56b a23d
00000030: 42c9 fabc 5c1e 183e fa63 af3d 9364 38be
00000040: 7270 2bbe 8d52 33be c385 0fbe ec12 143e
00000050: 4d91 38be 9907 27be 8ec5 003e dc22 71be
00000060: 3afc 463e 24f0 523e 8307 463e d5d6 53be
00000070: dcdb 253d 7146 dbbd 7373 b13d e3ca 0bbe
00000080: 0848 9d3d 1eef 413e f2c2 0bbe c390 f4bd
00000090: 843f 8e3c a664 f93d 5f74 0f3e 1f26 e0bd
000000a0: 0182 44bd 2b59 5abe e94b 843d a2a4 31be
000000b0: 8e9d 8e3d a78c 9cbb e057 283e 0b05 043e
000000c0: 7e30 143e e36a 2d3e 25dd 6bbd 96fa 103e
000000d0: d412 3f3d 380f 093e 2eb3 343e 73c3 ddbd
000000e0: 675d 2c3e 3988 8a3d 6d27 fabd c47e 293e
000000f0: 546b 383e 7595 0f3e ed0f e7bd 4645 55be
-0.12511715 -0.16707577 -0.16352388 0.17479226 -0.058486074 -0.16820958 -0.1913549 0.14029165
0.15666011 0.046017695 0.13377975 0.079307474 -0.030613545 0.14855331 0.08563991 -0.18007116
-0.16742113 -0.1751196 -0.1401587 0.14460343 -0.18024178 -0.16311492 0.12575361 -0.23548454
0.19432154 0.20599419 0.19338803 -0.2068742 0.040492877 -0.10706795 0.08664598 -0.13651614
0.076797545 0.18938872 -0.13648584 -0.119416736 0.017364271 0.121774 0.14009236 -0.10944771
-0.047975544 -0.21323077 0.06459791 -0.17347959 0.06963645 -0.0047775093 0.16439772 0.12892549
0.14471623 0.16935305 -0.057583947 0.14158091 0.046648815 0.13384712 0.17646477 -0.108282946
0.16832505 0.06764264 -0.12214551 0.16552263 0.18009692 0.14021857 -0.112823345 -0.20827207

gru.weight_ih_l0 f4 [192, 64]
00000000: e6c0 273d 3c07 663e e893 783e 80a2 2dbb
00000010: f4ad ce3c bc92 383e 5ddf 053e 55ad 31bc
00000020: abbf 6ebe aa7d acbc 3e48 3a3d 0c43 d7bc
00000030: 7093 9c3d 2c04 43be cd60 6dbd 5fff 403d
00000040: 3929 583e e87f 343d 5a89 413e 4f46 e3bd
00000050: 09b2 f23d de26 253e c88f 67bd 0f7c 333e
00000060: 7135 65be 0724 edbd 5811 34be 94a7 2d3e
00000070: 0223 0fbe 7df3 273e 760f 5bbd 1f3e 303d
00000080: c6a0 3cbe 15bf 59bd 9547 1a3e 46bd 2c3e
00000090: ae42 8abd ed47 32be 6f16 74be 7b1b 413d
000000a0: 66d3 013e 4f59 d83d 86e4 ed3c 57f4 8ebd
000000b0: 4f2d 4dbc 3382 823d af20 10be 8a37 4dbc
000000c0: 29bd 233c 2087 60be 3a1c f3bd 95d8 07be
000000d0: 0fa8 473d d0ba 36be 6d60 b2bd c7cb 9a3d
000000e0: 1483 2bbe 7e1f d0bc 21ba f53d fa03 ecbd
000000f0: 95c5 80be 9a89 dfbd 5ecf d33d 0a0d 293d
00000100: 0381 2c3d c06d 68be c898 a3bd 491e 243e
00000110: 4fdb 30be 6097 15be 17e9 2fbd b760 343e
00000120: 9ba5 d5b9 60ec b4bc a48f 5b3c adab 813d
00000130: 02b3 a73c c0a7 c53d 382c 923b 8853 d2bd
00000140: c16a d2bb bad4 343c 57f4 213b a730 113e
00000150: e312 52be 63bf 5dbe 47ec e6bc 8cec 4fbd
00000160: 52e2 5f3e b9d5 fa3d 1454 003e 323b c0bd
00000170: c603 243e 41a9 8ebd 3d39 383e 5fae f9bd
00000180: f194 15bd 4800 043d c36a 16bd d6d4 89bd
00000190: 7f29 de3d f666 423e 4349 c83d 79c1 21be
000001a0: 7875 21be c883 f3bd 44d2 863d ad5b 943c
000001b0: f9d6 2b3e 8a67 c53d 03fe dc3d 2085 143e
000001c0: 44a1 233e 4fa5 193e d778 883d 490d 103e
000001d0: 26cf 2bbd 8a65 e63d f8e3 023d 086c 0abe
000001e0: 922f 5b3c fe43 b5bd 2f67 32bd 8c95 28bb
000001f0: f3f9 5e3e dcce b23d f7bd 82bd 7990 e9bd
00000200: efea 703e 9188 c1bd 91e8 47be d0c1 0f3e
00000210: a083 1abe 15e0 cb3c e713 88bc ffde 2a3e
00000220: 024e bf3d ea48 533e 1e4a fbbd adaa 233e
00000230: 6c06 14bd 1c4d e4bc cffb c2ba cd75 34bd
00000240: c108 b4bd b503 afbc e342 0b3d 7fa5 0b3e
00000250: cd26 ae3c 0adf 43be 17bd d73d 3ed2 42be
00000260: 925f e33d 0354 513d a40f ef3d 2888 d5bd
00000270: 4665 773d 48dd f9bc 1d62 513e c7ba 39be
00000280: 704f 203e 63b7 79bc c37e 43bd c13d 11ba
00000290: 60d6 5d3e 0fd2 383d ee4a 053e 3f40 0fbe
000002a0: 6de6 86b7 4a3e 44be f6bb d53c f4bf fbbd
000002b0: 6a60 1c3d 0a3b b9bd 930d 213c a264 643d
000002c0: 1d56 01be e152 933d fbe6 b03d a95c 483e
000002d0: 267a 353e d119 eb3d 20ec 1e3e b540 9cbc
000002e0: f10c 343e cf32 aebd 462f 033d 1aaa 343e
000002f0: 37ee b83d dbea 843d 6a2a 5dbd b8f9 17be
00000300: 0d47 1b3e ff78 f4bd c57b cebc 64a5 233d
00000310: de19 5bbe 9410 58bc 08fd 05be 02cc 273e
00000320: b051 403e dec7 ba3d e6d5 a2bd 7fe4 ff3d
00000330: 9a5a 5b3e 831a 0d3e 4d1c 973c 0894 0dbe
00000340: 8a54 2ebe 351b e9bd 5c78 cbbc ca9a 6d3d
00000350: 48cd 47be d148 55bd 2b4e be3d a930 f13c
00000360: 3694 b73d ef7f fb3b d71d 04bd 30a8 94bb
00000370: 4ea0 003e fa62 d3bd cf47 4e3e 5705 96bd
00000380: 1e05 c13d 9f49 443e 013d b9bd 7ba0 bdbc
00000390: 387a 643e 4047 d13d b6ae 2e3e 87e7 38bd
000003a0: 93e6 d7bd acb0 11be 5a64 1b3e 6b97 e5bd
000003b0: d8ea 133e c596 aebd bde3 e63d dd97 173c
000003c0: 7429 0cbe 9778 aa3d bfaa fb3b 5a7d 423e
000003d0: af1e db3a 8bf2 d43c fbb2 c43c b922 0ebe
000003e0: dadb eb3d 9f59 3ebe 58c9 55be 289d c7bc
000003f0: a37b 00bd 9d3e 2d3e 5f06 03be a778 82bd
0.040955447 0.22463697 0.24275172 -0.0026494563 0.025229432 0.18024725 0.13073488 -0.010844548
-0.23315303 -0.021056015 0.04547905 -0.026277088 0.07645309 -0.1904456 -0.057953645 0.04711854
0.21109475 0.044067293 0.18900052 -0.11097395 0.11850364 0.16128108 -0.056533605 0.17527793
-0.22383668 -0.11579137 -0.17584741 0.16958457 -0.13978198 0.16401477 -0.05348154 0.043027993
-0.18420705 -0.053160746 0.15066369 0.16869077 -0.067509994 -0.1741025 -0.23836683 0.047145348
0.12678298 0.10563909 0.029039633 -0.06980198 -0.012523009 0.0637249 -0.14074968 -0.012525449
0.00999383 -0.21926546 -0.11870618 -0.13266213 0.048744258 -0.17844701 -0.08709798 0.07558399
-0.16749221 -0.025405642 0.11998392 -0.11524196 -0.25150743 -0.10914917 0.103422865 0.0412722
0.042115223 -0.22698116 -0.07988125 0.16027178 -0.1727116 -0.14608526 -0.0429469 0.17615019
-0.00040749912 -0.022085369 0.013400946 0.06331573 0.0204711 0.096511364 0.0044608377 -0.102698386
-0.0064214175 0.011037046 0.0024712288 0.14178716 -0.20515017 -0.2165504 -0.028188838 -0.050762698
0.21863678 0.122477956 0.12532073 -0.093862906 0.16017064 -0.06965876 0.17990585 -0.12191462
-0.036518995 0.03222683 -0.03672291 -0.06730048 0.108477585 0.18984589 0.097795986 -0.1579646
-0.15767467 -0.1189037 0.06583074 0.01811012 0.16781224 0.09638889 0.107906364 0.14503908
0.15979487 0.15004466 0.06663673 0.14067568 -0.0419456 0.11249836 0.03195569 -0.13517773
0.013378041 -0.08850859 -0.043555435 -0.0025723903 0.21775036 0.087308615 -0.06383889 -0.11404509
0.2352712 -0.09449876 -0.19522311 0.14038777 -0.15089273 0.024887124 -0.016611053 0.16686629
0.09341051 0.20633283 -0.12269996 0.15983076 -0.036138937 -0.0278688 -0.001487607 -0.044057656
-0.08790732 -0.021364072 0.033999335 0.1363735 0.021258736 -0.19128051 0.10534113 -0.19025514
0.11102213 0.05110551 0.11672905 -0.1042636 0.060399316 -0.030501023 0.20447583 -0.18137656
0.15655303 -0.015241477 -0.04772831 -0.0005540513 0.21663809 0.045122202 0.13016865 -0.13989352
-1.6081345e-05 -0.19164386 0.026090603 -0.122924715 0.038177885 -0.09044464 0.0098298965 0.055760033
-0.12630506 0.07193542 0.08637806 0.19566597 0.17722377 0.114795335 0.15519762 -0.019073823
0.17583062 -0.08505785 0.032027505 0.17643014 0.09029811 0.064901076 -0.053995527 -0.14841354
0.15163822 -0.11937141 -0.025205502 0.03995265 -0.21396586 -0.013187546 -0.13084805 0.16386417
0.18781161 0.09120153 -0.07950954 0.12494754 0.2142128 0.13779645 0.018446112 -0.13826
-0.17024437 -0.113821425 -0.024837665 0.058008946 -0.19511902 -0.052071396 0.09292253 0.029442148
0.08963816 0.007675163 -0.03225502 -0.004536651 0.12561151 -0.10321613 0.2014458 -0.07325237
0.09424804 0.19168709 -0.09044839 -0.023147812 0.22312248 0.10218668 0.17058834 -0.045142677
-0.105420254 -0.14227551 0.15175 -0.11210521 0.14445055 -0.08524851 0.112739064 0.009252516
-0.13687688 0.08323782 0.0076802666 0.1899313 0.0016717518 0.02599456 0.024011126 -0.13880433
0.11516543 -0.18588875 -0.20877588 -0.02436693 -0.03136791 0.16918416 -0.12795399 -0.06370669

gru.weight_hh_l0 f4 [192, 64]
00000000: 435f bb3c f091 41bd 9368 0dbe 4ab1 4e3e
00000010: a7f3 a03d aa51 15be c503 c3bd 5fe5 223e
00000020: 4ec2 813e 154b 55bd 1ed7 babd 9474 053e
00000030: 3b03 afbb 937c 6bbe 2e1d ba3c a2d9 97bd
00000040: ede5 813d 82d7 6d3e 5f67 edbd cb49 bcbc
00000050: 2c5d 253e f1e4 30be 4318 2fbe 24ca 37be
00000060: d4ee 2c3c 78d0 3b3e d5ec 31be 4b4e d73d
00000070: 5b11 923c 2a22 543e e618 2abe 2a8e 4abe
00000080: 2dd6 533c 2882 713e 332e a9bd a145 13bd
00000090: 27df 3fbe 7187 283e b9c3 a9ba 156d 2f3e
000000a0: c4e8 af3d 62ac 1cbe 9b55 9a3d d72f 1bbe
000000b0: e667 2e3e 2fc9 9c3d 4ec2 d2bd 5ce6 b7bd
000000c0: f600 97bc 146a 343e 7d5f 6fbe 6eef 213e
000000d0: a6be 013e c61b 813d 36be 92bd f993 4e3e
000000e0: aa92 a63b 5591 8abd 7698 173e 2241 173d
000000f0: 5f49 cebd e3e4 e4bd bffa c3bd 51b5 15be
00000100: a98f 2cbd 8972 363d 5658 8e3d e07d c7bd
00000110: f964 873c 4fae ce3d 571a 583e 8a19 e4bc
00000120: 9ace 69bd 1a80 1e3e 9252 9c3d 5f4b c3bd
00000130: 8054 bf3d be72 c63d 8522 18be 9727 983d
00000140: 2e88 e63a 9f36 2cbe af48 3a3d 93d2 2abe
00000150: 224b 9cbd f0a9 633e b4d3 323e e950 5c3d
00000160: 4226 8ebc d726 06be 6077 a23d b05d 7ebd
00000170: b95d e8bd fbbb bbbd 0b78 22bd cd94 063e
00000180: a1ad 19be f2f2 90bd 0e97 b33c 4c93 503e
00000190: 5da7 553e 3920 e8bd a4a3 37be ee72 0e3b
000001a0: 2b52 63be 94c3 dabb 6b10 51be 1a4a 413e
000001b0: 7fdc 26bd 5ad6 a0bd cd78 263e ce25 893d
000001c0: c81e 63bd 97de b0bd 7b83 2fbd 6013 e0bd
000001d0: cdc8 9abc 61e6 d33c c9d5 1d3e ff92 c4b9
000001e0: f1e5 1dbe 3c9e 02be 480d 36be 70bc 763d
000001f0: 07d2 523d cda9 513e d123 afba 1415 453e
00000200: a7cf 8abe 068b bf3d e987 d9bd 9b68 503c
00000210: 655a 3fbe a0e9 283e c3bd 30bc f652 eebc
00000220: 362b 6abe 267a b03d 142a a43d 153f 113e
00000230: e564 5a3e e499 ddbb ed5c 76be 9099 2c3e
00000240: e7ca e6bd 2c4c 2ebe 2147 e83d 5d1e b2bc
00000250: 7da0 b5bc 106d 803d e3de 0d3e 60aa 793d
00000260: 7d5f 58be f744 6fbe d8e6 9c3d 31ea ccbd
00000270: 7fef 44be d81c f8bd 3baa 623e b2a0 f53d
00000280: 10d0 b7bd d83c 67be 49f0 be3d 5a7c aebc
00000290: 6216 593e 3767 2cbe a54b 23be dd10 91bb
000002a0: ac35 64bd e8e4 513d 3051 cbbd bb96 9c3d
000002b0: b30e 01bd 78c5 77bd db1e 4b3e 8d39 4f3d
000002c0: 8129 393e a608 8f3c 9434 0b3e 616e 65be
000002d0: 8390 c5bd 9717 d9bd 76ea 41bc b01b e9bd
000002e0: 8a07 0bbe 75b7 593e 985c 0fbe 4f5b c2bc
000002f0: 7607 6b3d f07d 47bc 35d8 7a3e fcf4 913d
00000300: d469 0ebe 840e c63d b6eb 13be 231a 26be
00000310: 104b 403c 68a9 0e3e 28a7 303e 8a8b 9f3c
00000320: 156a ffbb 4384 88bc a470 3c3c ffa6 a5bb
00000330: bce7 4e3e d569 7dbc 571f 06be 634d 3c3e
00000340: 39b9 12bd 3754 a83c 51d0 283e fbc0 46be
00000350: 8cfb 25bb 208f 3e3e f810 443d 64d4 133e
00000360: ec3e 0e3d a584 2fbc 9f87 983d 1c9c 81bd
00000370: 1e41 28bb 3c8c 07bd 2636 9b3d b295 c83d
00000380: c705 1fbe d818 2d3c 7459 313e f261 18bc
00000390: 4dc4 513e 0aa9 13bc 8a04 39bd 1a78 48be
000003a0: d270 12be 60de 213e 873c ccbd 1906 133e
000003b0: efe0 15be e528 3dbe 8c23 e8bc 030a 743d
000003c0: 5b2b a93d 1749 b8bd d456 0d3e 98fb 793b
000003d0: 48ba 3cbe 70b2 73be 69de 493d 74a6 40bd
000003e0: 7f1d c1bd a108 ae3d f343 a3bd 8786 c5bd
000003f0: d1ab c73d 6a60 393e cf51 033e 5a89 a43c
0.022872573 -0.047258317 -0.13809423 0.20184818 0.07858973 -0.14581934 -0.09522203 0.1590781
0.25343555 -0.052073557 -0.091230616 0.13032752 -0.0053409613 -0.2299674 0.022718992 -0.07414557
0.06342683 0.23226741 -0.11591982 -0.022984406 0.16148823 -0.17274834 -0.17099099 -0.17948204
0.010554988 0.18341243 -0.173755 0.1051298 0.017830541 0.20716158 -0.1661106 -0.19780794
0.012929481 0.23584807 -0.08260765 -0.035955075 -0.1873747 0.16457917 -0.0012952007 0.17131455
0.085893184 -0.15300134 0.07535859 -0.15154968 0.17031822 0.0765556 -0.10290967 -0.089794844
-0.018433075 0.1761859 -0.2337627 0.15813991 0.12670383 0.063041255 -0.07165186 0.20173635
0.0050834017 -0.06766001 0.14804253 0.03692735 -0.10072588 -0.11176469 -0.095693104 -0.14619948
-0.042129193 0.044542823 0.069504425 -0.097408056 0.01652764 0.100918405 0.21103798 -0.02784421
-0.057081796 0.15478554 0.076329365 -0.0953586 0.09342289 0.09689854 -0.14856918 0.07429426
0.0017588192 -0.16817711 0.045479473 -0.1668189 -0.07631518 0.22232795 0.17463571 0.0537881
-0.017352227 -0.13100754 0.07932925 -0.062101066 -0.11346001 -0.09166714 -0.039665263 0.131427
-0.1500764 -0.07077588 0.021922614 0.2036869 0.20864625 -0.11334271 -0.17933518 0.0021735984
-0.22199313 -0.0066761468 -0.20416419 0.18875924 -0.040737625 -0.07853384 0.1625702 0.06696664
-0.055449277 -0.08636206 -0.04285 -0.109411955 -0.018894577 0.02586669 0.15413584 -0.00037493554
-0.15419747 -0.12755674 -0.17778504 0.0602383 0.05146983 0.2047493 -0.0013362115 0.19246322
-0.2711155 0.093526885 -0.10621626 0.012720252 -0.18686827 0.16495371 -0.01078743 -0.029092293
-0.22868046 0.08617048 0.08015838 0.1418422 0.2132755 -0.00676273 -0.24058886 0.16855454
-0.11269169 -0.17021245 0.11341692 -0.021742994 -0.022171253 0.06270802 0.13854556 0.060953498
-0.21130176 -0.23366152 0.076612175 -0.10005606 -0.19231986 -0.121148765 0.2213525 0.11993541
-0.08975232 -0.22581804 0.093231745 -0.02129953 0.21199945 -0.16836248 -0.15946825 -0.004427059
-0.055715248 0.051243693 -0.09927595 0.07645937 -0.03150816 -0.060491055 0.19835989 0.050591994
0.18082239 0.017460179 0.13594276 -0.22405387 -0.09646704 -0.106002025 -0.011835685 -0.11382234
-0.13577095 0.2126139 -0.14000165 -0.02372518 0.057380162 -0.012176022 0.24496539 0.07126805
-0.13907558 0.096707374 -0.14445385 -0.16220908 0.011736646 0.13931811 0.17251265 0.019475717
-0.0077946284 -0.01666463 0.011501465 -0.005055308 0.20205587 -0.015467127 -0.13097893 0.18388896
-0.035821173 0.02054797 0.16485716 -0.19409554 -0.0025326936 0.18609285 0.047867745 0.1443649
0.034727976 -0.010712777 0.07447743 -0.063286036 -0.0025673578 -0.033092722 0.07578687 0.09794177
-0.15529548 0.010565005 0.1731928 -0.009300696 0.20485039 -0.00901247 -0.045170344 -0.19577065
-0.1430085 0.15807486 -0.09972482 0.14357795 -0.14636587 -0.18472631 -0.028337263 0.05957986
0.082602225 -0.08998316 0.13802654 0.0038144346 -0.18430436 -0.23798537 0.049284372 -0.047033742
-0.09429454 0.084977396 -0.07971945 -0.096448 0.09749568 0.18103185 0.12824176 0.020085026

gru.bias_ih_l0 f4 [192]
00000000: 494b 4dbe d07f 163e d204 0ebd 8ef3 253e
00000010: 7dd5 6f3c 0298 c03d 9119 9c3d a2e1 a83d
00000020: 2603 9e3d da95 f33d 5829 903d d40b ffbd
00000030: ef19 043e 01aa 583e b7e3 de3d 175e 143e
00000040: 39df 3b3e 80dd 8b3d f402 85bd 9653 1d3e
00000050: 44b5 293d 9ecf f33d be0e 1f3e f05b 113e
00000060: 8ec9 c33d d13f 3c3d 73cd 09bd b25a 303c
00000070: 20bf 3d3e ee59 ad3b 122b 223d 50af 893d
00000080: 299a 363e a100 d83d 6e35 1d3e 552a 64bd
00000090: b429 da3d 17c7 443d 3769 f43d eb40 723e
000000a0: 4c05 373e 066b b63c 3341 7e3d 08ca c3bc
000000b0: 250d 703d 484e 0fbc 71d3 13bd b272 00bd
000000c0: 0c90 e1bc 5ba3 403d 26b5 df3d bf1f 6c3e
000000d0: 96d6 233e 3d88 013d 8d0b 123e ea46 933d
000000e0: 8cb2 c7bc fef7 1dbe 0b57 3a3e 24a9 1b3c
000000f0: 45c6 b83d ce25 8c3b fb7d ff3d 8ec2 c0bc
00000100: ed46 40be 1e20 173d 9f3b bf3e bf9f 383e
00000110: ed08 f6bd 325e 0ebe 427e a13b d4b8 a6bb
00000120: 57ed ca3d ce35 93be 1703 abbd a574 05be
00000130: 48e3 88be 3fa2 35be 68c4 89bd 37a1 1bbe
00000140: ee54 363d f6cd 95bd a5a0 8e3d f797 6bbd
00000150: ad88 4c3e 1ec9 913c 04b0 a6bc 6272 16be
00000160: 0c91 ddbc 322c 1cbd fe63 b03d fbca da3d
00000170: eb2a ecbb 064b 853c 46dd 52bd 0e84 80be
00000180: 3c2a 043e 8f91 ecbc 0e7c 8c3e cb68 35be
00000190: 4ece 33be 4426 3bbe 0269 e33c 5f8f d43e
000001a0: 9997 e7bd b732 f13d 6579 a03d 796c 3f3d
000001b0: 4798 c93c 43a1 00bd 2bda f3bc 8303 213d
000001c0: fad4 91be 1e68 8e3d a40f 433e 6920 9abd
000001d0: 00fb 2fbe 86ee 743d 2d05 853d 13d7 f53c
000001e0: b128 9abd 3524 ae3c 312a 043e a401 ae3e
000001f0: 7f73 13be de28 56bd 3f5f a2bd 4214 c93d
00000200: 40eb a4bd 7bc8 e03d 809c 943c 54e7 07be
00000210: 37a3 2cbe 3bc7 143e 44d8 e13d ad28 54be
00000220: 7a2b 27be 8c7c 2e3e 2069 643e 0246 abbd
00000230: 2a42 1f3e 0a82 123e 5682 2bbe b47a 1b3e
00000240: 55c8 29be aa65 23be c839 633b 6ae5 343c
00000250: 622e 32be 0de1 293e ecaf 483e 77e8 3c3e
00000260: d42d 09be bb0f fa3c 364a 0d3e ed68 5fbe
00000270: 1fae 42be 3629 0bbe fcf8 263e 81c8 4d3e
00000280: a3b9 83be 7b0a 74be 92ac 39bc 9cdf 4e3e
00000290: 8c2b 1c3e f471 19be 0405 17be 6655 11bd
000002a0: 010c 45be 2cce ad3d d4b6 55bc f675 383e
000002b0: e051 12be 6c9b 2bbe a414 6d3e 7328 273d
000002c0: 6dec b83d 1ffc fcbc fda1 0b3e a05c f7bd
000002d0: aff4 69be 36f0 8fbd bdaa 363e c090 60be
000002e0: d57f 02be ac8e 053e 23bb fbbd 2527 60bd
000002f0: 77f6 cd3d 4b6a 5e3e 901c 3f3e 113f 633e
-0.2004825 0.14697194 -0.034672566 0.1620619 0.014638302 0.09403993 0.07622064 0.08246161
0.07715444 0.11893816 0.07039136 -0.12453428 0.12900518 0.21158601 0.10883277 0.14489017
0.18346871 0.06829357 -0.06494704 0.15363917 0.041432634 0.11904834 0.15532967 0.14195228
0.09559928 0.045959298 -0.033643197 0.010763811 0.1852994 0.0052902615 0.039591856 0.06722891
0.17832245 0.10546995 0.15352413 -0.055704433 0.106524855 0.04804143 0.11934131 0.23657577
0.17873114 0.02226783 0.062073898 -0.023900047 0.058606286 -0.008746691 -0.036090318 -0.031359382
-0.027534507 0.047030788 0.10923223 0.23058985 0.15999827 0.031624068 0.14262219 0.0719126
-0.02437713 -0.15426633 0.18197267 0.0095007755 0.09022192 0.0042769676 0.12475201 -0.02353027
-0.18777056 0.036895864 0.37350175 0.18029688 -0.12013421 -0.1390312 0.004928381 -0.005087951
0.0990855 -0.28751987 -0.08350199 -0.13032778 -0.26735902 -0.17737673 -0.06726915 -0.15198217
0.04451459 -0.073146746 0.06964234 -0.05751797 0.19974013 0.017796095 -0.020347603 -0.14692071
-0.027046703 -0.038128085 0.08612822 0.10683247 -0.0072072647 0.016271126 -0.051480554 -0.2510075
0.12906736 -0.028878001 0.27438396 -0.17715757 -0.17559168 -0.18276316 0.027760033 0.41515633
-0.11308212 0.11777251 0.07835654 0.046734307 0.024608744 -0.03140379 -0.029767117 0.03930999
-0.284828 0.069534525 0.19048935 -0.07525713 -0.17185593 0.059797786 0.06495128 0.030009782
-0.075272925 0.0212575 0.1290672 0.33985627 -0.14399527 -0.052285068 -0.07928323 0.09818317
-0.08052683 0.109757386 0.018141031 -0.13271838 -0.16859137 0.14529125 0.110275775 -0.20718642
-0.16325179 0.17039698 0.22305727 -0.08362962 0.15552583 0.14307418 -0.16748938 0.15183526
-0.16580327 -0.1595675 0.0034671891 0.011041025 -0.17400506 0.16589756 0.19598359 0.18448053
-0.13396388 0.030525079 0.1379784 -0.2181737 -0.19011734 -0.1358994 0.16305918 0.20096017
-0.25727567 -0.23832123 -0.011332648 0.20202488 0.15250987 -0.14984876 -0.14748007 -0.035481833
-0.1924286 0.0848659 -0.013044078 0.18013749 -0.14289045 -0.16758507 0.23152405 0.04081006
0.0902947 -0.03088194 0.13636012 -0.12078214 -0.22847246 -0.070282385 0.17838569 -0.21930218
-0.12744077 0.13042706 -0.12291553 -0.05472483 0.10056775 0.21720235 0.1866324 0.22192027

gru.bias_hh_l0 f4 [192]
00000000: bc62 ffbd e9be 513e e159 c13c d31d 6abb
00000010: b609 083e ef3a 483e 4cb2 a63d 1deb b93d
00000020: 5e9c 493e dc6b ce3d ae36 553d e530 0abd
00000030: 1286 0f3e ecb1 693d 3e6c 1f3e b5fe 623d
00000040: 1db9 4e3e f113 c03d 7ef5 28be 7817 233e
00000050: f681 e2bd 4f21 823d ac5f ac3b b35d 363e
00000060: f678 053e 65c6 633d 57b0 363e 2387 553d
00000070: 7be8 d73c 692a 083e b65d 3bbb 1a4e 173e
00000080: dd06 6abc 86d1 693e 94af 4c3d 2350 f73b
00000090: cddb 573e 464b 403e c181 053e 4682 f13d
000000a0: 1394 d43d 5bf5 253e 6c42 f83c abfb 8e3d
000000b0: 11ba 383e dc75 7d3c 7f75 463a df80 b6bc
000000c0: 6636 71bd e609 d4bb 1d56 3b3e 59b4 f93c
000000d0: 110f b73d 2ccf cc3c e9b2 073e 5e3c 3a3e
000000e0: 7a3d 32bc 18c0 fabd ffbd ae3d 2e60 38bd
000000f0: fce3 153e 93f0 ed3d 7dbe 39bd b27c b33c
00000100: 8b50 2e3c 444d dbbd e534 ea3e 2ba6 a83e
00000110: c3c5 f03c 80ef 0dbe fa7c 3ebe 1984 74be
00000120: 2f30 be3d f034 34be 8c9b 49be 6780 75bd
00000130: 7d85 76be a189 b4bd 8e12 3abe e737 31bd
00000140: 1a12 96bd 6f40 dcbd 9804 0bbe bc68 3bbe
00000150: 5195 713e f81c 56bd 170f 13bd ab9d 87bd
00000160: b8e5 0fbe 16a6 1ebe 287b 8b3d 9e2d 1ebd
00000170: a8ab fdbd 9cbc e23d fd59 033e 9eda 8bbe
00000180: 0ad2 8c3d 87f9 fc3c 3b3f 4c3e 2a3a 4b3a
00000190: 3f84 01be 4b5f 09be fd0a 04be cb41 053f
000001a0: ac31 19be 4680 ba3c 046a a73d a6d5 86bd
000001b0: 994d 1ebe 8726 5cbd bc93 b7bd 13d5 433d
000001c0: 00ca 0cbe 08c4 15bd 7c4d 803e 62d8 61bc
000001d0: a72f 50bd e6c5 35be 4922 abbc 9ae8 a13d
000001e0: 490f 18be d1c2 b8bd 91f6 c9bb 1f78 9a3e
000001f0: c961 1a3c 0f9a 1b3e 5046 343d 9165 d13d
00000200: 6d20 32be a19f 523e e8d1 d1bd 2d7a cfbb
00000210: d6e4 5fbe ab47 6d3e 234f 393e 5e3b 28bd
00000220: c2ed 59be 6f3e 733e 887d 133e 754d 88bc
00000230: e01c 683e 5a7a 3a3e 11ab 4fbd 34bf 4c3e
00000240: eeab 1ebe 8314 19bd 1a5a d03d 2aed d1bd
00000250: 02f8 0cbe 6d3a 0b3e 8bef 473e e54e 9d3c
00000260: d338 0ebe 193c 0ebe af3e 3e3e 7d10 10be
00000270: a70c 0fbe 104d 43be c8a3 103c 59d6 b03d
00000280: 2cdc 8bbc 4bbc 60be ca9e 8cbd 12dc 883c
00000290: 3095 1b3e fe72 f9bd 5699 06bd f036 acbd
000002a0: 11a5 b2ba b2d6 3a3e a71c e1bd f43b 043e
000002b0: 7f99 23be d266 3dbe 99d3 ca3d b949 fe3d
000002c0: b12e 953b 5ad3 09be dfb1 12bd 5a2e 76be
000002d0: 2060 19be 46db 19be 356d b93d 9009 91bb
000002e0: 3b27 cdbd 0aba 32bb 89b7 0bbe 1d04 bc3d
000002f0: 2d72 6b3e 3588 5a3d d1c1 193e 71d3 3a3c
-0.12470004 0.20482983 0.023602428 -0.0035723343 0.13284954 0.19553731 0.08139476 0.090780474
0.19688556 0.10079166 0.0520541 -0.033738036 0.14015988 0.057054445 0.15568635 0.05541869
0.20187803 0.093788035 -0.16499898 0.15926921 -0.11059944 0.06354009 0.0052604284 0.17809181
0.13034424 0.055609126 0.17840706 0.05213083 0.026355973 0.13297428 -0.0028589792 0.14775887
-0.014283863 0.22833833 0.04997213 0.007547395 0.21079941 0.18778715 0.13037778 0.11792426
0.103798054 0.16206877 0.03030511 0.069815956 0.18039729 0.015469994 0.0007570609 -0.022278247
-0.05888977 -0.0064709065 0.18294568 0.030481504 0.089384206 0.025001131 0.13251843 0.18187091
-0.010878915 -0.1224367 0.08532333 -0.0450136 0.1463775 0.116181515 -0.04534768 0.021910045
0.01063932 -0.107080966 0.4574348 0.32939276 0.029391175 -0.13860893 -0.18602362 -0.23878516
0.09286534 -0.17598319 -0.19688243 -0.059936907 -0.24074359 -0.08815313 -0.1817114 -0.043266203
-0.07327671 -0.10754477 -0.13575971 -0.18301672 0.23592116 -0.05227372 -0.035903063 -0.0662187
-0.14052474 -0.15493044 0.068105996 -0.038617723 -0.123862565 0.11071131 0.12827297 -0.2731523
0.06875999 0.030880703 0.19945996 0.00077525026 -0.12648104 -0.13415258 -0.12894817 0.5205352
-0.14960355 0.022766244 0.08174518 -0.06583719 -0.15459289 -0.05374768 -0.08963725 0.047810625
-0.13748932 -0.036563903 0.25059116 -0.0137845 -0.050826695 -0.17751274 -0.020890372 0.07905693
-0.14849581 -0.09021533 -0.006163426 0.3016977 0.009422728 0.15195487 0.044012368 0.102244504
-0.17395182 0.20568706 -0.102451146 -0.006331703 -0.21864638 0.2317187 0.18096595 -0.041072242
-0.21282104 0.23754285 0.14403355 -0.016638497 0.22667265 0.18210736 -0.05070025 0.19994813
-0.15495273 -0.037373077 0.101734355 -0.102503136 -0.13766482 0.13596506 0.19524972 0.019202659
-0.13888864 -0.13890113 0.185786 -0.1406879 -0.1396967 -0.19072366 0.008828111 0.086346336
-0.01707276 -0.21946828 -0.06866224 0.0167065 0.1519363 -0.12180136 -0.032861076 -0.08408916
-0.0013629516 0.18245962 -0.10991793 0.12913495 -0.15976523 -0.18496254 0.0990364 0.12416405
0.004552685 -0.1345953 -0.035814162 -0.24041119 -0.14978075 -0.15025052 0.09054033 -0.0044261888
-0.10017248 -0.0027271532 -0.13644232 0.09180472 0.22992773 0.053352553 0.15015341 0.011402951

notes_decoder.weight f4 [128, 64]
00000000: a045 893d 5cbf c6bd 35e2 1f3e 3bf5 383e
00000010: d011 413e acba 71bd 7ceb 4cbd fb1b a03d
00000020: 6869 143e 1f3f 48be 93b1 8ebe 73ce 913c
00000030: 3ba9 b2bd d263 92be 4d53 693d 32d9 62be
00000040: dc41 713e a82c a13d a454 803d ca26 393d
00000050: 17b5 963e 36e4 3ebe b69b 8fbe 2d0e 2dbe
00000060: 15a5 923e 8e0d 553e c1b7 43be 656f 493e
00000070: 54c0 283e 2fce 063e c39c 3abe 0bee 05be
00000080: 13bf 1c3e 6a34 163e ab8d a4bd 6854 88be
00000090: 2c9c 40be 0a48 493e 0c9e 1e3e 4b08 6f3e
000000a0: 6c62 cc3d 8586 4abe 1f90 103e 564c 7abe
000000b0: 6740 5c3d 80fd 903e 3e0a 36be b8b8 5bbe
000000c0: c8e0 d03c aa21 393e aa00 01be 63c3 673e
000000d0: 7967 143e bb50 053e bef0 43be 5e13 033e
000000e0: 4179 803e d1dd 01be dcfd 103e d1f9 c13d
000000f0: f19e ebbd dd2b 02be 89ad 00be 267c 95bd
00000100: b0fb 473d fb92 85bd 87f1 203d fe2d 493e
00000110: 74db fd3d e97b 8fbe 7a0a e7bd 17da 173e
00000120: a10e 303e ca1f 87be f193 22be 6093 e33d
00000130: e9c1 b5bd 467c 9bbd 0582 8e3e 8447 26be
00000140: b88e 963e 3276 8c3e 76b8 01bd 2ea3 163e
00000150: 6a9e 4b3e 2804 ffbd 55b1 cfbd 37b7 5fbe
00000160: 925e be3d d4e0 6c3e 41eb 50be 63af 423e
00000170: 7641 953e 1acc 093e 8b99 22be 2489 49be
00000180: e391 1c3e fcd1 093e 2f2d 3bbd f407 2bbe
00000190: 5de3 52be 8847 5c3e b25c 0c3e ecf8 413e
000001a0: a217 3b3e 7703 5fbe 1d75 5d3d 81af aebd
000001b0: 78bf 8f3e 0911 cf3d 13b0 55be fbaf 72bd
000001c0: 5df4 773c cfda bf3d fd79 1ebe 1320 2d3e
000001d0: 1727 2c3e 688a 4e3e 0e2e 5cbe 5ebe 243e
000001e0: d9dd 933e 808c d43a 30b4 6d3e e5b8 193d
000001f0: 8218 85be f359 89bd 1754 18be 4666 09be
00000200: dca2 10bd db40 56be 334a 343e 9faf 753e
00000210: fb67 863e 7399 bebd 3fa3 9bbd ea58 5b3e
00000220: b67c 9a3e f08d a0bd 208e 2fbe 73bf 99bd
00000230: fd35 8bbe 6f5c 8bbe 1956 173e dcb2 f4bd
00000240: 066d c03d 881c b83d 70da 823c 090c e03c
00000250: 944c 5f3e 3870 e3bd 43c8 2fbe 41d6 79be
00000260: 0a10 8f3e c3fe 6a3e 5547 50be b67c 733e
00000270: 6117 763e 096e 4b3e 1561 35be 1a9c 46be
00000280: 30ff be3d 68ca c83d 0adb 49be 1d98 61be
00000290: 94af 54be d60c 2e3e 662d 243e 50ab 3b3e
000002a0: 2a7f 513e 8673 6dbd bc4b 843d 9156 e9bd
000002b0: 23b2 913e b3ab 403e ac40 85be 85cd 6ebd
000002c0: 873b e53d 4fe7 043e d5d8 58be 818f 1f3e
000002d0: c735 813e 35bf 4e3e f262 cabd 1d78 0c3e
000002e0: d1e0 313e 44f1 0fbd 58a3 b73d cc31 1b3e
000002f0: 9f09 18bd aea9 97bd 5090 dcbd 56db 35be
00000300: 30af 3a3d 5cdd 2cbe 32a8 6a3e b2ad c93d
00000310: 4e28 c23d c5f6 15be 9f9f a3bd f202 aa3d
00000320: b4d1 803e 489b 03be ac11 6fbe 70d2 573d
00000330: 731c 82be ff7a 8abd 4b65 8d3e 21fd 17be
00000340: 8597 0e3e 2bb8 a73d 8ccb 8d3d a7ab 733e
00000350: 8e72 063e 397f f6bd f97d 90be 36c1 a9bd
00000360: 6be5 693e f480 6f3e bbc3 61bd 9c47 993e
00000370: 99b3 c13d c975 883e 4f8f 42be e77d 96be
00000380: 644a 683e 14e1 913e ba2e cbbd 6ae1 80be
00000390: 8cfd 9abd d1c8 3c3e 7635 8f3e b98c 313e
000003a0: c95e 813e 4c88 07be 8aa0 42bb de8c f9bd
000003b0: fa8e 4e3e 246d f03d f360 94be 2cdc 2bbe
000003c0: 5f6c 81bd 0072 b53d fdd8 60be 3a89 7b3d
000003d0: 555c 683d 9943 083e dfd5 9fbd b6ce 463e
000003e0: 6cb5 173e e00e 083d 5553 8c3e a01d cfbb
000003f0: 31d8 07be c52d e8bd a677 2ebd 3c33 99be
0.06702733 -0.09704468 0.15613635 0.18062298 0.18854451 -0.059015915 -0.050029263 0.07817837
0.14493334 -0.19555329 -0.27869853 0.017798638 -0.087236844 -0.28591782 0.056964207 -0.22153166
0.2356028 0.07869846 0.06266144 0.045203008 0.29435036 -0.18641743 -0.28048486 -0.16899939
0.28641573 0.20805952 -0.19113065 0.196714 0.16479617 0.1316459 -0.18223862 -0.13079087
0.15307264 0.14668432 -0.080348335 -0.26626897 -0.18809575 0.19656387 0.15489978 0.23343007
0.0997971 -0.19777878 0.14117478 -0.24443182 0.053772356 0.28318405 -0.17777345 -0.21457183
0.025497809 0.18079248 -0.1259791 0.22633128 0.14492597 0.13019077 -0.19134805 0.12800357
0.2509251 -0.12682272 0.1415934 0.09471477 -0.11504925 -0.12712045 -0.12566198 -0.0729907
0.048824012 -0.06522175 0.03929284 0.19646451 0.12395373 -0.28024223 -0.11281295 0.14829288
0.1719308 -0.2639144 -0.15876748 0.11112094 -0.08874876 -0.07592063 0.27833572 -0.16238219
0.2940576 0.27433926 -0.031670056 0.14710686 0.19884649 -0.124519646 -0.10141245 -0.21847235
0.092953816 0.2313264 -0.20402242 0.19012217 0.29151505 0.13456765 -0.15878884 -0.19681221
0.15290026 0.13459009 -0.045697387 -0.16702253 -0.20594545 0.21511662 0.13707235 0.18942612
0.18270734 -0.21778665 0.054066766 -0.085295685 0.28075767 0.10110671 -0.20867948 -0.05924986
0.015133944 0.09367906 -0.15476222 0.16906767 0.16811787 0.20169985 -0.21501943 0.16088244
0.28880194 0.0016216189 0.23213267 0.037529845 -0.2599526 -0.067066096 -0.14875828 -0.1341792
-0.035311565 -0.20923178 0.1760643 0.23992775 0.26251206 -0.09306612 -0.07599496 0.21420637
0.30173272 -0.078395724 -0.1714406 -0.07507219 -0.27189627 -0.2721896 0.14778937 -0.11948177
0.093957946 0.08989817 0.0159733 0.027349489 0.21806556 -0.111053884 -0.17166238 -0.24398138
0.27941924 0.22948746 -0.20339711 0.23778042 0.24032356 0.19866194 -0.17712815 -0.19395486
0.09326017 0.09804231 -0.19712463 -0.22030683 -0.20770103 0.16997084 0.16032943 0.1832707
0.20458665 -0.0579715 0.06459758 -0.11393464 0.2845622 0.18815498 -0.26025903 -0.058301467
0.111929946 0.12978862 -0.21176465 0.15582086 0.2523634 0.20190127 -0.098821536 0.13717695
0.17370917 -0.0351422 0.08966702 0.15155715 -0.03711855 -0.07405411 -0.10769713 -0.17759451
0.045577228 -0.16881317 0.22915724 0.09847583 0.09480344 -0.14644916 -0.0798943 0.08301343
0.2515999 -0.12852204 -0.23346585 0.052690923 -0.2541233 -0.06761741 0.27616343 -0.14842655
0.13924988 0.08189424 0.06923589 0.23795949 0.13129637 -0.120359845 -0.2822111 -0.08288805
0.22841422 0.23389035 -0.055118304 0.29937446 0.09458084 0.26652363 -0.1899998 -0.2939293
0.22684628 0.28492033 -0.09921022 -0.25171977 -0.075678915 0.1843598 0.27970475 0.17338838
0.25267628 -0.13235587 -0.002969774 -0.121850714 0.20171729 0.11739567 -0.28980216 -0.16783208
-0.06319498 0.088596344 -0.21957774 0.061410166 0.05672868 0.13307036 -0.078044645 0.19414791
0.148153 0.03321731 0.27407327 -0.0063206702 -0.13266064 -0.11336855 -0.042594574 -0.299219

notes_decoder.bias f4 [128]
00000000: c103 04bd 7a90 38be a1fe 10be dd5a 77be
00000010: 1e74 11be 501d 14be 1ace 4ebe bacd 34be
00000020: cf1b 72be 9272 80be efb9 1abe 423f 69bd
00000030: 23ea 47bd 4221 3ebe b02e 6cbd a11d 63be
00000040: 2dfd 37bd e0ab 4ebe 0fd3 63bd 8468 a7bd
00000050: 066c 22be 761c 00be cc33 70bd c9b5 0bbe
00000060: a942 a0bd 4939 48be 718a a8bd e736 b2bd
00000070: 75a5 c9bd e93e 0bbd f235 2dbe b800 52be
00000080: dd7e 43be 2e32 f9bd 7d02 9fbd 6454 18bd
00000090: 81f1 00be 988b 87bd db2a 08bd a1f0 59be
000000a0: c0bd 33be bc8a a0bd ef8d 70be 5c13 2fbe
000000b0: fa81 64be 92b2 f2bd 9c06 03be 6b8f 03be
000000c0: 26a3 1bbe 97d0 1abd 8f4e 97bd e4ea 28bd
000000d0: b1e3 d4bc ae6a 1ebe 58b1 6cbe 23bb 24be
000000e0: cf6e 37be c018 0ebd 2a38 c73b e79e 79be
000000f0: 08e9 9ebb e554 12bd 83cf f6bc 0ccb 11be
00000100: 89f2 62bc 981d 67be a733 c5bc 8a1a d8bd
00000110: 0b6c 5ebe 5e7b 3dbe 76ad 18be 9370 30be
00000120: b6c7 5abe 2646 71bd 26d9 d8bd 05a1 11be
00000130: f0a6 5cbe 8741 26bd 62c2 25be 5a25 b7bd
00000140: 166c 5fbe 13c9 64be 7bef 53be dcb9 58be
00000150: 1b55 35be 74e3 e9bd a04f 6fbd b1a6 47be
00000160: 5a15 21bd 870a ecbd 361f 76be f79b 9dbd
00000170: 1093 32be f583 98bd ce38 4fbe e640 84be
00000180: 48ab 89bd 429c 2bbc 582f 42be 61fd 3bbe
00000190: 6f1c 3cbd 6fde 88bd bf4b 82bd b188 65be
000001a0: ba28 81be a23d 4ebd 841d 81be 7063 88be
000001b0: b3ad 74be 6648 e9bd 8c60 84bd 3308 13be
000001c0: ee0c 5dbe f0ec adbd 87a6 a3bd 0e1b 0fbe
000001d0: a20a 4fbe eacf 5dbe 5b69 68be 1894 27be
000001e0: aaf8 8dbd ee28 6ebe 6644 09be bf77 88bd
000001f0: d318 3cbd d897 51bd aba0 4fbe 15f8 eabd
-0.032230143 -0.18023863 -0.14159633 -0.24155755 -0.14204451 -0.14464307 -0.20195809 -0.17656603
-0.2364342 -0.2508741 -0.1510999 -0.056945093 -0.048807275 -0.18567374 -0.057661712 -0.22179271
-0.04491918 -0.20182753 -0.055621203 -0.08174232 -0.1586152 -0.12510857 -0.058643147 -0.13643564
-0.078252144 -0.19553103 -0.082295306 -0.08701878 -0.098460115 -0.033995543 -0.1691511 -0.20508087
-0.19091363 -0.12167774 -0.077641465 -0.037189856 -0.12592126 -0.06618422 -0.033243995 -0.21283199
-0.17552853 -0.078389615 -0.23491643 -0.17097229 -0.22315207 -0.11850466 -0.1279549 -0.12847678
-0.15198955 -0.037796583 -0.07388031 -0.041239634 -0.025987478 -0.15470383 -0.23114526 -0.16087012
-0.17913364 -0.034691572 0.0060796933 -0.24377023 -0.004849557 -0.035725493 -0.030128246 -0.14237612
-0.01385177 -0.22569883 -0.024072481 -0.10551937 -0.21720903 -0.18504092 -0.1490992 -0.17230444
-0.21365246 -0.05890479 -0.10588293 -0.1422158 -0.21548057 -0.040589835 -0.16187432 -0.08942671
-0.21818575 -0.22342329 -0.20696823 -0.2116465 -0.17708246 -0.11420336 -0.058425546 -0.19497181
-0.039327003 -0.115254454 -0.24035344 -0.076957636 -0.17438912 -0.07447044 -0.20236513 -0.25830764
-0.067221224 -0.0104742665 -0.18963373 -0.18358375 -0.045925554 -0.06683051 -0.06362104 -0.22415425
-0.25226384 -0.050351746 -0.2521783 -0.26638365 -0.23894386 -0.11390762 -0.06463727 -0.14358597
-0.21586964 -0.08492458 -0.07990747 -0.13975164 -0.202189 -0.21661344 -0.2269644 -0.16365087
-0.069321945 -0.23257801 -0.13404998 -0.06663465 -0.04592211 -0.0511702 -0.20276134 -0.11473099
