saved_models/generalist_BCE_1e-2_130.pth (torch_old, 167373 bytes, 8 tensors)

notes_encoder.weight f4 [64, 128]
-0.08363057 -0.056063853 0.053728797 0.070271336 -0.07089395 -0.05425862 0.008400373 -0.061487425
-0.061706167 -0.005199909 -0.015020601 0.058707483 -0.08173909 -0.032698557 0.011487335 0.056506924
-0.053802673 -0.0821958 -0.017891936 0.017808244 0.045721494 -0.057669826 -0.08362435 0.017921388
-0.08805638 0.0065899417 0.043320023 0.022706538 0.060518034 -0.0241028 0.024704069 -0.013282359
-0.049947187 0.025590204 -0.38052052 0.036675565 -0.0046557775 0.0072287396 0.31498957 -0.008659612
0.20126858 0.114329755 -0.48928863 0.14073259 0.73422235 -0.03692666 0.17380306 0.20177853
0.27304828 0.5566046 0.51406616 0.014007405 0.07316816 0.12665018 -0.049040888 0.17403513
0.53787726 0.04665352 0.02713945 0.31109068 0.04080379 0.49995667 0.29954636 0.33311448
0.07259382 -0.011159436 -0.06540098 0.24109688 0.43446776 0.24039268 0.39426345 0.6170922
0.34891558 0.03500576 0.35191697 -0.287793 0.21690269 0.3185434 0.0125737805 0.25257573
0.06651489 0.1035152 0.092258215 -0.036650937 -0.13154958 -0.2375174 0.14365745 -0.19685058
-0.060657408 0.18992001 -0.078302085 0.07450674 -0.020438485 0.028396405 0.0077340603 -0.024523273
-0.073690444 -0.0032403544 -0.050767343 0.07606236 0.08421583 0.08412037 -0.026591804 -0.07361451
-0.0142291635 0.0539648 -0.05276699 0.04313635 -0.008176163 -0.010996975 -0.03486559 -0.050721
0.054807134 0.027884953 0.0432607 -0.05122507 0.045091413 0.028684206 0.05973404 0.053887032
0.013271809 0.08436299 0.004648745 -0.016812406 0.008621782 -0.045334563 0.06087 0.026198216
-0.08172513 0.05987487 0.063582696 0.006530151 -0.08541059 0.07587042 0.023584217 -0.07325131
0.006831646 -0.023211293 0.062724225 -0.0068672523 -0.033235203 0.045847632 0.02163893 0.012341052
-0.06962038 -0.0829043 0.026665702 -0.0005152151 -0.017633207 -0.0066386163 -0.0128392875 -0.033453617
0.047353975 -0.026011191 -0.027028196 -0.06818642 0.017899916 -0.02453433 0.00532791 -0.042091627
0.056998603 -0.024827205 0.01509574 0.028965928 -0.030192055 0.0044311583 -0.0066097206 -0.046235856
-0.045326546 -0.098747276 -0.06614557 -0.1890866 -0.069054246 -0.05240718 -0.1121877 -0.08420117
-0.108533755 -0.034609724 -0.07687421 -0.16579139 -0.01454388 -0.04332198 -0.054090176 -0.114790514
-0.10750556 -0.075989515 -0.17083743 -0.10752237 -0.15466549 -0.06061795 -0.03703667 -0.030610325
-0.08371646 -0.06176745 -0.18272278 -0.14883599 -0.027405605 -0.16508427 -0.07650456 -0.16289485
-0.09350784 -0.11733358 -0.039588403 -0.05265547 -0.03830862 0.014479797 -0.116770715 -0.09787195
-0.038753312 -0.12813906 -0.042161446 -0.043958947 -0.13796395 -0.017440872 -0.0025211063 -0.09111009
-0.041723922 -0.012418057 -0.06895712 0.0377964 -0.033649042 -0.02293583 -0.021872982 0.07553101
-0.04307606 0.026250154 -0.035982776 0.067532904 0.01409433 0.053082354 -0.052591372 0.06316354
0.0450897 -0.052258182 0.04881329 0.056739546 -0.040274885 0.05125367 -0.06608129 -0.020150833
-0.08127616 -0.0015260205 -0.07636109 0.07801322 0.08528478 0.026158832 -0.024754338 -0.009850919
-0.061550856 -0.035152968 -0.007937707 -0.074793234 0.044621803 0.057538144 -0.029312186 0.010679051
00000000: 8146 abbd 36a3 65bd ba12 5c3d 6bea 8f3d
00000010: d930 91bd 493e 5ebd b8a1 093c 3dda 7bbd
00000020: 9bbf 7cbd 0064 aabb f818 76bc 4277 703d
00000030: d366 a7bd ecee 05bd 6035 3c3c ce73 673d
00000040: 3160 5cbd 4656 a8bd 1c92 92bc 98e2 913c
00000050: 7646 3b3d 3237 6cbd 3e43 abbd e0cf 923c
00000060: e756 b4bd 70f0 d73b 5670 313d 1003 ba3c
00000070: c2e1 773d 3c73 c5bc 3060 ca3c 409e 59bc
00000080: 6c95 4cbd 8ca2 d13c 96d3 c2be 1e39 163d
00000090: 7e8f 98bb 10df ec3b 5046 a13e 0ce1 0dbc
000000a0: 5a19 4e3e b825 ea3d 0a84 fabe 341c 103e
000000b0: fff5 3b3f 6940 17bd 6ef9 313e 089f 4e3e
000000c0: fccc 8b3e a47d 0e3f d799 033f 517f 653c
000000d0: 30d9 953d 96b0 013e 19df 48bd 4436 323e
000000e0: 53b2 093f c317 3f3d 8d53 de3c 4747 9f3e
000000f0: e021 273d 52fa ff3e 245e 993e fb8d aa3e
00000100: 12ac 943d 11d6 36bc f3f0 85bd 1ae2 763e
00000110: 8f72 de3e 8029 763e e6dc c93e c1f9 1d3f
00000120: 10a5 b23e 3362 0f3d 762e b43e 9b59 93be
00000130: bd1b 5e3e 1f18 a33e 4202 4e3c 9b51 813e
00000140: f538 883d c7ff d33d e0f1 bc3d 4b1f 16bd
00000150: efb4 06be c337 73be f01a 133e 3393 49be
00000160: e773 78bd 647a 423e d85c a0bd fd96 983d
00000170: 9c6e a7bc 949f e83c 006e fd3b 08e5 c8bc
00000180: 04eb 96bd 205c 54bb 6bf1 4fbd 95c6 9b3d
00000190: 5979 ac3d 4d47 ac3d 0ed7 d9bc 34c3 96bd
000001a0: 7021 69bc 320a 5d3d 3322 58bd beaf 303d
000001b0: 50f5 05bc a82c 34bc 39cf 0ebd d3c0 4fbd
000001c0: 727d 603d fc6e e43c 2232 313d 61d1 51bd
000001d0: c6b1 383d 24fb ea3c aeab 743d a6b8 5c3d
000001e0: 0072 593c 81c6 ac3d 8054 983b 2cba 89bc
000001f0: 6042 0d3c bcb0 39bd d252 793d a49d d63c
00000200: 815f a7bd 5a3f 753d a537 823d e0fa d53b
00000210: bfeb aebd f361 9b3d b033 c13c c804 96bd
00000220: 00dc df3b 9c25 bebc 8f75 803d b006 e1bb
00000230: a321 08bd baca 3b3d 2044 b13c 2032 4a3c
00000240: 2195 8ebd bbc9 a9bd 0872 da3c 800f 07ba
00000250: 8473 90bc c088 d9bb e05b 52bc a906 09bd
00000260: 3ef6 413d 6c15 d5bc 3c6a ddbc 52a5 8bbd
00000270: d8a2 923c 38fc c8bc c095 ae3b 4568 2cbd
00000280: 5e77 693d 6c62 cbbc 1f54 773c f449 ed3c
00000290: 5455 f7bc 4033 913b 5b96 d8bb cf61 3dbd
000002a0: 54a8 39bd 033c cabd 5477 87bd eb9f 41be
000002b0: 506c 8dbd e9a8 56bd aac2 e5bd aa71 acbd
000002c0: f246 debd edc2 0dbd 3a70 9dbd 38c5 29be
000002d0: 7449 6ebc 6372 31bd a98d 5dbd 4a17 ebbd
000002e0: e02b dcbd 64a0 9bbd 02f0 2ebe b034 dcbd
000002f0: a160 1ebe 874a 78bd c3b3 17bd 81c2 fabc
00000300: 8973 abbd deff 7cbd ae1b 3bbe 7668 18be
00000310: b881 e0bc da0b 29be 6cae 9cbd e8cd 26be
00000320: 0a81 bfbd 974c f0bd 7327 22bd 43ad 57bd
00000330: 80e9 1cbd ac3c 6d3c 7c25 efbd 1771 c8bd
00000340: cbbb 1ebd e336 03be 7bb1 2cbd 4c0e 34bd
00000350: 6c46 0dbe 29e0 8ebc 2539 25bb ed97 babd
00000360: b4e6 2abd 1b75 4bbc 6439 8dbd 66d0 1a3d
00000370: 94d3 09bd ece3 bbbc f82e b3bc 01b0 9a3d
00000380: 8670 30bd 900a d73c ad62 13bd b14e 8a3d
00000390: e8eb 663c e26c 593d 0d6a 57bd e35b 813d
000003a0: faaf 383d ad0c 56bd 72f0 473d ba67 683d
000003b0: 47f7 24bd 5eef 513d a155 87bd 5c13 a5bc
000003c0: 1e74 a6bd c004 c8ba 3463 9cbd 65c5 9f3d
000003d0: c9a9 ae3d 0c4b d63c 9cc9 cabc c065 21bc
000003e0: c01c 7cbd 8ffc 0fbd 280d 02bc 322d 99bd
000003f0: 5ac5 363d 1ead 6b3d 1c20 f0bc 30f7 2e3c

notes_encoder.bias f4 [64]
-0.06754631 -0.16492945 -0.16026421 0.1707328 -0.06094312 -0.16632593 -0.1910014 0.1328291
0.1559667 0.04905718 0.08097932 0.08011347 -0.024192113 0.14425671 0.086014636 -0.17742142
-0.17001703 -0.16845588 -0.14009678 0.1448539 -0.17893526 -0.15325294 0.122040994 -0.21736856
0.19387358 0.20400263 0.1941074 -0.20383398 0.033805586 -0.10565058 0.080933325 -0.13794552
0.079571426 0.18809424 -0.08210474 -0.117793955 0.020885142 0.12541509 0.14268576 -0.11435818
-0.05084573 -0.21186054 0.06873191 -0.15926126 0.07482352 -0.041564845 0.16167064 0.13273288
0.13529924 0.1673568 -0.0012739713 0.1433172 0.057645343 0.13641228 0.175365 -0.10694993
0.16681537 0.00028058933 -0.12837918 0.16567624 0.1785528 0.13869551 -0.11545627 -0.20696492
00000000: b855 8abd 44e3 28be 4d1c 24be 94d4 2e3e
00000010: 7e9f 79bd 5851 2abe df95 43be 5a04 083e
00000020: bcb5 1f3e 2ef0 483d 7cd8 a53d 8812 a43d
00000030: 8a2e c6bc 08b8 133e 7128 b03d f6ad 35be
00000040: f218 2ebe b37f 2cbe 8875 0fbe 9554 143e
00000050: ce3a 37be 57ee 1cbe a1f0 f93d dd95 5ebe
00000060: cc86 463e 11e6 503e 17c4 463e dbb9 50be
00000070: ba77 0a3d 555f d8bd 5fc0 a53d 9741 0dbe
00000080: 58f6 a23d c79b 403e 8826 a8bd f53d f1bd
00000090: 5117 ab3c d06c 003e 371c 123e 9f34 eabd
000000a0: 9d43 50bd f8f1 58be 51c3 8c3d 6215 23be
000000b0: 133d 993d e63f 2abd fd8c 253e 21eb 073e
000000c0: e28b 0a3e 955f 2b3e 62fb a6ba bec1 123e
000000d0: 861d 6c3d a9af 0b3e e292 333e 9108 dbbd
000000e0: a6d1 2a3e 101c 9339 d575 03be 08a7 293e
000000f0: 8cd6 363e 3206 0e3e 5674 ecbd 9dee 53be

gru.weight_ih_l0 f4 [192, 64]
0.048350967 0.22225815 0.239885 -0.0011344253 0.02300132 0.17868723 0.12920159 -0.00965667
-0.23139262 -0.017450627 0.052528933 -0.0252718 0.076080844 -0.18845211 -0.05734514 0.045966346
0.2101794 0.042043447 0.18755455 -0.10950297 0.11693665 0.15636441 -0.052780535 0.17084725
-0.22252937 -0.11476754 -0.17484885 0.16822346 -0.14251669 0.16233376 -0.049997184 0.041992422
-0.1821385 -0.05215466 0.14062558 0.16386735 -0.06387748 -0.17486742 -0.23497307 0.043644033
0.12346299 0.104121424 0.031485703 -0.0775025 -0.009447111 0.056032076 -0.13791244 -0.010924568
0.033327024 -0.21770176 -0.11709507 -0.13116765 0.050379425 -0.17618774 -0.08579661 0.071310006
-0.16551559 -0.025790479 0.11900158 -0.114015974 -0.24923055 -0.10550085 0.10112154 0.039993484
0.042115066 -0.22698094 -0.07988101 0.16027156 -0.1727114 -0.14608504 -0.042946644 0.17614996
-0.0004077625 -0.022085598 0.013401109 0.063315526 0.020471334 0.096511126 0.0044605746 -0.10269814
-0.0064211516 0.011037323 0.0024714875 0.14178693 -0.20514995 -0.21655014 -0.02818908 -0.05076244
0.21863656 0.12247771 0.12532051 -0.09386267 0.16017053 -0.06965852 0.17990568 -0.121914394
-0.036519226 0.03222657 -0.036722727 -0.06730026 0.10847752 0.18984567 0.09779571 -0.15796441
-0.15767448 -0.11890345 0.065830514 0.018109947 0.16781208 0.09638897 0.10790613 0.14503886
0.15979479 0.15004444 0.06663648 0.14067546 -0.041945837 0.11249813 0.03195544 -0.13517754
0.013377781 -0.08850836 -0.043555185 -0.0025726554 0.21775013 0.08730839 -0.06383867 -0.114044845
0.23527075 -0.09449829 -0.19522266 0.14038737 -0.15089229 0.02488758 -0.016610632 0.16686586
0.093410075 0.20633239 -0.12269951 0.15983032 -0.036139257 -0.027869266 -0.0014880808 -0.04405722
-0.08790692 -0.021363651 0.033999797 0.1363731 0.021259174 -0.1912802 0.105340645 -0.1902547
0.111021705 0.0511051 0.116728626 -0.10426317 0.060398813 -0.030500539 0.20447539 -0.18137613
0.15655258 -0.015241917 -0.047727842 -0.0005535526 0.21663769 0.045121748 0.13016829 -0.13989307
-1.5598645e-05 -0.19164348 0.02609013 -0.1229246 0.03817739 -0.090444155 0.00982941 0.055759586
-0.12630463 0.07193502 0.08637763 0.19566557 0.17722332 0.1147949 0.15519722 -0.019073322
0.17583019 -0.08505743 0.03202796 0.17642973 0.09029765 0.0649006 -0.053995043 -0.14841318
0.15163787 -0.11937105 -0.02520512 0.03995228 -0.2139655 -0.01318716 -0.13084774 0.16386385
0.18781127 0.09120115 -0.07950916 0.12494716 0.21421249 0.1377961 0.01844573 -0.13825966
-0.17024405 -0.113821074 -0.024837282 0.058008578 -0.19511871 -0.052071027 0.09292216 0.029442528
0.0896378 0.007674783 -0.03225539 -0.004536262 0.12561116 -0.10321577 0.20144546 -0.073252015
0.09424767 0.19168675 -0.090448 -0.023147428 0.22312212 0.10218632 0.17058802 -0.045142297
-0.105419874 -0.1422752 0.15174964 -0.1121051 0.14445019 -0.08524813 0.1127387 0.009252129
-0.13687652 0.08323747 0.0076798685 0.18993096 0.0016713612 0.025994176 0.024010746 -0.13880397
0.11516507 -0.18588842 -0.20877554 -0.02436731 -0.03136828 0.1691838 -0.12795363 -0.06370634
00000000: aa0b 463d a497 633e 6aa4 753e ffb0 94ba
00000010: 446d bc3c c9f9 363e 6c4d 043e 0237 1ebc
00000020: 30f2 6cbe 9ef4 8ebc 9428 573d ce06 cfbc
00000030: 46d0 9b3d 97f9 40be bde2 6abd 3547 3c3d
00000040: 4539 573e c035 2c3d 4d0e 403e 1843 e0bd
00000050: 7b7c ef3d fe1d 203e 6730 58bd 95f2 2e3e
00000060: bdde 63be 3e0b ebbd 940b 33be c542 2c3e
00000070: e5ef 11be d23a 263e d9c9 4cbd 3f00 2c3d
00000080: 8482 3abe 20a0 55bd 2700 103e d8cc 273e
00000090: 32d2 82bd 7210 33be c89c 70be 16c4 323d
000000a0: 2ada fc3d 9d3d d53d 27f7 003d a1b9 9ebd
000000b0: 0ec8 1abc e481 653d eb38 0dbe f6fc 32bc
000000c0: eb81 083d 36ed 5ebe 8acf efbd d050 06be
000000d0: a85a 4e3d 8f6a 34be 22b6 afbd fb0a 923d
000000e0: eb7c 29be 8e46 d3bc 1ab7 f33d 3581 e9bd
000000f0: 4b36 7fbe d410 d8bd cf18 cf3d 35d0 233d
00000100: d980 2c3d b16d 68be a898 a3bd 3a1e 243e
00000110: 42db 30be 5197 15be d2e8 2fbd a860 343e
00000120: f5c8 d5b9 dbec b4bc 5390 5b3c 92ab 813d
00000130: 80b3 a73c a0a7 c53d 032a 923b 6753 d2bd
00000140: 8668 d2bb e3d5 343c aef8 213b 9830 113e
00000150: d412 52be 52bf 5dbe c9ec e6bc 47ec 4fbd
00000160: 43e2 5f3e 98d5 fa3d 0554 003e 123b c0bd
00000170: be03 243e 20a9 8ebd 3239 383e 41ae f9bd
00000180: 2f95 15bd 0200 043d 926a 16bd b8d4 89bd
00000190: 7629 de3d e766 423e 1e49 c83d 6cc1 21be
000001a0: 6b75 21be a783 f3bd 26d2 863d 505b 943c
000001b0: eed6 2b3e 9567 c53d e4fd dc3d 1185 143e
000001c0: 3fa1 233e 40a5 193e b578 883d 3a0d 103e
000001d0: 66cf 2bbd 6b65 e63d b5e3 023d fb6b 0abe
000001e0: 7b2e 5b3c df43 b5bd ec66 32bd ff99 28bb
000001f0: e4f9 5e3e bece b23d d9bd 82bd 5890 e9bd
00000200: d1ea 703e 5288 c1bd 73e8 47be b5c1 0f3e
00000210: 8283 1abe 0ae1 cb3c 0513 88bc e2de 2a3e
00000220: c84d bf3d cc48 533e e149 fbbd 8faa 233e
00000230: c206 14bd 164e e4bc b50b c3ba 5875 34bd
00000240: 8b08 b4bd d302 afbc 5f43 0b3d 64a5 0b3e
00000250: b827 ae3c f5de 43be d6bc d73d 21d2 42be
00000260: 595f e33d 9553 513d 6b0f ef3d ee87 d5bd
00000270: bf64 773d 44dc f9bc ff61 513e aaba 39be
00000280: 524f 203e 3cb9 79bc 457e 43bd 491c 11ba
00000290: 45d6 5d3e 95d1 383d d64a 053e 2140 0fbe
000002a0: d6d9 82b7 303e 44be f8ba d53c e5bf fbbd
000002b0: e55f 1c3d c93a b9bd 890b 213c 2a64 643d
000002c0: 0056 01be ab52 933d c1e6 b03d 8e5c 483e
000002d0: 087a 353e 9719 eb3d 05ec 1e3e a83f 9cbc
000002e0: d40c 343e 9732 aebd c02f 033d ffa9 343e
000002f0: f9ed b83d 9bea 843d e829 5dbd a0f9 17be
00000300: f546 1b3e cf78 f4bd f87a cebc 01a5 233d
00000310: c619 5bbe f50e 58bc f3fc 05be edcb 273e
00000320: 9951 403e abc7 ba3d b3d5 a2bd 4ce4 ff3d
00000330: 855a 5b3e 6c1a 0d3e 801b 973c f193 0dbe
00000340: 7554 2ebe 061b e9bd 8e77 cbbc 679a 6d3d
00000350: 33cd 47be 6e48 55bd f94d be3d 7531 f13c
00000360: 0694 b73d bf7c fb3b 3a1e 04bd eca4 94bb
00000370: 36a0 003e ca62 d3bd b847 4e3e 2705 96bd
00000380: ec04 c13d 8849 443e cd3c b9bd ad9f bdbc
00000390: 207a 643e 1047 d13d a0ae 2e3e 21e7 38bd
000003a0: 60e6 d7bd 97b0 11be 4264 1b3e 5c97 e5bd
000003b0: c0ea 133e 9296 aebd 8ce3 e63d 3e96 173c
000003c0: 5c29 0cbe 6878 aa3d 68a7 fb3b 437d 423e
000003d0: 9311 db3a bdf1 d43c 2fb2 c43c a122 0ebe
000003e0: aadb eb3d 8959 3ebe 41c9 55be f49d c7bc
000003f0: 077c 00bd 853e 2d3e 4706 03be 7878 82bd

gru.weight_hh_l0 f4 [192, 64]
0.033489075 -0.046231337 -0.1381047 0.20182912 0.07615631 -0.1447081 -0.0933116 0.15748224
0.25055006 -0.050373673 -0.08586142 0.12684733 -0.0028161677 -0.22792444 0.020209584 -0.06861157
0.061847385 0.23042955 -0.11032257 -0.025100073 0.15704736 -0.16995734 -0.1684111 -0.17804076
0.008758382 0.1759707 -0.17151584 0.10141057 0.016492158 0.20587853 -0.16343176 -0.19417003
0.0110054 0.23401868 -0.069062635 -0.034134064 -0.18586993 0.16286954 -0.0026467857 0.16029789
0.08468502 -0.14946519 0.07247636 -0.14989494 0.16851644 0.0748156 -0.09796773 -0.08729698
-0.015432891 0.17392133 -0.22793654 0.15688351 0.12546241 0.060587566 -0.07026321 0.1983203
0.0028016167 -0.06747101 0.14656375 0.028627206 -0.099373385 -0.10956434 -0.08143698 -0.14108168
-0.04212941 0.04454258 0.069504425 -0.0974078 0.016527893 0.10091818 0.21103777 -0.027843961
-0.057081547 0.15478532 0.07632911 -0.09535846 0.093422666 0.09689832 -0.14856899 0.074294016
0.0017590774 -0.16817692 0.045479394 -0.16681868 -0.07631493 0.22232774 0.17463548 0.05378786
-0.017351976 -0.13100743 0.07932902 -0.06210081 -0.11345979 -0.091666915 -0.03966548 0.13142678
-0.15007618 -0.07077566 0.02192238 0.20368668 0.20864606 -0.11334249 -0.17933498 0.0021738366
-0.22199294 -0.0066763833 -0.204164 0.18875903 -0.040737383 -0.07853362 0.16256998 0.066966414
-0.055449117 -0.08636183 -0.042850193 -0.10941173 -0.018894326 0.025866935 0.15413564 -0.0003746837
-0.15419726 -0.12755664 -0.17778485 0.0602381 0.051469587 0.20474909 -0.0013360673 0.19246304
-0.27111506 0.09352645 -0.106215775 0.012720755 -0.18686782 0.1649533 -0.010787909 -0.02909182
-0.22868001 0.08617004 0.0801579 0.14184192 0.21327506 -0.0067632142 -0.24058841 0.1685541
-0.112691246 -0.170212 0.113416895 -0.021742525 -0.022170749 0.06270755 0.13854511 0.060953032
-0.21130131 -0.23366101 0.07661171 -0.10005558 -0.19231944 -0.1211483 0.22135206 0.11993494
-0.089751855 -0.2258176 0.093231246 -0.021300003 0.211999 -0.16836205 -0.15946782 -0.0044265455
-0.055714786 0.051243197 -0.099275485 0.07645892 -0.03150769 -0.060490586 0.19835944 0.050591525
0.18082203 0.017460657 0.13594231 -0.22405344 -0.09646661 -0.10600156 -0.011836157 -0.113821864
-0.1357705 0.2126135 -0.14000122 -0.023724666 0.057379708 -0.012176501 0.24496488 0.07126757
-0.13907526 0.09670702 -0.1444535 -0.16220872 0.011737028 0.1393178 0.17251234 0.019476091
-0.0077942386 -0.016665008 0.011501063 -0.005055262 0.20205551 -0.015467509 -0.13097858 0.1838886
-0.035820805 0.020548344 0.16485697 -0.19409522 -0.0025322887 0.18609251 0.047867376 0.14436458
0.034728345 -0.010712318 0.07447707 -0.06328565 -0.0025669844 -0.033092357 0.07578652 0.09794139
-0.15529512 0.010565383 0.17319241 -0.009301085 0.20485008 -0.009012086 -0.045169976 -0.19577028
-0.14300819 0.1580745 -0.099724464 0.14357764 -0.14636555 -0.184726 -0.028337672 0.05957949
0.08260192 -0.0899828 0.13802618 0.0038148086 -0.18430404 -0.23798504 0.049284004 -0.047033366
-0.09429417 0.08497717 -0.0797191 -0.0964477 0.09749533 0.18103151 0.1282414 0.020084629
00000000: d72b 093d 125d 3dbd 526b 0dbe 4bac 4e3e
00000010: d7f7 9b3d 5c2e 14be 271a bfbd 0643 213e
00000020: 1948 803e a054 4ebd 1dd8 afbd 44e4 013e
00000030: 748f 38bb 0665 69be 928e a53c 3984 8cbd
00000040: af53 7d3d b9f5 6b3e cdf0 e1bd ab9e cdbc
00000050: 06d1 203e 4c09 2ebe f673 2cbe 5150 36be
00000060: 517f 0f3c aa31 343e d9a1 2fbe 58b0 cf3d
00000070: 901a 873c d2d1 523e a85a 27be 82d4 46be
00000080: fe4f 343c 98a2 6f3e b670 8dbd 29d0 0bbd
00000090: b054 3ebe 46c7 263e b275 2dbb 2125 243e
000000a0: 576f ad3d 670d 19be 7c6e 943d 0f7e 19be
000000b0: 938f 2c3e ec38 993d 4ea3 c8bd c2c8 b2bd
000000c0: 3dda 7cbc 6f18 323e 3268 69be 12a6 203e
000000d0: 3879 003e ab2a 783d 28e6 8fbd 7a14 4b3e
000000e0: 549b 373b 3e2e 8abd cf14 163e 9a83 ea3c
000000f0: 4684 cbbd 4563 e0bd 6ec8 a6bd b777 10be
00000100: e38f 2cbd 4872 363d 5658 8e3d be7d c7bd
00000110: 8165 873c 31ae ce3d 491a 583e 0519 e4bc
00000120: 57ce 69bd 0b80 1e3e 7052 9c3d 4c4b c3bd
00000130: 6254 bf3d a072 c63d 7822 18be 7627 983d
00000140: d890 e63a 9236 2cbe 9a48 3a3d 84d2 2abe
00000150: 014b 9cbd e2a9 633e a5d3 323e a950 5c3d
00000160: bb25 8ebc d026 06be 4177 a23d 6b5d 7ebd
00000170: 9b5d e8bd ddbb bbbd 4578 22bd be94 063e
00000180: 92ad 19be d4f2 90bd 9096 b33c 3e93 503e
00000190: 50a7 553e 1b20 e8bd 97a3 37be ed76 0e3b
000001a0: 1e52 63be 90c5 dabb 5e10 51be 0c4a 413e
000001b0: 3edc 26bd 3cd6 a0bd bf78 263e b025 893d
000001c0: 9d1e 63bd 79de b0bd af83 2fbd 4213 e0bd
000001d0: 46c8 9abc e5e6 d33c bcd5 1d3e 3271 c4b9
000001e0: e3e5 1dbe 359e 02be 3b0d 36be 3abc 763d
000001f0: c6d1 523d bfa9 513e fb1e afba 0815 453e
00000200: 98cf 8abe cc8a bf3d a887 d9bd b76a 503c
00000210: 475a 3fbe 85e9 283e c5bf 30bc f851 eebc
00000220: 182b 6abe eb79 b03d d329 a43d 023f 113e
00000230: c764 5a3e f49d ddbb cf5c 76be 7299 2c3e
00000240: abca e6bd 0e4c 2ebe 1e47 e83d 611d b2bc
00000250: 6e9f b5bc d16c 803d c5de 0d3e e3a9 793d
00000260: 5f5f 58be d544 6fbe 9ae6 9c3d f1e9 ccbd
00000270: 63ef 44be 9a1c f8bd 1daa 623e 73a0 f53d
00000280: d2cf b7bd bb3c 67be 06f0 be3d 587d aebc
00000290: 4416 593e 1a67 2cbe 884b 23be 8e0c 91bb
000002a0: 3035 64bd 63e4 513d f250 cbbd 7f96 9c3d
000002b0: 350e 01bd fac4 77bd bd1e 4b3e 0f39 4f3d
000002c0: 6929 393e a709 8f3c 7634 0b3e 446e 65be
000002d0: 4990 c5bd 5917 d9bd 71ec 41bc 701b e9bd
000002e0: 6c07 0bbe 5ab7 593e 7b5c 0fbe 3b5a c2bc
000002f0: fc06 6b3d f27f 47bc 13d8 7a3e bbf4 913d
00000300: bf69 0ebe 550e c63d 9eeb 13be 0b1a 26be
00000310: aa4c 403c 53a9 0e3e 13a7 303e 538c 9f3c
00000320: d066 ffbb 0e85 88bc f46e 3c3c 9ca6 a5bb
00000330: a4e7 4e3e 6f6b 7dbc 401f 06be 4b4d 3c3e
00000340: d6b8 12bd 0055 a83c 44d0 283e e6c0 46be
00000350: c1f4 25bb 098f 3e3e 9510 443d 4fd4 133e
00000360: 4f3f 0e3d b882 2fbc 6f87 983d e89b 81bd
00000370: da3a 28bb da8b 07bd f735 9b3d 7f95 c83d
00000380: af05 1fbe 6e1a 2d3c 5a59 313e 9463 18bc
00000390: 38c4 513e 6ea7 13bc 2704 39bd 0178 48be
000003a0: bd70 12be 48de 213e 573c ccbd 0406 133e
000003b0: dae0 15be d028 3dbe 6824 e8bc a009 743d
000003c0: 322b a93d e748 b8bd bc56 0d3e de01 7a3b
000003d0: 33ba 3cbe 5ab2 73be 06de 493d 0fa6 40bd
000003e0: 4d1d c1bd 8308 ae3d c443 a3bd 5f86 c5bd
000003f0: a2ab c73d 5360 393e b751 033e 8588 a43c

gru.bias_ih_l0 f4 [192]
-0.19972911 0.14697172 -0.034672886 0.16206159 0.014637984 0.09403968 0.076220356 0.08246134
0.07715413 0.11893788 0.07039104 -0.12404393 0.1290049 0.21158576 0.10883247 0.14488988
0.18346843 0.06829332 -0.06679848 0.15363893 0.04143249 0.11904806 0.15532939 0.14195204
0.095598996 0.045960568 -0.033643506 0.010763436 0.18529916 0.005289989 0.039591588 0.06722859
0.17832217 0.10546967 0.15352377 -0.055704724 0.1065246 0.048041135 0.11934106 0.23657538
0.17873095 0.022267487 0.06207363 -0.023900332 0.058606017 -0.008746989 -0.03609068 -0.03135964
-0.028138608 0.047030505 0.10923195 0.2305896 0.15999804 0.031623777 0.14262196 0.07191235
-0.024377462 -0.1556882 0.18197241 0.009690023 0.090221666 0.0042766486 0.12475163 -0.023530522
-0.19428052 0.040677294 0.37393603 0.181158 -0.11201875 -0.13684534 0.007057165 -0.013861375
0.09684497 -0.2850109 -0.075453326 -0.113972366 -0.26304877 -0.17188683 -0.058539942 -0.15438372
0.047976915 -0.080720134 0.035676494 -0.06918935 0.16160195 0.020139491 -0.0104914205 -0.14281298
-0.022761136 -0.076004475 0.010370468 0.10943915 -0.007376069 0.018609542 -0.046043973 -0.24185118
0.13133809 -0.024553541 0.2462391 -0.17743605 -0.17022276 -0.17688662 0.027746633 0.27605847
-0.109575175 0.11951224 0.06598609 0.054652162 0.027956534 -0.034207504 -0.02569765 0.03845529
-0.24872845 0.0741425 0.15757385 -0.07340077 -0.17000125 0.065481044 0.07077147 -0.014012678
-0.07183455 -0.0015430949 0.13125649 0.22561699 -0.16693953 -0.04848104 -0.11123542 0.08761628
-0.094829 0.109757125 0.018141197 -0.13271816 -0.16859108 0.145291 0.110275485 -0.20718616
-0.1632515 0.1703967 0.22305699 -0.04170575 0.15552554 0.14307392 -0.16748911 0.15183498
-0.16580299 -0.15956725 0.004684332 0.01104121 -0.17400475 0.16589731 0.1959833 0.18448025
-0.1339636 0.03051859 0.13797821 -0.21817341 -0.19011709 -0.13589914 0.16305889 0.20095989
-0.2572754 -0.23832098 -0.01133128 0.2020246 0.15250961 -0.1498485 -0.14747982 -0.035482354
-0.19242837 0.08486559 -0.013043786 0.1801372 -0.14289017 -0.16758479 0.23152375 0.040809818
0.09657353 -0.030881604 0.13635997 -0.120781854 -0.2284722 -0.07028208 0.17838544 -0.21930191
-0.12744048 0.119937904 -0.122915246 -0.0547092 0.10056746 0.21720208 0.18663217 0.22191995
00000000: ca85 4cbe c17f 163e 2805 0ebd 79f3 253e
00000010: 28d4 6f3c e097 c03d 6b19 9c3d 7ee1 a83d
00000020: fc02 9e3d b495 f33d 2d29 903d be0a febd
00000030: dc19 043e f0a9 583e 8fe3 de3d 035e 143e
00000040: 26df 3b3e 5edd 8b3d a4cd 88bd 8653 1d3e
00000050: 1db5 293d 78cf f33d ab0e 1f3e e05b 113e
00000060: 68c9 c33d 2641 3c3d c6cd 09bd 1f59 303c
00000070: 10bf 3d3e a557 ad3b ca2a 223d 25af 893d
00000080: 169a 363e 7b00 d83d 5635 1d3e a32a 64bd
00000090: 9229 da3d c8c6 443d 1669 f43d d140 723e
000000a0: 3f05 373e 4e6a b63c eb40 7e3d a1ca c3bc
000000b0: dd0c 703d 884f 0fbc d2d3 13bd f772 00bd
000000c0: f082 e6bc 0fa3 403d 00b5 df3d ae1f 6c3e
000000d0: 87d6 233e ef87 013d 7e0b 123e c846 933d
000000e0: 3eb3 c7bc ba6c 1fbe fa56 3a3e e7c2 1e3c
000000f0: 23c6 b83d 2123 8c3b c87d ff3d 15c3 c0bc
00000100: 79f1 46be 3c9d 263d 8b74 bf3e 7c81 393e
00000110: 166a e5bd 2f21 0cbe ca3f e73b d21a 63bc
00000120: a856 c63d f3ec 91be 4687 9abd 586a e9bd
00000130: 54ae 86be 1a03 30be 94c7 6fbd c416 1ebe
00000140: 7183 443d 9950 a5bd 8421 123d 25b3 8dbd
00000150: fb7a 253e 93fb a43c 35e4 2bbc 913d 12be
00000160: 9075 babc 3ca8 9bbd e5e8 293c a221 e03d
00000170: f4b2 f1bb 0a73 983c 9b98 3cbd d6a7 77be
00000180: 7e7d 063e 8224 c9bc 1a26 7c3e ccb1 35be
00000190: e04e 2ebe c421 35be e84c e33c 8957 8d3e
000001a0: f368 e0bd d5c2 f43d b723 873d f2da 5f3d
000001b0: 1a05 e53c 2b1d 0cbd e183 d2bc 4b83 1d3d
000001c0: acb2 7ebe 06d8 973d 0a5b 213e 2553 96bd
000001d0: cf14 2ebe ed1a 863d a2f0 903d 6e95 65bc
000001e0: fe1d 93bd ac41 caba 1a68 063e 2408 673e
000001f0: 32f2 2abe 0e94 46bd 65cf e3bd 2a70 b33d
00000200: b535 c2bd 58c8 e03d d99c 943c 45e7 07be
00000210: 24a3 2cbe 2ac7 143e 1dd8 e13d 9c28 54be
00000220: 672b 27be 797c 2e3e 0d69 643e a6d3 2abd
00000230: 1642 1f3e f881 123e 4482 2bbe a17a 1b3e
00000240: 42c8 29be 9965 23be 067f 993b 31e6 343c
00000250: 4d2e 32be fce0 293e d9af 483e 64e8 3c3e
00000260: c12d 09be 1f02 fa3c 294a 0d3e da68 5fbe
00000270: 0eae 42be 2529 0bbe e9f8 263e 6ec8 4d3e
00000280: 9ab9 83be 6a0a 74be d5a6 39bc 89df 4e3e
00000290: 7b2b 1c3e e371 19be f304 17be f255 11bd
000002a0: f10b 45be 03ce ad3d 9bb5 55bc e375 383e
000002b0: cd51 12be 599b 2bbe 9014 6d3e 3228 273d
000002c0: 58c8 c53d 6bfb fcbc f3a1 0b3e 7a5c f7bd
000002d0: 9ef4 69be 0df0 8fbd acaa 363e ae90 60be
000002e0: c27f 02be 01a2 f53d fdba fbbd c116 60bd
000002f0: 50f6 cd3d 396a 5e3e 811c 3f3e fc3e 633e

gru.bias_hh_l0 f4 [192]
-0.12394664 0.2048296 0.023602108 -0.0035727022 0.13284926 0.19553709 0.08139448 0.090780206
0.19688527 0.10079138 0.05205377 -0.033247676 0.14015959 0.057054147 0.15568607 0.055418357
0.20187774 0.09378778 -0.1668504 0.15926898 -0.11059957 0.06353981 0.0052601015 0.17809157
0.13034397 0.055610396 0.17840677 0.05213046 0.026355693 0.13297406 -0.0028592637 0.14775857
-0.014284189 0.22833808 0.04997176 0.007547096 0.21079917 0.18778689 0.13037756 0.11792386
0.10379783 0.16206847 0.03030483 0.06981568 0.18039706 0.015469696 0.0007566943 -0.022278508
-0.05949387 -0.006471199 0.18294542 0.030481223 0.08938395 0.025000839 0.1325182 0.18187068
-0.0108792465 -0.12385858 0.085323066 -0.04482434 0.14637728 0.116181225 -0.045348078 0.021909794
0.0041293213 -0.10329955 0.45786908 0.3302538 0.037506636 -0.13642307 -0.1838948 -0.2475586
0.09062481 -0.17347425 -0.18883379 -0.043581493 -0.23643333 -0.082663216 -0.1729822 -0.045667794
-0.0698144 -0.11511816 -0.16972552 -0.19468811 0.19778298 -0.04993033 -0.026046876 -0.06211095
-0.13623917 -0.19280681 -0.0076517444 -0.036011025 -0.12403137 0.11304969 0.13370955 -0.26399598
0.07103078 0.035205156 0.17131513 0.000496796 -0.12111216 -0.12827604 -0.12896156 0.38143733
-0.14609656 0.024505975 0.069374725 -0.057919346 -0.15124512 -0.056551393 -0.08556776 0.046955924
-0.10138973 -0.031955928 0.21767566 -0.01192814 -0.048972063 -0.17182949 -0.015070212 0.03503447
-0.14505747 -0.11301595 -0.0039741476 0.1874584 -0.013521501 0.1557589 0.012060197 0.09167761
-0.17396711 0.20568681 -0.102451004 -0.0063314373 -0.21864608 0.23171845 0.18096566 -0.041071933
-0.21282075 0.23754257 0.14403325 -0.01656124 0.22667232 0.18210705 -0.050699838 0.19994783
-0.15495245 -0.03737278 0.102044776 -0.10250299 -0.13766454 0.13596478 0.1952494 0.019202325
-0.13888836 -0.13891499 0.18578584 -0.14068758 -0.13969642 -0.19072339 0.008827737 0.08634599
-0.017072413 -0.219468 -0.06865893 0.016706154 0.15193604 -0.121801056 -0.03286078 -0.08409022
-0.0013625919 0.18245934 -0.10991765 0.12913467 -0.15976495 -0.18496226 0.09903608 0.12416382
0.0045791534 -0.13459499 -0.035814334 -0.24041094 -0.1497805 -0.1502502 0.09054004 -0.0044258763
-0.10017217 -0.0027913272 -0.13644207 0.09186089 0.22992747 0.053352233 0.15015331 0.011402591
00000000: bcd7 fdbd dabe 513e 3559 c13c ff23 6abb
00000010: a309 083e e03a 483e 26b2 a63d f9ea b93d
00000020: 4b9c 493e b66b ce3d 5536 553d b72e 08bd
00000030: ff85 0f3e 9cb1 693d 2b6c 1f3e 5cfe 623d
00000040: 0ab9 4e3e cf13 c03d d5da 2abe 6817 233e
00000050: 0782 e2bd 2921 823d ee5c ac3b a35d 363e
00000060: e478 053e bac7 633d 44b0 363e c086 553d
00000070: e5e7 d73c 5a2a 083e 7c62 3bbb 064e 173e
00000080: 3b08 6abc 75d1 693e 30af 4c3d a14d f73b
00000090: bddb 573e 354b 403e b281 053e 1182 f13d
000000a0: f593 d43d 47f5 253e d641 f83c 86fb 8e3d
000000b0: 02ba 383e 9c74 7d3c e55c 463a 6b81 b6bc
000000c0: d8af 73bd 5a0c d4bb 0b56 3b3e c2b3 f93c
000000d0: ef0e b73d 8fce cc3c dab2 073e 4f3c 3a3e
000000e0: de3e 32bc 91a9 fdbd dcbd ae3d ba99 37bd
000000f0: ede3 153e 6cf0 ed3d e8be 39bd 2b7c b33c
00000100: 424f 873b b78e d3bd d16d ea3e 0717 a93e
00000110: 8fa0 193d 7db2 0bbe eb4e 3cbe 0080 7dbe
00000120: 8099 b93d 3ca3 31be a55d 41be 8282 32bd
00000130: 941b 72be 554b a9bd 3f22 31be 270e 3bbd
00000140: dafa 8ebd 12c3 ebbd 87cc 2dbe 525c 47be
00000150: 9f87 4a3e bf83 4cbd 4260 d5bc 0d68 7ebd
00000160: 4882 0bbe 266f 45be 7cbb fabb 4c80 13bd
00000170: 2904 febd 9986 e73d 28eb 083e 7b2a 87be
00000180: 9678 913d 4833 103d 3c6d 2f3e 6a3b 023a
00000190: a709 f8bd cb5a 03be 800e 04be c14b c33e
000001a0: 569a 15be c1c0 c83c 5614 8e3d d63c 6dbd
000001b0: 00e0 1abe 6fa2 67bd 263e afbd db54 403d
000001c0: 6ba5 cfbd 38e4 02bd 5ee6 5e3e 3f6e 43bc
000001d0: ee96 48bd 12f4 2fbe 0de9 76bc 4e80 0f3d
000001e0: f289 14be e874 e7bd 9139 82bb 18f5 3f3e
000001f0: 4989 5dbc 437f 1f3e 2298 453c 79c1 bb3d
00000200: 6f24 32be 909f 523e d5d1 d1bd f277 cfbb
00000210: c2e4 5fbe 9a47 6d3e 104f 393e 0b3b 28bd
00000220: afed 59be 5c3e 733e 747d 133e 70ab 87bc
00000230: ca1c 683e 457a 3a3e a2aa 4fbd 20bf 4c3e
00000240: dbab 1ebe 3314 19bd dafc d03d 16ed d1bd
00000250: eff7 0cbe 5a3a 0b3e 75ef 473e 324e 9d3c
00000260: c038 0ebe bb3f 0ebe a53e 3e3e 6810 10be
00000270: 940c 0fbe fe4c 43be 36a2 103c 2bd6 b03d
00000280: 72db 8bbc 38bc 60be 0e9d 8cbd 58db 883c
00000290: 1f95 1b3e d572 f9bd 0699 06bd 7e37 acbd
000002a0: ff98 b2ba 9fd6 3a3e 811c e1bd e13b 043e
000002b0: 6c99 23be bf66 3dbe 6ed3 ca3d 9a49 fe3d
000002c0: b90c 963b 45d3 09be 0db2 12bd 492e 76be
000002d0: 0f60 19be 30db 19be 0e6d b93d f106 91bb
000002e0: 1127 cdbd b3ee 36bb 78b7 0bbe 9021 bc3d
000002f0: 1b72 6b3e df87 5a3d cac1 193e efd1 3a3c

notes_decoder.weight f4 [128, 64]
0.068601094 -0.09578709 0.1561314 0.18061234 0.18628682 -0.057688493 -0.04805719 0.07642309
0.14232711 -0.193801 -0.27495095 0.017396336 -0.08474269 -0.28383276 0.054576166 -0.2178454
0.23385799 0.0767788 0.06499252 0.0431149 0.29170752 -0.18389682 -0.27821106 -0.16733555
0.2844841 0.1994826 -0.18893017 0.19336228 0.16326141 0.13010733 -0.17977887 -0.12795512
0.15099218 0.1448074 -0.07350491 -0.26427448 -0.18642054 0.19469047 0.15332286 0.22530712
0.09832366 -0.19478162 0.13869403 -0.24262165 0.05188111 0.28129876 -0.17360143 -0.2122378
0.028566739 0.17853746 -0.12186534 0.2248407 0.14350614 0.1278574 -0.1897612 0.12523201
0.24859488 -0.1261394 0.13992564 0.090343475 -0.11347312 -0.1248846 -0.11562321 -0.06895936
0.049823813 -0.06423476 0.03928933 0.1964569 0.12224225 -0.27920222 -0.11129543 0.14692882
0.1699904 -0.26256788 -0.15613164 0.11112497 -0.08686657 -0.07432533 0.27652797 -0.15978096
0.29271084 0.27285185 -0.030201415 0.14550999 0.19689488 -0.122632824 -0.09971139 -0.2171717
0.09146556 0.22553612 -0.2023575 0.1876927 0.29031575 0.13335654 -0.15692751 -0.19475938
0.15131356 0.13314849 -0.041258056 -0.16549295 -0.20464498 0.2136697 0.13583764 0.18435484
0.18154544 -0.21558222 0.052204255 -0.0838983 0.27929306 0.09964669 -0.20572177 -0.057473913
0.016928108 0.0919583 -0.15186445 0.1678987 0.16701272 0.19992709 -0.2137822 0.15884125
0.2870371 0.002358172 0.23083386 0.034262963 -0.2587173 -0.065369174 -0.14201877 -0.13131335
-0.033859476 -0.20798329 0.17605914 0.23991673 0.26020432 -0.09174537 -0.0739906 0.21243066
0.2990731 -0.07664016 -0.16763858 -0.07566363 -0.26934072 -0.27006888 0.14533335 -0.115657665
0.09220992 0.087938234 0.01804172 0.025222534 0.21536495 -0.10847445 -0.16936888 -0.24230014
0.27746367 0.22063436 -0.20117137 0.23439026 0.2387828 0.1971086 -0.17458309 -0.19113576
0.09118363 0.096147 -0.18997853 -0.21829808 -0.20601599 0.16807693 0.15874085 0.17456563
0.20310242 -0.054861043 0.062051225 -0.11211139 0.28263563 0.18624052 -0.2559463 -0.055895016
0.11505043 0.12747385 -0.20743771 0.15432498 0.25095063 0.19949666 -0.097228155 0.13433947
0.1713407 -0.03454142 0.08798641 0.14749688 -0.035529807 -0.071786605 -0.0976454 -0.173394
0.047059957 -0.1676891 0.22915237 0.098465845 0.09275324 -0.14526129 -0.07810878 0.08142705
0.24923478 -0.12694924 -0.230073 0.05262105 -0.25185448 -0.06572853 0.2739862 -0.14505039
0.13768345 0.08015048 0.0710913 0.23606716 0.12878072 -0.118068606 -0.28016073 -0.08138563
0.22666916 0.22608556 -0.053128686 0.29634687 0.09320085 0.2651345 -0.18775046 -0.29139006
0.22498259 0.28322688 -0.0926983 -0.24992333 -0.074170075 0.18266857 0.2782833 0.16574562
0.25134742 -0.12960951 -0.005230272 -0.12022027 0.20000237 0.1156888 -0.2859865 -0.16570164
-0.06135632 0.086543195 -0.21577278 0.06006959 0.05545842 0.13094135 -0.076617576 0.19162384
0.14604376 0.034210447 0.27257007 -0.010308406 -0.13123931 -0.111347005 -0.033619683 -0.29551563
00000000: bb7e 8c3d 062c c4bd e9e0 1f3e 71f2 383e
00000010: f9c1 3e3e c54a 6cbd 9ed7 44bd b683 9c3d
00000020: 33be 113e c573 46be 5fc6 8cbe c382 8e3c
00000030: 938d adbd 8752 91be 428b 5f3d dd12 5fbe
00000040: 7878 6f3e 343e 9d3d cc1a 853d 4099 303d
00000050: b05a 953e 734f 3cbe ae71 8ebe 035a 2bbe
00000060: e6a7 913e 2b45 4c3e e976 41be c300 463e
00000070: 002e 273e db3a 053e f417 38be ab06 03be
00000080: b29d 1a3e 6448 143e be89 96bd fc4e 87be
00000090: 07e5 3ebe f05c 473e ab00 1d3e e9b6 663e
000000a0: ea5d c93d d574 47be cf05 0e3e cf71 78be
000000b0: 4981 543d 6406 903e 93c4 31be de54 59be
000000c0: cb04 ea3c 86d2 363e 8994 f9bd a43c 663e
000000d0: 46f3 123e 0ded 023e c350 42be d23c 003e
000000e0: a88f 7e3e b02a 01be ab48 0f3e 0006 b93d
000000f0: 9864 e8bd 7fc3 ffbd ddcb ecbd 913a 8dbd
00000100: 0e14 4c3d 848d 83bd d9ed 203d ff2b 493e
00000110: 255a fa3d 98f3 8ebe dcee e3bd 8274 163e
00000120: f711 2e3e 4c6f 86be f9e0 1fbe 7d95 e33d
00000130: 1ae7 b1bd e137 98bd 1395 8d3e 9f9d 23be
00000140: 32de 953e 3db3 8b3e f568 f7bc 9200 153e
00000150: d09e 493e eb26 fbbd 7c35 ccbd 4262 5ebe
00000160: 4c52 bb3d f1f2 663e ce36 4fbe 8432 403e
00000170: 44a4 943e 9e8e 083e 9bb1 20be 016f 47be
00000180: f1f1 1a3e 1458 083e 35fe 28bd fc76 29be
00000190: 748e 51be 3bcc 5a3e 0619 0b3e 84c7 3c3e
000001a0: 0ce7 393e 96c1 5cbe 21d4 553d dfd2 abbd
000001b0: 80ff 8e3e 9013 cc3d baa8 52be c469 6bbd
000001c0: d1ac 8a3c a254 bc3d 5b82 1bbe a3ed 2b3e
000001d0: 6205 2b3e b0b9 4c3e b9e9 5abe 48a7 223e
000001e0: 87f6 923e 908b 1a3b b65f 6c3e 5257 0c3d
000001f0: 9876 84be 46e0 85bd 5e6d 11be 0277 06be
00000200: 3cb0 0abd 92f9 54be d948 343e bbac 753e
00000210: 8039 853e ffe4 bbbd 6288 97bd 6c87 593e
00000220: 1c20 993e 84f5 9cbd 73a9 2bbe 89f5 9abd
00000230: 07e7 89be 7846 8abe 44d2 143e eddd ecbd
00000240: 8ed8 bc3d f618 b43d 3bcc 933c 7d9f ce3c
00000250: a188 5c3e da27 debd 096f 2dbe 871d 78be
00000260: b80f 8e3e f9ed 613e deff 4dbe 0004 703e
00000270: 7a83 743e d6d6 493e e9c5 32be 18b9 43be
00000280: 7cbe ba3d b8e8 c43d bb89 42be 8889 5fbe
00000290: dbf5 52be 5c1c 2c3e f68c 223e 55c1 323e
000002a0: 15fa 4f3e f9b5 60bd 6d29 7e3d a89a e5bd
000002b0: 9eb5 903e d6b5 3e3e 650b 83be 2cf2 64bd
000002c0: 8f9f eb3d 8188 023e 8d6a 54be 5e07 1e3e
000002d0: 9a7c 803e da48 4c3e 8e1f c7bd 4990 093e
000002e0: f073 2f3e 4e7b 0dbd 3832 b43d 6c09 173e
000002f0: b487 11bd db04 93bd 50fa c7bd 328e 31be
00000300: f1c1 403d b1b6 2bbe eba6 6a3e 76a8 c93d
00000310: 69f5 bd3d 60bf 14be 7ff7 9fbd 3ac3 a63d
00000320: 6737 7f3e fbfe 01be 4298 6bbe 2c89 573d
00000330: 12f3 80be ae9c 86bd eb47 8c3e 1788 14be
00000340: e4fc 0c3e ef25 a43d 5198 913d 97bb 713e
00000350: 18df 033e f4cd f1bd 3a71 8fbe 82ad a6bd
00000360: f61b 683e f982 673e 779d 59bd c7ba 973e
00000370: 16e0 be3d b6bf 873e a841 40be 1431 95be
00000380: d661 663e 1d03 913e 9bd8 bdbd e7eb 7fbe
00000390: 7be6 97bd 780d 3b3e 267b 8e3e 38b9 293e
000003a0: 9cb0 803e 5bb8 04be b462 abbb 0b36 f6bd
000003b0: 6ccd 4c3e 40ee ec3d d36c 92be b1ad 29be
000003c0: c450 7bbd 8f3d b13d 8af3 5cbe 880b 763d
000003d0: 5e28 633d 7d15 063e ade9 9cbd 0a39 443e
000003e0: 7f8c 153e 4120 0c3d 4e8e 8b3e 97e4 28bc
000003f0: 9963 06be e609 e4bd cbb4 09bd d34d 97be

notes_decoder.bias f4 [128]
-0.03158835 -0.17976028 -0.14099163 -0.24100256 -0.14152846 -0.1440414 -0.20134954 -0.17609707
-0.23587024 -0.25026262 -0.15055585 -0.05636976 -0.04817615 -0.1849163 -0.057259154 -0.2214129
-0.044482484 -0.20136377 -0.05509773 -0.08120358 -0.1580804 -0.12468967 -0.057994857 -0.13588756
-0.07782236 -0.19500893 -0.08153435 -0.08649498 -0.09793704 -0.033504322 -0.16857927 -0.20452106
-0.19049083 -0.121230975 -0.076531604 -0.036702905 -0.12562104 -0.06555298 -0.033701457 -0.21222135
-0.17605345 -0.078680925 -0.23653303 -0.17049417 -0.22102065 -0.11765788 -0.12572588 -0.12899484
-0.15128829 -0.037920807 -0.073314786 -0.039980985 -0.026187634 -0.15449844 -0.2299915 -0.16208187
-0.17888518 -0.033552013 0.005605798 -0.24416599 -0.00512752 -0.034935508 -0.031005062 -0.14216597
-0.014623003 -0.22464055 -0.023363499 -0.10604573 -0.21655217 -0.18512413 -0.14752284 -0.17164849
-0.2102618 -0.05718774 -0.10633292 -0.14024521 -0.21455824 -0.03959141 -0.16172494 -0.09053219
-0.21812269 -0.2228637 -0.20508212 -0.21146919 -0.17482066 -0.112685695 -0.05649955 -0.1941176
-0.03954815 -0.11446798 -0.23989587 -0.07650848 -0.1738463 -0.07391071 -0.20182209 -0.25772977
-0.066597074 -0.010066347 -0.18901986 -0.18288735 -0.045493264 -0.066115655 -0.0630475 -0.22369531
-0.25155485 -0.04972849 -0.25176683 -0.26581275 -0.23847461 -0.11337486 -0.06410069 -0.14299543
-0.21531248 -0.08433293 -0.07939776 -0.13922349 -0.20177889 -0.21591611 -0.2262666 -0.16310433
-0.068873756 -0.23202169 -0.13331276 -0.06612526 -0.045364287 -0.050649732 -0.20232373 -0.11429546
00000000: c962 01bd 1413 38be 1c60 10be 60c9 76be
00000010: d6ec 10be 977f 13be 932e 4ebe ca52 34be
00000020: f887 71be 6c22 80be 502b 1abe fae3 66bd
00000030: 5b54 45bd b35a 3dbe 9388 6abd 10ba 62be
00000040: 4433 36bd 4e32 4ebe 28ae 61bd 104e a6bd
00000050: d4df 21be 4c5d ffbd 048c 6dbd 1c26 0bbe
00000060: 5461 9fbd 6cb0 47be 7bfb a6bd 4824 b1bd
00000070: 3793 c8bd d43b 09bd 0ba0 2cbe f86d 51be
00000080: 0710 43be f247 f8bd 9abc 9cbd c955 16bd
00000090: cda2 00be a440 86bd 8a0a 0abd 8e50 59be
000000a0: 5b47 34be 7723 a1bd b735 72be 0696 2ebe
000000b0: 3d53 62be 9df6 f0bd 49be 00be 3917 04be
000000c0: 51eb 1abe d952 1bbd 1026 96bd 1ac3 23bd
000000d0: 7387 d6bc d734 1ebe e482 6bbe caf8 25be
000000e0: ad2d 37be d66d 09bd d8b0 b73b a606 7abe
000000f0: c104 a8bb 8918 0fbd 54fe fdbc f593 11be
00000100: 5295 6fbc 2c08 66be cf64 bfbc 812e d9bd
00000110: dabf 5dbe 2e91 3dbe 3a10 17be 9fc4 2fbe
00000120: df4e 57be b13d 6abd 13c5 d9bd 719c 0fbe
00000130: 28b5 5bbe 9a2a 22bd 399b 25be f168 b9bd
00000140: 8e5b 5fbe 6236 64be 0c01 52be 618b 58be
00000150: 3004 33be c2c7 e6bd 126c 67bd c4c6 46be
00000160: 3efd 21bd 306e eabd 43a7 75be 7ab0 9cbd
00000170: c404 32be 805e 97bd 73aa 4ebe 28f5 83be
00000180: 0c64 88bd 52ed 24bc 6c8e 41be d246 3bbe
00000190: 2557 3abd a567 87bd 0c1f 81bd 6210 65be
000001a0: cccb 80be 1ab0 4bbd 95e7 80be 9c18 88be
000001b0: b032 74be 1431 e8bd 3947 83bd 656d 12be
000001c0: e07a 5cbe beb6 acbd 4b9b a2bd 9a90 0ebe
000001d0: 209f 4ebe 1d19 5dbe 6eb2 67be d204 27be
000001e0: af0d 8dbd 1897 6dbe 2483 08be ae6c 87bd
000001f0: e7cf 39bd 1876 4fbd f42d 4fbe bd13 eabd
