saved_models/model_generalist_test1_4.pth (torch_old, 167373 bytes, 8 tensors)

notes_encoder.weight f4 [64, 128]
0.038441725 0.045547493 -0.018920697 0.046536006 0.0014383867 -0.03437934 0.050878577 -0.0054913014
0.07536521 -0.07649388 -0.06433279 -0.02057255 0.033810236 -0.07884966 0.0023595616 -0.006205268
0.08335488 0.029802807 -0.05169293 0.07014424 -0.021319158 0.043515824 1.457532 -0.060934544
0.21562997 0.08681174 0.33886147 -0.73522586 0.86047524 0.37619296 0.7140397 2.2042434
2.2850583 0.22385444 1.2958776 0.9098492 0.8745644 -0.58736485 0.5328468 0.96887195
2.2236416 0.4701125 2.316897 0.83848685 0.9836687 0.7603141 0.52980924 0.12173798
1.0961932 -0.9193783 0.8398594 1.0795027 0.20642135 0.8246188 0.9937137 0.98356515
0.48906484 0.8912232 0.896495 0.44718084 1.1323143 0.011638066 0.7264527 0.95849746
0.40558904 0.9988896 0.8864369 1.1069816 0.9661326 -0.36692834 0.06107329 0.25854257
0.9665264 0.490362 1.044984 0.95820946 -1.1684326 0.9713946 0.5087638 1.3052064
0.46715397 -1.0098431 0.57281303 0.7022151 1.1949103 -0.9357743 0.47282296 0.0059241005
-0.6082829 -0.13519463 -1.098856 0.41695347 -0.10584989 -0.285555 0.33662271 0.83416766
0.67638725 0.215167 -0.64418375 0.28082255 -0.35805085 -0.4367909 -0.055094812 -0.03581618
0.046982355 0.07529945 -0.058132093 -0.017011218 0.005111791 -0.084703766 -0.07491598 -0.06060808
-0.07095934 0.060690783 -0.01798635 -0.03632586 0.05970175 -0.07650667 -0.0721918 -0.04153757
0.047169797 -0.062363878 0.055589758 -0.02216211 0.021648504 0.028851174 0.037488095 0.011875957
-0.044117022 -0.021951735 -0.049195234 -0.04466961 -0.0054279566 0.029710911 0.07603889 -0.022198863
0.060292147 -0.04121766 -0.014353506 -0.07587713 -0.034039587 0.028383851 -0.03945966 0.029920049
-0.033050906 0.05301047 0.019970149 0.055261813 0.0006595701 0.07752181 0.14929998 -0.016512254
0.80464333 0.012374714 1.008923 -1.1870946 0.20766899 -0.049274426 -0.97765106 -0.5901964
-0.5055603 -0.25574997 -0.31244195 -0.4548596 -0.28268492 -0.71379983 -0.50682044 -0.097174376
0.10776709 0.40608403 0.06686366 -0.60062283 -0.649001 -0.35926774 0.36208814 0.05808766
-0.046621956 -1.1309189 0.3426428 -0.17415008 -0.2865276 0.24893245 -0.7257643 -0.16746953
0.3488095 -0.26545987 0.2467197 0.17565641 -0.61033064 -1.2022929 0.07215707 -0.44842592
-0.20682302 -0.30998674 -0.36979234 0.08170983 -0.31050527 -0.250882 -0.12040904 -0.23824218
-0.5358093 -1.4617895 -0.08418617 -0.35949302 -0.98955095 -0.26418504 -0.38934943 -0.04036436
-1.1855804 -0.47041067 -0.7572852 -0.242858 -0.664211 -0.9641387 -0.8004808 -1.1833159
-1.0777583 -1.1983016 -0.51061374 -0.91553736 0.43786588 -0.5970735 -0.34976557 -0.55571645
1.2842569 1.0631036 -0.5193083 -0.40864164 0.42940265 0.098351136 0.018257245 -0.042094268
-0.079942286 -0.0010903273 -0.045106653 -0.031760138 -0.040435698 -0.0021980181 0.019573152 -0.07301929
0.04924137 -0.0060857087 0.07981411 -0.027416442 -0.03737238 -0.054606047 0.055953465 -0.07783526
0.023466162 0.010073051 0.038591765 0.04050968 0.028383344 -0.08184338 -0.015945397 0.06610636
00000000: 1275 1d3d 0290 3a3d 94ff 9abc 8a9c 3e3d
00000010: 4088 bc3a 5ad1 0cbd 0e66 503d 60f0 b3bb
00000020: 1359 9a3d d3a8 9cbd e9c0 83bd c487 a8bc
00000030: 9a7c 0a3d ee7b a1bd e0a2 1a3b 9055 cbbb
00000040: f7b5 aa3d 0425 f43c f7bb 53bd c9a7 8f3d
00000050: 84a5 aebc a63d 323d 6990 ba3f 8096 79bd
00000060: 1ace 5c3e 5bca b13d 407f ad3e c337 3cbf
00000070: 1b48 5c3f 5d9c c03e 4ecb 363f 5312 0d40
00000080: 653e 1240 193a 653e 51df a53f e1eb 683f
00000090: 74e3 5f3f 8b5d 16bf a668 083f fe07 783f
000000a0: 2550 0e40 96b2 f03e 0a48 1440 13a7 563f
000000b0: b6d1 7b3f f2a3 423f 94a1 073f c351 f93d
000000c0: 0f50 8c3f 605c 6bbf 0701 573f 252d 8a3f
000000d0: 1e60 533e 381a 533f 0564 7e3f edca 7b3f
000000e0: b566 fa3e 3427 643f b280 653f e3f4 e43e
000000f0: adef 903f 96ad 3e3c cef8 393f 1760 753f
00000100: 5ea9 cf3e 3bb7 7f3f 87ed 623f 93b1 8d3f
00000110: 7754 773f 08de bbbe fc27 7a3d b15f 843e
00000120: 466e 773f ba10 fb3e 09c2 853f 374d 753f
00000130: 338f 95bf 51ad 783f 583e 023f 0111 a73f
00000140: ce2e ef3e 8a42 81bf e0a3 123f 5ec4 333f
00000150: d2f2 983f e88e 6fbf da15 f23e f51e c23b
00000160: 6eb8 1bbf 7670 0abe 50a7 8cbf ed7a d53e
00000170: d4c7 d8bd 4434 92be d059 ac3e 038c 553f
00000180: b727 2d3f bd54 5c3e 3ae9 24bf f9c7 8f3e
00000190: 7152 b7be 0fa3 dfbe 19ab 61bd fdb3 12bd
000001a0: 9270 403d 9936 9a3d eb1b 6ebd 1c5b 8bbc
000001b0: d080 a73b 2b79 adbd 8d6d 99bd 2e40 78bd
000001c0: 2153 91bd e696 783d 1c58 93bc 6dca 14bd
000001d0: d289 743d 87af 9cbd 4bd9 93bd 4d23 2abd
000001e0: 1e35 413d 4471 7fbd 16b2 633d 508d b5bc
000001f0: 3458 b13c 4c59 ec3c 1e8d 193d 6093 423c
00000200: 0db4 34bd 20d4 b3bc f180 49bd 7bf7 36bd
00000210: 00dd b1bb 4c64 f33c 47ba 9b3d 64da b5bc
00000220: e6f4 763d d9d3 28bd f82a 6bbc 7865 9bbd
00000230: 186d 0bbd 4085 e83c 74a0 21bd e41a f53c
00000240: 6360 07bd 8221 593d 7098 a33c 365a 623d
00000250: 00e7 2c3a c1c3 9e3d 18e2 183e b544 87bc
00000260: 1bfd 4d3f 50bf 4a3c 6424 813f b7f2 97bf
00000270: 2ea7 543e fbd3 49bd 5747 7abf 1c17 17bf
00000280: 666c 01bf a9f1 82be 64f8 9fbe 5ce3 e8be
00000290: 14bc 90be 96bb 36bf fcbe 01bf 5c03 c7bd
000002a0: feb4 dc3d 3fea cf3e d1ef 883d 6bc2 19bf
000002b0: ee24 26bf f1f1 b7be 9e63 b93e 54ed 6d3d
000002c0: aaf6 3ebd f3c1 90bf e16e af3e 6654 32be
000002d0: bfb3 92be 26e8 7e3e b0cb 39bf 227d 2bbe
000002e0: 2997 b23e 5bea 87be 17a4 7c3e 46df 333e
000002f0: a13e 1cbf bce4 99bf 16c7 933d 1598 e5be
00000300: 6ac9 53be 95b6 9ebe 6c55 bdbe 7c57 a73d
00000310: 8cfa 9ebe 9b73 80be 0499 f6bd c2f5 73be
00000320: cc2a 09bf eb1b bbbf cc69 acbd 780f b8be
00000330: 3653 7dbf 4343 87be cf58 c7be 1955 25bd
00000340: 19c1 97bf abd9 f0be 71dd 41bf c4af 78be
00000350: bb09 2abf cbd1 76bf 4fec 4cbf e576 97bf
00000360: fcf3 89bf f261 99bf 95b7 02bf a860 6abf
00000370: f52f e03e cfd9 18bf 7914 b3be 6f43 0ebf
00000380: 8862 a43f c713 883f 64f1 04bf 7a39 d1be
00000390: aada db3e 526c c93d 3890 953c 0a6b 2cbd
000003a0: c8b8 a3bd 50e9 8eba c1c1 38bd eb16 02bd
000003b0: e79f 25bd a00c 10bb e057 a03c 238b 95bd
000003c0: 52b1 493d a06a c7bb 9575 a33d 7298 e0bc
000003d0: c813 19bd 97aa 5fbd 762f 653d 1868 9fbd
000003e0: 1c3c c03c 7009 253c 6612 1e3d 7aed 253d
000003f0: 3084 e83c 819d a7bd ec9f 82bc c562 873d

notes_encoder.bias f4 [64]
1.2620326 -0.41075674 0.37256545 0.95370716 0.1430184 -1.1026461 -0.96314996 -0.057117514
-0.9321782 -1.250621 -0.99193496 0.88232714 0.33798558 -0.06864695 -0.28062704 -0.94101036
0.21545276 1.1605297 0.1688801 1.0724415 0.17951095 1.1952645 -0.07952729 1.2995846
0.06006094 -0.4062603 0.11858446 -1.2098783 0.24169132 0.9614606 -0.5604215 0.37709498
0.876877 0.13226086 -1.246532 0.11788474 0.91863906 0.028683148 0.10588241 -0.24348114
-1.0225327 0.03086524 0.17023759 -0.78914607 1.1201718 -0.84101194 0.58918244 0.5502436
-0.87930346 -0.4008431 0.68139994 0.2121376 -0.14431383 -1.2587065 0.30728146 0.19534297
-1.2339269 1.023297 -0.9192159 0.29455853 -0.5069058 0.07533384 -0.023372624 -0.26531878
00000000: 498a a13f b54e d2be e6c0 be3e 2726 743f
00000010: 6a73 123e 8223 8dbf ff90 76bf 0ef4 69bd
00000020: 3ba3 6ebf 5914 a0bf 73ef 7dbf 31e0 613f
00000030: 720c ad3e c696 8cbd 59ae 8fbe 0ee6 70bf
00000040: a69f 5c3e 3d8c 943f e8ee 2c3e c345 893f
00000050: b8d1 373e 6dfe 983f 34df a2bd ca58 a63f
00000060: 7602 763d 5a01 d0be 69dc f23d 4bdd 9abf
00000070: ee7d 773e 4822 763f c977 0fbf 9812 c13e
00000080: 037b 603f 646f 073e 5c8e 9fbf 8e6d f13d
00000090: ee2b 6b3f ecf8 ea3c e1d8 d83d 1f53 79be
000000a0: 5ae2 82bf 1ad9 fc3c c352 2e3e 7a05 4abf
000000b0: ca61 8f3f 8f4c 57bf a9d4 163f c4dc 0c3f
000000c0: 081a 61bf 4f3b cdbe 3a70 2e3f 993a 593e
000000d0: 01c7 13be 4b1d a1bf ff53 9d3e fd07 483e
000000e0: 51f1 9dbf 65fb 823f bc51 6bbf 60d0 963e
000000f0: 94c4 01bf a148 9a3d f277 bfbc ddd7 87be

gru.weight_ih_l0 f4 [192, 64]
-0.1681563 -0.6595243 0.86061865 -0.20278697 1.0543199 0.1738607 0.27230126 1.0366874
0.31806007 0.21718712 0.23945971 -0.13505958 0.9627072 -0.9460499 -1.0196862 0.2901837
0.8837801 -0.2885106 0.9624336 -0.110895485 0.8769711 -0.31869256 -0.84504366 -0.030670507
0.9722879 -0.8209503 0.8293509 0.34589443 0.86668086 -0.14891075 -0.7148986 0.84647816
-0.32229394 0.88531536 0.19564866 -1.042878 -0.060286406 -1.05156 0.9125301 -0.90371335
0.11726913 -1.0572461 1.0163497 0.2563782 -0.21634984 0.09779502 0.6120428 0.7773155
0.17466141 -1.0331128 0.44247177 0.9224099 -0.8806141 -0.040241074 0.65251297 1.0233543
0.1303814 -0.06746237 0.09851086 0.97559017 -0.7803218 -1.087764 0.96989554 -0.9976098
0.42970723 -0.68077743 0.5033742 0.5741442 0.7599825 -0.37796614 -0.55007523 0.6922648
-0.37824667 -0.395998 -0.54502434 0.6163194 0.44185102 -0.5854957 -0.5112978 -0.50319904
0.5457954 0.5444873 0.60083747 0.5714034 0.550141 0.5091562 -0.499497 0.49068713
0.4851872 -0.5280193 0.4935574 -0.41130528 0.73296773 0.49512303 -0.48667428 0.4574627
0.467464 0.50010014 -0.6348677 -0.7340805 0.60422194 -0.5741459 0.6297631 -0.5012705
-0.62269247 -0.5202215 0.67527884 -0.4863279 0.4825089 -0.56362724 0.59670866 0.5715588
-0.61346465 -0.66532403 0.58499056 0.6181419 -0.6322845 -0.49068978 0.71547276 0.5213288
-0.41434684 0.36673984 -0.4817367 0.6945526 -0.6551964 -0.63647056 0.68424577 -0.5572899
0.9515648 -0.8996989 0.4515383 0.87556946 0.5348146 -0.8898679 -0.8642641 0.65858525
-0.8071776 -0.89804894 -0.7555698 0.7722393 0.61787707 -0.5244738 -0.63333064 -0.8637317
0.48712462 0.88613695 0.5038727 0.9490848 0.5144564 0.9938565 -0.5491055 0.74435353
0.41707748 -0.6549369 0.4705464 -0.97127664 0.5538027 0.93926907 -0.6205209 0.5592628
0.8773436 0.44039378 -0.8373082 -0.5631428 0.79440165 -0.5202386 0.55993164 -0.5357239
-0.9655635 -0.53566986 0.5254048 -0.8162143 0.94368 -0.9148261 0.51263183 0.60961753
-0.9501935 -0.46716118 0.5605193 0.6510793 -0.5399805 -0.5596619 0.63730204 0.5858718
-0.7674829 0.8869317 -0.8876561 0.66926193 -0.56143415 -0.45158127 0.5021501 -0.6669578
0.5508459 -0.6436485 0.5315348 0.66173404 0.42448983 -0.5081818 -0.6021173 0.5024091
-0.68796843 -0.53586435 -0.6860294 0.5314928 0.3407351 -0.29590002 -0.42301685 -0.6910495
0.40024975 0.7588858 0.47719252 0.61782885 0.47319162 0.5309124 -0.44793716 0.7091118
0.4916542 -0.27478382 0.29418904 -0.59858894 0.43300214 0.6853997 -0.5040512 0.32347763
0.60548073 0.4800087 -0.5173486 -0.5334345 0.7541775 -0.3181113 0.5136465 -0.5424428
-0.6304625 -0.4834716 0.3466092 -0.6681385 0.731832 -0.68369627 0.3269566 0.3581094
-0.7816391 -0.39025325 0.48220688 0.35449928 -0.5559605 -0.44507784 0.6539948 0.35698542
-0.67909455 0.5611487 -0.6636345 0.4175353 -0.56525743 -0.34086832 0.3533218 -0.44323114
00000000: 2a31 2cbe 96d6 28bf 8151 5c3f 63a7 4fbe
00000010: f4f3 863f 8a08 323e 126b 8b3e 2cb2 843f
00000020: c5d8 a23e 4d66 5e3e ed34 753e 0f4d 0abe
00000030: fb73 763f 5430 72bf 1485 82bf f592 943e
00000040: 6a3f 623f a9b7 93be 0c62 763f 2c1d e3bd
00000050: 2e81 603f ac2b a3be c854 58bf b740 fbbc
00000060: dce7 783f cd29 52bf 5750 543f 1319 b13e
00000070: ccde 5d3f 0f7c 18be 9803 37bf cbb2 583f
00000080: b603 a5be 07a4 623f 1f58 483e 077d 85bf
00000090: e1ee 76bd 8599 86bf 939b 693f c259 67bf
000000a0: cc2a f03d d753 87bf bf17 823f 0144 833e
000000b0: d08a 5dbe c148 c83d d6ae 1c3f 26fe 463f
000000c0: 71da 323e 0a3d 84bf a98b e23e 0e23 6c3f
000000d0: ed6f 61bf d3d3 24bd 170b 273f 46fd 823f
000000e0: b482 053e b629 8abd 10c0 c93d 47c0 793f
000000f0: 2bc3 47bf da3b 8bbf 134b 783f 5b63 7fbf
00000100: 9602 dc3e 6e47 2ebf 22dd 003f 1dfb 123f
00000110: 378e 423f c784 c1be bbd1 0cbf 4438 313f
00000120: 8ca9 c1be 40c0 cabe b786 0bbf 1cc7 1d3f
00000130: 4c3a e23e 0ce3 15bf 6ae4 02bf a7d1 00bf
00000140: 3fb9 0b3f 8563 0b3f 7cd0 193f 7e47 123f
00000150: 0ad6 0c3f 1058 023f 12be ffbe 583b fb3e
00000160: 756a f83e 462c 07bf 8eb3 fc3e 9b96 d2be
00000170: c6a3 3b3f c480 fd3e 5f2d f9be 8d38 ea3e
00000180: 7157 ef3e 9006 003f b186 22bf b3ec 3bbf
00000190: 4aae 1a3f 3afb 12bf 2838 213f 4353 00bf
000001a0: c668 1fbf 3c2d 05bf 13df 2c3f f8ff f8be
000001b0: 680b f73e e049 10bf e6c1 183f ad51 123f
000001c0: 050c 1dbf ad52 2abf f1c1 153f 8c3e 1e3f
000001d0: 66dd 21bf b13b fbbe 3929 373f ce75 053f
000001e0: 4525 d4be 53c5 bb3e 31a6 f6be 33ce 313f
000001f0: f4ba 27bf bcef 22bf bb2a 2f3f 8daa 0ebf
00000200: c099 733f ab52 66bf 0730 e73e 5225 603f
00000210: 9ce9 083f 62ce 63bf 6940 5dbf 0b99 283f
00000220: 31a3 4ebf 89e6 65bf 066d 41bf 7ab1 453f
00000230: 312d 1e3f ea43 06bf f521 22bf 851d 5dbf
00000240: 6668 f93e dfd9 623f cdfd 003f 39f7 723f
00000250: 6ab3 033f 616d 7e3f 2e92 0cbf f48d 3e3f
00000260: 2e8b d53e f2a9 27bf 75eb f03e 96a5 78bf
00000270: 04c6 0d3f f073 703f 75da 1ebf d92b 0f3f
00000280: 9799 603f 4b7b e13e d559 56bf 202a 10bf
00000290: e85d 4b3f 5b2e 05bf ae57 0f3f 3425 09bf
000002a0: 2b2f 77bf a921 09bf ee80 063f 6cf3 50bf
000002b0: 0395 713f 0b32 6abf d73b 033f e50f 1c3f
000002c0: e23f 73bf c02f efbe 317e 0f3f 22ad 263f
000002d0: 293c 0abf 0146 0fbf 3a26 233f b2fb 153f
000002e0: c279 44bf f50d 633f 6e3d 63bf c054 2b3f
000002f0: 26ba 0fbf a935 e7be e98c 003f bfbd 2abf
00000300: 3d04 0d3f 26c6 24bf aa12 083f 6767 293f
00000310: bb56 d93e 3418 02bf 5c24 1abf e29d 003f
00000320: b31e 30bf 682e 09bf 9f9f 2fbf ea0f 083f
00000330: d574 ae3e 3580 97be aa95 d8be 9fe8 30bf
00000340: 89ed cc3e 5746 423f 9452 f43e 082a 1e3f
00000350: 2c46 f23e e0e9 073f 0558 e5be 5a88 353f
00000360: 19ba fb3e 77b0 8cbe f29f 963e 203d 19bf
00000370: 75b2 dd3e 5b76 2f3f 8009 01bf dc9e a53e
00000380: c900 1b3f b3c3 f53e f570 04bf 2a8f 08bf
00000390: c711 413f 7cdf a2be 567e 033f 88dd 0abf
000003a0: fe65 21bf 9789 f7be c376 b13e 200b 2bbf
000003b0: 5859 3b3f b806 2fbf db66 a73e 1e5a b73e
000003c0: 8019 48bf 46cf c7be d2e3 f63e ee80 b53e
000003d0: 6d53 0ebf 3ee1 e3be 346c 273f cbc6 b63e
000003e0: 24d9 2dbf 71a7 0f3f f3e3 29bf 30c7 d53e
000003f0: b6b4 10bf 4b86 aebe 98e6 b43e 31ef e2be

gru.weight_hh_l0 f4 [192, 64]
-0.84470314 0.8744004 0.4516094 0.79889435 0.3487219 -1.0230782 -0.49145925 0.66195464
-0.3876769 -0.34539106 0.7473164 0.52560896 0.7904992 0.8956992 -0.676835 0.756509
0.8231191 -0.58945286 -0.67471504 -0.3158883 -0.76322246 0.7926588 -0.76428795 -0.53447545
-0.5949442 -0.40987465 -0.37043568 0.4278015 -0.58460104 0.40814227 -0.9535659 -0.545809
-0.7967254 -0.5745021 0.6962667 0.46262798 -0.82649136 0.3780518 0.57797515 -0.6897913
-0.5457648 0.81504047 0.6501095 0.3894536 -0.6808895 0.51455814 -0.72845066 -0.34679183
0.46457243 0.7495234 0.70074755 -0.76719236 0.42451376 -0.7666558 0.43298557 -0.7356405
0.95763904 0.5150667 -0.7423235 0.63567555 0.5543999 0.70624137 0.5498774 0.61063755
-0.49134937 0.33501238 0.68245006 0.53652495 0.34033653 -0.41315886 -0.45716158 0.51968324
-0.59300345 -0.5484112 0.57959217 0.77952397 0.34124333 0.649814 -0.653173 0.69581497
0.63265353 -0.29669732 -0.7482308 -0.39885843 -0.6674513 0.6971302 -0.54097146 -0.7427908
-0.37579486 -0.5697004 -0.59587216 0.72918504 -0.62528145 0.5755691 -0.5383336 -0.49481767
-0.49421644 -0.52427095 0.4423995 0.43356353 -0.5190858 0.42723334 0.44262704 -0.70304424
-0.6221554 0.5502954 0.48800614 0.5643162 -0.50391203 0.77746093 -0.39179215 -0.62406784
0.2933348 0.54971945 0.46508425 -0.73874265 0.77959335 -0.51815003 0.56521064 -0.36804327
0.3063009 0.598081 -0.55948114 0.77850753 0.6829162 0.503143 0.557255 0.37033704
-0.5176731 0.61418027 0.42025447 0.52467674 0.7357298 -0.5458759 -0.522944 0.65720236
-0.33734655 -0.63947314 0.37398154 0.6615388 0.6287375 0.48448372 -0.52527547 0.5838146
0.48774064 -0.6801868 -0.53710705 -0.53743625 -0.3909684 0.55350727 -0.563235 -0.48880026
-0.6001025 -0.4287083 -0.2986676 0.5305691 -0.49931443 0.61423635 -0.51505363 -0.72361064
-0.61560756 -0.6673843 0.63788986 0.68250066 -0.62402093 0.71626717 0.73872775 -0.3257355
-0.30495557 0.6826537 0.57119715 0.71824825 -0.6920399 0.4978245 -0.6227098 -0.46742076
0.52408534 0.58920866 0.48840588 -0.46065232 0.49617928 -0.6981275 0.46359468 -0.6763685
0.6243996 0.35673654 -0.6896332 0.4171726 0.2896659 0.6751827 0.7770353 0.7150288
-0.41517454 0.39342687 0.7110382 0.4445179 0.44754702 -0.3519897 -0.39802685 0.32093543
-0.6287778 -0.7557398 0.62018067 0.7180147 0.38224366 0.5987736 -0.7925736 0.5640308
0.7113335 -0.365298 -0.5386893 -0.31198466 -0.71606135 0.47787517 -0.4991293 -0.71224827
-0.46301985 -0.7013153 -0.62063545 0.7143008 -0.7653185 0.59608513 -0.4270482 -0.47217995
-0.51187605 -0.46912596 0.481432 0.324239 -0.46747413 0.5494256 0.4787476 -0.7467992
-0.6294864 0.59175885 0.45885938 0.5714132 -0.47814733 0.56221664 -0.48383713 -0.6120958
0.35359746 0.5439493 0.2936203 -0.6755018 0.6125046 -0.49568558 0.7101964 -0.29820493
0.4782672 0.62770677 -0.54733604 0.7788784 0.74209267 0.46785405 0.40856653 0.4558642
00000000: 773e 58bf b4d8 5f3f 5939 e73e 5784 4c3f
00000010: ad8b b23e 3af4 82bf 8ca0 fbbe dc75 293f
00000020: 967d c6be 19d7 b0be 2150 3f3f 4f8e 063f
00000030: 285e 4a3f 8b4c 653f 0f45 2dbf 93aa 413f
00000040: efb7 523f 62e6 16bf 20ba 2cbf 1cbc a1be
00000050: 8c62 43bf b0eb 4a3f 60a8 43bf 62d3 08bf
00000060: 434e 18bf 17db d1be bfa9 bdbe cc08 db3e
00000070: 6aa8 15bf 06f8 d03e e51c 74bf 23ba 0bbf
00000080: 32f6 4bbf 9212 13bf 893e 323f 93dd ec3e
00000090: f094 53bf 0190 c13e 2ef6 133f 2a96 30bf
000000a0: 3eb7 0bbf 7ea6 503f 946d 263f 7666 c73e
000000b0: c64e 2ebf 15ba 033f be7b 3abf b38e b1be
000000c0: 70dc ed3e c4e0 3f3f 3164 333f b866 44bf
000000d0: de59 d93e 8e43 44bf 49b0 dd3e f052 3cbf
000000e0: d527 753f 69db 033f ea08 3ebf a2bb 223f
000000f0: 27ed 0d3f 3ccc 343f c4c4 0c3f be52 1c3f
00000100: 2592 fbbe be86 ab3e 0cb5 2e3f b359 093f
00000110: 9740 ae3e 8f89 d3be 1511 eabe f609 053f
00000120: 13cf 17bf ad64 0cbf 2760 143f e28e 473f
00000130: 72b7 ae3e 365a 263f 5936 27bf ee20 323f
00000140: 95f5 213f b6e8 97be 0e8c 3fbf 2c37 ccbe
00000150: 17de 2abf 2077 323f 1b7d 0abf 8a27 3ebf
00000160: 2f68 c0be e3d7 11bf 148b 18bf dfab 3a3f
00000170: 7212 20bf 7f58 133f 3bd0 09bf be58 fdbe
00000180: f009 fdbe 9f36 06bf 3082 e23e 0afc dd3e
00000190: cfe2 04bf 54be da3e 03a0 e23e b5fa 33bf
000001a0: 9445 1fbf 29e0 0c3f f1db f93e 0777 103f
000001b0: 6100 01bf ae07 473f fb98 c8be e9c2 1fbf
000001c0: fb2f 963e 6aba 0c3f 861f ee3e 3d1e 3dbf
000001d0: 6e93 473f 7ba5 04bf a5b1 103f 2b70 bcbe
000001e0: 79d3 9c3e d61b 193f 283a 0fbf 454c 473f
000001f0: 99d3 2e3f fbcd 003f 44a8 0e3f d19c bd3e
00000200: 3986 04bf eb3a 1d3f 982b d73e 3751 063f
00000210: ca58 3c3f 86be 0bbf a8df 05bf 6a3e 283f
00000220: b0b8 acbe 83b4 23bf 827a bf3e 9b5a 293f
00000230: f1f4 203f 400e f83e 7478 06bf e074 153f
00000240: 24b9 f93e b920 2ebf d97f 09bf 6c95 09bf
00000250: 032d c8be a7b2 0d3f 2b30 10bf 0744 fabe
00000260: 51a0 19bf a87f dbbe f6ea 98be 60d3 073f
00000270: 24a6 ffbe 983e 1d3f 8eda 03bf 8c3e 39bf
00000280: 7598 1dbf b3d9 2abf c04c 233f 5db8 2e3f
00000290: d6bf 1fbf 495d 373f 431d 3d3f cec6 a6be
000002a0: 2323 9cbe 65c2 2e3f fa39 123f 1edf 373f
000002b0: 8729 31bf dae2 fe3e e969 1fbf c651 efbe
000002c0: 752a 063f 61d6 163f 5610 fa3e 9fda ebbe
000002d0: 360b fe3e 7cb8 32bf 485c ed3e 7c26 2dbf
000002e0: a7d8 1f3f 2ca6 b63e cd8b 30bf a697 d53e
000002f0: 174f 943e c6d8 2c3f c9eb 463f 210c 373f
00000300: c291 d4be 3f6f c93e 9906 363f da97 e33e
00000310: e224 e53e fe37 b4be 2dca cbbe a651 a43e
00000320: 95f7 20bf 2a78 41bf 29c4 1e3f d0cf 373f
00000330: 71b5 c33e 3a49 193f 1ae6 4abf 5364 103f
00000340: f419 363f 5708 bbbe 8be7 09bf 74bc 9fbe
00000350: cc4f 37bf 0eac f43e e08d ffbe e755 36bf
00000360: f010 edbe 6689 33bf f7e1 1ebf 6bdc 363f
00000370: eaeb 43bf 0999 183f 10a6 dabe 92c1 f1be
00000380: 4f0a 03bf 4731 f0be 417e f63e a702 a63e
00000390: c558 efbe 28a7 0c3f 681e f53e 3b2e 3fbf
000003a0: 0526 21bf 827d 173f 9eef ea3e 2348 123f
000003b0: bacf f4be 6eed 0f3f 80b9 f7be 4fb2 1cbf
000003c0: ba0a b53e 4340 0b3f 6655 963e b0ed 2cbf
000003d0: 1acd 1c3f 80ca fdbe 6ecf 353f 51ae 98be
000003e0: 70df f43e 64b1 203f 371e 0cbf 9364 473f
000003f0: c9f9 3d3f 918a ef3e a22f d13e 0867 e93e

gru.bias_ih_l0 f4 [192]
0.49598747 0.45417488 0.60484827 0.30475643 0.8750641 0.29148138 0.17086376 0.48550302
-0.61616063 -0.30308038 -0.7659511 -0.3665732 0.51425046 -0.6233335 -0.5505334 -0.7180101
-0.7644663 0.83679855 -0.025372772 -0.41608587 -0.67472917 0.62917125 -0.6968725 -0.26298994
0.2593027 -0.68786365 -0.55932015 0.07309948 -0.7789382 -0.16870882 0.67216265 0.70105034
0.2961489 0.90901476 0.5414972 0.7362014 0.28810352 0.61457705 0.8487624 -0.7018078
-0.84065926 -0.2902295 0.2001498 -0.4663519 -0.5247192 0.22272545 0.30882427 -0.116106376
0.16049814 0.29265472 -0.43665475 -0.700127 -0.68138355 0.65469974 -0.7674194 0.7578636
0.41680938 -0.58968633 0.5637941 -0.5515616 -0.44972858 0.6992735 -0.44676006 0.302964
-0.58638376 -0.713854 0.5780056 0.77731013 0.6358055 -0.86943936 -0.6433484 -0.5969556
1.0480698 0.9592546 1.0534395 -0.19861425 -0.45461485 -0.23225698 -0.23776232 -0.011576578
1.5487301 0.054795682 -0.08264997 -0.10180792 0.0018100106 -0.069429606 -0.033530846 0.7842106
-0.23673339 0.8332826 0.7834757 1.3329631 1.2463621 0.75066704 -0.5804365 0.69085294
-0.71916854 -0.713664 -0.68930656 -0.6735866 -0.6890563 -0.6504114 -0.60886717 -0.20762916
0.7720682 -0.32245782 0.17049259 0.89028543 1.2605057 -0.51823044 -0.77149993 0.6919793
-0.45804888 -0.0042464794 0.3373906 -0.28001535 0.90127903 -0.65117437 0.99358845 -0.6484747
-0.62320477 0.8546222 -0.6065951 -0.03509581 -0.32548618 -0.82704955 -0.5468778 -0.32839474
-1.0179813 0.78597647 -0.40335482 0.81115174 0.7645732 -0.82420194 -0.7728803 1.0035833
0.39693475 0.47025976 -0.48987725 -0.23024595 0.72101134 -0.33926064 0.44871616 -0.3524
-0.48271716 -0.8692747 0.3786385 -0.78526014 0.44107962 -0.40929902 0.36859092 0.43751627
-1.0364494 0.5281691 0.5295686 -0.45666492 0.17697263 -0.48756102 -0.9790871 0.39940044
-0.92732286 -0.8574732 0.8683335 0.86674404 -0.8804073 0.7947341 0.958953 0.41545174
0.45069796 -0.4317234 1.0380695 -0.5390205 0.35826808 -0.31271556 -0.826006 0.4515876
0.86054784 -0.45334983 0.83789873 0.3837401 -0.4334493 -0.82829 -0.33431327 -0.9886347
0.79805255 -0.42980024 -0.94278276 -0.5524179 -0.41548482 0.91253006 0.72083104 0.9700343
00000000: 12f2 fd3e 9c89 e83e 56d7 1a3f 0909 9c3e
00000010: 3304 603f 0c3d 953e e9f6 2e3e da93 f83e
00000020: b4bc 1dbf 5a2d 9bbe 5f15 44bf 7caf bbbe
00000030: eba5 033f c992 1fbf c2ef 0cbf 83cf 37bf
00000040: 10b4 43bf 6e38 563f 8fda cfbc 3509 d5be
00000050: 0dbb 2cbf 5e11 213f 3c66 32bf 9ea6 86be
00000060: 53c3 843e d517 30bf 9b2f 0fbf 2eb5 953d
00000070: 7e68 47bf 01c2 2cbe da12 2c3f 0978 333f
00000080: d4a0 973e 31b5 683f 8f9f 0a3f b277 3c3f
00000090: 4e82 933e ec54 1d3f 7e48 593f ada9 33bf
000000a0: 7235 57bf f698 94be 12f4 4c3e adc5 eebe
000000b0: ff53 06bf 2412 643e 371e 9e3e 2ec9 edbd
000000c0: a059 243e d7d6 953e 3691 dfbe 863b 33bf
000000d0: 276f 2ebf 679a 273f 9975 44bf 5903 423f
000000e0: 0a68 d53e aff5 16bf cf54 103f 2433 0dbf
000000f0: d342 e6be 9703 333f bcbd e4be 191e 9b3e
00000100: 3f1d 16bf 23bf 36bf 2df8 133f ccfd 463f
00000110: 26c4 223f 9493 5ebf 7bb2 24bf 15d2 18bf
00000120: 2727 863f b691 753f 1bd7 863f 8961 4bbe
00000130: 47c3 e8be c6d4 6dbe f777 73be b0ab 3dbc
00000140: ca3c c63f 7071 603d 6344 a9bd ac80 d0bd
00000150: e13d ed3a 1c31 8ebd a457 09bd 07c2 483f
00000160: 3d6a 72be 0252 553f dd91 483f 899e aa3f
00000170: cb88 9f3f b72b 403f 7d97 14bf bddb 303f
00000180: 6e1b 38bf afb2 36bf 6576 30bf 2c70 2cbf
00000190: fe65 30bf 5d81 26bf b8de 1bbf bd9c 54be
000001a0: 43a6 453f 3119 a5be 9c95 2e3e bfe9 633f
000001b0: 4058 a13f c0aa 04bf 0581 45bf 8e25 313f
000001c0: 6285 eabe 0d26 8bbb 76be ac3e 2c5e 8fbe
000001d0: 39ba 663f 5db3 26bf d05b 7e3f 7002 26bf
000001e0: 598a 1fbf 85c8 5a3f d149 1bbf a0c0 0fbd
000001f0: 20a6 a6be 85b9 53bf 2f00 0cbf 5b23 a8be
00000200: 364d 82bf c135 493f 8684 cebe a4a7 4f3f
00000210: 12bb 433f e6fe 52bf 7cdb 45bf 6b75 803f
00000220: 083b cb3e e3c5 f03e 31d1 fabe 98c5 6bbe
00000230: 3394 383f 92b3 adbe 20be e53e c66d b4be
00000240: b426 f7be c988 5ebf e8dc c13e cf06 49bf
00000250: 30d5 e13e a48f d1be f3b7 bc3e 2202 e03e
00000260: 60aa 84bf 1736 073f cf91 073f fccf e9be
00000270: 5038 353e 99a1 f9be 74a5 7abf 377e cc3e
00000280: 0865 6dbf 5d83 5bbf 1b4b 5e3f f0e2 5d3f
00000290: 5f62 61bf b273 4b3f f27d 753f 17b6 d43e
000002a0: e2c1 e63e d90a ddbe 76df 843f 3ffd 09bf
000002b0: ea6e b73e 411c a0be 2175 53bf 7d36 e73e
000002c0: dd4c 5c3f 781d e8be 8880 563f 9579 c43e
000002d0: 11ed ddbe d00a 54bf 1c2b abbe 2a17 7dbf
000002e0: 2c4d 4c3f c70e dcbe 365a 71bf 426b 0dbf
000002f0: 6dba d4be 929b 693f 6288 383f 2b54 783f

gru.bias_hh_l0 f4 [192]
0.38600194 0.3563735 0.57629883 0.28921494 0.89551145 0.3137937 0.20584254 0.48932168
-0.55615216 -0.2720416 -0.5984666 -0.32760677 0.5656287 -0.5668679 -0.582949 -0.75392103
-0.62318814 0.74363554 -0.005623554 -0.3836171 -0.7397031 0.6261494 -0.5925966 -0.18760215
0.1543396 -0.6603487 -0.5277965 0.15449241 -0.6749026 -0.1920643 0.71167135 0.7851148
0.5151 0.8590176 0.63880515 0.6595761 0.29356268 0.8027476 0.8541542 -0.6972151
-0.8820361 -0.18267363 0.14355299 -0.39908332 -0.6100673 0.32894257 0.3471807 0.029737704
0.1416444 0.24057695 -0.5207227 -0.8443439 -0.75570923 0.5659476 -0.68586105 0.5647569
0.3321486 -0.64166975 0.7251083 -0.5382705 -0.4812594 0.74993306 -0.3935143 0.30043185
-0.5526415 -0.65127975 0.559531 0.5464748 0.47961923 -0.748622 -0.76102483 -0.55976063
1.0492715 0.9296398 1.0740447 -0.046289183 -0.4457476 -0.14256768 -0.21164311 -0.133121
1.3617855 0.1447297 0.09288321 0.011440873 -0.0931258 0.048603218 -0.05046342 0.894472
-0.12847358 0.7886652 1.0027405 1.3347144 1.0873642 0.6669895 -0.6737203 0.50978476
-0.73149645 -0.93946713 -0.64336807 -0.7705658 -0.6088488 -0.76027906 -0.6738026 -0.06267983
0.9588214 -0.16445246 0.14027745 0.9901146 1.2768316 -0.4934568 -0.8369965 0.8981515
-0.4105909 -0.1203987 0.3449066 -0.3118305 0.96366435 -0.7648138 0.9305314 -0.5329749
-0.40923983 0.9756147 -0.6756664 0.007081151 -0.5181989 -0.73094255 -0.44090834 -0.46460173
-0.9089289 0.76653355 -0.1769119 0.8304469 0.7134883 -0.81671137 -0.76905906 0.96139735
0.48048115 0.4106602 -0.47099763 -0.12836255 0.76179093 -0.41244823 0.48841354 -0.07669246
-0.3384443 -0.8521317 0.48825708 -0.7498233 0.41724145 -0.5415176 0.39953575 0.3659012
-0.99680436 0.48644143 0.53098375 -0.2889428 0.102773756 -0.32204342 -0.9050183 0.20341244
-1.0934826 -0.8517778 0.85475504 0.9908747 -0.8948025 0.8558506 0.89434606 0.32917362
0.4704453 -0.31434903 1.0005226 -0.3233726 0.19220176 -0.3674479 -0.7899123 0.3847061
0.7071906 -0.35387158 0.7399342 0.5066985 -0.5160265 -0.87765265 -0.40295932 -0.8944226
0.9401264 -0.5154397 -1.1886624 -0.37682715 -0.3992357 0.76944524 0.7482799 0.8691494
00000000: 0ca2 c53e 9676 b63e 5288 133f fb13 943e
00000010: 3d40 653f 91a9 a03e 63c8 523e 5f88 fa3e
00000020: fd5f 0ebf 0949 8bbe 1b35 19bf 13bc a7be
00000030: 0bcd 103f 411e 11bf 253c 15bf f800 41bf
00000040: 4289 1fbf e65e 3e3f ca45 b8bb 7669 c4be
00000050: 2f5d 3dbf 544b 203f 69b4 17bf c71a 40be
00000060: 330b 1e3e 9d0c 29bf ac1d 07bf 4233 1e3e
00000070: 6bc6 2cbf 81ac 44be 1830 363f 49fd 483f
00000080: 98dd 033f 94e8 5b3f bc88 233f fbd9 283f
00000090: d94d 963e de80 4d3f daa9 5a3f b07c 32bf
000000a0: 1ecd 61bf cc0e 3bbe 8eff 123e a654 ccbe
000000b0: 5f2d 1cbf 296b a83e abc1 b13e 7c9c f33c
000000c0: 3b0b 113e ce59 763e 154e 05bf ec26 58bf
000000d0: 2976 41bf f1e1 103f 9794 2fbf e893 103f
000000e0: 620f aa3e 7844 24bf b3a0 393f 18cc 09bf
000000f0: a267 f6be 9dfb 3f3f b57a c9be 34d2 993e
00000100: ea79 0dbf 45ba 26bf 6c3d 0f3f c6e5 0b3f
00000110: a790 f53e b1a5 3fbf 86d2 42bf 794c 0fbf
00000120: 874e 863f e0fc 6d3f 4c7a 893f ba99 3dbd
00000130: 0839 e4be 43fd 11be f9b8 58be df50 08be
00000140: fd4e ae3f 0634 143e 8d39 be3d 8072 3b3c
00000150: bdb8 bebd 2b14 473d bbb2 4ebd 1efc 643f
00000160: 948e 03be f6e5 493f cd59 803f ecd7 aa3f
00000170: c02e 8b3f d3bf 2a3f ef78 2cbf 4181 023f
00000180: 5a43 3bbf eb80 70bf c5b3 24bf cd43 45bf
00000190: 84dd 1bbf a6a1 42bf 547e 2cbf 485e 80bd
000001a0: 5275 753f 3a66 28be e4a4 0f3e 2778 7d3f
000001b0: 386f a33f 5fa6 fcbe 6745 56bf 42ed 653f
000001c0: f838 d2be 9893 f6bd 9997 b03e 3fa8 9fbe
000001d0: b5b2 763f d6ca 43bf 4e37 6e3f 0b71 08bf
000001e0: e287 d1be e3c1 793f 79f8 2cbf 0009 e83b
000001f0: afa8 04bf 0d1f 3bbf bdbe e1be 47e0 edbe
00000200: 90af 68bf 8b3b 443f 6528 35be 2b98 543f
00000210: 2ba7 363f ff13 51bf 0ee1 44bf 231e 763f
00000220: a001 f63e 0e42 d23e 9a26 f1be 7971 03be
00000230: bb04 433f 6a2c d3be 5711 fa3e f010 9dbd
00000240: 9248 adbe 4e25 5abf d5fc f93e 6bf4 3fbf
00000250: aca0 d53e e6a0 0abf f38f cc3e 6757 bb3e
00000260: 922e 7fbf da0e f93e 8dee 073f 50f0 93be
00000270: 0c7b d23d e0e2 a4be 48af 67bf 5a4b 503e
00000280: 3df7 8bbf 1c0e 5abf 3ad1 5a3f f7a9 7d3f
00000290: c711 65bf 0619 5b3f ddf3 643f 7289 a83e
000002a0: 35de f03e 5bf2 a0be 2011 803f 1891 a5be
000002b0: 8ad0 443e 2222 bcbe b137 4abf 33f8 c43e
000002c0: 710a 353f a82e b5be 546c 3d3f feb6 013f
000002d0: 501a 04bf d8ad 60bf af50 cebe e1f8 64bf
000002e0: 20ac 703f dbf3 03bf 1726 98bf 7def c0be
000002f0: 9f68 ccbe 5dfa 443f 468f 3f3f 9380 5e3f

notes_decoder.weight f4 [128, 64]
0.6521762 -0.5982803 -0.30289856 -0.62811846 -0.77637535 0.74746716 0.6205998 -0.7057518
0.54104435 0.5004659 -0.367398 -0.33756125 -0.74409467 -0.52980256 0.47238657 -0.31450695
-0.38717413 0.7105744 0.33802745 0.6533528 0.42118755 -0.33505258 0.3343475 0.37092343
0.614176 0.40904948 0.47401822 -0.3214119 0.44618037 -0.4544874 0.5832097 0.30976048
0.5676964 0.7914301 -0.6404099 -0.75519824 0.6585052 -0.6670137 -0.66434735 0.44146165
0.23222287 -0.33303413 -0.63747364 -0.34673917 0.3395247 -0.27848065 0.57752264 0.28701103
-0.6083221 -0.43293798 -0.77150786 0.46390843 -0.31907263 0.5643554 -0.5549622 0.77436924
-0.672268 -0.3914822 0.6027605 -0.42191753 -0.39484695 -0.7488168 -0.6700053 -0.8000768
0.7047858 -0.6000774 -0.4058495 -0.5763217 -0.5546957 0.5700946 0.7217488 -0.7240222
0.43456352 0.31918293 -0.40762326 -0.52443206 -0.58973813 -0.30832976 0.42173034 -0.3674733
-0.28052345 0.84743905 0.4714451 0.7550409 0.34180123 -0.2840315 0.5526519 0.3936364
0.7671639 0.3621545 0.30604172 -0.329487 0.3044932 -0.43226245 0.7804556 0.5264148
0.6075035 0.72228956 -0.8072377 -0.77003103 0.6894069 -0.7699156 -0.73937476 0.26993886
0.2784474 -0.4128856 -0.6315944 -0.4035583 0.39355034 -0.28372857 0.5508895 0.3160233
-0.71413225 -0.45941254 -0.72242576 0.35632434 -0.33681855 0.69187057 -0.397391 0.63916343
-0.56209624 -0.5296046 0.59827495 -0.290362 -0.44826382 -0.59825194 -0.5426003 -0.6049683
0.77797246 -0.7866914 -0.31308037 -0.7450827 -0.70905894 0.70195323 0.8238256 -0.645947
0.32875797 0.46056286 -0.28742486 -0.36347362 -0.68879175 -0.38233554 0.2595185 -0.32544446
-0.2591241 0.6727784 0.28388423 0.8092363 0.28494722 -0.3392571 0.33251926 0.35211295
0.6434774 0.35227785 0.28915825 -0.35641575 0.48435917 -0.4901782 0.7356399 0.30447173
0.75445217 0.80317426 -0.6235652 -0.77774346 0.7516706 -0.70578176 -0.6830702 0.30474722
0.37851137 -0.43631366 -0.63932 -0.46924794 0.35953644 -0.40349337 0.7776483 0.32100883
-0.76473933 -0.29443002 -0.86914927 0.2910836 -0.40287182 0.63572484 -0.50963855 0.7314463
-0.56299376 -0.315787 0.6861826 -0.29014778 -0.3018072 -0.7116281 -0.6541056 -0.6308224
0.83177966 -0.7184273 -0.36530823 -0.6785672 -0.58698153 0.66921824 0.6420483 -0.73803145
0.53268987 0.41631082 -0.27479783 -0.41879016 -0.62149346 -0.4262903 0.33175558 -0.4259343
-0.2683147 0.8117358 0.44909814 0.72725886 0.45487475 -0.2937714 0.4567147 0.45186648
0.7404302 0.23915552 0.2533133 -0.31936076 0.46941894 -0.4830051 0.5757872 0.40306917
0.6650364 0.65271676 -0.71258694 -0.7399947 0.6035996 -0.5917264 -0.808921 0.35870302
0.38117763 -0.3505994 -0.6968704 -0.3307378 0.32344925 -0.29703692 0.6621708 0.40625033
-0.6373288 -0.44162926 -0.79958117 0.32378274 -0.39510143 0.7650643 -0.52039766 0.7816133
-0.74008715 -0.3246599 0.5873351 -0.2770458 -0.30252886 -0.6255734 -0.7674729 -0.623482
00000000: 05f5 263f e628 19bf 8515 9bbe 5fcc 20bf
00000010: 89c0 46bf 025a 3f3f a1df 1e3f 26ac 34bf
00000020: e281 0a3f 891e 003f 971b bcbe d4d4 acbe
00000030: fd7c 3ebf 24a1 07bf a7dc f13e 0e07 a1be
00000040: b03b c6be 34e8 353f ef11 ad3e 2142 273f
00000050: e5a5 d73e 038c abbe 982f ab3e ade9 bd3e
00000060: a33a 1d3f ef6e d13e 84b2 f23e 1a90 a4be
00000070: c171 e43e 93b2 e8be 3b4d 153f ed98 9e3e
00000080: 8d54 113f 2a9b 4a3f e7f1 23bf ac54 41bf
00000090: cc93 283f 69c1 2abf ab12 2abf 4307 e23e
000000a0: d5cb 6d3e 7383 aabe 7931 23bf cc87 b1be
000000b0: 2ed6 ad3e 0495 8ebe 86d8 133f 1cf3 923e
000000c0: ffba 1bbf 0caa ddbe 8a81 45bf 6885 ed3e
000000d0: 7d5d a3be 9879 103f 0112 0ebf 103d 463f
000000e0: c119 2cbf 5b70 c8be 834e 1a3f 9305 d8be
000000f0: 6129 cabe 75b2 3fbf 7885 2bbf d5d1 4cbf
00000100: d86c 343f ac9e 19bf 81cb cfbe d289 13bf
00000110: 8a00 0ebf b8f1 113f 88c4 383f 8559 39bf
00000120: 1c7f de3e f26b a33e ffb3 d0be 2e41 06bf
00000130: 14f9 16bf 66dd 9dbe 0aed d73e 7625 bcbe
00000140: c5a0 8fbe c4f1 583f 4161 f13e 5c4a 413f
00000150: 9200 af3e 946c 91be 987a 0d3f b68a c93e
00000160: da64 443f 516c b93e 80b1 9c3e 85b2 a8be
00000170: 88e6 9b3e 8151 ddbe f0cb 473f 1fc3 063f
00000180: 5985 1b3f f8e7 383f 21a7 4ebf c120 45bf
00000190: f87c 303f 3019 45bf aa47 3dbf 6d35 8a3e
000001a0: a890 8e3e be65 d3be 2cb0 21bf 329f cebe
000001b0: 6e7f c93e df44 91be 1807 0d3f cecd a13e
000001c0: 5fd1 36bf 1f38 ebbe e5f0 38bf 2570 b63e
000001d0: 7b73 acbe 6e1e 313f d576 cbbe 37a0 233f
000001e0: 8ae5 0fbf 2b94 07bf 8c28 193f 54aa 94be
000001f0: d682 e5be 0a27 19bf dae7 0abf 34df 1abf
00000200: 3429 473f 9c64 49bf 124c a0be bdbd 3ebf
00000210: e384 35bf 35b3 333f 3ce6 523f c85c 25bf
00000220: f752 a83e e5ce eb3e 5a29 93be 3719 babe
00000230: a854 30bf 7cc1 c3be 9cdf 843e a8a0 a6be
00000240: eaab 84be 353b 2c3f 4659 913e 1c2a 4f3f
00000250: 9ae4 913e 1bb3 adbe f73f aa3e 2648 b43e
00000260: efba 243f c35d b43e 8d0c 943e 207c b6be
00000270: edfd f73e a3f8 fabe e652 3c3f b8e3 9b3e
00000280: c723 413f d49c 4d3f f8a1 1fbf 321a 47bf
00000290: 7c6d 403f 1dae 34bf b0dd 2ebf d407 9c3e
000002a0: 3ecc c13e 8164 dfbe 7aaa 23bf 4441 f0be
000002b0: 2915 b83e af96 cebe f613 473f 455b a43e
000002c0: f5c5 43bf 88bf 96be 9180 5ebf e908 953e
000002d0: 3745 cebe ddbe 223f ac77 02bf 1140 3b3f
000002e0: 5c20 10bf d5ae a1be aaa9 2f3f 408e 94be
000002f0: 7986 9abe 422d 36bf 7773 27bf 947d 21bf
00000300: 83ef 543f daea 37bf ae09 bbbe 94b6 2dbf
00000310: 6c44 16bf e351 2b3f 475d 243f a1ef 3cbf
00000320: 5d5e 083f b126 d53e 4db2 8cbe aa6b d6be
00000330: 321a 1fbf b942 dabe dedb a93e 1014 dabe
00000340: 8b60 89be ebcd 4f3f 31f0 e53e a32d 3a3f
00000350: 58e5 e83e 3469 96be 82d6 e93e 0b5b e73e
00000360: d58c 3d3f 2fe5 743e 48b2 813e 4183 a3be
00000370: ae57 f03e 724c f7be ca66 133f 155f ce3e
00000380: d33f 2a3f 7218 273f 196c 36bf 4b70 3dbf
00000390: 8185 1a3f 627b 17bf 7215 4fbf eca7 b73e
000003a0: b729 c33e c481 b3be 1966 32bf 7756 a9be
000003b0: 249b a53e 3915 98be 0784 293f 0b00 d03e
000003c0: fb27 23bf 3b1d e2be 5ab1 4cbf dac6 a53e
000003d0: bc4a cabe 41db 433f c838 05bf cf17 483f
000003e0: 5a76 3dbf d339 a6be 985b 163f f2d8 8dbe
000003f0: 10e5 9abe 9425 20bf 1b79 44bf 849c 1fbf

notes_decoder.bias f4 [128]
-0.9493796 -0.8170933 -0.90533394 -0.96870804 -0.8587576 -0.86331064 -0.7562194 -0.81481755
-0.9416719 -0.8867461 -0.7909393 -0.76118827 -0.78036267 -0.81972533 -0.7673104 -0.7701678
-0.8100841 -0.8166021 -0.72695667 -0.86152476 -0.9364272 -0.92138475 -0.84940815 -0.91777116
-0.80658275 -0.8645302 -0.75230616 -0.83778656 -0.6936069 -0.8564528 -0.8533602 -0.60416585
-0.68022 -0.6929855 -0.7362127 -0.7806787 -0.9618376 -0.65818757 -0.68283355 -0.59869105
-0.8013824 -0.6557107 -0.7887882 -0.592628 -0.6676385 -0.6373272 -0.6561275 -0.75572467
-0.74121153 -0.7737307 -0.76761866 -0.51227766 -0.75032115 -0.50064874 -0.69978106 -0.5419605
-0.6838097 -0.57042605 -0.5659065 -0.7407769 -0.4530905 -0.6249226 -0.65443534 -0.54384506
-0.66067845 -0.43793994 -0.48779517 -0.55883396 -0.45027816 -0.76610136 -0.5370868 -0.62250334
-0.49592444 -0.60470873 -0.64124084 -0.6661006 -0.7374125 -0.5559466 -0.5745015 -0.6571722
-0.5748552 -0.7695688 -0.72657293 -0.8144192 -0.726571 -0.81342244 -0.6074777 -0.80050343
-0.78970176 -0.8150597 -0.7171027 -0.73503554 -0.780362 -0.8004618 -0.8613183 -0.8240428
-0.8868035 -0.7381667 -0.76530564 -0.8529146 -0.70522684 -0.93421865 -0.81918395 -0.8568463
-0.8271968 -0.85988253 -0.83529216 -0.7423989 -0.9481632 -0.7492465 -0.8937069 -0.7850819
-0.888647 -0.9073893 -0.8984947 -0.76563835 -0.9304471 -0.97256136 -0.94075686 -0.76029265
-0.84654 -0.81120867 -0.9139053 -0.9413381 -0.888405 -0.9691946 -0.8408728 -0.9555912
00000000: 8b0a 73bf 072d 51bf f7c3 67bf 40fd 77bf
00000010: 8ad7 5bbf ed01 5dbf 9897 41bf e297 50bf
00000020: 6911 71bf cb01 63bf ff7a 4abf 3cdd 42bf
00000030: d9c5 47bf 85d9 51bf 746e 44bf b829 45bf
00000040: ac61 4fbf d60c 51bf d519 3abf e38c 5cbf
00000050: b1b9 6fbf dfdf 6bbf d072 59bf 0df3 6abf
00000060: 357c 4ebf da51 5dbf 2397 40bf 2e79 56bf
00000070: 3990 31bf 7e40 5bbf d075 5abf 9daa 1abf
00000080: e622 2ebf 7f67 31bf 6f78 3cbf 8fda 47bf
00000090: fd3a 76bf fb7e 28bf 2ece 2ebf d143 19bf
000000a0: 6627 4dbf a8dc 27bf 06ee 49bf 78b6 17bf
000000b0: 5bea 2abf e027 23bf f9f7 27bf 2c77 41bf
000000c0: 0ac0 3dbf 3713 46bf a882 44bf a124 03bf
000000d0: 0c15 40bf 842a 00bf da24 33bf ecbd 0abf
000000e0: 270e 2fbf 7107 12bf 40df 10bf 8ea3 3dbf
000000f0: 7afb e7be edfa 1fbf 1389 27bf 6e39 0bbf
00000100: 3922 29bf aa39 e0be 4ac0 f9be be0f 0fbf
00000110: dc8a e6be 381f 44bf 857e 09bf 615c 1fbf
00000120: cfe9 fdbe 31ce 1abf 5c28 24bf 9285 2abf
00000130: 11c7 3cbf 8452 0ebf 8812 13bf 703c 28bf
00000140: b629 13bf 7602 45bf af00 3abf c77d 50bf
00000150: 8f00 3abf 743c 50bf a983 1bbf cbed 4cbf
00000160: e529 4abf c1a7 50bf 0b94 37bf 4a2b 3cbf
00000170: cec5 47bf 11eb 4cbf 5b7f 5cbf 78f4 52bf
00000180: 8e05 63bf 7ef8 3cbf 12eb 43bf 9c58 5abf
00000190: bf89 34bf f428 6fbf 0ab6 51bf 475a 5bbf
000001a0: 2bc3 53bf 4321 5cbf b5d5 55bf db0d 3ebf
000001b0: d3ba 72bf 9ece 3fbf fac9 64bf 21fb 48bf
000001c0: 5f7e 63bf aa4a 68bf c003 66bf e000 44bf
000001d0: c831 6ebf c8f9 78bf 71d5 70bf 8aa2 42bf
000001e0: d8b6 58bf 5fab 4fbf b3f5 69bf 89fb 70bf
000001f0: 836e 63bf 231d 78bf 7143 57bf a0a1 74bf
