saved_models/model_generalist_test1_2.pth (torch_old, 167373 bytes, 8 tensors)

notes_encoder.weight f4 [64, 128]
0.038441725 0.045547493 -0.018920697 0.046536006 0.0014383867 -0.03437934 0.050878577 -0.0054913014
0.07536521 -0.07649388 -0.06433279 -0.02057255 0.033810236 -0.07884966 0.0023595616 -0.006205268
0.08335488 0.029802807 -0.05169293 0.07014424 -0.021319158 0.043515824 1.247066 -0.07556054
0.21464112 0.08681174 -0.6844198 0.2607683 0.85337216 -0.6926146 0.630833 1.4387594
1.5964113 0.22366983 0.63719 1.1339027 0.84238356 0.15538287 0.7582797 1.0250331
1.98594 0.4497302 1.4671055 0.75557154 0.6413022 0.7755426 0.47881803 0.4944284
0.67798007 -0.75601554 0.6108249 1.0160023 0.3911326 0.7400397 0.98142946 0.9341022
0.5255368 0.82038176 0.8196509 0.54362583 1.0933279 0.40100145 0.7781033 0.9790644
0.7426622 1.0032294 0.9290414 1.0939058 0.979118 0.82037824 0.27320457 0.787567
1.0020996 0.097556 1.1780111 0.957654 -0.32031128 1.0077045 0.55045533 1.4217522
0.83215463 -1.2202151 0.62334144 0.94625014 0.9075922 -1.0112439 0.9441086 0.079260394
0.19450115 0.5929899 -0.1829775 0.9952095 -0.24456978 -0.10740855 0.23230435 0.7253593
-0.2043126 -0.26426768 -0.64411104 0.28078482 -0.4191117 -0.4367439 -0.055094812 -0.03581618
0.046982355 0.07529945 -0.058132093 -0.017011218 0.005111791 -0.084703766 -0.07491598 -0.06060808
-0.07095934 0.060690783 -0.01798635 -0.03632586 0.05970175 -0.07650667 -0.0721918 -0.04153757
0.047169797 -0.062363878 0.055589758 -0.02216211 0.021648504 0.028851174 0.037488095 0.011875957
-0.044117022 -0.021951735 -0.049195234 -0.04466961 -0.0054279566 0.029710911 0.07603889 -0.022198863
0.060292147 -0.04121766 -0.014353506 -0.07587713 -0.034039587 0.028383851 -0.03945966 0.029920049
-0.033050906 0.05301047 0.019970149 0.055261813 0.0006595701 0.07752181 -0.06486845 -0.034540482
0.8031707 0.012374714 -0.0052946326 -0.20210515 0.17565092 -0.54744244 -0.9777446 -0.735881
-0.047451515 -0.25555164 -0.571919 -0.3674171 -0.28766754 -0.52592313 -0.36015293 -0.042200465
-0.0033331374 0.37276044 -0.12385161 -0.5900813 -0.48052934 -0.35863882 0.3708829 0.15097193
-0.100145414 -0.706742 0.31127185 -0.18367997 -0.30468363 0.18501261 -0.72574973 -0.17855547
0.37287915 -0.3742038 0.18258637 0.22018993 -0.6250753 -1.1305391 0.12560649 -0.42133868
-0.083142 -0.31333676 -0.3490677 0.081523724 -0.3033086 -0.17568505 0.026733952 -0.031090694
-0.4493912 -1.56342 -0.07922037 -0.36193794 -0.83825284 -0.3027059 -0.3743007 -0.12194582
-0.98758554 -0.67867804 -0.7032023 -0.17622708 -0.7349282 -0.7347794 -0.67678654 -0.7000065
-0.703583 -0.69927025 -0.61641324 -0.5300927 0.60689384 -0.59124845 -0.3791157 -0.61173975
0.47723415 0.6714013 -0.51923573 -0.40858427 0.392496 0.09830852 0.018257245 -0.042094268
-0.079942286 -0.0010903251 -0.045106653 -0.031760138 -0.040435698 -0.0021980181 0.019573152 -0.07301929
0.04924137 -0.0060857087 0.07981411 -0.027416442 -0.03737238 -0.054606047 0.055953465 -0.07783526
0.023466162 0.010073051 0.038591765 0.04050968 0.028383344 -0.08184338 -0.015945397 0.06610636
00000000: 1275 1d3d 0290 3a3d 94ff 9abc 8a9c 3e3d
00000010: 4088 bc3a 5ad1 0cbd 0e66 503d 60f0 b3bb
00000020: 1359 9a3d d3a8 9cbd e9c0 83bd c487 a8bc
00000030: 9a7c 0a3d ee7b a1bd e0a2 1a3b 9055 cbbb
00000040: f7b5 aa3d 0425 f43c f7bb 53bd c9a7 8f3d
00000050: 84a5 aebc a63d 323d dc9f 9f3f 7cbf 9abd
00000060: e2ca 5b3e 5bca b13d 2336 2fbf 6c83 853e
00000070: 9976 5a3f 314f 31bf 467e 213f 4529 b83f
00000080: 3557 cc3f b409 653e e21e 233f b923 913f
00000090: 73a6 573f b01c 1f3e 9e1e 423f 4934 833f
000000a0: 4833 fe3f 0943 e63e 1dca bb3f 236d 413f
000000b0: 622c 243f f689 463f a327 f53e b825 fd3e
000000c0: 1a90 2d3f 3c8a 41bf 055f 1c3f 5d0c 823f
000000d0: 8842 c83e 3e73 3d3f f63e 7b3f 5221 6f3f
000000e0: 9489 063f 8a04 523f a4d4 513f 102b 0b3f
000000f0: 2bf2 8b3f 1050 cd3e c731 473f f7a3 7a3f
00000100: 1c1f 3e3f d269 803f a8d5 6d3f 1b05 8c3f
00000110: 7aa7 7a3f 4f04 523f 78e1 8b3e fe9d 493f
00000120: cd44 803f 71cb c73d 11c9 963f d028 753f
00000130: d7ff a3be 76fc 803f a4ea 0c3f fafb b53f
00000140: 1608 553f 0230 9cbf 4e93 1f3f 733d 723f
00000150: f657 683f 7170 81bf 1ab1 713f 4653 a23d
00000160: 4f2b 473e 30ce 173f 745e 3bbe 0dc6 7e3f
00000170: 8070 7abe 04f9 dbbd 31e1 6d3e 26b1 393f
00000180: 5237 51be 184e 87be 76e4 24bf 07c3 8f3e
00000190: cf95 d6be e59c dfbe 19ab 61bd fdb3 12bd
000001a0: 9270 403d 9936 9a3d eb1b 6ebd 1c5b 8bbc
000001b0: d080 a73b 2b79 adbd 8d6d 99bd 2e40 78bd
000001c0: 2153 91bd e696 783d 1c58 93bc 6dca 14bd
000001d0: d289 743d 87af 9cbd 4bd9 93bd 4d23 2abd
000001e0: 1e35 413d 4471 7fbd 16b2 633d 508d b5bc
000001f0: 3458 b13c 4c59 ec3c 1e8d 193d 6093 423c
00000200: 0db4 34bd 20d4 b3bc f180 49bd 7bf7 36bd
00000210: 00dd b1bb 4c64 f33c 47ba 9b3d 64da b5bc
00000220: e6f4 763d d9d3 28bd f82a 6bbc 7865 9bbd
00000230: 186d 0bbd 4085 e83c 74a0 21bd e41a f53c
00000240: 6360 07bd 8221 593d 7098 a33c 365a 623d
00000250: 00e7 2c3a c1c3 9e3d c0d9 84bd 527a 0dbd
00000260: 989c 4d3f 50bf 4a3c 997e adbb a7f4 4ebe
00000270: d6dd 333e 3025 0cbf 784d 7abf b262 3cbf
00000280: 855c 42bd aad7 82be 4969 12bf 181e bcbe
00000290: 2949 93be e6a2 06bf f765 b8be 65da 2cbd
000002a0: c470 5abb 75da be3e eaa5 fdbd 910f 17bf
000002b0: f107 f6be 829f b7be 5de4 bd3e 6398 1a3e
000002c0: 0a19 cdbd 0bed 34bf 065f 9f3e 9a16 3cbe
000002d0: 7eff 9bbe f273 3d3e bcca 39bf 3fd7 36be
000002e0: 04ea be3e a497 bfbe ecf7 3a3e 7879 613e
000002f0: ef04 20bf 81b5 90bf fd9e 003e b4b9 d7be
00000300: 5a46 aabd ad6d a0be 00b9 b2be e9f5 a63d
00000310: 444b 9bbe c8e6 33be 2901 db3c e9b1 febc
00000320: 9a16 e6be 261e c8bf 4a3e a2bd ee4f b9be
00000330: bd97 56bf 45fc 9abe 57a4 bfbe bbbe f9bd
00000340: 68d2 7cbf d8bd 2dbf 1105 34bf df74 34be
00000350: 4124 3cbf 811a 3cbf e241 2dbf a033 33bf
00000360: 041e 34bf 6003 33bf 42cd 1dbf 28b4 07bf
00000370: 655d 1b3f 0f5c 17bf 741b c2be fa9a 1cbf
00000380: 0958 f43e f5e0 2b3f a2ec 04bf f531 d1be
00000390: 3cf5 c83e fa55 c93d 3890 953c 0a6b 2cbd
000003a0: c8b8 a3bd 3de9 8eba c1c1 38bd eb16 02bd
000003b0: e79f 25bd a00c 10bb e057 a03c 238b 95bd
000003c0: 52b1 493d a06a c7bb 9575 a33d 7298 e0bc
000003d0: c813 19bd 97aa 5fbd 762f 653d 1868 9fbd
000003e0: 1c3c c03c 7009 253c 6612 1e3d 7aed 253d
000003f0: 3084 e83c 819d a7bd ec9f 82bc c562 873d

notes_encoder.bias f4 [64]
1.2674576 -0.40391016 0.35867858 0.9533059 0.12719345 -1.1027807 -0.96382946 -0.065150805
-0.93403983 -1.2506654 -0.99401563 0.8840297 0.32124403 -0.058658432 -0.26567218 -0.94133455
0.20451377 1.1659046 0.15435573 1.0761213 0.16551748 1.1985971 -0.069390066 1.2976625
0.048339754 -0.3933853 0.10616425 -1.2173533 0.22686218 0.96260554 -0.54947346 0.36774376
0.8790247 0.121759884 -1.249774 0.12714633 0.91910213 0.03846826 0.09178632 -0.22925888
-1.0232964 0.040264744 0.15882196 -0.78954667 1.1183859 -0.84213275 0.5808175 0.5377497
-0.8806887 -0.38394397 0.67443585 0.20012946 -0.13139096 -1.2543261 0.2970562 0.1822112
-1.2328662 1.0227593 -0.9212514 0.2764086 -0.49327865 0.0863857 -0.034175154 -0.25254202
00000000: 0d3c a23f 50cd cebe b8a4 b73e db0b 743f
00000010: 003f 023e eb27 8dbf 87bd 76bf c96d 85bd
00000020: 3c1d 6fbf ce15 a0bf cf77 7ebf c54f 623f
00000030: 197a a43e d343 70bd 2f06 88be 4dfb 70bf
00000040: 0f6c 513e 5d3c 953f 6e0f 1e3e 58be 893f
00000050: 6a7d 293e a16b 993f 611c 8ebd ce19 a63f
00000060: e8ff 453d cc69 c9be a46c d93d 3cd2 9bbf
00000070: 8f4e 683e 516d 763f 4baa 0cbf e948 bc3e
00000080: c307 613f 3f5d f93d 98f8 9fbf a632 023e
00000090: 474a 6b3f e590 1d3d 77fa bb3d d7c2 6abe
000000a0: 60fb 82bf a5ec 243d 39a2 223e bb1f 4abf
000000b0: 4527 8f3f 0396 57bf 75b0 143f f7a9 093f
000000c0: d174 61bf 4e94 c4be d4a7 2c3f bdee 4c3e
000000d0: 5a8b 06be c28d a0bf c017 983e 9395 3a3e
000000e0: 8fce 9dbf c7e9 823f 22d7 6bbf 6e85 8d3e
000000f0: 058f fcbe fcea b03d 3ffb 0bbd 304d 81be

gru.weight_ih_l0 f4 [192, 64]
-0.16798183 -0.659409 0.8604446 -0.20261805 1.0541072 0.17369716 0.27213165 1.0364804
0.3178898 0.2170097 0.23928623 -0.13488375 0.96252805 -0.9458515 -1.0194749 0.2900214
0.88358724 -0.28833652 0.9622277 -0.11072083 0.87676734 -0.3185163 -0.84484625 -0.030506473
0.97207904 -0.8207691 0.82915294 0.34571734 0.8664733 -0.14873192 -0.7147709 0.8463175
-0.3221145 0.885115 0.1954845 -1.0426642 -0.060119886 -1.0513552 0.9123166 -0.9035106
0.1171011 -1.057036 1.0161396 0.25620687 -0.21617986 0.09762019 0.61193275 0.7771663
0.17448303 -1.0329117 0.44243413 0.9222195 -0.88040185 -0.04039982 0.65235806 1.0231547
0.13021454 -0.067297146 0.09833975 0.975377 -0.78014916 -1.0875499 0.9696853 -0.99740934
0.43019557 -0.68013465 0.50273293 0.57476485 0.75901675 -0.3785782 -0.55085534 0.6914848
-0.379124 -0.39691645 -0.5456324 0.6170668 0.44110048 -0.58479774 -0.51047873 -0.5038339
0.54518485 0.5452404 0.60011077 0.57222486 0.54943126 0.5100002 -0.49881303 0.4913647
0.48436332 -0.5274026 0.49279124 -0.41217348 0.7320878 0.49615115 -0.48623678 0.45697927
0.46856713 0.49937248 -0.6352924 -0.73310286 0.6048376 -0.57339895 0.6287742 -0.5005184
-0.62327343 -0.5192772 0.6745222 -0.48727363 0.48312464 -0.56458926 0.5962098 0.5710116
-0.6143635 -0.66444105 0.5846288 0.61751187 -0.6313902 -0.49122757 0.7146958 0.52065814
-0.4148608 0.3674298 -0.48245156 0.69339764 -0.65454257 -0.6353283 0.6834908 -0.55648303
0.95143634 -0.8995876 0.45143625 0.8754433 0.5347206 -0.88974357 -0.8641385 0.65848565
-0.80704904 -0.8979228 -0.7554424 0.77211225 0.6177774 -0.524372 -0.63323146 -0.86360526
0.4870208 0.8860096 0.50377226 0.9489527 0.51435864 0.99372685 -0.54900414 0.7442297
0.4169823 -0.65483457 0.47044626 -0.97114563 0.5537039 0.93913925 -0.6204155 0.55915755
0.8772097 0.4402934 -0.83718485 -0.5630472 0.7942768 -0.52013916 0.5598361 -0.5356271
-0.9654376 -0.5355785 0.52530813 -0.81608856 0.9435549 -0.9146984 0.5125262 0.6095146
-0.9500611 -0.46706095 0.56040764 0.6509766 -0.53988475 -0.55953854 0.63719636 0.5857717
-0.7673576 0.8868077 -0.8875281 0.6691619 -0.5613275 -0.45149362 0.50205433 -0.66685766
0.5507523 -0.64356744 0.5314588 0.6616423 0.424414 -0.50809246 -0.60202426 0.5023328
-0.6878746 -0.53577197 -0.68593633 0.5313993 0.3406602 -0.29582298 -0.42294076 -0.69095695
0.40017188 0.7587905 0.4771166 0.6177307 0.4731182 0.53081703 -0.44786128 0.7090224
0.49157962 -0.27470955 0.29411322 -0.5984911 0.43292475 0.6853006 -0.5039761 0.3234003
0.60538113 0.47993287 -0.5172592 -0.5333594 0.7540869 -0.3180347 0.5135732 -0.5423668
-0.6303708 -0.48339579 0.34653285 -0.6680461 0.73174065 -0.6836014 0.32687983 0.35803357
-0.78153974 -0.3901775 0.4821313 0.35442236 -0.5558839 -0.4449912 0.65391654 0.35690877
-0.67900515 0.5610589 -0.66354126 0.41746092 -0.5651794 -0.34079474 0.353247 -0.4431532
00000000: 6e03 2cbe 07cf 28bf 1946 5c3f 1b7b 4fbe
00000010: fcec 863f abdd 313e d754 8b3e 64ab 843f
00000020: 74c2 a23e ca37 5e3e 7307 753e f71e 0abe
00000030: 3d68 763f 5323 72bf 277e 82bf af7d 943e
00000040: c632 623f d8a0 93be 8e54 763f 9ac1 e2bd
00000050: d373 603f 9214 a3be d847 58bf b6e8 f9bc
00000060: 2cda 783f ec1d 52bf 5e43 543f dd01 b13e
00000070: 32d1 5d3f 2e4d 18be 3afb 36bf 44a8 583f
00000080: 31ec a4be e696 623f 172d 483e 0576 85bf
00000090: 4540 76bd cf92 86bf 958d 693f 784c 67bf
000000a0: b4d2 ef3d f54c 87bf dd10 823f 8c2d 833e
000000b0: 415e 5dbe 18ed c73d a0a7 1c3f 5ff4 463f
000000c0: aeab 323e 7336 84bf ba86 e23e 9416 6c3f
000000d0: 0462 61bf 487a 25bd f000 273f bcf6 823f
000000e0: f656 053e 16d3 89bd 5a66 c93d 4fb2 793f
000000f0: dbb7 47bf d634 8bbf 4c3d 783f 3856 7fbf
00000100: 9842 dc3e 4e1d 2ebf 1bb3 003f ca23 133f
00000110: ec4e 423f 00d5 c1be db04 0dbf 2605 313f
00000120: 8a1c c2be a238 cbbe 91ae 0bbf 17f8 1d3f
00000130: ecd7 e13e 4eb5 15bf bcae 02bf 42fb 00bf
00000140: 3c91 0b3f e094 0b3f dca0 193f 547d 123f
00000150: 87a7 0c3f 608f 023f 6c64 ffbe 2794 fb3e
00000160: 78fe f73e db03 07bf 224f fc3e 6708 d3be
00000170: 1b6a 3b3f 8607 fe3e 07f4 f8be 30f9 e93e
00000180: 08e8 ef3e c0ad ff3e 86a2 22bf a1ac 3bbf
00000190: a3d6 1a3f 46ca 12bf 59f7 203f f921 00bf
000001a0: d98e 1fbf 5aef 04bf 7dad 2c3f ee7b f9be
000001b0: 1d5c f73e ec88 10bf 35a1 183f d12d 123f
000001c0: ed46 1dbf cf18 2abf 3caa 153f 4215 1e3f
000001d0: caa2 21bf 2e82 fbbe 4ef6 363f da49 053f
000001e0: a368 d4be c21f bc3e e403 f7be 8282 313f
000001f0: 1a90 27bf e0a4 22bf 41f9 2e3f ac75 0ebf
00000200: 5591 733f 5f4b 66bf a722 e73e 0d1d 603f
00000210: 73e3 083f 3cc6 63bf 2e38 5dbf 8492 283f
00000220: c49a 4ebf 45de 65bf ac64 41bf 26a9 453f
00000230: a926 1e3f 3e3d 06bf 751b 22bf 3c15 5dbf
00000240: ca5a f93e 86d1 623f 38f7 003f 90ee 723f
00000250: 02ad 033f e264 7e3f 898b 0cbf d685 3e3f
00000260: b47e d53e 3da3 27bf 55de f03e 009d 78bf
00000270: 8abf 0d3f 6e6b 703f 8dd3 1ebf f324 0f3f
00000280: d190 603f 236e e13e bf51 56bf dc23 10bf
00000290: b955 4b3f d727 05bf 6b51 0f3f dc1e 09bf
000002a0: eb26 77bf ac1b 09bf 987a 063f 2eeb 50bf
000002b0: d08c 713f ad29 6abf eb34 033f 2609 1c3f
000002c0: 3437 73bf 9d22 efbe e076 0f3f 67a6 263f
000002d0: e335 0abf eb3d 0fbf 4d1f 233f 22f5 153f
000002e0: 8c71 44bf d405 633f 0b35 63bf 324e 2b3f
000002f0: 29b3 0fbf 2c2a e7be a286 003f 2fb7 2abf
00000300: 1afe 0c3f d6c0 24bf af0d 083f 6461 293f
00000310: cb4c d93e 5912 02bf 431e 1abf e298 003f
00000320: 8d18 30bf 5a28 09bf 8699 2fbf c909 083f
00000330: 046b ae3e 1c76 97be b18b d8be 8ee2 30bf
00000340: 54e3 cc3e 1840 423f a148 f43e 9923 1e3f
00000350: 8c3c f23e a0e3 073f 134e e5be 7e82 353f
00000360: 53b0 fb3e bba6 8cbe 0296 963e b636 19bf
00000370: 50a8 dd3e dc6f 2f3f 9404 01bf b994 a53e
00000380: 42fa 1a3f c3b9 f53e 196b 04bf 3e8a 08bf
00000390: d70b 413f 72d5 a2be 8979 033f 8dd8 0abf
000003a0: fb5f 21bf a77f f7be c16c b13e 1205 2bbf
000003b0: 5b53 3b3f 8000 2fbf cb5c a73e 2d50 b73e
000003c0: fd12 48bf 58c5 c7be ead9 f63e d976 b53e
000003d0: 684e 0ebf e3d5 e3be 1367 273f bfbc b63e
000003e0: 48d3 2dbf 8ea1 0f3f d7dd 29bf 70bd d53e
000003f0: 99af 10bf a67c aebe cadc b43e fae4 e2be

gru.weight_hh_l0 f4 [192, 64]
-0.84456897 0.8742242 0.45152426 0.79872406 0.3487353 -1.0228933 -0.49147627 0.6618306
-0.38759077 -0.34530482 0.7471426 0.5255218 0.79037404 0.8955252 -0.6766501 0.75633675
0.8229396 -0.58942765 -0.67452747 -0.3159242 -0.76304567 0.7924456 -0.76411724 -0.5343892
-0.5949028 -0.40975988 -0.37035015 0.427715 -0.5844294 0.40805614 -0.95340526 -0.5456873
-0.796557 -0.57447886 0.69616127 0.46258223 -0.8263236 0.3780635 0.57795036 -0.6896175
-0.54567856 0.8148395 0.65005577 0.3893676 -0.6807342 0.51445603 -0.7282853 -0.34670597
0.4645175 0.7493374 0.7006703 -0.76701164 0.42442828 -0.7665192 0.43289912 -0.73548305
0.95745647 0.51497996 -0.7421619 0.63549674 0.55431145 0.7061035 0.5498188 0.61054415
-0.49142256 0.33512548 0.68235844 0.53661674 0.3404749 -0.41330087 -0.45725453 0.5197513
-0.59291345 -0.548325 0.57950085 0.77924544 0.3413546 0.64953625 -0.65285164 0.69553894
0.63235015 -0.29680988 -0.7478969 -0.3989901 -0.6671612 0.6965779 -0.5407091 -0.74270236
-0.37585726 -0.5696091 -0.5957803 0.72909653 -0.62519056 0.57548064 -0.53810877 -0.49473438
-0.49430144 -0.52436185 0.442486 0.4336346 -0.5191915 0.4273157 0.44272795 -0.7027633
-0.62206304 0.54989594 0.48809692 0.56422865 -0.50382626 0.777171 -0.39188242 -0.6239787
0.29343954 0.54939246 0.46517366 -0.7384362 0.77950174 -0.5182252 0.56512135 -0.36811897
0.30643377 0.5979908 -0.55954564 0.77821374 0.68256724 0.5032329 0.55740184 0.37041092
-0.51755893 0.61406136 0.42020193 0.5245601 0.7356077 -0.54575485 -0.52282715 0.6570884
-0.33729383 -0.6393749 0.3739309 0.66144055 0.62861764 0.48443103 -0.525233 0.58376086
0.48769718 -0.68006843 -0.5370587 -0.53731555 -0.3909217 0.55341965 -0.563136 -0.48872232
-0.5999885 -0.42865762 -0.2986261 0.53049105 -0.4992635 0.6141626 -0.51494 -0.72349817
-0.61549145 -0.6672678 0.6377738 0.6823856 -0.623904 0.7161504 0.7386106 -0.32568595
-0.30491734 0.6825401 0.57108045 0.7181673 -0.6919434 0.4977668 -0.6225926 -0.4673493
0.5239673 0.58914727 0.4882911 -0.46060547 0.49613547 -0.698012 0.46353397 -0.6762543
0.62427837 0.35668382 -0.6895188 0.41710737 0.2896324 0.67506635 0.77691364 0.714914
-0.4150934 0.39334568 0.7109411 0.4444361 0.4474658 -0.35190946 -0.3979456 0.32085356
-0.62868476 -0.7556562 0.6200938 0.71792996 0.3821619 0.5986891 -0.7924879 0.56394535
0.711246 -0.3652177 -0.5386063 -0.31191093 -0.7159753 0.4778128 -0.49905375 -0.7121681
-0.46293703 -0.70122814 -0.620534 0.71421087 -0.7652318 0.5960004 -0.42696592 -0.47211197
-0.51179355 -0.46904474 0.48135114 0.32415617 -0.467394 0.5493426 0.47866768 -0.7467127
-0.62938637 0.5916985 0.45877787 0.5713236 -0.47807142 0.56213146 -0.48375446 -0.61200386
0.35351655 0.5438683 0.2935593 -0.67541766 0.61240655 -0.49560297 0.7101077 -0.29812402
0.47818604 0.62761474 -0.5472531 0.7787957 0.7420056 0.46777287 0.40849695 0.4557824
00000000: ac35 58bf 28cd 5f3f 302e e73e 2e79 4c3f
00000010: 6f8d b23e 2bee 82bf c7a2 fbbe bb6d 293f
00000020: 4c72 c6be cbcb b0be bd44 3f3f 9988 063f
00000030: f455 4a3f 2441 653f f138 2dbf 499f 413f
00000040: 2bac 523f bbe4 16bf d5ad 2cbf d1c0 a1be
00000050: f656 43bf b7dd 4a3f 309d 43bf bbcd 08bf
00000060: 8d4b 18bf 0ccc d1be 899e bdbe 76fd da3e
00000070: 2a9d 15bf bcec d03e 5e12 74bf 2ab2 0bbf
00000080: 29eb 4bbf 0c11 13bf a037 323f 94d7 ec3e
00000090: f289 53bf 8a91 c13e 8ef4 133f c68a 30bf
000000a0: 97b1 0bbf 5299 503f 0e6a 263f 315b c73e
000000b0: 9944 2ebf 64b3 033f e870 3abf 7283 b1be
000000c0: 3dd5 ed3e 93d4 3f3f 215f 333f e05a 44bf
000000d0: aa4e d93e 9a3a 44bf f4a4 dd3e 9e48 3cbf
000000e0: de1b 753f bad5 033f 53fe 3dbf eaaf 223f
000000f0: 5be7 0d3f 33c3 343f edc0 0c3f 9f4c 1c3f
00000100: bd9b fbbe 9195 ab3e 0baf 2e3f b75f 093f
00000110: ba52 ae3e 2c9c d3be 441d eabe 6c0e 053f
00000120: 2dc9 17bf 075f 0cbf 2b5a 143f a17c 473f
00000130: 08c6 ae3e 0248 263f 4921 27bf d70e 323f
00000140: b3e1 213f 77f7 97be 2c76 3fbf 6e48 ccbe
00000150: 14cb 2abf ee52 323f e96b 0abf be21 3ebf
00000160: 5d70 c0be e7d1 11bf 0f85 18bf 12a6 3a3f
00000170: 7d0c 20bf b352 133f 7fc1 09bf d34d fdbe
00000180: 1415 fdbe 943c 06bf 868d e23e 5b05 de3e
00000190: bce9 04bf 20c9 da3e 3dad e23e 4ce8 33bf
000001a0: 863f 1fbf fbc5 0c3f d7e7 f93e 4a71 103f
000001b0: c2fa 00bf aef4 463f d0a4 c8be 11bd 1fbf
000001c0: b53d 963e fca4 0c3f 3e2b ee3e 280a 3dbf
000001d0: 6d8d 473f 68aa 04bf cbab 103f 177a bcbe
000001e0: e3e4 9c3e ed15 193f 623e 0fbf 0439 473f
000001f0: babc 2e3f dfd3 003f e3b1 0e3f 80a6 bd3e
00000200: be7e 04bf 2033 1d3f b524 d73e 9249 063f
00000210: c950 3c3f 97b6 0bbf 00d8 05bf f236 283f
00000220: c7b1 acbe 13ae 23bf df73 bf3e 2b54 293f
00000230: 16ed 203f 5807 f83e ab75 06bf 5a71 153f
00000240: 72b3 f93e f718 2ebf ae7c 09bf 838d 09bf
00000250: e426 c8be e9ac 0d3f ae29 10bf d039 fabe
00000260: d998 19bf 0379 dbbe 85e5 98be 43ce 073f
00000270: 779f ffbe c339 1d3f 1cd3 03bf 2d37 39bf
00000280: d990 1dbf 10d2 2abf 2545 233f d3b0 2e3f
00000290: 2cb8 1fbf a255 373f 9615 3d3f 4fc0 a6be
000002a0: 201e 9cbe f3ba 2e3f 5432 123f d0d9 373f
000002b0: 3423 31bf 4adb fe3e 3b62 1fbf 6848 efbe
000002c0: b922 063f 5bd2 163f 4b01 fa3e 7bd4 ebbe
000002d0: 7805 fe3e eab0 32bf 5354 ed3e 001f 2dbf
000002e0: b5d0 1f3f 439f b63e 4e84 30bf 198f d53e
000002f0: b34a 943e 26d1 2c3f d0e3 463f 9b04 373f
00000300: 1f87 d4be 9b64 c93e 3c00 363f 218d e33e
00000310: 3d1a e53e 7a2d b4be 87bf cbbe eb46 a43e
00000320: 7cf1 20bf af72 41bf 78be 1e3f 42ca 373f
00000330: b9aa c33e b043 193f 7de0 4abf b95e 103f
00000340: 3814 363f d0fd babe 1ae2 09bf cab2 9fbe
00000350: 284a 37bf e1a3 f43e f983 ffbe a650 36bf
00000360: 1506 edbe b083 33bf 51db 1ebf 86d6 363f
00000370: 3be6 43bf 7b93 183f 479b dabe a9b8 f1be
00000380: e704 03bf a226 f0be a873 f63e ccf7 a53e
00000390: 444e efbe b7a1 0c3f ee13 f53e 9028 3fbf
000003a0: 771f 21bf 8e79 173f efe4 ea3e 4342 123f
000003b0: c7c5 f4be d9e7 0f3f aaae f7be 49ac 1cbf
000003c0: 1f00 b53e f43a 0b3f 684d 963e 2ce8 2cbf
000003d0: adc6 1c3f acbf fdbe 9ec9 353f b6a3 98be
000003e0: cdd4 f43e 5cab 203f c718 0cbf 285f 473f
000003f0: 14f4 3d3f ed7f ef3e 8326 d13e 505c e93e

gru.bias_ih_l0 f4 [192]
0.49596894 0.45423064 0.6047454 0.30468488 0.8748638 0.29142863 0.17094436 0.48552933
-0.61607075 -0.30300874 -0.76586425 -0.36649618 0.51420504 -0.623246 -0.5504494 -0.7179184
-0.7643808 0.836676 -0.02538427 -0.41600978 -0.674642 0.6290436 -0.69675493 -0.26295367
0.2593758 -0.68777806 -0.55923384 0.07308793 -0.77884525 -0.16865851 0.6720721 0.70095587
0.29606932 0.90886414 0.5414386 0.7361018 0.28802904 0.61448026 0.8485922 -0.70172155
-0.8405543 -0.2901804 0.20028308 -0.46628526 -0.52461374 0.22264814 0.30874738 -0.116119295
0.16066201 0.29260427 -0.4365148 -0.7000298 -0.681278 0.65460443 -0.76732594 0.75779927
0.4167257 -0.5895988 0.5643282 -0.5515002 -0.44965774 0.6991306 -0.44668916 0.30299327
-0.5862661 -0.7133225 0.5779509 0.7388113 0.6357517 -0.86881083 -0.64321494 -0.59686714
1.0479175 0.9590689 1.0517749 -0.13804702 -0.45454276 -0.21843149 -0.1967052 0.0031146908
1.2844417 0.08828854 -0.056920584 -0.101837076 0.021929212 -0.06222902 -0.033513233 0.7839971
-0.21184528 0.83287776 0.78329194 1.3256391 1.245203 0.63535863 -0.5803565 0.690417
-0.7190916 -0.7135026 -0.6892325 -0.6734883 -0.649195 -0.6502906 -0.6086905 -0.15364078
0.7719384 -0.30297774 0.14614472 0.89010614 1.2590711 -0.49193683 -0.7713568 0.69181156
-0.4566484 -0.034077063 0.5015885 -0.26756263 0.90110993 -0.65053546 0.99341565 -0.6483663
-0.6230942 0.85439986 -0.6063467 -0.019805456 -0.29952484 -0.8238785 -0.5456359 -0.3283282
-1.0178434 0.7858683 -0.40328974 0.81103843 0.764444 -0.8240927 -0.7727586 1.0034422
0.39685592 0.47018746 -0.48979446 -0.23021272 0.7208993 -0.33919284 0.4486244 -0.352342
-0.48262495 -0.86915296 0.3785386 -0.78513414 0.44099718 -0.4092042 0.36848503 0.43743977
-1.0362579 0.5280846 0.529487 -0.45654845 0.17692277 -0.48749197 -0.93493193 0.39933726
-0.9271801 -0.85734046 0.8681984 0.8665652 -0.88028675 0.79459924 0.9588094 0.41538677
0.4506225 -0.43164062 1.0378973 -0.53894025 0.35821274 -0.31265008 -0.8258931 0.4515141
0.86041296 -0.45300817 0.8373829 0.38364285 -0.43336976 -0.8264827 -0.33423746 -0.98850596
0.7979475 -0.4297194 -0.94226366 -0.55231345 -0.41540062 0.9124102 0.7207519 0.96988195
00000000: a4ef fd3e eb90 e83e 98d0 1a3f a8ff 9b3e
00000010: 13f7 5f3f 2236 953e 0a0c 2f3e 4d97 f83e
00000020: d0b6 1dbf f623 9bbe ae0f 44bf 63a5 bbbe
00000030: f1a2 033f 0d8d 1fbf 40ea 0cbf 80c9 37bf
00000040: 76ae 43bf 6630 563f acf2 cfbc 3cff d4be
00000050: 57b5 2cbf 0009 213f 885e 32bf dda1 86be
00000060: e8cc 843e 3912 30bf f329 0fbf 20af 953d
00000070: 6762 47bf d1b4 2cbe eb0c 2c3f d871 333f
00000080: 6696 973e 52ab 683f b89b 0a3f 2b71 3c3f
00000090: 8b78 933e 944e 1d3f 573d 593f 06a4 33bf
000000a0: 912e 57bf 8692 94be 0217 4d3e f1bc eebe
000000b0: 164d 06bf e0fd 633e 2314 9e3e f4cf edbd
000000c0: 9584 243e 3ad0 953e de7e dfbe 2735 33bf
000000d0: 3c68 2ebf 2894 273f 796f 44bf 22ff 413f
000000e0: 125d d53e f2ef 16bf d077 103f 1e2f 0dbf
000000f0: 8a39 e6be 39fa 323f 71b4 e4be ef21 9b3e
00000100: 8915 16bf 4e9c 36bf 97f4 133f bd22 3d3f
00000110: a0c0 223f 636a 5ebf bca9 24bf 49cc 18bf
00000120: 2922 863f 8a85 753f 8fa0 863f 335c 0dbe
00000130: d4b9 e8be 81ac 5fbe 176d 49be d71f 4c3b
00000140: 9668 a43f 9fd0 b43d 8f25 69bd f58f d0bd
00000150: e4a4 b33c dbe3 7ebd 2c45 09bd 09b4 483f
00000160: f8ed 58be 7a37 553f d285 483f 8bae a93f
00000170: d062 9f3f dda6 223f 3e92 14bf 2bbf 303f
00000180: 6316 38bf 1ba8 36bf 8b71 30bf bb69 2cbf
00000190: a531 26bf 7279 26bf 24d3 1bbf 0254 1dbe
000001a0: c19d 453f e61f 9bbe f6a6 153e ffdd 633f
000001b0: 3e29 a13f 25df fbbe a477 45bf 901a 313f
000001c0: d2cd e9be 6494 0bbd 1b68 003f f8fd 88be
000001d0: 24af 663f 7e89 26bf 7d50 7e3f 55fb 25bf
000001e0: 1a83 1fbf f3b9 5a3f 8a39 1bbf 0d3f a2bc
000001f0: 525b 99be b4e9 52bf cbae 0bbf a21a a8be
00000200: b148 82bf aa2e 493f fe7b cebe 37a0 4f3f
00000210: 9ab2 433f bdf7 52bf 82d3 45bf cb70 803f
00000220: b330 cb3e 69bc f03e 57c6 fabe e2bc 6bbe
00000230: db8c 383f afaa adbe 19b2 e53e 2c66 b4be
00000240: 9e1a f7be cf80 5ebf d0cf c13e 8dfe 48bf
00000250: 62ca e13e 3783 d1be 12aa bc3e 1bf8 df3e
00000260: 19a4 84bf 8d30 073f 768c 073f b8c0 e9be
00000270: 3e2b 353e 8c98 f9be b357 6fbf ef75 cc3e
00000280: ad5b 6dbf aa7a 5bbf 4042 5e3f 38d7 5d3f
00000290: 795a 61bf db6a 4b3f 8874 753f 93ad d43e
000002a0: feb7 e63e 0000 ddbe d2d9 843f fdf7 09bf
000002b0: a967 b73e ac13 a0be bb6d 53bf db2c e73e
000002c0: 0644 5c3f b0f0 e7be ba5e 563f d66c c43e
000002d0: a4e2 ddbe 5f94 53bf 2c21 abbe ba0e 7dbf
000002e0: 4a46 4c3f 2e04 dcbe 3138 71bf 6a64 0dbf
000002f0: 64af d4be b793 693f 3283 383f 2f4a 783f

gru.bias_hh_l0 f4 [192]
0.3859834 0.35642925 0.57619596 0.28914338 0.8953112 0.31374094 0.20592314 0.489348
-0.5560623 -0.27196994 -0.59837973 -0.32752973 0.5655833 -0.5667804 -0.58286494 -0.7538293
-0.62310266 0.743513 -0.005635047 -0.38354102 -0.739616 0.62602174 -0.59247905 -0.1875659
0.15441254 -0.6602631 -0.5277102 0.15448089 -0.6748097 -0.192014 0.7115808 0.78502035
0.5150207 0.858867 0.63874656 0.6594765 0.2934882 0.8026508 0.85398406 -0.69712883
-0.8819311 -0.18262455 0.14368626 -0.39901668 -0.60996187 0.32886532 0.3471038 0.029724775
0.14180827 0.2405266 -0.5205828 -0.8442467 -0.7556037 0.5658523 -0.6857676 0.56469256
0.33206493 -0.6415822 0.72564244 -0.5382091 -0.48118857 0.74979013 -0.3934434 0.3004611
-0.55252385 -0.65074825 0.55947626 0.507976 0.4795654 -0.74799347 -0.7608914 -0.5596722
1.0491191 0.9294541 1.0723801 0.014278043 -0.44567552 -0.12874219 -0.170586 -0.11842976
1.0974971 0.17822261 0.11861259 0.011411728 -0.07300661 0.05580378 -0.050445806 0.8942585
-0.103585504 0.78826034 1.0025569 1.3273904 1.0862051 0.5516811 -0.67364025 0.5093488
-0.7314195 -0.9393057 -0.64329404 -0.7704675 -0.56898755 -0.76015824 -0.67362595 -0.008691438
0.9586916 -0.14497231 0.115929574 0.98993534 1.2753971 -0.46716306 -0.8368534 0.8979838
-0.40919042 -0.15022929 0.50910455 -0.29937777 0.96349525 -0.7641749 0.9303586 -0.5328665
-0.4091295 0.9753924 -0.675418 0.022371504 -0.4922376 -0.7277715 -0.43966654 -0.46453518
-0.90879786 0.76639265 -0.1768752 0.83028936 0.7133784 -0.81655765 -0.7689481 0.9612652
0.48040575 0.4105837 -0.470916 -0.128328 0.76169044 -0.41238472 0.48831594 -0.076664075
-0.33832645 -0.8520202 0.48817748 -0.7497261 0.41715986 -0.54140157 0.39945573 0.36582285
-0.9966452 0.48635593 0.5309015 -0.28880262 0.102760844 -0.32197374 -0.8330529 0.2033473
-1.093258 -0.8516693 0.854644 0.9907219 -0.89462316 0.85572857 0.894225 0.32910797
0.4703749 -0.3142607 1.0003614 -0.3232905 0.19213891 -0.36739114 -0.7897479 0.3846356
0.7070686 -0.35379964 0.73983467 0.5065402 -0.51594627 -0.87516 -0.40289286 -0.89430237
0.9399524 -0.5153623 -1.187805 -0.37670293 -0.3991747 0.76932466 0.7481787 0.8690177
00000000: 9e9f c53e e57d b63e 9481 133f 9a0a 943e
00000010: 1d33 653f a7a2 a03e 84dd 523e d28b fa3e
00000020: 195a 0ebf a53f 8bbe 6a2f 19bf fab1 a7be
00000030: 11ca 103f 8518 11bf a336 15bf f5fa 40bf
00000040: a883 1fbf de56 3e3f 33a6 b8bb 7d5f c4be
00000050: 7957 3dbf f642 203f b5ac 17bf 4611 40be
00000060: 521e 1e3e 0107 29bf 0418 07bf 3d30 1e3e
00000070: 54c0 2cbf 519f 44be 292a 363f 18f7 483f
00000080: 66d8 033f b5de 5b3f e584 233f 74d3 283f
00000090: 1644 963e 867a 4d3f b39e 5a3f 0977 32bf
000000a0: 3dc6 61bf ee01 3bbe 7e22 133e ea4b ccbe
000000b0: 7626 1cbf 0961 a83e 97b7 b13e 5f81 f33c
000000c0: 3036 113e 9b4c 763e ea44 05bf 8d20 58bf
000000d0: 3e6f 41bf b2db 103f 778e 2fbf b18f 103f
000000e0: 6a04 aa3e bb3e 24bf b4c3 393f 12c8 09bf
000000f0: 595e f6be 3ff2 3f3f 6a71 c9be 0ad6 993e
00000100: 3472 0dbf 7097 26bf d639 0f3f b70a 023f
00000110: 9989 f53e 807c 3fbf c7c9 42bf ad46 0fbf
00000120: 8949 863f b4f0 6d3f c043 893f 74ee 693c
00000130: 952f e4be fed4 03be 19ae 2ebe 4d8b f2bd
00000140: c97a 8c3f fd7f 363e 28eb f23d 42f8 3a3c
00000150: 7d84 95bd 8192 643d 43a0 4ebd 20ee 643f
00000160: a324 d4bd 6ecb 493f c953 803f eee7 a93f
00000170: c508 8b3f f93a 0d3f b073 2cbf af64 023f
00000180: 4f3e 3bbf 5776 70bf ebae 24bf 5c3d 45bf
00000190: 2ba9 11bf bb99 42bf c072 2cbf 8866 0ebc
000001a0: d06c 753f 9f73 14be 7c6c ed3d 676c 7d3f
000001b0: 3640 a33f ff2f efbe 063c 56bf 44e2 653f
000001c0: 6881 d1be b5d5 19be ad54 023f 0b48 99be
000001d0: a0a7 763f f7a0 43bf fb2b 6e3f f069 08bf
000001e0: 6c79 d1be 51b3 793f 32e8 2cbf 7244 b73c
000001f0: 9106 fcbe 3c4f 3abf f91b e1be 8ed7 edbe
00000200: faa6 68bf 4f32 443f c61e 35be d88d 543f
00000210: f89f 363f ec09 51bf c8d9 44bf 7a15 763f
00000220: bef7 f53e 0738 d23e e71b f1be 6a68 03be
00000230: 25fe 423f 1724 d3be 8c04 fa3e 0e02 9dbd
00000240: 2039 adbe ff1d 5abf 66f2 f93e 0dee 3fbf
00000250: fa95 d53e 4b99 0abf 7685 cc3e 224d bb3e
00000260: 2424 7fbf a503 f93e 29e9 073f f0dd 93be
00000270: 4774 d23d bed9 a4be f442 55bf 463a 503e
00000280: e1ef 8bbf 0007 5abf f3c9 5a3f f39f 7d3f
00000290: 0606 65bf 0711 5b3f eeeb 643f d780 a83e
000002a0: fbd4 f03e c7e6 a0be d80b 803f 5586 a5be
000002b0: 10c0 443e b11a bcbe eb2c 4abf f5ee c43e
000002c0: 7302 353f 3a25 b5be ce65 3d3f 9eac 013f
000002d0: 0e15 04bf 7c0a 60bf f947 cebe 00f1 64bf
000002e0: b8a0 703f c9ee 03bf ff09 98bf 35df c0be
000002f0: a060 ccbe 76f2 443f a488 3f3f f277 5e3f

notes_decoder.weight f4 [128, 64]
0.6520182 -0.5981128 -0.3028357 -0.62796205 -0.7761902 0.7472847 0.620422 -0.7055974
0.5409636 0.5003844 -0.36733395 -0.33756298 -0.74392694 -0.5298102 0.47242072 -0.31451735
-0.38711837 0.7103934 0.3380622 0.6531668 0.4212028 -0.33520666 0.33434868 0.3708435
0.61401784 0.4089834 0.47394708 -0.32133663 0.44611356 -0.45440748 0.5831583 0.30968204
0.5675384 0.79126257 -0.6402442 -0.7550421 0.65833384 -0.66684884 -0.6641692 0.44147524
0.23215976 -0.33311185 -0.63730735 -0.34665954 0.33944917 -0.2784943 0.57736146 0.28693283
-0.608149 -0.43296522 -0.77133226 0.46392927 -0.31900308 0.5642035 -0.5548784 0.7742103
-0.6720878 -0.3914011 0.6026128 -0.42194176 -0.3948778 -0.7486546 -0.66982645 -0.79991865
0.70459867 -0.5998744 -0.4057842 -0.57613564 -0.5544708 0.56987166 0.7215395 -0.7238395
0.4344815 0.31910142 -0.40755582 -0.52447206 -0.58953357 -0.3083715 0.4218058 -0.36751664
-0.28046516 0.8472251 0.4715237 0.75481683 0.34185252 -0.28427583 0.5526873 0.393555
0.7669789 0.36208528 0.3059677 -0.32941082 0.3044232 -0.43218148 0.78043395 0.5263364
0.60731447 0.7220905 -0.80704063 -0.76984626 0.6892014 -0.7697204 -0.73916346 0.26998603
0.2783813 -0.41302663 -0.63139856 -0.40347785 0.3934737 -0.28377765 0.5506964 0.31594375
-0.71392524 -0.45948142 -0.72222096 0.35638365 -0.3367465 0.6916898 -0.3973061 0.6389748
-0.5618765 -0.52952194 0.5980993 -0.29042432 -0.44834015 -0.598058 -0.5423795 -0.6047807
0.7778717 -0.7865959 -0.31302172 -0.74498755 -0.7089523 0.7018516 0.82370776 -0.64584905
0.32867703 0.46048295 -0.28736278 -0.36341146 -0.6886974 -0.38227868 0.25947595 -0.325395
-0.2590673 0.67266256 0.283838 0.8091223 0.2848953 -0.33925408 0.33246082 0.35203233
0.6433715 0.3522132 0.28908706 -0.3563427 0.4842937 -0.4900972 0.7355643 0.30439565
0.7543559 0.8030686 -0.6234613 -0.77764446 0.75156605 -0.7056755 -0.68295705 0.3046985
0.37845144 -0.4362893 -0.6392132 -0.4691692 0.3594626 -0.4034416 0.77755076 0.3209312
-0.76463324 -0.2943803 -0.86902624 0.291033 -0.40280393 0.63563234 -0.509554 0.7313454
-0.56289226 -0.31570536 0.6860912 -0.29010418 -0.30175024 -0.71152854 -0.6540076 -0.6307222
0.8316535 -0.71830046 -0.36525014 -0.6784456 -0.5868395 0.6690809 0.64190197 -0.7379083
0.5326093 0.41623092 -0.27473697 -0.41875833 -0.6213671 -0.42626402 0.33175015 -0.42591405
-0.26826063 0.8115896 0.4490906 0.7271113 0.45485494 -0.29384398 0.45668486 0.45178655
0.74030024 0.23909204 0.25324327 -0.31928807 0.46935454 -0.48292494 0.575723 0.40299326
0.6649131 0.6525831 -0.7124557 -0.73987 0.6034656 -0.59159315 -0.8087782 0.3586848
0.38111854 -0.3506255 -0.69673645 -0.33065924 0.323376 -0.2970165 0.6620451 0.40617314
-0.63719237 -0.4416161 -0.79943293 0.32376638 -0.39503428 0.7649463 -0.5203135 0.78148663
-0.73995066 -0.32457876 0.5872195 -0.27703547 -0.30251208 -0.62544614 -0.7673394 -0.623356
00000000: aaea 263f ec1d 19bf 480d 9bbe 1fc2 20bf
00000010: 67b4 46bf 0d4e 3f3f fad3 1e3f 08a2 34bf
00000020: 977c 0a3f 3119 003f 3213 bcbe 0ed5 acbe
00000030: ff71 3ebf a4a1 07bf 21e1 f13e 6b08 a1be
00000040: 6134 c6be 58dc 353f 7d16 ad3e f035 273f
00000050: e5a7 d73e 35a0 abbe c02f ab3e 33df bd3e
00000060: 4630 1d3f 4666 d13e 31a9 f23e 3c86 a4be
00000070: ff68 e43e 19a8 e8be dd49 153f a58e 9e3e
00000080: 324a 113f 2f90 4a3f 0be7 23bf 704a 41bf
00000090: 9188 283f 9bb6 2abf fe06 2abf 0b09 e23e
000000a0: 4abb 6d3e a38d aabe 9326 23bf 5c7d b1be
000000b0: 48cc ad3e ce96 8ebe f6cd 133f dce8 923e
000000c0: a7af 1bbf 9ead ddbe 0876 45bf 2388 ed3e
000000d0: 5f54 a3be a46f 103f 830c 0ebf a532 463f
000000e0: f20d 2cbf ba65 c8be d544 1a3f c008 d8be
000000f0: 6c2d cabe d4a7 3fbf bf79 2bbf 78c7 4cbf
00000100: 9460 343f 5e91 19bf f2c2 cfbe a07d 13bf
00000110: ccf1 0dbf 1ce3 113f d0b6 383f 8c4d 39bf
00000120: 5c74 de3e 4361 a33e 28ab d0be cd43 06bf
00000130: aceb 16bf dfe2 9dbe eef6 d73e 242b bcbe
00000140: 2199 8fbe bfe3 583f 8e6b f13e ad3b 413f
00000150: 4b07 af3e 9a8c 91be ea7c 0d3f 0a80 c93e
00000160: bb58 443f 3e63 b93e cca7 9c3e 89a8 a8be
00000170: 5cdd 9b3e e446 ddbe 85ca 473f fbbd 063f
00000180: f678 1b3f ecda 383f 379a 4ebf a514 45bf
00000190: 816f 303f 650c 45bf d139 3dbf 9c3b 8a3e
000001a0: fe87 8e3e 3a78 d3be 56a3 21bf a694 cebe
000001b0: 6375 c93e 4e4b 91be 70fa 0c3f 61c3 a13e
000001c0: cec3 36bf 2641 ebbe 79e3 38bf eb77 b63e
000001d0: 0a6a acbe 9512 313f b56b cbbe da93 233f
000001e0: 23d7 0fbf c08e 07bf 091d 193f 7fb2 94be
000001f0: d78c e5be 541a 19bf 62d9 0abf e8d2 1abf
00000200: 9a22 473f 595e 49bf 6244 a0be 81b7 3ebf
00000210: e67d 35bf 8cac 333f 83de 523f 5d56 25bf
00000220: 5b48 a83e 6cc4 eb3e 3721 93be 1111 babe
00000230: 794e 30bf 08ba c3be 08da 843e 2c9a a6be
00000240: 78a4 84be 9d33 2c3f 3753 913e a422 4f3f
00000250: ccdd 913e b6b2 adbe 4e38 aa3e 953d b43e
00000260: ffb3 243f 4a55 b43e 3803 943e 8d72 b6be
00000270: 58f5 f73e 05ee fabe f14d 3c3f bfd9 9b3e
00000280: 781d 413f e795 4d3f 299b 1fbf b513 47bf
00000290: a266 403f 26a7 34bf 46d6 2ebf 7101 9c3e
000002a0: 63c4 c13e 5061 dfbe 7aa3 23bf f236 f0be
000002b0: 7b0b b83e e68f cebe 910d 473f 1851 a43e
000002c0: 01bf 43bf 04b9 96be 8178 5ebf 4702 953e
000002d0: 513c cebe cdb8 223f 2272 02bf 7439 3b3f
000002e0: b519 10bf 22a4 a1be aca3 2f3f 8988 94be
000002f0: 027f 9abe bc26 36bf 0b6d 27bf 0377 21bf
00000300: 3ee7 543f 8ae2 37bf 1102 bbbe 9cae 2dbf
00000310: 1d3b 16bf e348 2b3f b053 243f 8fe7 3cbf
00000320: 1559 083f 381c d53e 53aa 8cbe 7e67 d6be
00000330: ea11 1fbf 473f dabe 28db a93e 6811 dabe
00000340: 7559 89be 56c4 4f3f 34ef e53e f723 3a3f
00000350: bfe2 e83e b872 96be 99d2 e93e 9150 e73e
00000360: 5184 3d3f 8bd4 743e 1aa9 813e ba79 a3be
00000370: 3d4f f03e f041 f7be 9562 133f 2255 ce3e
00000380: bf37 2a3f b00f 273f 7f63 36bf 1f68 3dbf
00000390: b97c 1a3f a672 17bf 170c 4fbf 89a5 b73e
000003a0: f821 c33e 2f85 b3be 525d 32bf 2b4c a9be
000003b0: 8a91 a53e 8c12 98be ca7b 293f edf5 cf3e
000003c0: 0a1f 23bf 811b e2be a3a7 4cbf b5c4 a53e
000003d0: ef41 cabe 85d3 433f 4433 05bf 820f 483f
000003e0: 686d 3dbf 302f a6be 0454 163f 98d7 8dbe
000003f0: dde2 9abe 3d1d 20bf 5b70 44bf 4294 1fbf

notes_decoder.bias f4 [128]
-0.9492087 -0.8169016 -0.9052028 -0.968561 -0.85861725 -0.8631599 -0.7560704 -0.8146841
-0.94153965 -0.8866024 -0.7907459 -0.7610389 -0.78022766 -0.8195793 -0.76716816 -0.770035
-0.80994976 -0.81646585 -0.7268287 -0.8613824 -0.93630636 -0.921258 -0.8504189 -0.9312848
-0.8457342 -0.8760392 -0.7777919 -0.8411186 -0.7173822 -0.8456266 -0.8613114 -0.61246216
-0.68639386 -0.6759591 -0.72866255 -0.76204604 -1.0906031 -0.6574729 -0.6848313 -0.6033002
-0.8104931 -0.672074 -0.7839169 -0.5931355 -0.6682656 -0.6426416 -0.66065603 -0.7435544
-0.74923605 -0.78342235 -0.7623909 -0.520368 -0.7530387 -0.5076803 -0.6986726 -0.5504606
-0.6848683 -0.58176124 -0.567445 -0.73990124 -0.46718872 -0.6093805 -0.654078 -0.55217785
-0.6612601 -0.43800664 -0.492632 -0.5664594 -0.44301087 -0.77675 -0.53916866 -0.6322109
-0.4991959 -0.60844797 -0.6429449 -0.6588516 -0.7155703 -0.5522361 -0.55848587 -0.6525478
-0.57417285 -0.76325 -0.72438663 -0.80777085 -0.7340903 -0.80924433 -0.59802204 -0.7976276
-0.78609586 -0.8064992 -0.7254469 -0.7310726 -0.7546467 -0.7915942 -0.8667669 -0.824231
-0.91382885 -0.7618122 -0.77869475 -0.8689567 -0.7331374 -0.9429491 -0.819038 -0.85669845
-0.8270453 -0.8975964 -0.83515114 -0.7422643 -0.9480206 -0.74910563 -0.89355874 -0.78495824
-0.88851315 -0.9072552 -0.8983593 -0.76545656 -0.9302908 -0.97240347 -0.9406242 -0.7601631
-0.84640855 -0.8110774 -0.91375744 -0.94118655 -0.8882546 -0.96904194 -0.84074336 -0.9554608
00000000: 57ff 72bf 7720 51bf 5fbb 67bf 9df3 77bf
00000010: 57ce 5bbf 0cf8 5cbf d48d 41bf 238f 50bf
00000020: be08 71bf 60f8 62bf 536e 4abf 72d3 42bf
00000030: 00bd 47bf f3cf 51bf 2265 44bf 0421 45bf
00000040: de58 4fbf e803 51bf 7211 3abf 8f83 5cbf
00000050: c6b1 6fbf 90d7 6bbf 0eb5 59bf ae68 6ebf
00000060: 0982 58bf 1b44 60bf 5f1d 47bf 8c53 57bf
00000070: 5ca6 37bf fc7a 58bf e77e 5cbf 52ca 1cbf
00000080: 82b7 2fbf a80b 2dbf a189 3abf 7315 43bf
00000090: e298 8bbf 2550 28bf 1b51 2fbf e271 1abf
000000a0: 7a7c 4fbf 0b0d 2cbf c7ae 48bf bad7 17bf
000000b0: 7413 2bbf 2984 24bf c120 29bf 9559 3ebf
000000c0: efcd 3fbf 5e8e 48bf 0d2c 43bf d636 05bf
000000d0: 25c7 40bf 56f7 01bf 35dc 32bf fcea 0cbf
000000e0: 8753 2fbf 4eee 14bf 1344 11bf 2b6a 3dbf
000000f0: 5c33 efbe 5c00 1cbf a871 27bf 875b 0dbf
00000100: 5848 29bf 6842 e0be 433a fcbe 7c03 11bf
00000110: 52d2 e2be 17d9 46bf f506 0abf 93d8 21bf
00000120: 9b96 ffbe 3fc3 1bbf 0998 24bf 80aa 28bf
00000130: 9d2f 37bf 585f 0dbf eef8 0ebf 5f0d 27bf
00000140: fefc 12bf 5a64 43bf 6771 39bf 12ca 4ebf
00000150: 58ed 3bbf a32a 4fbf f917 19bf 5331 4cbf
00000160: 943d 49bf bb76 4ebf e3b6 39bf 9327 3bbf
00000170: 8730 41bf eba5 4abf 70e4 5dbf ce00 53bf
00000180: b0f0 69bf 2006 43bf 8a58 47bf f273 5ebf
00000190: e5ae 3bbf 1d65 71bf 79ac 51bf 9750 5bbf
000001a0: 3eb9 53bf e1c8 65bf 77cc 55bf 0805 3ebf
000001b0: 7ab1 72bf 63c5 3fbf 44c0 64bf 06f3 48bf
000001c0: 9975 63bf e041 68bf e0fa 65bf f6f4 43bf
000001d0: 8a27 6ebf 6fef 78bf bfcc 70bf 0d9a 42bf
000001e0: 3bae 58bf c5a2 4fbf 02ec 69bf 9af1 70bf
000001f0: a764 63bf 2213 78bf f53a 57bf 1499 74bf
